pav_spkid_pytorch/lp_model_hsize_130_lr0001/bestval_e10_weights.ckpt (torch_old, 318518 bytes, 8 tensors)

0.weight f4 [130, 189]
-0.00052968157 0.74575424 -0.53738666 -0.17724901 -0.3537307 0.45374086 -0.60490936 -0.2836105
0.3342594 -0.010374676 0.5879138 -0.6032713 -0.07334311 -0.6520762 0.6318127 -0.3501402
-0.3811502 0.09636703 -0.026737645 0.5343742 -0.6088605 -0.20105097 -0.48624405 0.5057497
-0.2928598 -0.50992197 0.118843146 -0.016585534 0.3952491 -0.5673787 -0.26519847 -0.2909014
0.33148277 -0.2017556 -0.5239115 0.18229571 0.024485203 0.37419415 -0.32439065 -0.4283508
-0.16298306 0.22807957 -0.16863444 -0.38947394 0.2077752 -0.01276928 0.24456257 -0.3196761
-0.5208518 0.053215798 0.08074796 -0.21782364 -0.31757587 0.28226003 0.012289852 0.24392086
-0.09205322 -0.80754685 0.11180986 -0.14789444 -0.22084466 -0.09895793 0.23887171 0.021446794
0.10973782 -0.05747644 -0.7674015 0.33076656 -0.15752552 -0.19620728 -0.01482224 0.2413855
-0.015075671 0.17189963 0.020018807 -0.8178326 0.31833166 -0.2479933 -0.20327355 0.13991517
0.110712446 0.030319182 0.20825171 -0.057338335 -0.7868248 0.3272814 -0.34542722 -0.18363488
0.22473949 0.21079805 -0.0556514 0.2496667 -0.018835362 -0.66293776 0.31302708 -0.28407502
-0.22095554 0.22139658 0.1844744 0.044995856 0.28107846 -0.051438265 -0.6821429 0.18380861
-0.31232855 -0.19361185 0.36727753 0.21149938 0.003363931 0.27605894 -0.06537598 -0.70427
0.16909096 -0.2676355 -0.21939698 0.22356482 0.13321856 -0.008944312 0.19004734 0.03528884
-0.7081843 0.2337037 -0.26436147 -0.22268116 0.2392011 0.10664646 0.016443718 0.27247393
0.021283047 -0.76114213 0.118528575 -0.16275477 -0.25998193 0.25283083 0.19710815 0.0039081722
0.26447323 -0.07520054 -0.71234864 0.22153439 -0.25347143 -0.12675251 0.0034220582 0.19422212
0.024279863 0.33985406 -0.16218476 -0.68606997 0.14965805 -0.08690454 -0.08131106 -0.0016155477
0.19005217 -0.03014323 0.34430796 -0.19927467 -0.50257653 -0.0032882546 -0.103156485 -0.09643625
-0.077248015 0.21946798 0.03062792 0.46783045 -0.25587073 -0.49269247 -0.057837863 0.081105545
-0.04845486 -0.16831708 0.3068023 -0.0024097573 0.6702035 -0.41592297 -0.26586974 -0.20662178
0.20249349 -0.22296189 -0.21672712 0.36143255 -0.011064887 0.7294041 -0.34010917 -0.28855792
-0.13541897 0.08234889 -0.29689386 -0.037370898 0.4285778 -0.012795999 0.17439507 -0.048975974
0.007013058 -0.47291213 0.05303122 -0.56401104 0.31223932 1.2148201 0.032096036 -0.015499709
0.18466695 -0.18796895 -0.07777959 -0.071548596 -0.3873592 0.22123688 1.0031806 0.031182932
0.0025203803 0.32941926 -0.22481409 0.24845575 -0.35968947 -0.13097718 -0.043950558 0.90517163
-0.003813471 0.08691872 0.27613407 -0.2224079 0.34757102 -0.31801215 -0.08727788 -0.1706122
0.8584534 -0.055045858 0.15457244 0.19402944 -0.057047207 0.06726508 -0.21208458 -0.14256923
-0.15060973 0.8174856 -0.06988968 0.26807302 0.15753467 0.040184245 -0.09401195 0.09355153
-0.36317864 -0.11839507 0.82011575 0.0017644132 0.12937604 0.012686084 0.21036191 -0.17120762
0.09445638 -0.36173013 -0.008978155 0.7628647 0.036108468 -0.008801212 -0.06901238 0.1565202
00000000: 54da 0aba c0e9 3e3f 2c92 09bf c480 35be
00000010: 311c b5be b950 e83e 57db 1abf 6535 91be
00000020: 0c24 ab3e 8cfa 29bc 8581 163f fd6f 1abf
00000030: ea34 96bd 77ee 26bf 7abe 213f 9445 b3be
00000040: 1e26 c3be 145c c53d e808 dbbc bfcc 083f
00000050: 48de 1bbf 4ee0 4dbe fbf4 f8be d078 013f
00000060: b8f1 95be 3f8a 02bf 0964 f33d 63de 87bc
00000070: 175e ca3e bb3f 11bf 18c8 87be 07f1 94be
00000080: 1cb8 a93e 0599 4ebe 101f 06bf baab 3a3e
00000090: 3195 c83c 6096 bf3e 8816 a6be cc50 dbbe
000000a0: 08e5 26be b18d 693e 82ae 2cbe 2169 c7be
000000b0: 06c3 543e 3e36 51bc 9c6e 7a3e 96ac a3be
000000c0: 8b56 05bf cff8 593d 305f a53d 290d 5fbe
000000d0: 4e99 a2be 6384 903e 605b 493c 64c6 793e
000000e0: 6686 bcbd 64bb 4ebf 91fc e43d a471 17be
000000f0: 1a25 62be 75aa cabd c99a 743e 30b1 af3c
00000100: 39be e03d 6a6c 6bbd 6d74 44bf 3c5a a93e
00000110: 5f4e 21be 90ea 48be fbd8 72bc c32d 773e
00000120: f2ff 76bc 7506 303e 7bfe a33c 7a5d 51bf
00000130: 5efc a23e f5f1 7dbe f126 50be ec45 0f3e
00000140: 35bd e23d ef5f f83c f03f 553e 9adb 6abd
00000150: 5a6d 49bf 6d91 a73e d6db b0be c80a 3cbe
00000160: 1c22 663e 72db 573e b9f2 63bd a1a8 7f3e
00000170: 9e4c 9abc 4ab6 29bf 1645 a03e 4872 91be
00000180: 2b42 62be c9b5 623e dbe6 3c3e 934d 383d
00000190: 84e9 8f3e eeb0 52bd eba0 2ebf 5338 3c3e
000001a0: 87e9 9fbe 2f42 46be cd0b bc3e 4b93 583e
000001b0: 6675 5c3b 9957 8d3e d8e3 85bd 0a4b 34bf
000001c0: 2e26 2d3e 8507 89be 9aa9 60be 2dee 643e
000001d0: 726a 083e 2a8b 12bc c59b 423e 088b 103d
000001e0: 914b 35bf 0650 6f3e 635a 87be 8806 64be
000001f0: 22f1 743e 7669 da3d fab4 863c b481 8b3e
00000200: c959 ae3c 36da 42bf 1cbf f23d 30a9 26be
00000210: 5a1c 85be 0b73 813e b8d6 493e 2010 803b
00000220: 0969 873e be02 9abd 7b5c 36bf e9d9 623e
00000230: 02c7 81be 69cb 01be 9c44 603b 2ae2 463e
00000240: 90e6 c63c 5a01 ae3e c313 26be 48a2 2fbf
00000250: f63f 193e 02fb b1bd 6a86 a6bd c9c0 d3ba
00000260: 099d 423e efee f6bc 2249 b03e a90e 4cbe
00000270: dba8 00bf c27f 57bb b543 d3bd 5e80 c5bd
00000280: 3534 9ebd 37bc 603e 67e7 fa3c 7987 ef3e
00000290: 7d01 83be 3042 fcbe 65e7 6cbd aa1a a63d
000002a0: 9a78 46bd 505b 2cbe 3115 9d3e 05ed 1dbb
000002b0: 7592 2b3f dbf3 d4be 1420 88be a994 53be
000002c0: 745a 4f3e 1f50 64be b7ed 5dbe b00d b93e
000002d0: 8049 35bc 3aba 3a3f ca22 aebe ddbd 93be
000002e0: 45ab 0abe 89a6 a83d 7902 98be 3a12 19bd
000002f0: 8d6e db3e 4fa6 51bc 9f94 323e 089b 48bd
00000300: cbcd e53b 8a21 f2be 4437 593d 0763 10bf
00000310: d5dd 9f3e 3a7f 9b3f 2277 033d 7ef2 7dbc
00000320: 5519 3d3e ef7a 40be e84a 9fbd 1288 92bd
00000330: f253 c6be ec8b 623e 3968 803f 5973 ff3c
00000340: f72c 253b a4a9 a83e aa35 66be 2f6b 7e3e
00000350: 3829 b8be e21e 06be 8005 34bd 54b9 673f
00000360: 6deb 79bb 7102 b23d 7261 8d3e e6be 63be
00000370: d4f4 b13e 7dd2 a2be bfbe b2bd f7b4 2ebe
00000380: 9ac3 5b3f c477 61bd 3d48 1e3e a7af 463e
00000390: 55aa 69bd 46c2 893d b32c 59be abfd 11be
000003a0: 7039 1abe bc46 513f 5222 8fbd de40 893e
000003b0: c550 213e 3c98 243d 5689 c0bd f297 bf3d
000003c0: 8df2 b9be 1d79 f2bd 1bf3 513f e243 e73a
000003d0: 277b 043e 4bd9 4f3c 1d69 573e 0d51 2fbe
000003e0: 5972 c13d b134 b9be 1d19 13bc 1a4b 433f
000003f0: 79e6 133d f532 10bc 5d56 8dbd d546 203e

0.bias f4 [130]
-0.44959828 -0.29525253 0.3673396 -0.41289467 0.3604858 1.0287801 0.08201416 0.0916508
1.5345136 0.7916701 -0.46788612 0.7579231 -1.067648 -0.20708624 0.08417281 0.2550179
-0.23273718 0.029753895 -0.20078322 1.7315989 -1.4203695 0.69009477 0.66296875 -0.0060397545
1.2507437 -0.05890761 -0.30876005 -0.12397162 -0.6414202 0.31709138 -0.5950936 -0.079138204
0.5470276 1.3141696 -0.6379841 0.45282286 -0.31713936 0.1038609 0.20734382 -0.009911736
-0.525339 1.9909587 0.43996435 -1.0749327 0.11545055 1.9945655 0.063244596 0.39936393
-1.197378 2.229166 0.17066821 -0.12917294 2.6127186 -0.35677433 0.9193387 -0.029053215
0.022282973 1.2196671 -0.77628464 0.10784148 -0.17146929 0.39782798 1.066405 1.456371
-0.30140495 0.022638936 0.4184936 0.0406652 0.39475343 0.10310717 0.3304846 -0.097116575
1.9275367 -0.7718425 -0.07021036 0.5634926 -0.3354037 0.07683347 1.7496756 -0.2102187
0.010298105 -0.6271785 -0.033322 0.14729752 0.4618059 0.08188666 0.5697083 -0.6402638
-0.17456666 -0.12686516 -0.20367542 0.035397187 0.12954155 0.54753137 -1.0358937 -0.0066976217
0.123733975 0.24894054 -0.115337 -0.72878915 -0.27978513 0.06110033 -0.048166893 -0.23928958
0.14881273 1.355454 -0.91614187 0.038770072 -0.23424001 -0.4361743 -0.06838227 -0.40220916
0.954909 0.6350753 2.1815813 -0.14598928 -0.49666542 0.74508506 0.07049696 0.082398966
0.34593806 -0.0799062 0.054983217 0.45742375 0.9448034 -0.17554598 0.13338509 0.15378286
-0.01111735 0.09222999
00000000: bf31 e6be 572b 97be f013 bc3e ee66 d3be
00000010: 9891 b83e 11af 833f 0af7 a73d 6ab3 bb3d
00000020: f16a c43f e4aa 4a3f c58e efbe 4007 423f
00000030: b1a8 88bf 6a0e 54be cb62 ac3d b591 823e
00000040: a852 6ebe 71be f33c 1e9a 4dbe 08a5 dd3f
00000050: abce b5bf 0daa 303f 52b8 293f 22e9 c5bb
00000060: 5f18 a03f 1b49 71bd cc15 9ebe d5e4 fdbd
00000070: 1d34 24bf cd59 a23e 0e58 18bf 3613 a2bd
00000080: 000a 0c3f b636 a83f ed52 23bf 66d8 e73e
00000090: 1760 a2be 06b5 d43d f051 543e d564 22bc
000000a0: 9e7c 06bf bcd7 fe3f 0243 e13e 6597 89bf
000000b0: 5771 ec3d ec4d ff3f 6286 813d 6e79 cc3e
000000c0: af43 99bf a8aa 0e40 a6c3 2e3e e945 04be
000000d0: c836 2740 20ab b6be c859 6b3f 0201 eebc
000000e0: c88a b63c 0d1e 9c3f 97ba 46bf fedb dc3d
000000f0: a595 2fbe 1cb0 cb3e f67f 883f 5d6a ba3f
00000100: c051 9abe 4a75 b93c cb44 d63e 8e90 263d
00000110: 1f1d ca3e da29 d33d 4735 a93e 0ee5 c6bd
00000120: 86b9 f63f 7897 45bf 73ca 8fbd 0d41 103f
00000130: 09ba abbe de5a 9d3d 5ff5 df3f 9243 57be
00000140: 62b9 283c c58e 20bf a67c 08bd 29d5 163e
00000150: d371 ec3e 31b4 a73d 67d8 113f 54e8 23bf
00000160: 9ac1 32be f1e8 01be 4a90 50be a4fc 103d
00000170: 8aa6 043e 042b 0c3f 2a98 84bf b977 dbbb
00000180: 3d68 fd3d 45ea 7e3e ce35 ecbd ed91 3abf
00000190: ff3f 8fbe 5744 7a3d a64a 45bd 5408 75be
000001a0: 5d62 183e 847f ad3f 4688 6abf 5ecd 1e3d
000001b0: 9ddc 6fbe 3d52 dfbe 010c 8cbd 5cee cdbe
000001c0: eb74 743f 4b94 223f 079f 0b40 377e 15be
000001d0: ee4a febe e5bd 3e3f b660 903d cac0 a83d
000001e0: cb1e b13e dda5 a3bd 1536 613d 7233 ea3e
000001f0: a3de 713f 53c2 33be 1a96 083e 4179 1d3e
00000200: 8c25 36bc 14e3 bc3d

2.weight f4 [130, 130]
-0.05826468 -0.087476216 -0.13260497 -0.011628912 -0.11175875 -0.21476732 -0.014572328 -0.049604792
0.003065947 -0.17790805 -0.19439036 -0.006465967 -0.076024026 -0.08251324 0.01598211 0.11812546
-0.024172904 -0.13381043 -0.071007505 -0.1571793 0.037715588 0.15173797 -0.07205852 0.014462329
0.10828835 -0.008562658 -0.1073041 0.054025475 -0.107878126 0.077098355 0.09489401 -0.094638735
0.025660003 0.23172936 0.077867925 -0.058943562 -0.0053592087 0.09312806 -0.13576934 -0.026803076
0.051960744 0.015518182 -0.0049774833 0.022398856 0.046121825 -0.17288321 0.06350075 -0.035660863
0.12361894 -0.040976793 -0.062262066 0.06124918 0.22371252 0.056630164 -0.032228786 -0.06598026
-0.016890332 0.1737649 0.09212761 -0.13399859 -0.07814066 -0.064580075 0.005819422 -0.19798401
-0.038885374 -0.0048251236 -0.20456369 0.038334526 -0.013740112 -0.15048873 -0.11516027 -0.022502156
-0.23686816 -0.0053347964 -0.017076425 -0.04371281 -0.2248421 0.058577016 -0.17782682 -0.11977809
-0.017410772 -0.007193496 -0.037436377 0.27712685 0.18461607 -0.03178077 0.21835397 -0.08056152
0.013671715 0.058858566 -0.18275322 0.032013588 -0.0368528 -0.38038048 -0.06974372 0.0321742
-0.11346768 -0.12163083 -0.04908338 -0.17553817 -0.15830666 -0.057610475 0.057134885 0.08631112
0.069044024 -0.025763571 -0.13534792 0.07275445 0.24846767 -0.086153574 -0.010612825 -0.20914975
-0.075384505 -0.0756034 -0.06318532 0.018529357 0.07460932 -0.21713383 -0.042296708 0.06896241
0.16458611 -0.019830968 0.043161817 -0.022991914 -0.15495063 0.016920054 0.09302796 -0.047509458
-0.053348977 0.008793796 -0.11606722 0.022659464 0.0087779295 0.021222845 0.006235722 -0.114534535
0.05852828 0.053914256 -0.06417121 -0.02154162 0.0006196712 -0.3717658 -0.081730425 -0.088226594
0.050785497 0.12914482 0.036639478 -0.06179134 -0.02276888 0.124298826 -0.00135486 -0.018446282
0.020203296 0.019872192 0.039744973 0.032094985 -0.03378335 0.0035588292 0.042873383 -0.0026698695
0.0101106465 0.0025244441 0.063982435 -0.020130113 0.048346397 0.12587894 -0.011935146 0.017420985
0.0059314715 0.02283682 0.027965546 -0.39760947 -0.07523162 0.005418046 -0.09376468 0.032444898
-0.06753863 -0.06889576 -0.16698995 0.41850457 -0.002655209 0.0022825245 0.14202759 -0.07175078
0.04959149 -0.04846368 0.026368398 -0.13267124 0.009699208 0.08235938 0.003832501 -0.026077196
-0.049669158 -0.008221375 0.017754698 0.031322684 0.104310006 0.028010447 0.0073391013 0.008899135
-0.08226107 0.10092052 -0.33787152 -0.008531044 -0.0022701463 -0.051717784 0.12830506 -0.02622128
0.26771227 -0.033082474 0.033481978 0.039755248 0.011742566 0.083049715 0.046230763 0.11414031
-0.042568594 0.025719127 -0.04524454 0.08694386 -0.09301697 0.058263574 0.10833308 -0.023072876
0.016877972 0.033239793 -0.081361555 0.02313526 -0.10350471 0.021969428 -0.014951669 -0.1353272
-0.054025147 -0.061032813 0.06631341 0.12067781 0.01633118 0.0010416515 -0.12013993 0.03452492
0.0775798 0.04475073 -0.0046976805 -0.06491222 0.6195573 -0.0042140656 -0.0348357 -0.06455304
-0.17710468 -0.070287205 0.08674053 0.14323357 -0.016982678 0.0075594303 0.013340451 -0.033110533
00000000: f2a6 6ebd bb26 b3bd 99c9 07be 3187 3ebc
00000010: c6e1 e4bd f7eb 5bbe c6c0 6ebc 652e 4bbd
00000020: 0eee 483b 872d 36be 440e 47be 76e0 d3bb
00000030: 7cb2 9bbd b4fc a8bd eaec 823c c3eb f13d
00000040: 4106 c6bc 9a05 09be 626c 91bd 9cf3 20be
00000050: a97b 1a3d 3361 1b3e 6b93 93bd 68f3 6c3c
00000060: 48c6 dd3d 644a 0cbc 41c2 dbbd d149 5d3d
00000070: 35ef dcbd bee5 9d3d ca57 c23d f4d1 c1bd
00000080: ed34 d23c 764a 6d3e 3879 9f3d ce6e 71bd
00000090: 4d9c afbb edb9 be3d 1e07 0bbe 2092 dbbc
000000a0: cad4 543d f93f 7e3c 281a a3bb ce7d b73c
000000b0: 3dea 3c3d 4c08 31be ae0c 823d 2011 12bd
000000c0: ed2b fd3d 48d7 27bd 8206 7fbd 6ce0 7a3d
000000d0: e514 653e 08f5 673d 5502 04bd a920 87bd
000000e0: 985d 8abc 6def 313e 67ad bc3d ed36 09be
000000f0: 3608 a0bd 8f42 84bd dab0 be3b 52bc 4abe
00000100: 4546 1fbd 121c 9ebb 2579 51be aa04 1d3d
00000110: 351e 61bc b819 1abe 26d9 ebbd 7156 b8bc
00000120: 918d 72be 84cf aebb dce3 8bbc 340c 33bd
00000130: 023d 66be 74ee 6f3d 3c18 36be 374e f5bd
00000140: 09a1 8ebc 6bb7 ebbb e356 19bd 92e3 8d3e
00000150: ff0b 3d3e 8d2c 02bd 2f98 5f3e 70fd a4bd
00000160: 54ff 5f3c ae15 713d a923 3bbe ae20 033d
00000170: f6f2 16bd 3bc1 c2be ccd5 8ebd 18c9 033d
00000180: be61 e8bd 9619 f9bd a70b 49bd 47c0 33be
00000190: 241b 22be f6f8 6bbd 4506 6a3d e2c3 b03d
000001a0: f466 8d3d 200e d3bc a598 0abe 4900 953d
000001b0: 4f6e 7e3e 4971 b0bd 6ae1 2dbc 5a2b 56be
000001c0: 3163 9abd f5d5 9abd 4e67 81bd e1ca 973c
000001d0: c5cc 983d 5558 5ebe 503f 2dbd 2a3c 8d3d
000001e0: 4389 283e 8e74 a2bc 72ca 303d 8a59 bcbc
000001f0: 61ab 1ebe ed9b 8a3c 7185 be3d 4799 42bd
00000200: 7584 5abd db13 103c a7b4 edbd 57a0 b93c
00000210: 4ed1 0f3c 88db ad3c 0755 cc3b 1591 eabd
00000220: 5abb 6f3d 32d5 5c3d 326c 83bd 0d78 b0bc
00000230: 6e71 223a 1658 bebe 4862 a7bd 25b0 b4bd
00000240: 7404 503d 8a3e 043e 4713 163d eb18 7dbd
00000250: cd85 babc 6290 fe3d 8f95 b1ba a81c 97bc
00000260: 6281 a53c 02cb a23c a0cb 223d 0876 033d
00000270: 6960 0abd 3f3b 693b 009c 2f3d faf8 2ebb
00000280: 20a7 253c 2571 253b 3909 833d e8e7 a4bc
00000290: df06 463d 69e6 003e a18b 43bc 74b6 8e3c
000002a0: ca5c c23b 4814 bb3c 0018 e53c 7893 cbbe
000002b0: 0913 9abd dd89 b13b b207 c0bd f1e4 043d
000002c0: b151 8abd 3819 8dbd 6aff 2abe 3b46 d63e
000002d0: 0403 2ebb 6896 153b ae6f 113e 13f2 92bd
000002e0: 7220 4b3d da81 46bd 8a02 d83c f8da 07be
000002f0: 6de9 1e3c 09ac a83d b22a 7b3b d89f d5bc
00000300: e371 4bbd f2b2 06bc 4d72 913c 374c 003d
00000310: 7ca0 d53d 2a76 e53c d87c f03b adcd 113c
00000320: 7e78 a8bd 6baf ce3d 7ffd acbe cbc5 0bbc
00000330: bcc6 14bb 07d6 53bd 6762 033e 03ce d6bc
00000340: 9511 893e 7d81 07bd 6624 093d 66d6 223d
00000350: e463 403c f815 aa3d 785c 3d3d 65c2 e93d
00000360: 685c 2ebd ebb0 d23c 5752 39bd 9f0f b23d
00000370: ae7f bebd c9a5 6e3d bcdd dd3d 5403 bdbc
00000380: ac43 8a3c 7326 083d e3a0 a6bd 2886 bd3c
00000390: 47fa d3bd 3bf9 b33c d8f7 74bc 3793 0abe
000003a0: 7949 5dbd 8bfd 79bd 53cf 873d ed25 f73d
000003b0: f8c8 853c 0688 883a ec0b f6bd 016a 0d3d
000003c0: 28e2 9e3d 8b4c 373d 00ef 99bb b3f0 84bd
000003d0: 4f9b 1e3f 2516 8abb e1af 0ebd 6234 84bd
000003e0: ee5a 35be bdf2 8fbd 05a5 b13d d2ab 123e
000003f0: 421f 8bbc 19b5 f73b e891 5a3c e99e 07bd

2.bias f4 [130]
-0.044858124 0.9823049 -0.15168542 0.055852063 -0.19937035 0.29562905 -0.5184509 0.110893264
-0.028058374 0.4537957 0.06242132 -0.8275156 -0.8181461 -0.44510067 1.1911904 -0.09162065
-0.6339943 0.052878708 0.65879047 1.2148184 0.015587461 0.02472101 -1.4418893 -1.3950367
1.3734881 0.22000903 1.7130523 -1.1722924 -0.10996152 0.6149134 -0.18563579 1.3023428
-1.4769655 0.6550444 -0.80486596 0.036893852 -0.004898337 1.1451136 1.5165167 0.17620227
0.1574828 0.25419268 1.4771231 0.28123498 0.5559351 0.021271572 -0.3856743 -0.06989379
0.37572902 -0.21736862 1.3006176 0.19530548 1.0577724 0.022912972 0.9364566 1.4412696
0.44729918 0.27619758 1.4918648 -0.3095494 -0.9924009 -0.29262647 0.09955299 1.3211073
0.39190158 -0.06551616 -0.7738421 0.11544288 -0.044778984 0.5324031 0.014226988 -0.0868463
0.6893858 -0.38365263 0.14610508 -1.0284739 -0.37105578 1.3343351 0.91897446 1.0439844
-0.582346 -0.024508275 -1.0885009 0.4001356 -0.14958891 0.2547106 0.14178628 0.38360766
1.0126059 0.6862297 0.2920342 0.45761418 2.0788388 -1.3676647 0.14875664 0.07003564
-0.98644245 0.50221217 -0.014673474 -1.0333165 0.28887647 0.43309015 0.18601678 -0.12108378
0.68736047 1.079798 1.8986404 0.74849933 1.1190906 0.07569821 0.17814931 -0.0408725
-0.113597676 -0.42944753 -0.08124879 0.9598854 -0.18479657 -0.06745464 0.85153794 0.67477447
-0.42744973 0.6162066 1.6345176 -0.21291654 -0.10713299 0.0013460455 0.06271975 0.10197363
0.4667954 -0.05425236
00000000: 27bd 37bd 5578 7b3f 6c53 1bbe 22c5 643d
00000010: be27 4cbe b15c 973e 33b9 04bf 021c e33d
00000020: adda e5bc e957 e83e 7fad 7f3d 10d8 53bf
00000030: 0672 51bf 3ce4 e3be ed78 983f 9ba3 bbbd
00000040: 734d 22bf 5897 583d 7ea6 283f 2b7f 9b3f
00000050: 8d62 7f3c b783 ca3c d48f b8bf 9090 b2bf
00000060: 75ce af3f 0c4a 613e 4c45 db3f ad0d 96bf
00000070: 8133 e1bd f76a 1d3f 4f17 3ebe 2bb3 a63f
00000080: 350d bdbf fdb0 273f b20b 4ebf 021e 173d
00000090: 3b82 a0bb 1593 923f 381d c23f 5e6e 343e
000000a0: 2c43 213e 8b25 823e 5f12 bd3f 08fe 8f3e
000000b0: c351 0e3f b841 ae3c 1a77 c5be 7a24 8fbd
000000c0: 8e5f c03e e195 5ebe a37a a63f 29fe 473e
000000d0: 1665 873f fcb3 bb3c 9fbb 6f3f 867b b83f
000000e0: 6604 e53e c569 8d3e 6df5 be3f 427d 9ebe
000000f0: fc0d 7ebf 23d3 95be 70e2 cb3d 0b1a a93f
00000100: 53a7 c83e 562d 86bd 841a 46bf 516d ec3d
00000110: 2b6a 37bd 924b 083f 5018 693c 79dc b1bd
00000120: 967b 303f 1e6e c4be 929c 153e 08a5 83bf
00000130: 06fb bdbe 7ecb aa3f e941 6b3f 48a1 853f
00000140: a114 15bf 94c5 c8bc ff53 8bbf 93de cc3e
00000150: d62d 19be 6e69 823e 6c30 113e 3968 c43e
00000160: 129d 813f c0ac 2f3f 8285 953e 684c ea3e
00000170: b20b 0540 a30f afbf a953 183e d86e 8f3d
00000180: 7e87 7cbf fa90 003f 0369 70bc b743 84bf
00000190: 9ee7 933e febd dd3e 2f7b 3e3e c6fa f7bd
000001a0: dbf6 2f3f d236 8a3f a606 f33f a79d 3f3f
000001b0: 5c3e 8f3f aa07 9b3d c66c 363e ec69 27bd
000001c0: e6a5 e8bd 8ce0 dbbe c465 a6bd 0dbb 753f
000001d0: 503b 3dbe a925 8abd 64fe 593f 05be 2c3f
000001e0: b1da dabe b7bf 1d3f df37 d13f cb06 5abe
000001f0: 8b68 dbbd cb6d b03a 3673 803d 8dd7 d03d
00000200: cfff ee3e b937 5ebd

4.weight f4 [130, 130]
0.06009363 -0.0016636148 0.037568644 -0.08405191 -0.07559194 -0.10491971 0.05248298 0.049966462
-0.07381143 -0.015426529 -0.12539758 0.11749223 0.04318822 0.039013065 -0.069015756 0.067936696
-0.118409865 0.075350985 0.07911141 -0.027737133 -0.049480394 -0.007050753 0.07748231 0.09164365
-0.0023602543 0.006999097 -0.021131214 0.097231075 -0.04627811 0.019563759 -0.06601656 0.16658454
-0.05221268 -0.06323586 0.11016477 0.00046929717 0.06688733 -0.13431786 -0.023738984 -0.027364476
-0.10645949 0.036942054 -0.10684753 0.029128922 0.063365825 -0.045988865 -0.04954727 -0.010582351
-0.061345674 -0.09327692 -0.07643267 0.031761475 -0.029164826 0.07826027 0.010604399 -0.04049951
-0.0043089124 0.052550774 -0.19749656 0.05149975 0.05186037 -0.007904003 -0.00792863 -0.08430673
-0.03049354 -0.08276961 -0.06032253 -0.09682868 0.032616325 0.023910804 -0.042824615 -0.057288907
-0.16675444 0.024675302 0.026906548 -0.12295027 -0.006703881 -0.08170152 -0.040889613 0.011934449
-0.014529845 -0.036401816 0.12055886 -0.015202263 -0.097027555 -0.0034344643 0.022173231 0.053287644
0.010887683 0.06841842 0.069383055 0.11989125 0.015941026 0.025061563 -0.07862017 -0.022562303
0.14674984 -0.026105113 -0.008692585 0.07972346 -0.13848586 -0.107340835 0.04935216 0.021331938
0.09608779 0.10322556 -0.004134017 0.08123591 -0.016713927 0.0036984037 -0.0031081703 -0.05762158
-0.057838894 0.09671107 -0.035741992 -0.05654393 0.010739595 0.04846047 -0.0746051 0.024384104
0.014577019 -0.10187744 -0.05546687 0.04036586 0.100595355 -0.008427333 0.07704036 -0.06628294
-0.11176277 -0.051689677 -0.043435615 0.0027804223 -0.008060028 0.048141163 0.008008655 -0.02534535
-0.056433365 0.013028924 0.063448645 0.110348895 -0.06559376 -0.12970553 -0.15728737 0.18444535
0.06589871 0.023158528 0.058262713 0.025618853 -0.008632269 -0.042487994 -0.007355186 0.005982112
-0.025578367 -0.020929014 0.031169863 0.04136925 0.115290195 -0.22194774 0.10088803 0.0027161103
0.052292533 0.20432821 0.007919412 -0.0732851 -0.04369829 0.101826966 0.0634187 0.1052299
-0.024748504 -0.17495237 0.029893685 -0.013049151 0.07119269 -0.1066979 0.04599481 -0.14625424
-0.032443177 -0.06131673 -0.03630308 -0.0020383464 -0.065163516 -0.15358558 0.037709158 0.04221464
0.06883123 0.052823603 0.057061866 -0.33237535 0.21113703 -0.05690184 -0.07272147 0.0009735297
-0.13769236 -0.027427122 0.05846698 -0.04864923 0.023896137 -0.28396782 -0.115052484 -0.09561141
-0.021910131 -0.013875815 -0.0059794746 0.0833057 0.03228132 0.057146855 -0.055770755 0.082637355
0.1229025 -0.0034170018 0.02837234 -0.0054992996 0.06937876 -0.110021934 0.11183885 0.047595374
0.22103271 0.0809003 -0.0031798542 -0.03207593 0.0009007249 0.052876435 0.088673174 -0.00037978005
-0.041753452 0.042258993 -0.16672702 0.009887529 -0.06956213 -0.06447203 0.15391314 0.12587175
0.024456747 -0.030446453 0.09960154 -0.06143689 -0.07297818 -0.114725344 -0.20294848 0.014816337
-0.08370313 0.06615706 -0.08851273 -0.082821496 0.08137895 0.29508194 -0.100228876 0.0075937575
-0.027359547 0.047406733 -0.036792964 0.0030266247 0.1412479 -0.02446665 -0.046875034 0.020949168
00000000: bd24 763d a60d daba 94e1 193d 6823 acbd
00000010: f2cf 9abd 25e0 d6bd 65f8 563d a2a9 4c3d
00000020: 722a 97bd 8dbf 7cbc 3968 00be c49f f03d
00000030: 22e6 303d 2acc 1f3d 2258 8dbd 6522 8b3d
00000040: df80 f2bd 9e51 9a3d 2a05 a23d fc38 e3bc
00000050: f4ab 4abd 010a e7bb 0caf 9e3d aaaf bb3d
00000060: 7fae 1abb ae58 e53b 5e1b adbc 1621 c73d
00000070: 1e8e 3dbd 2d44 a03c b133 87bd 2395 2a3e
00000080: f7dc 55bd cd81 81bd 119e e13d 000c f639
00000090: 39fc 883d 9f8a 09be 4278 c2bc 772b e0bc
000000a0: 6f07 dabd 8d50 173d e1d2 dabd c79f ee3c
000000b0: f1c5 813d d25e 3cbd 14f2 4abd 9961 2dbc
000000c0: 9a45 7bbd f807 bfbd bb88 9cbd 5218 023d
000000d0: 13eb eebc ec46 a03d 13be 2d3c d0e2 25bd
000000e0: c731 8dbb 7b3f 573d 8a3c 4abe 67f1 523d
000000f0: 8a6b 543d cb7f 01bc 16e7 01bc 02a9 acbd
00000100: 97cd f9bc 1d83 a9bd c214 77bd 1d4e c6bd
00000110: b298 053d 97e0 c33c dd68 2fbd c6a7 6abd
00000120: adc1 2abe dc23 ca3c 1f6b dc3c 5acd fbbd
00000130: 3bac dbbb 2053 a7bd de7b 27bd b588 433c
00000140: 960e 6ebc 121a 15bd 90e7 f63d ea12 79bc
00000150: 62b6 c6bd c014 61bb a3a4 b53c 2544 5a3d
00000160: 4162 323c f51e 8c3d b418 8e3d 8b89 f53d
00000170: c196 823c e84d cd3c 9d03 a1bd 94d4 b8bc
00000180: 9745 163e 64da d5bc 586b 0ebc 0e46 a33d
00000190: 3dcf 0dbe 83d5 dbbd 7e25 4a3d 51c0 ae3c
000001a0: adc9 c43d ec67 d33d a676 87bb 035f a63d
000001b0: a5eb 88bc eb60 723b 72b2 4bbb 9b04 6cbd
000001c0: 7ae8 6cbd 7410 c63d 3266 12bd 9c9a 67bd
000001d0: 20f5 2f3c 7c7e 463d 8fca 98bd 2cc1 c73c
000001e0: 73d4 6e3c 1fa5 d0bd 3b31 63bd ac56 253d
000001f0: f004 ce3d cc12 0abc 56c7 9d3d 5abf 87bd
00000200: e1e3 e4bd 8eb8 53bd 8be9 31bd bf37 363b
00000210: 350e 04bc ab2f 453d bc36 033c 0da1 cfbc
00000220: ac26 67bd 4577 553c 5df1 813d 9afe e13d
00000230: 0556 86bd 87d1 04be f10f 21be 3edf 3c3e
00000240: e7f5 863d f4b6 bd3c e2a4 6e3d a1de d13c
00000250: 5c6e 0dbc e407 2ebd c603 f1bb 9805 c43b
00000260: b989 d1bc 5373 abbc f157 ff3c cd72 293d
00000270: 441d ec3d 4546 63be 629e ce3d c500 323b
00000280: b230 563d 6a3b 513e 6cc0 013c 8016 96bd
00000290: fafc 32bd a88a d03d aae1 813d c682 d73d
000002a0: 60bd cabc b726 33be 9ae3 f43c 1bcc 55bc
000002b0: 79cd 913d 6e84 dabd 0e65 3c3d acc3 15be
000002c0: 23e3 04bd 4027 7bbd 8ab2 14bd c795 05bb
000002d0: 7374 85bd 8a45 1dbe eb74 1a3d 42e9 2c3d
000002e0: 63f7 8c3d 905d 583d b4b9 693d 1a2d aabe
000002f0: 4e34 583e e711 69bd feee 94bd 7934 7f3a
00000300: 3aff 0cbe d8ae e0bc 127b 6f3d 6a44 47bd
00000310: d5c1 c33c 3b64 91be a3a0 ebbd eacf c3bd
00000320: e07c b3bc 6357 63bc 78ef c3bb 2e9c aa3d
00000330: 6b39 043d d212 6a3d e06f 64bd c63d a93d
00000340: 4eb4 fb3d c7ef 5fbb 1c6d e83c 7833 b4bb
00000350: 7416 8e3d 2e53 e1bd c40b e53d 5ef3 423d
00000360: 6656 623e 0eaf a53d 1a65 50bb 0d62 03bd
00000370: a01e 6c3a f694 583d 489a b53d 371d c7b9
00000380: ab05 2bbd c417 2d3d 7dba 2abe 4dff 213c
00000390: 9776 8ebd e909 84bd 689b 1d3e 86e4 003e
000003a0: 8459 c83c d76a f9bc e4fb cb3d 40a5 7bbd
000003b0: 9675 95bd 1ff5 eabd bad1 4fbe 39c0 723c
000003c0: 8c6c abbd 5a7d 873d 2a46 b5bd 519e a9bd
000003d0: 02aa a63d fb14 973e cc44 cdbd 0ed5 f83b
000003e0: 2121 e0bc 902d 423d 38b4 16bd 565a 463b
000003f0: 4aa3 103e 496e c8bc 0900 40bd 979d ab3c

4.bias f4 [130]
-0.04234296 0.8175206 -0.63024473 -0.07992409 -0.13454038 0.3103639 0.027982078 -0.33073533
0.3106724 0.077029996 0.2618986 0.3161231 -0.17237401 0.99599236 -0.066848144 0.4531451
-0.31443226 -0.13571268 0.031654034 -0.07447075 0.011556689 0.5858604 -0.10048677 0.7315155
0.11779323 0.030721843 -0.44907135 -0.0071336497 0.35525095 -0.7294297 0.2733163 1.5395107
0.21407531 0.12832227 0.04245425 0.07627731 0.21350913 -0.07138412 0.015946146 -0.04954487
-0.034306582 -0.09321051 -0.08078316 -0.061261367 -0.096354984 0.051342204 -0.024927903 0.060156718
0.8098835 0.38873726 0.4127305 0.0258818 -0.093900464 0.26833582 0.38116735 0.9740484
0.5046635 0.07551068 -0.58313966 -0.09699449 0.03268408 -0.057768516 0.3729777 0.32419154
0.15077083 0.4810967 0.21170801 0.43720946 -0.019194936 0.1457755 -0.28512463 0.13255778
0.7547376 -0.070433855 -0.07057739 -0.029300276 -0.022514017 0.04974297 0.2457797 0.03036233
0.051086046 0.795013 0.6859685 -0.022291232 0.36716262 -0.10188613 -0.06874442 0.29355055
0.06479653 0.7903988 0.78678155 0.42290246 -0.1454464 0.16833696 0.93675804 0.21601686
0.25472745 -0.052006885 0.06546244 1.0159811 0.27021632 -0.13586581 -0.08757926 0.32455334
0.044672973 0.7346479 0.25894612 -0.05597734 -0.043591492 1.0389473 -0.25652114 -0.10456729
0.3050376 0.3764094 0.28255615 -0.051947694 -0.23683143 0.119535595 -0.24571334 -0.011178091
-0.44238314 0.61516154 0.21162973 -0.27707347 1.2535293 0.2554906 0.02543566 -0.39445356
-0.1559348 0.00799096
00000000: d06f 2dbd 0849 513f b857 21bf 3eaf a3bd
00000010: f4c4 09be 04e8 9e3e ac3a e53c 2456 a9be
00000020: 7410 9f3e e7c1 9d3d 9317 863e e3da a13e
00000030: d082 30be 5bf9 7e3f aee7 88bd a202 e83e
00000040: 44fd a0be 44f8 0abe a9a7 013d 1f84 98bd
00000050: 4458 3d3c f2fa 153f 02cc cdbd 9a44 3b3f
00000060: 943d f13d 60ac fb3c aeec e5be 64c1 e9bb
00000070: 74e3 b53e e8bb 3abf 1df0 8b3e b00e c53f
00000080: 8f36 5b3e ea66 033e 82e4 2d3d 4737 9c3d
00000090: 23a2 5a3e d631 92bd 7ea1 823c 90ef 4abd
000000a0: 0f85 0cbd 27e5 bebd a471 a5bd 33ed 7abd
000000b0: c355 c5bd 344c 523d 9a35 ccbc e466 763d
000000c0: 8654 4f3f 9208 c73e 6951 d33e 1206 d43c
000000d0: e34e c0bd 5063 893e 5e28 c33e 3c5b 793f
000000e0: a131 013f 58a5 9a3d a448 15bf 0ca5 c6bd
000000f0: bedf 053d ae9e 6cbd eff6 be3e 6ffc a53e
00000100: ab63 1a3e 4f52 f63e fcc9 583e ebd9 df3e
00000110: b33e 9dbc 2c46 153e dbfb 91be 3abd 073e
00000120: 7c36 413f a03f 90bd e18a 90bd 2207 f0bc
00000130: 516f b8bc 49bf 4b3d acad 7b3e 6cba f83c
00000140: 9a3f 513d f985 4b3f a29b 2f3f 1a9c b6bc
00000150: bdfc bb3e ada9 d0bd e0c9 8cbd 424c 963e
00000160: 0bb4 843d 9357 4a3f 846a 493f ac86 d83e
00000170: e7ef 14be 8660 2c3e 60cf 6f3f 8633 5d3e
00000180: a36b 823e 2c05 55bd 2c11 863d ab0b 823f
00000190: cb59 8a3e 6820 0bbe c15c b3bd db2b a63e
000001a0: 02fb 363d e311 3c3f 9694 843e 7f48 65bd
000001b0: fe8c 32bd 3afc 843f bd56 83be 6027 d6bd
000001c0: e32d 9c3e bcb8 c03e 33ab 903e 1bc7 54bd
000001d0: f083 72be 14cf f43d 479c 7bbe 5024 37bc
000001e0: 0b80 e2be 3a7b 1d3f 77b5 583e 93dc 8dbe
000001f0: a673 a03f aacf 823e 725e d03c d1f5 c9be
00000200: 5fad 1fbe 84ec 023c

6.weight f4 [157, 130]
-0.104386955 0.023328956 0.074683696 -0.10505564 0.07042031 -0.18436438 -0.069041185 0.006170735
0.011665695 -0.04719751 0.077278115 -0.13412397 0.048772223 -0.07041661 -0.0028517237 -0.11584623
-0.32180634 0.10123566 -0.06024427 -0.023891652 -0.123475656 -0.18347651 0.047308534 0.03956156
-0.110433444 0.1396912 -0.24361272 0.06479826 0.067393295 -0.2070749 -0.12473236 -0.04546511
-0.15300816 0.06957811 -0.13248754 -0.19322303 0.011799523 -0.18011984 -0.11577818 0.016052928
0.07410849 0.06467268 -0.075381935 -0.03027037 0.05767532 -0.050049633 -0.07586441 -0.05048432
0.16763423 0.10844755 -0.09444274 0.050768442 0.021249253 0.08265847 -0.13928995 0.18592498
0.041763246 0.15611252 -0.14400223 0.078847 -0.0797366 -0.09397245 -0.028478734 0.3076897
0.05441576 -0.05433376 0.084934905 -0.10438395 -0.08595265 0.11666794 0.10863901 -0.035349928
-0.5150821 0.007757388 -0.0012572123 0.0143476 0.074942775 -0.023961628 -0.14821227 -0.084433176
0.32233393 -0.004382755 0.083023235 -0.25880226 -0.0141870715 0.0805312 0.005277068 -0.12780307
-0.14996251 0.0360206 0.061357297 -0.10136332 -0.35532826 -0.0078895 0.110873364 0.04681396
-0.0006424693 -0.055270564 0.09481852 -0.11598368 0.18420261 -0.31382236 -0.05195334 0.02450359
0.068912916 0.09088873 -0.18794948 0.022073695 0.013409767 -0.020475265 -0.060422596 -0.21277604
0.20934345 0.011246807 0.024224903 -0.03687028 -0.15707824 0.08315416 -0.04460736 0.018595845
-0.26840225 0.014806289 0.054287415 0.081287764 0.035957374 -0.12211894 0.016957646 0.11888222
-0.044810638 -0.06522992 -0.020656431 0.111443505 0.03733729 -0.0129308645 0.024180941 -0.02358567
-0.00644935 0.24101701 -0.434074 -0.18731223 0.14002758 -0.14369467 -0.11954879 -0.010078653
-0.16821009 0.25133672 0.33580136 -0.15099804 -0.033480197 -0.06814686 0.12703368 0.1034304
0.026339665 -0.057329495 -0.04673136 -0.060544413 -0.12280598 0.01676474 -0.20775406 0.06089417
-0.1745922 -0.034639735 0.073980905 0.035703972 -0.36257765 -0.040356882 -0.10324005 -0.04222965
-0.07230232 -0.042101327 -0.055815924 -0.03266793 -0.06270437 0.060826726 0.038804695 -0.18550436
-0.04220269 0.016355656 -0.21508636 -0.27537498 -0.091117755 -0.0041308086 -0.0034307498 0.02182458
-0.24300264 -0.81031 -0.04532058 -0.01267573 0.08574188 0.022660397 0.04534206 -0.0011278894
-0.19040093 -0.037830066 0.012738324 -0.09147061 0.15545978 0.14840853 -0.08296587 0.085163906
-0.053778723 0.1051009 0.22801739 0.012443474 0.036341608 0.020385632 -0.005476411 -0.05415817
-0.065943435 -0.04280235 -0.10030768 0.15197298 -0.58593786 0.058879174 0.020546447 -0.06198017
0.036032744 0.028282331 0.15015447 -0.09289866 0.115537986 -0.21174644 0.12903649 0.038661778
-0.19181085 0.06556085 0.11112809 -0.03905462 -0.12954658 -0.14433527 -0.09798487 0.051778346
0.0013617806 -0.18462765 -0.00191076 -0.09306585 -0.32100138 0.036451913 -0.0394095 -0.0857319
0.059366077 0.00576335 -0.54607636 0.021061707 -0.016086906 0.052182432 -0.020663282 -0.00022219478
0.08009073 0.046110947 0.115618795 -0.02160674 -0.06292104 -0.09354116 -0.046978645 -0.033581
00000000: d4c8 d5bd 5e1c bf3c c4f3 983d 6927 d7bd
00000010: 8638 903d 04ca 3cbe 7765 8dbd e133 ca3b
00000020: 7921 3f3c 2d52 41bd fd43 9e3d cb57 09be
00000030: 62c5 473d 9536 90bd fce3 3abb ca40 edbd
00000040: cdc3 a4be a454 cf3d b2c2 76bd 6db8 c3bc
00000050: cee0 fcbd 44e1 3bbe 98c6 413d 4d0b 223d
00000060: ee2a e2bd 360b 0f3e 9d75 79be f3b4 843d
00000070: 7f05 8a3d 710b 54be ae73 ffbd a039 3abd
00000080: 2cae 1cbe f87e 8e3d d0aa 07be 42dc 45be
00000090: c952 413c 5671 38be 1c1d edbd 6e81 833c
000000a0: 31c6 973d 1c73 843d d861 9abd 91f9 f7bc
000000b0: f53c 6c3d d800 4dbd cd5e 9bbd a5c8 4ebd
000000c0: 4fa8 2b3e c019 de3d 326b c1bd 92f2 4f3d
000000d0: ea12 ae3c d848 a93d 06a2 0ebe 1e63 3e3e
000000e0: f00f 2b3d f6db 1f3e 5275 13be 897a a13d
000000f0: f14c a3bd a174 c0bd 3c4c e9bc 8189 9d3e
00000100: 0fe3 5e3d 148d 5ebd 5af2 ad3d 41c7 d5bd
00000110: f107 b0bd 9aef ee3d 217e de3d 16cb 10bd
00000120: 6cdc 03bf b031 fe3b 0bc9 a4ba 3212 6b3c
00000130: 997b 993d 2d4b c4bc f5c4 17be 4deb acbd
00000140: f408 a53e 379d 8fbb 1608 aa3d bb81 84be
00000150: e470 68bc 8bed a43d 41eb ac3b cfde 02be
00000160: c68f 19be 568a 133d ca51 7b3d 9397 cfbd
00000170: 96ed b5be f642 01bc 9311 e33d ffbf 3f3d
00000180: 636b 28ba 6363 62bd 3630 c23d da88 edbd
00000190: 9c9f 3c3e 53ad a0be 07cd 54bd c1bb c83c
000001a0: 3722 8d3d df23 ba3d d475 40be e5d3 b43c
000001b0: a4b4 5b3c bebb a7bc af7d 77bd f6e1 59be
000001c0: 215e 563e 8744 383c 4e73 c63c 4a05 17bd
000001d0: 1ed9 20be ba4c aa3d 35b6 36bd 5056 983c
000001e0: 056c 89be 1496 723c 7b5c 5e3d 337a a63d
000001f0: 0a48 133d 7f19 fabd c3ea 8a3c 8578 f33d
00000200: 5c8b 37bd 4497 85bd ad37 a9bc 7e3c e43d
00000210: fcee 183d fadb 53bc 1c17 c63c bc36 c1bc
00000220: 1255 d3bb 2acd 763e f33e debe c7ce 3fbe
00000230: 6463 0f3e b224 13be ffd5 f4bd ef20 25bc
00000240: 443f 2cbe 35af 803e 28ee ab3e 3b9f 1abe
00000250: 8822 09bd 9590 8bbd 1e15 023e 51d3 d33d
00000260: 48c6 d73c 55d2 6abd 6269 3fbd 6bfd 77bd
00000270: b481 fbbd 3556 893c 7bbd 54be 2a6c 793d
00000280: 4cc8 32be 65e2 0dbd 4d83 973d 543e 123d
00000290: c7a3 b9be 424d 25bd 856f d3bd fff8 2cbd
000002a0: 3d13 94bd 7172 2cbd 3d9f 64bd cfce 05bd
000002b0: 266b 80bd 7225 793d acf1 1e3d dbf4 3dbe
000002c0: badc 2cbd 4cfc 853c 993f 5cbe f3fd 8cbe
000002d0: f29b babd bc5b 87bb 6ed6 60bb 76c9 b23c
000002e0: afd5 78be 7a70 4fbf 13a2 39bd ddad 4fbc
000002f0: 7099 af3d 4ca2 b93c 99b8 393d b0d5 93ba
00000300: 76f8 42be b3f3 1abd 67b4 503c f154 bbbd
00000310: d930 1f3e 68f8 173e 03ea a9bd 6a6a ae3d
00000320: 1447 5cbd 243f d73d 647d 693e b6df 4b3c
00000330: f0da 143d c5ff a63c 7773 b3bb f5d4 5dbd
00000340: 5a0d 87bd 8451 2fbd 1d6e cdbd ce9e 1b3e
00000350: 0600 16bf 4a2b 713d 0651 a83c ebde 7dbd
00000360: 1297 133d 59b0 e73c 18c2 193e a741 bebd
00000370: 2e9f ec3d 0fd4 58be 2422 043e d05b 1e3d
00000380: 106a 44be c444 863d 2097 e33d bdf7 1fbd
00000390: dca7 04be a0cc 13be 4bac c8bd 8815 543d
000003a0: c67d b23a 080f 3dbe 7772 faba 4f99 bebd
000003b0: 4b5a a4be 9a4e 153d db6b 21bd 3594 afbd
000003c0: d829 733d 7cda bc3b a9cb 0bbf 9a89 ac3c
000003d0: b0c8 83bc 3fbd 553d 0b46 a9bc f5fc 68b9
000003e0: 9c06 a43d d5de 3c3d 8cc9 ec3d 9e00 b1bc
000003f0: bfdc 80bd 8292 bfbd ae6c 40bd 3b8c 09bd

6.bias f4 [157]
0.06107205 -0.29699513 -0.57764786 0.047277454 -0.52470976 0.26940164 -0.11396098 -0.26378936
0.7947438 -0.40489233 -0.6552593 0.13010107 -0.8191255 0.24846925 0.25992766 -0.0257545
-0.3948454 0.2060921 0.4941836 -1.0093572 -0.07276156 -0.38093117 -0.3807147 0.36456892
0.17046687 1.0653068 -0.14469227 -0.4808219 -0.36991864 0.07382227 -0.67141575 0.07512354
0.042441703 -0.48917276 -0.15537632 -0.42876905 -0.82843035 0.061017796 -0.18264489 -0.15694325
-0.048749346 -0.15016554 -0.238645 0.19822814 0.7682377 -0.35994864 -0.15831272 -0.29409635
0.0860843 0.9655258 0.29626295 0.29256758 -0.78366476 -0.36056632 -1.192517 0.8656489
-0.61940587 -0.51758325 0.11986937 0.22042663 -0.41213322 -0.23367241 0.29102513 -0.21713483
0.4062556 0.035466384 -0.4718202 -0.07714882 0.65024275 0.179502 0.055309694 -0.4323916
0.16695176 0.39281744 0.18648987 0.38486663 0.1538939 0.23175651 -0.4525884 0.06706073
0.9120682 0.75425667 -0.16326933 -0.7828033 -0.33099028 0.4904675 -0.025737224 0.16729437
0.38101777 0.08992732 0.13067989 -0.08116463 0.7044783 0.4089008 0.4388429 -0.5455327
-0.5315727 -0.15010048 -0.45595503 -0.2510335 0.23965527 -0.26107594 0.56192106 -0.6605782
-0.24116832 -0.31457943 -0.1948204 0.094039716 0.7454474 -0.17378676 -0.14010008 -0.21054937
0.015524897 0.24394359 0.4111263 0.28363672 -0.91069263 -0.02102593 -0.019780364 -0.10857014
0.24669197 -0.92198217 0.21052979 -0.07691457 -0.37311417 0.46958894 0.58558285 0.0044956477
0.49295053 0.35567665 0.57034075 0.06775337 0.036060914 -0.043017767 -0.7919507 -0.579221
-0.78326935 0.3309491 -0.571132 0.40872732 0.881402 -0.0063387 0.2505742 0.0063098553
0.3647668 0.64875925 0.19168003 -0.015477293 0.24334762 0.24292038 0.579973 0.36204633
-0.3472283 -0.79153234 0.057084642 0.4894772 0.609185
00000000: b026 7a3d bf0f 98be bbe0 13bf 01a6 413d
00000010: 6153 06bf 03ef 893e 6064 e9bd 660f 87be
00000020: 5474 4b3f 0c4e cfbe 13bf 27bf 3739 053e
00000030: 35b2 51bf b96e 7e3e 3d15 853e 1afb d2bc
00000040: 2d29 cabe cf09 533e a205 fd3e 9e32 81bf
00000050: 0304 95bd 6909 c3be 0aed c2be c7a8 ba3e
00000060: de8e 2e3e f95b 883f 362a 14be 4a2e f6be
00000070: fa65 bdbe 2130 973d e7e1 2bbf 5fda 993d
00000080: 5ad7 2d3d da74 fabe f81a 1fbe 9e87 dbbe
00000090: 0314 54bf cced 793d 4307 3bbe bbb5 20be
000000a0: 65ad 47bd ffc4 19be 5b5f 74be 51fc 4a3e
000000b0: 3aab 443f 304b b8be bb1c 22be cc93 96be
000000c0: f74c b03d b32c 773f c7af 973e 6bcb 953e
000000d0: 419e 48bf 269c b8be 66a4 98bf 2b9b 5d3f
000000e0: 6291 1ebf 5680 04bf 127e f53d 85b7 613e
000000f0: 2003 d3be d247 6fbe 3f01 953e 9858 5ebe
00000100: bc00 d03e 3345 113d 6b92 f1be 3300 9ebd
00000110: 4f76 263f 5fcf 373e 6b8c 623d 6f62 ddbe
00000120: 67f5 2a3e 5e1f c93e 33f7 3e3e 3d0d c53e
00000130: 5d96 1d3e 9451 6d3e abb9 e7be 2357 893d
00000140: 4d7d 693f f716 413f 1330 27be cc65 48bf
00000150: 8f77 a9be 8e1e fb3e dfd6 d2bc 374f 2b3e
00000160: c314 c33e d12b b83d f3d0 053e a439 a6bd
00000170: b158 343f 725b d13e 04b0 e03e 08a8 0bbf
00000180: 2615 08bf f1b3 19be f072 e9be 7787 80be
00000190: 3168 753e bfab 85be 0fda 0f3f a71b 29bf
000001a0: d4f4 76be 8e10 a1be 007f 47be e597 c03d
000001b0: a4d5 3e3f 28f5 31be 6576 0fbe 419a 57be
000001c0: 235c 7e3c 59cc 793e 257f d23e d538 913e
000001d0: 2723 69bf 923e acbc 6e0a a2bc 065a debd
000001e0: d29c 7c3e 0607 6cbf 1f95 573e 6385 9dbd
000001f0: d208 bfbe f66d f03e c2e8 153f 3a50 933b
00000200: 0364 fc3e 401b b63e da01 123f 47c2 8a3d
00000210: 9cb4 133d 6633 30bd 48bd 4abf d447 14bf
00000220: 5784 48bf 2972 a93e b535 12bf b544 d13e
00000230: 90a3 613f dfb4 cfbb 434b 803e e7c2 ce3b
00000240: b7c2 ba3e 1615 263f c547 443e 7994 7dbc
00000250: 1e30 793e 1fc0 783e 1c79 143f 235e b93e
00000260: e8c7 b1be dda1 4abf 96d1 693d c19c fa3e
00000270: 8cf3 1b3f
