pav_spkid_pytorch/lp_model_hsize_130_lr0001/e14_weights.ckpt (torch_old, 318518 bytes, 8 tensors)

0.weight f4 [130, 189]
00000000: 6b46 96bc e02e 883f b0b4 44bf b464 9abc
00000010: a012 34bf 0772 293f a8f3 02bf 4056 bcbe
00000020: dd29 e53e 9f72 0fbc 50ef 5e3f a86d 52bf
00000030: e2f6 ad3d cc52 6bbf 5cfb 463f bedf 24be
00000040: 939e febe f41e 683e 9df7 70bc f08a 3f3f
00000050: f127 42bf 5623 adbd 2cf6 26bf 65af 1b3f
00000060: 398b 4cbd ec6a 1ebf 165b 7d3e 4168 44bc
00000070: 4e0c 0b3f b577 28bf 9c2a 48be c957 c4be
00000080: 3d77 d93e a8e4 d4bc 3f65 07bf 0db5 6a3e
00000090: 33d0 ee3b e104 eb3e 21d4 b4be a664 debe
000000a0: e496 3bbe 0ad4 933e b303 12bd bc0d abbe
000000b0: 6ec8 683e 521f a1bb 8763 8f3e f585 9bbe
000000c0: f336 14bf e54e 663d 1493 043e 7c3f f9bd
000000d0: ae62 52be 0b63 963e 699f a33a 8eca 5f3e
000000e0: 76ea 2abd a71c 6bbf e198 003e 90db bfbd
000000f0: 450e 4dbe f74e c33d 2fef 463e 5a59 8f3c
00000100: 8552 053d ef19 b13c e817 6fbf 5b3a b23e
00000110: b103 f3bd bb19 4fbe 903e 563e 6ab9 253e
00000120: 3ff9 4ebc 230d 243d 22dc 103e 4d45 87bf
00000130: ca51 b83e 07f6 73be 50a2 66be 67ba bd3e
00000140: 687f babb 7c91 c33c caad 123d 0030 b13d
00000150: 3e57 89bf 9321 c23e 80a3 bdbe e25e 5bbe
00000160: 4854 da3e e09d cd3d bbd2 0dbd 700e 923d
00000170: ea9b fd3d 0864 73bf e424 aa3e 2c3d 97be
00000180: 0201 8bbe 08d1 ea3e 141f 723d b43a 0f3d
00000190: a4a1 ab3d 7763 ba3d 83cd 7bbf 0e9d 483e
000001a0: a444 b0be 01c6 81be 08a1 143f a6a7 db3d
000001b0: 554b 6cba 4f4e d23d 83c3 6c3d 257e 7cbf
000001c0: d490 343e e07d 93be d7b8 90be c6cc d13e
000001d0: 959c a23c 8feb 0fbb 8b72 653d 0c72 113e
000001e0: a0d8 77bf ac19 713e c49b 98be 06f0 83be
000001f0: 8cca b03e e216 a63d b259 593c 9083 3a3e
00000200: 8721 c23d 128b 79bf 453e d93d 4859 37be
00000210: f8ee 93be 5dbe 923e 7966 593e 2c2d 93bb
00000220: 8932 693e 6e42 1cbd 6e5f 5cbf 42f1 333e
00000230: 9c30 71be 38b1 11be 62e9 c0bc 76c9 6d3e
00000240: 4e93 a93c fd06 b63e aecb 20be 3d08 46bf
00000250: 55da a33d 18fc 04bd a1cb adbd 32fd 2dbd
00000260: 4633 7a3e e27e bcbc 9525 cb3e ec7c 5cbe
00000270: edf5 10bf abcf 8dbd ed89 14bd c8c8 13bd
00000280: 9994 58be a003 9d3e 81f0 de3c 2857 0f3f
00000290: fee3 9cbe 56a1 08bf 46bd 12be 02af 223e
000002a0: 5292 593d a21f c3be 788f dc3e bf49 75bb
000002b0: 3c65 523f 4295 02bf 67bf 89be 5d75 abbe
000002c0: 0e08 a13e 4c99 d6bd 5da2 f2be f8f5 043f
000002d0: f339 eebb 3cb1 6b3f 4b31 dabe 39be a2be
000002e0: 09c2 7abe 3659 5f3e ec04 60be 0499 84be
000002f0: 1081 143f 1adc f5bc becc 1f3e 962a 51bd
00000300: 3d82 8abd 9e2c f8be dca5 3c3b 0a2a 20bf
00000310: 2349 ca3e d3a7 883f 1e2c 173d 2d69 69bc
00000320: e7d5 623e 877d 6cbe fcd5 73bd fa81 d6bd
00000330: 58bd e3be cbb6 a53e 6414 663f 3990 3b3d
00000340: 2080 c73c 2946 cd3e 1190 71be d219 9d3e
00000350: 5357 ccbe 8f26 17be 9ff4 013d 91c5 543f
00000360: 4983 803b 428e 053e 4415 b63e 1609 6abe
00000370: c7fe cf3e 2d85 b8be 1e5c c5bd deae b1bd
00000380: 0214 4e3f 7b34 6fbd ea49 5f3e 272e 823e
00000390: 4993 41bd bfe2 cc3d b370 84be 1c38 0cbe
000003a0: 8c62 74bd 9f5e 3f3f a98d c5bd 3f30 b13e
000003b0: b1a4 363e 12b0 863d 30b1 f4bd 97d8 b13d
000003c0: 0ab5 c2be f52e 09bd 658b 3e3f bccf 6abc
000003d0: 4175 5c3e 02ac b63c c9c0 663e b293 45be
000003e0: ddc3 d83d fc4e bfbe 2ea7 433d c1bc 313f
000003f0: 3c32 c53c dabf 103d 83be 5abd 7d84 f83d
-0.018344125 1.0639305 -0.7683821 -0.018846847 -0.7034092 0.66189617 -0.5115304 -0.36784554
0.44758502 -0.008755355 0.8708391 -0.8219857 0.08494355 -0.91923213 0.77727294 -0.16100976
-0.49730358 0.22668058 -0.014707473 0.74821377 -0.75842196 -0.084540054 -0.6521938 0.60814506
-0.04993746 -0.618819 0.24741778 -0.011987747 0.5431565 -0.6580766 -0.19547504 -0.38348225
0.42473784 -0.025987938 -0.52888864 0.22920628 0.007288003 0.4590216 -0.35318092 -0.43436164
-0.18319279 0.2887271 -0.03564806 -0.33408916 0.22732708 -0.0049170638 0.2800562 -0.3037564
-0.57896346 0.056227583 0.12946731 -0.12170312 -0.20545456 0.2937244 0.0012483421 0.21854612
-0.041727506 -0.91840595 0.12558319 -0.0936805 -0.20024975 0.09536546 0.19427179 0.01749866
0.0325494 0.021618811 -0.93395853 0.34810147 -0.118659385 -0.20224659 0.20922303 0.16184011
-0.012632667 0.04005159 0.14146474 -1.0568024 0.359999 -0.2382432 -0.22522855 0.37056276
-0.0056914575 0.023873083 0.03581027 0.086517334 -1.0729749 0.3791624 -0.37038803 -0.21422914
0.42642426 0.10039878 -0.034624796 0.0713166 0.12383254 -0.9507451 0.3323127 -0.29538858
-0.27149206 0.45862603 0.05911167 0.034968093 0.0838044 0.09101003 -0.9836046 0.19591162
-0.3442737 -0.25346377 0.58058214 0.10725336 -0.0009013911 0.102688424 0.057803642 -0.9862998
0.17633373 -0.28806973 -0.28266022 0.40976542 0.019850055 -0.0021960472 0.05601744 0.14203662
-0.9681492 0.2354495 -0.2980634 -0.2576906 0.3452953 0.08109833 0.013266014 0.1821425
0.09479051 -0.9747783 0.1060758 -0.17905152 -0.28893256 0.2866086 0.21230496 -0.004491469
0.22773184 -0.03814929 -0.86083114 0.17572501 -0.235537 -0.1422776 -0.023548786 0.23221382
0.020700123 0.35552207 -0.15702698 -0.7735632 0.08000628 -0.032466978 -0.08486105 -0.042477794
0.24433622 -0.023009721 0.3967711 -0.21532029 -0.5662525 -0.06924375 -0.03626435 -0.03608015
-0.21150436 0.30666828 0.02721429 0.55992365 -0.30642694 -0.5337118 -0.14330015 0.15887073
0.053118058 -0.3811007 0.43078208 -0.003742799 0.8218572 -0.51009 -0.2690384 -0.3348798
0.31451458 -0.10478458 -0.47389498 0.5193782 -0.0072700917 0.92067313 -0.42615733 -0.31785753
-0.24488081 0.21811375 -0.21876878 -0.25897992 0.58009434 -0.03001218 0.15605447 -0.051066004
-0.06763122 -0.4847154 0.0028785383 -0.62564147 0.39508924 1.0676216 0.036907308 -0.014246267
0.2215191 -0.2309476 -0.059530243 -0.1047401 -0.44480395 0.32366022 0.89874864 0.04579184
0.024353087 0.4009259 -0.23590113 0.30683762 -0.39910373 -0.14760803 0.03172743 0.8311396
0.0039219004 0.13042548 0.355631 -0.22855029 0.40624067 -0.36039105 -0.096367106 -0.086759314
0.8049928 -0.05839966 0.2180554 0.25425836 -0.047259603 0.10004186 -0.25867233 -0.13693279
-0.059664294 0.74753755 -0.0964616 0.3460712 0.17836262 0.065765515 -0.11947858 0.08683889
-0.38028747 -0.033492047 0.7443145 -0.014331754 0.21529104 0.022298817 0.22534479 -0.19294623
0.10584233 -0.37364948 0.047766857 0.6942864 0.024071805 0.035339214 -0.053404342 0.12134645

0.bias f4 [130]
00000000: a29c ecbe 9ebb 8abe e0e9 983e 4b28 c0be
00000010: f2e6 e23e b9c4 803f ff86 cb3d 88d3 da3d
00000020: 91b7 f83f 8fe8 793f aaf6 fcbe 47b0 4c3f
00000030: 8858 96bf 110b 82be 4904 1c3e 156f 983e
00000040: b60d 8fbe f49e cc3d 4732 5ebe 532b 0340
00000050: a77a c7bf 12ed 573f a1e5 693f 4ae9 b13c
00000060: c002 c83f b558 d8bd 268c 05bf 61c2 cdbd
00000070: 5a87 3abf a7b3 cd3e 73a0 05bf e591 babd
00000080: 14d5 303f 08f1 b43f 8be3 2bbf 042c 013f
00000090: 95b9 d4be 2889 023e 6eaa 3c3e d564 22bc
000000a0: 7ee0 11bf bbfe 1340 2536 073f 46dc 87bf
000000b0: a569 1f3e 0ed7 1440 8c4d e53d d3b2 f83e
000000c0: 26b8 aebf f8e4 2640 79c0 1e3e 8a1c d5bd
000000d0: eef3 3640 26a2 c4be 2621 5f3f 0201 eebc
000000e0: c462 9c3c 9657 c03f cebd 7bbf 42eb 2f3e
000000f0: a595 2fbe 3daa c73e 5d62 ac3f 7091 e63f
00000100: d880 86be 7514 a03d 688e e13e f7db 893c
00000110: 814b 083f d0fa c73c 7d24 de3e 0ee5 c6bd
00000120: 1b28 1240 5639 62bf b9a7 48be 614f 453f
00000130: 7104 ecbe ccd6 123e f80b 0540 9bbd 6fbe
00000140: 62b9 283c 4f45 2ebf a67c 08bd 78d7 dc3d
00000150: 51b9 0f3f c5e9 a33d 34ab 3e3f b4cd 32bf
00000160: 6c90 84be f1e8 01be 268e 45bd a4fc 103d
00000170: 965c 893d b021 3a3f 0da6 91bf e17b 2d3d
00000180: d39b fc3d 8fdb 733e f042 e8bd f90a 4fbf
00000190: d332 2fbe 2e8d ac3d a64a 45bd 4067 6bbe
000001a0: 0811 f73d 1751 cf3f 03da 8abf ac1b 543d
000001b0: f1af 83be 5d65 9ebe 010c 8cbd cac2 d1be
000001c0: f389 883f fa73 563f a97e 2340 a3f1 3dbe
000001d0: e870 f2be 35e3 743f b660 903d 3594 f93d
000001e0: 85e4 de3e ce5b 74bd 17e3 793d 0bd2 0a3f
000001f0: da7e 933f a15e 8abe 4c14 c23d f491 823e
00000200: 8c25 36bc f37f 2a3e
-0.4621325 -0.27096266 0.29865932 -0.3753074 0.44316822 1.0060035 0.09937858 0.10684878
1.943102 0.9762048 -0.4940694 0.7995648 -1.1745768 -0.25399068 0.1523601 0.2977225
-0.27940148 0.099912554 -0.21698867 2.0495193 -1.5584306 0.84346116 0.9136601 0.021717686
1.5625839 -0.105637945 -0.52166975 -0.100468405 -0.7286278 0.40176126 -0.5219795 -0.091098584
0.6907513 1.4136057 -0.6714408 0.5045779 -0.41547838 0.12747633 0.18424389 -0.009911736
-0.5698317 2.3124225 0.52816993 -1.0614097 0.15567644 2.325626 0.111964315 0.48573932
-1.3649948 2.6077251 0.1550311 -0.10405834 2.8586383 -0.3840496 0.87159956 -0.029053215
0.019090064 1.5026729 -0.98336494 0.17179587 -0.17146929 0.3899707 1.3467518 1.8013134
-0.26270175 0.07816402 0.4405396 0.01682852 0.5324021 0.024411589 0.43387213 -0.097116575
2.2836978 -0.8836874 -0.19595231 0.7707425 -0.4609714 0.14339751 2.0788555 -0.23412172
0.010298105 -0.68074507 -0.033322 0.10783285 0.56142145 0.080035724 0.74479985 -0.6984513
-0.25891435 -0.12686516 -0.048231266 0.035397187 0.067071125 0.72707653 -1.13788 0.04235447
0.123344086 0.23814224 -0.11340892 -0.8087612 -0.17109232 0.084253654 -0.048166893 -0.22988605
0.12063795 1.6196622 -1.0847782 0.051784202 -0.2572017 -0.3093671 -0.06838227 -0.40968925
1.0667099 0.83770716 2.5546057 -0.18549208 -0.47351766 0.9565919 0.07049696 0.121864714
0.43533722 -0.059657864 0.061007585 0.5422675 1.1523087 -0.2702532 0.094765276 0.25501978
-0.01111735 0.16650371

2.weight f4 [130, 130]
00000000: e7d2 6dbc b9a4 0ebe b460 04be 42ac 323d
00000010: 63f3 4abe 0495 7abe e648 90bd d7a4 083a
00000020: 579d 0cbd 75d3 68be b467 53be be8b f83c
00000030: 5917 89bd 1c55 a9bd d33e 36bd db11 3e3e
00000040: 570b 973c 9821 2dbe 4e22 cfbd c403 a3be
00000050: 43b4 9a3c ed1e 3f3e 2d4d 0fbe 68f3 6c3c
00000060: e462 303e 3a4d 45bd e378 f6bd 80c9 093e
00000070: 0dfb ffbd 7d10 003e 9cfc 963d 9368 2abe
00000080: 7a5f c2bd 8fd3 8d3e a782 3c3e ccc7 c3bd
00000090: 2eda b6bd 75ab 803c a143 25be 2092 dbbc
000000a0: ac35 7e3d 0314 6e3d 0764 3bbe 056b d0bc
000000b0: bdeb ba3d d876 28be b69b 1d3d e7f0 07be
000000c0: ec42 1c3e b963 cfbd 0348 a3bd 68eb 7d3d
000000d0: e13a 853e 8dbe 0fbb 05bb dbbc a920 87bd
000000e0: 07a7 2bbd dd6b 473e 0514 f53d 9ca9 e4bd
000000f0: 3608 a0bd d321 6abd ddd2 6b3c 8871 8bbe
00000100: 05b1 2fbd 1e36 46bc ff74 86be aa04 1d3d
00000110: e938 60bc 5822 31be d0d9 97bd 7156 b8bc
00000120: 268b 70be 2990 8c3d 670d 8fbd 2303 9dbd
00000130: cd15 69be 6fd8 a23d 1550 2ebe 3ebb 2dbe
00000140: 09a1 8ebc 00f6 bebc e356 19bd 2825 953e
00000150: 4b22 363e 2c00 44bd 227f 9d3e b83e f8bd
00000160: 59ba 313d ae15 713d ca74 5abe ae20 033d
00000170: dd9b 663c 2cde f8be 9c33 0ebd ca1e f03c
00000180: 65d3 35be 891a 02be ac19 8dbd 8645 7ebe
00000190: f8f8 2abe a803 b0bd 4506 6a3d ddfb 7e3d
000001a0: b3e5 ca3d 4270 b7bd 1d3e d2bd 3907 923d
000001b0: 7aee aa3e 5102 24be 6ae1 2dbc 923c 21be
000001c0: 5c24 0c3d 0086 9cbd 665b 05be dcfb 16bd
000001d0: c761 023e da7d 96be 503f 2dbd 3d07 9f3d
000001e0: f9b0 233e b6fd f0bc 72ca 303d a50b a7b9
000001f0: 4f83 2ebe 355c 8fbd b7ff b93d 4aec 96bc
00000200: 7584 5abd 4933 073c 0a0b 62bd 3fbd 393d
00000210: d87a aa3b 2900 c23c 365e ab3c a5e1 02be
00000220: 3204 933d 37e6 85bc f2aa 29be 1261 60bc
00000230: 86e6 e1bb a867 f0be bc7c bcbd 7b3f 83bd
00000240: 0ba7 5a3d 7899 1c3e 23c8 483d f93a 30bd
00000250: 0e67 10bc a7c4 113e 0946 bd3b 0cf1 51bd
00000260: 6756 073d 292b 4f3d a0a0 5a3c 6800 503d
00000270: 21ea c8bc 5053 9c3b 5a1a f83c efbf 2abc
00000280: f103 aa3b cd8e 73bb f7e2 3d3d f702 223d
00000290: 89c8 983c d3f5 823d c8d4 33ba 1007 b93b
000002a0: 3d1d cd3c 4814 bb3c 049a a33c 9499 2dbf
000002b0: 5be0 60bd 7410 8abc 9904 a1bd 66e5 edbb
000002c0: 1969 90bb 6a20 93bd 8ce9 0abe 8bd8 fd3e
000002d0: 430f 923c 24c6 1b3d 19be 133e 2356 0cbd
000002e0: 5b11 283d da81 46bd a251 1dbd a103 efbd
000002f0: 1215 e1bb 3e02 743d b22a 7b3b 2c81 333d
00000300: 07cb d7bc 03cc 473c 4c74 e93c 025d 433d
00000310: 8bab 9c3d fc29 033d 9def b03b 0a7f 67bc
00000320: 31be 9fbd 6baf ce3d fca4 03bf fd0f e0bc
00000330: 719d 713c 0ea7 b9bc 55d3 d33d 83dd ca3b
00000340: 2ee5 ec3e 62d9 16bd 6624 093d 4eeb db3c
00000350: e463 403c 9ed1 c63d 1e9f cb3c 27ad dd3d
00000360: 48c2 3dbd 7c86 da3a 1a9a 3abd 9f0f b23d
00000370: 5c3f 79bd c9a5 6e3d a490 fe3d 712e f2bc
00000380: 963c b9bc 1ca3 03bc 6627 c4bd 5fb5 e13c
00000390: ef81 afbd 6c58 27bc ff0c ab3c 5c26 21be
000003a0: 7949 5dbd 6809 97bd 41b0 ab3d 452d 553e
000003b0: 97c7 e63c ba08 313c 8817 8dbd 8afd 5b3c
000003c0: 28e2 9e3d 3944 e43c d83b e2bc c9fe c7bd
000003d0: ac3c 4c3f ca28 e3bc d09e 58bc 823f 8dbd
000003e0: ee5a 35be e42f 03be a536 0b3e 0b3c 133e
000003f0: 0bb1 d7bb e6aa f0bb 70b7 bbb8 46ad fcbb
-0.014515615 -0.13930024 -0.12927514 0.04362131 -0.19819407 -0.24470907 -0.07045154 0.00052125513
-0.03432974 -0.22736914 -0.20645028 0.030340072 -0.06693906 -0.082681865 -0.044493508 0.18561499
0.018438024 -0.16907346 -0.10113965 -0.3183881 0.018884784 0.18664141 -0.13994284 0.014462329
0.17225224 -0.048169352 -0.12034776 0.13455772 -0.12499056 0.1250629 0.073724 -0.16641454
-0.09490867 0.2770047 0.18409215 -0.095595926 -0.08928333 0.015706757 -0.1613908 -0.026803076
0.062062904 0.058124553 -0.18299876 -0.025441656 0.09126995 -0.16451585 0.038478576 -0.1327549
0.15259904 -0.101264425 -0.079727195 0.06199208 0.26021484 -0.0021933645 -0.026822576 -0.06598026
-0.041907337 0.1947474 0.11966709 -0.11165163 -0.07814066 -0.057161164 0.014393535 -0.27235055
-0.04289343 -0.0120978635 -0.26261136 0.038334526 -0.013685443 -0.17298257 -0.07414591 -0.022502156
-0.23490581 0.06863434 -0.06984978 -0.07666614 -0.22762223 0.07951438 -0.17022736 -0.16965958
-0.017410772 -0.023310661 -0.037436377 0.2912991 0.17786519 -0.047851726 0.30761057 -0.12121338
0.043390606 0.058858566 -0.21333614 0.032013588 0.014075247 -0.48607004 -0.034717187 0.029311556
-0.17756422 -0.12705435 -0.06889662 -0.24831209 -0.16696537 -0.085944474 0.057134885 0.062251914
0.09907093 -0.08956958 -0.102657534 0.07130284 0.33385068 -0.16016509 -0.010612825 -0.15745762
0.034214363 -0.07642746 -0.13023147 -0.036861286 0.12732612 -0.29392892 -0.042296708 0.077650525
0.15985478 -0.029417854 0.043161817 -0.00031861398 -0.17042278 -0.07000009 0.09081977 -0.018423218
-0.053348977 0.008251973 -0.05518631 0.045346495 0.0052026324 0.023681717 0.020918947 -0.12781389
0.071785346 -0.016345127 -0.16569117 -0.013695018 -0.0068939356 -0.46954083 -0.09203479 -0.06408592
0.05338196 0.15292919 0.04901899 -0.04302499 -0.008813633 0.14235173 0.005776171 -0.05125527
0.033041384 0.05057827 0.01334396 0.050781637 -0.024525704 0.004770674 0.030286003 -0.010421737
0.005188458 -0.0037163973 0.04635903 0.03955361 0.01865031 0.063945435 -0.0006860015 0.005646594
0.025038356 0.02283682 0.019970901 -0.67812467 -0.054901462 -0.016853549 -0.07862205 -0.0072600124
-0.00440706 -0.07183917 -0.13565654 0.49579272 0.017829543 0.03803076 0.14427985 -0.034261834
0.041032176 -0.04846368 -0.03840793 -0.11670614 -0.006868967 0.05957245 0.003832501 0.04382436
-0.026341928 0.012194636 0.028497837 0.04769612 0.07649907 0.03202246 0.005399658 -0.01412941
-0.07799948 0.10092052 -0.5142362 -0.027351374 0.01474701 -0.022662666 0.10343043 0.006190957
0.462686 -0.036828406 0.033481978 0.0268456 0.011742566 0.0970795 0.024856146 0.10824042
-0.04632786 0.001667216 -0.04555712 0.08694386 -0.06085144 0.058263574 0.12429932 -0.02956316
-0.022611897 -0.008034494 -0.09577827 0.027552305 -0.08569705 -0.0102139525 0.02088022 -0.15737289
-0.054025147 -0.07374841 0.08383227 0.2081805 0.028171344 0.010805303 -0.06889254 0.013427148
0.0775798 0.027864562 -0.027616426 -0.09765393 0.7978008 -0.02772941 -0.013221458 -0.06896879
-0.17710468 -0.12811238 0.13595064 0.14378373 -0.0065823845 -0.0073445914 -8.951023e-05 -0.0077110855

2.bias f4 [130]
00000000: d15e 23bc b1eb 763f 9171 cbbe f96a 0c3d
00000010: eb78 1ebe 2fdd b53e 04ef 24bf 8cc5 4a3e
00000020: dbe3 253d 8c47 013f 6cc0 623e d534 71bf
00000030: b01d 7abf caf9 f2be 9445 b13f 0eea bbbd
00000040: 5e91 41bf 3dcb 27be 2e93 3a3f d925 b03f
00000050: 3838 bc3d 4b44 993d 5a27 d6bf c4cf dbbf
00000060: f6cd db3f 34fd 0e3e 15f7 f13f 22f5 b0bf
00000070: 5970 28be 35a0 413f bba8 49be acc2 c23f
00000080: 030c e9bf 87b6 553f 2d15 73bf 73c8 013d
00000090: 6bc1 b1bb 316f be3f 8886 d23f 5308 063e
000000a0: aa52 753e 1b2f af3e bfc1 c93f 7c71 a03e
000000b0: 2747 173f 759c aa3d 6ad4 efbe fe5a c7bd
000000c0: c2e3 be3e bd28 72be 5acb ce3f 3e00 943e
000000d0: 7148 a43f 3258 ad3d cf0b 8a3f d376 b93f
000000e0: 61bb 163f a8c8 b43e 1ae4 c23f 46a6 03bf
000000f0: 8cea 85bf 5955 83be a172 893d 9089 cc3f
00000100: 29e7 ca3e 562d 86bd f983 59bf ac70 0d3e
00000110: d7c2 d83c c0ed 1c3f f9f0 963c 79dc b1bd
00000120: 2f4b 6f3f ce04 20bf 92c2 173e ebcb a1bf
00000130: 9efc f5be 47dc d43f c81f 823f e0c4 9f3f
00000140: 4314 4bbf 266d 05bd e04c 99bf e6d5 e33e
00000150: 0451 2cbe 19ed eb3e 8bc4 023e 1008 dc3e
00000160: 8add 9f3f 986c 5f3f 64d5 e73e ed64 353f
00000170: d352 1d40 f0cd d6bf 5118 323e 3392 5c3e
00000180: 1180 9dbf 1adf 1f3f 0ecf b7bc 2c16 a0bf
00000190: 2db4 da3e 4aed 123f fa3a 6c3e 5650 a5bd
000001a0: 422b 3e3f d6cf 9b3f 53fd 0740 de23 363f
000001b0: 873a b33f c21a 3a3d 37cb a63e 4759 5ebc
000001c0: 2a4d 19be 5856 e5be c465 a6bd 9f5c 933f
000001d0: ffdf 92be 74b0 7dbe fa0d 6c3f 2921 3b3f
000001e0: 98da 13bf ccb3 153f ccf8 df3f 15c2 95be
000001f0: b4c3 64be cb6d b03a a081 083d 849a 303e
00000200: 2bc3 fc3e 7c03 80bd
-0.009971336 0.96453387 -0.39735082 0.034281705 -0.15475814 0.35520312 -0.6442721 0.1980192
0.040500503 0.50499797 0.22143716 -0.9422124 -0.9770155 -0.474562 1.3849359 -0.09175502
-0.7561244 -0.16386123 0.7288083 1.376155 0.091904104 0.07483729 -1.6730759 -1.717278
1.7172229 0.13963777 1.8903528 -1.3824809 -0.16449107 0.7563508 -0.19693272 1.5215659
-1.8206791 0.8348164 -0.94954187 0.031685304 -0.0054246685 1.4877683 1.6447306 0.13089113
0.23957315 0.34215626 1.5762252 0.31336582 0.59092945 0.08330623 -0.46841747 -0.09734152
0.3728314 -0.23648353 1.6155808 0.28906435 1.2834607 0.084640875 1.0784854 1.4489387
0.5887967 0.3530934 1.5225861 -0.5142559 -1.0462203 -0.25651053 0.06711317 1.5979481
0.39629486 -0.06551616 -0.84967 0.13812512 0.026460094 0.6130028 0.018425452 -0.0868463
0.93474096 -0.6250733 0.14820316 -1.2640356 -0.48044294 1.6629723 1.0165949 1.2481956
-0.7932779 -0.032574795 -1.1976585 0.4449913 -0.1682778 0.4607933 0.12770288 0.429749
1.2489483 0.87275076 0.45279992 0.70857126 2.4581802 -1.6781597 0.17392088 0.21540146
-1.2304708 0.624498 -0.022437599 -1.2506766 0.42715588 0.57393324 0.23069373 -0.080719635
0.74284756 1.2172801 2.1248367 0.7114848 1.4002236 0.045435674 0.32576916 -0.01357109
-0.14970842 -0.44792438 -0.08124879 1.1512641 -0.2868652 -0.24774343 0.92208827 0.73097473
-0.5775542 0.58477473 1.7497802 -0.29249635 -0.2234028 0.0013460455 0.033326745 0.17246443
0.4936765 -0.062506646

4.weight f4 [130, 130]
00000000: 305f 8b3d 79de f1bb 47a2 cc3c af09 aabd
00000010: 8f52 8dbd bd82 b4bd af2b 6c3d 2870 0b3d
00000020: 077c 5abd 2cc0 17bd 2f01 dfbd 5856 f13d
00000030: 41a7 463d a006 043d 3d2c b5bd 3722 8b3d
00000040: 24d5 d0bd 2c6b 2c3e 0c60 b33d fef3 03bd
00000050: 3802 92bc ddfd 69bd d402 de3d 588d fb3d
00000060: 3c0c c4bb b79d 1a3c 1a3d 9ebc 5ac4 033e
00000070: 5833 8dbd cfb5 983b d034 a5bd 3c2d 103e
00000080: 60ce 49bd 9541 bdbd 3e81 083e 5d0f 583b
00000090: 36b0 8e3d 8c31 0bbe 388b 5abc 0c7f 113d
000000a0: d17e acbd 57c9 a6bc 6545 a7bd 15ee f63c
000000b0: e3a3 433d 662e 0fbd d6b4 09bd 4e6b 2c3d
000000c0: ef03 74bd 4ef0 efbd 1c5c 9fbd 3031 6e3d
000000d0: 3595 2dbd d417 bc3d b5aa 2cbc 930c aebc
000000e0: 0cfe c83b cd45 a43d eaea 24be a9da 413d
000000f0: 42c4 873d 789b ba3b c90c 783d bf3b 01be
00000100: be0c 06bc 1d83 a9bd 5c40 5fbd f6bf 64bd
00000110: 7c5a 403d 00d4 2f3d 3bc8 43bd c6a7 6abd
00000120: 0e2e 59be 9708 373d ab88 833d dafb ddbd
00000130: cf23 80bc 7b05 eabd 90ba ecbc f176 b0bc
00000140: 2075 f0b9 c278 cdbc 83fe 033e ebd9 cfbb
00000150: a13f c9bd 2eee 9f3c cf1e 44bd c3e8 873d
00000160: e2b3 39bb 57d8 7c3d af73 2a3d 6f1c bd3d
00000170: 6865 cf3a 7c30 4c3d 28e0 0fbc 7d33 4cba
00000180: edd5 233e b2d9 6bbb 20bb 023d f7b9 9a3d
00000190: 5692 01be 4df3 cfbd 4a92 933d e77d 5f3d
000001a0: 7ab0 9d3d 5ddb 8e3d 6da1 11bc 735b 2c3d
000001b0: 2789 cfbc eb60 723b 48c5 013c 35c4 9ebb
000001c0: ee5b 90bd 9688 c93d 3266 12bd a440 dfbd
000001d0: d060 8d3c d5c5 3c3d 3e38 93bd c39b 213c
000001e0: 10a8 953c c5e5 e0bd 5d3a 98bd f49c 6b3d
000001f0: 49e9 bd3d cc12 0abc ab10 8a3d ff46 e4bd
00000200: 57d9 04be 3524 2fbd 7d0d b2bd 3b88 c8bc
00000210: 7809 c1bc b7f5 fa3c 73cf 1c3d 9930 13bd
00000220: 01ae 70bd 8129 c93e 385e 113d 3db0 bd3d
00000230: 700a f7bd 8ca0 2dbe ff27 22be 3e72 5e3e
00000240: 9e0a 303d 0b98 c13c d66e 823d 387a 583d
00000250: 3237 4dbc 9a79 6dbd 117b 013d 58ce 70bc
00000260: 1394 42bc de67 763c d072 7d3c bb95 fd3c
00000270: 0879 da3d 5964 43be 99b2 ef3d c48b c13a
00000280: 069d 823d 6a95 2b3e 9fa7 f9bb eb3f c7bd
00000290: 278b 6dbd a21a 543d c0d2 843d 2fe5 cb3d
000002a0: 5fdf 82bd 6f27 29be 326b 09bc 1768 ffbd
000002b0: 5371 513d 0c69 d8bd 5495 573d 5d6a 74be
000002c0: 2860 1d3c 6a5e a1bc ff34 13bd 7e0d 9b3d
000002d0: aaf0 8cbd 3ee0 10be b540 82bc daeb bb3c
000002e0: 6669 ca3d 8c72 213d 2243 1b3d d089 e4be
000002f0: d4c1 603e 247c 7ebd 4df6 68bd ab50 4f3d
00000300: f302 ffbd 0371 473c 314a c43d 6a44 47bd
00000310: 76cd 803c abb0 95be aa98 25be 5c2c 71bd
00000320: eee7 af3d 6357 63bc e75d f23d 884b c83d
00000330: 1ecf 663d 934d c53d b48e 0fbe 2d8b 9d3d
00000340: 7959 fe3d 3b7f 1dbc 7c7d d13c c5f4 9dbd
00000350: cec2 a23d 2cac bbbd 56ea 0a3e 15f9 8f3d
00000360: dd36 bb3e 2f75 d33d 3b1b 2bbd 566d 32bd
00000370: 10f7 903c e108 1abb 98a2 873d bf4b 37bc
00000380: 8d5b e1bd 9b0a 4b3d 460a 26be 3909 2f3d
00000390: a568 8dbd 55d1 80bd a053 b83d d303 b83d
000003a0: 3e9d 753c 8537 d2bc 3274 b93d 3498 37bc
000003b0: 2156 c4bd 1ae0 11be e1ff 65be 21ba 6fbc
000003c0: 8396 bfbd fa26 bd3d 6869 07be eafc 91bd
000003d0: 02aa a63d 576d 503e d0b1 92bd b212 2cbc
000003e0: 113d a4bb 6d18 a23d 2bb1 d8bc cf49 6d3d
000003f0: b1ba 263e 34e5 94bd 61ea 54bd 979d ab3c
0.06805265 -0.007381257 0.024979724 -0.08302628 -0.069005124 -0.08813999 0.057658847 0.034042507
-0.053340938 -0.037048504 -0.10888898 0.11784047 0.04849935 0.03223288 -0.088463284 0.06793635
-0.10196903 0.16837758 0.08758554 -0.03221511 -0.017823324 -0.05712687 0.10840383 0.122828186
-0.0059829038 0.009437016 -0.019316245 0.12867871 -0.06894559 0.004660345 -0.08066714 0.14079756
-0.04926908 -0.092410244 0.13330552 0.0032968142 0.06967203 -0.1359312 -0.013338856 0.035521552
-0.08422626 -0.020359678 -0.08167533 0.030142823 0.047763716 -0.03495636 -0.033619724 0.04209452
-0.059574064 -0.11715756 -0.0778124 0.058152378 -0.042378623 0.09184232 -0.010538747 -0.02124623
0.0061338004 0.08021126 -0.16105238 0.04732767 0.0662923 0.005694803 0.060559068 -0.12620448
-0.008181749 -0.08276961 -0.054504737 -0.05584713 0.046961293 0.04292679 -0.047798377 -0.057288907
-0.21208975 0.044685926 0.06422552 -0.108390525 -0.015642075 -0.114268266 -0.028897554 -0.02154109
-0.00045863632 -0.025081996 0.12890057 -0.0063431165 -0.098265894 0.019522753 -0.047880944 0.06636193
-0.0028335978 0.061729755 0.04161423 0.09233939 0.0015823068 0.049850926 -0.00878147 -0.0007789655
0.15999575 -0.003598791 0.031916738 0.07555001 -0.12653479 -0.10153828 0.07205637 0.05456343
0.07699676 0.06975434 -0.008888585 0.0420794 -0.025333954 0.0036984037 0.007920571 -0.004845167
-0.07048784 0.09840505 -0.035741992 -0.10901001 0.017258078 0.046087105 -0.07188462 0.009863797
0.018268615 -0.10981325 -0.07433007 0.05752273 0.09273011 -0.008427333 0.067414604 -0.11146354
-0.12973534 -0.04275914 -0.08693979 -0.024479022 -0.023564085 0.030634744 0.038283776 -0.03593502
-0.058759693 0.39289477 0.035490245 0.092621304 -0.12062538 -0.16955775 -0.1583557 0.21723267
0.042978875 0.02363207 0.063687965 0.052850932 -0.012525367 -0.057977296 0.031611506 -0.014697634
-0.011876124 0.015039412 0.015469268 0.030955186 0.10667616 -0.19081248 0.11703987 0.0014766385
0.06377606 0.16756216 -0.007618859 -0.09728988 -0.057994034 0.05178321 0.0648551 0.09955823
-0.06390261 -0.16518949 -0.008387374 -0.124710254 0.051133465 -0.10566911 0.052632645 -0.238687
0.009605445 -0.01969834 -0.035939213 0.07570933 -0.068818405 -0.14148042 -0.015899995 0.022939611
0.098833844 0.03941588 0.03790582 -0.44636393 0.2194894 -0.06213011 -0.056875516 0.05061404
-0.124517344 0.01217294 0.095844634 -0.04864923 0.015722971 -0.2923635 -0.16171518 -0.058880195
0.08589159 -0.013875815 0.11834317 0.097800314 0.056349866 0.09633937 -0.1401928 0.07692561
0.12419409 -0.009612854 0.02557253 -0.07712702 0.07947312 -0.091636986 0.13565955 0.070299305
0.36565295 0.10325085 -0.041774016 -0.043561302 0.017695934 -0.0023503827 0.06622809 -0.011187493
-0.1100379 0.04957066 -0.16214857 0.042733405 -0.06904725 -0.06289927 0.09000325 0.089851044
0.014991103 -0.02566124 0.090553656 -0.011205722 -0.0958674 -0.14245644 -0.22460891 -0.014631779
-0.0935488 0.0923595 -0.13223803 -0.07128318 0.08137895 0.2035421 -0.07162821 -0.010502504
-0.0050121625 0.07914815 -0.026451668 0.057931717 0.16282155 -0.072702795 -0.051981334 0.020949168

4.bias f4 [130]
00000000: c5ce e0bd 917c 5a3f ef5e 4bbf 8e22 d1bd
00000010: f47d 55be dd0c f83e ac3a e53c 9bfc 9cbe
00000020: e1be e53e 16c1 a93d 0c0d 8c3e d079 033f
00000030: 64c7 55be 8030 893f 6044 af3b f520 0a3f
00000040: 206d a2be 941d f5bd 600c e93c 1f84 98bd
00000050: 826c e53c 6dee 533f 707f d2bd 3f92 433f
00000060: 1922 a03d be2f a0bd 45ea f8be 6bbd 15bc
00000070: 9e48 9b3e b8ad 64bf edbd 9e3e 6cd1 e23f
00000080: 7210 a93e 096d 293e 7e95 963d cfd1 12bc
00000090: 1bfc 373e ff60 b8bd 76bd 893d 90ef 4abd
000000a0: 201c 5fbd 1bd4 78bd 69c4 a8bd 022a b1bd
000000b0: c355 c5bd 87e4 3cbd 9a35 ccbc 05bb 683c
000000c0: a8d6 693f 6ed4 f63e a54e b83e 9fbe 7f3d
000000d0: 6015 cdbd 1f96 2b3e fb52 ea3e 6ff0 943f
000000e0: 024d 093f 72a7 203d ea92 21bf a393 cebd
000000f0: 01ff 263e 54e2 93bd bc80 b83e 2b9a ba3e
00000100: 42b9 133e d2ee 0d3f d0ea a03e 76ff db3e
00000110: b33e 9dbc a0fe 4c3e d03c 35be a427 ca3d
00000120: e2ca 593f ef7f a7bd 61c1 90bd aa72 05bc
00000130: f3fe bcbc 49bf 4b3d 3bcf b03e 9487 223a
00000140: 4c74 193b 7824 5c3f 601c 3d3f cb1b 0ebc
00000150: c853 e93e f4aa d6bd bc9c d2bd 32cf ad3e
00000160: db77 373e e5c4 773f 654a 893f c5f1 b63e
00000170: 5afd 3dbe 73c0 ba3e 1aa9 763f 7fc3 2f3e
00000180: fb9f a13e 879b 5fbd 7a84 583d b5db 923f
00000190: 249a 8d3e afc5 eabd d4d2 9e3d 96fc d53e
000001a0: 5684 243d bba1 363f 2317 d63e 7e5d 08bd
000001b0: fe8c 32bd d935 a63f 192d 7abe cfe4 eebd
000001c0: 517d 943e f677 b83e 2256 883e 5d89 6dbd
000001d0: 55e0 9abe a753 d83d 9259 b6be c09b 75bc
000001e0: fe39 0ebf d56d 553f 57e4 433e bee3 8fbe
000001f0: cb7f a73f 4ce8 653e 63b7 c93d b47f bfbe
00000200: 53dd bdbd f8a0 76bb
-0.10976938 0.85346323 -0.7944173 -0.10211669 -0.20848829 0.48447314 0.027982078 -0.30661473
0.44872192 0.08288781 0.27353704 0.51357746 -0.20876843 1.0717926 0.005348727 0.5395654
-0.3172388 -0.11968532 0.028448284 -0.07447075 0.028005842 0.82785684 -0.10278213 0.7639503
0.078190036 -0.07821606 -0.48616233 -0.009139399 0.3032884 -0.89327574 0.31004277 1.772016
0.3302036 0.165455 0.07352732 -0.008961155 0.17967264 -0.090028755 0.0672559 -0.04954487
-0.05447018 -0.060749155 -0.08240587 -0.086505905 -0.096354984 -0.04611638 -0.024927903 0.014204745
0.91343164 0.48208946 0.359975 0.06243765 -0.100138426 0.16756485 0.45766434 1.1635875
0.5363313 0.03922219 -0.631148 -0.10086753 0.16308214 -0.07220903 0.36035717 0.36445746
0.14426139 0.55442536 0.31429148 0.4296834 -0.019194936 0.20019007 -0.1769898 0.09870842
0.850752 -0.08178698 -0.07068134 -0.008145014 -0.023070788 0.04974297 0.34533104 0.0006200012
0.0023415266 0.85993147 0.7387142 -0.008673619 0.45571733 -0.104818255 -0.10283801 0.3394714
0.17916815 0.9678481 1.0725828 0.3573133 -0.18553677 0.36474952 0.9635178 0.1716442
0.31567368 -0.05459168 0.052860714 1.1473299 0.27656662 -0.114634864 0.07755056 0.4179427
0.040165268 0.7134053 0.41814527 -0.033292286 -0.043591492 1.2985183 -0.24431266 -0.116647355
0.2900186 0.36029023 0.26628214 -0.057992328 -0.30249277 0.105628304 -0.35615212 -0.014990747
-0.5555724 0.83370715 0.19130073 -0.2810344 1.3085874 0.22451895 0.09849431 -0.37402117
-0.0927073 -0.0037632566

6.weight f4 [157, 130]
00000000: d7f0 d9bd 3ffa da3c 22d2 9a3d 5e2b d7bd
00000010: 72c0 843d 77e8 0ebe 7765 8dbd f621 983b
00000020: fc2e fabc 614f 1fbd 8836 423d 1538 37be
00000030: fabb b53d f0cf c5bd e230 1c3b 0a82 51bd
00000040: db7a 02bf 437e fc3d f1c4 76bd 6db8 c3bc
00000050: 5d1f 4fbe d8e6 1dbe ae6b e63c 2765 4b3d
00000060: 74a1 17be b948 ec3d 276e 82be c2b3 843d
00000070: 2fb3 6a3d e736 3abe 4718 b6bd 5dbf 3abd
00000080: 1478 d5bd 24f3 9f3d d1ae 0dbe 64b3 6abe
00000090: c4bf f83c 3fbf 3cbe ce6b cfbd 6e81 833c
000000a0: a1b8 973d 4468 533d df61 9abd 3ae1 f8bc
000000b0: f53c 6c3d d5b8 6ebc cd5e 9bbd 603a 5abd
000000c0: 36af 4a3e 9b00 123e b2b3 c3bd b451 553d
000000d0: 5d96 ad3c b956 d23d 58ea 0bbe d1cd 4f3e
000000e0: 6914 9f3d 4d32 2c3e c3eb 00be 7678 a13d
000000f0: f51f 89be a174 c0bd 9d0d 363c c2c4 8e3e
00000100: ff88 6e3d dfee 40bd e6cb 333e be04 f5bd
00000110: f107 b0bd be20 293d 889e f83d 8cf5 81bd
00000120: c10c 07bf 021e fc3b bde9 a4ba 300c 063d
00000130: 8a7b 993d 2d4b c4bc c63e 64be d0cc 12bd
00000140: 1d54 b63e 4950 82bb 19f0 f83d 6425 19bd
00000150: 729a ef3b 83e0 a43d 728b b0bd cf6d 66be
00000160: 88a8 02be 7a71 c13c 28c3 913d aeb2 2fbe
00000170: 5a52 e1be 47bd 0cbd 3790 0f3e 3947 803d
00000180: 9227 3d3b e56c 62bd c403 bb3c 6022 26be
00000190: bf30 283e 505c b1be 42b5 a23d 2e15 833d
000001a0: 3122 8d3d 9b2c 1d3e 8bf3 47be dd88 3c3e
000001b0: a4b4 5b3c 88b9 55bc 7e52 51bd 5417 78be
000001c0: 53c4 583e 9aef 19bd afab ed3a f006 17bd
000001d0: 7b41 07be 8905 843d 17c3 64bd 8479 973c
000001e0: d0a9 a2be abed b53c 62ba ac3d 501a a13d
000001f0: 4f94 cb3c ffa4 9dbe c27a c1be 9cb3 233e
00000200: 1b38 b4bc 1a9f 85bd 6515 92bc 1c55 f13d
00000210: 372d 213d 1cdc 53bc 046a 8d3d a143 fdbb
00000220: 1255 d3bb d22d 433e 45d6 cbbe b5ac e8bd
00000230: 469f 173e 56f4 00bd 3c97 40be 7c04 5abc
00000240: 8b4b 39be 395e ab3e 886b a13e 3426 46be
00000250: bb22 09bd 9590 8bbd 9782 3a3e 04d0 933d
00000260: 11ed 3bbe a5ec 333c 3133 75be 082d 68bb
00000270: 5cc1 99bd 3556 893c 39dc 52be 5c34 a13d
00000280: 9e69 4dbe aa61 023d 1832 e83d c024 e33c
00000290: d81f cbbe 0d8d 93bd 7ea9 19be 4466 efbd
000002a0: c546 b9bd 7172 2cbd 3d9f 64bd 3ff7 0dbe
000002b0: 266b 80bd bf24 793d acf1 1e3d d933 24bf
000002c0: badc 2cbd 0926 643c 8e61 bbbd d9e5 41be
000002d0: 2e34 6cbd a725 62bc f595 63bb cd1c d9bc
000002e0: e30a c8be e95b 64bf 5eb6 69bd a037 cebd
000002f0: 874a 773d 4ca2 b93c 26ca cbbe b13c 94ba
00000300: 6de0 23be eaaa 4f3c 11ec 263e 7ca2 9ebd
00000310: f6c4 693e f207 233e 03ea a9bd 1399 d63d
00000320: 03c6 38bd 1d64 c13d be5b 5c3e 8b66 4b3c
00000330: a11d 153d 4732 7abc 6074 b3bb f5d4 5dbd
00000340: 3ace b0bd 6e76 d7bd 66a8 98bd 0862 f33d
00000350: e2a7 24bf 0729 633d b3fa 363d a6e5 7dbd
00000360: 0fa4 f6bd 10ca 853d 22b1 3f3e 2366 b03c
00000370: 7ba9 093e 998e 3cbe 5f87 b23d 75b5 d33d
00000380: ab8c c1be da33 433d d920 ca3d 8112 20bd
00000390: 7d2e 19be 44bb 02be 9c32 d4bd 91e8 bb3c
000003a0: 632c 19bd c79c f2bd 087a faba f9c3 8bbd
000003b0: 82b5 cfbe b4b6 00be db6b 21bd 45a6 f0bd
000003c0: 10f3 ca3c fade d33a bfc4 32bf f052 6cbc
000003d0: 4127 15bd f1bc 553d adfe 42bd 8fd7 59bd
000003e0: 25aa d63d aba1 3c3d df38 a53d 3221 35bd
000003f0: 5df5 1cbd 05d3 e5bd 0877 663b e6ca 63bd
-0.1064164 0.026730655 0.07559611 -0.105063185 0.064820185 -0.13955866 -0.069041185 0.0046427203
-0.030539982 -0.03889406 0.047415286 -0.17892487 0.08873744 -0.096588016 0.0023832847 -0.051149406
-0.5096871 0.1232877 -0.06024641 -0.023891652 -0.20226808 -0.15420091 0.028127518 0.049657013
-0.14807683 0.11537308 -0.25474665 0.064795986 0.05729979 -0.18185006 -0.08891349 -0.045592654
-0.10423294 0.07810047 -0.13836218 -0.22919995 0.030364878 -0.1843233 -0.10127984 0.016052928
0.07408262 0.051613107 -0.07538199 -0.030380834 0.05767532 -0.014570435 -0.07586441 -0.053278327
0.197934 0.14258043 -0.095557585 0.05207987 0.021189863 0.10270447 -0.13663614 0.20293356
0.07767565 0.16816063 -0.12589936 0.07884304 -0.26782194 -0.09397245 0.011111644 0.2788449
0.05823612 -0.047102805 0.1755825 -0.11963795 -0.08595265 0.04129099 0.121396124 -0.063456625
-0.52753836 0.007694007 -0.0012581866 0.032726467 0.07494266 -0.023961628 -0.22289571 -0.035839856
0.35611048 -0.003976856 0.1215517 -0.037389174 0.0073121125 0.08050635 -0.08620347 -0.22502826
-0.12759602 0.02361368 0.07117301 -0.17158005 -0.44008142 -0.034360196 0.14019857 0.06263585
0.0028862697 -0.05527963 0.022828944 -0.1622405 0.16424845 -0.3464074 0.079447284 0.06400524
0.06891287 0.15349047 -0.19526498 0.18411584 0.013409767 -0.013044722 -0.05110406 -0.24227649
0.21168642 -0.037582017 0.0018132831 -0.03687185 -0.13208573 0.06446368 -0.055850115 0.01849056
-0.31770182 0.022208055 0.08433987 0.07866347 0.024850992 -0.30789945 -0.3778897 0.15986484
-0.02199941 -0.06524487 -0.017832467 0.117838115 0.03934976 -0.012930896 0.069049865 -0.0077290093
-0.00644935 0.19060448 -0.39811912 -0.11361066 0.14806852 -0.031483017 -0.18807691 -0.013306733
-0.18095224 0.33470324 0.31527352 -0.19350511 -0.033480387 -0.06814686 0.18213879 0.0721741
-0.18352152 0.010981713 -0.23945309 -0.0035427231 -0.075075835 0.01676474 -0.20591821 0.07871315
-0.20059821 0.03183142 0.113376796 0.027727485 -0.39672732 -0.07204638 -0.15006062 -0.116894275
-0.09046701 -0.042101327 -0.055815924 -0.13863848 -0.06270437 0.06082606 0.038804695 -0.64141613
-0.04220269 0.013925084 -0.091494665 -0.18935336 -0.05766695 -0.013802922 -0.0034726833 -0.026502991
-0.39070806 -0.89202744 -0.057058685 -0.100692034 0.06037381 0.022660397 -0.39802665 -0.0011309591
-0.1600358 0.012675026 0.1630099 -0.07745835 0.22829041 0.15921 -0.08296587 0.10478415
-0.045110714 0.09442923 0.21519372 0.012414585 0.03640521 -0.015270776 -0.0054765195 -0.05415817
-0.086330846 -0.105206355 -0.074539945 0.11883932 -0.6431867 0.05545905 0.04467268 -0.061986588
-0.120430104 0.06532681 0.18719915 0.021533078 0.13443558 -0.18413772 0.08717226 0.103373446
-0.37802634 0.04765687 0.098695464 -0.039080147 -0.1495914 -0.12766749 -0.103612155 0.022938045
-0.037395846 -0.11846309 -0.0019109854 -0.06824488 -0.40568167 -0.12569696 -0.0394095 -0.117504634
0.024774104 0.0016164475 -0.6983146 -0.014424071 -0.03641439 0.05218214 -0.04760616 -0.05318409
0.10481671 0.046052616 0.08067488 -0.04422111 -0.038319934 -0.112218894 0.0035166163 -0.05561342

6.bias f4 [157]
00000000: e693 a13d a1b1 80be c363 03bf 7f50 aa3d
00000010: cca5 06bf f40a be3e b085 60bd 6e06 91be
00000020: 74ba 453f ae01 d8be a969 29bf 9bea d23d
00000030: 8f4b 60bf 7ed0 9a3e 5890 5a3e ac58 0b3d
00000040: 2428 a1be 3e3f 523e ac44 063f db15 8abf
00000050: 5e43 e8bd 6292 d8be 48aa cbbe 87a7 e13e
00000060: cafd 8a3e d823 923f 2c51 ddbd 5fc1 bfbe
00000070: c49d f2be 839c 743c 48b9 3fbf 4cd4 023e
00000080: 4cde ed3d d73d 02bf 9308 ccbe 6a46 cfbe
00000090: 5852 64bf 9409 893d 472c 12be 4402 21be
000000a0: 9612 59bd 1ace 87be 5e08 63be b14a 1d3e
000000b0: 5ae4 5b3f 6211 f2be 7620 3cbd 602b f6be
000000c0: 011d 05bd 7789 7c3f b151 c73e a90d 983e
000000d0: 0da3 58bf c12b c6be 526b adbf 18f6 693f
000000e0: 8566 27bf a88a 14bf 3d98 033e 2bbd 1c3e
000000f0: d275 eabe 02d0 87be f4af 643e ffd5 51be
00000100: 879a d03e 42c0 9a3d 29f3 e7be 6dc4 cebc
00000110: f41a 253f 01ac 173e c15b 6e3d bb18 1fbf
00000120: 615c 223e 89ad b73e 8c18 9d3e c43f b23e
00000130: 90da 763e 9fa7 7c3e 734f 03bf 65bd bb3b
00000140: 8d95 663f 9624 703f 76b8 9fbd 47b2 54bf
00000150: 1c5c b7be c2dd e53e 447c 6dbc 18d2 393e
00000160: 8e24 0f3f f086 b93d 76f3 863e 5f35 91bd
00000170: 4ffd 453f 3162 e43e 614a 093f 86a0 00bf
00000180: b7d0 2bbf 22a1 a7be a3ae f1be c8f7 46be
00000190: 681f 263e f3c5 81be c1f4 0d3f d980 25bf
000001a0: 91c1 9abe e3b2 85be ddaf 32be c999 3c3e
000001b0: 559c 683f d38b 29be 5883 34be ff44 71be
000001c0: 0471 efbd c2c8 ab3e 937d 9c3e 5971 ae3e
000001d0: e1bb 8bbf 9433 9e3c 6d87 38bd 2bd3 47be
000001e0: 43df 933e 375d 7abf 13c8 d13e 7e58 0ebd
000001f0: e591 b8be b03b fc3e f2d1 173f 02be 23bc
00000200: f6cc 113f 1a2a c53e 0ae2 103f 21d6 bb3d
00000210: d000 4fbc c012 ffbc 0229 69bf 3db4 0bbf
00000220: 5d13 61bf e27f a53e 80b7 13bf f64a b03e
00000230: 980d 643f b073 06bb 4135 753e 31c7 013d
00000240: bb4f b23e acad 2c3f ce25 313e 565b 233e
00000250: 7b4f 8d3e 7ea9 d43e 8b16 213f 68b7 c43e
00000260: e932 9abe 9e44 6fbf 20d4 623d 71d8 fe3e
00000270: 820e 323f
0.078895375 -0.2513552 -0.513241 0.08316135 -0.52596736 0.37117732 -0.054814994 -0.28325218
0.7723763 -0.42188781 -0.6617685 0.10298654 -0.87615293 0.30237192 0.21344125 0.03402011
-0.31475937 0.20531937 0.52448535 -1.078792 -0.11340974 -0.4229918 -0.39778352 0.44073126
0.2714675 1.1417189 -0.10806498 -0.37452218 -0.4738599 0.014929893 -0.7489209 0.12776297
0.116146654 -0.5087561 -0.39850292 -0.4048341 -0.89188147 0.0669128 -0.14274703 -0.1572352
-0.05299624 -0.2652443 -0.2217116 0.15360524 0.8589531 -0.47278887 -0.045929395 -0.48079967
-0.032498363 0.98647255 0.38929513 0.29697922 -0.84623796 -0.38705257 -1.3548377 0.91391134
-0.6539081 -0.5802407 0.12851043 0.15306537 -0.45793015 -0.26525885 0.22332746 -0.2049179
0.40742895 0.075562015 -0.45302704 -0.025240147 0.6449425 0.14811708 0.058192972 -0.6214711
0.15855552 0.35874584 0.3068279 0.34814274 0.24106812 0.24673317 -0.51293105 0.0057293647
0.90071946 0.93805826 -0.07798855 -0.8308453 -0.3581246 0.4489575 -0.014494959 0.1814655
0.55915153 0.090589404 0.2635762 -0.07090258 0.77339643 0.44606164 0.5362912 -0.5024494
-0.6711535 -0.32740122 -0.4720355 -0.19430459 0.16222918 -0.25346336 0.5545159 -0.6464973
-0.30225804 -0.26113042 -0.17449899 0.1841804 0.90863544 -0.16557245 -0.17628229 -0.23561476
-0.11691478 0.33551604 0.30564556 0.34070852 -1.0916711 0.019311704 -0.045051027 -0.19514148
0.28881273 -0.97798485 0.40972957 -0.03475236 -0.3604881 0.49264288 0.59304726 -0.009994032
0.5695337 0.38508683 0.5659491 0.09171701 -0.012634471 -0.03113687 -0.910782 -0.54571897
-0.8792017 0.3232413 -0.57701874 0.3443219 0.8908324 -0.0020515732 0.23946096 0.031684104
0.34826455 0.674525 0.17299578 0.1595281 0.275997 0.41535562 0.6292502 0.38421178
-0.30116966 -0.93464077 0.05537808 0.49774507 0.6955339
