pav_spkid_pytorch/lp_model_hsize_130_lr0001/e17_weights.ckpt (torch_old, 318518 bytes, 8 tensors)

0.weight f4 [130, 189]
-0.020985564 1.2610373 -0.91394514 0.20024225 -0.9366186 0.7707577 -0.49867457 -0.3235997
0.6002785 -0.008606818 1.0295438 -0.94106716 0.24969736 -1.0695523 0.79735976 -0.06148694
-0.44171837 0.39215258 -0.012497386 0.85821754 -0.83713883 0.020835321 -0.7213942 0.5770181
0.092269436 -0.57498837 0.39774704 -0.00828408 0.6033777 -0.7009026 -0.12887685 -0.43344638
0.37902796 0.08160756 -0.49074885 0.34872356 -0.0014169955 0.48496303 -0.36358544 -0.41495883
-0.19070525 0.25661224 0.038586143 -0.26702145 0.2738534 -0.004154439 0.26870194 -0.29833293
-0.604313 0.045206033 0.11123183 -0.080155626 -0.10845767 0.26963252 -0.0015919247 0.15789679
-0.004022018 -0.983755 0.119891584 -0.10446035 -0.19934642 0.21299936 0.10675824 0.013598032
-0.07378977 0.07587709 -1.0403458 0.34968048 -0.13041282 -0.20493029 0.28997004 0.036866657
-0.007350046 -0.1041781 0.22101685 -1.19681 0.36344278 -0.24204135 -0.24189107 0.43088952
-0.17465931 0.021637857 -0.13349397 0.18339664 -1.2409424 0.37838534 -0.37472928 -0.24330135
0.4991038 -0.079492114 -0.02156863 -0.095797464 0.22946481 -1.1315742 0.32987982 -0.30047902
-0.30465543 0.54029596 -0.13692203 0.026805094 -0.08380019 0.20824368 -1.1793072 0.19546029
-0.3624701 -0.29163924 0.6824985 -0.08279243 -0.0014178314 -0.030650022 0.1521385 -1.1686444
0.16597715 -0.309171 -0.3124754 0.50427437 -0.15883861 0.0016365536 -0.0370044 0.21543357
-1.1197337 0.21758148 -0.32990226 -0.27229926 0.4174848 -0.015189405 0.011282647 0.124268666
0.1473309 -1.095489 0.07864205 -0.22189036 -0.29854286 0.3184737 0.19335787 -0.0040870896
0.20570056 -0.011419563 -0.9305607 0.124916084 -0.26295936 -0.15986754 -0.005063352 0.2297442
0.016509565 0.36529598 -0.14002621 -0.809274 0.025835503 -0.06662816 -0.083977796 -0.046166677
0.29502025 -0.016341133 0.4294617 -0.2090462 -0.5829874 -0.11644308 -0.07381082 -0.015666468
-0.22752443 0.36533478 0.01785667 0.6176135 -0.31895268 -0.5170759 -0.21219994 0.14034402
0.06418817 -0.4037781 0.5100162 -0.005336386 0.9153556 -0.541084 -0.23410404 -0.4117039
0.30166557 -0.07560827 -0.5134139 0.5884168 0.0001363242 1.043607 -0.462575 -0.26941448
-0.3295038 0.24142383 -0.20714302 -0.29259792 0.64376795 -0.03434234 0.14475057 -0.05819098
-0.12004408 -0.44644308 -0.047825817 -0.6541347 0.4391219 0.94846654 0.04464149 -0.021781564
0.24244821 -0.27107874 -0.013911091 -0.13384685 -0.48077422 0.3612467 0.7916227 0.051343095
0.02278938 0.44561562 -0.260547 0.3643509 -0.41879657 -0.1598713 0.06619608 0.77575785
0.013549204 0.15526377 0.39561993 -0.2447296 0.45273003 -0.37717503 -0.097138844 -0.04237394
0.7697214 -0.055887386 0.26673076 0.2669654 -0.03868263 0.11728587 -0.25390574 -0.12945378
-0.004434815 0.72398823 -0.100276366 0.4198911 0.15701133 0.0974005 -0.15338589 0.10554091
-0.36547932 -0.013009264 0.72811776 -0.018567204 0.3023619 -0.013743557 0.2650651 -0.25554457
0.14785796 -0.35612875 0.054450672 0.68315446 0.01650088 0.11005857 -0.077080816 0.1316709
00000000: ebe9 abbc ac69 a13f 4ff8 69bf 4e0c 4d3e
00000010: 3dc6 6fbf 6050 453f 4652 ffbe dcae a5be
00000020: daab 193f 9c03 0dbc 17c8 833f c7e9 70bf
00000030: aab0 7f3e 17e7 88bf c51f 4c3f bbd9 7bbd
00000040: e928 e2be 39c8 c83e d6c1 4cbc 25b4 5b3f
00000050: bb4e 56bf d6ae aa3c 4aad 38bf 75b7 133f
00000060: c2f7 bc3d 7032 13bf 80a5 cb3e f3b9 07bc
00000070: f676 1a3f 5a6e 33bf 4bf8 03be afec ddbe
00000080: f40f c23e dd21 a73d 6f43 fbbe e58b b23e
00000090: 7bba b9ba 134d f83e df27 babe 7c75 d4be
000000a0: 3d48 43be ae62 833e 810c 1e3d 09b7 88be
000000b0: 8336 8c3e f621 88bb 4d93 893e 18bf 98be
000000c0: 42b4 1abf f629 393d 84cd e33d a228 a4bd
000000d0: 0e1f debd 460d 8a3e 21a8 d0ba b2af 213e
000000e0: 22cb 83bb 5ed7 7bbf b889 f53d 4fef d5bd
000000f0: 7821 4cbe 811c 5a3e 10a4 da3d 48ca 5e3c
00000100: 171f 97bd 7365 9b3d 0d2a 85bf 5209 b33e
00000110: f08a 05be 3fd9 51be f476 943e 7e01 173d
00000120: a8d8 f0bb 545b d5bd 3e52 623e 1231 99bf
00000130: 2c15 ba3e b0d9 77be 4bb2 77be 8d9d dc3e
00000140: e4d9 32be e041 b13c a5b2 08be 54cc 3b3e
00000150: 33d7 9ebf b9bb c13e 84dc bfbe fd23 79be
00000160: 898a ff3e c3cc a2bd b2b0 b0bc 7631 c4bd
00000170: d3f8 6a3e 6cd7 90bf 02e6 a83e 63d8 99be
00000180: ccfb 9bbe d650 0a3f 4a35 0cbe 5b96 db3c
00000190: 6f9f abbd d53d 553e 8af3 96bf be26 483e
000001a0: ae95 b9be bd51 95be 39b8 2e3f 148f a9bd
000001b0: 87d6 b9ba c115 fbbc 32ca 1b3e 2496 95bf
000001c0: eaf5 293e a94b 9ebe c7fc 9fbe 2018 013f
000001d0: 97a6 22be a081 d63a ed91 17bd 9e9a 5c3e
000001e0: 6f53 8fbf aecd 5e3e f3e8 a8be cf6a 8bbe
000001f0: 91c0 d53e fbdc 78bc dada 383c 9280 fe3d
00000200: e9dd 163e fc38 8cbf 150f a13d 3a37 63be
00000210: 9cda 98be fc0e a33e 9bff 453e feec 85bb
00000220: 2ba3 523e 1e19 3bbc 3a39 6ebf 01d4 ff3d
00000230: 9ca2 86be 51b4 23be 7aea a5bb 1042 6b3e
00000240: 113f 873c 1308 bb3e 0863 0fbe 952c 4fbf
00000250: faa4 d33c 5874 88bd 8dfc abbd 4519 3dbd
00000260: e50c 973e d7dd 85bc 67e2 db3e 3510 56be
00000270: aa3e 15bf b679 eebd 212a 97bd f756 80bc
00000280: 2afc 68be 290d bb3e 2748 923c eb1b 1e3f
00000290: c44d a3be 165f 04bf f14a 59be 58b6 0f3e
000002a0: 1675 833d 01bc cebe 6c90 023f dadc aebb
000002b0: bf54 6a3f 7b84 0abf f8b8 6fbe dbca d2be
000002c0: e973 9a3e 82d8 9abd 186f 03bf 7ca2 163f
000002d0: 40f2 0e39 ea94 853f a1d6 ecbe b2f0 89be
000002e0: b9b4 a8be cf37 773e 4d1d 54be 65cf 95be
000002f0: facd 243f 8eaa 0cbd 7e39 143e aa59 6ebd
00000300: acd9 f5bd 3094 e4be 01e5 43bd 5f75 27bf
00000310: 96d4 e03e b4ce 723f ffd9 363d 406f b2bc
00000320: 5844 783e d5ca 8abe 58eb 63bc 260f 09be
00000330: 0a28 f6be 54f5 b83e c9a7 4a3f 234d 523d
00000340: cbb0 ba3c bb27 e43e 6b66 85be 338c ba3e
00000350: 816c d6be 4db5 23be cf91 873d 1198 463f
00000360: 7bfd 5d3c 77fd 1e3e b28e ca3e 659a 7abe
00000370: 3bcc e73e 161d c1be bbf0 c6bd 4c90 2dbd
00000380: 760c 453f 2cea 64bd ef90 883e b0af 883e
00000390: ad71 1ebd 9333 f03d efff 81be 888f 04be
000003a0: ed51 91bb 4b57 393f b25d cdbd f7fb d63e
000003b0: 94c7 203e ea79 c73d 3111 1dbe d525 d83d
000003c0: 1b20 bbbe cf24 55bc ed65 3a3f 401a 98bc
000003d0: 2ecf 9a3e a82c 61bc 9db6 873e bdd6 82be
000003e0: 1468 173e 8256 b6be ab07 5f3d 36e3 2e3f
000003f0: da2c 873c 6366 e13d 8cdc 9dbd bdd4 063e

0.bias f4 [130]
-0.45067304 -0.25381333 0.23876648 -0.33225635 0.5109565 0.9766458 0.15593138 0.12659119
2.206002 1.0818169 -0.50210035 0.81830716 -1.2162323 -0.25531405 0.21712585 0.28912005
-0.26213288 0.14412393 -0.24013068 2.2456627 -1.637906 0.99383754 1.0574105 0.018463917
1.7288533 -0.103500135 -0.66202784 -0.06921239 -0.7936188 0.5019673 -0.48713768 -0.07651808
0.7881412 1.4742095 -0.6789108 0.54255915 -0.4167642 0.13888296 0.13573682 -0.009911736
-0.58932376 2.5256298 0.58807915 -1.0349337 0.20278561 2.5667076 0.11129783 0.5620357
-1.4590229 2.8376858 0.119236365 -0.06515834 2.9728146 -0.38996467 0.83187973 -0.029053215
0.03781187 1.6690887 -1.079709 0.19461557 -0.17146929 0.43594295 1.4815273 1.9425572
-0.23587207 0.08834343 0.43207076 0.01682852 0.61052734 -0.033132166 0.49128878 -0.097116575
2.553783 -0.9435938 -0.30681512 0.8612042 -0.548024 0.20627838 2.2818272 -0.19830064
0.010298105 -0.7106379 -0.033322 0.07894979 0.61696225 0.07734368 0.8273449 -0.7378243
-0.2975716 -0.12686516 0.04584954 0.035397187 0.06332148 0.8178234 -1.1854233 0.10996843
0.11128554 0.2106479 -0.11283603 -0.85588944 -0.099513516 0.12339329 -0.048166893 -0.22827448
0.08556509 1.8137386 -1.2172067 0.047943164 -0.2585514 -0.24013072 -0.06838227 -0.42375737
1.1226225 0.9763395 2.7884557 -0.16937006 -0.434733 0.9948819 0.07049696 0.13239981
0.5000676 -0.061354302 0.059282795 0.5718717 1.292213 -0.36587775 0.068029776 0.34159708
-0.01111735 0.2390926
00000000: 9ebe e6be d2f3 81be 337f 743e 811d aabe
00000010: 0cce 023f 7605 7a3f 7aac 1f3e 1fa1 013e
00000020: 232f 0d40 fa78 8a3f a689 00bf 947c 513f
00000030: 80ad 9bbf 86b8 82be 3d56 5e3e 8b07 943e
00000040: 4836 86be 3995 133e d1e4 75be f0b8 0f40
00000050: e7a6 d1bf 236c 7e3f 3a59 873f a441 973c
00000060: 114b dd3f e1f7 d3bd a87a 29bf 3abf 8dbd
00000070: 9a2a 4bbf ee80 003f 1c6a f9be 83b5 9cbd
00000080: 9fc3 493f e6b2 bc3f 19cd 2dbf 28e5 0a3f
00000090: 1e62 d5be 5637 0e3e 98fe 0a3e d564 22bc
000000a0: ecdd 16bf eba3 2140 5b8c 163f b578 84bf
000000b0: 08a7 4f3e f044 2440 1ef0 e33d 92e1 0f3f
000000c0: 43c1 babf a59c 3540 3232 f43d bc71 85bd
000000d0: 9842 3e40 73a9 c7be 12f6 543f 0201 eebc
000000e0: 9fe0 1a3d b3a4 d53f e833 8abf 4e49 473e
000000f0: a595 2fbe ea33 df3e b0a2 bd3f b7a5 f83f
00000100: 7388 71be 66ed b43d 6138 dd3e f7db 893c
00000110: 854b 1c3f 98b5 07bd 348a fb3e 0ee5 c6bd
00000120: 2e71 2340 5d8f 71bf df16 9dbe e177 5c3f
00000130: 4d4b 0cbf a43a 533e 7509 1240 530f 4bbe
00000140: 62b9 283c 5eec 35bf a67c 08bd 6db0 a13d
00000150: 3df1 1d3f 5d66 9e3d e0cc 533f 0ee2 3cbf
00000160: 4e5b 98be f1e8 01be bacc 3b3d a4fc 103d
00000170: b1ae 813d e05c 513f f3bb 97bf 2137 e13d
00000180: ace9 e33d 15b4 573e 9416 e7bd 921b 5bbf
00000190: becd cbbd 9fb5 fc3d a64a 45bd c9c0 69be
000001a0: c03c af3d 9628 e83f 6ecd 9bbf 0d60 443d
000001b0: d960 84be d4e4 75be 010c 8cbd baf6 d8be
000001c0: 18b2 8f3f 63f1 793f 0f76 3240 586f 2dbe
000001d0: 5395 debe 95b0 7e3f b660 903d d193 073e
000001e0: 6e04 003f a64e 7bbd 84d2 723d 2f66 123f
000001f0: 3c67 a53f 5454 bbbe 3253 8b3d d0e5 ae3e
00000200: 8c25 36bc b1d4 743e

2.weight f4 [130, 130]
0.059256148 -0.16355047 -0.124697775 0.02496377 -0.21022281 -0.2444823 -0.098590046 0.031503636
-0.08506057 -0.23927444 -0.24874973 0.055638943 -0.054047327 -0.082681865 -0.20083201 0.19916914
0.0020932534 -0.19726636 -0.1189796 -0.34458053 -0.0004983658 0.2057206 -0.15850052 0.014462329
0.19449149 -0.058119085 -0.1514581 0.18423443 -0.14276451 0.16473024 0.07007928 -0.13192776
-0.24125575 0.31651935 0.18688488 -0.08930125 -0.10126416 -0.041668255 -0.1511767 -0.026803076
0.04298375 0.02483009 -0.2566529 -0.059546318 0.08712631 -0.15010121 0.01345597 -0.18791017
0.16146699 -0.16222948 -0.09690098 0.058033857 0.28380236 -0.016161738 -0.009738191 -0.06598026
-0.05491288 0.20701708 0.12940556 -0.13272801 -0.07814066 -0.06487947 0.013205641 -0.2767024
-0.051628496 0.04554346 -0.2720144 0.038334526 0.0013206332 -0.17190355 -0.0430578 -0.022502156
-0.27367315 0.089154445 -0.08885533 -0.08359467 -0.23166244 0.1439075 -0.17203034 -0.21455841
-0.017410772 -0.053453747 -0.037436377 0.28787798 0.1602276 -0.071788445 0.34198618 -0.14201415
0.072262906 0.058858566 -0.20809565 0.032013588 0.0114566535 -0.44806612 -0.06504641 0.010673417
-0.22722645 -0.12869366 -0.08922594 -0.2950513 -0.15747193 -0.10242248 0.057134885 0.022315975
0.087473646 -0.119894125 -0.061119795 0.04800694 0.3493223 -0.2647841 -0.010612825 -0.13801233
0.08482487 -0.034968816 -0.1549458 -0.076898925 0.1603084 -0.2579657 -0.042296708 0.07137522
0.15184517 -0.029417854 0.043161817 -0.059922606 -0.1244226 -0.119298905 0.10466858 0.037292514
-0.053348977 0.016091509 -0.0075871274 0.04193466 0.0063378788 0.009161574 0.008719618 -0.12087798
0.11012263 -0.020504728 -0.233097 -0.0152206225 -0.0150239365 -0.5036298 -0.08230619 -0.08069855
0.052687746 0.14020377 0.07053404 -0.03963276 -0.0051475195 0.14225401 -0.0068605393 -0.04927738
0.030873267 0.035320792 0.0031180494 0.024795253 -0.017336452 0.017995877 0.021260474 -0.019981803
0.021325588 0.022854285 0.02835176 0.083307855 0.025410447 0.050588753 0.023510182 -0.0036018903
0.016523555 0.02283682 0.022657452 -0.82183796 -0.06258876 -0.031936955 -0.07909234 -0.035830185
0.007831993 -0.04761477 -0.11045103 0.5468058 0.026670162 0.04553756 0.13186686 -0.028190758
0.023248589 -0.04846368 -0.05202381 -0.09477651 -0.00831609 0.05336348 0.003832501 0.0831289
-0.029958213 0.036764752 0.036759652 -0.032691136 0.05670058 0.03202246 -0.0016278101 -0.027740888
-0.07459475 0.10092052 -0.57113194 -0.059061967 0.018994264 -0.0139468135 0.08708874 0.00620899
0.546816 -0.03892806 0.033481978 0.0019875197 0.011742566 0.10917572 0.031674 0.069561906
-0.054063212 0.0331564 -0.03370743 0.08694386 -0.050569292 0.058263574 0.105095334 -0.013912678
-0.025789471 -0.1152173 -0.056445666 0.03033933 -0.09609752 -0.026878592 0.029276846 -0.14095405
-0.054025147 -0.05523213 0.06649094 0.21295753 0.017698642 0.017184606 -0.02487668 -0.012368534
0.0775798 0.009133005 -0.048648957 -0.11068618 0.8795898 -0.08564171 -0.042592127 -0.064795814
-0.17710468 -0.10579021 0.15671204 0.14376147 0.10580966 -0.023213532 -0.0027002795 -0.010348413
00000000: 93b6 723d c679 27be 8c61 ffbd d280 cc3c
00000010: a644 57be 9159 7abe 94e9 c9bd f509 013d
00000020: 3c34 aebd 5c04 75be 40b8 7ebe a9e5 633d
00000030: bb60 5dbd 1c55 a9bd e8a6 4dbe fff2 4b3e
00000040: f72e 093b 3100 4abe 94ab f3bd dc6c b0be
00000050: c3a4 02ba 6ca8 523e f64d 22be 68f3 6c3c
00000060: c728 473e 470e 6ebd d517 1bbe f3a7 3c3e
00000070: dc30 12be 0baf 283e ba85 8f3d 1218 07be
00000080: bf0b 77be d30e a23e c05e 3f3e 93e3 b6bd
00000090: 9563 cfbd 55ac 2abd 11ce 1abe 2092 dbbc
000000a0: bb0f 303d 7968 cb3c 0268 83be d7e6 73bd
000000b0: 476f b23d 22b4 19be 6e76 5c3c 866b 40be
000000c0: 9a57 253e 7c1f 26be 0574 c6bd e9b4 6d3d
000000d0: 8b4e 913e 9f65 84bc ef8c 1fbc a920 87bd
000000e0: 54ec 60bd 49fc 533e e482 043e dae9 07be
000000f0: 3608 a0bd 87df 84bd 795c 583c f0ab 8dbe
00000100: 6778 53bd c78b 3a3d 7945 8bbe aa04 1d3d
00000110: 1919 ad3a 7c07 30be 605d 30bd 7156 b8bc
00000120: e31e 8cbe 9b96 b63d c9f9 b5bd af33 abbd
00000130: eb38 6dbe 7d5c 133e b928 30be 33b5 5bbe
00000140: 09a1 8ebc 51f2 5abd e356 19bd be64 933e
00000150: b412 243e d205 93bd d018 af3e 286c 11be
00000160: 93fe 933d ae15 713d 0717 55be ae20 033d
00000170: b0b4 3b3c ec68 e5be 0d37 85bd 8edf 2e3c
00000180: 0dae 68be 45c8 03be 17bc b6bd f710 97be
00000190: 5240 21be e1c2 d1bd 4506 6a3d fecf b63c
000001a0: 6225 b33d 0d8b f5bd c058 7abd eda2 443d
000001b0: 5fda b23e c891 87be 6ae1 2dbc 1b53 0dbe
000001c0: a9b8 ad3d 763b 0fbd 1daa 1ebe 2f7d 9dbd
000001d0: e327 243e 1514 84be 503f 2dbd 2c2d 923d
000001e0: 4d7d 1b3e b6fd f0bc 72ca 303d 6871 75bd
000001f0: 47d1 febd fc52 f4bd 7b5c d63d 09c0 183d
00000200: 7584 5abd 57d2 833c 709d f8bb aec3 2b3d
00000210: fbad cf3b 6d1a 163c bbdc 0e3c e08e f7bd
00000220: f987 e13d 88f9 a7bc fbb0 6ebe eb5f 79bc
00000230: f526 76bc e2ed 00bf 2690 a8bd 4845 a5bd
00000240: 1bcf 573d 9491 0f3e 2774 903d f655 22bd
00000250: 86ac a8bb 09ab 113e 60ce e0bb 14d7 49bd
00000260: efe9 fc3c 89ac 103d 3058 4c3b 6a1f cb3c
00000270: 2d05 8ebc 176c 933c 722a ae3c e1b0 a3bc
00000280: 00b3 ae3c e938 bb3c f341 e83c 4f9d aa3d
00000290: 9229 d03c 2736 4f3d 6d98 c03c b10d 6cbb
000002a0: 685c 873c 4814 bb3c 1f9c b93c f963 52bf
000002b0: 892e 80bd 53d0 02bd 2afb a1bd acc2 12bd
000002c0: c251 003c b407 43bd 2634 e2bd 77fb 0b3f
000002d0: 627b da3c 9885 3a3d 1b08 073e 4ef0 e6bc
000002e0: d373 be3c da81 46bd eb16 55bd 301a c2bd
000002f0: 3640 08bc aa93 5a3d b22a 7b3b 7c3f aa3d
00000300: ed6a f5bc a396 163d 4a91 163d 24e7 05bd
00000310: de3e 683d fc29 033d 3e5c d5ba dc40 e3bc
00000320: 22c5 98bd 6baf ce3d b435 12bf f6ea 71bd
00000330: dc99 9b3c 2d81 64bc 955b b23d c874 cb3b
00000340: 22fc 0b3f 0873 1fbd 6624 093d 0c41 023b
00000350: e463 403c 8597 df3d 99bc 013d 7976 8e3d
00000360: 6371 5dbd 01cf 073d cd10 0abd 9f0f b23d
00000370: bf21 4fbd c9a5 6e3d 393c d73d 00f2 63bc
00000380: 7144 d3bc 0cf7 ebbd 9233 67bd 308a f83c
00000390: c7ce c4bd 7e30 dcbc ffd5 ef3c 4256 10be
000003a0: 7949 5dbd 163b 62bd 672c 883d 8a11 5a3e
000003b0: befc 903c bbc6 8c3c 2eca cbbc 64a5 4abc
000003c0: 28e2 9e3d 99a2 153c 2144 47bd 70af e2bd
000003d0: cc2c 613f ec64 afbd 1575 2ebd abb3 84bd
000003e0: ee5a 35be 8aa8 d8bd 1f79 203e 3536 133e
000003f0: bcb2 d83d 4e2a bebc 2cf7 30bb 648c 29bc

2.bias f4 [130]
0.019191897 0.94405556 -0.5402586 0.020561326 -0.12880494 0.38722196 -0.6900577 0.20398888
0.080231674 0.5107464 0.28150627 -1.0117601 -1.0580207 -0.46871948 1.4892945 -0.09529961
-0.83519167 -0.23440951 0.78529364 1.485844 0.20509382 0.14566764 -1.821128 -1.9184384
1.9266177 0.055165745 1.985525 -1.5111041 -0.20480457 0.8436253 -0.23773186 1.6868418
-1.9957416 0.9729109 -1.038015 0.023019446 -0.008974355 1.6741384 1.7547535 0.12751733
0.2679204 0.33495367 1.6438774 0.31362832 0.5974209 0.1164171 -0.4760526 -0.09734152
0.3276992 -0.2595965 1.8044664 0.373333 1.3819736 0.15384987 1.1543359 1.4433773
0.6869191 0.41755685 1.5561546 -0.6155151 -1.0757347 -0.24079509 0.07891796 1.7483772
0.39023632 -0.09218035 -0.8751382 0.13597327 0.07738369 0.67315364 -0.003237217 -0.0868463
1.02426 -0.75992125 0.1442473 -1.4093629 -0.5499889 1.8474983 1.0609967 1.349323
-0.9414556 0.0010079267 -1.2474998 0.4698878 -0.15476348 0.591382 0.13744129 0.41566706
1.3517996 0.9719304 0.540003 0.85682446 2.6464057 -1.8362666 0.25476238 0.24004617
-1.3627193 0.7086627 -0.052692663 -1.3892058 0.5044785 0.659379 0.2819778 -0.024334105
0.77951705 1.2754338 2.247431 0.661737 1.5627162 0.045291036 0.33946082 -0.01180821
-0.17329365 -0.44247392 -0.08124879 1.2633762 -0.3499881 -0.39170307 0.9519094 0.77407527
-0.671598 0.5487909 1.8282447 -0.3256946 -0.28910485 0.0013460455 0.005028708 0.2138653
0.48303488 -0.024194088
00000000: 5338 9d3c a0ad 713f 634e 0abf 3a70 a83c
00000010: 71e5 03be f541 c63e 9fa7 30bf 76e2 503e
00000020: 8150 a43d 47c0 023f 9721 903e 5b81 81bf
00000030: 396d 87bf 00fc efbe 34a1 be3f 712c c3bd
00000040: 1fcf 55bf 0c09 70be 0109 493f 2330 be3f
00000050: 1d04 523e e629 153e b91a e9bf 648f f5bf
00000060: 699b f63f 7af5 613d af25 fe3f dc6b c1bf
00000070: 4ab8 51be d4f7 573f fb6f 73be 6fea d73f
00000080: 7674 ffbf b010 793f addd 84bf 4793 bc3c
00000090: 2c09 13bc 2b4a d63f c39b e03f e793 023e
000000a0: dd2c 893e 0c7f ab3e 936a d23f e493 a03e
000000b0: 93f0 183f 176c ee3d 2bbd f3be fe5a c7bd
000000c0: 31c8 a73e d5e9 84be c1f8 e63f 8125 bf3e
000000d0: 83e4 b03f d28a 1d3e 47c1 933f 96c0 b83f
000000e0: eed9 2f3f 03ca d53e 1330 c73f 6692 1dbf
000000f0: adb1 89bf fd92 76be bd9f a13d d3ca df3f
00000100: 0ecd c73e 0dc9 bcbd 0f09 60bf 943c 0b3e
00000110: 577b 9e3d cc53 2c3f 7d27 54bb 79dc b1bd
00000120: f41a 833f 338a 42bf 90b5 133e 0166 b4bf
00000130: 13cc 0cbf d37a ec3f bdce 873f 9eb6 ac3f
00000140: 3c03 71bf 681c 843a 13ae 9fbf 2295 f03e
00000150: 517a 1ebe d064 173f 69bd 0c3e 50d2 d43e
00000160: c507 ad3f 6ed0 783f a33d 0a3f d958 5b3f
00000170: b65e 2940 c90a ebbf 3770 823e aace 753e
00000180: 966d aebf eb6a 353f 43d4 57bd 7fd1 b1bf
00000190: 8125 013f 10cd 283f 655f 903e 5158 c7bc
000001a0: 6e8e 473f 6a41 a33f e9d5 0f40 9967 293f
000001b0: 1607 c83f 1883 393d cfcd ad3e 3977 41bc
000001c0: e473 31be f18b e2be c465 a6bd 50b6 a13f
000001d0: a431 b3be 4e8d c8be 56b0 733f cc29 463f
000001e0: d9ed 2bbf 8f7d 0c3f ec03 ea3f 71c1 a6be
000001f0: 8d05 94be cb6d b03a dcc7 a43b 81ff 5a3e
00000200: 5950 f73e ae32 c6bc

4.weight f4 [130, 130]
0.070353635 -0.0016881237 0.017257575 -0.07191799 -0.065133825 -0.07858432 0.051578455 0.029877665
-0.020070722 -0.034718372 -0.028671945 0.11382381 0.058609806 0.0077306246 -0.0789496 0.06771151
-0.08945747 0.18647271 0.08852138 -0.025908781 0.00589914 -0.038686458 0.11916193 0.14243008
-0.019468682 0.019947069 -0.019729894 0.12781534 -0.08738193 -0.0032699758 -0.09260689 0.14507604
-0.03439371 -0.11431116 0.18905756 -0.004527175 0.051053606 -0.13594611 -0.0057410556 0.041924514
-0.09528186 -0.07450277 -0.07873173 0.0045515485 0.059113227 -0.036486723 -0.024935044 0.04209452
-0.045240402 -0.15485424 -0.094958864 0.07095211 -0.03647998 0.108058944 -0.015479117 -0.014394967
0.0028771975 0.087905206 -0.11891816 0.047650125 0.05775519 0.009642009 0.09635516 -0.11551843
0.0011491973 -0.11438612 -0.058745492 -0.050848793 0.057688948 0.06556993 -0.04248583 -0.057288907
-0.20763679 0.054195907 0.07661802 -0.103647575 0.012450526 -0.14423282 -0.012877907 -0.02739313
0.004107107 -0.005759014 0.12724675 0.00616704 -0.09572085 0.021039184 -0.053835623 0.054211706
-0.008571201 0.048889153 0.03217331 0.0620713 0.0009592612 0.052485157 0.06803554 0.028893908
0.15977667 0.005749953 0.024926556 0.07672172 -0.115829945 -0.082416676 0.07383797 0.070735894
0.066548936 0.05720389 -0.0010993053 0.029697832 -0.011986722 0.0036984037 0.0033286032 0.064140365
-0.08001078 0.10623449 -0.035741992 -0.12610348 0.029734015 0.0239033 -0.070549786 0.013889856
0.021589218 -0.102093875 -0.092417374 0.06333044 0.086067654 -0.008427333 0.06099859 -0.14888048
-0.13428365 -0.16081849 -0.090754114 -0.044001885 -0.056471128 0.01857467 0.05097773 -0.029444123
-0.08147258 0.4507395 0.03957929 0.08482747 -0.086932324 -0.1956023 -0.16183814 0.23186979
0.050520144 0.023561314 0.07765891 0.06082343 -0.025360093 -0.08820998 0.06565366 -0.032635033
0.001673192 0.050492685 0.015159493 0.012597776 0.08455104 -0.17014828 0.12305782 -0.002034905
0.053830683 0.16125637 0.0034527334 -0.1099876 -0.05530772 0.032043464 0.0648551 0.094354436
-0.061698962 -0.15573353 -0.020764088 -0.09740724 0.05866062 -0.08376241 0.050354596 -0.23965666
0.019145928 -0.01969834 -0.031671938 0.13292578 -0.07676717 -0.13094422 -0.017976401 0.0019101098
0.107854426 0.036609758 0.025615921 -0.5146242 0.23659472 -0.057986353 -0.050751787 0.06038387
-0.12313352 0.038189135 0.1074074 -0.04864923 0.016353643 -0.23521747 -0.14920849 -0.040142324
0.13109921 -0.013875815 0.1346047 0.114202246 0.0747111 0.1263289 -0.16263801 0.09203717
0.13106886 -0.027003378 0.041520588 -0.08384317 0.09163092 -0.073977664 0.15001309 0.090092905
0.405119 0.09270211 -0.043376006 -0.04826836 0.018409973 -0.031414982 0.08583058 -0.012721988
-0.18277106 0.08293298 -0.1398237 0.0034957083 -0.08027896 -0.06597588 0.047863845 0.05396853
0.018473012 -0.027605785 0.07687575 -0.069733225 -0.11696588 -0.14572537 -0.20961313 -0.014772552
-0.11726848 0.090949185 -0.16065317 -0.09588289 0.08137895 0.17876703 -0.0948493 -0.01167798
-0.012708231 0.10943769 -0.016337803 0.04828926 0.17933154 -0.08470727 -0.040999744 0.020949168
00000000: 9115 903d 0844 ddba c25f 8d3c bd49 93bd
00000010: e264 85bd d1f0 a0bd ee43 533d 01c2 f43c
00000020: 5b6b a4bc da34 0ebd 6de1 eabc 751c e93d
00000030: d610 703d 2e51 fd3b 54b0 a1bd 55ac 8a3d
00000040: 7a35 b7bd b4f2 3e3e b34a b53d a73e d4bc
00000050: 934d c13b b175 1ebd 2c0b f43d 31d9 113e
00000060: c97c 9fbc 0968 a33c 96a0 a1bc 06e2 023e
00000070: 4cf5 b2bd 174d 56bb aea8 bdbd d08e 143e
00000080: 6be0 0cbd f81b eabd 4e98 413e b258 94bb
00000090: 961d 513d 7535 0bbe 771f bcbb 0ab9 2b3d
000000a0: 2323 c3bd e994 98bd 1a3e a1bd 2825 953b
000000b0: b620 723d 1a73 15bd 9444 ccbc 4e6b 2c3d
000000c0: 004e 39bd 1c92 1ebe cb79 c2bd 574f 913d
000000d0: 086c 15bd 024e dd3d 1f9c 7dbc ded8 6bbc
000000e0: 5d8f 3c3b a507 b43d 5d8b f3bd c72c 433d
000000f0: b590 6c3d 84f9 1d3c db55 c53d ed94 ecbd
00000100: aaa0 963a 4543 eabd 1d9f 70bd d346 50bd
00000110: 3f4b 6c3d 8749 863d 9f05 2ebd c6a7 6abd
00000120: bd9e 54be 87fc 5d3d e9e9 9c3d 2e45 d4bd
00000130: 4afd 4b3c c5b1 13be dbfd 52bc 8f67 e0bc
00000140: e994 863b 1cb6 bcbb f94c 023e e214 ca3b
00000150: 4b09 c4bd 5e5a ac3c be82 5cbd 180d 5e3d
00000160: 396e 0cbc fe3f 483d 29c8 033d 7a3e 7e3d
00000170: ee76 7b3a adfa 563d 3856 8b3d ebb2 ec3c
00000180: 7f9c 233e 1a6a bc3b c732 cc3c 4720 9d3d
00000190: 4038 edbd 13ca a8bd 5d38 973d fbdd 903d
000001a0: cf4a 883d a04e 6a3d 9116 90ba de48 f33c
000001b0: f563 44bc eb60 723b b224 5a3b 065c 833d
000001c0: b1dc a3bd 7891 d93d 3266 12bd 4521 01be
000001d0: c094 f33c dad0 c33c 687c 90bd 4792 633c
000001e0: dfdb b03c 9816 d1bd 5245 bdbd 64b3 813d
000001f0: 3d44 b03d cc12 0abc a8d9 793d 2074 18be
00000200: a781 09be 9aad 24be 4bdd b9bd 523b 34bd
00000210: 454e 67bd e829 983c 06ce 503d cd34 f1bc
00000220: 19db a6bd 54c7 e63e e51d 223d 06ba ad3d
00000230: 9309 b2bd f84b 48be e6b8 25be 466f 6d3e
00000240: 36ee 4e3d a803 c13c a20b 9f3d fd21 793d
00000250: f8bf cfbc 6fa7 b4bd 6d75 863d 50ac 05bd
00000260: 024f db3a 6bd1 4e3d 865f 783c e766 4e3c
00000270: 1829 ad3d 5a3b 2ebe bd05 fc3d 0a5c 05bb
00000280: 907d 5c3d 6420 253e 4147 623b 2e41 e1bd
00000290: 598a 62bd 0240 033d c0d2 843d e63c c13d
000002a0: 0db8 7cbd 9c78 1fbe 7319 aabc 727d c7bd
000002b0: 1e46 703d a08b abbd 9f40 4e3d 8e68 75be
000002c0: ecd7 9c3c 6a5e a1bc 6fba 01bd b21d 083e
000002d0: 1b38 9dbd 3e16 06be 3f43 93bc a65c fa3a
000002e0: c8e2 dc3d 1df4 153d 7bd8 d13c 69be 03bf
000002f0: e345 723e 1983 6dbd 1be1 4fbd 1455 773d
00000300: 6d2d fcbd 366c 1c3d 69f8 db3d 6a44 47bd
00000310: 13f8 853c d9dc 70be 1cca 18be 476c 24bd
00000320: df3e 063e 6357 63bc d1d5 093e dee2 e93d
00000330: 2202 993d 5d5c 013e 948a 26be fc7d bc3d
00000340: ea36 063e 3036 ddbc 7e11 2a3d f8b5 abbd
00000350: fea8 bb3d 9a81 97bd 089d 193e a182 b83d
00000360: c26b cf3e 9bda bd3d 0aab 31bd 0bb5 45bd
00000370: 83d0 963c ffac 00bd f1c7 af3d e36f 50bc
00000380: 5628 3bbe c4d8 a93d f22d 0fbe 4118 653b
00000390: 4c69 a4bd 5d1e 87bd e10c 443d 1b0e 5d3d
000003a0: b754 973c 8725 e2bc 0971 9d3d 4bd0 8ebd
000003b0: cf8b efbd 0839 15be d3a4 56be 9308 72bc
000003c0: 752a f0bd 9143 ba3d 4482 24be 405e c4bd
000003d0: 02aa a63d b40e 373e 5a40 c2bd 0055 3fbc
000003e0: 2f36 50bc de20 e03d dbd6 85bc f6ca 453d
000003f0: b0a2 373e 017b adbd 59ef 27bd 979d ab3c

4.bias f4 [130]
-0.15971379 0.8855071 -0.90506923 -0.10211669 -0.28571907 0.6036065 0.15465848 -0.295425
0.50430787 0.06944781 0.29442295 0.62027186 -0.23011985 1.1260837 0.063550934 0.58491045
-0.2827834 -0.12779969 0.028448284 -0.07447075 0.035203796 0.98130685 -0.09065776 0.7738795
0.044046454 -0.15697293 -0.5036832 -0.009139399 0.2601688 -0.9905878 0.35043794 1.878404
0.37876615 0.17120823 0.09481044 -0.07149608 0.14627327 -0.090028755 0.08673312 -0.02939303
-0.05447018 -0.030160332 -0.00994541 -0.086505905 -0.096354984 -0.09457556 -0.024927903 0.014204745
0.97069883 0.50195485 0.30681518 0.08687904 -0.106825694 0.086264506 0.48650774 1.2644678
0.5446241 0.023174262 -0.65951234 -0.12434692 0.20892906 -0.07220903 0.33724248 0.38151872
0.13830571 0.5653078 0.37130886 0.40719527 -0.019194936 0.21659982 -0.096356295 0.053060006
0.8998335 -0.09388602 -0.07068134 0.014494372 -0.026506707 0.04974297 0.38590127 0.0006200012
-0.03145188 0.91071916 0.7607836 -0.010803842 0.520405 -0.1080575 -0.13141108 0.34971148
0.24134876 1.0666834 1.2509812 0.31442943 -0.19870238 0.48811424 0.965611 0.108269244
0.33124086 -0.05459168 0.0500307 1.2016387 0.28593868 -0.10870347 0.1001728 0.4864867
0.040165268 0.67995197 0.49049234 -0.003848697 -0.06897092 1.4186977 -0.23847985 -0.09814466
0.2858678 0.37456036 0.25959903 -0.057992328 -0.31474882 0.09209486 -0.43460792 -0.017179035
-0.60525733 0.9770147 0.1958673 -0.2565877 1.3381042 0.18249972 0.1895084 -0.3414547
-0.081535496 -0.0037632715
00000000: 038c 23be 98b0 623f 9eb2 67bf 8e22 d1bd
00000010: c549 92be f585 1a3f cb5e 1e3e f241 97be
00000020: 521a 013f a73a 8e3d 9bbe 963e 23ca 1e3f
00000030: 8aa4 6bbe 8323 903f fe26 823d b1bc 153f
00000040: fcc8 90be ecdd 02be 600c e93c 1f84 98bd
00000050: db31 103d ed36 7b3f c7aa b9bd f81c 463f
00000060: 0e6a 343d 83bd 20be 62f1 00bf 6bbd 15bc
00000070: d834 853e 2997 7dbf 9a6c b33e 8b6f f03f
00000080: a3ed c13e 3651 2f3e fa2b c23d 896c 92bd
00000090: a9c8 153e ff60 b8bd 22a1 b13d a7c9 f0bc
000000a0: 201c 5fbd cd12 f7bc 13f2 22bc 022a b1bd
000000b0: c355 c5bd d5b0 c1bd 9a35 ccbc 05bb 683c
000000c0: b87f 783f 1d80 003f e116 9d3e a3ed b13d
000000d0: 6ec7 dabd 72ab b03d 8b17 f93e 15da a13f
000000e0: 7c6c 0b3f f3d7 bd3c cdd5 28bf 99a9 febd
000000f0: 80f1 553e 54e2 93bd 0cab ac3e 6c56 c33e
00000100: 03a0 0d3e 03b8 103f 321c be3e e67b d03e
00000110: b33e 9dbc 58cc 5d3e 7356 c5bd 7355 593d
00000120: 7d5b 663f 5047 c0bd 61c1 90bd cd79 6d3c
00000130: 9824 d9bc 49bf 4b3d da94 c53e 9487 223a
00000140: b0d3 00bd e424 693f b7c2 423f 9902 31bc
00000150: 4339 053f 404d ddbd a090 06be 620d b33e
00000160: 2124 773e 1589 883f 2720 a03f e5fc a03e
00000170: a378 4bbe 1cea f93e 4832 773f 44bc dd3d
00000180: 6798 a93e 879b 5fbd feec 4c3d 4ccf 993f
00000190: 8e66 923e ed9f debd 6627 cd3d c914 f93e
000001a0: 5684 243d 5511 2e3f d021 fb3e 6c3a 7cbb
000001b0: a040 8dbd e397 b53f 1034 74be 1100 c9bd
000001c0: 445d 923e 60c6 bf3e 2aea 843e 5d89 6dbd
000001d0: c226 a1be 3b9c bc3d ee84 debe 0cbb 8cbc
000001e0: 25f2 1abf a31d 7a3f 7091 483e 775f 83be
000001f0: 0047 ab3f 35e1 3a3e 7d0e 423e 27d3 aebe
00000200: 15fc a6bd 38a1 76bb

6.weight f4 [157, 130]
-0.11964204 0.049767148 0.08549438 -0.105063185 0.025440741 -0.10963982 -0.16825126 0.0010713637
-0.022857547 -0.036582656 0.026447628 -0.14534913 0.11299256 -0.099114336 -0.0050279587 -0.0012413785
-0.58585024 0.116456866 -0.06024641 -0.023891652 -0.16053356 -0.16306195 0.019605782 0.038108602
-0.15951939 0.10357886 -0.2544211 0.064795986 0.04106598 -0.19418022 -0.04403364 -0.050074946
-0.12153004 0.060689814 -0.13700645 -0.2123674 0.09570227 -0.1843233 -0.1062477 -0.09317149
0.07408262 -0.05327718 -0.2142309 -0.030380834 0.05767532 0.0050139283 -0.07586441 -0.053278327
0.22500245 0.1527519 -0.090626106 0.023016222 0.021189863 0.11579377 -0.14142215 0.20943834
0.054445207 0.15369065 -0.13087627 0.07818398 -0.2849195 -0.09397245 0.011252448 0.2500639
0.009858409 -0.035725977 0.26932308 -0.13198765 -0.08595265 0.02062911 0.11219439 -0.086604856
-0.53443563 0.007693698 -0.0012581866 0.02450913 0.07494266 -0.023961628 -0.20370036 -0.035839856
0.34024876 -0.02494426 0.12002982 -0.02053492 0.0126524605 0.08050074 -0.010508415 -0.25896642
-0.11131807 0.015556366 0.06775511 -0.1825132 -0.4513296 -0.054875005 0.12736735 0.07415585
0.008145454 -0.05527963 -0.037330084 -0.2075282 0.13778614 -0.35181925 0.011906371 0.0535069
0.06891287 0.17737897 -0.19753778 0.26105747 -0.03598675 -0.020872787 -0.013830935 -0.23185816
0.17934985 -0.034332495 -0.002196412 -0.03687185 -0.0870382 0.07472116 -0.047126744 0.018484611
-0.3442916 0.027966112 0.075878985 0.0870883 0.012214294 -0.3368356 -0.6632226 0.16424875
-0.046146803 -0.06524487 0.0020673398 0.11629128 0.024078107 -0.012930896 0.080200076 0.023051262
0.11128252 0.14362651 -0.44698182 -0.10650523 0.16215262 -0.052720476 -0.20371285 -0.012863658
-0.20568693 0.36839682 0.3215597 -0.25626242 -0.033480387 -0.06814686 0.22128862 0.023002835
-0.39846534 0.08104498 -0.2152327 0.035048734 -0.035741836 0.01676474 -0.21663807 0.09059717
-0.2220636 0.06970871 0.1267245 0.043606915 -0.40631858 -0.09072441 -0.163877 -0.116894275
-0.114569135 -0.08901012 -0.055815924 -0.24186958 -0.04729893 0.06082606 0.038804695 -1.0044243
-0.04220269 0.013925084 -0.034571454 -0.117908865 -0.041812737 -0.037744462 -0.0034726833 -0.060527403
-0.49093395 -0.95252115 -0.04504672 -0.13998301 0.04795128 0.022534927 -0.3603867 -0.0011309591
-0.09991936 0.042710677 0.25887862 -0.094864555 0.21846502 0.16823645 -0.08296587 0.11121549
-0.034472924 0.11670648 0.20209736 0.012414585 0.03640521 -0.038955517 -0.0054816185 -0.05415817
-0.08405929 -0.105206355 -0.08389157 0.09463978 -0.7177982 0.020831628 0.059361417 -0.061990228
-0.11214178 0.07207717 0.1840458 0.038756117 0.11013149 -0.1518609 0.079402804 0.14076622
-0.46084386 0.0323177 0.11418462 -0.039080147 -0.17115474 -0.1400293 -0.103657134 0.02809219
-0.044261545 -0.1039155 -0.0019109854 -0.051538654 -0.50453 0.12684454 -0.15465753 -0.14072342
0.0044391216 -0.0010681855 -0.7305403 0.00025998667 -0.051578138 0.05218214 -0.010724807 -0.10609676
0.114008665 0.046052616 0.053745218 -0.04904015 -0.027641434 -0.11852433 0.018627727 -0.058582254
00000000: e306 f5bd a3d8 4b3d ad17 af3d 5e2b d7bd
00000010: 1a69 d03c d88a e0bd 0f4a 2cbe 006d 8c3a
00000020: c03f bbbc b2d7 15bd b2a8 d83c 67d6 14be
00000030: a568 e73d 75fc cabd 93c1 a4bb c0b5 a2ba
00000040: 48fa 15bf f080 ee3d f1c4 76bd 6db8 c3bc
00000050: e962 24be b6f9 26be 4e9c a03c c417 1c3d
00000060: 0d59 23be 2721 d43d 7b43 82be c2b3 843d
00000070: cd34 283d 2ed7 46be 9e5c 34bd 631b 4dbd
00000080: bee4 f8bd e295 783d 6b4b 0cbe d776 59be
00000090: 8dff c33d 3fbf 3cbe 6598 d9bd b2d0 bebd
000000a0: a1b8 973d 2c39 5abd 585f 5bbe 3ae1 f8bc
000000b0: f53c 6c3d e14b a43b cd5e 9bbd 603a 5abd
000000c0: 0b67 663e fe6a 1c3e 2e9a b9bd 848c bc3c
000000d0: 5d96 ad3c 4925 ed3d f8d0 10be 0177 563e
000000e0: f001 5f3d 1561 1d3e 6e04 06be ec1e a03d
000000f0: f8e0 91be a174 c0bd 305c 383c 6008 803e
00000100: 2a85 213c 6755 12bd b7e4 893e c527 07be
00000110: f107 b0bd 61fe a83c 2cc6 e53d e35d b1bd
00000120: c6d0 08bf 6b1b fc3b bde9 a4ba 5fc7 c83c
00000130: 8a7b 993d 2d4b c4bc d496 50be d0cc 12bd
00000140: 1635 ae3e e857 ccbc 32d2 f53d d938 a8bc
00000150: 444c 4f3c 92dd a43d 7d2b 2cbc 3f97 84be
00000160: bafa e3bd 21e0 7e3c 31c3 8a3d bee4 3abe
00000170: ac14 e7be 9dc4 60bd 966c 023e 06df 973d
00000180: 8374 053c e56c 62bd 6ee7 18bd 4682 54be
00000190: cf17 0d3e a721 b4be f112 433c 0d2a 5b3d
000001a0: 3122 8d3d d5a2 353e 5847 4abe 53a9 853e
000001b0: d866 13bd 68fd aabc 259b 62bc 3a6c 6dbe
000001c0: 7da7 373e 3ba0 0cbd aef1 0fbb f006 17bd
000001d0: 1541 b2bd 6807 993d f907 41bd 0a6d 973c
000001e0: fd46 b0be 3019 e53c 7166 9b3d 5a5b b23d
000001f0: 761e 483c b775 acbe f5c8 29bf d330 283e
00000200: 6e04 3dbd 1a9f 85bd 357c 073b 1f2a ee3d
00000210: 733f c53c 1cdc 53bc f03f a43d 00d6 bc3c
00000220: 17e8 e33d d412 133e cdda e4be 6a1f dabd
00000230: 560b 263e 6df1 57bd 1a9a 50be 18c2 52bc
00000240: 989f 52be 829e bc3e 79a3 a43e d434 83be
00000250: bb22 09bd 9590 8bbd 7c99 623e 7170 bc3c
00000260: a603 ccbe e9fa a53d f665 5cbe 438f 0f3d
00000270: 0866 12bd 3556 893c 5fd6 5dbe 028b b93d
00000280: a464 63be 71c3 8e3d 11c4 013e 2a9d 323d
00000290: fd08 d0be b8cd b9bd 5fcf 27be 4466 efbd
000002a0: 39a3 eabd f04a b6bd 3d9f 64bd a9ac 77be
000002b0: 86bc 41bd bf24 793d acf1 1e3d fa90 80bf
000002c0: badc 2cbd 0926 643c cc9a 0dbd 347a f1bd
000002d0: d543 2bbd f099 1abd f595 63bb 95eb 77bd
000002e0: b25b fbbe 6dd8 73bf e982 38bd b557 0fbe
000002f0: 9068 443d 2b9b b83c 9b84 b8be b13c 94ba
00000300: 85a2 ccbd 64f1 2e3d bd8b 843e 5948 c2bd
00000310: 4bb5 5f3e 2d46 2c3e 03ea a9bd f2c4 e33d
00000320: 7b33 0dbd cf03 ef3d 9cf2 4e3e 8b66 4b3c
00000330: a11d 153d d28f 1fbd 269f b3bb f5d4 5dbd
00000340: 4727 acbd 6e76 d7bd 58cf abbd 80d2 c13d
00000350: 9fc1 37bf 17a7 aa3c f524 733d 77e9 7dbd
00000360: 97aa e5bd 329d 933d 8176 3c3e bcbe 1e3d
00000370: 9e8c e13d 6c81 1bbe f09d a23d 0525 103e
00000380: baf3 ebbe 915f 043d a0d9 e93d 8112 20bd
00000390: 3043 2fbe d763 0fbe 314a d4bd 9821 e63c
000003a0: 984b 35bd a6d1 d4bd 087a faba 321a 53bd
000003b0: e128 01bf 89e3 013e 8b5e 1ebe cd19 10be
000003c0: 0d76 913b 5c02 8cba b004 3bbf d24e 8839
000003d0: 9943 53bd f1bc 553d 1ab7 2fbc 4249 d9bd
000003e0: 607d e93d aba1 3c3d f223 5c3d 53de 48bd
000003f0: 4a70 e2bc e2bc f2bd 2d99 983c f2f3 6fbd

6.bias f4 [157]
0.06664853 -0.22678718 -0.44689175 0.113832854 -0.52488923 0.45996037 -0.00037160053 -0.2724782
0.7512854 -0.43765095 -0.66679937 0.078063875 -0.8977483 0.35414243 0.19177663 0.07546227
-0.27080876 0.19812386 0.5504662 -1.1190735 -0.15045723 -0.41938025 -0.40902498 0.48203754
0.35839197 1.1903906 -0.085709184 -0.3078413 -0.53989285 -0.026852341 -0.80048805 0.16433638
0.17304187 -0.52655756 -0.5825707 -0.39453512 -0.95764554 0.063671015 -0.13072537 -0.17091249
-0.04270824 -0.3349312 -0.19801867 0.14078982 0.9263885 -0.53963375 0.014755154 -0.5654087
-0.061977074 0.98784196 0.46136543 0.29694945 -0.8835256 -0.39984885 -1.4508836 0.9526735
-0.6964318 -0.61428255 0.13893954 0.10407021 -0.46445033 -0.27350214 0.18401943 -0.19582814
0.42783278 0.11393503 -0.42839235 0.0029919073 0.61791164 0.13906918 0.06126694 -0.7370513
0.12223062 0.3413372 0.3920971 0.3269737 0.32299155 0.24860252 -0.56479394 -0.037579507
0.89121324 1.0612383 -0.012922946 -0.8630732 -0.39341417 0.40413305 -0.019879987 0.17999232
0.6732373 0.08449997 0.34590974 -0.06364927 0.81609505 0.46697044 0.60870373 -0.46845764
-0.75583726 -0.4525531 -0.47439352 -0.17471682 0.098839454 -0.23924704 0.5337946 -0.63048846
-0.34430516 -0.18339215 -0.13582301 0.24786362 0.99973357 -0.16158234 -0.22263685 -0.2550937
-0.21636304 0.3840232 0.21517725 0.37058607 -1.2144364 0.0138154775 -0.06957877 -0.24936402
0.31521687 -0.99282384 0.55708426 -0.009070138 -0.34743997 0.4871162 0.5968579 -0.022766093
0.6174078 0.41082996 0.5392384 0.08891257 -0.05624023 -0.04530542 -0.9961202 -0.49431932
-0.91804385 0.32130414 -0.5848414 0.2740334 0.89301974 0.0011003966 0.23454262 0.031467397
0.32093868 0.6833128 0.1536952 0.27342916 0.29877293 0.5393838 0.6486288 0.38118732
-0.26343235 -1.0472395 0.04718846 0.5341341 0.750921
00000000: 067f 883d e63a 68be ffce e4be 3321 e93d
00000010: 245f 06bf ed7f eb3e 61d3 c2b9 4382 8bbe
00000020: 3d54 403f c913 e0be 5db3 2abf f4df 9f3d
00000030: d5d2 65bf 2852 b53e 1861 443e f68b 9a3d
00000040: 72a7 8abe fbe0 4a3e 5aeb 0c3f cd3d 8fbf
00000050: 7611 1abe 02b9 d6be b96b d1be a0cd f63e
00000060: 277f b73e b85e 983f 4c88 afbd 609d 9dbe
00000070: 6b36 0abf 71f9 dbbc c9ec 4cbf cc47 283e
00000080: e331 313e 7acc 06bf 5a23 15bf 8200 cabe
00000090: 4228 75bf f365 823d dfdc 05be af03 2fbe
000000a0: d6ee 2ebd 1a7c abbe 68c5 4abe 352b 103e
000000b0: cc27 6d3f 7025 0abf 9abf 713c a0be 10bf
000000c0: acdb 7dbd 36e3 7c3f 1738 ec3e c209 983e
000000d0: bc2e 62bf fdb8 ccbe 8eb6 b9bf 69e2 733f
000000e0: 5b49 32bf 9f41 1dbf 2b46 0e3e c322 d53d
000000f0: 6fcc edbe 7908 8cbe 976f 3c3e 2c87 48be
00000100: e60c db3e c556 e93d 3e56 dbbe e013 443b
00000110: 752f 1e3f 2768 0e3e 0bf3 7a3d 65af 3cbf
00000120: 0c54 fa3d c0c3 ae3e f3c0 c83e 1969 a73e
00000130: 265f a53e a991 7e3e 5696 10bf f8ec 19bd
00000140: 8d26 643f a8d6 873f c4ba 53bc 5ef2 5cbf
00000150: 956d c9be 87ea ce3e 5bdb a2bc e84f 383e
00000160: 4859 2c3f 520e ad3d 151b b13e 8c5a 82bd
00000170: 9beb 503f c016 ef3e 02d4 1b3f aed9 efbe
00000180: 8d7e 41bf 0ab5 e7be b5e3 f2be f7e8 32be
00000190: 576c ca3d 2dfd 74be c3a6 083f b167 21bf
000001a0: c448 b0be 27cb 3bbe 3015 0bbe f6cf 7d3e
000001b0: 8aee 7f3f d775 25be eafa 63be a49b 82be
000001c0: 468e 5dbe b09e c43e 6d57 5c3e 75bd bd3e
000001d0: a772 9bbf 505a 623c 507f 8ebd 4859 7fbe
000001e0: 1b64 a13e b429 7ebf 139d 0e3f eb9a 14bc
000001f0: a7e3 b1be 4b67 f93e aecb 183f f57f babc
00000200: 700e 1e3f 4e58 d23e 870b 0a3f cb17 b63d
00000210: 285c 66bd 2d92 39bd bc01 7fbf 6c17 fdbe
00000220: ec04 6bbf fa81 a43e 2ab8 15bf 1b4e 8c3e
00000230: f19c 643f 2f3b 903a f12b 703e f5e3 003d
00000240: 1352 a43e 96ed 2e3f 4662 1d3e e8fe 8b3e
00000250: c4f8 983e 0f15 0a3f 890c 263f fc2a c33e
00000260: 9be0 86be f20b 86bf b048 413d 03bd 083f
00000270: 5c3c 403f
