pav_spkid_pytorch/lp_model_hsize_130_lr0001/e19_weights.ckpt (torch_old, 318518 bytes, 8 tensors)

0.weight f4 [130, 189]
00000000: b07e c43c 2292 24be 6778 893e a074 6ebe
00000010: 4c44 ab3e 6439 89be 39ec af3e 4831 23bf
00000020: b8b2 a23e b58d bcbd 10c1 29be 23a0 933e
00000030: 01cc 06be ea5d 783e 7f89 e5bd 5707 483e
00000040: ce1e 03bf 8f45 853d 4571 9dbd 603a 8ebe
00000050: 3569 963e 38d8 2bbe 59d7 a93e 121c b1be
00000060: 3880 953e afee 0fbf c148 db3d cccd 83bd
00000070: 76dc 4abe e577 aa3e daf1 8ebe 7d98 bc3e
00000080: 9a20 9abe 7cfe b73e 47b1 3dbf 44e2 cc3e
00000090: 2ce9 973d 47a3 12be 5ac5 5f3e c926 37be
000000a0: 920b aa3e f86d 9fbe 8205 023f c26e 4cbf
000000b0: 03c2 313f 5ba6 903d 0f5e 1dbd 6005 9e3e
000000c0: 8250 6bbd e4bf b93e 2753 e0be b48a f23e
000000d0: 5a6e 78bf 8806 2f3f 92c3 ccbb 175b 3ebe
000000e0: ecaf b03e dcb9 e4bc c8c8 953e 296b e6be
000000f0: beaa ba3e 4339 0abf e601 f13e 472d bfbd
00000100: 5f18 cfbd cac2 523e 786a a3bd 4427 6c3e
00000110: 762b 7cbd 551d 1bbd 7522 a8be fd32 033e
00000120: 0c9c 77bd bdbc 54be 56d5 773e 5332 aebd
00000130: 7a63 243e 85d7 02bd 9fbc 4cbe d93b 29be
00000140: 1a7d 1cbe 0613 4cbd f93d 66be 7056 723e
00000150: d37d 97bd ab73 9c3d 7b27 cfbc 9e24 45be
00000160: 037b 11be 4064 95be 5d5b f4bd b2af fbbd
00000170: 84d9 843e 85ee 09be d29b 1a3e 5b8c 6dbd
00000180: fcbc 09be b370 81be 52dd 47be bddc 00be
00000190: 4193 4cbd 7b3b 343e b283 c13d 6625 5e3d
000001a0: 1d9c 203d 07c3 94be 84e7 46be ebbd ce3d
000001b0: 428f 45ba e132 893c 94dd 743d 7990 8ebc
000001c0: 991b d93d 80be 46be 83fe ebbd 9dbb f7be
000001d0: 9094 ff3e 0c48 973c d25e 82bd 7c01 88bd
000001e0: a8a7 ccbd a0fa c53c 78e6 ebbe 7e26 623d
000001f0: 4db8 02bf f1a1 8c3f 3256 123d 427a 23bd
00000200: 26c1 d3bd 8e6c 83bd 3efc 833d 83bb 69be
00000210: 3a9b fabd 95aa 87be 8aff 893f ac18 ae3d
00000220: b389 a03d af18 123c 1cd8 0e3e dd71 79bc
00000230: 5ed0 27be 4c5e 723d 0df6 6fbe 77f1 993f
00000240: ff9a a1bd 1002 8e3d 3623 febd 5d6b 543e
00000250: db2c e33c 5b77 4abe b5d6 633d e5e7 c2be
00000260: d273 8d3f c30b cebc 0c4d 873e 1c97 3dbe
00000270: 65a9 343d 7825 2dbe 7bec a9bd 0099 1ebe
00000280: be7c 93be 4315 813f c136 22bd 0912 9f3e
00000290: 2b79 3bbe 1568 c03d bbb0 abbe e6ef 29bc
000002a0: 053c 20be 94cc 78be 4714 803f 4177 bc3b
000002b0: 8ab2 f43e 559a acbe b329 823e ee39 b9be
000002c0: 7a5b 463e d57c c8bd ade2 94be 5004 a13f
000002d0: f149 933c 0339 ca3e 8b66 44be c7cd ee3d
000002e0: 6c57 84bc e4e1 0ebc 3a19 06bc 0b3b e1be
000002f0: e696 9f3f b212 aa3b 56c7 27bf 23dd 82be
00000300: 537c 6d3e 0e9d 02be cfb7 ce3e dce7 9d3f
00000310: 8275 eabf 3d9a 43bf f34c 76bc 2356 cabe
00000320: 8707 00be 96f0 333c 33a5 c23d 7a28 a03e
00000330: 35ce 493f cf28 7fbf b1cb c3be 990a d23c
00000340: 4bdb c7be 7382 22be d2b2 073e de35 01bd
00000350: cd1c a93e dd77 2b3f f748 4ebf 929c 6cbe
00000360: 3e86 e4bc a722 a0be fc9e 5dbe 3722 123e
00000370: 2cbc 10bd 8122 903e 58b4 2e3f 3e2d 78bf
00000380: 413e d6bd 1719 a13c f81b bcbe d701 3ebe
00000390: d0ad 433e 0757 04be bc97 ab3e d305 2d3f
000003a0: 039f 80bf e795 f1bd f556 2f3d df88 bfbe
000003b0: 11bd 82be 331c 613e 5ac9 b0bd 8f9e c83e
000003c0: 0567 353f 1227 84bf 51e7 afbd 5826 7abd
000003d0: ff69 a9be a9ea 69be c0fc 573e 1b98 40bd
000003e0: 0bdb d93e 28fe 3a3f 1c56 a0bf 7041 68bd
000003f0: 7945 1e3d ed1f cabe d1da 6cbe ce98 623e
0.02398619 -0.1607137 0.26849672 -0.23286676 0.33450544 -0.26801598 0.3435991 -0.6374707
0.31776977 -0.09206716 -0.16577554 0.28833112 -0.13163759 0.24254575 -0.11207866 0.1953405
-0.5121888 0.06507408 -0.0768762 -0.27778912 0.29377142 -0.167817 0.3317211 -0.34591728
0.29199386 -0.5622358 0.10707236 -0.06435737 -0.19810662 0.33294597 -0.27918893 0.3683509
-0.30102998 0.35936344 -0.7409863 0.40016377 0.07417521 -0.14320098 0.21852627 -0.17885889
0.33211952 -0.31138587 0.50789654 -0.79856503 0.69436663 0.0706298 -0.03841978 0.30863476
-0.057449825 0.36279213 -0.4381344 0.47371447 -0.97043383 0.6836934 -0.0062488997 -0.18589436
0.34509218 -0.027920656 0.29254746 -0.45003632 0.3645839 -0.53993624 0.4707176 -0.09334808
-0.1011207 0.20582119 -0.07979292 0.23061854 -0.061564885 -0.03786977 -0.3283879 0.12812419
-0.060451552 -0.20775123 0.24202475 -0.08505692 0.16053572 -0.031943817 -0.19993828 -0.16526736
-0.15282097 -0.04982283 -0.22484578 0.23665786 -0.07397046 0.076392494 -0.02528738 -0.1925225
-0.14207081 -0.29178047 -0.11931489 -0.122893706 0.259472 -0.13469894 0.15098503 -0.05799518
-0.13450998 -0.25281295 -0.19518021 -0.12584205 -0.04994512 0.17600815 0.09448947 0.054234885
0.03921138 -0.29055044 -0.19424254 0.10094818 -0.00075363007 0.016747894 0.059781626 -0.017402874
0.10600967 -0.19408607 -0.11523154 -0.48385325 0.49918032 0.018466972 -0.06365742 -0.06640908
-0.099929154 0.024167359 -0.4607427 0.05521249 -0.5106247 1.098692 0.035726734 -0.039911516
-0.103395745 -0.064171895 0.06444596 -0.22825436 -0.12236638 -0.2649733 1.0781109 0.085007995
0.07838764 0.008917018 0.13949627 -0.015224901 -0.1638808 0.05917196 -0.23433705 1.2026814
-0.07890891 0.06933987 -0.1240906 0.20744081 0.02773135 -0.19772093 0.055624682 -0.38067546
1.105097 -0.025152093 0.2642597 -0.18514675 0.04410686 -0.16908824 -0.08297058 -0.15488052
-0.28806108 1.0084614 -0.039603 0.31068447 -0.1830794 0.09394852 -0.33533272 -0.010372138
-0.15647896 -0.2429679 1.0006188 0.005751521 0.47792464 -0.33711496 0.2542244 -0.3617701
0.19370833 -0.09789435 -0.2907919 1.2579441 0.017979594 0.3949662 -0.19179742 0.11660343
-0.016154967 -0.008720849 -0.008184725 -0.4399036 1.2467926 0.005190217 -0.6553854 -0.2555934
0.23191957 -0.12755224 0.4037461 1.2336383 -1.831711 -0.76407224 -0.015032995 -0.39518842
-0.12502871 0.010982653 0.095041655 0.3128088 0.7883027 -0.99671644 -0.38241342 0.025639819
-0.39034495 -0.15870075 0.13251808 -0.031545512 0.33029786 0.6697977 -0.80580086 -0.23106602
-0.027896043 -0.31276438 -0.21642679 0.14270864 -0.035335705 0.28151324 0.6824393 -0.96944034
-0.10461093 0.019665284 -0.36740088 -0.1855539 0.19109273 -0.12923823 0.33514202 0.6758701
-1.0048527 -0.1179617 0.042807538 -0.37409112 -0.2553487 0.21983413 -0.08632155 0.3918347
0.7086032 -1.0324423 -0.08589042 -0.061071724 -0.3308868 -0.22843422 0.2109251 -0.04702006
0.4254993 0.7304406 -1.2526278 -0.05670303 0.038640473 -0.39477482 -0.23130347 0.22128603

0.bias f4 [130]
00000000: 3d96 2a3e 2ff3 b9be 4121 09be 0ae5 513e
00000010: 14f2 a6be 1650 c13f a628 7bbd db1a 4cbe
00000020: c4db d9be 230b 2440 3804 3a3f 4afe d2be
00000030: e9a0 d73e c25d 013f 6728 263e f7c2 163f
00000040: 110d 153f 6f28 9a3d 904f 14c0 30d0 1a40
00000050: 518a 0c3f 1d57 a7bf ae6f c03d be72 d33f
00000060: 0c95 4e3e 2443 1bbb 34fc eabf 1a5b 1940
00000070: 823a 533e 1643 843d ec09 603f 4368 133e
00000080: 1db8 8bbf db9e 6fbf 2c8d 3140 f0e5 a93f
00000090: a2a5 3f3f 357e 693c 2165 f63b f1ec 86bf
000000a0: 6fa5 acbd 339c 88bd 1941 3fbf 88bd 2ebd
000000b0: eaf7 f13d 6895 423f a8c1 1dbf 531b 9b3e
000000c0: fda0 a8bd 3f71 8dbe e0b9 1b3e 3ed7 cdbe
000000d0: 5416 f03d d281 ce3e b286 48bf d5af 25bf
000000e0: 704b 84be 659f 893f e707 383f f95f 09bf
000000f0: c44b 5a3e dc13 cf3f 1878 e33d bbf5 023e
00000100: 6d68 95bf 2146 cbbc 97e2 d53e 7604 3c3e
00000110: 9c80 003f 3e72 ce3d f225 16bf 6823 793c
00000120: 298a 2f3f 2093 99be 8c51 c03d e611 02bc
00000130: 8a3b d5bd 79e1 0fbe 0c05 9b3e e3ae 5cbf
00000140: b666 27bf 5e75 d4be 14f0 263f 6184 86bc
00000150: 14ad c23e 78e9 933c a498 943e edb0 94be
00000160: ec53 16bf e08a 713d 5ceb c03d 228c 9f3f
00000170: 499f 373d 92ae 14bf defe 513f 2142 243e
00000180: 6c68 1040 b13c 303f 8300 aa3d 5b21 c03f
00000190: 7b55 1f40 d0b1 bc3e 3b7b 1940 15dc debe
000001a0: 1595 92bd 6544 833e 5b55 bcbd 27b2 4a3f
000001b0: c2c0 58bc 966c 903f 5024 863d 2bd0 183f
000001c0: 2ef7 213c 7b5f 663f e8ae 0d3f 8d1a e73b
000001d0: 2381 b43f 3189 c0bd 74f0 0140 e686 633d
000001e0: a774 203f bdf1 1e3e 4ad8 1b3e 8ac0 b03f
000001f0: 2558 25bf cbae a7bd 1dd7 d4ba a0b5 8a3e
00000200: 65f0 3440 1c8f af3e
0.16658874 -0.36318347 -0.13391592 0.20497528 -0.32606566 1.5102565 -0.061318062 -0.1993212
-0.4255048 2.5631797 0.7266269 -0.41209632 0.42114952 0.5053369 0.1622635 0.5889124
0.5822306 0.07527243 -2.317356 2.4189568 0.54898554 -1.307346 0.09396301 1.6519392
0.20174044 -0.0023691142 -1.8358216 2.3961854 0.20627788 0.06458108 0.8751514 0.14395241
-1.0915562 -0.9360177 2.7742414 1.3273296 0.7486211 0.0142512815 0.0075193797 -1.0541059
-0.084299915 -0.06670418 -0.74708706 -0.04266122 0.11814864 0.76009226 -0.6162362 0.30294284
-0.08233831 -0.27625462 0.15207624 -0.4020328 0.11723009 0.4033342 -0.7833053 -0.64721423
-0.25838804 1.0751768 0.7188706 -0.5366207 0.21317965 1.6177936 0.111068904 0.12789051
-1.1672493 -0.024813714 0.41774437 0.18361077 0.5019624 0.10080384 -0.5865165 0.015206195
0.6857019 -0.2999506 0.09390554 -0.007938838 -0.10411747 -0.14050855 0.30277288 -0.86204356
-0.653911 -0.41495794 0.6521008 -0.016420545 0.38022673 0.018055663 0.29022706 -0.29041234
-0.58721805 0.058970332 0.09419891 1.246464 0.04482964 -0.58078873 0.8202952 0.16040851
2.2563734 0.6884261 0.08300879 1.5010179 2.4895923 0.3685441 2.3981464 -0.43527284
-0.071573414 0.25638118 -0.09195968 0.7917809 -0.013229551 1.1283138 0.06549895 0.5969264
0.009885592 0.8998944 0.5534501 0.0070527256 1.4101909 -0.09401167 2.030301 0.05554857
0.62678 0.15521903 0.15219226 1.3808758 -0.6458762 -0.08187636 -0.0016238425 0.27091694
2.8271725 0.3428887

2.weight f4 [130, 130]
00000000: 6dee 993b 5b2d 923d b1fd 9bbd bede 6fbd
00000010: 8032 003d 3f02 8ebd 35d4 5abd 8473 b7bc
00000020: 8670 babc c2d4 b7bd 54ac 0d3d 53a8 da3c
00000030: 286a 1c3d 49be 3ebd 8710 943c d44f f5bc
00000040: 4133 ee3b 3d68 9bbd 9dc5 3cbd 31bd 35bd
00000050: c53a 68bd 9512 bfbc d9fe 703d d3d4 93bd
00000060: 4fe8 b5bd 3196 bbbd e6c6 cabd 1d3c a63b
00000070: 9323 903d 5868 903d c9df bb3c 32cc 42bd
00000080: 217e dcbd 5efe fbba aa0c b8bd 0514 063e
00000090: 5804 8fbd ab6c 37bd a12a e0bc 9c65 b0bb
000000a0: 9aaa 1f3c d8e7 b4bd 1254 b6bd 1e37 aabd
000000b0: 839d 1dbc e901 733d cade 80bd 8ee6 133c
000000c0: bedd 28bd d7bd 8ebc 9e2f 563c c5d5 d6bd
000000d0: 72f5 ed3c d4c7 713c ac02 1e3d 7b9a d83b
000000e0: 2803 cb3c 55c9 513c 0b31 cb3c b384 e9bd
000000f0: 994e ba3c 13cc 56bd 1f7a 4bbc 21e0 ce3d
00000100: 6139 07bd 509d d83b de55 633d e85e 9cbd
00000110: a13b 853b 32cb 843b 9945 a7bd c00f 5e3b
00000120: bcc0 ac3c 3dbd b4bd 70a1 833d b23d 59bd
00000130: 2e81 08bc 6724 1dbd 93de 563d 4b6f a6bb
00000140: cbb6 9bbd 6f48 91bd 46dc 1b3d f32a b03d
00000150: cbb2 babd 0809 55bd 03f2 47bd d0ed bfbd
00000160: 920d b6bc 4e56 94bd dc7f 29bb c270 19bd
00000170: 2fa4 4ebd 5eaa f9bc 5dff 903d ae4d 0c3c
00000180: 1119 f23b 4240 eebc 3596 8a3c d312 b63c
00000190: 1d57 c03d af8b 99bd 5ce9 d4bd 2c4d bfbc
000001a0: 4bd0 52bc d777 c1bc 6224 01bd 73af 123d
000001b0: 62a9 afbd 996d df3c 2746 32bd 0382 86bd
000001c0: ba77 373d 2daa 9fbd 0455 29be 61f1 98bd
000001d0: f13a 0d3d 1bc6 923d 59d0 b63c 95c4 53bb
000001e0: 3e98 3ebb 3933 36bd 946d 8fbc 0b13 99bd
000001f0: f7d7 3c3d 0564 073d 0911 053d 4824 133d
00000200: 2f06 873d e188 d7bd cb54 473d cf3c 87bc
00000210: d6f5 5e3a c33f 8abc 464e 943d e770 273d
00000220: 0283 023d dc26 eb3c 0479 ccbd cab0 813d
00000230: 31d8 b2bc d39d 743e c72c 143d b56f af3d
00000240: 081f 343e 9fd1 d5bd 7d88 213d cd30 6b3d
00000250: 378b 13be 2fba 703d 6315 da3d 9f99 95bd
00000260: 9550 a23c 16f7 343c d9cf 603c 14fc 533c
00000270: fbd9 31bd 40df 943c 4fa9 543d b141 af3d
00000280: cbe5 ba3c 2f2c 253e f7ac 153d deb6 893d
00000290: aafb ed3c f835 b33d 49e7 96bd 0962 10bd
000002a0: 3afe 593d 003d 8c3d 7ec3 1e3d 639a 713d
000002b0: ff3a 2d3d d520 943d a901 e5bb 060f 103e
000002c0: 11b6 293d de66 62bc c1b8 ab3d 5545 883d
000002d0: 3055 033d efba 2a3d 83ab 633d 9b56 353d
000002e0: 1a09 72bd fe99 d03c dcee b03d cefa cc3d
000002f0: fe87 57bb 05a2 54bd 34db 543b 3b62 abbc
00000300: 18c8 823d e0c0 aa3d 82b3 8c3d 6360 c9bc
00000310: d9ec d83d e44c 553d 117b 14be 9b9a b7bb
00000320: 7c10 013d 9e0a 853d 9264 483d ec48 113c
00000330: 41dc 103e a63b 4e3c 237c 453d 39e3 853d
00000340: f768 2e3e c597 9e3b 3135 973d d6a5 5bbd
00000350: 2062 8e3d 05c5 6dbc a1a8 203d 747e 513c
00000360: 5749 013e f0d2 1d3d 50cf a63d 6683 063d
00000370: d480 36bb 6c86 3d3d 614b 573d b489 00bc
00000380: bce0 6a3c 80ad c9bc 04a1 773b 87b7 463c
00000390: 496e a23b 01e0 b8bd 7a1d 343d db86 a93d
000003a0: 7d08 823b 2085 0abe 39bf a33d f457 033e
000003b0: 93b4 af3d 9b18 8d3d 4c97 043e 2aa9 a63d
000003c0: 5686 88bd 415a 133d 8b18 833c d29c ba3d
000003d0: 0a4e 07be 96d6 713d f3a6 133e 42dc fbbc
000003e0: ab97 8cbd 2f6a 7f3d eca9 043d 23d0 b6bd
000003f0: 4e12 9a3d 0c68 a4bd 7b48 0fbe 0acb 9abc
0.004697612 0.07137557 -0.07616747 -0.058562033 0.03129816 -0.06934022 -0.053425033 -0.02239395
-0.022758733 -0.08976127 0.034588173 0.026691591 0.038187176 -0.04656819 0.018074287 -0.029945292
0.0072692935 -0.07588241 -0.046086896 -0.04436988 -0.056696672 -0.02332429 0.05883679 -0.072183274
-0.088822 -0.09159506 -0.09901218 0.005073084 0.07038035 0.07051152 0.022933858 -0.047558017
-0.10766245 -0.0019225588 -0.089867905 0.13093574 -0.069832504 -0.04478137 -0.027364077 -0.0053832065
0.009745264 -0.08833283 -0.08902754 -0.08311294 -0.009620073 0.059327994 -0.06292494 0.0090271365
-0.041227095 -0.017424507 0.013072876 -0.10489992 0.029047702 0.014757115 0.038576767 0.0066102124
0.024781778 0.012804349 0.024803659 -0.114022635 0.022742556 -0.052440714 -0.012419253 0.10101343
-0.033013705 0.00661055 0.05550181 -0.076352894 0.004065946 0.004052543 -0.081675716 0.00338839
0.021087997 -0.08825157 0.06427276 -0.053037353 -0.00833158 -0.038364794 0.052458357 -0.005079185
-0.07603224 -0.07093894 0.038051866 0.08601942 -0.09116133 -0.052010566 -0.048814785 -0.09371531
-0.022223268 -0.07243024 -0.0025863564 -0.03746105 -0.050449546 -0.030476745 0.07079957 0.008563442
0.007388242 -0.029083375 0.016917327 0.022225773 0.093916155 -0.07497346 -0.10396072 -0.023352228
-0.012867044 -0.023616714 -0.031528838 0.035811853 -0.08577229 0.02727394 -0.043523934 -0.065677665
0.044791915 -0.0779613 -0.16536337 -0.074679144 0.03448004 0.07166692 0.022316145 -0.0032313217
-0.0029082443 -0.044482443 -0.017508306 -0.07474335 0.046104398 0.03305437 0.03248695 0.035923272
0.06592976 -0.105241545 0.04866485 -0.016508488 0.00085052603 -0.016876107 0.07241492 0.040879156
0.03186322 0.028705053 -0.099840194 0.06332548 -0.021831604 0.2388833 0.036175516 0.08566228
0.17589962 -0.10440373 0.039436806 0.057419587 -0.14408575 0.05877131 0.106486104 -0.073046915
0.019813815 0.011045238 0.01372143 0.012938518 -0.043420773 0.01817286 0.051919278 0.085574515
0.022814652 0.16130136 0.036541905 0.06724332 0.029050667 0.08750528 -0.07368333 -0.035249744
0.053220965 0.06847572 0.038760655 0.058985125 0.04229259 0.07232825 -0.0069887233 0.14068231
0.041433398 -0.013818471 0.083848484 0.06653849 0.032063663 0.04168218 0.05558349 0.044272047
-0.05909071 0.025464054 0.08639309 0.10008775 -0.0032887454 -0.051912326 0.0032479288 -0.020920863
0.06385821 0.08337569 0.06870176 -0.024582094 0.1059205 0.05207528 -0.14500071 -0.005603147
0.03150986 0.06496166 0.048924036 0.008867484 0.1414652 0.0125874635 0.04821409 0.0653748
0.17032228 0.0048398697 0.07383192 -0.05362495 0.069523096 -0.014512305 0.039223317 0.012786496
0.12625633 0.038531244 0.081450105 0.032840155 -0.0027847784 0.046270773 0.05256212 -0.007845331
0.014335807 -0.024618864 0.0037785182 0.012128717 0.0049569947 -0.090271 0.043973424 0.08277675
0.003968297 -0.13527346 0.07995457 0.1282652 0.08579364 0.06889459 0.1294834 0.08137734
-0.066662475 0.035974745 0.016002914 0.09111942 -0.13213363 0.059042536 0.14419155 -0.030744676
-0.06864866 0.062357124 0.032388613 -0.08926418 0.075230226 -0.08027658 -0.13992493 -0.018895645

2.bias f4 [130]
00000000: 862f abbd a83b 683e c08f a13f 5e04 a83f
00000010: d285 a93f 618a 14bf 944d 563f 8d79 65bf
00000020: 5527 04bf 6b05 543f b624 903e c24a 6ebf
00000030: ab31 e73f 055c 44bf 7d47 8b3e 082f b2bb
00000040: 4adc f33e 7dae e13d c7bd 473f b379 5a3f
00000050: 0e54 803d e0de c43e 331c 2bbe fabc f6bd
00000060: 150b f63d f772 013f 516e c13d 606d c6be
00000070: 13e4 65be a7be 663f 1d7b 0540 8de4 873f
00000080: c6f3 e93c d1c1 37be f0d1 ea3e 7856 163f
00000090: 36a5 d0bf 8a98 f7bd 9375 c23c e587 903c
000000a0: 1097 3cbd f4a5 c93f 46fc c9bf 0137 bc3f
000000b0: 8447 e5ba 84d2 bfbf 878c aa3d 8464 a4be
000000c0: 4410 e7bd f8be e5bd 45ee d53f b7bf 2a3f
000000d0: d45a 1dbf 8190 523e fc96 6e3f 1240 883f
000000e0: d110 5f3f e780 213f 05bb 10bf c9f7 7f3f
000000f0: 6595 373f 2a21 e4bd 044c e33d a96a 013f
00000100: 3c61 2cbf 96e9 9e3f 5c3b 28bc e52f 123f
00000110: 3e56 173f f3e1 1e3d d73a 1e3f 9b86 b13b
00000120: 5d76 1dbf 60b8 623e b3f6 723e 863d 94bf
00000130: 98f1 9abd db43 383f 2889 b83b 1079 da3f
00000140: 6b4c 543e 07d0 1f3f 21d0 23be e651 edbd
00000150: 355e 0040 c094 47bd 8113 ca3f cbd0 603f
00000160: f5ee 8a3f baac 1040 27da 0940 64ae c43e
00000170: cd39 35bf 45d6 78bf 8b02 2e3e c02a 8cbd
00000180: f444 93be 920b 02bf 578d 96bf 44c9 9a3c
00000190: d05d af3f ff9a 153f 70c4 a6bf 43ae 0b40
000001a0: 30be ffbd d749 f43d 6624 29bf 0025 05bf
000001b0: f41c 88bf f56b 6dbf e183 a43e 6686 7a3f
000001c0: 1e09 0ec0 470b 31bf 11b0 25bf d114 393e
000001d0: 77ba 863e 2771 6dbd 792a eebd cb6f 9c3f
000001e0: a93c a4bd 33cc 653e 430e ad3f a205 77be
000001f0: 7eee 263f d8c4 bebe f758 d73e 3180 50c0
00000200: e37b 663f 5fa4 a3be
-0.08358674 0.22679007 1.2621994 1.3126333 1.3243964 -0.5802365 0.83712125 -0.89638597
-0.51622516 0.8282077 0.28153008 -0.9308282 1.8062032 -0.7670291 0.2720298 -0.0054377355
0.47629005 0.11019609 0.7802395 0.8534195 0.06266032 0.3845129 -0.16709976 -0.12047763
0.120138325 0.5056605 0.09444869 -0.38755322 -0.22450285 0.9013466 2.0856392 1.0616623
0.028558623 -0.17945029 0.45863295 0.5872569 -1.6300418 -0.120896414 0.023737704 0.017642925
-0.046042502 1.575377 -1.5780113 1.4704286 -0.0017492627 -1.4986119 0.08327585 -0.32107937
-0.11282399 -0.11218065 1.6713339 0.66698784 -0.6146672 0.20562936 0.93199134 1.0644553
0.87135035 0.63087314 -0.5653537 0.99987465 0.7171233 -0.11139138 0.11098483 0.50553375
-0.6733587 1.2415035 -0.010268059 0.5710433 0.5911597 0.0387897 0.6180853 0.0054176576
-0.61508733 0.22140646 0.23726921 -1.1581275 -0.075656116 0.7197854 0.0056315847 1.7068195
0.20732276 0.624268 -0.15997364 -0.115878865 2.00575 -0.048725843 1.5787202 0.8781859
1.0854174 2.2605424 2.15394 0.384143 -0.7079132 -0.9720195 0.16993158 -0.068440914
-0.28763545 -0.50798905 -1.1761883 0.018894799 1.3700504 0.5843963 -1.3028698 2.182511
-0.12487447 0.11928146 -0.66071165 -0.5200958 -1.0633836 -0.92742854 0.32131866 0.97861326
-2.2193065 -0.6915783 -0.6472178 0.18074347 0.26314136 -0.05796924 -0.11629195 1.2221617
-0.080193825 0.22441177 1.3519977 -0.24123242 0.6520766 -0.37259555 0.42060062 -3.2578242
0.90032786 -0.31961343

4.weight f4 [130, 130]
00000000: e834 043d 3339 1cbe 4706 423d 8394 823e
00000010: 9c47 e83d 27df 2dbe d3cc efbc af06 813d
00000020: 107d 313e 044a 3f3d ed84 073d 8077 31bd
00000030: 8382 d23c 4cf6 9d3d ef05 02bd afcd 29be
00000040: f308 893e b3e5 c93c 0b13 993d 4822 9f3d
00000050: 8054 693d c28a 4d3e 02ad 56be b747 7f3d
00000060: 2244 ee3d 0cc3 e93d 7d34 983d 8486 513c
00000070: 7354 12be 50a5 323e 690b bf3d 9821 40bd
00000080: f0d4 28bc ac22 503e 58f1 fabc 933b 3f3d
00000090: 3c9d 78bd 3e1d 463d c59f 533d 7bde dc3c
000000a0: b1cd 0cbd 173f 123e 2fea c8bc fc48 77bd
000000b0: dd74 873d 8a16 f1bd bc69 633d 0e68 3fbe
000000c0: f531 323e 88d8 b1bd 6d8e 7abe f5e7 11bd
000000d0: 3c38 58bd f66f 70be 5457 583d 5a5b dd3d
000000e0: fa21 b2bd f47b 17be 66f1 bebd c3c4 2d3e
000000f0: c73b ac3d 4c5e e13d 7827 0e3d 7d8c d9bd
00000100: 55cf b83b 152d eebd 4a68 75be 98ab 843d
00000110: 3726 e53d 0ac8 713d 91a5 4f3d ac54 aebd
00000120: 4bc5 1dbd 8163 a03d 38fe 0b3e 1ce3 59be
00000130: 287f 2f3c dbb4 593b d9ee 533d 330a 3c3e
00000140: ab2e d93d 1a02 073e e980 12be bf5f 3b3d
00000150: 200b a03b 3a6a 90bd 6e93 333e 026d 273d
00000160: 8276 053e 3c3f b33e 66a7 1b3e 09f4 c13d
00000170: b264 1abd 88a4 79be 966d 5ebe 4651 cb3d
00000180: b2ab 08be 1aa1 f1bc 7fbc 2cbe 12de ec3c
00000190: e2d7 e439 137d b5bd 9a49 c43c f1ec 6bbd
000001a0: 6e27 b0bd 95d8 9b3d a68b f5be d918 57be
000001b0: d4e3 adbc a7f4 c23c da3a 0a3e 710c cb3d
000001c0: 4b6e 97be 3376 923d 71e3 08bd 6243 37bd
000001d0: 4cb2 f43c 5edb b4bd 9357 b13e 2d3f 733e
000001e0: d8e8 43bd 1076 20be c10f d83d 8c0f 82bc
000001f0: 3eca 5b3d 5841 813c 6dd0 633c 2588 31be
00000200: 61a2 3ebe f7e2 b6bd c7d2 68bb db69 6abd
00000210: 47b0 ef3d cc8c 56bc 8c57 9ebe f111 843d
00000220: 2b31 8ebd d9e9 ac3d 7389 1c3e f800 36bc
00000230: 428e 033d afb5 90bd 246d 47bc e4ba 1e3b
00000240: 9530 0abe b2ad 1e3e acfa 00be 2455 0e3e
00000250: 93bd 17bc f34b 78be ca2a 153d 05b0 92be
00000260: b0cc 2a3d 979b 86bc b271 0ebe db5a 35be
00000270: c9d4 d53d 171a edbb 7f79 2e3e e44e 8c3d
00000280: 7b57 6abe 3c2d f3bd 05d4 79bd 6965 1c3c
00000290: cb64 15be 8c4b fb3d 75c5 353e 94e4 af3c
000002a0: 8f58 81bc 1d4c 50bc 1771 9ebd c56a 17be
000002b0: d7be dd3d e1da aebd 899f 5abd a16e d53d
000002c0: fa5a cb3d e618 5abd 4240 15be e8bf c53c
000002d0: c2f5 08bd 8bdc 74bd 4b78 bdbd f38d 6e3e
000002e0: 8f3c 28be 3fc9 5bbe bf91 6ebe eba3 043d
000002f0: f169 283e 0cc5 b9bc f88c 2d3d d33c 31bd
00000300: ac00 34bc e49d 05be 9247 243e 11fc c2bd
00000310: 7f7f 83bd 3132 b73d b666 173e 56b3 a1bd
00000320: 98ad 05bc 6039 90bd f1f6 253d 53f1 803d
00000330: 5ef5 b6bd 0539 793b 0652 4b3d 950a 23be
00000340: 5ab7 fb3c 3e3c e8bc e9bd 7cbd c59e 10bc
00000350: 07a0 56be 2dc0 993d 3428 f2bc d21f 4b3c
00000360: 23b8 7bbe 652a d9bd 7ac6 7bbe 3252 7c3d
00000370: f606 003e 5a62 6b3d 976c 8f3d fea1 77bd
00000380: 7555 643d 2b27 08bc aac3 31be 3a1e a9bd
00000390: ab92 a33d ede3 993d c7d7 7abe c2c6 84bd
000003a0: 1577 35bd d0ea 953a 6be8 ebbd 1899 80bd
000003b0: ca27 f93c b29d 0ebe 5819 06bd 19df b9bc
000003c0: ead0 0bbd 9590 0e3e b761 3a3d 191f 1bbe
000003d0: 4434 c03d 6e07 1bbd 18f4 f93d 5327 3f3c
000003e0: c289 2abe 677d 84bd 9082 ac3c 9738 dcbd
000003f0: 4d26 9c3d 7ba8 13be ca76 303c e1d0 c63c
0.032277018 -0.15256195 0.047369268 0.2550393 0.113417834 -0.16979657 -0.029272472 0.06300103
0.17332864 0.046701446 0.033085752 -0.043326855 0.025696998 0.07712993 -0.03174394 -0.16582368
0.2676464 0.024645662 0.07474335 0.077702105 0.05696535 0.20072463 -0.20964435 0.062324252
0.11634089 0.11414155 0.07431886 0.012788419 -0.14290027 0.17445874 0.09328348 -0.046907037
-0.0103046745 0.20325726 -0.03063266 0.046687674 -0.060696825 0.04836773 0.05166604 0.026961556
-0.03437585 0.1428188 -0.02452573 -0.060372338 0.06614087 -0.11771877 0.055520758 -0.18692037
0.1740187 -0.08683878 -0.24468394 -0.035621602 -0.052788004 -0.2348021 0.052817658 0.108084396
-0.08697887 -0.14793378 -0.09323387 0.1696959 0.08409839 0.11004314 0.03470561 -0.10622499
0.0056399503 -0.116296925 -0.23965564 0.064780414 0.111889295 0.059028663 0.050695006 -0.08512244
-0.03851823 0.07831479 0.13671196 -0.21278042 0.010711469 0.003321937 0.051741455 0.18363266
0.10604604 0.13184395 -0.14306988 0.045745607 0.0048841387 -0.07051511 0.17536709 0.040875442
0.13033488 0.35009181 0.15200576 0.09470374 -0.037693687 -0.2437917 -0.21721491 0.09927611
-0.13346747 -0.029495765 -0.1686878 0.028914485 0.00043648394 -0.08861747 0.023960877 -0.05759901
-0.086012706 0.07609669 -0.47958106 -0.21005572 -0.021226801 0.0237983 0.13499013 0.099144824
-0.29576334 0.07151451 -0.03342003 -0.044741996 0.029870175 -0.088309035 0.34637126 0.23754568
-0.04782948 -0.15670037 0.1054988 -0.015876554 0.05365967 0.015778229 0.013904673 -0.17337091
-0.1861663 -0.08930009 -0.0035526024 -0.057229858 0.11703544 -0.013095092 -0.30926168 0.064487346
-0.06942972 0.084430404 0.15286808 -0.011108629 0.03211809 -0.070659034 -0.012172017 0.0024220282
-0.13495095 0.15495947 -0.12595624 0.13899666 -0.009261507 -0.24247722 0.03641776 -0.28649917
0.04169911 -0.016431613 -0.13910559 -0.1771044 0.10440976 -0.007235776 0.17038535 0.06850985
-0.22884934 -0.11873862 -0.060993213 0.009545662 -0.1458923 0.12270269 0.17751105 0.0214713
-0.015789298 -0.012713459 -0.07736414 -0.14786823 0.108274154 -0.085378416 -0.0533748 0.104214914
0.09929462 -0.0532464 -0.14575294 0.02413936 -0.033437498 -0.05978064 -0.0925146 0.23296337
-0.16429351 -0.21463488 -0.23297785 0.032382887 0.16446663 -0.022676967 0.042370766 -0.043270897
-0.010986488 -0.13048512 0.16042927 -0.09520734 -0.06420802 0.0894512 0.14785275 -0.07895534
-0.008159064 -0.070421934 0.040518705 0.06296029 -0.08933519 0.003802837 0.04963877 -0.15922005
0.030727077 -0.028349038 -0.06170455 -0.008826916 -0.20959483 0.07507358 -0.029560186 0.012397723
-0.24581961 -0.10603789 -0.24587432 0.061601825 0.12502655 0.057466842 0.07003134 -0.060457222
0.05574556 -0.00831012 -0.17359796 -0.082577184 0.07986959 0.075141765 -0.24496375 -0.064832225
-0.04430302 0.0011437777 -0.115189396 -0.062792 0.03041448 -0.13927343 -0.032739013 -0.022689389
-0.034134783 0.13922341 0.045503344 -0.15148582 0.09384969 -0.037848882 0.1220476 0.0116670905
-0.16654113 -0.06469231 0.02105835 -0.10752981 0.07624493 -0.14419739 0.010770509 0.024269523

4.bias f4 [130]
00000000: d23b b33e 7b1e fbbe db6f ac3e 464a dd3e
00000010: 6e31 a33e 7c4f 9f3f 9e8d 8dbe cf46 e2be
00000020: d25d 5fbe 2466 eb3d f906 0b3f 5364 94bd
00000030: 6306 d63e 9e32 4ebe f950 543e 6f7d ce3e
00000040: 5ca6 51bd 1d30 8e3f 8ed6 bebc 8863 99bd
00000050: 4252 d63e 851c 91be c023 b73e f894 1f3f
00000060: bc4d 39bd 803f 31be 1238 ba3f 3bce cf3f
00000070: 880a d83f bd9a 103e 2a53 83bb f039 eb3f
00000080: b50e ea3e 42fc 623e f3b7 4ebe 7803 423e
00000090: 29f0 c4bc 687e 7f3d 1b2d 623f 2129 03be
000000a0: 1d44 9d3e 4931 d9bd b59b 083e 9528 073f
000000b0: b135 33be 8827 49be fa0b 5abe 505d bf3e
000000c0: 5635 bd3f 625f a23e 176e 8c3f dad6 79be
000000d0: 18af d1bd 3427 cd3e 011a 663e 080e 36bf
000000e0: f6ae b5be e3f2 f33d 30c5 fb3e 1720 5c3e
000000f0: 268c c33e aa85 2b3e f228 cb3e e721 03be
00000100: 685a 3e3f 57fd 333f ebde bc3e 0b78 21be
00000110: fc0a cd3f 4b59 43be f65f 613e cf75 223e
00000120: b2bb b8b8 2c05 d13e 820d 1240 eeda c0bc
00000130: 421c 52be 312f 2a3f 1cc1 87bd e75f e9bd
00000140: 24fd 4ebd 23c2 ec3e 7bd0 993e 8e15 a33e
00000150: b02f 2e3f 0a35 58bd 63a3 bb3d 85a3 c6bd
00000160: f33a 903d ba86 2d3b 8f19 373f db24 35bf
00000170: 646e cfbd 57e4 363e 014b 06bd 9737 ab3c
00000180: 8863 443e 52db 2f3d a87d cf3e c4c4 773d
00000190: a232 52bd d26f 6b3d 3d75 91be 786b 083f
000001a0: 57e8 533f 7b7f b9be c8fa 493f b80b 94be
000001b0: d934 40bf 9b30 523c 5554 503e f68e 863d
000001c0: 7e0e 703f 7485 1abc 81be 35bf 3e9a 51be
000001d0: 4d8b 8e3e 797a 2d3e cb28 12bf 8448 463f
000001e0: 2cc4 663f 09ea fc3e c517 5abe d5bd 0f3f
000001f0: f295 813f 9ce2 833e d9a6 383f 4c27 02be
00000200: 8fd0 fcbd 7474 8eba
0.35006577 -0.49046692 0.3367909 0.4322073 0.3187365 1.2446132 -0.27647108 -0.44194648
-0.21813133 0.11494091 0.54307514 -0.07245698 0.41801748 -0.20136496 0.20734014 0.40330073
-0.051184043 1.1108433 -0.023295667 -0.07489687 0.41859633 -0.2834207 0.35769463 0.62336683
-0.04524015 -0.1730938 1.4548361 1.6234812 1.6878214 0.14121528 -0.0040077167 1.8377056
0.45714346 0.22166541 -0.20187359 0.18946636 -0.024040299 0.06237641 0.88350075 -0.12808658
0.3071603 -0.106051035 0.13340648 0.527963 -0.1750095 -0.19643986 -0.21293631 0.3737588
1.4781902 0.31713396 1.0971097 -0.24398366 -0.102384746 0.40068972 0.22470857 -0.7111516
-0.35485047 0.11911561 0.4917388 0.21496616 0.38192862 0.16750208 0.39679676 -0.12805901
0.743567 0.7030844 0.36888823 -0.15768449 1.6018977 -0.19077031 0.22009262 0.15865253
-8.808765e-05 0.40824258 2.2820745 -0.023541894 -0.20518592 0.6647826 -0.066286296 -0.11395245
-0.050534382 0.46241865 0.3004187 0.31852382 0.68041515 -0.052784957 0.09162023 -0.096991576
0.07042494 0.0026478008 0.71523374 -0.7075936 -0.10128477 0.17860542 -0.032786373 0.02090053
0.19178593 0.04293377 0.40525556 0.060490385 -0.05131782 0.057479687 -0.28409758 0.53288984
0.827764 -0.36230072 0.78898287 -0.2891519 -0.7508064 0.012828971 0.2034467 0.065702364
0.93772113 -0.009431232 -0.7099381 -0.20468995 0.27840653 0.16941251 -0.57093495 0.774544
0.90143085 0.49397305 -0.2129813 0.56149036 1.0123885 0.25758827 0.7212959 -0.12710303
-0.12344467 -0.0010868446

6.weight f4 [157, 130]
00000000: 1fb3 5c3e d578 06be 6bf4 32be 4d37 d0be
00000010: e7f8 35bd 9a22 0d3e ba34 bfbd a94f b8bd
00000020: c86c 10bf 8b25 bebc 1198 ce3d 745b 843c
00000030: 5947 0fbd 81a1 88bd bac8 83bd c836 793e
00000040: 46cf b43d 5a3e 0d3e 504a e23c 9aac 873c
00000050: 13e9 8dbc df05 d1bc 770b 063e 74df 3abd
00000060: f2df 673d ad55 4ebe bfd7 853e 9ca6 0abe
00000070: d513 ecbd 7dc8 003e e72a c6bc 74b9 a43d
00000080: 7788 df3d 6321 1d3d bd89 4e3e e9ba 5fbe
00000090: cd14 aa3d d20d 813c e77c 983d c759 fcbd
000000a0: 1871 773d 2454 cc3c 9fb3 1abf b40b 93bd
000000b0: 1c9a a43d 0377 11be fdac dabd e511 083d
000000c0: 78f4 92bc 8e2c e9bc 6c07 a8bd 82c2 96be
000000d0: e009 bbbd b2b5 eabd 7037 a33c c980 4d3d
000000e0: de43 38be 987d f4bb 23ac 28be 972e 073b
000000f0: a5b3 a7bd 3a14 863e 1d1f 883d ae5e 8fbd
00000100: 1d11 273c 513f b13d 7e96 1cbe b5b0 e43d
00000110: 70d8 193d 66df 5cbd 6938 92bd c436 85bc
00000120: 7ab5 b93c 8e44 d2bd 50dd 32bd 238a 303c
00000130: 2df4 8cbe 3c6e 653e e21b 5e3d 002c 2e3d
00000140: b063 05bd 5356 463d be51 80be 839a d73d
00000150: a2c0 41bc d1c8 91bd d7af 31be 6df9 173e
00000160: 12f3 753d 213b 0b3e b113 553d 4923 c3bd
00000170: e4f1 77bc c3f3 80bd bc3a 74bc 2780 ec3c
00000180: 31cc 45be 2ea5 8c3d ba34 10be cf90 07be
00000190: b39a 9b3d e105 cebd 6d35 243e 510d 7bbe
000001a0: 401e e6bd cd3e 90bd 0655 d9bd d917 b3bd
000001b0: 7272 113e a2be 2abe d328 9d3e 3fdc 8ebe
000001c0: 35f7 0cbe 3ccc cf3d afd0 2d3d 01d3 11be
000001d0: 93ec 8b3d 5202 67be d08e 0e3e b551 493d
000001e0: c34d b53d fa9a 5dbe 8383 8ebd bacf 713d
000001f0: a8fd 79b9 e9eb c93d 96a7 30bc 3c69 17be
00000200: 0d97 f7bc 3b19 623b 0ad6 113d ad11 0bbd
00000210: eef5 173e a76c d7bd d7d8 063e 5368 b8bd
00000220: 78eb 293d 716f dfbc 089f 96bc 95ec 293d
00000230: f2d1 8dbe 97f3 cc3b 7af7 a0be 5556 c3bd
00000240: 2693 243e 1362 2ebe c1d7 263e 9050 bcbe
00000250: 197f 7cbc 2861 0abe 06ee bf3c 0b4e 803d
00000260: 884d 46bf 12f9 cebc d39c c33e 4a66 75bd
00000270: 9bad 1e3e 9266 1e3e 663d bb3d 2ab4 3c3d
00000280: 782e 57bd 0131 fbbe b523 0b3e e1fa 8c3c
00000290: 124b 473d f9f4 77be 43e4 82bd 4061 813d
000002a0: c70e 8cbe e191 a1bd d5c1 87be 9793 9bbd
000002b0: 3030 a7bf 5bc4 ce3d 52e7 38be 8b19 d1bd
000002c0: dea5 82bd 1fc8 92be 26cc a9bb 4ce7 fdbc
000002d0: 5eb2 863d 38ac 3e3e 5b6b 7ebd fc5e 69bb
000002e0: 8f3f f13d 0f02 193d 7508 eb3d 6989 99bc
000002f0: 0bea 013e 7080 b03d 59e2 433d ea7b 8bbe
00000300: c447 32be 0bd0 26be 78f7 7abe 35d5 69be
00000310: 7da1 69bd e4ec 5e3d be25 0ebe 86fe 60bc
00000320: 583d acbc 4602 913b 1096 b43c 3e19 d6bd
00000330: f03a b9bd 9a13 2e3d 6577 bcbe 9499 1cbe
00000340: a96a 72bc 0f25 8dbc 0272 77bd e995 4d3d
00000350: 9a2d c23d 92e8 73bd 1ed9 3cbe 6a15 24bc
00000360: 4bae cfbd bac0 c43c e709 233d 4ad9 473d
00000370: da19 03bf 9884 49bc 27f6 a2bd 543d 473d
00000380: f3af 063d ef92 8cbe 4981 443c 284b 33bd
00000390: f598 79bd c23c 0d3e 94ce fabc 91e9 45bf
000003a0: 5d8c 2fbd 57a5 11be 6ce2 a53d e7ad dc3d
000003b0: def0 9cbc 0319 23bc 3e33 cd3c 64f4 c13a
000003c0: 204c 0d3d 9e42 ab3d 450c 69be 4ccf b2be
000003d0: 77ee 18be 7742 25be c92c 1fbe 5717 ac3e
000003e0: 4b1b c7bd 50a4 28be cbc4 893d aa2d 5a3d
000003f0: 7d83 0a3e 02ea be3c ee9a 123e f7b7 02be
0.21552704 -0.13132031 -0.1747605 -0.4066719 -0.044426825 0.1378273 -0.09336229 -0.08999569
-0.56415987 -0.023211261 0.10087598 0.01615689 -0.03498015 -0.066714294 -0.0643477 0.24337304
0.08828597 0.13793316 0.027623326 0.016561795 -0.017323053 -0.025515495 0.13090311 -0.045623258
0.056610055 -0.2014987 0.26141164 -0.13540119 -0.1152722 0.1257648 -0.02419038 0.08043185
0.109147005 0.03836192 0.2016973 -0.21848644 0.08304749 0.01575366 0.07445698 -0.12321811
0.06041059 0.024942465 -0.6043033 -0.071799666 0.080372065 -0.14205556 -0.10677526 0.03322019
-0.017938837 -0.028463628 -0.082045406 -0.29445273 -0.09132743 -0.11460437 0.019923896 0.050171647
-0.1799464 -0.007461261 -0.16471915 0.0020627135 -0.08188561 0.26187307 0.066465594 -0.070004806
0.010196951 0.08654655 -0.15291783 0.11166517 0.037559927 -0.053923987 -0.07139666 -0.016261466
0.022669543 -0.10266982 -0.04366809 0.010775122 -0.2753004 0.22405332 0.05422581 0.04252243
-0.032565773 0.04842217 -0.25062364 0.10527518 -0.011825712 -0.07118381 -0.17352234 0.14841242
0.060046263 0.13596775 0.052020732 -0.095282145 -0.015133355 -0.06296494 -0.0149065815 0.028869702
-0.19316174 0.06867443 -0.14082614 -0.13238834 0.07597866 -0.10059715 0.16036005 -0.24516799
-0.112362385 -0.07043228 -0.1061192 -0.08744783 0.14203814 -0.16674283 0.3069521 -0.2790241
-0.13766177 0.101463765 0.042435344 -0.14240648 0.06832232 -0.22559479 0.13921666 0.049150188
0.088527225 -0.2164115 -0.069586776 0.059035994 -0.00023840985 0.098594494 -0.010782143 -0.14786237
-0.030223394 0.0034499902 0.035604514 -0.033952404 0.14839908 -0.10518771 0.13168655 -0.09004273
0.041484326 -0.02727482 -0.018386379 0.041485388 -0.27699238 0.006254624 -0.3143881 -0.09537951
0.16071758 -0.170296 0.16293241 -0.36780214 -0.015411162 -0.13513625 0.023428928 0.062648855
-0.77462053 -0.02526525 0.38205585 -0.059912004 0.15495913 0.15468815 0.0914257 0.046070255
-0.05253455 -0.49060825 0.1358784 0.017209472 0.048655577 -0.24214543 -0.06391194 0.06317377
-0.27355024 -0.07889152 -0.2651507 -0.0759651 -1.3061581 0.100960456 -0.18056992 -0.1020995
-0.06379293 -0.28668305 -0.005181807 -0.03099408 0.065769896 0.18620384 -0.0621141 -0.0035609594
0.11779701 0.03735548 0.114762224 -0.01874228 0.12686937 0.086182475 0.047823284 -0.27242976
-0.17410189 -0.162903 -0.24508464 -0.22835238 -0.057038773 0.054425135 -0.13881585 -0.013732558
-0.021025345 0.00442532 0.022044212 -0.10454033 -0.090444446 0.042499162 -0.3680984 -0.1529296
-0.014795938 -0.017229585 -0.06041146 0.050191794 0.09481354 -0.05954797 -0.18442199 -0.010014871
-0.101406656 0.02401768 0.039804365 0.048791207 -0.5121132 -0.012299679 -0.07957106 0.04864247
0.032882642 -0.2745585 0.011993715 -0.043772846 -0.060936887 0.13792709 -0.030616082 -0.7730952
-0.04285847 -0.14223228 0.08099827 0.10775357 -0.019157823 -0.009954694 0.025048848 0.0014797566
0.034496427 0.083623156 -0.22758587 -0.3492378 -0.14934717 -0.16138636 -0.15544428 0.33611557
-0.097220026 -0.1646893 0.067269884 0.053266205 0.13526721 0.023304943 0.14316913 -0.1276549

6.bias f4 [157]
00000000: 9872 1c3e 8e4a f7bd 2fe5 78bd 7805 0dbe
00000010: f78d 30bf cd6f 163e 59c5 06be 62f2 e0be
00000020: c02b 7f3f c129 0ebf 1a82 1bbf 6a33 86bd
00000030: 2749 6ebf 5a0e 273f e225 803e 8a18 0b3e
00000040: 2547 56be a4b4 913e ab07 aa3e c31f 3dbf
00000050: 3231 9fbe 01ba 92be ea9c e9be 1121 8a3e
00000060: d806 8b3e 5b2c 903f 6c4c 91bd 9aff 17be
00000070: 2925 f0be 8cc1 2fbd 70cc 3bbf 079a 8f3e
00000080: ae0c 093e a40d 00bf 2658 0ebf 5be2 69be
00000090: 5da6 6bbf f871 c13d 2d99 fcbc ae9d 8fbe
000000a0: d432 e6bd 8264 35be e98f 3cbe cc4d ea3d
000000b0: a2a8 803f 5c25 d8be 021a 32bd fa69 09bf
000000c0: 9c4b ab3d 3e45 633f 1df0 c23e 7470 923e
000000d0: 305e 42bf 6262 48be 5dcc bbbf 1b0e 5a3f
000000e0: 7174 77bf 8737 bdbe 2b81 ba3e 003e 1e3e
000000f0: 167e a8be 3923 c0bd f715 3d3e 6879 d0bd
00000100: a03d 233f 6fd3 32be 604b 4abe 77d7 243e
00000110: 6355 a93e b603 0c3e 3975 683d 0032 1bbf
00000120: 8dbd 85be d10e fd3d 06d0 513e 14e9 603e
00000130: b0cf 2abd 1089 8e3d f793 39bf 9b24 50be
00000140: b8e5 653f 5eb7 6c3f 60e4 72bb fd29 37bf
00000150: 5f07 31be df2d 5d3e 87ee 95bd 5c5e 9fba
00000160: 1a25 2c3f 4c0a 513e 6be3 ea3e 1ad2 1d3e
00000170: faad 503f b548 0e3f d0f0 273f 3f24 16bf
00000180: 59fe 59bf 7dcb 00be 0245 c2be 30e2 d2be
00000190: ae97 1a3e 6884 15be e78e a53e 700e 01bf
000001a0: ab8e 06be 2d7c 06be 620c 883c 0ad1 743e
000001b0: bdc3 8e3f ec37 1abe c3b7 78bd 5dff 2dbe
000001c0: 6878 83be d74f e53e e2b3 593e 16d0 7c3e
000001d0: 6429 92bf 3c86 62bc 3b2c 12be 68fb 76be
000001e0: 750a bc3e ea84 63bf a49a f03e 7539 ffbd
000001f0: 2664 8bbe b338 083f 1b63 fd3e c59e 213e
00000200: cf31 443f 74b4 063f e7ea 253f 624f 033d
00000210: 42c1 883e 670a 75be 91cb 7cbf b44a abbe
00000220: 9e99 4ebf 2790 e13e af61 13bf a511 0cbd
00000230: e6b1 633f 1202 74bd 84a9 5b3e 8647 59be
00000240: cc5e 3e3d 8473 e93e 9384 ae3e cf8a 463e
00000250: c1cb f93e 7b69 a83e fbd1 4a3f 5804 8c3e
00000260: 0b72 aabe e886 89bf 8b34 263e e5d9 e13e
00000270: 25ad 263f
0.15278089 -0.12074767 -0.06076544 -0.13771617 -0.6896662 0.14691086 -0.1316122 -0.43934923
0.9967613 -0.5553246 -0.60745394 -0.06552775 -0.9308037 0.65256274 0.25028902 0.1358358
-0.20925577 0.2845813 0.33208975 -0.7387659 -0.3109222 -0.28657535 -0.45627528 0.26978353
0.2715366 1.1263536 -0.070946544 -0.14843598 -0.4690335 -0.04290919 -0.7335882 0.280472
0.13383743 -0.50020814 -0.55603254 -0.22840254 -0.92050725 0.09445566 -0.030834759 -0.28049988
-0.112401634 -0.17714122 -0.18414272 0.1144062 1.0051463 -0.42216003 -0.043481834 -0.5367733
0.08364031 0.8877753 0.38073817 0.2860142 -0.7592497 -0.1956878 -1.4671742 0.85177773
-0.9666205 -0.36956427 0.36426672 0.15453339 -0.32908696 -0.09381718 0.1846541 -0.101794064
0.6376591 -0.17463468 -0.19755316 0.16097818 0.33072957 0.1367329 0.056752417 -0.6062317
-0.26121178 0.12356342 0.20489511 0.21963912 -0.041701972 0.06959736 -0.724914 -0.20326464
0.8980365 0.92467296 -0.0037062392 -0.71548444 -0.17287968 0.2159953 -0.07320886 -0.0012158859
0.6724411 0.20414084 0.4587663 0.15412179 0.8151547 0.5557969 0.65601826 -0.5864906
-0.8515373 -0.12577625 -0.37943274 -0.41188192 0.15096924 -0.1460129 0.32335588 -0.50412655
-0.13140361 -0.13133307 0.016607467 0.23907867 1.1153485 -0.15060395 -0.060722124 -0.16991945
-0.256778 0.44787475 0.21260026 0.24688753 -1.1418881 -0.013825949 -0.14274685 -0.24119341
0.36726728 -0.88874686 0.4699298 -0.12462131 -0.27224845 0.53211516 0.49489674 0.15783222
0.766385 0.526191 0.6481156 0.032058127 0.26709944 -0.2392975 -0.9874812 -0.3345543
-0.8070315 0.44055292 -0.5757093 -0.034196515 0.88943326 -0.059572287 0.21451384 -0.2121869
0.046477124 0.45595944 0.3408552 0.19388889 0.48788264 0.32892975 0.79226655 0.27347064
-0.33290133 -1.0744295 0.16230981 0.44111553 0.6510795
