pav_spkid_pytorch/lp_model_hsize_130_lr0001/e3_weights.ckpt (torch_old, 318518 bytes, 8 tensors)

0.weight f4 [130, 189]
00000000: c1e4 6abb 3583 8b3e 6f93 24be 1842 c1bd
00000010: 3092 243e 02e0 bcbd 11a0 babe 401a 6c3d
00000020: 41e5 bd3e 1904 32bd 3d84 603e 995a 3dbe
00000030: b4c5 fbbc 1799 95bd 3700 e1bb e4ea 60be
00000040: 0a2f 363d c906 993e 8728 32bc 7371 863e
00000050: 1cd4 7abe 20fa f9bc 69ae 4ebd 739f 1cbd
00000060: 76a1 84be 9f11 9abd df1b be3e f4bc 12bd
00000070: 5309 383e 4a1e 81be c9d3 503c b6b7 e73b
00000080: 6d2e 7abd edda 63be 4f17 91bd 1a85 ca3e
00000090: 9e1f 5d3d e8a6 643e a5b3 b5bd d3d7 00bd
000000a0: 274a a6bb b66e 20bd b73c 4dbe 1970 4e3d
000000b0: 029e ba3e e7e1 b5bc f55b 103e 7f7a 28be
000000c0: ed6e 0cbc a8fd 5d3d e6d1 19bd e966 89be
000000d0: 7e00 8f3d 9372 c03e fe88 283d 64b3 433e
000000e0: f979 08bd 36d4 46be 3a68 c83b 02d8 2fbe
000000f0: ddd3 85be 8d4a 6c3e 1a8f ae3e 90b5 bd3c
00000100: 48a4 a83d 0a6c 84bd 13b5 ecbd b98f 313e
00000110: d508 18be b560 52be e7c5 183e 1a26 a43e
00000120: 25dc e9bc 8e97 163e 5dc5 ecbc d733 24be
00000130: bf60 f73d 1bd9 49be 1d7e 42be 8705 8c3e
00000140: fd9e 713e ab41 203d a97e 293e 6647 e7bd
00000150: 09b0 15be 7c45 123e 920c 8cbe 215a 17be
00000160: f10e 9b3e dd68 b43e 62b6 a1bd 045d 343e
00000170: 55c3 8bbd c75d 91bd dd62 163e a1b9 5abe
00000180: dbb5 33be a709 723e e3a9 b33e 25cb 4a3d
00000190: 2f72 4d3e 63df e3bd 83f4 a7bd 59b0 ea3c
000001a0: e11b 60be a033 0cbe 9c04 bb3e 2abd b63e
000001b0: 3163 61bc 877e 3a3e b904 d3bd 8927 0ebe
000001c0: 55fa 263d 153f 58be 7ec9 2abe 800b 713e
000001d0: 0b53 8b3e 9dee ab3b 9d96 e23d ee57 2cbc
000001e0: 8075 10be f63f e93d a72b 5ebe b678 43be
000001f0: 77dc 913e c49d 7c3e eb2e b53c 71c9 363e
00000200: 4a68 5c3c 54ca 59be 5110 783d ae68 3cbe
00000210: 641f 42be 0867 a23e b8f3 aa3e 7512 e53c
00000220: 73f2 273e 375c 60bd f460 35be c873 4b3e
00000230: 05dd 97be 838d e5bd a715 4a3e a987 8e3e
00000240: f545 d63c 443a 4f3e d7ed 9dbd 838c 5abe
00000250: f358 353e bee2 2ebe b9a6 dcbd 1d81 883e
00000260: 3a2e 963e 2f14 0fbd 296a 353e bd28 6ebd
00000270: bd8f 9bbd 23c6 883d 6579 82be 2bf5 2ebe
00000280: 9b22 af3e e87c 8f3e 6041 3c3d ef80 803e
00000290: d32f 44bd adff 17be 91d5 db3d 17eb 46be
000002a0: 8a5c b1bd b401 9a3e 317b ad3e 0327 0abb
000002b0: 4d67 aa3e c74d d6bd 25bb 46bd 4914 ad3d
000002c0: 9bec 31be de94 30be aa1a 983e b860 983e
000002d0: 7bdf 17bd 34df 933e 9e60 02bd b472 80bd
000002e0: a67d ed3d dd2a 92be 0324 1abe 92a9 cc3e
000002f0: b340 753e 70e9 3d3b d911 ac3d 5a80 e1bd
00000300: 72a6 2b3b def5 61be 27a7 703d 051b 9fbe
00000310: 4622 80be e48a 753f 4156 a63c 15d3 93bd
00000320: eb74 0e3d 71e3 15be aa18 663c e1de 5bbc
00000330: d52e 55be 69ba b2be a0ac 553f 499f d1bc
00000340: da8f 96bd d756 e43d 0bea 2bbe 2568 423e
00000350: 7f5c 6ebe 2934 39bd 09d3 febe a55c 523f
00000360: 9a42 5fbb f195 12bd 2989 103d 3902 3ebe
00000370: 3bcc 683e e74e 45be 83d9 14bd a61d 06bf
00000380: f9f7 4d3f 2714 12bd 122a 9cbc bd01 21bc
00000390: eecf f1bd ead3 783d 9c9e 33be 7c80 b7bd
000003a0: a8d3 dbbe 9664 473f 1a89 8dbd a5da ab3d
000003b0: 3584 3d3d fa80 e7bd b4a5 6f3d 8932 8bbb
000003c0: 0b2d 60be 3545 ddbe b1c6 5a3f 2ac0 4f3c
000003d0: 1f3e 1bbc 2bac 86bd 349d 9c3d 8c58 d2bd
000003e0: bb9c 04bc a99a 5abe 04c7 b0be 53bc 593f
000003f0: a748 3d3d fa4a 0bbd 1a63 efbd dd1f 923d
-0.0035841914 0.2724854 -0.16071866 -0.094364345 0.16071391 -0.092224136 -0.36450246 0.05764222
0.3708897 -0.04346094 0.21925445 -0.18491592 -0.03073392 -0.0730459 -0.0068664807 -0.21964604
0.044478454 0.2988799 -0.01087392 0.2625843 -0.24494976 -0.030514777 -0.0504593 -0.038238
-0.25904435 -0.07522892 0.3713064 -0.03582473 0.17972307 -0.2521842 0.012745806 0.0070714606
-0.06107943 -0.22251482 -0.07084524 0.39554673 0.05398523 0.22329295 -0.08872155 -0.031455826
-0.0050747576 -0.039168082 -0.20042692 0.050399873 0.36448675 -0.022202445 0.14097579 -0.16452979
-0.008571369 0.054196984 -0.03755369 -0.26836327 0.06982516 0.37587413 0.04114627 0.19111401
-0.033319447 -0.1941689 0.0061159404 -0.17172244 -0.261382 0.23075314 0.34093553 0.023157865
0.08234459 -0.06465919 -0.11557975 0.17339982 -0.14847119 -0.20544703 0.14919244 0.3206032
-0.028547356 0.14706251 -0.028902704 -0.160354 0.12079 -0.19711725 -0.18993421 0.27347967
0.23595805 0.039125126 0.16552223 -0.11292915 -0.14617933 0.14284319 -0.2735334 -0.14780475
0.30284837 0.35236254 -0.07896115 0.17613608 -0.06824366 -0.07097965 0.14686151 -0.21359874
-0.17549841 0.23636495 0.3509055 0.04951014 0.20063089 -0.11126592 -0.08200934 0.028648542
-0.21885635 -0.13691568 0.36526954 0.35691196 -0.013756559 0.18212329 -0.10303635 -0.13882269
0.04076608 -0.21117814 -0.16678426 0.23539543 0.27211794 0.005246951 0.110638835 -0.010519011
-0.14107323 0.11389153 -0.2169634 -0.19089016 0.28488514 0.24669558 0.022117099 0.17850281
0.013452599 -0.21268588 0.060562436 -0.18399307 -0.18957287 0.31719232 0.33389068 0.027962903
0.16401081 -0.054775443 -0.17712766 0.19868386 -0.29660812 -0.11208632 0.19734822 0.27837875
0.026156405 0.2023707 -0.0771138 -0.21342663 0.17709713 -0.17078683 -0.10773987 0.26661006
0.29332143 -0.034931358 0.17716278 -0.05814432 -0.07595775 0.066784166 -0.25483242 -0.17085712
0.3420609 0.28024983 0.045960784 0.2509837 -0.04789717 -0.14843626 0.10734094 -0.19425617
-0.086602286 0.30079424 0.3388305 -0.0021080382 0.33281937 -0.104640536 -0.04851832 0.08451135
-0.17375414 -0.17244288 0.29707843 0.2976129 -0.037078362 0.28881228 -0.031830423 -0.06271878
0.11596231 -0.28548327 -0.150528 0.39973122 0.23950462 0.002897825 0.08401842 -0.11010809
0.0026191738 -0.22066447 0.05875316 -0.31075302 -0.2502615 0.95915055 0.020304801 -0.07217995
0.03477947 -0.14637543 0.014043966 -0.013419838 -0.20818646 -0.34907845 0.8346653 -0.025588648
-0.07351656 0.11149376 -0.16788499 0.1898504 -0.23277472 -0.04521576 -0.49770382 0.82172614
-0.0034066797 -0.035787527 0.035287056 -0.18555535 0.22734158 -0.1926838 -0.036340248 -0.5238899
0.804565 -0.03566375 -0.01906303 -0.009827075 -0.118072376 0.060748972 -0.17540973 -0.08960053
-0.42934918 0.77887857 -0.06910916 0.083913125 0.04626866 -0.11303897 0.058507636 -0.0042479676
-0.21892183 -0.43216863 0.8545943 0.012680093 -0.00947526 -0.06575807 0.076471716 -0.10270795
-0.008094008 -0.2134806 -0.34526837 0.85052985 0.046211865 -0.03400705 -0.11688824 0.07134984

0.bias f4 [130]
00000000: 9c5b 50be 262b 12be 9d47 853e 3825 26be
00000010: d061 203d fe28 3c3e 47e2 e53c 3b5e b53c
00000020: bf52 713e e4a6 b93d 5250 c3bd 7d9f 8f3e
00000030: 8a06 b2be 5fdb 59bd e7a2 96bd aa5b 8e3d
00000040: dc37 25be 90ff 08be c012 37be 4425 103f
00000050: f7ad a4be 53d7 473d 0336 1a3e dd31 80bd
00000060: 6fda 973e 8251 16be f57d 4fbd 5d64 2abd
00000070: 5dc7 5ebe 0068 df3d 9f7c 06be 735e dabc
00000080: 148c 09bd 0395 aa3e 72a5 37be ff56 0c3d
00000090: 1949 43bc bb6c 173d 5de2 b43c 538a e7bb
000000a0: 6aa7 8cbe d749 4d3f 189b c33d 1e88 c8be
000000b0: 6ae6 383e 34a1 763f b8b6 283d eb98 9a3d
000000c0: d339 5ebe 31c9 843f 561f 493d df25 bebd
000000d0: c986 963f e4d2 edbd 49c7 023e 0201 eebc
000000e0: f61f b43c 5727 513e aa93 003d 2870 833c
000000f0: 4ace 15be 5387 8c3e 69f5 593d 4e1b e83d
00000100: 6b48 74be 27b2 4abd 6eec 43bd 64d5 613d
00000110: 9ed7 1ebe b1cd 7ebd 9a26 83be 189e b9bd
00000120: 0849 443f 5f09 dbbe e145 16bd 1417 02bd
00000130: 62c8 e8bd b77c 15be c544 843e 3c58 9a3d
00000140: 62b9 283c 1729 85be c40e ebbc bba5 e23e
00000150: 0087 9a3e fe6e 0b3e 21cb ccbc 1eca 1ebe
00000160: 3305 f83d dc3d b6bd 04f6 5bbe a4fc 103d
00000170: 1310 443c 710e af3d ef13 36be d1f9 c1bb
00000180: 130e 05bd ca01 0d3e 49b1 bebd 6df7 99be
00000190: 30ea a0be e62a 04bd 17cf 12bd 886a e9bd
000001a0: 18f5 de3d 288a c33e 24b6 85be c479 293d
000001b0: 3fd8 e3bd c294 1dbf 1a14 6cbd a76c 15bf
000001c0: 189b 9c3e e0e0 223e f7ab 823f 3dda a3bd
000001d0: 579a 48be be19 003e 7e90 823d 0ca8 ddb9
000001e0: 5e52 e33b 9b4a dfbc 5f38 733c 74dc ac3b
000001f0: bfbe 623e 3913 18be 4e6f f33d f9a4 663d
00000200: 0402 8fbb c597 023d
-0.20347446 -0.14274272 0.260312 -0.16225135 0.03915578 0.18375012 0.028061999 0.02213966
0.23566721 0.09065035 -0.09536804 0.28051367 -0.34770614 -0.053187724 -0.0735529 0.06951077
-0.1613459 -0.1337874 -0.17878246 0.5630686 -0.32163975 0.048789334 0.15059666 -0.06259511
0.2965884 -0.1467953 -0.05065723 -0.04159962 -0.21755739 0.10908508 -0.13133477 -0.026656365
-0.033580855 0.33316812 -0.17934206 0.034262653 -0.011919283 0.036968928 0.022080595 -0.00706605
-0.27471477 0.80190796 0.09551066 -0.3916635 0.18056646 0.96339726 0.04118988 0.07548698
-0.21701746 1.0373899 0.04910215 -0.09284567 1.1759883 -0.1161249 0.12771334 -0.029053215
0.021987896 0.20425163 0.031390823 0.016044691 -0.14629474 0.27446994 0.053212557 0.11333333
-0.2385575 -0.049486306 -0.0478329 0.055135146 -0.15511939 -0.06220788 -0.25615388 -0.09063357
0.76673937 -0.42780587 -0.036687735 -0.03176029 -0.11366345 -0.14598356 0.25833717 0.075363606
0.010298105 -0.26007912 -0.028693564 0.44267067 0.30181122 0.13616559 -0.024999203 -0.15506789
0.12110367 -0.088985175 -0.21480566 0.035397187 0.011966723 0.08547676 -0.17781042 -0.005919673
-0.032484125 0.13770214 -0.09311158 -0.30071583 -0.3142867 -0.032267474 -0.035842028 -0.11397272
0.10886592 0.38191342 -0.26115525 0.04137589 -0.1112523 -0.6155511 -0.057636358 -0.58368915
0.30587077 0.15906096 1.020873 -0.0800061 -0.19590126 0.1250982 0.06375216 -0.0004227761
0.006937309 -0.027257254 0.014844983 0.0052753035 0.22143076 -0.14851083 0.11886464 0.056309674
-0.004364254 0.03188302

2.weight f4 [130, 130]
00000000: 12df 62bd 32e8 c63c 55d8 c6bd 0cd1 4fbc
00000010: b228 80bd 2fb8 b03c afb1 e6ba a926 84bd
00000020: 7d9b 883d 9438 12bd f332 4ebd f835 a5bc
00000030: 0788 8f3b 1bfc a4bd 4517 813c f412 733d
00000040: 5bf6 e0bc a6e3 1cbd 8d4e 16bd b6bf 2abd
00000050: cf15 c03c ac8c e93c 524a 11bc 72e2 8d3c
00000060: 1ff0 cf3c 02b7 273d fb95 42bd 4e40 babd
00000070: 0311 b6bd 9d54 923d 3ca4 063d a120 dfbc
00000080: 5802 013d cfa8 933d d9a6 e53c 5b47 8ebd
00000090: 4c28 493d bbbf 5dbd 77f3 833c 2092 dbbc
000000a0: 8c64 7e3d 492a eabd cfa5 fa3c 4aba 913c
000000b0: 44a4 89bd af77 87bd f7e0 0f3d 6175 863d
000000c0: 73c8 963d 3191 c1bc 365d 90bd d311 7e3d
000000d0: 277d da3d 8b6c 263d f13b 1b3d a920 87bd
000000e0: f339 63bc 1270 b83b c74f 1b3d 0fd7 813c
000000f0: 3608 a0bd 25a6 c3bd bce8 843d b01b 9ebd
00000100: d6ec 423c 8767 a6bc 13ea 2bbd 3226 1d3d
00000110: 4424 133d e0b9 8339 ab6d 0fbd 7156 b8bc
00000120: 24ab 88bd 380b 2a3d 21f5 f93c 4d6a 1ebd
00000130: 17cc f8bd d625 ad3c 1651 88bd 3287 9dbd
00000140: 09a1 8ebc eb04 71bd e356 19bd 57bc a83d
00000150: 8470 ed3d fcdb 353b cf34 9abd 1c61 9abd
00000160: aa74 9d3c 1cdd 8b3d 3eb0 1fbd ae20 033d
00000170: 0de0 98bd 6172 51bd 9b2e 25bd 18c9 033d
00000180: 492f 80bd 5fa4 f3bc 651e 8fbd afb4 a4bd
00000190: 592b b0bd 11d9 c8bd 4506 6a3d 495a 613d
000001a0: 4756 023c 3fba ebbb 5550 cdbd a1d9 903d
000001b0: 7bd3 643d 4615 eabd bddc 22bc b132 95bc
000001c0: 4c0e c2bd e267 b2bd f451 e2bd 6c28 7c3c
000001d0: 07c0 6b3d 879d 2abc c405 3abd 2a3c 8d3d
000001e0: 2566 2a3d d461 59bc c374 963d 7ac2 b439
000001f0: 22d6 b2bd 916d 963c e1b1 933c a96e 8fbd
00000200: 7584 5abd fb73 b73b a9c6 c3bd d9af af3c
00000210: b396 733c 88cf 19bc 700f d93c 9e07 8abd
00000220: 038e 3b3d dcbc 763d 655a db3b b1f4 223d
00000230: 80cb 953d cad3 8fbd bf30 32bd 3d3f a7bd
00000240: e9ae b4ba abcc da3d 2891 1fbc 9cca 5ebd
00000250: 64a5 8cbc ad80 aa3d af96 cbbc f5c9 f2bc
00000260: 7058 33bc 5b78 1fbd 635d 2fbd 9d6e 8a3c
00000270: 7575 3bbd 7546 d33c 4f9b 0a3d ce27 2d3c
00000280: 1ad4 43bd 7000 493d e7ab bd3d c025 a7bd
00000290: 73b7 283d 92f0 263d a7c5 e0bc 5324 66bd
000002a0: 8aff 1bbd b436 bb3c f0ee 0fb7 a762 523c
000002b0: 150e 7abd 7be8 563c 0734 07be 7376 2b3c
000002c0: 8a31 e33d 10ce d1bc 4336 e8bd ef72 093e
000002d0: 7e6f 4cbd e034 4bbc 0a37 073d 56ed 023d
000002e0: 5ac7 633d da81 46bd 701f 353d e7e5 71bb
000002f0: 4042 4f3c 480f c33d 7301 26bc 5653 3b3c
00000300: 0c83 bbbd 48cf e139 49a6 4cbc 3da9 2f3d
00000310: dbd3 9a3d ec24 ce3c 983b bb3c 365f 183c
00000320: 82ba a7bd 2f39 c13d d9d2 833d 026f 303b
00000330: dd6a 56bd a2a6 c1bd 18ba e13d 56b1 72bd
00000340: 3658 8bbc ca1f 0d3c 6624 093d 1a8b 3c3d
00000350: f1f6 853c eef2 cb3d 267b 753d 9382 b33d
00000360: b908 7abc 8b51 7d3c f7e7 56bd 1879 043d
00000370: 5c9a 66bc c9a5 6e3d 1b94 033e c1bd 6fbc
00000380: 6206 11bd 9a39 f83c 1558 97bd 88ff 3fbc
00000390: d80e 763c 3a5c b73c f864 0e3c e1f5 5fbd
000003a0: 038b 64bd 511b a9bd 3d97 83bd 8768 9b3d
000003b0: b770 733d e1d1 09bc fd2e 88bd 9be7 a23d
000003c0: 2a83 5f3d fe30 2f3d c6c3 d23c c3dc 923b
000003d0: 5a68 df3d f68a 80bd 196f afbc fbe5 eabb
000003e0: e87f a0bd 8d2f 17bd 0fd2 9a3d 7218 d33d
000003f0: 1443 873d 8ed2 f43b e279 e0ba 1428 52bd
-0.055388518 0.024280641 -0.09709231 -0.012684118 -0.06257762 0.0215722 -0.0017600561 -0.06452686
0.06670282 -0.03569849 -0.050341558 -0.020167336 0.0043802294 -0.08055898 0.015758166 0.059344247
-0.027461221 -0.03830304 -0.036696006 -0.041686736 0.0234479 0.02850946 -0.008867817 0.017319892
0.025383053 0.040946014 -0.047506314 -0.090942964 -0.088899635 0.07145045 0.03287147 -0.027237238
0.031496376 0.07209932 0.02803366 -0.06947204 0.049110696 -0.054137927 0.016107304 -0.026803076
0.062107608 -0.114338465 0.030596642 0.017789025 -0.06720784 -0.06614625 0.035126653 0.06565357
0.073624514 -0.023628803 -0.070490286 0.062028717 0.10668402 0.04063086 0.03789896 -0.06598026
-0.013868797 0.005628594 0.03791788 0.015849618 -0.07814066 -0.09553174 0.06489703 -0.07720125
0.011897286 -0.020313038 -0.041971277 0.038366504 0.035923257 0.00025124755 -0.035016697 -0.022502156
-0.066732675 0.041514605 0.030512394 -0.038675595 -0.12148302 0.021136206 -0.06656091 -0.07691802
-0.017410772 -0.05884258 -0.037436377 0.08239048 0.11593726 0.002774953 -0.07529604 -0.075380534
0.019220669 0.06829283 -0.038986437 0.032013588 -0.07464609 -0.05113447 -0.04032765 0.0321742
-0.06259019 -0.029741464 -0.06988219 -0.08042275 -0.08602018 -0.09807027 0.057134885 0.055017743
0.00795514 -0.007193833 -0.10025088 0.070727594 0.055865746 -0.11429839 -0.009940323 -0.018212648
-0.09475383 -0.0871122 -0.110507876 0.015390497 0.05755618 -0.010413534 -0.045415655 0.06896241
0.04160132 -0.013267953 0.07346489 0.00034477172 -0.08732249 0.018362792 0.018029155 -0.070035286
-0.053348977 0.0055985427 -0.09559376 0.021446155 0.014867472 -0.009387858 0.026496619 -0.06739734
0.04578973 0.060238704 0.0066941255 0.039784137 0.07314205 -0.070228174 -0.04350352 -0.081663586
-0.0013785037 0.106835686 -0.009739198 -0.054392442 -0.017168708 0.08325324 -0.024852125 -0.029637316
-0.010946378 -0.03893314 -0.04281367 0.016898448 -0.045766313 0.025790432 0.03383952 0.010568572
-0.047809698 0.049072683 0.092613034 -0.08161497 0.041190576 0.04075677 -0.027437998 -0.056186985
-0.038085498 0.022853233 -8.579096e-06 0.012840903 -0.061048586 0.013116951 -0.1320344 0.010465252
0.11093433 -0.025610954 -0.113384746 0.1342275 -0.049911015 -0.012402743 0.033011474 0.031964622
0.05561004 -0.04846368 0.044219434 -0.0036910714 0.012650073 0.09524399 -0.010132181 0.011433443
-0.091558546 0.0004306978 -0.012490817 0.042886008 0.075599395 0.02516409 0.022855565 0.009300044
-0.081898704 0.09434735 0.064367004 0.0026921635 -0.052348007 -0.09455611 0.11021823 -0.059251152
-0.017009836 0.008613536 0.033481978 0.046031095 0.016353102 0.099584445 0.059931897 0.087651394
-0.015260869 0.015461336 -0.052467313 0.032342046 -0.014074888 0.058263574 0.12849467 -0.014632643
-0.035406478 0.030300904 -0.07389847 -0.011718638 0.015018187 0.022382844 0.008691065 -0.054677848
-0.055796634 -0.08257163 -0.06425331 0.075882964 0.059433665 -0.008411855 -0.06649587 0.079543315
0.054568447 0.042771332 0.025728118 0.0044818833 0.10908575 -0.06276505 -0.02141528 -0.007168529
-0.07836896 -0.036910582 0.07559597 0.10307397 0.06604591 0.007471389 -0.0017126168 -0.051307753

2.bias f4 [130]
00000000: 4f70 31bd fdc6 403e 11e9 573d fec5 4a3c
00000010: 1dc1 1cbe 831a c3be 93e0 efbc 9e22 0d3d
00000020: f7fa 9cbd 6210 733e 8b6f d0bc 2a77 4fbe
00000030: 3304 33be eeba 46bd bd7d 093f 8aa8 acbd
00000040: 60ab a0be ddf4 983c c298 b63e 5f55 c23e
00000050: 177d 063d 0226 703d 25ae ebbe c00e fabe
00000060: de2e 813e 5956 c33d 7999 2c3f 22e7 9ebe
00000070: 625d d4bd 2ca6 ac3e 45f4 95be 4369 043f
00000080: dcb4 3dbf 91a6 843e 9cc0 14be d871 49bc
00000090: cded 22bb 3d0a 583e 71ea 1f3f 60c1 a83d
000000a0: d235 9cbe a194 17bd fb59 3d3f 2a27 f43d
000000b0: 2515 82bd 224b d3bc 3efe c8bd f969 82bd
000000c0: e41d 1bb9 0b4b 1abd 80e5 043f 3d15 973c
000000d0: 30e0 e93e 3336 a3bd 95f8 b53e 3835 1a3f
000000e0: 7754 143e 7422 7b3d c0ba 803f 1590 b13c
000000f0: c358 e6be 9b4d 87bd fca1 5f3d 0606 fb3e
00000100: ffad 723e 562d 86bd a5f9 6abe 3522 943b
00000110: 84fd f6bd 6ed5 913e a097 753a 79dc b1bd
00000120: 572f cdbc eaac d33d a409 af3d ecda 7cbe
00000130: 5669 a8bd f378 a43e a756 863e c426 cc3d
00000140: 8c5b aebe b1ce 49be d541 bbbe 0c75 adbd
00000150: f86d bfbd d005 8bbc da8e 0a3c 611c 2e3d
00000160: 97cd 4e3e ad94 5a3e 7616 563e b5d9 423e
00000170: a1ec ec3e 5259 a6be 2f6c bc3d c1d2 883d
00000180: 565b 44be 3003 ec3d 0d8b a7bc 572c 97be
00000190: 3ccd 2fbd 4683 9bbd 3a90 e53b 3f06 28be
000001a0: 584b e13e 6dc6 c23e e9e1 823f ff74 4f3f
000001b0: 36c3 f73e 8d53 9f3d 6e0e 723d cd9c 31bd
000001c0: cdbc c2be 2adb a03d bd70 94bd d0fa 193f
000001d0: 3354 6f3d 8bc6 eb3d f6b0 a43e 087f 6a3e
000001e0: ba6b 12be 3d12 363e ee38 3a3f 6571 ab3d
000001f0: b470 e43d 2e6e b03a 6b03 c13c eaa4 843e
00000200: 6706 a53e cdd9 45bd
-0.043319996 0.18825908 0.052712504 0.012376307 -0.15308042 -0.38106164 -0.02928189 0.03445684
-0.07665055 0.23736718 -0.025443813 -0.20260301 -0.1748207 -0.048518114 0.53707486 -0.08430584
-0.3138075 0.018671447 0.3566342 0.37955758 0.03283414 0.058629997 -0.460313 -0.48839378
0.2523107 0.09537954 0.6742168 -0.31035715 -0.10369374 0.3372053 -0.29287925 0.51723117
-0.74104095 0.2590833 -0.145266 -0.012295209 -0.0024860979 0.21097656 0.62467104 0.08240008
-0.30509812 -0.037006978 0.73965424 0.119215325 -0.06351689 -0.025792662 -0.09814118 -0.06367869
-0.00014793087 -0.037669223 0.5191269 0.018442744 0.45678854 -0.07969322 0.35541216 0.60237455
0.14485346 0.061312154 1.0056992 0.021675149 -0.44989595 -0.06606599 0.05459784 0.49028033
0.23699187 -0.06551616 -0.22946794 0.0045206794 -0.12060073 0.28483146 0.0009368602 -0.0868463
-0.025046987 0.10335715 0.08546761 -0.24692887 -0.08223216 0.32123527 0.26237985 0.099683315
-0.3405422 -0.19707753 -0.36573663 -0.084695905 -0.09347147 -0.016970545 0.00845691 0.042507533
0.20195614 0.21345778 0.20907006 0.19028361 0.46274284 -0.3249002 0.09200322 0.06680823
-0.19175467 0.115240455 -0.020452047 -0.29526016 -0.042920336 -0.07593398 0.0070057185 -0.16408633
0.44002795 0.38042012 1.0225192 0.81037897 0.48391122 0.07779608 0.059095792 -0.043362428
-0.3803467 0.07854302 -0.072480656 0.60148335 0.058429908 0.115124784 0.3216626 0.22900021
-0.14298907 0.17780395 0.7274312 0.08371238 0.11154309 0.001346057 0.0235612 0.2590707
0.32231447 -0.048303414

4.weight f4 [130, 130]
00000000: e21d 8f3d ef6d 40bc 82cf ec3b fec0 c8bc
00000010: 0ca7 41bd d8aa a7bd 78c1 003c 3ff8 373d
00000020: cbc7 32bd d4cb 44bc d957 32bd 75f1 4e3d
00000030: a050 8c3c 1f03 e53c fab2 dcbd f335 8b3d
00000040: 19f1 f2bd 4ddd 9e3d 7e56 e43c addf 89bc
00000050: 1ea4 b73c 37ce dd3c 13cd 5b3d da77 223d
00000060: c082 4dbc 0b17 013d 9279 6dbb 2047 bb3c
00000070: acb5 e1bc 2aa7 683c 242f 8cbd 0fbb b13d
00000080: c3fe c7bd 3c1f 3bbd 5889 0d3d dc5b 873c
00000090: 9e27 8a3d 5dc7 08be fe1f 92bd 9523 94bd
000000a0: 5582 cbbd f039 9b3d 4301 62bd 7fbb de3c
000000b0: 6f7f d03c 3451 cc3b 2a7d fabb 6725 febc
000000c0: 0da6 2bbd 0f86 7cbd bb38 19be 1b53 c5b9
000000d0: a52e e33c 961c 2bbb c16e 933c 0b32 023d
000000e0: 9e8d 5fbc 78eb 13bd 582b a2bd 80a4 9c3d
000000f0: 6d3e 583c 5e9e babc b2f6 8dbc 355d 6f3c
00000100: 4836 90bb 1d83 a9bd 77ce f6bc 91f4 51bc
00000110: 72c1 f03a 7be8 20bc 4ab6 e3bc c6a7 6abd
00000120: 7e3f ebbd 2f12 3b3b 1840 613d 2c80 bdbd
00000130: 9025 98bd 6852 9abd 3b29 60bb 848d 5a3c
00000140: d43b 9dbd 14d8 51bd aca6 143d 4f58 013d
00000150: 82f3 98bd 8775 9bbd a784 de3c 2030 0a3d
00000160: 5221 ba3c 626d c8bc 8c89 943d e2e7 263d
00000170: 002c 7cbd fb28 20bd 8953 b6bd 1a98 b3bc
00000180: dc08 c43d 6d89 3abd 291d 0ebb c3a2 863d
00000190: 5f59 403c 61da 05be 5f53 43bd 6efa f339
000001a0: 9cde c63d 66f2 003e 0c9c d8bd 94e6 0b3e
000001b0: 5788 27bb 0696 b2ba fcb9 953b 9562 2dbd
000001c0: ec02 bebc bc02 4f3d 63a3 9dbc c128 9fbc
000001d0: ee65 a5bd 68c1 a43d 3bc3 a3bd 9ba4 123d
000001e0: 7b8b 093d 2900 a3bc 5ae3 02bd 5d7f 333d
000001f0: bf58 de3d ca12 0abc 4c3c aa3d f258 153c
00000200: 255b a1bd c155 66bd 063d 7cbd e7e2 5ebd
00000210: fa36 013c d95b 393d 99a0 783d 0db4 5e3c
00000220: f963 d8bc f606 533c eab6 9c3d 9407 503d
00000230: 0a33 05bd 8ada cebd 33f3 ebbd 5530 7c3c
00000240: 012c 113d 6da3 bd3c b8a5 2e3d fd9a d83c
00000250: d981 e3bb 7656 a0bd a53f 4b3c 86ee 21bc
00000260: 5596 dfbd ebf4 a7bc 4ccb 8a3c d8e9 a23d
00000270: 1f32 a83d 0f8f a1be c2ba 0c3d 375a 703d
00000280: cc4a dfbb 373e 0a3e 2481 a53d 7883 2e3d
00000290: 375f ae3b 2205 86bd 2be2 813d c51d ce3d
000002a0: 07f6 513d 9f80 8cbc 0deb d13d 0c33 2dbc
000002b0: 9781 59bc 5928 4dbd 9ce0 153c 888d e5bd
000002c0: 9f46 f5bb 4027 7bbd eebb 0bbc 4501 15bc
000002d0: e396 7e3d 3c55 27bd 821e 10bd 1bb7 103d
000002e0: 84b7 333d 88a2 bf3d f97a 4c3d 23d0 09bd
000002f0: af27 8d3e 2176 ae3b d00f dcbd 5fd3 93bd
00000300: 26db 36bd 9eda f33b a9ae 74bb 6a44 47bd
00000310: e4e6 653d fd10 61bd 3d26 cabd e7cb 84bd
00000320: de40 46bd 6357 63bc 7d12 2a3d 552b 3e3d
00000330: d212 f9bb db15 d73d 10ca 8e3b 27ad a63d
00000340: 2f9a 553e 95de 6f3c 06b1 903c e7b6 ac3d
00000350: 0e42 6c3c fb78 f2bd d7e4 503d 4e7c 7e3c
00000360: 53e5 963d 5c95 f1bc 4900 97bd b5c3 87bd
00000370: 5087 2dbd 835f 9e3d 74db b93d 47ca 84b9
00000380: c2e9 19bb 94cd 2b3d 4d36 8ebd 72e2 b1bd
00000390: 9e08 76bd 7bb1 96bd 95aa 63bd 7458 1f3e
000003a0: 7674 6b3d 734d da3c 2b09 153d 5596 70bd
000003b0: c616 5c3d 4a3c 51be 63fb abbd d13d 983c
000003c0: 8e44 18bd 5c59 1b3d 13aa abbd 7af1 9dbd
000003d0: 2f1b b03d 9728 af3d ec0f 04bd 6017 72bd
000003e0: 28c2 04bc fc2f 863d 3acd 21bd a9ba 8bbb
000003f0: ca35 9f3d a310 a53c e0ea 363c 979d ab3c
0.069881216 -0.01174496 0.0072268853 -0.024506088 -0.04727845 -0.08186883 0.007858627 0.04491448
-0.04364757 -0.012011487 -0.04354081 0.05052324 0.017128289 0.02795559 -0.107763246 0.06797399
-0.11862392 0.077570535 0.027873274 -0.01683029 0.022417124 0.02707587 0.05366237 0.03966508
-0.01254338 0.031516116 -0.0036235792 0.022861063 -0.027552448 0.014200011 -0.06844929 0.08678257
-0.09765389 -0.045684084 0.03455481 0.016523294 0.06745838 -0.13357301 -0.07135008 -0.07233349
-0.09936968 0.0757941 -0.055176985 0.027189014 0.02545139 0.006235266 -0.0076443153 -0.031023694
-0.041906405 -0.061651286 -0.14963047 -0.00037636686 0.027732203 -0.0026109568 0.017997148 0.031786006
-0.013644604 -0.036113232 -0.079184234 0.076485634 0.013198477 -0.022780593 -0.017329548 0.014609625
-0.004401002 -0.08276961 -0.030127747 -0.012814657 0.0018368198 -0.009821053 -0.027796883 -0.057288907
-0.114867195 0.0028544774 0.054992765 -0.092529625 -0.074290395 -0.07535249 -0.0034204263 0.013339404
-0.07677427 -0.05123146 0.036291763 0.03157836 -0.074683204 -0.07590776 0.027162863 0.0337373
0.022720966 -0.02446622 0.072527975 0.040748484 -0.0615654 -0.039101582 -0.08902652 -0.021923114
0.09572002 -0.045541216 -0.0021684861 0.06574013 0.011740058 -0.13071586 -0.04768693 0.00046535156
0.09710428 0.12592468 -0.105766386 0.13662177 -0.0025563443 -0.0013625033 0.00456929 -0.042330343
-0.023194753 0.050539717 -0.019242948 -0.019428613 -0.08076082 0.08044702 -0.07996222 0.03580151
0.033580285 -0.019897537 -0.0319551 0.043822635 0.10856771 -0.008427331 0.08312282 0.0091154445
-0.078787126 -0.056234125 -0.061581634 -0.05441561 0.007886643 0.04525361 0.060700033 0.013592732
-0.026414858 0.012880078 0.076520756 0.050788477 -0.032519378 -0.10100277 -0.11520996 0.015392383
0.035442356 0.023149217 0.04263851 0.026441092 -0.0069429693 -0.07828991 0.012405311 -0.009883529
-0.109173454 -0.020502528 0.016942643 0.079547584 0.08212685 -0.31554458 0.034357794 0.058679786
-0.0068143364 0.13500296 0.08081272 0.042605847 0.005321409 -0.06543948 0.06341966 0.10064272
0.05126002 -0.017151175 0.102499105 -0.010571253 -0.0132755255 -0.050087307 0.009147789 -0.112086356
-0.0074852253 -0.06131673 -0.008528693 -0.009094541 0.062155616 -0.04085277 -0.035185345 0.035330873
0.043876186 0.09357172 0.049921963 -0.03364576 0.2756934 0.0053241407 -0.107452035 -0.0721805
-0.04464259 0.0074418327 -0.003733555 -0.04864923 0.056128398 -0.054947842 -0.098705746 -0.06484204
-0.048401706 -0.013875815 0.041521538 0.046428043 -0.0076011205 0.105022155 0.004357584 0.08138495
0.20859598 0.01464047 0.017662536 0.08433323 0.014420046 -0.118394814 0.05099949 0.015532566
0.07367959 -0.029490165 -0.07373101 -0.06629125 -0.042365372 0.07733061 0.090750605 -0.0002532771
-0.0023485278 0.0419441 -0.06943951 -0.08685769 -0.06006681 -0.073580705 -0.0555826 0.15561086
0.057484113 0.026648259 0.036385696 -0.058737118 0.053732656 -0.20433155 -0.083975576 0.018584164
-0.037174754 0.037927017 -0.083820485 -0.077120736 0.08598935 0.08552664 -0.032241747 -0.059104323
-0.008102931 0.06552121 -0.03950236 -0.004264195 0.07773931 0.020149535 0.011164397 0.020949168

4.bias f4 [130]
00000000: 12b0 1c3e ea85 ad3e f18c bb3c 8fcd 98bd
00000010: c910 1cbd 07e4 e73d 8ff8 613d b358 cfbb
00000020: de19 0fbd 3755 a5bd d039 9a3c c790 c9bd
00000030: 26fc 04bd 2a92 063f d56c cf3d d714 bc3d
00000040: 41e5 a7bd 5ac8 bcbd 47c6 0d3d 150c 57bd
00000050: ceb5 e53c eb2f 5a3c fa05 9dbd 26df 803e
00000060: f551 4fba 2c49 cebc 27c5 2dbe 75d2 c2bb
00000070: d13c e13e ded2 bebc 3fec 343d 7c94 703e
00000080: 45c1 0fbd 4861 743c c628 cabc e2e2 973e
00000090: f6f2 0a3d 4286 85bd 09fe 9cbe 8a7b 1bbd
000000a0: 0f85 0cbd 1055 b9bd 6adc a2bd 5bea 7abd
000000b0: c1f8 babd bcd8 843d c1f5 c5bb 3c4f 7f3d
000000c0: 2f3e a83e 4c58 e53d 3043 633e 50c4 8fbd
000000d0: 2e72 81bd c968 9b3e 339c a8bd 800c 273f
000000e0: 17b3 483d 31b8 8d3d fd38 b1bd 01ec c1bd
000000f0: 1e67 453d 4142 2cbd b3e3 e53c b1ba 063d
00000100: fd3c 7f3d 0065 603b 7eca 5a3d 2627 873e
00000110: 44cf 94bc ecb2 d53b 4c30 aebe 03e9 573d
00000120: 1501 093f 3609 63bd 71c3 3ebd 70e0 913b
00000130: cf63 b9bc eed7 9d3d e668 543c 6cba f83c
00000140: 3814 87bd 945a 073f e0c7 893e fe13 47bb
00000150: 5db6 753d 862a c0bd 0c86 62bd c73c 1fbd
00000160: 36c7 8dbd 25ed 873d ed86 6c3e 918e 793d
00000170: 5810 b7bd a4b1 083c 64ba f83e 787e 853e
00000180: 4b85 a8bd d82b 44bd 30e9 07bd aaf5 7d3e
00000190: 9399 a83e 9923 c0bd 60d2 b3bd c3d6 c13c
000001a0: 73c1 443d 3418 443e ee9f afbc 6ef1 57bd
000001b0: fe8c 32bd 40b2 c63e e3ef a8bd 9524 86bd
000001c0: dc2c 2f3e e2a8 763d 4918 053e 831f 3ebd
000001d0: 93f3 c2bd 01e8 113c 95a3 763d d492 1ebc
000001e0: 0067 69bd 0083 5c3d 3ec6 a73e cd88 1ebc
000001f0: 9f4a 0b3f 6fa9 5bbc ed6a b8bc e80c 9dbe
00000200: 3159 57bd 40dc 113c
0.1530154 0.3389123 0.022894355 -0.07461082 -0.038101945 0.1132279 0.055168685 -0.0063277124
-0.03493678 -0.08072894 0.018826395 -0.09842067 -0.03246703 0.5256678 0.1012818 0.091836624
-0.081980236 -0.092179015 0.03461292 -0.052501757 0.028040793 0.013317089 -0.076671556 0.2517025
-0.0007908636 -0.025181375 -0.16969739 -0.0059454986 0.43991712 -0.023293909 0.044170614 0.23494142
-0.035096426 0.014915772 -0.024677645 0.29665285 0.03392311 -0.06519748 -0.30662563 -0.037959613
-0.034306582 -0.090494275 -0.07952197 -0.061258655 -0.09129477 0.06486651 -0.006041259 0.062331423
0.32859942 0.11198482 0.22193599 -0.070198655 -0.06320606 0.30353382 -0.08232918 0.6525345
0.04899892 0.06919897 -0.08653448 -0.09468842 0.048194043 -0.042055372 0.028062677 0.032892887
0.062314022 0.0034239888 0.053415768 0.26397055 -0.018165238 0.0065215733 -0.34021223 0.05271245
0.53517276 -0.055428706 -0.046573106 0.004451804 -0.0226306 0.07707201 0.012964463 0.03036233
-0.06595653 0.52872586 0.26910305 -0.0030376907 0.05998837 -0.09383111 -0.05530362 -0.03887632
-0.06922762 0.066370286 0.23098345 0.060926978 -0.08938664 0.008343134 0.48579705 0.2607305
-0.082285486 -0.047893375 -0.03318137 0.24800745 0.32929668 -0.0938179 -0.0878036 0.023661977
0.04803605 0.19149858 -0.021438565 -0.05272048 -0.043591492 0.3880787 -0.0824888 -0.06549946
0.17106956 0.060219653 0.12997545 -0.04641677 -0.09519114 0.008905412 0.060214598 -0.009678561
-0.056982994 0.05383587 0.32768434 -0.009676171 0.5441074 -0.013407095 -0.022511924 -0.3067391
-0.052575294 0.008902609

6.weight f4 [157, 130]
00000000: 2005 76bb 2e00 0ebd 32de 853d 4186 dabd
00000010: edfd 5fbd 6175 0cbe ace0 8cbd eaa9 883d
00000020: 5c31 9ebd bd46 46bd 30e4 153e 4a04 0fbd
00000030: fe81 233c 46f9 2ebd 8ae9 75bd c5ac 74bd
00000040: 6f85 06bd 421f 2f3d 59bb 76bd 64ec 153d
00000050: 2659 0dbd 717b f5bc c0ec 42bd 4ed8 81bc
00000060: 6903 65bd 4c5f 7e3d 3d93 efbc 1fb6 843d
00000070: ddde a73d 2a88 51bd e3c3 923d 838a 5fbd
00000080: 14c5 2cbd ce7d b33d c5bf 3cbd f68c 2cbe
00000090: a0eb efbc ffdf 07be 27fc 2ebe d0f7 b43c
000000a0: 31c6 973d a18c 843d a861 9abd 91f9 f7bc
000000b0: 5747 6c3d c3d3 c1bd f754 39bd 310a 89bd
000000c0: 3570 6abc 278f 713d ae59 9f3c 7cf0 91bc
000000d0: 41af a93c 1bd5 9a3d 9c34 62bd f537 893d
000000e0: 2267 81bb 5a1b 823d d2fb aabd 0589 a13d
000000f0: 5189 a2bd a837 c0bd 7269 adbd f36c 283d
00000100: 115a 85bc 82d8 0ebd 7c9e de3c b13c 94bd
00000110: f107 b0bd 4024 613d 5829 aa3d 8f88 7cbd
00000120: 9eb0 96be 1ea0 ff3b 947e bebc 66d3 16bd
00000130: 997b 993d dc00 17bb f9c5 b4bc 4deb acbd
00000140: fde1 b7bd ffc9 99bd dd2a c03d f19e 8cbd
00000150: 9776 86bc 4454 a53d c06e cf3b 6591 4e3d
00000160: b656 af3d 7145 49bd a8ad babc 9c9c d03c
00000170: 22b4 45bd 0811 33bd 7d16 593e 0138 11bb
00000180: 019e 3dbd 233a 62bd b1c7 f4bc 404f ecbd
00000190: 435b 723e a2a2 7cbd 38c9 54bd 7b51 5f3d
000001a0: f22c 8d3d 46c7 86bd ae1a 0b3d 1b65 b53c
000001b0: a4b4 5b3c ecdd 56bd f663 64bd 28cc 4fbd
000001c0: bc1c eabc 7c20 13bc 79ab 553d c14f 16bd
000001d0: 99c5 edbc 186f 123d bbf4 143c c807 943c
000001e0: 9914 e8bd 3d68 5d3d 0f76 803d 6fc0 ab3d
000001f0: c9ae 97bc f598 82bc 151c 783d 567e 933c
00000200: 545e a3bd da96 85bd 779f dabc 23dd b03d
00000210: 8141 9b3c 0446 52bc ee90 21bd d050 a53d
00000220: 6170 bcbb a6e7 7c3d f8ed 68bb 0ab2 75bc
00000230: 9826 233c a8b6 7cbd 3a7a 20bd be5a bbbd
00000240: cc53 d63b b5b9 04bd 05b4 853d 6da1 363c
00000250: 1b1d 09bd 2c8f 8abd 660b 92bd 077a 84bd
00000260: a050 b83d 838c 4cbe e44d 8d3d 8f1b f63b
00000270: 165b 273c 813e 883c cece 00be 73ca 2ebd
00000280: b958 e73c b7d0 a3bd 99c3 ab3d 4a19 42bd
00000290: 20fa 28bd 2eab 01bd aa34 ec3b 6986 2dbd
000002a0: 3d34 99bd 2107 24bd 3d9f 64bd a4c0 05bd
000002b0: 256b 80bd 8f25 793d 90fc 1e3d 4051 03bd
000002c0: 2448 633c 5554 de3c 4bda 09be 4ae4 edbc
000002d0: 969e debd 7be2 10bd e70a acbc fefb 9cbc
000002e0: 3156 58bc 2964 d5be 599e a83d ca07 bc3d
000002f0: 8583 8f3d e4ef b93c 0cb9 3b3d 4ae9 0c39
00000300: 1ffd 8db9 dc16 8dbc 2a62 413d 2942 743c
00000310: 7df0 af3d f8ff 163e 03ea a9bd 38c5 423d
00000320: 951e adbc 9a08 ab3d 04b7 603e 00ea 4c3c
00000330: b9b9 97bc 1323 ad3d 38ed b2bb 4b99 5dbd
00000340: bc66 60bb 8451 2fbd 7f22 f8bc e422 803d
00000350: 889d 89be 3292 183d a88e 8ebc 1684 7dbd
00000360: adfc 133d f5af 01bd 1e90 423d dacc 0bbe
00000370: 6b36 213d 62d3 eabc 4d6b 903d 4a54 e7bb
00000380: 023d b0bd 908c cd3b 6b17 72bb b7e3 1fbd
00000390: c561 49bc d1fa 103c c4b1 fbbd 825e 5e3d
000003a0: 03dd b33a 2313 ab3c ac32 f9ba b2dc 2dbe
000003b0: de90 aebd 336a 153d db6b 21bd 7aa8 7d3d
000003c0: 9659 54bd b0a3 8cbd f80a 9dbe 867c 64bd
000003d0: 986d 54bc 8bdc 553d ca12 88bc e0fd a3bd
000003e0: e700 663d 5968 3f3d 3981 e8bc 8843 e93b
000003f0: 8a4b d5bd fb93 9bbd 573e a8bb ed28 413d
-0.0037539676 -0.03466814 0.06536521 -0.10670138 -0.054685522 -0.13716651 -0.0687879 0.066730335
-0.07724258 -0.048407305 0.14637828 -0.0349162 0.009979723 -0.042718194 -0.060037173 -0.05973508
-0.032842096 0.04275442 -0.060237262 0.036602393 -0.034508847 -0.029966088 -0.047589064 -0.015850212
-0.055911455 0.0621026 -0.029245013 0.06480049 0.08196805 -0.051155247 0.07166269 -0.054575454
-0.042180136 0.0876423 -0.046081323 -0.16850647 -0.02928716 -0.13269041 -0.17088376 0.022090822
0.07410849 0.06472135 -0.07538158 -0.03027037 0.057685222 -0.094642185 -0.045247044 -0.06691397
-0.014308979 0.05897441 0.019451942 -0.017814867 0.02071345 0.07560178 -0.055225953 0.06700126
-0.003949062 0.06352873 -0.08348812 0.078874625 -0.07936347 -0.093856156 -0.08467378 0.041119527
-0.016278299 -0.034874447 0.02717518 -0.072381385 -0.08595265 0.05496621 0.08308667 -0.06165367
-0.29431623 0.00780107 -0.023253717 -0.0368227 0.074942775 -0.0023041284 -0.022067057 -0.084433176
-0.08978651 -0.07509231 0.093831755 -0.06866253 -0.01641397 0.08072713 0.006330341 0.050431628
0.08561461 -0.04913849 -0.022787884 0.025465302 -0.04826749 -0.043717414 0.21199985 -0.0022158625
-0.046293262 -0.055231225 -0.029880377 -0.11538553 0.23667626 -0.061678536 -0.05194971 0.054521065
0.06893338 -0.06580977 0.03396099 0.022142937 0.013409767 -0.052457735 -0.055759393 -0.050731808
-0.028578155 -0.008979913 0.052165482 -0.036697153 -0.029024886 0.03575048 0.009091551 0.018070117
-0.11332054 0.054054487 0.06272518 0.08386313 -0.018515961 -0.015942076 0.060573656 0.018004578
-0.07976976 -0.06522913 -0.026687367 0.086359285 0.018952133 -0.012834076 -0.039444856 0.080720544
-0.0057507013 0.061744355 -0.003554223 -0.014996061 0.009957932 -0.061697632 -0.039179064 -0.09148167
0.006540751 -0.032403667 0.065284766 0.011146885 -0.033475023 -0.06765589 -0.0713108 -0.06468587
0.08999753 -0.19975476 0.06899622 0.0075106095 0.010214588 0.016631367 -0.1257889 -0.04267354
0.028240548 -0.079987936 0.08386917 -0.0473874 -0.041254163 -0.03165739 0.0072084265 -0.04236451
-0.07480667 -0.04004586 -0.055815924 -0.03265442 -0.06270436 0.060826834 0.03881508 -0.032059908
0.01387218 0.027139822 -0.13462178 -0.02903952 -0.108700916 -0.03537224 -0.021001292 -0.019163128
-0.013204143 -0.4167798 0.082333274 0.09181173 0.07007507 0.022697397 0.04583077 0.00013438347
-0.00027082206 -0.017222814 0.047212757 0.014908352 0.085907914 0.14746082 -0.08296587 0.047551364
-0.021132747 0.0835125 0.21944815 0.012506962 -0.018521177 0.084539555 -0.0054604076 -0.05410127
-0.0034240922 -0.04280235 -0.030289887 0.06256655 -0.26878 0.037248798 -0.017402008 -0.061893545
0.036129642 -0.031661946 0.047500722 -0.13652363 0.039358538 -0.028665248 0.07051716 -0.0070596086
-0.08605386 0.00627286 -0.0036940228 -0.039035525 -0.0122913765 0.008848862 -0.122897655 0.05428935
0.0013722483 0.020883149 -0.0019012294 -0.1697872 -0.08523725 0.036478233 -0.0394095 0.06192825
-0.05184325 -0.068671584 -0.3067243 -0.055782817 -0.012965582 0.05221228 -0.016610522 -0.08007407
0.056153204 0.046730373 -0.02838193 0.007118646 -0.104147986 -0.075965844 -0.0051343846 0.04715817

6.bias f4 [157]
00000000: 808e eebc 5014 9dbe 4f09 c8be dad7 94bd
00000010: 2bb7 e2be a0ae 4d3e dd65 b2be 4170 023d
00000020: 252a 203f 902a 2bbe 33a4 cebe 804c 573e
00000030: 6c1e eabe 607e 6d3d 720b 8d3e cc37 9fbd
00000040: 01f7 dfbe 2d19 223b 4b97 8d3e 4d51 0fbf
00000050: 7cc6 583d cc10 d7bd 36cb 21be ded3 ca3d
00000060: 91e0 34bd 4d73 313f 2cbb cdbd e2a5 cbbe
00000070: b1fd 3ebe 1d02 113e 598e 04bf 146c 70bc
00000080: 5055 95bd 4d51 e8be 6d28 343e 1f0b c6be
00000090: 5cb0 26bf f606 24bd a490 37be 0cfc f4bd
000000a0: d5b8 153d 4dde 31bd 44af 66be 7c2f 813e
000000b0: 22d5 dd3e b2b6 b4bc 5b0b 99be 0af2 623e
000000c0: a593 cf3e 3eaa 443f 884f 9c3e 00c7 cb3e
000000d0: 6b4d e3be 7213 4dbe c678 3bbf e207 1a3f
000000e0: 03aa f4be 289f 85be 780a 9f3e 57ba 843e
000000f0: 7025 7bbe b1fe 29be 4479 be3e 0181 36be
00000100: 3e63 1b3f 60cb 0ebd aa71 7dbe 2632 98be
00000110: b26d 5e3e 6a01 673e abb9 54bd 4118 d6bd
00000120: 6592 dc3d d759 c63e 17ca 8fbd d42a 9a3e
00000130: 19be 3cbe abb5 593e 8ff7 9ebe eb79 623e
00000140: 3bf0 463f b029 bd3e 4a66 8abd 046f f6be
00000150: b304 d2be 8e18 cc3e 0984 12be 5393 983e
00000160: a555 e53b 4f21 66be e358 65bc 40dc cbbd
00000170: 9165 c03e 743b b63e 2858 303e bbdd ebbe
00000180: c4e3 6cbe 220d 1a3d aae6 00bb e220 cfbd
00000190: 69f6 bd3d 0983 20be 5f07 e63e 00cb 17bf
000001a0: 3bcd c7bd 9b9a 80bc 1a89 96be 5d06 eabd
000001b0: 7d5a 773e 4e72 9bbe bd13 66bd 512a 643b
000001c0: c47c 0fbd 48fe 2abe ede5 cc3e 6243 eabc
000001d0: 41b1 b1be d63c 74be 2bc1 32bd 3804 403e
000001e0: d597 503e 1aeb 06bf 5d5c 6cbd 53f8 d6bd
000001f0: 5267 e0be 20a7 bf3d 032c a43e 4d9d 373d
00000200: a32d 913e 100d 513e 2cf7 b63e a8ab 543e
00000210: aaf9 283b a1db 19be c71b 0bbf 4be5 8dbe
00000220: a62c e3be 8439 a53e 173d d5be 148d c53e
00000230: 6eb8 1d3f c0bd b13b 448e 993d 698d b2bd
00000240: 13e2 8f3e d031 d43e 4055 033c dc1c 46be
00000250: 9f59 273e b5d7 09be b685 df3e c2d6 0a3e
00000260: 5974 a6be a477 01bf 50db b33d a23f 953e
00000270: ab45 513e
-0.029120684 -0.3067956 -0.39069602 -0.07267733 -0.4428037 0.20086145 -0.3484334 0.031845335
0.6256431 -0.16715455 -0.4035965 0.21025276 -0.45726335 0.05798185 0.27547795 -0.07774314
-0.43743137 0.0024734244 0.2765449 -0.5598343 0.052923664 -0.105012506 -0.15800175 0.09903692
-0.044159476 0.6931656 -0.10045466 -0.39774996 -0.18651463 0.14160962 -0.51779705 -0.014674205
-0.07291663 -0.45374528 0.17593546 -0.3868036 -0.65112853 -0.0400457 -0.1792627 -0.119621366
0.036553223 -0.043424893 -0.22527796 0.2523154 0.4332667 -0.022059772 -0.29891476 0.22162643
0.4054233 0.7682227 0.30529428 0.39800262 -0.44395003 -0.20026949 -0.7323116 0.6016828
-0.4778596 -0.2609799 0.31062675 0.25923416 -0.24526 -0.16601063 0.37201893 -0.17822649
0.60698307 -0.034861922 -0.2475039 -0.2972576 0.21721533 0.22559133 -0.05193488 -0.10453845
0.1077011 0.38740417 -0.070209675 0.301108 -0.18431892 0.21260707 -0.31048247 0.2211682
0.7771031 0.36945868 -0.06757791 -0.48131573 -0.4101921 0.39862484 -0.1430818 0.297999
0.006998735 -0.22473644 -0.013998243 -0.09954119 0.3757749 0.35592234 0.17221129 -0.46067604
-0.2313376 0.03761018 -0.0019668736 -0.10113694 0.09275515 -0.15674986 0.449275 -0.5929413
-0.097559415 -0.015698722 -0.29401475 -0.11426995 0.24155612 -0.30360645 -0.056171168 0.0034815262
-0.035031095 -0.16698563 0.4001917 -0.028596584 -0.34705546 -0.23851332 -0.04364125 0.1875161
0.2037042 -0.52702487 -0.057705272 -0.10496583 -0.43828827 0.093580484 0.32064828 0.044827748
0.2835513 0.20415139 0.35735452 0.20768607 0.0025783577 -0.15025188 -0.5433926 -0.27714
-0.44370002 0.32270443 -0.4164817 0.38584197 0.6160954 0.0054242313 0.07497838 -0.08718378
0.28102168 0.41444254 0.008015931 -0.19346946 0.16342781 -0.13461192 0.436567 0.13558486
-0.3251064 -0.5057318 0.08782065 0.2915011 0.20436732
