pav_spkid_pytorch/lp_model_hsize_130_lr000125/bestval_e1_weights.ckpt (torch_old, 318518 bytes, 8 tensors)

0.weight f4 [130, 189]
00000000: 3266 213d 9f94 c33d 56cc cc3c 51ca 03bb
00000010: 9e71 1a3c 84bb f73b ebf0 8cbc b65b dc3d
00000020: 142a 133e 90f9 253d 3ac6 c73d d248 873b
00000030: 417c 1dbd 0a74 8abc 9561 a6bc a36a 07be
00000040: 986f 993d 0e07 843d a751 383c 6c0d 0a3c
00000050: 72a4 51bc 65a4 403d 9067 bbbd ed07 9c3d
00000060: 1e41 c1bd 0e69 c33d b767 8e3d 2df0 27bd
00000070: fc8b b7bc eef5 c7bc 58bd 11bd fc1d 27bd
00000080: 2aec ff3c c2bf 23bd f19b 233d 7d36 013e
00000090: f40c 02bb c419 b7bc e387 d5bc 802b 8c3d
000000a0: 7b24 62bc a87a b1bc f5e6 303c d416 58bc
000000b0: 74ef e23d bbf4 f83c 300b 8c3d 9dcd 21bd
000000c0: 80c0 00bd 7c21 83bd d2ab 343d dfe8 96bd
000000d0: 2336 e1bd b81d b93d 8aca a0bc f846 1eba
000000e0: d669 82bd cbf5 0d3d 4c29 39bc 31f9 db3c
000000f0: c7aa 50bd 2709 2dbd 7c6b 323d 2c95 98bd
00000100: 5da1 9e3c 3389 363c d75e cc3c 4619 0bbd
00000110: f403 96bd 8d53 313d e658 80bd f04b 263e
00000120: 6304 7bbd c0b5 ba3d 036e 7ebd f830 143c
00000130: 2c9f 61ba d18f 0abd 7b53 1e3d 3a42 66bd
00000140: ca09 043d 75db 35bd d487 a33d 7a9a ffbc
00000150: 9d6f 3abc 3ec4 8a3c 870b 893c 1dc8 333d
00000160: 7f9c d9bd a388 113e 1b36 7abd d959 e93d
00000170: 7aef 8bbd b7ed 8bbc f9d6 8dbc c7e2 823d
00000180: 22c8 773d 799e a7bd 3318 bf3d 3f97 90bc
00000190: cd2f ca3d 94a6 34bd a442 d73d e1c0 41bd
000001a0: 8af2 90bc 0607 c6bc 46b7 2fbe 937f d83d
000001b0: 24a9 453d 051c e33d 81ea aabd 9b55 b73d
000001c0: 8c03 8cbd b392 9abd 827e 76bd f695 07be
000001d0: 4458 283d 8310 0a3d e1fb 263b 8117 9ebd
000001e0: 48c0 7b3d 0d7f 77bb ca56 e7bc ca7a 513d
000001f0: 923e 79bd 5d51 743d 396b 25bd 8088 913c
00000200: 3a02 b33c a7be 35bd 8e74 433d b6b2 c6bc
00000210: da4c b6bc fed2 42bd e368 1f3e 0e17 be3c
00000220: ddc7 b03c f671 64bd d42e d33c 4dfb f4bb
00000230: 8447 313c 07ee afbc 71c5 73ba c5fd c13d
00000240: 7c42 9bbd 7db4 bb3d 3df1 8ebd d197 35bb
00000250: 9a3e bfbc 2f0d c6bc 1715 c5bd c94c d8bc
00000260: 9dcf 473e 296a 0d3d e992 233c 07ab b9bd
00000270: 05af 903d 5cfd d4bd c513 063d 3286 29bd
00000280: 53db 3abd a3ae 143e 6167 b43c 4aea 703c
00000290: 6040 66bd b2dc 283c 0733 eabd 30f7 fa3c
000002a0: aa52 e73a c00d 903d e94d 003e 98d2 083d
000002b0: e845 a83d dd71 4d3c c07f da3c 2103 debd
000002c0: 8326 38bb ec68 a7bd 49ff 293e 3ea0 553d
000002d0: 89df 353c 7913 d93d 241b 11bd 564b 913d
000002e0: 3048 87bd 0f74 943d 702f bbbd f0a9 153e
000002f0: 62d6 eb3d 596b 38bd 8b7b 813d ed0e f7bc
00000300: 417c c93b c9ec ed3c aa8c ca3d 593e cf3b
00000310: 5842 ed3c 42aa 0abe b132 13bd af21 7b3c
00000320: 2949 2a3d b7f0 953a 6134 34bd 3421 673d
00000330: d7b8 19bd 0bad 873d 8257 0bbe 9f2c 63bd
00000340: 9202 a73c c050 12bc 9904 2a3d f968 74bd
00000350: 5f0a 2d3d 11cd c13d c180 6ebc 7fdd 2bbe
00000360: a61c 5e3d 02ea 98bc 816f dabc 38e3 473d
00000370: ac36 00bd 56b3 adbb ca6e a53c 9f65 06bd
00000380: 4246 3dbe 3f62 523d d40b 07bd 94ed 653d
00000390: c9fc 18bd 84ef 403c dc67 4b3d 8f63 d03d
000003a0: 4681 acbd 0b0c 93bd e35a 9ebb 1211 f0bc
000003b0: 67f7 85bd a2a9 8fbd 21c1 9a3d be94 2e3d
000003c0: 9484 933d 7bca 18be 2697 27be 1683 bebc
000003d0: fef5 1abc fa04 4c3d 2a58 b93c dd29 74bb
000003e0: 7439 debd 7eb2 db3d be51 2cbe 2264 cfbd
000003f0: 96fa 1d3d 31e7 803d e153 0ebd 9ae2 95bd
0.0394041 0.095498316 0.024999779 -0.0020109604 0.0094265025 0.0075601954 -0.017204722 0.1075968
0.1437152 0.040521204 0.097546056 0.004128554 -0.038448576 -0.016901035 -0.020310203 -0.13224272
0.07491988 0.06446658 0.011249936 0.008426052 -0.0127955545 0.04703178 -0.09150612 0.07618699
-0.09436248 0.09541522 0.06953376 -0.041000534 -0.022405617 -0.02440926 -0.035580963 -0.04080008
0.031240541 -0.039977796 0.03994364 0.12618442 -0.0019844146 -0.022351153 -0.026065772 0.068442345
-0.013802643 -0.021664932 0.010797252 -0.013189036 0.11080828 0.030390134 0.06838071 -0.03950273
-0.031433582 -0.06402871 0.044109173 -0.073686354 -0.10996654 0.090388715 -0.019627828 -0.0006037797
-0.06367843 0.034658235 -0.01130135 0.026852222 -0.050944116 -0.042245056 0.043559536 -0.07450327
0.019364053 0.011141109 0.024947567 -0.03395965 -0.07324973 0.04329257 -0.06266956 0.16239905
-0.06128348 0.09116697 -0.062116634 0.009044878 -0.00086067873 -0.03382856 0.038653832 -0.056215502
0.032235898 -0.044398744 0.079848915 -0.03120159 -0.01137915 0.016939279 0.01672913 0.043892015
-0.106255524 0.14212279 -0.061086755 0.1139409 -0.06832786 -0.017081125 -0.017314421 0.063909106
0.060493596 -0.08184523 0.093307875 -0.017650245 0.098723985 -0.044104174 0.105107576 -0.047303084
-0.017693777 -0.02417327 -0.17159757 0.10571208 0.04825701 0.11089329 -0.08345509 0.08951875
-0.06836614 -0.07547512 -0.06017924 -0.132408 0.0410998 0.033707153 0.0025479721 -0.07719327
0.06146267 -0.0037764937 -0.028239626 0.05114249 -0.060850687 0.059647907 -0.04038546 0.017765284
0.021851648 -0.044371273 0.047718577 -0.024255138 -0.022253443 -0.0475645 0.15567355 0.023204353
0.021579677 -0.055772744 0.025779165 -0.0074762465 0.010820273 -0.021475805 -0.00092991354 0.09472231
-0.0758104 0.09165285 -0.06979606 -0.0027708898 -0.02334528 -0.024176208 -0.09623163 -0.026403802
0.19512792 0.03452507 0.009983757 -0.09065824 0.07064632 -0.10399887 0.032733697 -0.041387744
-0.04561932 0.14519744 0.022021951 0.014704296 -0.056213737 0.010306524 -0.11435514 0.030635446
0.0017648537 0.070338726 0.1252972 0.033403963 0.082164586 0.012539354 0.026672244 -0.108404405
-0.0028099127 -0.08174309 0.1660129 0.052154772 0.011100658 0.10599417 -0.035426274 0.07094447
-0.066055655 0.07248699 -0.09139907 0.14615607 0.115155 -0.04502425 0.06322392 -0.030158484
0.0061488454 0.029043572 0.09890111 0.006324571 0.0289623 -0.1354151 -0.035937015 0.015327855
0.041573677 0.0011439536 -0.043995265 0.05642815 -0.037529793 0.06624802 -0.136076 -0.055462476
0.020386968 -0.008930385 0.04150829 -0.059670422 0.04224622 0.094629414 -0.0145570645 -0.16783713
0.05422654 -0.018666271 -0.026664497 0.048800677 -0.03130214 -0.0053009195 0.02019443 -0.032811757
-0.18483832 0.051363226 -0.032970265 0.056134775 -0.03735045 0.011775855 0.049659595 0.10175239
-0.084230945 -0.071800314 -0.004832612 -0.029305015 -0.06541329 -0.07014777 0.07556368 0.04262232
0.07203022 -0.1492099 -0.16366252 -0.023255866 -0.009458063 0.049809434 0.022625048 -0.0037256398
-0.10850802 0.10727404 -0.16828057 -0.10126521 0.038569055 0.06294096 -0.034747962 -0.073186114

0.bias f4 [130]
00000000: e13e 0b3d 91a0 8dbd c5e4 1ebd 4c42 d43c
00000010: 694f bfbd 0503 13bd 2838 97bd 3eef 6dbc
00000020: e68a b5bc f0ff 9f3b 1d54 20bc b229 13bd
00000030: 211d babb 13c1 3cbd 4c7d 99bd d970 4f3d
00000040: 90b0 bbbc f3c1 a438 bad8 5a3d aae4 a8bd
00000050: 4532 e0bd 57df 5b3d 7826 bcbd 6676 7e3c
00000060: e83c 16be da35 87bc 17db 433d 2e06 77bb
00000070: c1d2 fd3d 30eb abbd 67c9 923d 47d4 e5bc
00000080: 7e79 3f3d 69fd f5bb 2f1f 1fbd c229 7abd
00000090: 7fbe c23c 7240 1fbd a1c0 393d b4b6 4b3c
000000a0: c43e e4bd 76c6 9a3d 1a18 763d 1f00 48be
000000b0: 4131 c6bd 3753 e13c 099c 8c3b 5390 2bbd
000000c0: 87b5 09be f616 d3bb 6d74 67bd 20d1 863a
000000d0: 3a34 18be 32a3 743d c753 91bd 785f 603d
000000e0: 63ef 84bb 914a 4dbe ea14 7fbd a019 003a
000000f0: 048c 6b3d 2be4 4d3c 6372 1cbe 37f8 06bd
00000100: 233d 60bc 6f63 0abd 3c35 83bc a89e ffbc
00000110: 633c 4c3e ae81 d1bd ce9c c5bb be26 89bc
00000120: 0aca ef3c 9a23 21bd 2152 2bbc 1ad7 d039
00000130: 3115 113d 6e7f 91bd 7927 9dbd ea88 39bd
00000140: 0004 0dbd 8b3c e7bc 9a1e b73d 0d81 87bd
00000150: 680c 9fbc f23d 6cba eebd ccbc 8e29 ed3c
00000160: 9533 bbbd 4dcb 9cbc 3ae7 c9bc 9cb9 59bd
00000170: 5879 c4bd d72f d5bb 5a91 0ebd b163 093d
00000180: 36b5 f6bc 83dc 9bbd c90b b6bd 61fd bd3d
00000190: 5bf0 a5bd df66 67bc b6a4 8c3c 2bf6 753c
000001a0: 6ebb 13bb d629 953d b2e6 2ebc 5a25 92bd
000001b0: c8ad cbbc 1c29 b8bb 0a5d 133e bff5 223d
000001c0: eb30 03be 33e7 0e3d ba47 453d 19fb 66bd
000001d0: eec2 3d3b c6db 06bd f59a ab3c 3857 a2bd
000001e0: 071e adbd 906f 363d 4793 613d 0f5f dbbc
000001f0: a726 0fbd 16f6 743d 5f18 56bd 3e3d 6abc
00000200: 87bd 32bd 26c9 e2bc
0.033995513 -0.06915391 -0.03879239 0.025910519 -0.09341318 -0.03589155 -0.07383758 -0.014522372
-0.022160958 0.004882805 -0.009785679 -0.035928436 -0.005679742 -0.046082567 -0.074946016 0.05064473
-0.02291134 7.856255e-05 0.053429343 -0.08246739 -0.10947088 0.05367979 -0.09187025 0.015531158
-0.14671671 -0.01650517 0.047816362 -0.0037692892 0.12393714 -0.08394468 0.07167321 -0.028055323
0.046746723 -0.0075070155 -0.0388481 -0.06107498 0.023772476 -0.03887982 0.04534972 0.012433697
-0.11144784 0.07557385 0.06008158 -0.19531296 -0.09677363 0.0275055 0.004291062 -0.041885685
-0.13448153 -0.006441946 -0.056507517 0.0010285713 -0.14863673 0.059725948 -0.070960574 0.054778546
-0.0040568574 -0.20047976 -0.062275805 0.0004886631 0.057506576 0.0125666065 -0.1527801 -0.03295156
-0.013686451 -0.033786234 -0.016016595 -0.031203583 0.1994491 -0.102298126 -0.0060306555 -0.016742107
0.029271144 -0.039340593 -0.010456593 0.00039833115 0.0354206 -0.071043834 -0.076735444 -0.045296587
-0.034427643 -0.028227111 0.08941384 -0.06616411 -0.019415095 -0.0009011916 -0.02499291 0.028950479
-0.09140698 -0.01913991 -0.02464639 -0.053155527 -0.09593457 -0.006505947 -0.034806587 0.03354234
-0.030115705 -0.07610419 -0.088889666 0.09276844 -0.08102485 -0.0141236475 0.017168384 0.015012304
-0.0022542137 0.0728337 -0.010675119 -0.071360305 -0.024863139 -0.005620135 0.1439096 0.039785143
-0.1281163 0.034888458 0.048164107 -0.05639181 0.0028955298 -0.032924436 0.020947913 -0.07926792
-0.08452993 0.044539988 0.055072095 -0.026778726 -0.03494897 0.059805 -0.052269336 -0.014296828
-0.04363778 -0.027683806

2.weight f4 [130, 130]
00000000: c75a 953d 34df a4bd 3623 bb3c 763f 253d
00000010: fe3c dc3c 620b 863d 6fdf 2dbd b2ef 2fbc
00000020: 0a66 bcbd 33cd b2bd 86cb d5bc 961e 06bc
00000030: 8280 37bd 5dc8 6f3c a125 85bd 9c27 44bd
00000040: 896e c4bd 739e 223d 2487 91bd 47b3 4cbc
00000050: a0e2 553d 347b c43c 2bbf f93b 3381 87bd
00000060: dda9 8cbd 7a7f 443d ef6b 823d e694 c0bd
00000070: 54bf b3bc d7f0 753c df4b 85bd c6be ef3c
00000080: 9845 693d 8f4d 813b f2f4 8e3d 614a 3b3d
00000090: 0bd6 e53a 3dc5 9c3d 416f 76bd 9c8d 8d3d
000000a0: 625a 2cbd d44f fd3c 02d6 953d b75d 8cbb
000000b0: fa8b 52bd 5467 693d 501a 133a d7ea 4fbd
000000c0: d048 1dbd 808b 27bc 312d 273d 5e9f 1d3d
000000d0: ff47 1e3c eb76 72bd 1700 9a3c 335c 41bd
000000e0: 212d acbd 6898 07bd 4267 3f3d 7c8d 7e3d
000000f0: 8212 0d3d d416 1f3d 6c05 2d3d e70d babd
00000100: 9f63 773d 6dfb 8b3d a63c 1b3d f8a9 493c
00000110: 8736 97bd 30fd 673d 8926 64bc 4e9e 413d
00000120: 43fd b6bc ea4c e4bc fc84 803d 7a3a 99bc
00000130: 3c6e ac3b e4b5 a13d 7bbb b2bd 625c 23bc
00000140: e62d 893d 16c0 c53a 618a 8dbd 132b 943d
00000150: 8041 113d addf 933c 387c 9dbd 7658 573c
00000160: dbdd 37bd 6451 74bc afec 12bd 1ab4 75bd
00000170: e695 893d e29c ea3c f8b7 66bd cf61 4e3d
00000180: b4be 903d ff58 dcbc 14a4 613c 77b7 a63c
00000190: 4df5 ecba 8a00 323c 6e7c 323d 630d 1ebc
000001a0: 81eb f0bb 5596 41bd a2d9 c2bd cd98 54bc
000001b0: 85ee 703c 29d8 94bc 5683 7a3d df04 91bc
000001c0: d992 c93c 3545 363c 422f 543d 4a55 663d
000001d0: 3804 0cbd e5e1 e83a 23ae 2ebd 73cf 32bd
000001e0: 4bcf 913d 3b25 853d 91b6 b0bd 052c b93c
000001f0: c026 5b3b 0e9e 813b 19e5 7abd 8154 953d
00000200: ea25 62bd b34b a6bd fa64 dc3a 50d3 c2bd
00000210: 77fa 88bc 15a0 193d 1be2 9abc 7866 adbd
00000220: 387c c4bd 7827 f33c 3308 313d 6d1a b8bd
00000230: 5c91 093d 7896 99bd c595 75bd 8645 03bb
00000240: 25dc 923d 98dd 9d3b cee7 613d d80e b3bd
00000250: ef57 693d a594 af3b 265e 093c c688 7e3d
00000260: 53a9 4fbd 2c4c a9bd 6696 b83c a9e2 7abd
00000270: 18db 6e3d b145 cabc f864 cdbd 9a0c a5bd
00000280: a73f 803d fc31 67bd 6bfb a3bc 3163 6abd
00000290: 4349 793d 8390 593d 5850 3d3d 74b4 dd3c
000002a0: 55e7 94bd 2003 38bd bda3 4fbd f7ec 013d
000002b0: e6a7 aebd 6260 b8bc b83b 1dbc 6dd6 0ebb
000002c0: 8d73 893c 242b 833d a835 dcbc 54d2 55bd
000002d0: 59a9 d93c 4e1d 4c3d d708 083d 7546 8ebd
000002e0: b7c4 4b3d 4db5 a9ba d2cf 73bd 6199 89bd
000002f0: 6248 9cbc f2ce e83b dccb 91bd ff74 553d
00000300: d20d 283d e39e 5fbb 6b02 9f3d 57c6 b2bb
00000310: 20f9 29bd 10cf 963d 31bb 9a3b fe68 dcbc
00000320: bfbc 2bbd 422d c7bd 92d9 a13c 665c c8bd
00000330: 2763 42bd b145 ffbb 96da ab3c 6e42 c6bd
00000340: cc68 c1ba e8aa 26bd 4b96 f03c 1478 8f3c
00000350: 291b 97bc ad81 87bc c36c 653d d8c8 993c
00000360: d677 edbc f624 773c f8d7 a3bd 547f 82bc
00000370: 9d8b 983c 9563 80bc c1b0 10bd 01b7 a0bd
00000380: 6886 fcba 0fad 8abd d971 0cbd 700a 973d
00000390: 136a 78bc 8e43 153d 29e2 6d3d 6c2b 9ab9
000003a0: efd2 3f3d c8a7 803d 4b76 92bd 0272 acbd
000003b0: 7635 72bd cd7f 93bd ffce 113b e216 20bd
000003c0: 3556 dc3c cfdc 2b3d d7be 8abd f8be 893c
000003d0: 67fa 453d 987c 61bd c898 9ebd 0f5d 37bd
000003e0: 9a7c e83c 2696 f2bc c933 913d 66bd 993d
000003f0: d068 9fbd 5d10 ccbd 7fdd 1d3d 623b 91bb
0.07292705 -0.08050385 0.022843938 0.040343724 0.026884552 0.0654514 -0.04244941 -0.0107383
-0.0919915 -0.08730545 -0.026098024 -0.008186003 -0.04480029 0.014635173 -0.06501318 -0.047889337
-0.095913954 0.03970189 -0.07105854 -0.012493915 0.05221808 0.02398453 0.007621666 -0.0661644
-0.06868336 0.047973134 0.06368243 -0.094034 -0.021941818 0.015011034 -0.06508612 0.029265773
0.056951135 0.0039460133 0.06980313 0.04572523 0.0017535103 0.07654808 -0.060164694 0.069117755
-0.042078383 0.030921854 0.073162094 -0.0042836326 -0.051403023 0.056983307 0.0005611526 -0.05076107
-0.038399518 -0.0102261305 0.040814582 0.038482063 0.00966072 -0.05919544 0.018798871 -0.04720707
-0.08407045 -0.03310433 0.046729334 0.06214665 0.03444148 0.03884013 0.0422415 -0.09084683
0.06039774 0.06835065 0.037899636 0.01230859 -0.07383447 0.056637943 -0.013925203 0.04727011
-0.022337561 -0.027868707 0.06275365 -0.018704642 0.0052621644 0.07896021 -0.08727165 -0.009970756
0.066982076 0.0015087153 -0.06911159 0.07234778 0.035462856 0.018050993 -0.076897085 0.013143649
-0.044889312 -0.014911983 -0.03587025 -0.05998621 0.06718044 0.02863926 -0.05632779 0.050386246
0.07067624 -0.026897905 0.013772029 0.020351155 -0.0018078476 0.010864386 0.043575697 -0.009646746
-0.007352293 -0.04726251 -0.095141664 -0.012975884 0.014705305 -0.01816948 0.061160408 -0.017702518
0.024606155 0.011124899 0.05180288 0.05623368 -0.03418371 0.0017767517 -0.04264654 -0.04365487
0.07119616 0.06501242 -0.08628572 0.022603998 0.0033439845 0.003955609 -0.06125364 0.072915085
-0.05521194 -0.08119907 0.0016814761 -0.09512961 -0.016720993 0.03750618 -0.018906644 -0.0846681
-0.09594005 0.029681906 0.04322071 -0.08989415 0.03358589 -0.07499403 -0.059957284 -0.0020030453
0.071708955 0.004817676 0.055152707 -0.087430656 0.056968626 0.005358296 0.008384263 0.062142156
-0.05069859 -0.08266482 0.022532653 -0.061251316 0.058314413 -0.024691435 -0.10029024 -0.08059044
0.06262141 -0.056444153 -0.020017346 -0.057223503 0.060860883 0.053116333 0.0462192 0.027063586
-0.072706856 -0.044924855 -0.050693262 0.031720128 -0.08528118 -0.022506896 -0.009596758 -0.0021795288
0.016778732 0.06404713 -0.026881054 -0.052202538 0.026570009 0.049832635 0.033211555 -0.06947032
0.04974815 -0.0012947709 -0.059524365 -0.06718708 -0.019077484 0.007104748 -0.07118961 0.05211353
0.041028805 -0.0034121803 0.07764133 -0.005455773 -0.04149735 0.07363713 0.004722022 -0.026905533
-0.04192805 -0.09725429 0.019757066 -0.097832486 -0.04745784 -0.0077902903 0.020978253 -0.09680639
-0.0014755963 -0.040690333 0.02936854 0.017513312 -0.018445568 -0.016541326 0.056011926 0.018772528
-0.028987806 0.015084496 -0.08000177 -0.015929855 0.01862126 -0.015672484 -0.035324816 -0.07847405
-0.001926613 -0.067712896 -0.03428826 0.07375038 -0.015162009 0.03644138 0.05807701 -0.0002940552
0.04683202 0.06282002 -0.07151469 -0.08420183 -0.059133016 -0.072021104 0.0022248623 -0.039084323
0.026896575 0.041958626 -0.06774681 0.016814694 0.048334505 -0.055050462 -0.077439845 -0.044766482
0.028379727 -0.029612612 0.07089955 0.07506828 -0.07783663 -0.099640585 0.038541313 -0.004432128

2.bias f4 [130]
00000000: 5120 113d ce2b cbbd e74f 2cbd 2dd5 4abc
00000010: c4a6 b9bd 58b3 8bbc a3c9 9dbd cf6b 1ebd
00000020: aa71 e83b 5090 013d 6f56 99be 7df8 83bb
00000030: 9aaa 633c eb5b 8fbc cdbf 083d e90c 3bbb
00000040: 0849 68be aeb8 cbbd 5f1c 17be 7d81 923d
00000050: 91e7 173d 4371 bebd 1ca0 713d de00 6bbb
00000060: f554 043e 34e0 c4bd c429 fa3d 7dab 323d
00000070: 1aab 903d b975 673d 25f5 193d 9a27 443d
00000080: 58e4 2fbd 8877 553d 1f6d 113d 9b2f cc3b
00000090: 2d54 2e39 a69a 303d 3e71 8e3b e54f 453d
000000a0: 5218 643d 3817 26bd 3371 78be 6d53 66bc
000000b0: ad84 a5bd ad8c 433d 4bf0 d83d 6ced 24be
000000c0: 7f20 803d e91d 0bbe fda1 003d e652 563d
000000d0: 9eb4 8a3d c8ac 20bd 4872 a4bc c5b9 743e
000000e0: 4fe5 b63d 6c26 5d3d ed09 67bc 80a8 f5bc
000000f0: 0f03 4c3d 0a34 97bd 6dc2 223d 6c7d 5bbd
00000100: e81b bbbc 4d0f 57bd 78c9 16bd dcac 7bbc
00000110: c81c b6bd 1048 1dbd e545 3a3d c206 86bd
00000120: 403b 0cbd fa18 f83e ace0 d53c 98f8 803d
00000130: 1fd1 873c 37d2 d8bd 4745 473d a15a bcbd
00000140: 4ff7 3cbd b356 b73d 9f3f cb3d 94ee c4bb
00000150: 7525 93bd 22ee c93c af15 9e3b bf93 363d
00000160: bbe8 e23e 0c29 56bb 8017 42be 308a 923c
00000170: d8e2 6ebd 4331 52bd fe6e 583e 3656 d63c
00000180: 2e98 77bd 8810 693e 2086 d03d 8dea b8be
00000190: c6c5 20bd bdcc 0ebb b914 793e 35c1 fe3c
000001a0: 1b7a d1bd f5b6 cd3b 4733 0c3c 3e7a c6bb
000001b0: f355 5f3e d3bd 10be e003 50bd 6fde 4f3d
000001c0: fe96 9b3b 8610 afbd 44b6 223e b340 13be
000001d0: 8ce9 533d 59d9 663d b4c6 223d 2863 91bd
000001e0: c380 e0bb aac7 f23e 635f 433c e8e3 4cbd
000001f0: 4fe6 4bbd 9fa0 633c eac2 1abe 0144 293d
00000200: 7009 c6bc 1b37 23bd
0.03543121 -0.099204645 -0.04206839 -0.012379927 -0.09065011 -0.017053291 -0.07704475 -0.038677033
0.007093628 0.031631768 -0.29948756 -0.004027425 0.013895655 -0.017499885 0.03338604 -0.002854163
-0.22684109 -0.09947334 -0.14756916 0.07153604 0.037086073 -0.09298947 0.058990583 -0.0035858671
0.12923034 -0.09613076 0.122149974 0.043620575 0.07063885 0.056508753 0.037587304 0.04788933
-0.042942375 0.052115947 0.035504457 0.006231261 0.00016625291 0.043116234 0.0043469956 0.048171896
0.055687256 -0.040549487 -0.24261932 -0.014057976 -0.080819465 0.04774158 0.10592707 -0.16106194
0.06256198 -0.13585629 0.031404484 0.05232515 0.06772731 -0.039227277 -0.020074025 0.2389899
0.08930456 0.05399172 -0.014101488 -0.029987574 0.049807604 -0.073829725 0.0397362 -0.05358641
-0.022840455 -0.052504826 -0.03681323 -0.015361037 -0.08892208 -0.038398802 0.045476813 -0.06544258
-0.034236193 0.48456556 0.026108108 0.062974155 0.016579209 -0.1058697 0.048650052 -0.091969736
-0.04613429 0.089520834 0.09924244 -0.006009886 -0.07184879 0.024649683 0.004824362 0.044574495
0.44318184 -0.0032678274 -0.18954277 0.017888159 -0.058321804 -0.05131651 0.2113609 0.026164155
-0.060447864 0.22760212 0.10181832 -0.36116448 -0.03925111 -0.0021789514 0.24324311 0.031097988
-0.10228368 0.0062779137 0.008557147 -0.006057053 0.21810131 -0.14134912 -0.050784945 0.05074924
0.0047482243 -0.085480735 0.15889841 -0.1438015 0.0517364 0.056359623 0.03974028 -0.07098991
-0.006851287 0.47417957 0.011924597 -0.050022036 -0.049780186 0.0138932755 -0.15113416 0.04132462
-0.024174422 -0.039847475

4.weight f4 [130, 130]
00000000: 453a 61bd eeac 00bd ba76 963d 06aa cbbd
00000010: 881a 92ba 2753 973d 79c2 ae3d 9822 cbbc
00000020: c063 113d e067 e53b d28a 1dbd adb3 0cbd
00000030: 5b2b 7fbd cadb cd3c 3fb2 4c3c 95f8 21bd
00000040: fa6d a23b 38dd cb3c 5d3e bebc db12 a3bd
00000050: 0a28 193d da6e 253c 6cd4 2bbd 02af f93c
00000060: fd56 823d d1d4 a33d 4a6b 8f3c c62a a63d
00000070: a82c 71bd 7281 91bc 48a8 87bd 6a87 8c3d
00000080: c721 ffba a5cf 4c3d 6074 2b3d c420 3bbd
00000090: 63d8 73bd 7044 b5bc 8249 85bd 02ea 84bd
000000a0: a1a2 1cbd a1f8 94bd 5ca2 2a3d 0cb8 1b3d
000000b0: d5f9 733d b5ae 0ebd ed70 b1bd 25bd a0bc
000000c0: afc8 f03c 008c 7f3d df72 37bd c90c 90bd
000000d0: 40bb f7bc 67e2 a4bd 409f bcbd d0b5 febc
000000e0: 5a7b afbc b93e 3f3d 3c2d 93bd 7188 ea3b
000000f0: 4d09 61b8 db83 973a 8556 bbbc db4c edbb
00000100: 1b4e edbc 4b1a 45bd a4da 813d d163 af3b
00000110: 3c4b 5d3d 10da 86bd 863d eabc 848f 473c
00000120: 1e13 103d 82c8 6fbd 3f69 18bd 9773 06bd
00000130: 9d03 8abd 5979 20bd a033 3bbd 3d63 a93d
00000140: 4371 3dbd 1374 04bd e887 0cb9 efb0 75bd
00000150: 34e8 62bd abcc 943d 104c d8bc 2c44 38bc
00000160: 7b0c c63d e06a 66bd fe48 89bd bc96 893d
00000170: 2a4f 23bb b549 1f3c e364 a83c d38f 2cbd
00000180: 7bf3 903d 953d 9cbc 53fc 9cbc cb95 8dbd
00000190: ca7f dbbc 2746 05bd 6456 403d a830 b0bd
000001a0: ba0c e3ba 80e6 543d 5e26 96bd 7fc9 8ebd
000001b0: f459 913d e518 13bd a090 db3c 4449 d8bc
000001c0: 3c60 debc d503 5f3d 79ad 2b3d c6bc 383c
000001d0: 8c76 08bc aabd 23bc 316f 66bd 21cd d5bc
000001e0: b899 febc b65e 22bd 139f bfbd 8f8e a83d
000001f0: 38f0 49bd 84ad ce3c 66a5 263c 4b3b 2f3d
00000200: 1958 133d 8c89 493c f638 cd3b 2beb 9f3d
00000210: 0a63 4f3b 5293 743d d702 153b b09d 8bbc
00000220: d3e1 e13d ce0a 70bd 578a 173d ec6e 66bd
00000230: dfbe 1d3d 69a8 4ebd 8b08 a33d 6c82 9a3d
00000240: 2b3c c53d 885e 503d 6e2e 79bc daa6 4c3d
00000250: 416a aebc d139 9bbd 47ec 5bbd 44ce 753d
00000260: 6a40 8d3d d12b c5bc 5e23 80ba 0b7b 37bc
00000270: 4c6b d73b cd62 45bd b137 36bd d2eb 95bc
00000280: 1327 adbd 8fd5 003d 894e 5dbd 1504 e9bc
00000290: 7ecd 51bd 155f 89bd c846 a93c 10b9 72bd
000002a0: fdb3 763d 4f7d 8cbd 0b53 fdbc 1701 5d3d
000002b0: cecb 9fbd 9b6d 91bd 5bda a43d 3dfe a13d
000002c0: 48fc 8ebd 462b 733d 8d54 71bd a637 49bc
000002d0: 2762 58bc b090 73bc 2bc2 b03d 8f93 063b
000002e0: e503 53bd 1132 9fbc 468b a6bd 705d 2f3d
000002f0: 3c08 333d 4156 42bd 642c 07bb 8d8d 81bd
00000300: fca2 933d bcf4 87bd 0244 0bbd b74f bbbc
00000310: dcde bcbc b93e bd3d ad85 35bd 419b 203d
00000320: 2d59 563c 8fd1 36bd 066a dd3c c84e 45ba
00000330: 0236 45bd 28e6 88bd 29ec d7bc eb9e d03b
00000340: 086e 6ebd 7185 6cbd 8992 2b3d bb1b 573d
00000350: 4938 353d 4fa6 a9bd 1fd7 803d 01a0 3a3d
00000360: fc35 dbb9 89e7 01bd 2263 803d 1792 d63c
00000370: 2a5c a5bd 8288 963d 399f a83d 64e6 e43b
00000380: 00e6 dcbc 5b4d 7d3d 67b5 babc 35af 9d3d
00000390: fe68 c93c fa78 8ebd 01c3 b33d 857c a3bc
000003a0: d7a6 773d b68a ddbc fbad d6bc aac9 083d
000003b0: e1c7 863d b13a 833c 47a8 59bc e7d5 843c
000003c0: ed29 13bd 01a6 06bd 7cdf 053d e4fe 353d
000003d0: 5d25 52bd b5b3 083d 9b64 773c 90c8 27bd
000003e0: 874b d3bc fe28 0e3d d4ac 3ebd 9127 f03d
000003f0: 3e61 4fbd 2cfe 8c3d 6f6f 4dbd 0258 143c
-0.05498721 -0.03141492 0.07346864 -0.09944539 -0.0011146823 0.07388907 0.085331865 -0.024796769
0.03549552 0.0070009083 -0.038462467 -0.03435104 -0.062297206 0.025129218 0.012493669 -0.039543707
0.004956958 0.024885759 -0.023223097 -0.07962581 0.0373917 0.01009723 -0.04195063 0.030478958
0.06364248 0.07999576 0.017507214 0.08113627 -0.05888048 -0.01776192 -0.06623894 0.06861766
-0.0019465022 0.050002713 0.04185903 -0.045685545 -0.059532534 -0.02212736 -0.06508161 -0.06489946
-0.038241033 -0.07273985 0.041658744 0.038017318 0.05956443 -0.034834582 -0.08664117 -0.019621441
0.029392568 0.062389374 -0.044787284 -0.070336886 -0.030240655 -0.08050995 -0.09210062 -0.031092554
-0.021421123 0.046690676 -0.07186362 0.0071573784 -5.3652842e-05 0.0011559682 -0.022868404 -0.007241828
-0.028967908 -0.048120778 0.063405305 0.005352475 0.054026827 -0.06584561 -0.02859379 0.012180213
0.03517448 -0.05854083 -0.037209745 -0.03282508 -0.067389704 -0.039178226 -0.04570353 0.08270881
-0.046250593 -0.03233726 -0.0001340207 -0.05998319 -0.055397227 0.072656 -0.026403457 -0.011246722
0.09670349 -0.056254268 -0.06703375 0.067182034 -0.0024919012 0.009722163 0.020555919 -0.04212935
0.0707769 -0.019072333 -0.019163286 -0.06913336 -0.026794333 -0.032537606 0.04695739 -0.086030304
-0.0017322518 0.051977634 -0.07331537 -0.06972026 0.07097235 -0.035912413 0.026802361 -0.026402123
-0.027145498 0.054447014 0.041913483 0.011275476 -0.008329045 -0.00999395 -0.056258384 -0.02609879
-0.031079158 -0.039641105 -0.09356513 0.08230316 -0.049301356 0.025229223 0.01017127 0.042781156
0.03597269 0.01230086 0.006262894 0.078085266 0.0031644725 0.059710808 0.0022737288 -0.017042965
0.11029401 -0.058604054 0.036997166 -0.056258127 0.038512107 -0.050453577 0.07960614 0.07544407
0.09630617 0.050871402 -0.015208824 0.04996381 -0.0212909 -0.07579387 -0.05369213 0.060011163
0.06897052 -0.024068745 -0.0009776165 -0.011198769 0.00657407 -0.048189927 -0.044486705 -0.018300924
-0.084547184 0.031453665 -0.054029975 -0.02844433 -0.051221363 -0.067075886 0.020663634 -0.05925852
0.060230244 -0.06859838 -0.030923387 0.053956117 -0.078025445 -0.07100984 0.080494605 0.0790982
-0.069817126 0.05936744 -0.058918525 -0.012281334 -0.013206995 -0.014866039 0.086307846 0.002053473
-0.051517386 -0.019433053 -0.08132033 0.04281372 0.043709025 -0.04744554 -0.0020625824 -0.06325827
0.07208821 -0.06638476 -0.034000404 -0.02286516 -0.023055486 0.09240479 -0.044316936 0.03921056
0.013082785 -0.044633444 0.027028095 -0.0007526693 -0.04814721 -0.06684524 -0.026357727 0.0063666007
-0.058210403 -0.057744447 0.041887794 0.05251668 0.04424313 -0.08283674 0.06291031 0.045562748
-0.00041811157 -0.03171495 0.06268908 0.026192708 -0.080742195 0.073502555 0.08233494 0.0069854725
-0.026965141 0.06184135 -0.022791578 0.07699434 0.024586197 -0.06956668 0.087774284 -0.019956836
0.060461845 -0.027043682 -0.026206007 0.033395447 0.065810926 0.016019197 -0.013284749 0.016215278
-0.035928655 -0.032873157 0.032683834 0.044432536 -0.051305164 0.033374507 0.01509967 -0.040962756
-0.02579285 0.034707062 -0.04655154 0.11726297 -0.050629847 0.06884417 -0.0501551 0.009054186

4.bias f4 [130]
00000000: c8b6 4c3d d218 f0ba e15a 41bc 5e10 abbd
00000010: 0419 a3bd 7eeb 923d bc83 c1bd 243d 5bbd
00000020: 5011 c1be e035 86bb cdb7 04bd 6ba2 893d
00000030: bff0 0f3d 2640 a5bd 1e5a c0bd 3602 823d
00000040: 34b5 8abd cec4 bbbc 89f8 043b 3528 103b
00000050: 0502 933c 63aa 3ebd 575a c23b 0a93 d7bd
00000060: 58fc 5c3d fe31 303f 5ca6 993e 7516 bdbb
00000070: 4492 7bbc df30 b9bb 3bb7 c43c a5a7 563e
00000080: 04ce a0bd b104 233d e42e 873c 25fd 663d
00000090: e2e9 45bc 76e6 9fbd 33d6 343d 8f7b 1a3d
000000a0: 8b79 ba3c c20a b43c 1d16 a7bd 718d 8a3d
000000b0: 3d28 99bd ca2e 9e3d 877b 503d 4c60 8fbd
000000c0: 34c4 183d 2082 e8bd d029 9abd 89da 9f3d
000000d0: 7f82 a6bd 9827 20bc 92f2 373c b75f c8bd
000000e0: ced4 393d a386 47bd ed3d e8bc c14c 9d3d
000000f0: a0de 583d 5b25 0c3d 97b1 0c3d e7c3 e0bc
00000100: 2300 cbbd 98c6 d2bc 310b 4d3d e8b2 9dbc
00000110: bb9b 9cbc 3c73 a8bd cf0a 103e 57ec 96bd
00000120: 6cf3 713d c309 823d 1a16 07bd 5216 abbd
00000130: ab05 703e 92c5 d2bc cbb4 74bd 7d8a 82bd
00000140: a757 f53d 8dd0 f43c ab2d 8fbd b4bf 8d3d
00000150: d5cb 423b edec 8b3d d026 83bd 273c 153d
00000160: 8b7b 41bd 5e78 77bd 689a 44bd 724e 9fbd
00000170: 4e79 8a3d ab94 d03c 6a44 e2bc ae27 a1bd
00000180: 6fbb f93b 46b1 83bd e7ac afbd 57d1 8d3d
00000190: 6384 9ebd c848 95bd a1e0 d2bb bfcb bebd
000001a0: 55e2 00bd 6a54 4cbc a131 483d 4ddf 6e3c
000001b0: 92aa eabc ad93 70bc 001f 233b 97da 033c
000001c0: 3832 163c eecc 6cbc 46b5 97bd 98a7 a6bd
000001d0: 3b04 8fbd d79a 3abe 411d 27bd e7e1 303d
000001e0: dc5a 74bd eaee 873e f8a6 c9bd 9b4a d0bd
000001f0: 1028 df3c 5950 673e 8b85 a4bd 729b 02ba
00000200: 3e03 df3c 8ee9 733e
0.049979 -0.0018317944 -0.011801452 -0.08352731 -0.07963756 0.07173823 -0.094489545 -0.053525105
-0.3770852 -0.004095778 -0.03240185 0.06720432 0.035141703 -0.08068876 -0.093921885 0.06348078
-0.06772843 -0.022920992 0.002028974 0.0021996622 0.017945299 -0.046549212 0.0059311795 -0.10526092
0.05395159 0.6882628 0.30009735 -0.0057704994 -0.015354697 -0.005651578 0.024013152 0.20962389
-0.07851794 0.039799396 0.016501851 0.05639376 -0.012079688 -0.07807629 0.04414959 0.03771549
0.022763034 0.021977786 -0.08158515 0.06765259 -0.07478378 0.07723768 0.050899055 -0.07000789
0.03729649 -0.113529444 -0.07527506 0.07805354 -0.08130359 -0.009775065 0.011227267 -0.09783881
0.045368962 -0.048712384 -0.028349841 0.07680655 0.052946687 0.034215312 0.03434905 -0.027437164
-0.099121355 -0.025729463 0.0500595 -0.019250348 -0.019117227 -0.08225104 0.14066623 -0.07369297
0.059070036 0.06349518 -0.032980062 -0.08353867 0.23439662 -0.025728974 -0.05974273 -0.06374071
0.11979609 0.029884601 -0.06991132 0.0692133 0.0029723544 0.068322994 -0.06403887 0.03643432
-0.04723696 -0.060417525 -0.047998816 -0.07778634 0.06761418 0.025461515 -0.027620513 -0.078688964
0.007621221 -0.064302966 -0.085779004 0.06924694 -0.077400945 -0.072892725 -0.0064354693 -0.09316205
-0.031465847 -0.012471298 0.048875455 0.014579606 -0.028645787 -0.014683646 0.0024890304 0.008047721
0.0091672465 -0.014453156 -0.07407622 -0.08137435 -0.06983229 -0.18223129 -0.040799383 0.043184187
-0.059656963 0.26549464 -0.098463 -0.1017048 0.027240783 0.22589244 -0.08033284 -0.00049822696
0.027223226 0.23819563

6.weight f4 [157, 130]
00000000: 8310 eb3c 59b5 333d 5dbe 1f3c c474 883d
00000010: b7ca 61bc 6ab3 05bd e27d 6bbc 2769 b83c
00000020: fb37 06be 7124 a93d f89e 623d 27d3 5abd
00000030: 7107 8abd bfd9 b1bb 7950 43bd 47d3 783c
00000040: 9801 39bd 5ad3 74bd 5159 9c3d 49ce b03d
00000050: f162 6e3d f17a 18bd bc3d 203d 189d 7a3d
00000060: ff65 5ebd 7bfa a2bc 8060 9b3d 62f8 a03d
00000070: 30e4 123d 431d 8cbc 6cac cabb 8aff 84bd
00000080: 25aa 72bd 3782 75bd fa8e b6bc a871 9abd
00000090: 484e c8bd ba86 e43c f473 1f3d e11e 063c
000000a0: 8aca a9bd 013d 6f3d c26c dc3b c39f ecbc
000000b0: c33c 343d 13fc 583c 189a 25bd a879 003d
000000c0: b18f 6bbd b6c2 6d3d d9d3 663d 5c47 87bd
000000d0: e969 ad3d a558 a4bc 05bc b4bd fc79 8bbc
000000e0: 3701 8e3d d816 173d fa83 b93b ebc8 593d
000000f0: 62d5 c5bc f921 75bd 06b4 4c3d acfa 043d
00000100: 0d3a 6abd e470 20bd 5283 97bd 754c 5e3d
00000110: d1cb c0bc 4ff1 b7bd 866d a13c 6e41 45bc
00000120: 65d5 42bc 93f7 0ebd 5228 3dbc e5a8 f3bc
00000130: 285b 0abc 29d0 2c3d bc4f fa3c 0ae3 92bd
00000140: a0f9 abbc 45da 273d 1a18 5cbd 6be7 903d
00000150: 1b1e 723d 020c 013c 5dec a2bd aab6 78bd
00000160: c407 45bd 5e5d aabd 4861 793d 5eab fabc
00000170: 8ee8 3fbd 57c3 2bbb 0ba9 183d 8aba 593c
00000180: 2df1 fcbd 45ff 9cbc 77b8 b3bc 7720 d63b
00000190: 6095 7e3d 5d32 8bbb 315a 57bd f967 22bd
000001a0: 4595 c43c d2e4 503d da05 673d 4b9b d23a
000001b0: c8ec 8abd 77bf 853d 6c79 883d 5d57 55bc
000001c0: 2a78 383c e6b1 f0bb 3db6 af3c 6d8c 80bc
000001d0: b931 8e3d a082 ba3d 008a dd3c 3872 90bc
000001e0: 02af 05bd 0ece afbd 0518 2abd 4d9c a23c
000001f0: bee0 583d 69f5 adbd 2c2b 783d 53f6 0abd
00000200: c816 743d 16c0 5ebd 33da 503d 2e1f 9ebc
00000210: fe7a a63c 7d60 923d 92b3 113d 5bb9 993d
00000220: 68e7 753c d871 e8bc fed9 843c f516 223c
00000230: 532a 12bc bf87 813d 3e1a 9b3c e4fd 7abd
00000240: 8494 6abc 6425 82bd c32d 2ebd fa99 bf3d
00000250: b0a8 3f3d c4fd 363c c376 51bb 58a7 86bd
00000260: 7864 013d b9ad a3bd a359 e13c 0d16 08be
00000270: df27 03bd 7216 16bd ecac edbc ba30 46bd
00000280: 5a47 a93d da0b eaba 407c 783d 0406 823c
00000290: 716a 013d 519c 22bc b069 1f3c 072f 8d3d
000002a0: b877 903d 33ea 94bd 5514 423c 3bfe ba3c
000002b0: fb98 6fbd 5fc2 e73c dca8 02bd 4232 613d
000002c0: c1ed a9bc b7eb 94bd 2a1d 4ebc e36d c63c
000002d0: 7ab1 b73d 1018 14bd 8ccd 3abd 9d23 253d
000002e0: 352f 253d 6690 a8bd 8db6 c23c 95ce 24bc
000002f0: b188 4e3c 6d6c 9bbd 8d96 5a3c 085b 463d
00000300: 263b 473d ad7c f43c 563b 243c fe7e 893c
00000310: 01b6 913d 2221 47bd 2f72 edbc 6b05 3e3d
00000320: 6bc9 7d3b 68e3 9dbd 9347 47bd b1d1 0bbd
00000330: 957f efbc 83e4 9a3c a1af 3fbe f656 4fbd
00000340: b330 b43d 1431 f43c 59d4 72bb 71ba da3c
00000350: 5e1a 113d 4df8 7b3d ed82 7cbd b5d1 7c3d
00000360: 1ecc 23bd 65ad a3bc 6b8e ab3c cdcf 8bbd
00000370: af43 0ebd ff8e 363d 3881 5ebc 2d17 7c3c
00000380: 1326 493c ea97 933d d3fe 4c3d 5a9f 39bd
00000390: 8510 073c 72ab 8b3d 467e 563d 4a57 973d
000003a0: dd16 633d fd4f 90bb 760b 773d c74c 79bd
000003b0: 8002 a1bd f4cf 08bc d9a5 283d f88b 0c3d
000003c0: dc9f 853c 242e 193c fa22 95bd 7dec 96bd
000003d0: 68b6 9d3d 5996 8cbc 995e 4ebd 5ede 2abc
000003e0: 330a 3b3a d6f4 613d 5ff8 c7bc 611c 89bd
000003f0: 44f7 2fbd 4873 e5bc 69d0 c73b 157b a6bd
0.028694397 0.04387412 0.009749976 0.06662896 -0.013781241 -0.032641806 -0.0143732745 0.022511078
-0.13107292 0.08258904 0.055327386 -0.053424027 -0.067397006 -0.0054275687 -0.047684167 0.015187091
-0.045167536 -0.059771873 0.07634223 0.08633096 0.058199827 -0.03722662 0.039121374 0.061184973
-0.05429649 -0.019894829 0.07586765 0.07859875 0.035862148 -0.017103797 -0.006185105 -0.06494053
-0.059244294 -0.059938636 -0.022284973 -0.075412095 -0.09780556 0.027896274 0.03892894 0.008186073
-0.082905844 0.058407787 0.006726832 -0.028884774 0.04400326 0.013243693 -0.04043016 0.03136602
-0.05751008 0.05804702 0.056354377 -0.066054076 0.084674664 -0.0200618 -0.088249244 -0.01702594
0.069338255 0.03688702 0.005661485 0.053170126 -0.0241496 -0.059846852 0.04997637 0.03246562
-0.057184268 -0.03917016 -0.07398094 0.054272134 -0.023534687 -0.08981573 0.019705545 -0.012039525
-0.0118916975 -0.034904074 -0.011545258 -0.029743621 -0.008444585 0.042190704 0.030555598 -0.071722105
-0.020993054 0.040979642 -0.053733923 0.070753895 0.059110742 0.007876398 -0.07955239 -0.060721077
-0.04810311 -0.0831859 0.06088379 -0.030599292 -0.04685264 -0.002620896 0.037270587 0.013289103
-0.12350688 -0.01916469 -0.021938546 0.006534632 0.062154174 -0.004247947 -0.052576248 -0.039649937
0.023996959 0.05099947 0.056402065 0.001606801 -0.06783444 0.0653066 0.066637844 -0.013021317
0.011259118 -0.007345426 0.021449203 -0.01569196 0.069430776 0.09106946 0.027043343 -0.017632589
-0.032637604 -0.08584224 -0.041526813 0.01984992 0.052948706 -0.08494074 0.060588047 -0.03392632
0.05959204 -0.054382406 0.05098934 -0.019301977 0.02032232 0.0714731 0.035571642 0.07506057
0.015008785 -0.028374597 0.016217228 0.009893169 -0.008921224 0.0632472 0.018933412 -0.061277285
-0.014317635 -0.06354788 -0.04252411 0.093555406 0.046791732 0.011168901 -0.0031961657 -0.06574887
0.031589955 -0.07992119 0.027508562 -0.13289662 -0.032020446 -0.0366425 -0.02901312 -0.048386313
0.08265562 -0.0017856315 0.06066537 0.01587201 0.03159565 -0.009924964 0.009729788 0.068937354
0.070540845 -0.072712325 0.011845668 0.022826305 -0.058495503 0.028290926 -0.031899318 0.05497957
-0.020743253 -0.072715215 -0.012580195 0.02422232 0.08969398 -0.03615576 -0.04560618 0.040317167
0.040328223 -0.08230667 0.023768688 -0.010059019 0.012605832 -0.0758904 0.013341558 0.048426658
0.048640393 0.029844606 0.010023912 0.016784187 0.071147926 -0.048615582 -0.028985111 0.046391886
0.003872479 -0.0770939 -0.048652243 -0.034135524 -0.02923564 0.018907791 -0.18719341 -0.05062004
0.08798351 0.029808559 -0.0037052839 0.02670023 0.035425536 0.061516095 -0.061648298 0.06172343
-0.039989583 -0.019980142 0.020941934 -0.06826744 -0.034732517 0.044569965 -0.013580613 0.015386385
0.012277144 0.0720671 0.050047707 -0.045317985 0.008243685 0.0681981 0.052366517 0.07389696
0.055441726 -0.0044040666 0.060313664 -0.060864236 -0.07861805 -0.008350361 0.04117379 0.034313172
0.016311578 0.00934938 -0.07282062 -0.07369325 0.07700807 -0.017161535 -0.050383184 -0.010428993
0.00071350037 0.055165134 -0.024410425 -0.06694866 -0.04296042 -0.028009072 0.0060978425 -0.08128945

6.bias f4 [157]
00000000: 5eb2 663e 6601 64bd 6127 6cbe e514 2dbe
00000010: d261 0bbf 787c 4c3e 9586 babe 9b87 c1ba
00000020: 290f 233f c01c ce3c 8fa6 4abe 5492 413e
00000030: f58c 97be f682 e63d 2e68 5e3e 99a8 3d3d
00000040: 9b5d abbe 4360 413e e505 083e 4283 e6be
00000050: b94c 39be ed85 1abe 2238 153d 559a 4b3e
00000060: fc6b 2dbe bd0f a63e 85d3 d03b f6b9 2a3d
00000070: f494 183d 6587 153e e7cf 85be 01ec 7fbd
00000080: a9b9 2dbe 60ed 9dbe 1209 d53d 5d29 da3b
00000090: 3d57 a5be eaa9 c3be 1123 9bbe 8ea8 9dbe
000000a0: e509 f03d 772c 2cbc 10fd ca3d cd0d 2f3e
000000b0: 747b 3d3d 92f3 b33e e47e afbe b2c5 0d3f
000000c0: 1170 953e c2fd 0f3f 7b4d 8b3c f428 dc3e
000000d0: 7440 3fbe dfe3 323c 5b0b 35bf d5f5 983e
000000e0: 2f52 e0be f131 19be d9b3 d43e 1461 033e
000000f0: 694c 3bbd 227b e0bd f6cd b13e 61ca 33be
00000100: 2802 d23e 92d8 093d ecdf 6ebd 7b02 0bbe
00000110: e4e9 2cbe 8b6b bf3e 6c52 c3bd cf01 193e
00000120: 4de8 19bd 3191 833e 3e67 38be 4ae9 ac3e
00000130: 4125 cbbe a16e d83d e552 95be a0ed a23e
00000140: 3bd3 2b3f a731 893e 85fa 273e c917 1abf
00000150: 6af3 80be 75e4 073b b2c6 a6bc 450c 053e
00000160: 6290 efbd 0c65 7abb 02c2 193e 3c36 26be
00000170: 391a 7e3d 79b8 ed3d 55ea 8cbd 5f8c cbbe
00000180: 938b 69bd 70e1 0b3e e452 f2bd 31e1 253d
00000190: 2396 41be a82e 77bd 95d3 d73e 15ab d9be
000001a0: 62f8 d7bd 48cc 003d e256 f2be a693 dcbd
000001b0: 8d18 9fbd 9ea3 ecbe 33e6 533e 7018 bf3d
000001c0: 224c 02be 05a0 bdbe 1da4 cb3e acb2 0abe
000001d0: c46e f43b 56bc dcbe 6615 fc3c 99e4 7d3d
000001e0: a6ed b43e 46d8 fabe e123 2fbd e9ba d73d
000001f0: 2f3a a5be 76cc 28be 734f 433e d276 283e
00000200: 7fbe 253d 0480 673e 75ff f7bb 4ffb 913e
00000210: 6825 073e dae5 18be dfa1 21be 73e6 85be
00000220: 348e 93be 8255 9a3e 1522 33be f098 bb3e
00000230: a33b ff3e 7a49 973d 850b 603e d356 92bd
00000240: 6298 463e c75f 2a3e d89c 813c 9743 5dbe
00000250: af11 1c3e 86b7 39be 3d2c f43e c883 fe3d
00000260: c24c 99be 3f7f 04bf 7eb4 273e b715 6e3d
00000270: 4ccf 9abd
0.22528979 -0.055665396 -0.23061897 -0.16902502 -0.54446137 0.19969356 -0.36430803 -0.0014765145
0.6369501 0.025160193 -0.197901 0.18903476 -0.2959973 0.112554476 0.21719429 0.046303365
-0.33469853 0.18884377 0.13283499 -0.45022017 -0.18095674 -0.15090151 0.036430486 0.19883092
-0.16935724 0.32433882 0.0063728713 0.041681252 0.037251428 0.1460243 -0.2613518 -0.06248093
-0.16965355 -0.30845165 0.10402121 0.006657763 -0.3229312 -0.38215572 -0.3030019 -0.3079266
0.11720637 -0.010508648 0.09911549 0.17095108 0.046260312 0.35146767 -0.34276497 0.55379784
0.29187062 0.5624658 0.017004719 0.42999995 -0.1867693 0.0109185865 -0.7072045 0.29875055
-0.438127 -0.14960457 0.41543463 0.12830001 -0.045727167 -0.10960986 0.34727448 -0.1755767
0.4101727 0.033653803 -0.058319017 -0.13575165 -0.16886097 0.37386736 -0.09537205 0.14942096
-0.037575055 0.2569671 -0.18008134 0.33771735 -0.3967686 0.10567976 -0.29164806 0.31821918
0.6711919 0.26795694 0.1640416 -0.60192543 -0.2518571 0.0020735536 -0.020358417 0.12992962
-0.11697461 -0.0038207201 0.15015414 -0.16231626 0.062036727 0.11607451 -0.06880633 -0.39755532
-0.057017874 0.13660216 -0.118322164 0.040497962 -0.18904929 -0.06034723 0.42153612 -0.42513338
-0.10545422 0.031444818 -0.4733191 -0.10770349 -0.077683546 -0.4621858 0.20693283 0.09330833
-0.12724355 -0.37036148 0.39773646 -0.1354472 0.0074594934 -0.4311244 0.030771922 0.061985586
0.3533756 -0.4899313 -0.042758826 0.10533697 -0.32270953 -0.16484246 0.19073276 0.16451576
0.040464874 0.22607428 -0.0075682946 0.28512046 0.13197863 -0.14931431 -0.15784405 -0.2615238
-0.2881943 0.30143362 -0.1749347 0.3664012 0.49850187 0.073870614 0.21879394 -0.07145467
0.19394067 0.16638099 0.01582186 -0.21607815 0.15241121 -0.18136415 0.4769 0.12427479
-0.29941374 -0.5175666 0.16377446 0.058126178 -0.0755907
