pav_spkid_pytorch/lp_model_hsize_130_lr000125/e11_weights.ckpt (torch_old, 318518 bytes, 8 tensors)

0.weight f4 [130, 189]
00000000: a6c9 093c 32b0 c2be a0aa 523f c59e 4fbd
00000010: 3b1c b43e 0810 0fbe d987 c63e f44d 21bd
00000020: 55c8 af3f fa7c 3a3b 318a 82be 90a8 253f
00000030: b86c 1a3e 3724 523e 6053 e73a b07f 243e
00000040: 7b6e 153d 4ebf 833f 7ff4 503c 09b7 bdbe
00000050: 2064 183f 0d94 703e 512f ea3d c870 c93d
00000060: 3fba 823e 29a6 b23d 84c7 713f 3295 be3c
00000070: df49 dcbe 2b66 103f dda6 913d eebb 133e
00000080: e345 72bc 5417 803e b42f 383d 3f5d 7d3f
00000090: 7381 203c f3cb 01bf 1d2b 0b3f 84ca a53d
000000a0: 4605 333e 884d 28be 0844 513e 0187 f13d
000000b0: 3539 703f 83f1 a83c 1d7b 01bf 5eaa f33e
000000c0: cdcb 75bd c8d6 af3d 1e9d 04be 971d f7bd
000000d0: 9a41 f53d 5675 393f 9df0 9fbc 9a94 17bf
000000e0: 7761 a13e 0cff 283e 3139 26be 3e14 cf39
000000f0: 1bf4 febe b495 143f 2d7e ad3e e8a7 07bf
00000100: b157 0abf 6939 583e 18d9 e03e 4ff8 19bf
00000110: 3419 7c3e c3da 4ebf d084 713f d733 4c3e
00000120: c8d3 0abf 658e b0be ec26 a83d bff6 273f
00000130: fece 33bf 27d6 043f 8902 66bf efa0 843f
00000140: 6fbd 9f3d 0003 303c 7909 82be 75d2 873e
00000150: f0dc 123f 2059 a0be 4163 dc3e 9d17 13bf
00000160: 012e 1e3f 1255 5d3e a8cc 303b c7c3 0fbe
00000170: 27d2 d53e 3019 b43e a9f4 75bd a9b0 8a3e
00000180: 16bd 81be aeeb 4c3e e197 cc3e 39fd ef3b
00000190: c618 43be 5607 0e3f 7b52 473e 2ed2 653d
000001a0: 6e36 813d 50e3 1bbe bc03 52be d939 d23e
000001b0: ff39 2abb 8445 26be 462c 113f d0b8 143e
000001c0: 74ac c33d 0687 de3b 650d efba 7926 b0be
000001d0: 03ef fa3e 553f 573b e8f3 4bbe 05df 0c3f
000001e0: e86a 293e 3bd8 0f3e 5ad2 203e cd16 893e
000001f0: 5d61 7cbe f516 453f 3a85 58b9 67e4 28be
00000200: aa45 073f 9e9b d43d af11 0c3e 9769 183e
00000210: 3cc6 a23e 0948 56be 8f90 663f b1eb cf3a
00000220: 1a83 45be ac21 c93e 0594 283e ab4e b23c
00000230: 6543 7f3e 5122 9c3e e8a6 f8bc 1523 503f
00000240: 4184 c339 8dd7 eebd 2e9d b23e bc73 d93d
00000250: 9f6f 193c 9566 8e3e e2ac 653e f983 513d
00000260: 078d 5d3f b2ee 013b 5f5d 60be 420b 9b3e
00000270: f5cc f83d 20b4 1abd 85e0 7a3e 1dec 783e
00000280: f9f5 6b3d 30c2 563f ecef cfba db76 45be
00000290: 9664 b13e ea6c a03d 4dc5 8ebc d33e 903e
000002a0: be5b b63e 4e2d 053e 9e09 803f 7cf1 52bb
000002b0: 16e0 1bbe f084 e83e 6278 ad3d e736 183c
000002c0: 0217 473e 40b7 973e dfe6 273e 499e 913f
000002d0: af50 9d3b 967b 37be aabb 023f e31b afbc
000002e0: 75ef 3f3e 12e7 4d3e f716 ad3e 4493 573d
000002f0: 1e1d c03f 8d97 2bbc 9cef 543f 287f f2be
00000300: 3913 303d 3a91 dbbd f1e8 603f 1e00 10bf
00000310: e704 9ebe 71f1 23bf 6fb2 80bb bcbe 323f
00000320: c161 c4be c2ea 8cbd d521 29be c9d6 263f
00000330: 4dc7 c7be e80e 2cbf 9372 f3be 51bb 74bb
00000340: 3b51 053f 6f8d 95be d8d4 99be a1a9 ea3c
00000350: c610 ac3e 8c2f aebc d609 6abf 3413 0bbf
00000360: 806e 703b e5de 8e3e ee1a 06be d9b7 11bf
00000370: e07b 873e 9b2c b33d 7c80 023d 983a 8cbf
00000380: abc8 55bf 0bab 803b 8551 e83d e6c5 ae3d
00000390: 8465 57bf 2dd8 d93e 4a55 c23d 54ab 043e
000003a0: 9b25 a0bf 976b 6cbf b548 073c e93e 303c
000003b0: c793 383d cb7d 78bf eb33 1a3f c646 033d
000003c0: d115 d73d 7485 a5bf c389 92bf 42db eebb
000003d0: 25bb efbd 2ec7 823e 4b4c 80bf 724c 163f
000003e0: 1bb1 1cbe d3c6 043e a652 aebf 955a 95bf
000003f0: f61d eb3b bea0 47be 3489 7b3e 4e05 9ebf
0.008409893 -0.3802505 0.82291603 -0.050688524 0.35177788 -0.13970959 0.3877552 -0.039380983
1.3733011 0.002845584 -0.25496057 0.6471033 0.15080535 0.20521627 0.0017648749 0.16064334
0.036482316 1.0292757 0.012753605 -0.37053707 0.5952778 0.23493977 0.11434806 0.098359644
0.2553272 0.08723099 0.9444506 0.023264501 -0.4302511 0.56405896 0.07111905 0.14427158
-0.01478717 0.25017798 0.04496737 0.9897041 0.009796488 -0.50701827 0.5436266 0.080952674
0.1748248 -0.16435826 0.20436108 0.11793328 0.9383729 0.020622974 -0.5057848 0.47590917
-0.060008813 0.08585888 -0.1295056 -0.12066191 0.11975403 0.72444665 -0.019523913 -0.59211123
0.31519672 0.16503543 -0.16232754 0.00039497198 -0.49795613 0.5804093 0.33885327 -0.5299058
-0.54040056 0.2111565 0.4391563 -0.60144514 0.24618989 -0.80802554 0.9434328 0.1994165
-0.542294 -0.34483638 0.08210549 0.6561088 -0.7023772 0.5188927 -0.8984762 1.0361613
0.077998035 0.010742903 -0.25397852 0.26527753 0.57368374 -0.31317997 0.43044475 -0.57457906
0.61788946 0.21614483 0.0026977453 -0.14039527 0.41761896 0.35175467 -0.06004778 0.27087906
-0.25339574 0.2001178 0.39959624 0.0073238877 -0.19052419 0.55479944 0.19465058 0.056108646
0.0630921 -0.15223432 -0.20509237 0.4105976 -0.002597451 -0.16237456 0.5670818 0.14523625
0.09554377 0.0067909984 -0.0018238245 -0.34404352 0.49010476 0.0032844145 -0.19917262 0.550278
0.16544688 0.14047329 0.15705243 0.26775208 -0.24646516 0.76988155 -0.00020648996 -0.16493379
0.52840674 0.10381244 0.13678621 0.1488403 0.31791866 -0.20925917 0.9006433 0.0015863088
-0.19288293 0.39283502 0.16462715 0.021766027 0.24928053 0.3049493 -0.030353025 0.8130353
0.00037291835 -0.11662207 0.34885544 0.10617778 0.009364991 0.2781264 0.22429231 0.05115125
0.86543316 0.0019826111 -0.21910618 0.30282027 0.121484675 -0.037769437 0.2449971 0.2430882
0.057607625 0.83890057 -0.0015864349 -0.19283621 0.34647053 0.07833274 -0.017428065 0.2817293
0.3561687 0.13005564 1.0002935 -0.0032187393 -0.15222201 0.45413923 0.08470227 0.0092904335
0.1944237 0.29631996 0.16396664 1.137643 0.004800878 -0.17918238 0.510676 -0.021375602
0.1874369 0.20107678 0.33806583 0.052630678 1.5008886 -0.010473144 0.83178115 -0.47362638
0.042987082 -0.10721059 0.8785544 -0.5625018 -0.30863115 -0.64040285 -0.003927521 0.6982229
-0.3835583 -0.06880714 -0.16516812 0.65171486 -0.39019242 -0.67210245 -0.4754835 -0.0037343095
0.5207707 -0.29209468 -0.300452 0.028645338 0.33606547 -0.021262906 -0.9142126 -0.54326177
0.0036686957 0.2790443 -0.1309621 -0.56921154 0.26461697 0.08748742 0.031860813 -1.0955381
-0.8350932 0.00392664 0.113436736 0.0853384 -0.84139276 0.42547742 0.09488924 0.12955981
-1.2511476 -0.9235167 0.008257081 0.010757186 0.045062806 -0.97066945 0.6023547 0.032049917
0.10502208 -1.2931352 -1.1448292 -0.007289321 -0.11705617 0.25542587 -1.0023283 0.58710396
-0.15301935 0.1296647 -1.3618972 -1.1668268 0.0071752025 -0.19494912 0.24564058 -1.2345369

0.bias f4 [130]
00000000: 4623 c63f 83ef 24be 5d83 22bf 403c 3c3e
00000010: eb23 71bc b7c8 8a3e 5ed0 3cbf 598b 0f3f
00000020: cb54 603c 3672 edbe d9ab 41bf 2755 053c
00000030: c83b e33f ef26 b13e 824a 1f3f e335 953f
00000040: a040 26bd 1884 d7be 6b7d 0d3f 526a 91bb
00000050: 3bc8 6eba dcdf 813e c353 f93e df39 68be
00000060: 119e 413f c177 8f3d f650 173e c61e f63d
00000070: 37df 083e 2397 343e 8755 ef3c 36df af3e
00000080: 20ce 4e3f 7a8f f7ba 7cb9 9f3d 7060 0cc0
00000090: 9cac 0d3d adf2 b1bc 6169 0c40 a4d1 cf3e
000000a0: 7ab7 adbe a20a 0d3f 3aac 153f d6da febe
000000b0: 822d 2fbf 1f4e 8a3e cfd0 1e3f d735 ed3e
000000c0: d958 d0bf 2b25 22bd cd1e 60bf 3477 933d
000000d0: 5397 31bd 33ce 733d 6911 b63f 6a7f c8be
000000e0: 572b ddbb 1e4d 043f 8998 87be 5aae 1d40
000000f0: 4592 f43f 6f72 ddbc 84e6 63bf 26e7 42be
00000100: 9e3c bcbc 75ef d43d 7bb1 c2bd e5fa 48bd
00000110: d518 eabe 54f5 72ba 975f dabe cb48 37bf
00000120: 7f04 703f affb a0bd 7405 cfbe 9ce4 303e
00000130: 6bb8 80be 746a 1b3f db7a 16bf f82a 9d3e
00000140: 55e7 2bbc b677 023e 823a 8d3e 0ee2 47be
00000150: 22de 92be d42d 08bc 5113 cb3e 02f4 11bf
00000160: cf51 11bd b43a 463e 9925 8b3d 4c1c d63d
00000170: 3bf8 073f 1afc 853e fc73 613d 16b7 373f
00000180: a2e9 633c 7bda 373f 6ecf c8bf b654 3f3f
00000190: 23a2 583d c5d7 343e b991 563d b2f8 673f
000001a0: 1f73 743f d16c 2fbf d915 75bf 67a2 e6bc
000001b0: c1a9 943f 1419 6d3f 19b8 9a3e 68c2 1d3d
000001c0: b785 b03d 1093 813c 619e 813d f07c 003f
000001d0: 1823 1dbd 76f6 fe3f fbf8 023f 9a5e 95be
000001e0: 86d2 fabe a6ad 0d3e 3a76 04bf 16fb f03f
000001f0: 46d7 8d3f b011 c03e f65d cb3a 63d8 813b
00000200: 6781 803d 1d28 b1be
1.5479515 -0.16106991 -0.63481694 0.18382359 -0.014718036 0.27106258 -0.73755443 0.56072
0.013692091 -0.463762 -0.75652844 0.008137978 1.7752619 0.34600016 0.62223065 1.165707
-0.040588975 -0.42092967 0.552695 -0.004437723 -0.0009108816 0.25366104 0.48696718 -0.22678326
0.75631815 0.07005263 0.14776978 0.12017588 0.133664 0.17635779 0.029215587 0.34349984
0.8078327 -0.0018887364 0.0779905 -2.193386 0.03458844 -0.021722162 2.1939318 0.4058963
-0.33929044 0.5509435 0.5846592 -0.49776334 -0.68428814 0.27012727 0.62037367 0.4633014
-1.6277114 -0.039586227 -0.87547 0.072004706 -0.043357205 0.05952282 1.4224063 -0.3915971
-0.0067495513 0.5168017 -0.26483563 2.4637666 1.9107138 -0.027032105 -0.89023614 -0.19033489
-0.022978123 0.10397235 -0.09506508 -0.049067397 -0.4572207 -0.0009268124 -0.42651054 -0.7159545
0.9375686 -0.07860505 -0.40433848 0.17274708 -0.251407 0.6070931 -0.5878121 0.30696845
-0.010492166 0.12740979 0.275837 -0.19519827 -0.286851 -0.0083117075 0.39663175 -0.5701295
-0.03547841 0.19358331 0.067942806 0.10454616 0.53113145 0.261689 0.055042252 0.7176374
0.013910683 0.7181775 -1.5688303 0.74738634 0.052889 0.17660435 0.052385066 0.90613854
0.9548816 -0.68525416 -0.9573646 -0.028153611 1.1614305 0.9261639 0.3021858 0.03851548
0.08619254 0.015817195 0.063290365 0.5019064 -0.038363546 1.9918964 0.51161164 -0.29173738
-0.48988742 0.13835773 -0.517429 1.8826625 1.1081321 0.37513494 0.0015515673 0.003962563
0.062746815 -0.34600917

2.weight f4 [130, 130]
00000000: 18fe f13d 5f9e c9bd e306 9abc 10e6 823d
00000010: 2d39 a53c 9626 813d 8bfb 06be eaf8 a2bc
00000020: 8966 dcbc 50e1 0abe 87e6 49bd 3e48 533c
00000030: d285 4c3d 5db2 373c bae6 01be 0921 5f3d
00000040: 9c45 cbbd 8002 573d ff2a 63bc 9255 7abc
00000050: d4eb 9a3c a060 d937 5b61 dc3c a388 13be
00000060: fcf3 66bd d948 fc3d 5d76 9d3d 2136 5abe
00000070: 2280 2ebc f231 75bc 7d1d b4bd e071 103d
00000080: 9f11 1bbd 5b98 a93b d94d 723d 6700 963d
00000090: e417 b63c c7a7 9e3d 7082 3ebe 340c 573e
000000a0: bf42 8d3d 51bf 8abc 7cc2 b03c 01d8 afbc
000000b0: bcaf 1fbc be77 693d f171 3dbd ccf3 3dbd
000000c0: c733 233c ed89 f03c 18d2 713d 1f85 8a3d
000000d0: 5a4a 83bd aae2 babd 6e64 4cbd f44a ccbc
000000e0: 4a74 47bd bc65 cebd 0de0 ca3b 8777 70be
000000f0: b6c5 e33b 811a 633b 89bc 1fbd 04ac 97be
00000100: 71ea cd3d 4959 943d 62d4 1b3d e7ab 5d3c
00000110: 806e b5bb b7c2 fa3d 3887 d6bc a453 2f3d
00000120: 84c9 3abe 2667 0abd e146 1e3c 7249 133d
00000130: d055 b2bc ea67 923e 9dc0 33bd 3a8e 8a3c
00000140: 4f22 9fbc 5fc5 273c c7e1 96bb 134f ca3c
00000150: 7f4f b8bb b974 0f3c 9ec2 89bd 0750 d33d
00000160: 99c1 39bd de2e bd3b 183e 8a3d c8f1 3bbd
00000170: 10e2 eaba 0c84 ac3d 0803 a1bd cb7a a63d
00000180: ff67 8a3d 3f0b c0bb 75bf 80bd ef2c 693d
00000190: 9782 51bd c7f5 b03d 37f4 6a3d bfc0 933c
000001a0: ab3a d2bd 8d44 d33c 5550 a8bd 809d 36bc
000001b0: 11af 3d3e 176c 7bbd 4aa5 9b3d d4b8 843c
000001c0: 9cb3 ad3c 3130 5b3c 87ca 563d 9814 763e
000001d0: 341e 24be 5dd6 843d f88c 3bba dead 163c
000001e0: 143a a5bc 8d65 723d 1f77 6fbc 2383 5abd
000001f0: 0570 383e 635f 093d f3c5 75bd e3a7 683d
00000200: 4a22 55bd 7906 07bc 218e a63a 4d6c d6bd
00000210: f9dd 90bc 15a0 193d 1be2 9abc 63ba aebd
00000220: 96ab d5bd e16f ba3d 925b 073d eb62 c4bd
00000230: 2602 073d 9ccd 99bd a022 81bd de31 e5ba
00000240: e387 923d a0ba 47bb ba7a 623d b17e babd
00000250: d35f 243d 6ad8 af3b 265e 093c 2f82 383d
00000260: f777 4ebd 65d0 b9bd a53f ae3c b719 7cbd
00000270: 36b2 6e3d 0612 e8bc cc67 c7bd c06d adbd
00000280: 8982 663d 68bb 70bd f35f 43bd 5f38 6bbd
00000290: 4349 793d 7ada 593d acfb 3d3d 3e21 6f3d
000002a0: a0c9 8dbd c22b 41bd 44e8 5bbd ad1e 843c
000002b0: be6a cabd d205 ffbc 2819 90bc bf32 22bb
000002c0: bf54 463c 6fe2 693d 0ea2 14bd 93f7 57bd
000002d0: 0807 c23c a528 563d 1ea1 d93c 7546 8ebd
000002e0: 22d1 3a3d b30a f9ba 2149 58bd fefc debd
000002f0: 903a 9cbc e95d e8bc 3034 b3bd ff74 553d
00000300: b308 2d3d 9dca 26bd 6b02 9f3d 821e b6bc
00000310: b6d6 29bd 10cf 963d 23ab fcbb 9601 e9bc
00000320: ea04 0cbd 9503 cdbd 82ed 2f3c ab1c ccbd
00000330: c338 50bd 3546 c1bc 0c30 9c3c f963 c4bd
00000340: 2430 d6bb 0737 22bd 4731 ed3c 7de6 8a3c
00000350: 3efe 8bbc a044 a1bc d77c 623d 5ce4 c63c
00000360: 263d c8bc 8297 073c 67f8 a3bd 3898 d7bc
00000370: 9d8b 983c 5680 9cbc 78c4 12bd fdaa a0bd
00000380: fb21 c5ba 4bb2 87bd d971 0cbd ec73 883d
00000390: 095f 9dbc 5f74 183d aedd 6d3d e2b8 dfbc
000003a0: dbf9 353d bf11 613d 4ecb 92bd 9aa3 bfbd
000003b0: e71c c7bd cd7f 93bd bd15 353b 8188 4ebd
000003c0: 76fb e23c cfdc 2b3d 2433 8dbd 46b5 9f3c
000003d0: 67fa 453d f16b 69bd 77f6 adbd a91d 3abd
000003e0: 2a2b 153d b10d efbc 55ef 843d 66bd 993d
000003f0: 8fd7 adbd b5ca d1bd 8ede 243d e0bb f1bb
0.11816043 -0.0984466 -0.018802112 0.06391537 0.020168865 0.06306188 -0.13181894 -0.019894082
-0.026904361 -0.13562512 -0.049292114 0.012895642 0.04993231 0.011211959 -0.12685671 0.054474864
-0.09925386 0.05249262 -0.013865232 -0.015279191 0.01891128 2.591341e-05 0.026901891 -0.14407592
-0.056385025 0.12318582 0.07688592 -0.21309711 -0.010650666 -0.014965521 -0.08794687 0.03526485
-0.0378586 0.005175633 0.059156273 0.073242955 0.022228189 0.07746845 -0.18604445 0.21000749
0.068974964 -0.01693693 0.021577112 -0.021465303 -0.009746488 0.05699896 -0.04625124 -0.04637508
0.009961075 0.029362643 0.05903825 0.06763672 -0.06410666 -0.09125264 -0.049900465 -0.024938084
-0.048694886 -0.10077998 0.0061912597 -0.23483096 0.006951059 0.0034653249 -0.03899816 -0.29623425
0.10054482 0.07243592 0.03804434 0.013529754 -0.0055368543 0.1224417 -0.026187524 0.042804375
-0.18240935 -0.033789776 0.009660454 0.035958715 -0.021769434 0.28594905 -0.043884862 0.016913522
-0.01942554 0.010239928 -0.0046045515 0.024695909 -0.005624711 0.008755856 -0.067265734 0.103179984
-0.045350645 0.0057734093 0.06750125 -0.045884877 -0.0017920155 0.084236234 -0.07861906 0.0812889
0.06758117 -0.0058607156 -0.062865175 0.056927618 -0.05114993 0.08640628 0.057361808 0.018036244
-0.10265096 0.025789523 -0.08218447 -0.011145949 0.18523814 -0.06138238 0.07599886 0.016201414
0.021203808 0.013378189 0.05243924 0.24031293 -0.16027147 0.06486199 -0.000715449 0.009196727
-0.020169295 0.059178878 -0.014615803 -0.053347718 0.18011482 0.033538233 -0.060003232 0.056800734
-0.052034654 -0.008241289 0.0012707153 -0.104698755 -0.01768397 0.03750618 -0.018906644 -0.08531644
-0.10433118 0.091033705 0.033046313 -0.095891796 0.032961033 -0.0750992 -0.06305432 -0.0017486175
0.071548246 -0.0030476227 0.055292822 -0.09106196 0.040130448 0.0053663747 0.008384263 0.045046028
-0.050407376 -0.09072951 0.021270582 -0.06154796 0.058275424 -0.028328907 -0.097365946 -0.08468199
0.05627683 -0.058772475 -0.047698926 -0.057426807 0.060860883 0.05318687 0.04638259 0.05838131
-0.069232225 -0.04716087 -0.053688303 0.016127909 -0.09883641 -0.031130705 -0.01759012 -0.0024749485
0.012105166 0.05710071 -0.03628736 -0.05272634 0.023684993 0.052284855 0.026566084 -0.06947032
0.0456096 -0.0019000381 -0.052804116 -0.10888098 -0.019070894 -0.028365092 -0.08750188 0.05211353
0.042244624 -0.04072057 0.07764133 -0.022231344 -0.04146453 0.07363713 -0.007710831 -0.028443139
-0.034184374 -0.10010449 0.010737779 -0.099664055 -0.050835382 -0.023593048 0.01906588 -0.09589381
-0.0065365005 -0.03960326 0.028954161 0.016955609 -0.017089006 -0.019686043 0.055294838 0.024278812
-0.02444322 0.008275868 -0.08006363 -0.0263177 0.01862126 -0.019104164 -0.0358319 -0.078451134
-0.0015040034 -0.066258036 -0.03428826 0.06662735 -0.019210355 0.037220355 0.05807274 -0.027309839
0.044427734 0.054948565 -0.071676835 -0.093573764 -0.097223096 -0.072021104 0.0027631365 -0.05042315
0.027707797 0.041958626 -0.0689452 0.019495618 0.048334505 -0.056987707 -0.08494275 -0.045438442
0.036418118 -0.029181333 0.064909615 0.07506828 -0.0848838 -0.102437414 0.040251307 -0.007377133

2.bias f4 [130]
00000000: 849b ddbd 9d19 e7bd 6731 c03f b770 673f
00000010: f6ce 1ebf fabb 983e 97cd 603f e638 2fbf
00000020: 5e6b bfbe 054b 67bc 8495 4abf 953d 37bd
00000030: 3973 10bd 059a c73e 1a2d ea3d 08c5 e03e
00000040: a52c 17bd aeb8 cbbd c7b8 513e a84a 963f
00000050: a656 97be d5ca b0be 8610 803f 46cf 953f
00000060: 9b0f fb3e 1e94 9b3e bdc5 9d3e b67a 4e3e
00000070: f01b 3e3e e57b a53d e19c 773e 02b6 16bf
00000080: fb6b 043f 4d76 a13f 9215 b03e 3ebd f03e
00000090: eb4e 473c 0687 6d3f 98b3 65bc 9943 d23d
000000a0: 3cb1 343e 8917 5e3f b5e7 5cbf 3b64 383d
000000b0: 1004 0d3f 098b 81bd c106 e13e 4412 9cbf
000000c0: c651 a03f 5dcf 56bd 3125 473f e7ae b03e
000000d0: cdad 783d f79b 05be 10fc ee3d 5568 813f
000000e0: 15d2 26bf 107e e03c 7143 3c3f a224 e63e
000000f0: 720b 2140 1ff5 1c3d 7ab2 b03e d85e 1fc0
00000100: 4d96 783f aba5 a4be 51a8 a53e c302 6b3e
00000110: 497c c2bd 70cd ffbc 2d7b 10bf fd6f e23e
00000120: b1f7 31bd a1aa d83f 9adb 463f 8654 4f3d
00000130: 8181 523e 4049 8cbf 2e7c d03d bfd1 d53e
00000140: d37f 51bd 3646 3d3e b6f7 c03e 84a6 1c3e
00000150: ede3 c4be 56da 973f 2d46 87bd 9c11 763c
00000160: d515 1d40 2e9c c7bd 31c4 e4bf 40e0 c23e
00000170: e407 3dbf bf57 6c3e 8034 4abe f9a6 c53c
00000180: 2752 de3e 485e 1040 b8f9 1a40 abfa a2bf
00000190: 5731 993e e8b9 d43e e7ef 283f 7c48 373f
000001a0: 65bd fcbd 93fe 6abc 6a1e 07bf 1b98 d9bc
000001b0: 70db 0840 5008 dd3d 4d1a 44bd 6e8b 3d3f
000001c0: 2647 e13e 0b2f c8bd f5c3 d83e fc7b 06bf
000001d0: a706 2c3f d25f e23e 4dba 2fbf ef1f a7bd
000001e0: c6b8 44bd c047 243f 3af7 c9bf 1c47 bcbd
000001f0: 60d5 b8be 2cbf cebe 7737 52be 5305 b838
00000200: ba77 503e 6ef3 5bbd
-0.10820678 -0.11284182 1.5015076 0.90406364 -0.6203455 0.29830915 0.87813705 -0.68446195
-0.37386602 -0.014117007 -0.7913439 -0.044736464 -0.035266135 0.38984695 0.11434384 0.43900323
-0.03690781 -0.09947334 0.20480643 1.1741533 -0.29558295 -0.3452975 1.0005043 1.170388
0.49035344 0.30386442 0.30814925 0.20163998 0.18565345 0.08080272 0.24180938 -0.5887147
0.51727265 1.2614228 0.34391457 0.4701938 0.012164812 0.92784154 -0.014019869 0.102667995
0.17645735 0.8675466 -0.86291057 0.045017462 0.55084324 -0.06325347 0.43950465 -1.2193074
1.2524955 -0.05244385 0.77791125 0.3450844 0.060712624 -0.13047777 0.11669171 1.0109965
-0.6516431 0.027403861 0.7354041 0.44949824 2.5163236 0.038319703 0.34511167 -2.4901638
0.9710434 -0.32157645 0.32354978 0.22950272 -0.09496362 -0.03122589 -0.5643795 0.44226065
-0.043449108 1.6927072 0.77678835 0.050617717 0.20557214 -1.0959854 0.101799354 0.41761586
-0.051147293 0.18483815 0.37688988 0.15297896 -0.38455144 1.1863506 -0.06605182 0.015018847
2.4544575 -0.09746586 -1.7872373 0.38061714 -0.73840165 0.23080347 -0.1974659 0.02412747
0.43422052 2.2557545 2.4214916 -1.2732748 0.29920456 0.41548085 0.6599106 0.7159498
-0.12340812 -0.014342922 -0.52780783 -0.026561787 2.1383934 0.10792601 -0.047876645 0.7404088
0.43999594 -0.09774598 0.42337003 -0.52532935 0.6719765 0.4421373 -0.6864365 -0.08160388
-0.048027776 0.6417198 -1.5778573 -0.091932505 -0.36100292 -0.40380228 -0.2052897 8.7747954e-05
0.20358172 -0.05369895

4.weight f4 [130, 130]
00000000: c475 07be 28ef 8ebd 3326 403e 12a5 633e
00000010: 617e 0dbe e785 3c3e 691f e6be ba97 773d
00000020: d09d ac3d 14cd 02bd 7953 1bbe 3ded 023d
00000030: e020 cebd 1278 313e 14da ee3c 34e6 853d
00000040: c1e0 db3d 38dd cb3c a3df 95bd 05d5 ffbc
00000050: 22f1 e9bd f940 f43c ef43 543e da05 ee3d
00000060: a808 98bc 475d d4bb 839c 083e d2b7 243e
00000070: e552 5b3e 820d 8bbd 7827 a63d 183b 983b
00000080: ace6 553a 1218 8e3e cd30 e73d 1d6c 953c
00000090: 382a 59bd bdbe 523d eb7c 78bc 88ff cfbd
000000a0: 16b6 f03c 86c8 943d 3f95 f0bc c5f6 f23d
000000b0: 69b6 d73d ff65 b4bb c20d 4cbc c0b1 d5bc
000000c0: 84b6 2f3e ddec 9b3e 95b4 313d 2897 fa3d
000000d0: 1e09 c9bc 21a4 b0bc ba88 28bd da5d d1bd
000000e0: ab08 33bd 2aef 5f3c 9c0e 9fbd 121f 543c
000000f0: daed 993d 6720 83bd 5608 50be 45e4 94be
00000100: 6f18 1f3d a0e9 cbbc 9ff0 793e a8d1 b6bc
00000110: a27c d93d fd78 23bd 453b ce3c 184e 993d
00000120: d5a4 6e3d c51b 9dbe df5c ec3e e91d b03b
00000130: 21b8 b5bd 3bb7 a3bc 4627 26be ccd5 933e
00000140: 7ada 40bd b7e8 16be 504b 6c3d ee58 49bd
00000150: d996 fcbc 36e4 123e a9fc 733d 7517 13bd
00000160: 139a 573e 639d 56bd bb40 5dbe 6a06 6f3a
00000170: a17c de3c c424 03be bf4d 0dbd f6ef 083d
00000180: bbb9 2abc b9ab 413e 268b ae3d ace1 ecbd
00000190: ac7b bbbd c4dd 443e ae1f 9a3d a45f 253e
000001a0: 6b74 62bc 9a4e 3f3d 9367 94bd 6cf7 2f3d
000001b0: 18d6 333e 3c80 43bc ad53 893b 41b7 bc3c
000001c0: 5a3d 793e bdda ad3d 2f26 eb3d 98eb e6bd
000001d0: 1d33 04bd 9586 be3d e10d dbbd 7cbc 8bbd
000001e0: 7de9 59be 77b0 9bbd e86f a1bc ae91 463e
000001f0: 5e5e 46bd b764 863b 4391 2fbe 6fc9 5f3d
00000200: 94ee b53e 04f1 a3bc 6f20 893d 7148 983d
00000210: f410 9bbb cc1e 14be 5505 bb3c d09e 403e
00000220: 81fb 61bb 2dc5 60bc f10a 123e ec6e 66bd
00000230: d298 9d3d b2d6 2d3c db11 983d 1cbc 973d
00000240: 18c8 25bc 5157 0abe 5742 1d3d daa6 4c3d
00000250: 6790 1abe 104b 9d3d c3a3 4fbe 4ec4 393b
00000260: 8023 0d3e 3bbf dd3b 6711 99bd 8ec3 e03d
00000270: ff09 acbd 3179 0bbc d8a5 9dbc 4041 17be
00000280: 4e92 67bd 3c6c 2cbc ebcd adbd 2d7a 6fbc
00000290: dd19 8dbd a91f fe3c c846 a93c 94a8 823e
000002a0: d98e 283d fa7f 433d c5c5 073e 64bc 453c
000002b0: cc2a cabc 87d5 183c 7232 413d bf9b ac3d
000002c0: 07a6 4abe 1ccc 713e d6f2 eebd 4bea a23c
000002d0: caba 363c 7c6e 31be 4eea 3d3d 8fb6 c53d
000002e0: 39ff e9bb 710e dd3d 49bd 873b 6163 7b3c
000002f0: eea7 e9bb 98cc fabd de77 5abd 9e67 33be
00000300: d2ee 0ebe c7e1 593d b129 0f3c 5a66 bbbc
00000310: 594b 9d3d d333 95bc baea 92bd 2d95 8d3d
00000320: 88ac ad3d 90c7 12be 6946 043c 84ca ce3c
00000330: 2535 fc3d 1462 d0bd 30be 25be 5941 0cbe
00000340: c186 833b 7db5 193d b957 183d 7191 c13c
00000350: 1456 583c 5241 e7bc 3c50 2bbd 70b4 bd3d
00000360: d378 7a3c 10a1 28bd cbdf 13be aaed a23c
00000370: e05d 3cbd dc6e b53c fce9 473e 81dd c4bc
00000380: 0fa3 35be 502a 443d 017a ee3a 510a e93d
00000390: abd9 86be d2bb cb3d b332 973d 5a95 733d
000003a0: 33ec 4c3e c6ff 5fbb 8595 d7bc aac9 083d
000003b0: 9544 373c 9fd2 4d3c 7020 d03d 3836 be3c
000003c0: 78d8 e0bc b398 2abe e3d8 efbb 6eee 323d
000003d0: b4dc 89bd fba8 ebbd 9e67 423b b4af 68bd
000003e0: 8fc7 2c3c 2421 d03c a5cb 6bbd e6ab 9dbd
000003f0: abd5 353d 8f91 7d3d 461d 2fbc 1a78 b23d
-0.13228518 -0.06979209 0.18764572 0.22230938 -0.13817741 0.18410455 -0.4494584 0.060447432
0.08428538 -0.03193386 -0.15168561 0.03196453 -0.10064864 0.1733096 0.029156722 0.065380484
0.10736228 0.024885759 -0.07318046 -0.031229505 -0.114229456 0.029816138 0.2072904 0.1162221
-0.018558815 -0.006480846 0.13340954 0.16085747 0.2141834 -0.06789686 0.08112997 0.0046457164
0.0008159678 0.2775274 0.11288605 0.018240029 -0.05301878 0.051451433 -0.0151665015 -0.101561606
0.0293837 0.07264809 -0.029368041 0.11863474 0.10532839 -0.005505323 -0.012454452 -0.026085734
0.17159468 0.3045415 0.043385107 0.12235862 -0.02454048 -0.021562638 -0.041146018 -0.10222979
-0.04370944 0.013667861 -0.077664584 0.012946861 0.0751607 -0.06402665 -0.2031568 -0.29080406
0.03884166 -0.024891675 0.24408196 -0.022316769 0.10619475 -0.039910305 0.025174746 0.07485598
0.058262665 -0.3068525 0.46164605 0.0053746593 -0.088730104 -0.019984832 -0.16225919 0.28874052
-0.047083355 -0.14737211 0.05768901 -0.049157076 -0.030833649 0.14344868 0.059567127 -0.035911042
0.21054868 -0.05239619 -0.21606724 0.0009118082 0.027159037 -0.12806994 -0.034497973 0.03343197
-0.010420258 0.18913163 0.08522634 -0.11566481 -0.09154448 0.19225222 0.07525574 0.16149765
-0.0138217015 0.04670582 -0.07246318 0.04296057 0.17562139 -0.011932429 0.004190883 0.023036601
0.2433981 0.08488987 0.11481892 -0.11275405 -0.032275308 0.09303013 -0.106960066 -0.0682306
-0.21280475 -0.076020174 -0.019706681 0.1939151 -0.04842984 0.0041013616 -0.17145257 0.05463546
0.35533583 -0.020012386 0.06695639 0.07435692 -0.0047322456 -0.14464873 0.022829691 0.18810582
-0.0034482183 -0.013718885 0.14261986 -0.056258127 0.07695164 0.010610269 0.07425281 0.07408926
-0.010118507 -0.13509871 0.038393345 0.04996381 -0.15094148 0.07680333 -0.20277314 0.0028345766
0.13783073 0.006767181 -0.07474022 0.10974799 -0.08400344 -0.008512781 -0.01924412 -0.14770985
-0.05653601 -0.010523852 -0.08486541 -0.014616531 -0.06889699 0.031020956 0.020663634 0.2551924
0.041151855 0.04772947 0.13259037 0.012068842 -0.02467861 0.009328253 0.04716725 0.08428144
-0.19789897 0.23613018 -0.11667411 0.01988711 0.011152932 -0.17327303 0.04636603 0.09653961
-0.0071410206 0.1079377 0.0041424376 0.015343518 -0.0071306145 -0.122460544 -0.05333697 -0.17519996
-0.1395829 0.053193834 0.008737967 -0.022875953 0.07680387 -0.018213188 -0.07173677 0.06913219
0.08480173 -0.1433394 0.008073428 0.025243051 0.12314824 -0.10174957 -0.16185832 -0.13696803
0.0040138667 0.037526596 0.037193034 0.023628922 0.013204116 -0.02822939 -0.041824564 0.09262931
0.015287596 -0.041169226 -0.14440839 0.019888718 -0.045987964 0.022147588 0.19522852 -0.024031403
-0.17737983 0.047891915 0.0018194319 0.11378921 -0.26337942 0.09947933 0.07382717 0.059468605
0.20011978 -0.0034179552 -0.026316414 0.033395447 0.011185785 0.012562423 0.10162437 0.023219213
-0.02744697 -0.16659813 -0.007319556 0.043684416 -0.06731549 -0.1150684 0.0029663811 -0.05680819
0.010545625 0.025406428 -0.057567257 -0.07698803 0.044393223 0.061906394 -0.010688132 0.08714314

4.bias f4 [130]
00000000: 0702 853f 483d acbe aac5 d13c 2369 ac3d
00000010: 6cef 493c c849 95be a890 243e 40e4 be3e
00000020: e9e5 5abd b2a0 69be 24d7 b5bd 9438 b73e
00000030: b5e9 403c 33fe d83d eb92 c1bb 4ccf 163e
00000040: d529 ee3d 6574 cd3d 487e 0d3f 0c54 fc3e
00000050: 6365 09bf a151 ca3e 8517 c03d 54aa ffbd
00000060: 3772 193d d30f cc3f ac7c 6bbe 2b15 5abd
00000070: 76f9 aabe 52eb 083f 8f6b ae3c 4747 7b3f
00000080: 8756 a5bd 32ab 2f3e ebca 9f3c d3c3 1d3d
00000090: c17f 053f 1f23 c4bf b30d ef3e a457 913e
000000a0: 1365 14bd 04e6 b3be 7428 3d3e 3a3a 0b3e
000000b0: 0620 773f 37d1 1f3f d0d7 0bbf df4f be3e
000000c0: e5bf f93c 4b48 2d3f 42d1 7c3d 7c55 87be
000000d0: 6a7b dabe 9965 cb3d df20 053e fa90 d2bd
000000e0: 58e9 093d 206e 373d b00f 54bd 94c2 b33e
000000f0: 8c53 b13e c9bf 003d 8ffc 963e 3583 503d
00000100: f3c8 4c3e 7ff5 943e d82f 703f 30bb a7bc
00000110: 3822 243e 4005 58be 9936 533f 9543 03be
00000120: 5d53 6d3d 64f8 323e 9461 39be b751 d9be
00000130: 125f 9f3f abaa 553f 13e7 ea3e 1322 8bbe
00000140: d40b 933f e64e fabd 3ab9 b43e b094 843f
00000150: 2a05 87bb ffc8 953f 1e17 f9bd d5e1 7b3f
00000160: ec9f b03e 8bc0 b7bd bfcb bb3b 8c0f 233d
00000170: 9a89 2b3f 72a5 063d ba40 773d 10da 5a3e
00000180: 2676 d33e 7260 ff3c 1979 11bf a275 933f
00000190: 1afe a73d d927 973f 06dc 4abd 1b78 12be
000001a0: 4d50 953f f37c 803f ccf7 023d de71 fa3d
000001b0: 9589 3e3f 5a50 e9bc fae2 a4b9 8cb7 ea3f
000001c0: 71ed a43c 1666 3fbe 9904 09be 6928 e2bd
000001d0: 78dc b2bd 5a49 17bf 8acb 493e 68de 3c3d
000001e0: bd0e 2e3f 0073 3c3c adf2 3a3f 0a97 2abf
000001f0: 5c18 8c3e 5555 3c3f 8b4e a9be 8f3c 48be
00000200: a771 e23e 93b9 eebb
1.0391244 -0.33640504 0.025606949 0.08418491 0.012325149 -0.29157853 0.16070807 0.37283516
-0.053441916 -0.22815207 -0.088789254 0.35785353 0.01177447 0.1059536 -0.0059074066 0.14727515
0.116290726 0.10031966 0.55270815 0.49282873 -0.5367033 0.39515403 0.09379486 -0.124836594
0.03746244 1.5942329 -0.22996777 -0.053242844 -0.3339345 0.5348407 0.021291522 0.98155636
-0.080731444 0.1715515 0.019505939 0.03851683 0.5214806 -1.5323218 0.4669014 0.28387177
-0.036229204 -0.35136425 0.18472463 0.1359643 0.9653324 0.6242861 -0.5462618 0.37170312
0.03048701 0.67688435 0.061723 -0.26432407 -0.42672282 0.099314876 0.1300082 -0.10281558
0.0336698 0.044782758 -0.051772773 0.3510939 0.34634054 0.0314329 0.29489562 0.05090638
0.19998531 0.2909355 0.93823004 -0.020475 0.16028678 -0.21095753 0.82505184 -0.12818749
0.05794083 0.17477566 -0.1810363 -0.42445156 1.2450888 0.83463544 0.4587942 -0.27174434
1.1487985 -0.1222208 0.35297567 1.0357876 -0.0041204887 1.1701964 -0.121626124 0.9839147
0.3449701 -0.089722715 0.0057310755 0.03980975 0.6700684 0.032872625 0.060364462 0.21372247
0.41301078 0.031173918 -0.56825405 1.1520274 0.08202763 1.1809036 -0.049526237 -0.14303629
1.1665131 1.0038131 0.0319746 0.1222875 0.74428684 -0.028480697 -0.00031449628 1.8337264
0.020132752 -0.18691286 -0.1338066 -0.11042864 -0.08733457 -0.590963 0.1970655 0.04611054
0.6799124 0.0115020275 0.73026544 -0.6663672 0.27362335 0.73567706 -0.33067736 -0.19554351
0.44227335 -0.0072853058

6.weight f4 [157, 130]
00000000: 242d ac3d eecf 9a3d 1231 01be d298 cabc
00000010: 58a2 51bd b357 053e ee5b 773c 000c d13d
00000020: b07e 87be 56e2 68be 620f b0be 43d5 373d
00000030: 5bf6 bd3d 8d1d 163e e36b e8bd 3790 623c
00000040: 34ce fd38 4c6f 9e3c 795e 33be cc9d bd3b
00000050: f3d8 d93d 7931 7d3d 4002 873e b955 723d
00000060: 9e0a 5fbd 7d38 a73d f3c8 0b3d aa2f 07be
00000070: 0856 a2bd f721 6e3c e45b dfbb 3561 07bd
00000080: 9882 69bd 36bc f8bc 33d7 4cbd a659 9abd
00000090: 191d cbbe 9703 573d 0b05 9e3d b84b aabb
000000a0: bdfe 16be adf4 78be 5e82 e43d 6a47 aabb
000000b0: a6e0 bd3d 17af 863d fbe6 eabd 6ec4 523e
000000c0: 4204 6cbd 4efd 5e3d 5907 1a3d 8e90 b1bd
000000d0: 8411 113e 8003 14bd 7983 2fbe 7d8c 92bc
000000e0: 580d 8e3d 8343 bd3a 73df 33bd de80 21be
000000f0: e99a a3bd ae57 75bd c4f8 003c 1b0a cb3d
00000100: 7580 b0bd 3d27 d3bd f979 61be c04b 5e3d
00000110: 5290 0dbe cb8c da3d f92f 943d 2a25 833e
00000120: 6575 43bc e37c ccbc beec ebbe dda6 68bd
00000130: c66a d7bc 0245 963e 8c63 0f3e 0be0 86be
00000140: da74 2c3e 5b23 d63b fad8 e8be 0c2d 113e
00000150: 32b5 1c3e f5a2 c03c 2d47 b23d 9790 963d
00000160: 76d0 41be 8b26 bfbd 1633 733a 4f9a abbc
00000170: b3bd 123e 1a52 bb3d d232 663d b868 523e
00000180: fe1b d8be 238e 1cbe 7ef6 9f3d b968 0cbe
00000190: 7291 aebe 49da a03d 72eb b1be ae87 003e
000001a0: 1d68 d43d c042 1abe 4553 653d 2651 0f3e
000001b0: 3000 2abd 7e14 c73d 033c 883d 2491 ba3c
000001c0: 29ca 493e fe48 cebd fa1f a23d 1ae4 83bc
000001d0: 576c 903d e17f 383e 11b2 68bd 1914 82bd
000001e0: 5b36 373d 0557 80bd 47cd bdbc 90e7 7f3e
000001f0: 7e76 ef3b b568 a4be b611 3dbe 2695 71bd
00000200: e051 ebbd ac72 8cbc 8d9e 0cbf 3f75 9cbe
00000210: 6e50 073d 0996 8c3d 545a 79bd be50 16bd
00000220: baa0 21bd 50ce 0f3e c34c 153d 080e 313d
00000230: ba69 92bd 4ad5 45be 5828 0fbe c025 b33c
00000240: 867a 8a3d c862 53bd d59b 673b 7f69 713d
00000250: d0b9 adbe f302 833d c683 b33d 3410 3bbe
00000260: 34b1 0fbb 8eca a4bd fa51 e03c e072 10be
00000270: 81ce bdbb e815 173e 40f1 51be e82c 92be
00000280: a20f a93d 4656 17bf 0971 783d 629a 14be
00000290: ac18 ccbe 8af6 2dbc 4241 8cbd 4809 be3d
000002a0: 5490 dcbd 606d d3bd 2c84 0bbd b05b 333c
000002b0: ea4b cebd b7db 033e ff19 34be 3ef3 dabe
000002c0: dcff a23d 9e8f efbd 246d 4ebc 0d7c cf3d
000002d0: 512d 81be 1bcc a3bd d037 8cbd 4625 d83c
000002e0: 21ce ea3d 7157 acbd 7f44 c23c 4ce6 a83d
000002f0: d4cc 44bb 7783 353d ed35 5d3d 64ec 453d
00000300: 6d8a 853d 153d 2dbe b728 fdbe a6b9 9abd
00000310: 7293 d93c 2221 47bd 69ac c53d 9901 993d
00000320: f746 95bd 3b8c 60be 904a 47bd d78b 04bc
00000330: c9d0 fe3d f7d0 be3d d833 54be a2e3 2a3e
00000340: 5950 163e d7ca 803e f48e a4be 7294 c93d
00000350: 80bb 143d 7aaa 383e 15ea 6abe 11a3 91be
00000360: 0aed 443e b77e 53ba e4c9 f43d 1df4 97bd
00000370: 114f 05be 8465 63be d138 b2be 7e95 27be
00000380: 9830 2abd 0372 81be bc06 5ebe bcf7 83bd
00000390: 2c31 1cbe 3fe9 aabc 6e8c afbd 4f1c 053c
000003a0: a64b 953d 68fd 373c 21a4 8b3d 8e86 893e
000003b0: 2001 a1bd aa4e 893d 8c75 acbe 4dbd ca3d
000003c0: d59f 853c 556f c03c 8426 edbd a533 8a3a
000003d0: 8aa4 e23d a7f1 8cbc 452b 57bd 474f bfbd
000003e0: 0a60 a9be fd1a 223e d18c 763c 1154 14be
000003f0: 8160 81bd 7c2c abbd 87a6 9dbc 6ddb 2e3e
0.084070474 0.07559191 -0.12616375 -0.024731074 -0.051180214 0.13021736 0.015097601 0.10207367
-0.26463842 -0.2274259 -0.34386736 0.044881117 0.09275504 0.1465971 -0.11348703 0.013828329
0.000121023884 0.01934018 -0.17516507 0.005786633 0.10637083 0.06181476 0.26368904 0.059163783
-0.054453485 0.08165071 0.034127187 -0.13201776 -0.079265654 0.014534465 -0.006816374 -0.03305169
-0.05700931 -0.030363183 -0.050009917 -0.0753663 -0.39670637 0.052493658 0.077158056 -0.0051970147
-0.14745612 -0.24312086 0.11157678 -0.0051965015 0.09271364 0.065763645 -0.11469837 0.20582744
-0.057621248 0.05444079 0.037604664 -0.0867015 0.14166838 -0.03613615 -0.17139997 -0.017889256
0.06936139 0.0014439676 -0.04391427 -0.15771815 -0.07988531 -0.05989807 0.00787181 0.09914037
-0.08618251 -0.103102185 -0.22019185 0.05427146 -0.13824585 0.106713854 0.072357126 0.2561429
-0.0119298445 -0.024961894 -0.46079057 -0.05679976 -0.02629603 0.29349524 0.14002818 -0.26342806
0.1684145 0.0065349764 -0.4547804 0.1417734 0.15303496 0.023515204 0.08704982 0.07351797
-0.18927178 -0.09333523 0.0009277327 -0.020947604 0.14330177 0.09146519 0.05620081 0.2054776
-0.42208856 -0.15288596 0.078106865 -0.13711824 -0.3409534 0.078541346 -0.34749943 0.12551758
0.103714205 -0.15064526 0.055987615 0.139958 -0.041504085 0.097207054 0.06652071 0.022774287
0.19706024 -0.10072516 0.07916255 -0.016099978 0.07051914 0.18017532 -0.056810442 -0.063514896
0.04472957 -0.06266598 -0.023169173 0.24990678 0.0073078265 -0.32111135 -0.18463787 -0.05898013
-0.11490226 -0.017144524 -0.5492943 -0.30558202 0.033035688 0.068645544 -0.06087716 -0.036698096
-0.03945992 0.14043546 0.03645016 0.043226272 -0.07149072 -0.19319645 -0.13980234 0.021868587
0.06761651 -0.051607877 0.0035340686 0.0589385 -0.33930826 0.06397047 0.08765368 -0.182679
-0.002192569 -0.08046447 0.02738284 -0.14106321 -0.0057924394 0.1475445 -0.20502186 -0.28549886
0.08254935 -0.5911602 0.060654674 -0.14512017 -0.39862573 -0.0106178615 -0.068483844 0.09279114
-0.10769716 -0.10323596 -0.034061596 0.010947153 -0.10073073 0.12876783 -0.17588042 -0.42763704
0.079589576 -0.11697315 -0.012599263 0.10131083 -0.25229886 -0.079979144 -0.06846583 0.02638496
0.11465097 -0.084151156 0.023714302 0.08247051 -0.0030029314 0.044314828 0.054006506 0.048321143
0.06520543 -0.16917832 -0.49445125 -0.07554941 0.026559565 -0.048615582 0.09652025 0.07471008
-0.07288926 -0.21928494 -0.048655093 -0.008089981 0.12442166 0.09317201 -0.20722902 0.16688398
0.14679088 0.25154755 -0.32140315 0.09842767 0.036311626 0.18033782 -0.22940858 -0.28444722
0.19231048 -0.0008067893 0.1195257 -0.07419608 -0.13018443 -0.22206694 -0.34808972 -0.1636562
-0.04155025 -0.25282297 -0.21682256 -0.06443736 -0.15253133 -0.020863174 -0.08571707 0.008124425
0.072898194 0.01122985 0.068184145 0.2686047 -0.07861543 0.06704457 -0.3368343 0.098993875
0.016311565 0.023490587 -0.11579612 0.0010543956 0.110665396 -0.017205073 -0.0525315 -0.09341293
-0.33081084 0.15830608 0.015048222 -0.14485194 -0.06317235 -0.08358094 -0.019244445 0.17075892

6.bias f4 [157]
00000000: ba8a 793e 89bf ddbd 714f a4be 9c8c 1dbe
00000010: fa14 57bf bd2f 8b3e 2998 97be 1d46 03bf
00000020: d601 8a3f 7b0f 14bf c4ec 0dbf 7898 e23d
00000030: 8480 82bf 9404 443f f484 50bc 7146 993d
00000040: 6023 d0be 555e 053f d25a bf3e 1642 97bf
00000050: cb02 43be bcb0 35bf 9f3c 04bf f9c7 ff3e
00000060: bf4e d73d 7417 9a3f 50d1 1abe 3c9b 80bc
00000070: 445a b1be 0e90 983e 70c0 4abf 7468 a33e
00000080: e3dc ccbd 9970 27bf a2b9 e2be 9424 6ebd
00000090: 078b 52bf 3578 003d d356 90be 4f4d f6be
000000a0: 63d2 c1bd 388a 1ebe 844f 8ebe 29c4 b33e
000000b0: f778 863f 9da1 9bbe b838 65bd d522 b6be
000000c0: 03e0 d63c ec9a 843f 5996 a53e 6072 0d3e
000000d0: c804 2cbf bf3c 34be 1fa6 b9bf 697b 523f
000000e0: aff0 65bf e2eb 3cbf 5f8e 8c3e 0907 163e
000000f0: 819c bebe 685f a2bd 1dab e73e f8ea 77be
00000100: 48a5 d93e 61fd 6dbd 24dc 77be 7b57 ffbc
00000110: d0cd 123f 93f6 173f eb70 9e3c c650 14bf
00000120: e212 18be 5691 853d d9d6 8d3e cadb ce3e
00000130: 15a5 34bc 70e2 d63d 5434 16bf 793b d7be
00000140: 443f ab3f bd99 4d3f 0fad abbd 542e 90bf
00000150: 433e 00bf fe06 923e 1fe5 513e 2dbd bb3b
00000160: 9523 a23e 10d9 2f3e d4da bf3d 2516 31be
00000170: 2b17 323f b254 bc3e 1003 0d3f 884b 43bf
00000180: 5887 38bf 6b28 043d 0d4e 34bf 8bac 8fbe
00000190: 78fa e83e bc4f 98be d232 2f3f 69eb 29bf
000001a0: e2aa 34be cd8d 80be 8bfc 40bd 1c26 8c3d
000001b0: 4760 5e3f 54d3 90be afd3 353e 0308 c5bd
000001c0: ec91 8fbc 7bab fc3d 5424 063f 6cd1 d33d
000001d0: e2a8 66bf 827c c0bd 2c42 163e ce8c f8be
000001e0: 4708 bd3e b5dd a2bf f928 dc3e 45d2 f13b
000001f0: 33b6 0cbf c7e9 203f 19bb 4d3f 6752 383d
00000200: bc6e 1f3f dece 033f 62bc 3a3f f31e 833d
00000210: d100 24bc 9266 20be 3816 60bf 9f3e 2dbf
00000220: eb87 59bf 5218 ce3e d468 efbe 2739 b73e
00000230: 9e12 9f3f 71d0 f33d ef10 e03e a24a b43d
00000240: 918a ea3e 028f 553f 336d b63e ed8d cf3c
00000250: 3ff0 5b3f c6ef 633e f654 523f c09f 6b3e
00000260: a310 1dbf fc03 91bf 26a3 2f3e 17bb 5b3e
00000270: c683 f63e
0.24369326 -0.10827548 -0.3209186 -0.1538567 -0.8401638 0.2718486 -0.29608276 -0.5127886
1.078181 -0.5783612 -0.554394 0.11064237 -1.019547 0.76569486 -0.012727011 0.07484139
-0.4065199 0.52097064 0.37373978 -1.1817043 -0.19044034 -0.709728 -0.51655 0.49957255
0.105130665 1.2038407 -0.15118909 -0.015699022 -0.3463918 0.29797405 -0.79199886 0.3191563
-0.10003068 -0.65406185 -0.44282252 -0.058140352 -0.8224339 0.03136464 -0.28191242 -0.48105857
-0.09463956 -0.15482414 -0.2779504 0.35110596 1.0505666 -0.3039674 -0.055962294 -0.3557345
0.026229864 1.0359778 0.3234127 0.13813162 -0.67194796 -0.17601298 -1.4503821 0.8221956
-0.8982038 -0.7379743 0.2745237 0.14651121 -0.37228778 -0.079283535 0.45247737 -0.24210727
0.42508912 -0.05810297 -0.2420507 -0.031169644 0.57345295 0.5936062 0.019340953 -0.5793575
-0.14850953 0.06521861 0.27702978 0.4040206 -0.011025687 0.10492408 -0.58673596 -0.42037562
1.3378682 0.8031271 -0.08382618 -1.1264138 -0.50095004 0.2852096 0.20497559 0.0057293386
0.31667772 0.17172647 0.0936791 -0.17293604 0.695666 0.36783367 0.550828 -0.76287127
-0.7208152 0.032265108 -0.70431596 -0.28061327 0.45503592 -0.29748333 0.6843692 -0.6637483
-0.17643312 -0.25108185 -0.047115844 0.06843206 0.8686566 -0.2828623 0.17756532 -0.09620669
-0.017525636 0.12337395 0.5239918 0.103426784 -0.90101445 -0.09398748 0.1467368 -0.48544925
0.36920378 -1.272391 0.4300001 0.0073798024 -0.54965514 0.62856716 0.80363613 0.04500046
0.6227834 0.5148753 0.729437 0.064023875 -0.01000996 -0.15664127 -0.87533903 -0.6767368
-0.8497302 0.4025293 -0.46759665 0.3578579 1.2427557 0.119049914 0.4376292 0.088032976
0.45808843 0.8342134 0.35630187 0.02533623 0.8591346 0.22259435 0.8216089 0.23010159
-0.6135351 -1.1329341 0.1715208 0.21458088 0.4814741
