pav_spkid_pytorch/lpcc_model_hsize_130_lr0001/e14_weights.ckpt (torch_old, 515082 bytes, 8 tensors)

0.weight f4 [130, 567]
0	0x3dbbd998	0.09172362
1	0xbd955163	-0.07290914
2	0xbdf740e3	-0.12072923
3	0x3c32ba9a	0.010908747
4	0x3d6b8b35	0.057505805
5	0xbd0cc038	-0.034363
6	0x3ed21340	0.41030312
7	0xbdd78f76	-0.1052541
8	0x3eaa86d4	0.3330599
9	0xbe622d89	-0.22087683
10	0xbef1aeef	-0.47203776
11	0xbde0435f	-0.1095035
12	0x3e04a730	0.12954402
13	0x3e198553	0.14992265
14	0x3e4101d1	0.18848349
15	0xbe8cb7d9	-0.27484015
16	0xbd509c9c	-0.050930604
17	0x3d4d1794	0.050071314
18	0xbe69ba15	-0.22824891
19	0x3ebd1bd6	0.369353
20	0xbe8aac8d	-0.2708477
21	0xbdd1a989	-0.102374144
22	0xbecd2eef	-0.4007487
23	0xbec6b4ee	-0.38809913
24	0xbef3d8e0	-0.476264
25	0xbe9b4a95	-0.3033034
26	0xbe13ce33	-0.14434128
27	0x3d930052	0.071777955
28	0xbdd69097	-0.10476797
29	0xbc80c52a	-0.015719015
30	0xbd4af599	-0.049550626
31	0x3d8dea68	0.06929475
32	0xbd3d587d	-0.046226967
33	0x3e5418ff	0.2071266
34	0xbcd57f2d	-0.026061619
35	0x3e13c62c	0.14431065
36	0xbe04e373	-0.1297739
37	0xbe4d4cd3	-0.20048837
38	0x3cab3465	0.020899007
39	0x3e1d776b	0.15377586
40	0x3dd7216b	0.10504421
41	0x3e432549	0.19057192
42	0xbe41acb2	-0.18913534
43	0xb958f516	-0.00020690667
44	0xbb80f178	-0.0039350353
45	0xbe5f8965	-0.21829756
46	0x3e065a00	0.1312027
47	0xbe15144f	-0.14558528
48	0xbd6b85e7	-0.057500746
49	0xbe936c93	-0.28793773
50	0xbe96f67b	-0.29484925
51	0xbe849d52	-0.25901276
52	0xbdf4f883	-0.11961462
53	0x3ca49836	0.020092111
54	0x3d8165f1	0.06318272
55	0xbda0ac1e	-0.07845329
56	0xbd3ce76a	-0.04611913
57	0xbc8d0807	-0.017215742
58	0x3bf7352f	0.007544182
59	0xbd9ba655	-0.07600085
60	0x3e36096a	0.17777029
61	0x3d3a7ae2	0.045527346
62	0x3e41e755	0.18935902
63	0xbe42f9e1	-0.19040634
64	0xbe4e7bed	-0.20164461
65	0x3c9c4bb1	0.019079061
66	0x3e0e7dc0	0.13915157
67	0x3e0f6d88	0.14006627
68	0x3e2150a0	0.15753412
69	0xbe2c7653	-0.16842012
70	0x3c913b20	0.017728388
71	0x3d375e72	0.044767804
72	0xbe721e1b	-0.23644297
73	0x3e13e110	0.14441323
74	0xbe2fa9c5	-0.17154606
75	0xbdd08b8e	-0.10182868
76	0xbe8f37b7	-0.27972195
77	0xbeaaa060	-0.3332548
78	0xbe5af957	-0.21384178
79	0xbe34d72f	-0.17660211
80	0xbdf2d09a	-0.11856194
81	0x3d51ef0b	0.05125336
82	0xbd2da694	-0.04239519
83	0xbd20b382	-0.039233692
84	0x3d33176b	0.043723505
85	0xbb45243e	-0.0030081416
86	0xbde11358	-0.10990018
87	0x3e297380	0.16547966
88	0x3c4caf73	0.012493002
89	0x3e30d373	0.17268161
90	0xbe3dfc9f	-0.18553399
91	0xbe14f3b9	-0.14546098
92	0x3ce1c52d	0.027559841
93	0x3e104aa2	0.1409097
94	0x3e352539	0.1768998
95	0x3ddbe4a7	0.10736971
96	0xbe031e42	-0.12804511
97	0x3d5bfb26	0.05370631
98	0x3d0d8dcf	0.034559067
99	0xbe8a043d	-0.2695636
100	0x3d70c5dd	0.058782447
101	0xbe47c8e6	-0.1951023
102	0xbdad9c0b	-0.084770285
103	0xbe871436	-0.26382607
104	0xbeb8f9d9	-0.3612812
105	0xbe7a8d9e	-0.24468085
106	0xbe8fcc40	-0.28085518
107	0xbe180ba3	-0.14848189
108	0x3d84f4d4	0.0649201
109	0xbd685845	-0.056724805
110	0xbcf060c2	-0.029343013
111	0x3cfb7bc3	0.030698663
112	0x3bf1757f	0.007368743
113	0xbd9eea3c	-0.077595204
114	0x3e030a1e	0.12796828
115	0xbd0a663c	-0.033788905
116	0x3e408e4d	0.18804283
117	0xbe359652	-0.17733124
118	0xbe28ed67	-0.16496812
119	0x3d61efcd	0.055160332
120	0x3e29d708	0.16585934
121	0x3e75d34c	0.24006385
122	0x3e1d4dd5	0.15361722
123	0xbddeee97	-0.10885351
124	0x3cabd720	0.020976603
125	0x3bf5fe9d	0.007507159
126	0xbe4eb6c7	-0.20186912
127	0x3d5c481d	0.05377971
128	0xbe506a31	-0.20353009
129	0xbe07adad	-0.13249846
130	0xbea0473c	-0.31304348
131	0xbeb55abb	-0.35420784
132	0xbe89c6c2	-0.26909453
133	0xbe668400	-0.22511292
134	0xbe11d339	-0.14240731
135	0x3af42229	0.0018625903
136	0xbcc0f217	-0.023552937
137	0x3c3cdf24	0.01152781
138	0x3d224429	0.039615784
139	0x3bca8bbb	0.006181208
140	0xbde5a412	-0.112129346
141	0x3df9a921	0.12190462
142	0xbdb2490b	-0.08705338
143	0x3e611dd2	0.21984032
144	0xbe4905aa	-0.19631067
145	0xbe1892b3	-0.14899711
146	0x3d4a2b49	0.049357686
147	0x3e55041f	0.20802353
148	0x3e5ca132	0.21545866
149	0x3e0d9df4	0.13829786
150	0xbe2f8e78	-0.17144191
151	0x3cf2f19d	0.029656226
152	0xbd947ab9	-0.0724997
153	0xbe70412b	-0.2346236
154	0x3e129e7f	0.14318274
155	0xbe39bf39	-0.18139352
156	0xbdc728cf	-0.097245805
157	0xbe91b32c	-0.2845701
158	0xbeb7c187	-0.35889837
159	0xbe42b3ae	-0.19013855
160	0xbe61f80e	-0.22067282
161	0xbe162082	-0.14660838
162	0x3d7f1171	0.062272493
163	0xbca12a81	-0.019673588
164	0xbc9378bc	-0.018001907
165	0x3c635329	0.013874807
166	0x3d9cb90c	0.076524824
167	0xbdad7340	-0.08469248
168	0x3e18a998	0.14908445
169	0xbda2d686	-0.07951073
170	0x3e85a8e9	0.2610543
171	0xbe11f3d8	-0.14253175
172	0xbdf52633	-0.119701765
173	0x3d1d2ba0	0.038371682
174	0x3e6849aa	0.2268435
175	0x3e8247b0	0.25445318
176	0x3e1ed58c	0.15511149
177	0xbe5f7e9b	-0.2182564
178	0x3d021e1f	0.031767007
179	0xbddabd29	-0.10680611
180	0xbe8e1e2c	-0.27757394
181	0x3dfc7abc	0.12328097
182	0xbe237550	-0.1596272
183	0xbd94da05	-0.072681464
184	0xbea01595	-0.31266466
185	0xbea3fc72	-0.32028538
186	0xbe477bbe	-0.19480798
187	0xbe542b9d	-0.20719762
188	0xbdca75e8	-0.0988577
189	0x3d8f2d10	0.06991017
190	0xbc01071d	-0.007875231
191	0x3cefae36	0.029257875
192	0x3d5d3e8d	0.05401473
193	0x3d76892d	0.060189415
194	0xbd9d4564	-0.07679251
195	0x3e01598f	0.1263182
196	0xbdb10d2d	-0.08645091
197	0x3e810e46	0.25206202
198	0xbe117471	-0.14204575
199	0xbde2942a	-0.11063416
200	0x3cd33e69	0.025786595
201	0x3e3b3db1	0.18285252
202	0x3e5a6fc0	0.21331692
203	0x3db2ed10	0.08736622
204	0xbe7b940c	-0.24568194
205	0x3c2eb6bc	0.010663684
206	0xbdc19ae0	-0.09453368
207	0xbe548057	-0.20752083
208	0x3e00a051	0.12561156
209	0xbe626d36	-0.22111973
210	0xbd7a5b36	-0.06112214
211	0xbe9496b1	-0.29021218
212	0xbe718fa4	-0.23589951
213	0xbe54d85f	-0.20785664
214	0xbe2a5ff4	-0.16638166
215	0xbe08253d	-0.13295455
216	0x3d999aa3	0.07500198
217	0x3c21eeb4	0.009883571
218	0x3cd84962	0.02640218
219	0x3c95994f	0.01826158
220	0x3cb676d7	0.022273464
221	0xbd97be94	-0.07409397
222	0x3e0b0a2d	0.135781
223	0xbde01d36	-0.109430715
224	0x3e9a12e2	0.3009253
225	0xbde09378	-0.109656274
226	0xbde39915	-0.111131825
227	0xbd2d4c4f	-0.0423091
228	0x3e4af504	0.19820029
229	0x3e46206a	0.19348302
230	0x3d875e3e	0.06609772
231	0xbe5f5d1a	-0.21812859
232	0x3c8f449a	0.017488766
233	0xbe04e17f	-0.12976645
234	0xbe5d1918	-0.21591604
235	0x3e05335b	0.13007872
236	0xbe72a866	-0.23697051
237	0xbcd769d1	-0.026295574
238	0xbe8030d8	-0.25037265
239	0xbe329a0e	-0.1744158
240	0xbe582b30	-0.21110225
241	0xbe821531	-0.25406793
242	0xbe0a0033	-0.13476638
243	0x3b3b241a	0.0028555454
244	0x3bdbc135	0.0067063817
245	0xbd407326	-0.046984814
246	0xbb4af796	-0.0030970327
247	0x3ca51ac3	0.020154363
248	0xbde4ad77	-0.11165898
249	0x3e315651	0.17318083
250	0xbe115cec	-0.14195603
251	0x3e9913df	0.29897973
252	0xbe1859f5	-0.14878066
253	0xbe0f6fe4	-0.14007527
254	0xbcfd0596	-0.030886453
255	0x3e2ed87e	0.17074773

0.bias f4 [130]
0	0xbf0f427e	-0.55960834
1	0xbd256a1d	-0.0403844
2	0x3e5bf0c2	0.2147856
3	0x3c4100a1	0.011779935
4	0xbea7213c	-0.32642543
5	0xba05c050	-0.0005102204
6	0xbcdec49f	-0.027193366
7	0xbd11b940	-0.03557706
8	0xbeb6cee4	-0.3570472
9	0xbdd7a726	-0.10529928
10	0xbd1d08f1	-0.038338605
11	0xbf21619e	-0.63039577
12	0xbd3dd368	-0.04634419
13	0x3c55918d	0.01303519
14	0xbe1c3e3e	-0.15258119
15	0xbc79b998	-0.015242003
16	0xbda25bac	-0.07927641
17	0xbec1ddb3	-0.37864456
18	0xbb175e9d	-0.0023097165
19	0x3f270ff3	0.6525871
20	0xbecdf01a	-0.40222245
21	0xbe987f38	-0.2978456
22	0x3e975e4b	0.29564127
23	0x3d39f16c	0.045396253
24	0xbd15ef9a	-0.036605455
25	0xbd3d6116	-0.046235166
26	0xbe3408c7	-0.17581473
27	0x3bd4f0f0	0.0064984486
28	0xbb8d7161	-0.0043164943
29	0x3cadda86	0.021222364
30	0xbbbc9438	-0.0057549737
31	0x3de71d34	0.11284867
32	0x3cd21a9c	0.025647454
33	0xbf0fed26	-0.56221235
34	0x3dfea44b	0.1243368
35	0x3e6b7631	0.22994305
36	0xbcca63f3	-0.024705863
37	0xbca90e71	-0.020636769
38	0x3d048cd2	0.03236086
39	0x3ea45597	0.3209655
40	0x3d6b0fd9	0.05738816
41	0x3e67e621	0.22646381
42	0xbe9d445d	-0.3071622
43	0x3c6381f1	0.013885961
44	0x3ba2b39c	0.0049652588
45	0xbd0afdac	-0.033933327
46	0xbe992b96	-0.29916066
47	0xbe66a166	-0.22522506
48	0xbebec05e	-0.3725614
49	0x3e17e2c1	0.14832594
50	0xbf00e0e5	-0.5034316
51	0xbc7a3e5d	-0.015273658
52	0x3bcb9585	0.0062128925
53	0xbf162568	-0.5865083
54	0xbdb4e85e	-0.08833383
55	0x3dd0b2d2	0.10190357
56	0x3e888ef9	0.2667158
57	0xbd9ca0eb	-0.0764788
58	0xbe1b77ed	-0.15182467
59	0x3f5acb66	0.8546661
60	0xbd127ee3	-0.03576554
61	0x3df1388e	0.11778365
62	0xbcc48a96	-0.023991864
63	0x3e408bcb	0.18803327
64	0xbcecf57d	-0.028925652
65	0x3b51f290	0.0032035448
66	0xbb282614	-0.0025657462
67	0xbe42bf82	-0.19018367
68	0x3e68cbf1	0.22734047
69	0xbf1b4482	-0.6065141
70	0xbccf4a1b	-0.02530389
71	0xbd539456	-0.051655136
72	0xbc9e93f9	-0.019357668
73	0xbd72dc8f	-0.059292372
74	0xbd2a5d59	-0.04159293
75	0xbe530bdd	-0.20609994
76	0xbc50a225	-0.012733971
77	0x3c9bfa5a	0.019040275
78	0x3e66fd68	0.22557604
79	0xbba19b13	-0.0049318164
80	0xbc8d7c96	-0.017271321
81	0xbe880e77	-0.26573536
82	0xbbd50ce8	-0.0065017827
83	0xbe51a6fe	-0.20473859
84	0x3d81a868	0.06330949
85	0x3b06877b	0.002052753
86	0x3e8f7082	0.28015524
87	0x3ca8acab	0.020590147
88	0x3ccb3bc8	0.02480878
89	0xbe05f55b	-0.13081877
90	0x3e408ecb	0.18804471
91	0xbd03933f	-0.032122847
92	0x3e7922eb	0.24329726
93	0xbc925da9	-0.017866926
94	0x3d053c12	0.03252799
95	0x3e3879fa	0.1801528
96	0x3d41d5e9	0.04732314
97	0xbe028cfa	-0.12749091
98	0x3b175d57	0.0023096406
99	0x3ea15860	0.31512737
100	0xbe39363d	-0.18087097
101	0x3d87768b	0.06614407
102	0x3d2ccb7e	0.042186253
103	0xbedfa854	-0.43683112
104	0xbca975c7	-0.020686043
105	0x3c5d9864	0.013525102
106	0xbe9368c2	-0.2879086
107	0x3d0a37db	0.033744674
108	0x3f01b0de	0.506605
109	0x3cd7431c	0.026277117
110	0xbcd0640f	-0.025438337
111	0x3c2bddda	0.010489905
112	0xbb8fbc21	-0.0043864404
113	0x3e93b4ff	0.28849027
114	0xbf16af6e	-0.58861434
115	0xbe1292ec	-0.14313859
116	0xbe4ec156	-0.2019094
117	0xbcc17d14	-0.023619212
118	0x3d837ba0	0.06420064
119	0xbf4e4c20	-0.8058491
120	0xbd6ab2c2	-0.057299383
121	0x3ecb1ff8	0.39672828
122	0x3ef0a1db	0.46998486
123	0xbea2d4be	-0.31802934
124	0xbde36d32	-0.11104812
125	0xbc22d074	-0.009937394
126	0xbf0ebcca	-0.5575682
127	0x3d8777cc	0.06614646
128	0xbf34feab	-0.7070109
129	0xbbd8df70	-0.0066184327

2.weight f4 [130, 130]
0	0xbe84774e	-0.25872272
1	0x39c7bf00	0.00038098544
2	0x3e814f68	0.25255895
3	0xbd4a5c54	-0.049404457
4	0x3e0b9aa3	0.13633208
5	0xbd0f9d00	-0.035061836
6	0x3dae64ed	0.08515344
7	0x3cefce80	0.029273272
8	0xbde53efe	-0.111936554
9	0xbdb027d6	-0.08601348
10	0xbdb56550	-0.088572145
11	0xbe06d269	-0.13166203
12	0x39cecab2	0.00039442402
13	0x3d890f4b	0.0669237
14	0xbd8d3645	-0.06895117
15	0x3d571ede	0.05251967
16	0xbcca4412	-0.024690662
17	0x3d26efe7	0.040756132
18	0x3d11d232	0.03560085
19	0xbdd80ff5	-0.105499186
20	0xbe2f0a08	-0.1709367
21	0xbd1fb227	-0.03898826
22	0x3d78c84d	0.060737897
23	0x3b31ada3	0.0027111552
24	0xbc15a8f8	-0.009134524
25	0x3caf8568	0.021425918
26	0x3e163ce4	0.14671665
27	0xbc08f878	-0.008360021
28	0xbd930442	-0.071785465
29	0xbd10517f	-0.03523397
30	0xbc8af6d4	-0.0169634
31	0x3e2ae5ba	0.16689196
32	0xbda89e92	-0.0823337
33	0xbd5dad4b	-0.054120343
34	0xbce9f8ad	-0.02856096
35	0x3e7ec2c2	0.24878982
36	0x3bad6f90	0.0052928403
37	0xbd3b78cf	-0.04576951
38	0xbd746d60	-0.05967462
39	0x3e1b1f3f	0.15148638
40	0xbe4ca50f	-0.1998484
41	0x3dfebaa5	0.12437943
42	0x3da49480	0.080361366
43	0x3d9bc123	0.07605197
44	0xbda674fa	-0.0812778
45	0xbd92ad8e	-0.07162009
46	0xbdc72dc1	-0.09725524
47	0xbd8fee0e	-0.07027827
48	0xbcc08330	-0.023500055
49	0xbc8c5cac	-0.017134033
50	0xbe22b20d	-0.15888233
51	0x3db875db	0.09006854
52	0x3d2c8a52	0.0421241
53	0x3dd526c8	0.104077876
54	0x3e14718b	0.14496438
55	0x3e93eff4	0.28894007
56	0x3e9c9ef3	0.3059002
57	0x3ddfb2cf	0.10922777
58	0x3e5ffdef	0.21874212
59	0x3d556d4c	0.052106187
60	0x3d98c5fb	0.07459637
61	0xbe0f25e9	-0.13979305
62	0x3e33a74a	0.17544284
63	0xbde9e780	-0.11421108
64	0x3e314e63	0.17315058
65	0x3d2c2c8e	0.04203468
66	0xbc1e6680	-0.009667993
67	0xbd9d6bba	-0.07686563
68	0xbef7d9c2	-0.48408324
69	0xbd334f17	-0.043776598
70	0x3ba6f9d0	0.005095698
71	0xbe315d30	-0.17320704
72	0xbd852eca	-0.06503065
73	0x3e38c911	0.18045451
74	0x3bd057f0	0.006358139
75	0x3ca0a55e	0.019610103
76	0x3d4df172	0.05027909
77	0xbd90b9b1	-0.07066668
78	0xbddd2131	-0.107973464
79	0xbd9d0ea3	-0.07668807
80	0xbd199680	-0.037497044
81	0xbdc972e8	-0.0983637
82	0xbd8e5c53	-0.06951203
83	0xbe1e6ee8	-0.15471995
84	0x3e23da18	0.16001165
85	0x3df8d2f5	0.12149612
86	0x3e5df388	0.21674931
87	0xbd3d46cd	-0.0462101
88	0x3d8f2497	0.06989401
89	0x3e36d78d	0.17855664
90	0x3e1380b2	0.14404562
91	0xbd0ecce3	-0.034863364
92	0x3d2b1663	0.041769397
93	0x3d949b63	0.072562
94	0xbca10114	-0.019653834
95	0x3e21939f	0.15778969
96	0xbc8cc417	-0.017183347
97	0x3d29da00	0.041467667
98	0x3be8f9e6	0.0071098683
99	0xbd658521	-0.056035165
100	0x3e122ce4	0.14274937
101	0xbe44d5b4	-0.19222146
102	0x3de8c326	0.113653466
103	0x3d2ddb69	0.042445574
104	0x3ced8620	0.02899462
105	0xbd03d824	-0.03218855
106	0x3de129cc	0.109943
107	0xbd3281d4	-0.043580845
108	0x3e03bfc2	0.12866119
109	0xbd915558	-0.07096356
110	0x3d48a336	0.048983775
111	0x3b1ca7a0	0.0023903623
112	0xbcc15ba0	-0.02360326
113	0xbe41b08e	-0.18915007
114	0xbe2cfb87	-0.16892825
115	0xbc9f3baa	-0.01943763
116	0xbe01fee8	-0.12694895
117	0x3d62a552	0.055333443
118	0xbd457f15	-0.048216898
119	0xbd170b78	-0.03687617
120	0xbd505c59	-0.05086932
121	0x3e45ed69	0.19328846
122	0x3e964210	0.29347277
123	0xbe2f7a07	-0.17136393
124	0xbdf5954f	-0.11991369
125	0x39903400	0.00027504563
126	0x3da73040	0.081635
127	0x3d9faeec	0.077970356
128	0xbdb200b8	-0.08691543
129	0xbe8cf714	-0.27532256
130	0x3d0cce99	0.034376714
131	0xbd7f704b	-0.06236295
132	0x3d2a130b	0.041522067
133	0x3d197d86	0.037473224
134	0xbcf0140e	-0.029306438
135	0xbd0a870e	-0.033820204
136	0xbc991674	-0.018687464
137	0xbc951114	-0.01819662
138	0xbcb8f1b2	-0.022576187
139	0xbda9aebf	-0.08285283
140	0xbcfd2b07	-0.030904306
141	0x3cbac712	0.022800002
142	0x3b8c9870	0.004290633
143	0xbab49fe5	-0.0013780562
144	0xbd8fe7a8	-0.07026607
145	0x3d73a6d7	0.059485283
146	0x3c88976c	0.016673766
147	0xbd3b2162	-0.045686133
148	0xbdaeef5a	-0.085417464
149	0xbdd3bd95	-0.10338894
150	0xbd2cf1e0	-0.042222857
151	0xbd8cb049	-0.06869561
152	0xbcf21d31	-0.029554935
153	0xbda6e0be	-0.08148335
154	0xbd6e299c	-0.05814515
155	0x3d033962	0.032037146
156	0xbd846c55	-0.06465975
157	0xbd8a8378	-0.06763357
158	0xbd009ba8	-0.031398445
159	0x3d93978d	0.072066404
160	0xbc9d8b65	-0.019231508
161	0xbd071fe4	-0.032989398
162	0xbd950619	-0.07276554
163	0xbdb4a8c0	-0.08821249
164	0xbdb87841	-0.090073116
165	0xbd8d7974	-0.06907931
166	0x3c8c1ef4	0.017104603
167	0x3d60e232	0.054903217
168	0x3cb456b0	0.022013992
169	0x3d5a7116	0.053330503
170	0x3b026e3b	0.0019902128
171	0x3c17890e	0.009248985
172	0xbdc065be	-0.09394406
173	0xbd92b29c	-0.07162973
174	0x3cd6f474	0.026239611
175	0xbdb2d030	-0.08731115
176	0x3d4d37d6	0.050102077
177	0xbdd3cc12	-0.10341658
178	0x3ce7a7fd	0.028278345
179	0xbda6b159	-0.08139295
180	0xbc9d8fcf	-0.019233612
181	0x3da56811	0.0807649
182	0x3d91e693	0.07124057
183	0x3d05d911	0.032677714
184	0xbd7d4cc2	-0.06184078
185	0x3c0ca00b	0.008583079
186	0x3c6a64f7	0.014306298
187	0xbdb9d156	-0.09073131
188	0x3db896f7	0.09013169
189	0xbdce7184	-0.10080245
190	0x3da5b601	0.08091355
191	0xbdda7469	-0.10666735
192	0xbd09e8af	-0.03366917
193	0x3b131fc2	0.002244935
194	0xbcf91b93	-0.030408656
195	0xbd6a6ec1	-0.05723453
196	0x3d8c25d7	0.06843155
197	0x3d418be4	0.04725255
198	0xbd805dcb	-0.062678896
199	0xbd89bcf1	-0.06725491
200	0xbc99b7c0	-0.018764377
201	0xbdbb011a	-0.091310695
202	0x3c1766ad	0.009240788
203	0x3cbf38ab	0.023342451
204	0xbc8ff95d	-0.01757496
205	0x3d5af7c4	0.053458944
206	0x3d7ff09e	0.06248533
207	0xbd93352a	-0.071878746
208	0x393dadb8	0.0001808916
209	0x3d24ccfd	0.040234555
210	0xbd9e5c9e	-0.07732509
211	0x3cee7677	0.029109223
212	0x3d1ac98e	0.037789874
213	0xbdbadc8d	-0.09124098
214	0xbdf6f7e5	-0.12059001
215	0xbbb87d29	-0.0056301546
216	0xbcbf0a39	-0.023320304
217	0x3d72a93e	0.059243433
218	0xbd1bd5fe	-0.038045876
219	0xbdd5cb32	-0.10439147
220	0xbdf6b106	-0.12045483
221	0xbdb1a7ea	-0.08674605
222	0xbdb00aaf	-0.08595788
223	0xbd9d3d97	-0.07677763
224	0x3c845ba0	0.016156971
225	0xbd97a5af	-0.074046485
226	0xbd8d3e67	-0.06896668
227	0x3d37bbf0	0.044856966
228	0xbd96ce97	-0.07363623
229	0xbda46c69	-0.0802849
230	0xbd74d30a	-0.059771575
231	0xbd3ea8d1	-0.046547715
232	0xbda08e1a	-0.07839604
233	0x3b1693f2	0.0022976366
234	0xbd8f7904	-0.07005504
235	0xbdb0eb9f	-0.08638691
236	0x3d6d210b	0.05789284
237	0xbdb4ffc8	-0.08837849
238	0xbdf4bfbe	-0.119506344
239	0x3d69be76	0.057066403
240	0x3c96bcb0	0.01840052
241	0x3c853391	0.01625994
242	0x3abeb800	0.0014550686
243	0xbd8e78fd	-0.069566704
244	0x3c2eb891	0.010664121
245	0x3cacbfd0	0.021087557
246	0x3cd33a3c	0.025784604
247	0x3cfd6244	0.030930646
248	0x3d133a82	0.03594447
249	0x3ca9f2ad	0.0207456
250	0xbd9a2ce8	-0.075280964
251	0xbddb1b27	-0.10698538
252	0x3d384015	0.04498299
253	0x3d42a426	0.047519825
254	0x3c908ec0	0.017646194
255	0xbc82b478	-0.015955195

2.bias f4 [130]
0	0x3df9cd5c	0.12197372
1	0xbd6db81a	-0.0580369
2	0x3eea1e98	0.45726466
3	0xbdb4acdf	-0.08822035
4	0x3d7eca18	0.06220445
5	0x3f930284	1.1485143
6	0xbe8c62d9	-0.27419165
7	0xbea8b215	-0.32948366
8	0x3e2515e1	0.16121627
9	0xbddf3da7	-0.10900431
10	0x3e517b52	0.20457199
11	0x3d1d99bc	0.03847669
12	0x3f58dfb6	0.84716356
13	0xbeeb8536	-0.4600007
14	0xbd815f60	-0.063170195
15	0xbc564636	-0.013078263
16	0xbe1580da	-0.14599934
17	0xb9184e5f	-0.00014525045
18	0xbd97a3cc	-0.07404289
19	0xbd677e08	-0.056516677
20	0x3c88642d	0.01664933
21	0xbc206594	-0.009789843
22	0x3ef64e62	0.48106676
23	0xbd450e05	-0.048109073
24	0xbe275976	-0.1634272
25	0xbf6ca95f	-0.9244594
26	0xbedca67b	-0.43095765
27	0x3e8e3ba6	0.27779883
28	0x3d037f5f	0.032103892
29	0xbd7316ea	-0.059348024
30	0xbec582f2	-0.38576466
31	0xbc01b211	-0.0079159895
32	0x3c5b2b5e	0.013377039
33	0x3e6f8f28	0.23394454
34	0xbee8d9d9	-0.45478705
35	0x3e6b3f86	0.22973451
36	0xbea6b1fc	-0.32557666
37	0xbf1c3c88	-0.61029863
38	0x3df3cc13	0.119041584
39	0x3b89e372	0.004208022
40	0xbd8aa4f8	-0.067697465
41	0x3e8bd568	0.27311254
42	0xbe775de3	-0.24156909
43	0xbea1bb96	-0.3158843
44	0xbecba248	-0.39772248
45	0xbda44d77	-0.08022588
46	0x3e3e8918	0.18606985
47	0x3d773d9b	0.060361486
48	0x3f23ea11	0.6402903
49	0x3e57bbf5	0.21067794
50	0x3d55ba15	0.052179415
51	0xbe1e2d89	-0.15447058
52	0xbf09afd8	-0.5378394
53	0xbdcceb81	-0.10005856
54	0x3e652e79	0.22381009
55	0xbdedbfe7	-0.11608868
56	0x3c9416c5	0.018077264
57	0xbb5d61ac	-0.003378014
58	0x3ed8cdab	0.42344412
59	0xbee9d682	-0.4567147
60	0xbdda4b05	-0.1065884
61	0x3ec14b7d	0.37752905
62	0xbe020bda	-0.12699834
63	0xbe3c1b3b	-0.18369763
64	0x3c52b739	0.0128610665
65	0xbd7c521c	-0.061601743
66	0xbcad2132	-0.021133993
67	0x3e7e8e93	0.24859075
68	0x3e957a4b	0.29194865
69	0xbec11ebf	-0.3771877
70	0x3d73aee8	0.059492975
71	0x3dc316c9	0.0952583
72	0xbdbd82ef	-0.09253489
73	0xbc0dc83f	-0.008653699
74	0xbf10f80e	-0.566285
75	0xbd3be18f	-0.045869406
76	0xbeae9c08	-0.34103417
77	0x3e19c532	0.1501663
78	0xbe361bf9	-0.17784108
79	0x3ceb36aa	0.02871259
80	0x3e912e0d	0.28355446
81	0xbd860591	-0.065440305
82	0x3e6f255d	0.23354097
83	0x3e520c22	0.20512441
84	0x3efc959a	0.49332887
85	0x3e4ed792	0.20199421
86	0xbe113c2d	-0.14183111
87	0x3eb583ee	0.35452217
88	0xbd0e80f4	-0.034790948
89	0xbe2bce88	-0.16778004
90	0x3e937bee	0.28805488
91	0xbd0c7d81	-0.034299377
92	0x3d4c2d06	0.049847625
93	0xbd78082f	-0.06055468
94	0xbd3b1351	-0.04567272
95	0xbd27fd00	-0.041012764
96	0xbc4ebf6c	-0.012618881
97	0xbc8fbe64	-0.01754684
98	0x3b8dd126	0.004327911
99	0xbe43df78	-0.19128215
100	0xbcc4f44d	-0.024042273
101	0xbe229de0	-0.15880537
102	0xbdd6ad7e	-0.1048231
103	0xbd7457e7	-0.059654143
104	0xbbd2e204	-0.0064356346
105	0x3d1935e0	0.037404895
106	0xbe087773	-0.13326816
107	0xbe4c3288	-0.19941151
108	0x3dbc9375	0.09207813
109	0x3bf85d66	0.0075794933
110	0xbf0b6230	-0.544467
111	0xbe845792	-0.2584806
112	0x3ea331c3	0.31873903
113	0xbdbc030f	-0.09180271
114	0x3baf201a	0.005344403
115	0xbbb9da45	-0.0056717717
116	0x3d3ebe24	0.04656805
117	0xbe694eff	-0.22784041
118	0xbda4cb60	-0.08046603
119	0xbf1e247d	-0.61774427
120	0x3e14b431	0.14521863
121	0xbe281d84	-0.1641751
122	0x3f6b1649	0.9183088
123	0xbe4749e0	-0.19461775
124	0xbf0951d6	-0.53640497
125	0xbd14842e	-0.03625887
126	0x3e0e1d97	0.13878475
127	0xbd54cd6f	-0.05195373
128	0xbdf432fa	-0.119237855
129	0x3d90e8b7	0.07075637

4.weight f4 [130, 130]
0	0x3c9e74b3	0.019342756
1	0xbcae1ef4	-0.021254994
2	0xbe601171	-0.21881653
3	0xbd45fac2	-0.048334844
4	0xbca874cc	-0.020563506
5	0x3f0c0b91	0.5470515
6	0xbce247d4	-0.027622141
7	0xbde366d5	-0.11103598
8	0x3e6da72a	0.232083
9	0x3e56b5ea	0.20967832
10	0xbe91a2a6	-0.28444403
11	0xbd51dc52	-0.051235504
12	0x3ee8d708	0.45476556
13	0x3da9218d	0.082583524
14	0xbb8a3c86	-0.0042186407
15	0xbcd82300	-0.026383877
16	0xbe25ae30	-0.16179729
17	0xbd28c7bc	-0.041206107
18	0x3e76c6f2	0.24099329
19	0xbdb3e9de	-0.08784841
20	0x3c5b2876	0.013376346
21	0x3ee1aa5b	0.44075283
22	0xbeae9ab5	-0.34102407
23	0xbc7d06b5	-0.015443494
24	0xbd6e2157	-0.058137264
25	0x3e5e15ba	0.21687976
26	0x3c92b6f9	0.017909514
27	0xbeb8b2ac	-0.36073816
28	0xbd496927	-0.049172547
29	0xbd067717	-0.032828417
30	0x3ccb20e1	0.024795951
31	0xbd203696	-0.039114557
32	0xbe187727	-0.14889203
33	0x3d1cc639	0.038274977
34	0x3c61aff2	0.013774859
35	0xbd7112f5	-0.05885597
36	0xbe906436	-0.28201455
37	0xbd961b12	-0.07329382
38	0xbe98e339	-0.29860857
39	0xbc35d749	-0.011098691
40	0xbc4e2a90	-0.01258339
41	0xbdb25d34	-0.08709183
42	0x3e434d45	0.19072445
43	0x3c84fcc0	0.016233802
44	0xbba96202	-0.005169154
45	0xbd955775	-0.07292072
46	0xbdd284f3	-0.10279264
47	0x3e1d59aa	0.15366235
48	0x3cc33f21	0.023833813
49	0x3d06603f	0.03280663
50	0x3ccd4168	0.025055602
51	0xbe2783f2	-0.16358927
52	0x3d90c13c	0.070681065
53	0xbc36c950	-0.011156395
54	0xbe50efd1	-0.20403983
55	0xbe83f8c2	-0.25775725
56	0xbe2d577d	-0.16927905
57	0x3e3887f9	0.1802062
58	0x3de53f3f	0.11193704
59	0xbca49d42	-0.020094518
60	0x3dd57176	0.104220316
61	0x3e5cedc5	0.21575077
62	0x3d62e468	0.055393606
63	0x3e3a968a	0.18221489
64	0x3ba7c89d	0.0051203505
65	0xbe188d6b	-0.14897697
66	0xbd9d023e	-0.07666443
67	0xbe4fe620	-0.2030263
68	0x3e64cc63	0.22343592
69	0x3cc2f8e8	0.023800328
70	0x3c0f23b2	0.008736538
71	0x3dac0a6c	0.08400425
72	0x3c519e74	0.012794126
73	0xbb71b173	-0.003687945
74	0x3e2f081d	0.17092939
75	0x3d4cf13e	0.050034754
76	0xbe0f1b8f	-0.13975357
77	0x3d0f13f6	0.034931146
78	0xbcb07452	-0.02153984
79	0xbcc283cd	-0.023744488
80	0x3d6c0cd0	0.057629406
81	0x3d18d1c2	0.037309416
82	0xbcf9486a	-0.030430038
83	0xbcbe28db	-0.02321284
84	0x3d950e33	0.07278099
85	0xbe2270d4	-0.15863353
86	0xbd31954d	-0.043355275
87	0xbe0f0cb3	-0.13969688
88	0x3e349367	0.17634355
89	0xbd5d9ca1	-0.05410445
90	0x3d404cf7	0.0469484
91	0x3d837657	0.06419056
92	0x3ca53f47	0.020171775
93	0xbdd17922	-0.102281824
94	0x3f04f468	0.51935434
95	0xbc828b23	-0.015935486
96	0xba3fd900	-0.00073184073
97	0x3d8ef657	0.06980579
98	0x3e110f56	0.14166006
99	0x3cc9d108	0.024635807
100	0xbd3ec75f	-0.046576854
101	0x3e35f6c6	0.17769918
102	0x3d301208	0.042985946
103	0xbd5b7218	-0.053575605
104	0x3d2c7b8e	0.04211002
105	0xbdccf76a	-0.10008128
106	0x3e2a9f20	0.16662264
107	0xbe218d04	-0.1577645
108	0x3d015f05	0.03158476
109	0xbd8d07ad	-0.0688623
110	0x3d8fb0f4	0.07016173
111	0x3cc4c034	0.02401743
112	0xbcdd2d0f	-0.026999025
113	0xbd954388	-0.07288271
114	0x3d21670f	0.039404925
115	0xbb5c1980	-0.0033584535
116	0xbd95dd54	-0.073176056
117	0xba5f4472	-0.0008516974
118	0x3cb78bcc	0.022405528
119	0xbd3c21ab	-0.045930546
120	0xbe985a9c	-0.2975663
121	0x3c409057	0.011753163
122	0xbd67abd6	-0.05656036
123	0x3e2f3a93	0.17112188
124	0xbe0e463a	-0.13893977
125	0xbc39ab78	-0.011332385
126	0xbe824d61	-0.2544966
127	0x3b1133a0	0.0022156015
128	0x3e8c282f	0.27374408
129	0xbd97c581	-0.07410718
130	0x3de16ca9	0.110070534
131	0x3ce21c56	0.027601402
132	0x3d4bf41d	0.04979335
133	0x3d443357	0.047900524
134	0x3d19c479	0.037540887
135	0x3f0dc7a0	0.5538273
136	0x3da79ed9	0.08184595
137	0xbde1e7e5	-0.110305585
138	0xbe3f93ad	-0.18708678
139	0xbe27b839	-0.16378869
140	0xbc8fcf64	-0.017554946
141	0xbd1f41b5	-0.038881022
142	0x3da2d824	0.07951382
143	0xbc994868	-0.018711284
144	0x3e029577	0.12752329
145	0xbd895fbc	-0.06707713
146	0x3c39b7d7	0.011335335
147	0x3cfa4665	0.030551145
148	0xbcc481b6	-0.023987632
149	0xbde6302f	-0.11239659
150	0xbce8c505	-0.028414259
151	0x3d5dcacf	0.05414849
152	0xbd9c4f2a	-0.07632287
153	0x3da017be	0.078170285
154	0xbe208397	-0.15675198
155	0xbec771f1	-0.38954118
156	0x3df63e82	0.12023641
157	0x3c9fe2cf	0.01951733
158	0x3cebfb82	0.028806452
159	0x3b48c9fe	0.0030637975
160	0xbef0c072	-0.47021824
161	0xbd70ae18	-0.05875978
162	0xbe6ca2fb	-0.23109047
163	0x3cbb94d4	0.022898115
164	0x3d8ef8c8	0.06981045
165	0x3df12492	0.11774553
166	0xbd2e9b16	-0.04262837
167	0xbc8a028c	-0.016846918
168	0x3de3b09e	0.111176714
169	0xbcc193c8	-0.023630038
170	0xbc79eaaf	-0.015253707
171	0xbe411662	-0.18856195
172	0x3d523917	0.051323976
173	0x3e40b4c6	0.1881896
174	0xbdb2aab7	-0.087239675
175	0xbd8bda62	-0.068287626
176	0x3d9a5d36	0.0753731
177	0x3e1707fe	0.14749143
178	0x3dab96da	0.08378382
179	0x3e8dbe5d	0.27684298
180	0x3dbb373c	0.091413945
181	0xbdb2a48d	-0.08722792
182	0xbde1908e	-0.110139
183	0x3ce2b99e	0.0276764
184	0x3e874759	0.2642162
185	0xbe7ca9f9	-0.24674214
186	0x3e952f1f	0.29137513
187	0xbdb3ef6d	-0.08785901
188	0xbd7eda27	-0.062219765
189	0xbde52bb9	-0.1118998
190	0xbd3ff01c	-0.046859846
191	0xbdab4363	-0.08362462
192	0xbdbe4d26	-0.09292059
193	0xbe1ad829	-0.15121521
194	0x3d026ada	0.031840183
195	0x3e7b4286	0.24537095
196	0xbd8f0d4a	-0.069849566
197	0x3d822069	0.06353838
198	0xbcb2e0f9	-0.021835791
199	0x3e8ade4f	0.27122733
200	0xbe286500	-0.16444778
201	0x3e41eb98	0.18937528
202	0xbd2d79d6	-0.04235252
203	0x3db111f8	0.086460054
204	0xbe86f23b	-0.26356682
205	0xbd3cb0c0	-0.046067
206	0xbeb459e5	-0.35224834
207	0x3e34cd8f	0.1765654
208	0x3a83b634	0.0010048808
209	0xbda79e54	-0.081844956
210	0xbe098e62	-0.13433221
211	0xbd48987c	-0.048973545
212	0x3de28612	0.11060728
213	0x3eb95a9a	0.36201936
214	0x3e3de6ca	0.1854507
215	0xbdcfe1bd	-0.10150478
216	0x3e1bb419	0.1520542
217	0x3e81082a	0.2520154
218	0xbc06e146	-0.00823242
219	0xbe0a9b3a	-0.13535777
220	0xbdd91773	-0.10600176
221	0x3a5c67a2	0.00084077765
222	0xbc91e5c4	-0.017809756
223	0xbcb4f757	-0.022090597
224	0x3b28e429	0.002577076
225	0xbdc80f7d	-0.09768579
226	0xbd97fccc	-0.07421264
227	0x3bd1aea6	0.0063989935
228	0x3dc74572	0.097300425
229	0x3e501bf9	0.2032317
230	0xbe5cbe58	-0.21556985
231	0xbd493304	-0.049120918
232	0x3d58fd94	0.052976206
233	0x3c37edf8	0.01122617
234	0xbd2b5ca4	-0.041836396
235	0xbd8a2f11	-0.067472585
236	0xbd833d17	-0.06408136
237	0xbeabe528	-0.3357327
238	0x3b1b2188	0.002367111
239	0xbd146cf4	-0.03623672
240	0xbdcbd60c	-0.099529356
241	0xbcc81f06	-0.024428856
242	0xbe58f886	-0.21188554
243	0x3d9645fc	0.07337567
244	0xbc96fa22	-0.01842982
245	0x3d2317a6	0.039817475
246	0xbd2e523a	-0.042558886
247	0x3d870280	0.06592274
248	0xbd13e3ad	-0.0361058
249	0xbe492770	-0.1964395
250	0xba860da3	-0.0010227453
251	0x3bdd37f1	0.0067510535
252	0x3e8957d4	0.2682482
253	0x3e47f849	0.19528307
254	0xbe6d384b	-0.23166005
255	0xbd6d8c3e	-0.057995073

4.bias f4 [130]
0	0x3c842847	0.016132487
1	0x3f46bee2	0.77635014
2	0xbd80ed97	-0.06295317
3	0x3f267ce0	0.65034294
4	0xbd917cbf	-0.071038716
5	0x3f01cc75	0.507026
6	0xbebfa4b5	-0.3743035
7	0x3da37a39	0.079822965
8	0x3e8305f6	0.25590485
9	0x3e3b575f	0.18295048
10	0x3e51e01f	0.20495652
11	0xbd87c455	-0.06629244
12	0x3eb8ea7f	0.36116406
13	0xbd8a6c64	-0.06758955
14	0xbb476a12	-0.0030428213
15	0xbedd7c65	-0.43258968
16	0x3ccbcb8f	0.024877338
17	0xbdcab93d	-0.09898613
18	0x3ce89c63	0.028394883
19	0x3dd06c07	0.101768546
20	0xbcabe4bd	-0.020983094
21	0xbe4f12ef	-0.20222066
22	0xbd89a51c	-0.06720945
23	0xbf2356a0	-0.63804054
24	0xbed87ace	-0.42281193
25	0xbe619d26	-0.22032604
26	0x3f3538f2	0.70790017
27	0x3e20d18b	0.15704934
28	0x3e098d7f	0.13432883
29	0x3eeb7d57	0.45994064
30	0xbe0c5029	-0.13702454
31	0xbd42e927	-0.047585633
32	0xbda97748	-0.08274704
33	0xbec7fa61	-0.3905821
34	0xbdd53511	-0.10410512
35	0x3d6a63ee	0.057224207
36	0xbdb437f6	-0.08799736
37	0x3defaabf	0.11702489
38	0x3e6c9f17	0.23107563
39	0x3d0a9383	0.033832084
40	0xbdc1514d	-0.09439335
41	0x3e5e0009	0.21679701
42	0x3df7b75c	0.1209552
43	0xbd626b68	-0.05527821
44	0xbdb79c77	-0.0896539
45	0xbde04675	-0.109509386
46	0x3c7f8050	0.015594557
47	0x3e2c027a	0.1679782
48	0x3d06ff12	0.032958098
49	0x3f2e592d	0.6810482
50	0xbe16639d	-0.14686437
51	0xbcc691cc	-0.024239443
52	0x3f69ec4a	0.91376173
53	0x3c31d722	0.010854514
54	0x3eed3884	0.4633218
55	0xbe304604	-0.17214209
56	0xbd97d466	-0.07413559
57	0xbd5e74f1	-0.054310743
58	0xbd7e9a8d	-0.06215911
59	0x3e894ca3	0.26816282
60	0xbda79a9c	-0.08183786
61	0x3b3f865c	0.0029224372
62	0x3df4b4cd	0.119485475
63	0x3e89ad03	0.2688981
64	0xbd3cbdec	-0.04607956
65	0xbdac32e2	-0.084081426
66	0x3f1b7305	0.6072238
67	0xbd9b1d52	-0.07573952
68	0xbe39336a	-0.18086019
69	0x3e1e9389	0.15485968
70	0x3d55ffe6	0.052245997
71	0x3dc48b1f	0.09596848
72	0xbe858b8f	-0.26083037
73	0xbe107200	-0.14105988
74	0xbea53581	-0.32267383
75	0x3d25bc84	0.040462986
76	0x3d0760d8	0.03305134
77	0xbe8521cb	-0.26002344
78	0xbedba8b0	-0.42902136
79	0xbe749bbe	-0.23887536
80	0xbcc7003d	-0.024292106
81	0xbd161fb4	-0.03665133
82	0xbca00489	-0.019533413
83	0xbe138e5c	-0.14409775
84	0xbe7c1878	-0.24618709
85	0x3d859c0b	0.065239035
86	0xbdf87546	-0.12131743
87	0xba91d415	-0.0011125827
88	0xbe90c066	-0.28271788
89	0xbdd4e12b	-0.1039451
90	0xbd687510	-0.056752264
91	0x3eaa26b4	0.33232653
92	0x3ce6c758	0.028171226
93	0xbd184576	-0.037175618
94	0xbed9418e	-0.42432827
95	0xbdc1b936	-0.09459154
96	0x3f050389	0.5195852
97	0x3dec954e	0.11551915
98	0x3e3f2315	0.18665726
99	0x3df2d736	0.118574545
100	0xbd8c93b6	-0.06864111
101	0xbd86dcc6	-0.06585078
102	0xbf083836	-0.5321077
103	0xbda317fa	-0.079635575
104	0xbc0bc9c2	-0.0085319895
105	0xbe4ff71b	-0.20309107
106	0x3c89bc6d	0.016813481
107	0xbee7c14d	-0.45264664
108	0x3e5d6e7a	0.21624175
109	0x3e0ab942	0.13547233
110	0x3f5521b7	0.8325457
111	0xbe83c53b	-0.25736412
112	0x3e035806	0.12826547
113	0x3dd95a1b	0.106128894
114	0xbe228229	-0.15869965
115	0x3d5e494a	0.054269113
116	0xbe65eab3	-0.22452812
117	0xbe0c0777	-0.13674723
118	0xbd96d2d9	-0.07364435
119	0xbee34c63	-0.44394216
120	0x3ee15301	0.4400864
121	0x3ce705db	0.028201034
122	0xbe31aae6	-0.17350349
123	0x3e049288	0.12946522
124	0xbde5e3e1	-0.11225105
125	0xbec72785	-0.38897339
126	0xbdf7bd5d	-0.12096665
127	0x3ec9af24	0.39391434
128	0x3c69a80a	0.014261255
129	0x3e0b6aef	0.1361501

6.weight f4 [157, 130]
0	0xbe18748b	-0.14888208
1	0x3e1f6f2f	0.15569757
2	0xbdba5b9a	-0.09099503
3	0x3e0c2497	0.13685833
4	0x3e09b75d	0.13448854
5	0xbdf20e53	-0.118191384
6	0x3db39747	0.08769088
7	0x3c42a183	0.011879328
8	0x3d9bc5d5	0.07606093
9	0x3d2408c7	0.040047433
10	0xbd7fd688	-0.062460452
11	0x3d97d073	0.074128054
12	0x3d840758	0.06446713
13	0xbe263215	-0.16230042
14	0xbd8c5211	-0.068515904
15	0xbdbde781	-0.092726715
16	0xbe28b874	-0.16476613
17	0xbd968476	-0.07349484
18	0x3d580958	0.052743286
19	0xbe63ba45	-0.22239025
20	0x3e54190c	0.2071268
21	0xbdebdfac	-0.115172714
22	0x3d5caaea	0.053873934
23	0xbe6825a4	-0.22670609
24	0xbe63f561	-0.22261573
25	0xbe104885	-0.14090164
26	0xbd5ffcee	-0.054684572
27	0xbe3a697c	-0.18204302
28	0xbd84c259	-0.064823814
29	0x3e119ee1	0.14220764
30	0xbe9df77e	-0.30852884
31	0x3df1e28e	0.1181079
32	0xbe62ed2d	-0.22160788
33	0xbde21101	-0.110383995
34	0x3d29f8f2	0.04149718
35	0xbe0ef6a2	-0.1396127
36	0x3c09c60e	0.008409036
37	0xbe48e9ed	-0.19620486
38	0x3c1d5266	0.009602165
39	0xbd4994c8	-0.049214154
40	0xbe2635dc	-0.16231483
41	0x3e01c30b	0.12672059
42	0x3ea89589	0.32926586
43	0x3e28f293	0.16498785
44	0xbe571b79	-0.21006574
45	0xbe74fd35	-0.23924716
46	0xbdbaae4c	-0.09115276
47	0xbd45092e	-0.048104458
48	0xbd898047	-0.0671392
49	0x3e1b6a85	0.15177353
50	0xbe184bb3	-0.14872627
51	0x3e832082	0.2561074
52	0x3e0dee9d	0.13860555
53	0xbe573f17	-0.2102016
54	0x3dfa4ff1	0.12222279
55	0xbd55197d	-0.05202626
56	0x3de4bd1e	0.11168884
57	0xbe7a1121	-0.24420597
58	0xbe1153ae	-0.14192078
59	0x3e99d589	0.30045727
60	0xbe360929	-0.17776932
61	0xbcc7a42c	-0.024370275
62	0x3ce642ad	0.028107965
63	0xbdbc5e11	-0.09197629
64	0x3d1adec9	0.03781012
65	0x3d0d5f84	0.03451492
66	0x3dddbfac	0.10827574
67	0xbd963e4b	-0.073361
68	0x3b0ea3fc	0.0021765223
69	0xbde3fec8	-0.1113258
70	0xbd2d4c7d	-0.042309273
71	0xbe47347e	-0.19453618
72	0x3e6a65f8	0.2289046
73	0xbedfa21d	-0.4367837
74	0xbd50a1a0	-0.050935388
75	0xbd8eacaa	-0.06966527
76	0xbd24b863	-0.040214907
77	0xbe1dd5b5	-0.15413554
78	0x3e115414	0.1419223
79	0xbc1f8fee	-0.009738905
80	0xbb49bbae	-0.0030782032
81	0x3d37c000	0.04486084
82	0xbec9e32c	-0.3943113
83	0xbd482924	-0.04886736
84	0xbe28ecb8	-0.16496551
85	0x3cd2d907	0.025738252
86	0x3e005509	0.12532438
87	0xbd82a02f	-0.06378209
88	0x3e330a7b	0.17484467
89	0xbc4fdb08	-0.012686498
90	0xbdc2627d	-0.094914414
91	0xbd7184a0	-0.05896437
92	0xbd901571	-0.070353396
93	0xbdf75be3	-0.12078073
94	0x3e118a0b	0.14212815
95	0xbd4a0626	-0.04932227
96	0xbe0a9d64	-0.13536602
97	0xbc9c2cb8	-0.019064292
98	0x3c9d10da	0.019173075
99	0xbda66b97	-0.0812599
100	0xbd0acd36	-0.03388711
101	0x3dcd47fa	0.10023494
102	0xbd8c456a	-0.06849177
103	0xbdad796d	-0.08470426
104	0xbdac3eea	-0.084104374
105	0xbea6b836	-0.32562417
106	0x3db1c4cd	0.08680115
107	0xbc0870e4	-0.0083276965
108	0xbe251153	-0.1611989
109	0xbd5047ae	-0.05084961
110	0xbe14b581	-0.14522363
111	0xbb6f3bc8	-0.0036504138
112	0x3dfe29fa	0.1241035
113	0x3dd03c2c	0.10167727
114	0x3e3d72ee	0.18500873
115	0xbd8dcc54	-0.06923738
116	0x3e59131c	0.21198696
117	0x3e4f0e9f	0.20220421
118	0xbd4508c9	-0.04810408
119	0xbe914d0f	-0.28379104
120	0x3e6db8a0	0.2321496
121	0x3d422234	0.0473959
122	0x3c06f942	0.008238139
123	0xbd8f35ea	-0.06992705
124	0xbdb9c074	-0.09069911
125	0xbe9fed74	-0.3123585
126	0xbdba7102	-0.09103586
127	0xbdaf12a8	-0.0854848
128	0xbd1ec547	-0.038762357
129	0xbe41209c	-0.18860096
130	0x3c2da01a	0.010597253
131	0x3ba33d47	0.00498167
132	0xbd0b904a	-0.03407315
133	0xbdef2e55	-0.11678759
134	0xbd33c4b6	-0.04388877
135	0xbcb69326	-0.022286963
136	0xbd8bfa8d	-0.06834898
137	0x3e142d80	0.14470482
138	0x3d2f5f2e	0.04281538
139	0x3d2e944b	0.042621892
140	0xbe388256	-0.18018469
141	0xbda4e7ba	-0.08052011
142	0x3db988ba	0.09059282
143	0x3dacbc71	0.0843438
144	0x3d8a0226	0.06738691
145	0xbc7e2392	-0.01551141
146	0x3d4395b0	0.047750175
147	0xbdd343b2	-0.10315646
148	0x3d8cf3ab	0.068824135
149	0x3a5bce20	0.0008384902
150	0x3db0f162	0.0863979
151	0x3e668dc1	0.22515012
152	0x3dea5c75	0.11443416
153	0x3e2a5165	0.16632612
154	0xbe9c97a0	-0.3058443
155	0x3e106a49	0.14103045
156	0xbe81db45	-0.25362602
157	0xbe60adc6	-0.2194129
158	0x3e382191	0.17981555
159	0x3e0460a0	0.12927485
160	0xbc6cef56	-0.014461359
161	0x3a8b9017	0.00106478
162	0xbe9c7e2c	-0.30565012
163	0x3cb6ff61	0.022338571
164	0xbc094938	-0.008379273
165	0xbb2b2e5a	-0.0026120157
166	0xbdacb1a4	-0.0843232
167	0xbc670fa5	-0.014102851
168	0xbe17c003	-0.1481934
169	0x3dfe2603	0.12409594
170	0x3e41dbb7	0.18931471
171	0x3e4890a6	0.19586429
172	0xbdaaef18	-0.08346385
173	0xbdf98035	-0.12182657
174	0xbc4aa594	-0.012368578
175	0xbda2f978	-0.07957739
176	0xbe058ddb	-0.13042395
177	0xbe895798	-0.2682464
178	0x3d9bd0da	0.07608195
179	0xbe362e9c	-0.17791218
180	0xbe4d0f63	-0.20025401
181	0x3d473cd4	0.048641995
182	0xbec94565	-0.39310756
183	0xbdef4fb7	-0.11685126
184	0x3df8a2ab	0.121404015
185	0xbc9eb634	-0.01937399
186	0x3e19461b	0.1496815
187	0x3e08c8b4	0.13357812
188	0xbd91dd87	-0.07122331
189	0xbde45b6f	-0.11150252
190	0x3d1db64e	0.038503937
191	0x3d8c61fc	0.068546265
192	0xbe4bcb96	-0.1990188
193	0x3e260dfa	0.16216269
194	0xbc4e8c86	-0.012606746
195	0xbe91501b	-0.28381428
196	0xbe896075	-0.26831403
197	0xbdff65f5	-0.12470619
198	0x3dc44bea	0.09584792
199	0xbdf76c42	-0.120811954
200	0x3d0fb8e0	0.03508842
201	0x3dafd9fe	0.085865006
202	0x3dd6d979	0.10490698
203	0xbbc74d82	-0.0060822377
204	0x3cf96fa7	0.030448748
205	0x3d50adee	0.050947122
206	0x3da7de89	0.08196742
207	0xbd025920	-0.031823277
208	0x3e0b265f	0.13588856
209	0x3dbb9262	0.0915878
210	0xbdc16b12	-0.0944425
211	0x3dafdb6e	0.08586775
212	0xbd98bf2b	-0.074583374
213	0xbe719012	-0.23590115
214	0xbdaee740	-0.08540201
215	0xbe6a0b62	-0.22855905
216	0xbe35cfec	-0.17755097
217	0xbdb4fc51	-0.08837188
218	0xbdd1e2ef	-0.10248362
219	0x3d6e21ee	0.058137827
220	0x3d0cf41d	0.034412492
221	0xbd142f5d	-0.03617798
222	0x3d335da6	0.043790482
223	0x3e21f25f	0.15815113
224	0x3d9d1a3e	0.07671021
225	0x3ce26038	0.027633771
226	0xbdf980f9	-0.12182803
227	0x3cc52043	0.024063235
228	0xbe332893	-0.17495947
229	0xbde27859	-0.11058111
230	0x3ccbff7d	0.0249021
231	0x3c629f80	0.013831973
232	0x3e92766d	0.28605977
233	0x3dc37c9a	0.0954525
234	0xbdc10852	-0.09425415
235	0xbd27f8b4	-0.041008666
236	0xbb7965a1	-0.003805496
237	0xbde39a53	-0.111134194
238	0x3e136453	0.1439374
239	0xbd1f1a0d	-0.038843203
240	0x3e4f217c	0.20227617
241	0xbda417f2	-0.0801238
242	0x3cbb4ace	0.022862818
243	0xbe2d11f0	-0.16901374
244	0xbdb98e93	-0.09060397
245	0xbd396039	-0.04525778
246	0x3c5e2d1d	0.0135605605
247	0x3d763351	0.060107533
248	0xbda84922	-0.08217074
249	0x3e5266d4	0.20547038
250	0x3b85304b	0.004064595
251	0x3e0724ee	0.13197681
252	0xbbef24dd	-0.0072980956
253	0xbcbab26e	-0.02279016
254	0x3d3a7192	0.045518465
255	0xbdc42cdb	-0.09578868

6.bias f4 [157]
0	0x3ef6fdab	0.48240408
1	0xbe5fd06f	-0.21856855
2	0xbf047a25	-0.5174888
3	0xbd83ddb9	-0.064387746
4	0x3e4498a4	0.19198853
5	0xbeab5d95	-0.33469835
6	0xbeeb4614	-0.45951903
7	0x3cb1121f	0.021615086
8	0x3f28e774	0.6597817
9	0xbd486fc3	-0.04893471
10	0xbe95b28f	-0.29237792
11	0x3ed99095	0.4249312
12	0xbdc93352	-0.09824242
13	0x3e4fbac9	0.20286097
14	0x3e9b5be4	0.30343544
15	0x3d4acc07	0.049510982
16	0xbb37fe95	-0.0028075327
17	0x3e03ce22	0.12871602
18	0x3e6e9ae4	0.23301274
19	0xbdbd1cc5	-0.09234003
20	0xbf081f5e	-0.5317286
21	0x3df36142	0.11883785
22	0x3f0ddaf9	0.5541225
23	0xbe044420	-0.12916613
24	0x3eb7ac86	0.35873812
25	0x3f287d7b	0.6581647
26	0x3e4d9af6	0.20078644
27	0xbec984b7	-0.39359066
28	0x3f245710	0.64195347
29	0xbe775e3e	-0.24157044
30	0x3db38354	0.08765283
31	0x3d69440f	0.05694967
32	0x3ba58964	0.0050517786
33	0xbe165737	-0.14681707
34	0x3eb13b79	0.34615687
35	0x3d9a8e5f	0.075466864
36	0xbea7b630	-0.32756186
37	0xbef14103	-0.47119913
38	0x3d816839	0.06318707
39	0xbe8ccab0	-0.27498388
40	0xbed2352d	-0.41056195
41	0xbb9cae05	-0.004781487
42	0xbf1319ae	-0.5746106
43	0x3cffb2b3	0.03121314
44	0x3de7aec4	0.11312631
45	0xbdf2face	-0.118642434
46	0xbe83361f	-0.2562723
47	0xbd9291e5	-0.071567334
48	0xbec60e27	-0.38682672
49	0xbccdf9d7	-0.025143547
50	0xbe625adf	-0.22104977
51	0xbefd9946	-0.49531
52	0x3e23d1b3	0.15997963
53	0x3ed8c5db	0.42338452
54	0xbe16f00b	-0.14740007
55	0x3e89ceaa	0.26915485
56	0xb9992d1a	-0.00029216037
57	0xbe8b0892	-0.27154976
58	0xbe370184	-0.17871672
59	0x3ec40005	0.38281265
60	0x3d0405c1	0.03223205
61	0x3e1614ca	0.14656368
62	0x3dd31111	0.103059895
63	0x3d89be28	0.067257226
64	0x3e96d4cd	0.2945923
65	0x3ea0f7b2	0.31438977
66	0xbe9ab97e	-0.30219644
67	0x3eb424ad	0.3518423
68	0xbdb8d40a	-0.09024818
69	0x3f1361a1	0.57570845
70	0x3f122318	0.570848
71	0x3d6c7ccd	0.057736207
72	0xbec2e974	-0.38068736
73	0xbe950c07	-0.2911074
74	0x3e75a7c3	0.23989777
75	0x3e924e76	0.28575486
76	0xbda04f92	-0.07827677
77	0xbd8d1f15	-0.06890694
78	0xbe1757a9	-0.14779533
79	0x3d82fe42	0.06396152
80	0xbe91f9e6	-0.2851097
81	0x3f0422ba	0.5161549
82	0x3d455917	0.048180666
83	0x3cef844c	0.029237889
84	0xbc555477	-0.013020626
85	0x3eb6596a	0.35615093
86	0x3e149d82	0.1451321
87	0x3e57bd0a	0.21068206
88	0x3e8b6552	0.2722574
89	0x3e435ae7	0.19077645
90	0xbd898188	-0.06714159
91	0x3de44ad0	0.11147082
92	0xbe40cf80	-0.18829155
93	0xbe81caaa	-0.25349933
94	0xbded91e3	-0.11600091
95	0xbdead09b	-0.114655696
96	0x3e833070	0.25622892
97	0x3d07ddaa	0.03317038
98	0xbdbef8a3	-0.093247674
99	0xbe2e7b11	-0.17039134
100	0x3f1a6d14	0.6032269
101	0x3e19415c	0.14966339
102	0x3e072480	0.13197517
103	0x3d5340af	0.05157536
104	0xbe6ba81a	-0.23013344
105	0x3efe0e21	0.49620155
106	0xbe16d296	-0.1472877
107	0x3dc7bca3	0.097527765
108	0xbe3f0397	-0.18653713
109	0xbdea9ff4	-0.1145629
110	0x3dc61300	0.09671593
111	0xbe45fd83	-0.19334988
112	0x3dad17b0	0.08451784
113	0xbeccc0f2	-0.39990956
114	0x3df1cfce	0.11807214
115	0xbea28d6b	-0.31748518
116	0xbe3730a0	-0.17889643
117	0xbd6dc4d8	-0.058049053
118	0xbe394610	-0.18093133
119	0xbe34dcfc	-0.17662424
120	0x3e807866	0.25091857
121	0xbf0046ea	-0.50108206
122	0xbdd81f5b	-0.105528556
123	0x3f1db46c	0.61603427
124	0xbe9c6030	-0.30542135
125	0xbdc3b895	-0.095566906
126	0xbbdf959b	-0.0068232543
127	0xbf0709b2	-0.5274917
128	0xbe3bf22e	-0.18354103
129	0xbe30cf61	-0.17266609
130	0xbeb20055	-0.34765878
131	0x3e2fbcf9	0.17161931
132	0xbe66368b	-0.22481744
133	0xbdeefce3	-0.11669328
134	0xbea5d3c8	-0.3238814
135	0xbedb1a8e	-0.42793697
136	0x3e1edac6	0.15513143
137	0x3db0b9c8	0.08629185
138	0xbeb481f3	-0.35255393
139	0xbec87a52	-0.39155823
140	0x3e756ed5	0.2396806
141	0xbeb23940	-0.34809303
142	0x3f488a8e	0.7833642
143	0xbd7a0eae	-0.061049156
144	0xbcde369b	-0.027125647
145	0xbd2a8f3a	-0.041640498
146	0x3d7f5713	0.0623389
147	0xbd47cf1b	-0.048781496
148	0x3f26dfbe	0.65185153
149	0xbeb87dfc	-0.36033618
150	0xbb8835ab	-0.0041567883
151	0x3e8c865b	0.27446255
152	0xbecca256	-0.39967602
153	0xbedcd509	-0.43131283
154	0x3ef1edf9	0.4725187
155	0xbf0690fb	-0.5256497
156	0x3dccbbef	0.09996783
