pav_spkid_pytorch/lp_model_hsize_250_lr000125/e11_weights.ckpt (torch_old, 850838 bytes, 8 tensors)

0.weight f4 [250, 189]
000000 57 29 bf 3c 74 1e 60 bf 41 29 10 3f 14 5f b3 be
       0.023335142 -0.8754647 0.5631295 -0.35033476
000010 98 8c 00 3f d3 2e f6 bb 4c d9 39 3f ca 8f d4 be
       0.5021453 -0.007512906 0.72597194 -0.41515952
000020 33 89 8a 3f 81 c3 39 3c 5e 7b 2c bf 63 19 a0 3e
       1.082312 0.011338116 -0.67375743 0.3126937
000030 7c ca 36 be d9 88 8d 3e 38 d6 b2 3d d7 80 f0 3e
       -0.17850679 0.2764347 0.08732265 0.46973297
000040 0f 02 22 be e0 0d 96 3f 61 5b b7 3b 27 c3 2c bf
       -0.15821098 1.1722984 0.00559561 -0.6748528
000050 f9 75 45 3e 68 91 88 bd 25 a4 7f 3e 74 b1 9b 3c
       0.19283284 -0.06668359 0.2496496 0.019005515
000060 ae 65 be 3e 1f 3a 2a 3e f8 15 a9 3f ae b8 52 3c
       0.3718695 0.16623734 1.3209829 0.012861414
000070 5e a5 42 bf 11 dd e9 3d 95 e2 8d be 50 bd 97 3e
       -0.7603358 0.11419118 -0.2771193 0.2963662
000080 f1 61 71 be 56 76 db 3e d6 d3 a5 3e 6b 98 c0 3f
       -0.23572518 0.4286372 0.3238818 1.5046514
000090 41 bd 57 3d f8 0d 71 bf 4a 5b 53 be e1 68 c2 bc
       0.05267072 -0.9416194 -0.20640293 -0.02373165
0000a0 74 37 8e be f5 67 2d 3e 5c cf 06 be f9 82 8b 3f
       -0.27776682 0.16934188 -0.13165039 1.0899345
0000b0 aa c7 c0 3f 58 d7 68 bf 06 28 72 bf 73 be fc be
       1.5060933 -0.9095359 -0.9459232 -0.4936405
0000c0 96 8a 97 3e b1 12 82 bf 0e f5 0d 3f c9 fe 0c bf
       0.2959792 -1.0161954 0.5545205 -0.5507627
0000d0 4f 49 d2 3f 0a 78 a7 3f 3b d9 6b bf 19 51 1b bf
       1.6428622 1.3083508 -0.9212834 -0.6067062
0000e0 cf 64 0c bf 0f 29 0b 3f 9f cc 95 bf bb 7b 3b 3f
       -0.5484132 0.54359525 -1.170307 0.7323567
0000f0 08 2e 1b bf 4b 0e c6 3f a8 31 b9 3f 22 90 eb 39
       -0.60617113 1.5473112 1.4468279 0.0004493008
000100 75 6b eb be 4d 24 54 be bd 30 f8 3e 8c a9 dd be
       -0.4598042 -0.20716973 0.48474684 -0.43293417
000110 e1 de fe 3e 21 c7 08 bd 9c bb 49 3f 10 a0 a6 3f
       0.49779418 -0.03339303 0.78801894 1.3017597
000120 e0 9c d8 3b 61 08 20 be 8c 1d ea 3e 24 ac 48 3e
       0.006610498 -0.15628196 0.45725667 0.19596916
000130 83 99 58 3e 40 cd cf 3e 66 04 0b 3f 3d eb 8e 3e
       0.2115231 0.4058628 0.54303586 0.27913848
000140 24 8b bb 3f 68 16 72 3c 03 42 a5 bc de 38 39 3f
       1.4651837 0.01477585 -0.020173078 0.723524
000150 dd 9a 91 3d 4e 79 1d 3f 0b 43 34 3e 35 bf 53 3f
       0.07109616 0.6151322 0.176037 0.82713634
000160 37 38 9f bd c8 2a b4 3f 97 62 94 3c 47 49 ec bd
       -0.07774394 1.4075556 0.018113418 -0.11537414
000170 f3 e5 27 3f 63 65 55 be 85 26 00 3f d1 8e 34 3e
       0.6558525 -0.20839457 0.50058776 0.17632605
000180 fa a0 68 3f 0b 6b 79 3d 2f 8f 86 3f 3a 25 02 ba
       0.9087063 0.0608931 1.0512446 -0.00049646536
000190 53 3e 7b be 02 86 32 3f 56 aa 1d be 3c 4e 97 3e
       -0.24535494 0.6973573 -0.15397009 0.29551876
0001a0 5f d8 84 3e a7 0c 62 3f dd 6c 37 3d cf fa 64 3f
       0.25946328 0.88300556 0.044781554 0.89445204
0001b0 ac b6 d9 3b 45 09 d7 be 4a bd 0b 3f 12 4a 24 bd
       0.0066440906 -0.4199926 0.5458571 -0.0401097
0001c0 4c 4d 82 3e 6c 43 79 3e 27 bc 5e 3f 30 04 5a 3d
       0.25449598 0.24342126 0.8700585 0.05322665
0001d0 fe eb 49 3f 9e 4f d7 3a c7 56 a0 be f1 50 c1 3e
       0.7887572 0.0016426926 -0.31316206 0.37757066
0001e0 b4 73 46 bc 0e d9 78 3e 36 32 f7 3e e3 55 1a 3f
       -0.012112547 0.2430155 0.48280495 0.602873
0001f0 7b af ab 3e 12 70 25 3f 3c 1d 74 3a 73 bd 9b be
       0.33532318 0.6462413 0.00093122176 -0.30417976
000200 c3 0e 87 3e 3f bd 15 3e 21 c9 4b 3c 15 03 f1 3e
       0.2637845 0.14622973 0.01243809 0.47072664
000210 73 35 06 3f 1a a5 05 3f f7 25 04 3f ac 43 65 3a
       0.5242531 0.5220505 0.5162043 0.00087457406
000220 5a f4 d8 be 1e b9 46 3e a7 43 5f 3d 07 f7 8f bc
       -0.42373925 0.19406554 0.054507878 -0.017573847
000230 6d 64 f7 3e 1c ac 1b 3f 8b 36 e9 3e 3a c1 00 3f
       0.48318806 0.60809493 0.45549425 0.5029484
000240 02 44 aa ba 55 3b 97 be a3 fd 6e 3e 11 1f 09 3e
       -0.0012990239 -0.29537454 0.23338942 0.13390757
000250 55 5a 84 bd 23 3d d8 3e 79 af e5 3e a7 6f e4 3e
       -0.06462542 0.42234144 0.44860438 0.44616434
000260 21 90 f5 3e a9 01 2d 3c 82 3f c8 be ee 56 7a 3e
       0.47961524 0.010559478 -0.39110953 0.24447224
000270 89 77 01 3d d0 7c 1b bb a0 7e 93 3e 81 37 13 3f
       0.03160814 -0.0023725517 0.28807545 0.5750657
000280 1f 2a 9d 3e f9 71 ec 3e 2e d6 74 3b e9 ab ed be
       0.30696198 0.46180704 0.0037359106 -0.4642022
000290 b1 1d 76 3e 8d 37 e9 3d d7 72 a3 bd 39 16 96 3e
       0.24034764 0.113875486 -0.07980888 0.2931383
0002a0 b0 58 01 3f a5 f9 a5 3e 7f e4 b7 3e 2f 89 44 bb
       0.5052595 0.32417026 0.35916516 -0.0029988994
0002b0 a2 1c e3 be 40 f8 72 3e 88 70 ce 3b 31 83 0e 3d
       -0.44357783 0.23727512 0.006300036 0.034793083
0002c0 e9 a4 92 3e ff ae 08 3f f2 cd 3b 3e b4 80 f8 3e
       0.2864144 0.5339202 0.1834028 0.48535693
0002d0 fd 28 ee 3b 67 31 10 bf 14 a2 df 3e a7 39 1f 3d
       0.00726807 -0.5632538 0.43678343 0.03887334
0002e0 86 7d 33 3e 82 13 14 3e a9 37 36 3f 98 af 19 bc
       0.17528352 0.14460567 0.7117868 -0.009380244
0002f0 02 a3 e0 3e 2c 94 3b bb fa da fa bd 09 73 d6 3e
       0.43874365 -0.0028622253 -0.12248798 0.4188464
000300 42 22 82 bc e2 ad 3c be 8b 40 56 3f 7f dc 9e bf
       -0.015885476 -0.18425706 0.83692235 -1.241104
000310 b4 b5 30 be f4 d2 e7 3f 04 6d 4e bc 63 ff ad bd
       -0.17256814 1.8111253 -0.012599234 -0.08495977
000320 fe 35 96 3e 37 e5 c5 bc ee db f7 bd ae 63 03 3f
       0.29338068 -0.02415715 -0.12102495 0.51323974
000330 3c 02 42 bf 83 6a 4a be 1e 19 ac 3f 62 bc 6f ba
       -0.7578466 -0.19767193 1.3445165 -0.00091451977
000340 d6 ea 74 bd 1c db bb 3e 0f ad 8e bd 23 f1 f4 bd
       -0.05979427 0.36690605 -0.06966602 -0.11960056
000350 91 1f d0 3e fb 77 49 bf de 5e 0e bd 84 74 97 3f
       0.40649083 -0.786987 -0.03475844 1.1832433
000360 6d 01 68 3d 4e ab 04 be 0e ff a5 3e 73 17 07 3d
       0.056641985 -0.12955973 0.32421154 0.032981347
000370 0c 4d ce bd cb 85 f0 3e b9 73 4c bf a5 d2 9c bd
       -0.10073289 0.46977076 -0.7986408 -0.07657365
000380 3b e5 95 3f 6a da f8 bc 2e 0a ce bd c8 83 83 3e
       1.171058 -0.030377585 -0.10060535 0.2568648
000390 83 83 68 bb 44 cd 50 be 95 36 f3 3e e3 4d 4a bf
       -0.0035478778 -0.20390803 0.4750258 -0.79025096
0003a0 7c 9f 51 bd 5c 5e 93 3f 96 49 31 3d 31 c4 f7 bd
       -0.051177487 1.1513171 0.043283068 -0.120979674
0003b0 46 ed 88 3e de f3 92 bd b2 ed fa bd bc 11 14 3f
       0.26743525 -0.0717542 -0.12252368 0.5783956
0003c0 ad 43 45 bf bc 58 c3 3d 0e 72 9e 3f aa e3 e2 bc
       -0.7705639 0.09538409 1.2378557 -0.02769645
0003d0 77 71 09 bd 19 50 9e 3e 4f c7 79 3d db 8f 49 be
       -0.033555474 0.30920485 0.06098109 -0.19683783
0003e0 1e 32 26 3f aa 02 58 bf ce 9d 07 3e 12 94 a6 3f
       0.6492022 -0.84379065 0.13243791 1.3013937
0003f0 48 28 7c ba 52 b7 75 bd a0 5d 52 3e 21 7b 65 3d
       -0.00096190395 -0.05998928 0.20543528 0.056025628

0.bias f4 [250]
000000 05 13 f6 3f c4 35 f9 3d 46 c1 18 3f 15 88 04 bf
       1.9224554 0.12168458 0.5966991 -0.51770145
000010 cc 1c fe 3b a4 49 6b be 07 c5 89 bc 90 b2 0a 3d
       0.0077548977 -0.2297731 -0.016817583 0.033861697
000020 6e 9d 11 bd ba f6 21 3f 75 68 96 3f af cd f8 bd
       -0.035550527 0.632671 1.1750628 -0.12148606
000030 a1 4c cd 3f a0 36 3c bf 27 36 5e be 11 63 a1 bf
       1.603901 -0.7352085 -0.21700345 -1.2608358
000040 b4 a9 d6 bd ab 10 e7 3e 28 92 ca 3f 2a af a2 3f
       -0.10481587 0.45129904 1.5825853 1.2709706
000050 16 9a cb bd cc bf a2 bd 4c 87 d4 3f 90 94 87 3e
       -0.09941499 -0.079467386 1.6603789 0.26480532
000060 9c 31 09 3c b0 81 6f bd 23 3b 73 3f 6e 20 61 3d
       0.008373644 -0.05847329 0.9501211 0.054962568
000070 8e c0 1b 3f 81 1d 71 bf 2f e0 08 3f f2 a9 4c bf
       0.6084069 -0.94185644 0.53467077 -0.79946816
000080 6a a2 1b be c2 4e 67 3e 25 92 39 3e 23 77 37 3f
       -0.15198675 0.22588637 0.18122156 0.71666163
000090 03 ca 04 bf dd 59 95 3e 36 80 31 bf 40 9b 42 3b
       -0.51870745 0.29170123 -0.6933626 0.0029694587
0000a0 42 92 d3 3d 30 c3 6d 3d 2e 79 19 be 57 c1 22 3f
       0.10330631 0.058047473 -0.14987633 0.63576263
0000b0 4d 85 0d 40 91 f3 e1 be 53 e6 6c bd 3e 60 bf 3f
       2.211261 -0.4413114 -0.05783684 1.4951246
0000c0 ea 1d 71 3f 20 5c 96 3d a2 bc 93 3d 94 21 12 be
       0.9418627 0.0734179 0.07213713 -0.14270622
0000d0 5b 39 90 bf f9 ec 83 3f 9c e6 64 bf 11 4f a1 3f
       -1.1267503 1.0306693 -0.8941438 1.2602254
0000e0 89 c9 e7 bc fb 1f be 3d 6a fc 6d bc 17 7a ce bd
       -0.028294342 0.092834435 -0.014525512 -0.100818805
0000f0 3a d1 50 3e 3e c0 52 3d 02 6f 36 bf 9c 98 18 3f
       0.20392314 0.051452868 -0.71263134 0.59607863
000100 b3 d1 73 be 02 f5 68 3d 80 64 3f bf 0d 2d 50 bf
       -0.23810463 0.056874283 -0.74762726 -0.8131874
000110 86 c0 6f bd 8f 9a 0d bf 60 4c d6 3c e5 5d 87 3f
       -0.058533214 -0.5531396 0.026159465 1.0575529
000120 fa ab 11 3e 9d 55 1a 40 50 96 18 3e 04 62 18 bf
       0.1422576 2.4114754 0.1490109 -0.5952456
000130 6f 87 f3 3d ae 12 21 3e e4 45 0e be 3e d0 b3 3d
       0.11891066 0.15729782 -0.13893849 0.087799534
000140 00 78 5b be 80 10 bf 3d 44 6a 95 bd b2 bb dc 3c
       -0.21432495 0.09329319 -0.07295659 0.026944969
000150 7f 81 bf bf 50 3d a2 3d 89 70 5c bf 97 53 1f 3e
       -1.4961394 0.07921851 -0.86109215 0.1555923
000160 d2 14 75 bf 07 07 43 3e df b1 15 3f 16 b6 6f 3d
       -0.95734894 0.1904565 0.58474535 0.05852326
000170 b6 e2 f9 3d f3 fc af 3e 41 b4 a8 3f 7f fc 10 bf
       0.12201445 0.34372672 1.3180009 -0.5663528
000180 1f a9 31 3f a4 49 cd 3d 6c a8 9f 3d f4 49 a3 3e
       0.69398683 0.100238115 0.07795796 0.3189236
000190 4d 27 df 3e 21 e0 98 3e b9 fa 21 40 09 8c 2a ba
       0.43584672 0.29858497 2.530928 -0.0006505852
0001a0 84 0f 1f 3e 32 e5 5d 3e 39 25 b7 bd df 09 a4 be
       0.15533262 0.21669462 -0.089426465 -0.3203878
0001b0 21 c4 ae be df 74 8d 3e 03 11 db 3e 88 07 85 3f
       -0.3413401 0.27628228 0.42786416 1.0392923
0001c0 ff 18 c4 3e b0 c7 c3 be 67 9d fb bb 00 92 da 3d
       0.3830032 -0.38238287 -0.007678676 0.106723785
0001d0 6e 4b 80 be 3a a0 58 be d4 b0 3f bf 99 f9 22 be
       -0.25057548 -0.21154872 -0.74879193 -0.15915526
0001e0 59 d4 e4 3e 04 24 88 be a5 d5 e5 be 1f 3b be 3f
       0.44693258 -0.26589978 -0.4488956 1.4861792
0001f0 b5 f2 98 bd 3f ba 89 3d 70 6a 99 bf b1 12 40 3d
       -0.07468168 0.06724977 -1.1985607 0.046892826
000200 9a 51 9d bd 5b de 53 3f de 41 84 3d 2d 1c 06 be
       -0.0768158 0.8276116 0.06457876 -0.13096686
000210 f3 1e e2 be 73 92 1e bd 58 89 4e 3e a7 fa 62 3d
       -0.44164237 -0.038713884 0.2016958 0.055414822
000220 ed f6 45 be 85 25 f1 3d b7 ec 05 bd 1a e1 92 3d
       -0.19332476 0.117747344 -0.032696452 0.07171841
000230 e3 d7 59 be 80 df 84 3e e9 2c d1 3e 3f 4f 55 bf
       -0.2127376 0.25951767 0.40854576 -0.83324045
000240 42 8a b6 3f 07 73 f0 be c9 3b ef 3e 9a 00 dd bd
       1.4260943 -0.4696276 0.467253 -0.1079113
000250 37 9b 37 3f 36 95 60 be 78 15 a7 bc 89 38 ab bd
       0.71721214 -0.2193192 -0.02039598 -0.083603926
000260 5f d3 b4 bc 15 56 8d be 51 7f 48 be a8 0c ac 3e
       -0.022073446 -0.27604738 -0.19579817 0.33603406
000270 cb 96 c9 bd d4 73 0d bc 06 38 22 3e 3f fb 9a 3b
       -0.098432146 -0.008633573 0.15841684 0.004729658
000280 42 51 5e 3d ae 05 42 bd 2a 82 ff be 36 e5 8a be
       0.054276712 -0.047368698 -0.49903995 -0.27128
000290 e0 b1 cf bd 92 61 d6 3e 27 2d f5 bd e3 4c 4c bf
       -0.10141349 0.41871315 -0.11971503 -0.7980482
0002a0 06 5b 18 40 7a c0 57 3e 8d 43 04 c0 3a f3 a1 bc
       2.3805556 0.21069518 -2.066623 -0.0197693
0002b0 4c 07 3d 3e 1b 32 c7 3d 29 28 9b bd 70 7f 8c 3d
       0.18459815 0.09726354 -0.07576019 0.06860244
0002c0 cb 27 7f be a0 68 c7 3f 82 43 9f bd 66 5c 92 3e
       -0.24917524 1.5578804 -0.07776548 0.2858612
0002d0 87 7b d2 3d 04 cf 22 3f cc d6 a5 3d 20 2d c1 bd
       0.10277467 0.6359713 0.0809761 -0.09432435
0002e0 32 99 c4 bf 8d c0 f1 3e 58 d5 ee 3d dd 5c cc bf
       -1.5359251 0.47217217 0.11661786 -1.596584
0002f0 53 d7 b7 3f 73 3a ae be b4 96 96 3e e3 1b 31 be
       1.4362587 -0.34028968 0.29411852 -0.17295794
000300 63 97 f1 3f 98 6f 8a 3f 11 fd 0a 3f ed c1 ff 3f
       1.8874325 1.0815306 0.542924 1.9981056
000310 0c e3 59 3c d0 a7 42 bf b9 f5 ae 3e 07 c7 1f 3e
       0.013298761 -0.7603731 0.34171847 0.15603267
000320 85 03 34 3f 07 c2 82 bf 61 e9 25 bd 98 64 fe 3e
       0.7031787 -1.0215462 -0.04050577 0.49686122
000330 97 f6 d8 be 1a 63 cb be 2a 5c 37 3d a0 9e 9f bf
       -0.42375633 -0.39724046 0.04476563 -1.2470284
000340 36 dc 11 3d 4b 3e 08 3f b1 a6 b0 be 3f a9 18 40
       0.0356104 0.5322005 -0.34502175 2.38533
000350 e8 ae 67 bd 1c 1e 93 be b2 d4 e0 bc c6 b0 95 3e
       -0.056563288 -0.2873391 -0.027445171 0.2923643
000360 22 52 27 3f 1b 20 81 bd 33 f7 85 3e 41 b6 4a 3f
       0.653597 -0.06304952 0.2616516 0.7918435
000370 b4 46 50 3f 7b 71 e8 3d 96 e1 24 3f 2f af ba 3f
       0.81357884 0.1134977 0.64406717 1.4584712
000380 bf a3 6b 3f 06 05 2d 40 e4 51 ab 3e 89 73 9b be
       0.9204673 2.7034316 0.33460915 -0.30361584
000390 24 de e4 3e 9a 1b a0 3e ad e2 b4 bd 81 43 39 3d
       0.4470073 0.31271058 -0.088322975 0.045230392
0003a0 c6 9a cf 3d e2 af 2b bd 96 cf a8 3f c7 9c b1 be
       0.101369426 -0.04191578 1.318835 -0.34689924
0003b0 a4 bc f7 3f f5 2a 2f bd c7 b0 11 be 35 13 31 3d
       1.9354444 -0.042765576 -0.14227591 0.043231208
0003c0 a8 7d 82 3d f0 a0 7d 3c c7 11 a4 be 4b 8b 65 3e
       0.06371623 0.015480265 -0.32044813 0.22416417
0003d0 2e 52 52 bd 59 d6 5d bf 3e 54 6a bd 3b 59 e6 be
       -0.051347904 -0.86655194 -0.057209246 -0.44989952
0003e0 df 5c a6 be 8c 56 c0 3e
       -0.3249273 0.3756603

2.weight f4 [250, 250]
000000 81 8c b4 3c d7 13 33 3d 8c 9f 75 bd d0 09 9f 3d
       0.022039654 0.043720093 -0.05996661 0.077655435
000010 37 81 59 bc 88 d8 69 bd c9 94 11 bc 80 e3 b3 3c
       -0.013275436 -0.057091266 -0.008885571 0.021959066
000020 c4 62 16 3d 09 ac 8c bd f7 50 f6 bc d3 8c a0 3b
       0.036715284 -0.068687506 -0.030067904 0.0048996
000030 5e 69 bd bd 64 12 55 bb ae 51 e4 bc 00 bd 6b bd
       -0.09248613 -0.0032512182 -0.02787098 -0.05755329
000040 4b 1e b7 39 da 15 f2 3c ba 62 d9 bd 3e af 6f bd
       0.0003492705 0.029551435 -0.10614534 -0.058516733
000050 c9 ae 95 bd a2 d6 ab 3c 61 2f 0b bd b9 1b 6b 3c
       -0.07308728 0.020976368 -0.03398073 0.014349871
000060 1d e9 b8 bd 26 82 b2 3c 33 14 f9 3c d3 54 21 bd
       -0.09028838 0.021790575 0.03040514 -0.039387535
000070 e1 71 9f bc bd 6c cd 3c b3 d6 67 3c 4b 69 38 bc
       -0.019463481 0.025076265 0.014150309 -0.011255573
000080 df 9f a5 bd dc d6 e4 3b fa fb a0 bd 26 a5 7c bd
       -0.080871336 0.006983621 -0.07860561 -0.061680935
000090 d7 34 b1 bc eb e3 26 bc af 0a c7 3c 7d b1 33 bd
       -0.021631641 -0.010186176 0.024297087 -0.043870438
0000a0 91 c2 8e bc 12 2d 6a bd fd 56 19 3d f1 b7 f1 ba
       -0.01742676 -0.05717189 0.037436474 -0.001844166
0000b0 88 bb 8b bc e2 cf b1 bd c5 bc 27 3d 2f 97 58 3d
       -0.017057195 -0.086822286 0.04095151 0.052878555
0000c0 b5 72 9b bc 9a 78 26 bd bf cb 1b 3d 24 d3 98 bc
       -0.018975595 -0.04064236 0.038036104 -0.018655367
0000d0 81 e9 2b bc a3 be 9f 3b f4 2b 94 bd 0b 20 26 3d
       -0.010492683 0.0048750206 -0.07234946 0.040557902
0000e0 ca 48 ce 3c c2 c0 10 3c 52 7a 32 bd c0 4e 2a 3d
       0.025181193 0.00883502 -0.043573685 0.041579008
0000f0 47 ac fa 3b 1e fe 1a 3d f6 9b 4e bc 6e 11 e4 bd
       0.0076499316 0.03784 -0.012610426 -0.11136137
000100 94 b7 1e 3c ca dd 88 bd ca 5f e1 3c 12 92 91 bd
       0.009687323 -0.06682928 0.027511496 -0.07107939
000110 a9 9b ed 3b 4c d8 88 bd ef a0 1b 3d a5 e6 93 bd
       0.007251222 -0.0668188 0.037995275 -0.07221726
000120 22 6d 31 bd 24 47 8d b8 d2 c9 71 bc 65 eb 5d 3b
       -0.043316968 -6.736655e-05 -0.01475759 0.003386223
000130 66 9b f0 3c d4 f2 fc bc c7 3b 1f bd 39 f6 ad bc
       0.029370975 -0.030877508 -0.038875367 -0.021235572
000140 43 2a ae 3c 1e 10 5e bd 2e 8c 03 3c ea 48 09 bd
       0.021260386 -0.05421459 0.008029027 -0.033516802
000150 99 0d 50 3d f9 49 70 bd c8 ab 03 3d 63 4e a9 bc
       0.050794218 -0.058664296 0.032146245 -0.02066726
000160 c4 b3 9e bd b3 8f d0 bc 8a a6 32 3d 61 3d 73 3d
       -0.07749131 -0.025459146 0.043615855 0.059384707
000170 94 e6 a2 bc 0e 15 92 3b 34 c5 9e 3c e2 c3 ad bc
       -0.019885339 0.0044580763 0.019381143 -0.021211568
000180 fe 31 8d bb 5d f8 f8 b9 ca f3 2e bd 39 3a f8 bc
       -0.004308938 -0.0004748729 -0.042712964 -0.0303012
000190 c9 37 6d b9 20 58 d6 bc f6 23 56 bd 78 42 48 bd
       -0.00022622863 -0.026165068 -0.05228039 -0.048891515
0001a0 b8 aa 57 bd c0 e4 81 bb 4f 07 41 bc ca a7 77 bd
       -0.052653044 -0.0039640367 -0.011781528 -0.06046275
0001b0 6d 9f 21 bd ed 98 8e bd 1d 0b ae bb ca fc 3b bd
       -0.03945868 -0.06962762 -0.0053113834 -0.045895375
0001c0 6e 0d 4b bc 9a 1f 29 3d 56 75 5f bd a7 fe 0f 3c
       -0.012393339 0.041289903 -0.05455526 0.008788741
0001d0 aa 1e 98 bd 3e 6b 8e bc b8 e5 0e 3d 47 aa 5f bd
       -0.07427724 -0.017385121 0.034887046 -0.05460575
0001e0 72 8e d3 bc 76 c7 d7 3b 6b a1 34 bd 43 7c 40 3d
       -0.02582476 0.006585057 -0.044099253 0.046993505
0001f0 f9 9f 48 bd 1a df f0 bb b6 90 40 3c 1a 23 1e 3d
       -0.048980687 -0.0073508145 0.011753252 0.038607694
000200 95 16 2a 3d 83 5f 1f bd 70 34 0f bd b4 ef 51 bb
       0.041525442 -0.038909446 -0.034962118 -0.0032033743
000210 17 1c 8e 3d d3 0f 4c 3d ef e7 7c 3c ae 12 5b bd
       0.069389515 0.04981978 0.015436157 -0.05348461
000220 1a 7b d6 3c 8f 2a ed bc 81 5f 47 3d ca c4 80 bd
       0.026181746 -0.028950958 0.048675064 -0.062875345
000230 18 ad 5c bd 63 cc fa bc de 29 86 bc 9c 49 9a bc
       -0.053876013 -0.030615037 -0.016377386 -0.018833928
000240 ee d7 ed bc 9a 50 d1 3b be 4c 36 bd 71 f5 b9 bc
       -0.029033627 0.0063877823 -0.04450678 -0.022700043
000250 2c f4 8f bd a0 6b 27 bd 84 78 2d bd 55 e0 cd 3c
       -0.07028994 -0.040874124 -0.04235126 0.025131384
000260 2e 56 24 bd 06 b8 70 3c 3a c5 22 bc 8e 94 61 bc
       -0.04012125 0.014692312 -0.009934718 -0.013768328
000270 b8 e0 3d 3d 9b 70 4d bc 1c 7a 56 bd c1 85 0d 3d
       0.046356887 -0.012539054 -0.052362546 0.034551386
000280 3b 00 46 3d ca 9d 19 3d 43 db ba 3b f2 60 44 bd
       0.048340064 0.037503995 0.0057024076 -0.047944017
000290 99 d0 5f 3d a7 13 37 bc 2e 07 7f bd 3b f0 ab 3c
       0.054642294 -0.011174119 -0.062262706 0.020988574
0002a0 50 f8 75 bd 1d b3 f1 3c b3 16 66 bd 46 b7 05 bc
       -0.060051262 0.029504353 -0.05617399 -0.008161372
0002b0 88 01 17 3d f8 7b 06 3d 76 f1 52 bd 7f d6 4e bd
       0.036866695 0.03283307 -0.051499806 -0.05049753
0002c0 15 71 19 3c d5 04 6e 3b a9 ad ca bc 61 98 b5 3c
       0.00936534 0.0036318798 -0.02474101 0.022167386
0002d0 f7 94 e3 3c dd 02 6f 3c 52 46 55 bc cc 21 7d bc
       0.027780993 0.014588085 -0.013017254 -0.015449952
0002e0 a5 37 28 3c d8 42 5b bd d6 d6 81 bc c9 13 85 bd
       0.010267173 -0.053530544 -0.015849512 -0.06497914
0002f0 b7 a1 24 bd 22 fe 5c 3d e3 af 19 3d cb e7 c6 bc
       -0.040193286 0.053953297 0.037521254 -0.02428045
000300 73 5f 0e 3a c3 3a 53 be a1 cc 82 3c 9f 7b 9e bd
       0.0005431093 -0.20627885 0.015966715 -0.077384226
000310 44 51 ec 3c bd b5 37 3c b8 e6 1c 3d 42 88 55 3b
       0.028847344 0.011212763 0.038305968 0.0032582437
000320 a8 6a 3e bd ea c6 23 bc f5 21 e6 3b 16 fe 92 bc
       -0.046488434 -0.009996155 0.007023091 -0.017943423
000330 f9 9e 17 bd 6e 86 90 bd 07 3f a6 bc 96 85 a1 bd
       -0.037016843 -0.070568904 -0.020293726 -0.078868076
000340 01 fc 65 3d 6a b6 84 3c d1 40 05 bc a2 6c 44 3e
       0.056148533 0.016200263 -0.008133129 0.19182065
000350 0e e4 91 bd 92 af 02 3b ec 93 01 bd 8b 40 42 bd
       -0.07123576 0.0019941074 -0.03163521 -0.047424834
000360 e4 1e 9b bc 89 89 59 3d ca ce 2f bd d4 04 09 bd
       -0.018935628 0.05310968 -0.04292182 -0.03345187
000370 a9 5f 15 bc bb 8e 07 bd 0d 43 94 bb 4f f2 be bc
       -0.009117045 -0.033095103 -0.0045245946 -0.023308901
000380 fd 9e 45 bd f0 04 df 3d d8 ae 88 3c e4 ef 67 bb
       -0.048247326 0.10889614 0.016684934 -0.0035390789
000390 94 b1 bb bd 14 29 65 3d a7 6e cf b9 39 d9 52 bd
       -0.0916473 0.05594738 -0.0003956456 -0.05147669
0003a0 e5 5d 4c bd e8 83 27 bc b7 eb 82 bd 92 87 1c 3d
       -0.049894232 -0.01022432 -0.06392615 0.038215227
0003b0 99 04 a1 38 1c 1d a3 bb b9 64 a1 bd 3e c4 25 3d
       7.6779346e-05 -0.0049778353 -0.078805394 0.040470354
0003c0 d4 3d 85 3d 7d c8 2b bd 10 ec 92 3c f5 b1 99 3c
       0.065059334 -0.041939247 0.017934829 0.018761614
0003d0 e7 9f 94 bc 20 42 1b bd 9a 67 31 3b 14 db 03 3c
       -0.018142654 -0.03790486 0.0027069808 0.008047838
0003e0 92 b6 51 bd 80 f4 e2 bd 5b 73 cd bd 71 d6 8b be
       -0.051199503 -0.11081791 -0.10031768 -0.27312043
0003f0 9b 01 b9 bd b8 74 c4 bd 06 68 7e bc 8a f6 4a bd
       -0.09033509 -0.09592575 -0.015527731 -0.049551524

2.bias f4 [250]
000000 68 95 82 bd f4 a2 87 3d b5 69 8f bd 50 4c 28 bd
       -0.06376153 0.06622878 -0.07002584 -0.041088402
000010 fd 08 ca 3e 0a 1c 95 bc 5c da b9 3f 7a 28 4b 3e
       0.39459983 -0.018201847 1.4519763 0.1983966
000020 31 90 3a 3d d2 8c 14 bd 69 5e 5f 3d 8e 51 20 3f
       0.045547668 -0.03626711 0.054533396 0.6262444
000030 53 e4 d9 bf 64 26 74 3f 00 c2 af 3d 04 53 4b bc
       -1.7022804 0.9537108 0.085819244 -0.012409929
000040 e9 25 ef 3c 39 aa ab 3c 1b d5 76 3f d5 bf 61 3f
       0.029192882 0.020955192 0.96418923 0.8818334
000050 11 47 a7 bc 29 2a 42 bd 0d 71 2b 3f ba cc 36 3f
       -0.02041963 -0.04740349 0.66969377 0.7140614
000060 c7 60 a5 bd 56 bb ba 3c 82 10 a1 3e 35 ef 81 bd
       -0.080750994 0.022794407 0.31457907 -0.06344453
000070 d2 50 2e bd fd b8 0f bd c4 18 dd bc c4 b9 a2 bd
       -0.042557545 -0.035088528 -0.026989348 -0.07945588
000080 55 3e 5e bd d6 6c db 3e 03 21 20 bf ba ea 9b bc
       -0.054258663 0.42856473 -0.6255037 -0.019032825
000090 d2 8a 12 3d ff 11 0e 3f 6e d6 18 bd e8 ee 44 3c
       0.03577692 0.5549621 -0.03731387 0.01201985
0000a0 77 5d 74 bd 11 ad 8c bd d0 a9 cf bc bd 40 9d bd
       -0.059659448 -0.06868947 -0.025349528 -0.076783635
0000b0 69 2d 9c bd 54 a4 57 3e da 7b 2d 3d 00 8f 00 bd
       -0.07625849 0.2105878 0.042354442 -0.031386375
0000c0 26 fa 62 bd ef dc a3 3e b3 c5 2a bd 30 78 89 bd
       -0.05541434 0.32004496 -0.041692447 -0.06712377
0000d0 16 3e 34 bf b8 7e f4 3c 08 ec b0 3d 2a f3 04 3d
       -0.70407236 0.02984558 0.086387694 0.03245846
0000e0 64 07 25 3f 9f c3 e8 be e3 5e 9c 3d f5 8e 2e 3f
       0.644644 -0.45461747 0.07635286 0.68186885
0000f0 06 5b 98 3f 93 f9 0e 40 5c 17 6b bd a8 86 9c 3b
       1.1902778 2.2339828 -0.057395324 0.0047767945
000100 98 2c 90 be 42 48 e0 bf 65 fc 62 3f 10 e7 1b bf
       -0.28159022 -1.7522051 0.88666373 -0.6089945
000110 6e ad b4 3c b0 d5 82 bf 26 d8 63 3d 95 f4 b0 bb
       0.022055354 -1.0221462 0.055626057 -0.00540025
000120 f1 d9 9b 3e dc 8f 70 bf 3e 4b 7f 3e 29 21 87 3f
       0.30439714 -0.9396951 0.24931046 1.0556995
000130 82 7a 93 bd 6d ed 53 bd 3b 64 df 3e 65 08 96 bd
       -0.07201101 -0.0517401 0.43631157 -0.0732582
000140 c4 6f 85 3f 6e 8d a0 bc 17 53 66 3c 3d ff 6e 3f
       1.0424733 -0.019598689 0.014057896 0.9335821
000150 e1 c7 67 bc b3 a9 1e 3d c6 38 a1 3f 58 83 2a 3e
       -0.014146776 0.038736057 1.2595451 0.16651666
000160 9f 64 85 3f f1 da 09 bf 1c 19 0e 3f af 15 8e 3f
       1.0421332 -0.53849703 0.55507064 1.1100367
000170 1e 25 93 bd 7b 48 13 bd 41 47 f3 3d 4c 92 86 3f
       -0.07184814 -0.035957795 0.11878825 1.0513396
000180 00 d0 56 bd d0 8e 23 bd 93 37 8b 3f 15 8e 7d 3c
       -0.052444458 -0.03993112 1.0876335 0.0154757695
000190 47 a0 4c 3d 19 30 a7 be c4 1d e0 3c bf 6f cd 3e
       0.04995754 -0.32653883 0.027357943 0.40124318
0001a0 e5 1d 11 3f 82 b3 2f bd 84 12 6a bd fd 2c 27 bd
       0.5668624 -0.0428958 -0.057146564 -0.04081439
0001b0 c7 50 09 40 08 48 2c 3e c0 2a 56 bd 4d 9d cf be
       2.1455553 0.16824353 -0.052286863 -0.40549698
0001c0 fe 7b 2e 3e f5 b9 37 3e 29 2d 59 3f c9 e0 7f bd
       0.17039487 0.1794203 0.84834534 -0.06247023
0001d0 f1 b7 3d bd c3 ec 23 3d 2b e4 68 bd 9f 39 38 3f
       -0.046318 0.040020715 -0.056858223 0.7196292
0001e0 b0 f6 9d 3c 81 3f f4 bd da c0 31 bd 13 eb cf 3e
       0.019282669 -0.11926175 -0.04339681 0.40609035
0001f0 45 71 81 bd d7 b4 50 bd b3 b5 5e bd 52 cf 51 bf
       -0.063204326 -0.050953712 -0.0543725 -0.8195697
000200 8e 8c 47 3e 1e 13 ad 3c d1 8e 77 bd 8b ac 19 3f
       0.19487211 0.02112728 -0.060438935 0.60028905
000210 49 38 8e bd 96 18 7e b9 f1 cf 0b 3d b8 d0 e3 be
       -0.06944329 -0.00024232487 0.034133855 -0.44495177
000220 c2 26 d0 3c 5f 6b 15 3f cb 2e c9 38 b8 5d 44 bb
       0.025409106 0.5836696 9.593143e-05 -0.0029963087
000230 6a 55 f4 bc 92 78 cb 3b 94 69 7d bd 5e b3 63 3e
       -0.029825885 0.0062094415 -0.061868265 0.22236392
000240 df 3b a7 3e 48 97 f5 3c 54 07 ae 3e 07 f7 c3 3a
       0.32662866 0.029979363 0.33989966 0.0014950939
000250 d4 45 31 bd 31 36 35 be 92 af 8c 3e 53 44 37 3f
       -0.043279484 -0.17696454 0.274777 0.7158863
000260 b1 c9 d8 bd 09 30 cd bf 13 86 19 3f e4 01 9e 3d
       -0.105853446 -1.6030284 0.59970206 0.07715204
000270 6a 5a 3a bd b8 49 0b be b8 25 37 3d 9d 18 13 3f
       -0.04549638 -0.1360234 0.044713706 0.5745943
000280 9c f9 7c 3f 0a 8f fd bc b1 f6 3b 3d 1b bb 65 bd
       0.98818374 -0.030951995 0.04588956 -0.05608664
000290 2a 09 78 3d 0e 06 d6 bc 5b 07 9a 3e 2b 7e 0b bc
       0.060555615 -0.026125934 0.30083737 -0.0085139675
0002a0 a6 dc 13 bb 8b e3 c8 3c 81 45 a0 bc 67 90 59 3d
       -0.0022561937 0.024522563 -0.019564392 0.05311623
0002b0 b1 29 e1 bb c1 4c 1a 3e ba 97 08 bd 09 9f 64 bc
       -0.006871425 0.15068342 -0.033347823 -0.013953933
0002c0 6d aa d4 be b0 a4 1f bf f8 69 7d 3f 57 e0 80 bf
       -0.41536275 -0.6236067 0.9898982 -1.0068463
0002d0 5b 9f 05 be 7e 0e 1d bd 23 60 ea bc 6e 28 1e 3d
       -0.1304907 -0.0383439 -0.028610295 0.038612776
0002e0 0e 5a 7d 3d 49 bc fb bb c5 59 4b 3d 16 72 ad 3d
       0.06185346 -0.0076823574 0.049646158 0.08469026
0002f0 35 19 06 3f 85 d5 cf 3c 1f b5 8f 3f 40 6a ac bd
       0.5238221 0.025370369 1.1227149 -0.08418703
000300 bd 9b ae 3e 8b 50 99 bd 95 2b 94 3e bf e7 31 bc
       0.34103194 -0.074860655 0.289395 -0.010858475
000310 ec 18 cb 3e b0 73 86 bf 89 67 73 bd b6 68 41 3f
       0.3966745 -1.0504055 -0.05942491 0.755504
000320 04 b2 61 bf 3a 9f 28 bf a7 08 5a bf 55 b8 76 bd
       -0.88162255 -0.6586796 -0.8516945 -0.060234386
000330 de 46 30 bd c5 ee b5 bd 33 1f 0d bd 2e 10 c6 3f
       -0.043036334 -0.08883432 -0.034453582 1.5473688
000340 1c f3 1f 3d f5 21 00 bd 36 61 1b 3f 1a e3 43 be
       0.039050207 -0.031282384 0.6069521 -0.19129601
000350 9f a1 08 bc c6 72 60 3d 23 f1 ed 3f c0 98 74 bf
       -0.008339315 0.054796956 1.8589214 -0.9554558
000360 e3 11 7e be 73 9c 23 3f d0 31 87 bc 9a cb e1 3b
       -0.2481151 0.639106 -0.016503245 0.0068907263
000370 65 07 b2 3d 4f e5 20 bd 5c d3 8e 3c f1 ac 4c bf
       0.08692817 -0.039281186 0.017434768 -0.7995139
000380 74 40 1e 3e 56 df d1 bc 51 d3 ba 3f 43 0f 11 3f
       0.15454274 -0.02561919 1.4595739 0.5666391
000390 b1 2c fb bd ed ee 25 bd 31 e3 5e bd 53 3c 49 3e
       -0.122643836 -0.04051106 -0.054415885 0.19651918
0003a0 01 87 c3 3f 11 f4 df 3e b1 b6 78 bd 8f 89 1a 40
       1.5275575 0.43740895 -0.060721103 2.414646
0003b0 58 0e 26 3a 32 ec 6b bd b1 83 c7 3d 32 c0 19 3d
       0.0006334535 -0.0575983 0.09741915 0.037536807
0003c0 07 ce b4 3c 8f 5a 3b bd a1 46 1b bf 02 b1 9c 3c
       0.022070898 -0.04574066 -0.60654646 0.019127373
0003d0 08 64 7c 3d 69 4d 93 bb 7a 93 d3 3e e9 d3 ba 3c
       0.061618835 -0.004495312 0.41323453 0.022806125
0003e0 37 32 a3 3e 71 a3 56 3e
       0.31874248 0.20960785

4.weight f4 [250, 250]
000000 44 79 fe bc 46 18 be 3c dd 92 84 bd c4 62 fd 3c
       -0.031063683 0.023204934 -0.064733244 0.030930884
000010 4b 9f a0 bc 0a 7c 60 bd 38 15 0c be 9e 2d 99 3d
       -0.019607207 -0.054805793 -0.1367997 0.07479404
000020 00 72 e5 bd dc 58 e5 bc 68 ba 72 bc 19 60 c8 be
       -0.112033844 -0.027996473 -0.0148149505 -0.39135817
000030 0b b6 f7 3d d1 f0 fa bd cc 71 53 bd 4c 8e 1f bd
       0.12095269 -0.12252963 -0.051622197 -0.038954064
000040 49 43 24 3d 4f 55 9a 3c a3 47 c6 bd 9b 44 30 3d
       0.04010323 0.018839506 -0.09681632 0.043034177
000050 e2 02 1c bd db bd aa bb 51 68 a1 bb 0c a7 86 3c
       -0.038088687 -0.005210621 -0.0049257656 0.016437076
000060 f2 3c 8f 3c 5e ed 7f bc e1 d1 24 be 06 b7 9e 3c
       0.017485116 -0.015620558 -0.16095687 0.019374382
000070 c4 1c 53 3d db 47 2f be 38 cb 94 bc 58 28 a3 bc
       0.051541105 -0.17117254 -0.018163309 -0.019916698
000080 10 a5 54 3d 78 19 cf bd d2 34 ac bb 27 44 bf bc
       0.05191523 -0.1011228 -0.00525532 -0.023347927
000090 97 a7 08 bd aa ed 9f bc bc 0c 1d 3d 87 7e 73 bc
       -0.03336295 -0.019522507 0.038342223 -0.014861709
0000a0 6b 7a 52 bc 7d 17 8e bd bb e9 27 3c 4b 56 df 3c
       -0.0128465695 -0.06938074 0.010248597 0.027262827
0000b0 4b b7 d7 bb 6f ca 24 3e cc e7 bb bc 01 a7 08 bd
       -0.0065831295 0.16092847 -0.022937678 -0.033362392
0000c0 75 f8 2e 3c 7e 0e 00 bd f8 e2 21 38 d2 aa 93 bc
       0.010679354 -0.03126382 3.8596772e-05 -0.01802579
0000d0 1e 88 46 bc 88 ae 55 3d 81 f2 22 3d 22 f9 4e bc
       -0.012117414 0.0521684 0.03978205 -0.01263264
0000e0 6c 3a b9 bc f3 b5 c7 3d 7e 94 c6 bb 43 d0 17 3d
       -0.022610866 0.09751501 -0.006060182 0.03706385
0000f0 98 1f 31 3e 30 1f 2e 3e 36 de 0e 3d bb ae 14 bc
       0.17297208 0.17004085 0.034879886 -0.009074862
000100 b5 3a 56 3d 61 16 00 be d0 c2 cb 3d 1c 6c 13 be
       0.05230208 -0.12508537 0.09949267 -0.14396709
000110 97 87 97 3c 7c f8 b5 3d 4a 49 29 bf 58 96 54 bd
       0.018497271 0.08885285 -0.66127455 -0.05190119
000120 d8 d5 78 bd c0 a8 0a be bc 0d 1e 3e a7 77 1a be
       -0.060750812 -0.13540936 0.15434927 -0.15084706
000130 1a 56 62 3a 01 8f 34 3d ed dd 97 bc 10 43 9d 3b
       0.0008634046 0.04408169 -0.01853844 0.0047992542
000140 79 0e 93 3d 06 69 b9 3c dc f0 1a 3c ab 5d 13 3e
       0.07180495 0.022633087 0.009456839 0.143912
000150 de 30 fc 3a 17 3c 0c 3d 73 3f 48 bd 75 9a 3d 3e
       0.0019240638 0.034236994 -0.048888635 0.18515952
000160 58 e2 97 3b da 43 08 bf 05 50 6d bd 74 1a e5 3d
       0.0046351366 -0.53228533 -0.05793764 0.11186686
000170 62 7b 4c 3d 11 46 be bc da 16 3b 3b f2 67 c0 3c
       0.049922355 -0.02322677 0.0028547556 0.023487065
000180 f6 50 5d 3d 16 bc 09 3d e0 5c a9 3c 65 29 3d be
       0.05403229 0.03362664 0.020674169 -0.18472822
000190 82 73 da 37 4e d3 6d bd 8f b2 1e 3e 9a 7d 9c 3d
       2.6041413e-05 -0.058062844 0.15497802 0.07641144
0001a0 a1 57 c2 3d a6 21 b1 3b 61 80 df bc 25 b9 44 3d
       0.0948937 0.0054056225 -0.027282896 0.04802813
0001b0 2d ba 3a 3d 46 4b c3 bd 20 30 7e bc eb 9d 98 bc
       0.045587707 -0.09535842 -0.015514404 -0.018629989
0001c0 a7 f8 c1 3d 9d fa f1 3b b3 e9 f1 3c bd 50 bf 3a
       0.09471255 0.0073846118 0.029530382 0.0014596205
0001d0 6b 16 f6 3d aa 02 33 bd f5 4f 48 bc 33 40 bb be
       0.12015995 -0.043703713 -0.0122260945 -0.36572418
0001e0 70 a7 06 3c 37 81 85 3d 71 a5 22 bb f6 5b 8e bd
       0.008218631 0.065187864 -0.002481785 -0.06951134
0001f0 66 cd 5d 3d cf 49 f9 3c ca 7d 38 bd 9f 0a cb bd
       0.05415096 0.030430702 -0.045041837 -0.09914135
000200 d8 b9 c1 bb 86 1b 08 3d b6 05 e7 bc c1 14 2e 3e
       -0.005912047 0.033229373 -0.028200965 0.17000104
000210 6c aa 0d bd 09 20 c1 3c b1 3b 97 bd 5c 0a 01 be
       -0.034586355 0.023574846 -0.07384432 -0.12601608
000220 74 ee c0 be 62 00 69 3d 50 ec 12 3e 0b 14 52 bd
       -0.37681925 0.05688513 0.14347959 -0.051288646
000230 47 e3 6a be b5 ff 16 3d 51 86 bc bc e8 57 cd bd
       -0.22938262 0.036864955 -0.023013266 -0.100265324
000240 05 ea cf bd 25 92 21 bd 49 a1 4b bd de 88 95 bc
       -0.101520576 -0.039446015 -0.04971436 -0.01825374
000250 fa 4a 61 bd c8 50 e7 bd d0 72 57 3e ce 20 aa bd
       -0.055003144 -0.11294705 0.21039891 -0.08307038
000260 6c 71 62 3d a5 06 8d 3d 7c 09 9d bd 74 20 94 3d
       0.05528395 0.06886033 -0.076678246 0.072327524
000270 4d 50 31 bd 39 84 41 3d ed 48 ed bc de 88 48 be
       -0.04328947 0.047245238 -0.028965438 -0.1958346
000280 be 41 7b 3d c0 20 50 bd bb 31 42 bc a8 44 e6 bc
       0.061341994 -0.050812483 -0.011852677 -0.02810891
000290 0d 1d 09 bd 9f 6c ad bc 1b 9f 82 bb 50 be 2c 3d
       -0.03347497 -0.021169959 -0.003986252 0.042173684
0002a0 cf 83 38 3d 36 c8 84 bd 3a f6 ee 3b f1 09 fd bc
       0.045047577 -0.064835 0.007292536 -0.03088853
0002b0 23 48 a8 bc eb 5a 32 bd 24 0f 26 3d af 15 4f 3c
       -0.02054221 -0.043543737 0.040541783 0.012639447
0002c0 21 1b 55 bd 0f 46 a1 bc 39 5a 16 be 6b d4 52 3c
       -0.052027825 -0.019686727 -0.14682855 0.012868027
0002d0 5b cb 0a 3d 11 de 36 bd 62 66 ee bc df 37 8f bd
       0.03388534 -0.044645373 -0.029101554 -0.069930784
0002e0 09 48 14 bb 59 57 66 bc bd 47 18 ba 4f 4e e3 bd
       -0.0022625944 -0.014058911 -0.00058090297 -0.110989206
0002f0 17 0b b9 3d ef 3a 38 bc ab 41 2c 3d 84 a7 47 3d
       0.09035318 -0.01124452 0.042054813 0.04874374
000300 e5 0a 29 be 7b 14 7d bc 44 3f a0 bb d8 c9 41 3b
       -0.16508062 -0.015446777 -0.0048903544 0.002956977
000310 d5 11 2c bd 1e 73 e1 bc c3 03 b0 3c 95 29 83 be
       -0.042009193 -0.027520712 0.021486169 -0.25617662
000320 63 24 e5 3c 92 16 24 bd e6 cd 2b bd 9e 95 f5 bc
       0.027971452 -0.040060587 -0.041944407 -0.02997857
000330 68 92 49 bd 50 7d c6 bc 8f dd 7b bc 12 14 61 3e
       -0.04921189 -0.024229676 -0.015372648 0.21980312
000340 d8 30 74 bd b0 8f 33 be 45 d1 6c be 2a ea 13 3d
       -0.059616894 -0.17535281 -0.23126705 0.036111988
000350 3d 3f ce bc 0c 31 a3 bd 73 f6 79 3c 4f 4f 0f 3e
       -0.025176639 -0.07968339 0.015256512 0.13995098
000360 b0 5c 38 bc 3c 1d 0a bb 7e c7 30 3d 45 e6 02 be
       -0.011252567 -0.0021074554 0.043159 -0.12783153
000370 cf 8d 6d bc 99 13 82 bd e6 22 8f bd fe 36 4f 3c
       -0.014499142 -0.06351394 -0.06989078 0.0126473885
000380 a6 91 b6 bd 0c 94 46 3d 99 37 34 be 4e 16 06 3d
       -0.08914499 0.048481032 -0.17599334 0.032736115
000390 a5 49 0f 3d 84 f2 5d 3c bd c3 10 3d e7 bb 5d bd
       0.034982342 0.01354659 0.03534292 -0.054134276
0003a0 8b 0e 94 be df 2a 75 3d 6b e5 13 3b 3d 61 d3 3c
       -0.28917345 0.05985534 0.0022567164 0.025803203
0003b0 cf 84 1d be f8 4b a5 3c 59 22 b3 3c e8 46 3b 3d
       -0.15382694 0.020177826 0.021866964 0.04572192
0003c0 56 a0 5b 3d 72 2c 4a 3d b0 cb 7b bd 19 86 75 bd
       0.053619705 0.049358793 -0.06147355 -0.05994234
0003d0 cd 3f 0e bd fa 49 ec bc 3e 4a 83 be d2 7e f6 bb
       -0.034728814 -0.028843869 -0.2564258 -0.0075224424
0003e0 15 5f 43 3d fa af 47 3d c0 74 5c bd 47 59 1a bd
       0.0476981 0.04875181 -0.05382228 -0.037682798
0003f0 fc 7f 5c bd df 05 1e 3c 1e ef 19 3d d5 d5 66 bd
       -0.053832993 0.009644954 0.037581556 -0.05635627

4.bias f4 [250]
000000 0c 8e 1e 3d d7 cd 00 3d 03 a7 ba 3f cc 0f bc bd
       0.038709685 0.031446304 1.4582218 -0.091827005
000010 a0 03 29 3d df ff 9c be 23 d0 97 3b 85 9e 59 bd
       0.041263223 -0.30663964 0.004632966 -0.05312969
000020 09 7b 4b bf 15 d2 1c bf e6 14 12 3f 7c 63 ce 38
       -0.7948461 -0.6125806 0.5706314 9.841376e-05
000030 8d 39 f5 3f a2 10 b9 3e 65 81 93 bb fd 08 49 3f
       1.9158188 0.36145502 -0.004501509 0.7852934
000040 73 62 cb 3e 13 f4 47 3e 69 aa 69 bd aa 6d 87 3d
       0.39723548 0.195267 -0.05704728 0.06612714
000050 4e 72 55 be 3e f9 d5 bc 97 da 36 bc 53 82 7e 3d
       -0.20844385 -0.026119824 -0.011160514 0.062136006
000060 8d 3f f7 bc 57 8e 77 3d 4b 5b a4 bc 1d 26 45 3e
       -0.03018167 0.06043848 -0.020063063 0.1925282
000070 79 02 16 be 8c ce 24 be 97 ef 88 3e db 70 b3 3d
       -0.1464938 -0.16094416 0.26745293 0.0876176
000080 76 fa e3 3e 65 d0 2c 3d 64 a4 b8 3b 98 b1 79 bd
       0.44527024 0.042190928 0.0056348313 -0.060960382
000090 c7 5c 47 bf 17 31 70 bd 90 68 2b 3f 95 c2 46 3f
       -0.7787594 -0.058640566 0.66956425 0.7764066
0000a0 99 1f 30 bb ea ef 96 3f 69 90 80 bf f8 34 a3 3d
       -0.0026874302 1.1791966 -1.004407 0.07969087
0000b0 a4 26 37 3f d6 43 91 be ea 73 dc be 07 3d 9f bd
       0.71543336 -0.28372067 -0.43057185 -0.07775312
0000c0 d5 80 c4 be 02 62 c3 3e db 29 39 be 10 8f 7d 3e
       -0.3837954 0.38160712 -0.18082373 0.24761605
0000d0 d9 3e 67 3e 3e 35 90 3e ba ed 0d be 52 c7 dd be
       0.22582568 0.2816562 -0.13860217 -0.43316132
0000e0 8f 8c 60 3d 50 ae ef 3e e5 81 ad 3e f0 21 7f 3e
       0.054821547 0.46812677 0.33888164 0.2491529
0000f0 00 fa 3f bf 9f 02 7f 3e 15 8f f0 bd d1 8d 4c bc
       -0.74990845 0.24903344 -0.11746041 -0.012484984
000100 07 5a 54 3f c2 3f e3 3d 51 eb 9b 3e 14 29 8d 3e
       0.8294987 0.11096145 0.3045297 0.27570403
000110 f4 f8 37 bd 6d 79 a3 3e 38 e5 52 bf f4 42 81 3f
       -0.044915155 0.31928578 -0.8238101 1.0098557
000120 34 1a 7f 3f 63 c7 28 be 37 f1 fe 3e 92 b7 4e bd
       0.9964936 -0.1648231 0.49793407 -0.050468035
000130 f6 93 40 3d 34 86 47 3f 3f c7 c9 be 7f 73 bd bd
       0.047016107 0.7793915 -0.39409825 -0.09250545
000140 49 0c 42 bf bf c0 f5 3e ef 4d 2c bd 44 ec 8b 3d
       -0.75799996 0.47998616 -0.04206651 0.068321735
000150 24 b3 c3 3d 53 70 1a bd 13 ee e9 3e 89 77 34 3e
       0.09555653 -0.037704777 0.4568945 0.17623724
000160 fd 4d 32 3f 09 06 00 3f dd 55 b7 be 88 21 00 bf
       0.6965025 0.5000921 -0.35807696 -0.50051165
000170 d5 55 22 3e 3f bb 4c 3d 7b d8 76 3d 0f fa f8 3f
       0.15853055 0.04998326 0.060265046 1.9451312
000180 37 97 2c bf e6 42 0f bd 02 be 4b be e9 b8 ef 3d
       -0.67418236 -0.03497591 -0.19896701 0.11705191
000190 56 ee d0 3e 19 30 24 bd 61 c0 3f bc e6 4f cf 3e
       0.40806836 -0.040084932 -0.011703582 0.40490645
0001a0 8a 6f c0 3d 69 2e 85 3f 7e 8a 21 3f aa 76 37 bf
       0.093962744 1.0404788 0.6310195 -0.7166544
0001b0 76 6f 0d 3d 99 12 c0 3e eb 95 22 3d de 41 a2 be
       0.034530126 0.3751419 0.039693754 -0.31690878
0001c0 7a 49 15 bc dd 49 5c bd 82 cc 06 3d 88 45 b1 3d
       -0.009111756 -0.05378138 0.032909878 0.0865584
0001d0 a1 5b 76 bd da d3 77 bc 24 e9 2e bd 06 40 5b 3e
       -0.060145978 -0.015126193 -0.04270281 0.21411142
0001e0 92 4f 81 bd 34 43 bc 3e c1 e7 c0 be fa 87 75 3e
       -0.06314005 0.36770022 -0.37676814 0.23977652
0001f0 c1 70 7b bc a2 67 ae 3e 23 2f 08 be 06 1f 78 bd
       -0.015346707 0.3406344 -0.13299231 -0.06057646
000200 3c 68 b8 bc 74 17 b6 3c 6f 06 c3 3d d7 5f 1a 3d
       -0.02251064 0.02222798 0.095227115 0.037689056
000210 9b 14 2a bd f1 f5 7b 3f 69 c9 38 3e 19 3b 89 be
       -0.041523557 0.9842215 0.18045582 -0.268029
000220 ba cb 11 3b a6 12 24 be 5c 7e a1 ba 19 e2 73 be
       0.0022246675 -0.16022739 -0.0012320983 -0.23816718
000230 73 77 52 3e b5 c9 ad bd 87 e9 ca 3c 5f 02 12 3e
       0.20553379 -0.08485738 0.024769558 0.14258717
000240 65 ad 68 3e d8 69 21 be 12 dc 2a bc b7 cc 15 40
       0.22722395 -0.15763032 -0.010428445 2.3406198
000250 30 4a d2 3e a8 08 89 3e 81 8d ad 39 a8 2a 3c 3c
       0.41072226 0.26764417 0.0003310256 0.011484779
000260 83 05 7d bd 78 3a 28 bd 2a 6d 38 3c 17 7f e8 3d
       -0.061772835 -0.041071385 0.0112564955 0.113523655
000270 82 b1 64 3d 45 b9 72 3e 2b 71 06 be b7 81 fb 3e
       0.055833347 0.23703487 -0.13129108 0.49122402
000280 bf 17 14 be b4 34 19 3c 34 e8 a3 3e f3 96 bd bd
       -0.14462183 0.009350944 0.32013094 -0.09257307
000290 ab 30 a2 3d 67 6d 70 bf 74 66 05 be c1 c3 95 bd
       0.07919439 -0.93916935 -0.13027364 -0.07312728
0002a0 f7 ea bd 3e fc 0d e5 bd a9 cd 1b 3f 7a dc b6 bd
       0.37093326 -0.11184308 0.6086069 -0.08928771
0002b0 49 ca 81 3d 51 b4 95 bb 45 47 8d bd bd be 87 3e
       0.06337411 -0.0045686145 -0.06898359 0.2651271
0002c0 4c 86 47 3f b6 53 90 3e 67 d1 2d 3e 58 1e 17 3f
       0.77939296 0.28188866 0.16974412 0.59030676
0002d0 5a 2d c5 3d 26 a8 79 bd 02 39 4c be 96 3d 4b 3d
       0.09627791 -0.060951374 -0.19943622 0.04961928
0002e0 91 32 82 bd 94 ec 10 bf 6c 5f 7c 3f b9 d9 dd 3b
       -0.06357301 -0.5661099 0.985831 0.0067703393
0002f0 04 b4 9b bf b6 15 a2 be 3d 83 92 3f 5d 44 bc 3f
       -1.2164311 -0.3165719 1.1446301 1.4708363
000300 5b 54 09 3f 25 ce 52 bd 95 1a 89 3d 6d cf 6f bc
       0.5364434 -0.051466126 0.06694523 -0.0146368565
000310 35 8c 6a 3c 31 09 8a 3f 6e 3f 76 bd e2 ae 62 bd
       0.0143156545 1.0784055 -0.060119085 -0.055342562
000320 ec 0f 00 3f 1a 02 20 be e2 a4 de 3c 75 30 9a 3d
       0.50024295 -0.15625802 0.027178232 0.07528774
000330 a7 22 1e 3f 02 60 d0 3b 51 b7 8d 3e 18 cd 84 bd
       0.61771625 0.0063591013 0.27678922 -0.06484431
000340 5d b5 1d be ab 73 22 be e6 85 de be a8 75 ba bd
       -0.15401216 -0.15864436 -0.4346153 -0.091044724
000350 a3 2d f3 bd f2 01 70 bd d5 da 64 3f 7a 57 52 3e
       -0.11873939 -0.058595605 0.8939641 0.20541182
000360 9a 01 23 3e b5 6e 4e 3c 53 44 38 3f fd e6 8e 3e
       0.1591858 0.012599637 0.71979254 0.27910605
000370 ef b2 e0 3e 22 3c a5 bd 7f 54 b9 3c 53 6b 0a bd
       0.43886515 -0.0806811 0.022623299 -0.03379376
000380 8d 93 a9 bd 00 c6 b7 3e e0 9c 99 bf 02 be 47 3f
       -0.08280096 0.3589325 -1.2001 0.78024304
000390 ee 4a 1d bf 06 83 1e be 67 d6 9f 3f 27 a1 f9 3e
       -0.6144246 -0.15479669 1.2487305 0.48755762
0003a0 2a 0a 29 bd ac 6d 69 3e ea c9 d6 3e af ac 63 3e
       -0.04126946 0.22795743 0.41950923 0.22233842
0003b0 6e a4 0f be de 4e f1 bc 5c 4c 60 3e 73 83 38 3c
       -0.14027569 -0.029456552 0.21904129 0.011261809
0003c0 2e 00 40 3f 9a c5 b3 ba aa 88 10 3e db 17 b8 bb
       0.75000274 -0.0013715506 0.14114633 -0.005618078
0003d0 03 44 58 be 4b 92 1e bc e1 88 dc 3e 5f 53 bc 3c
       -0.21119694 -0.009678434 0.4307318 0.022988973
0003e0 09 28 a6 3e cd e3 e9 3e
       0.3245242 0.4568161

6.weight f4 [157, 250]
000000 9d 2f 60 3d 0b bd 41 bd 4b 66 c5 bc 9a 22 0a be
       0.054732908 -0.047299426 -0.024096629 -0.13489762
000010 7d 6f 38 3e 9a 90 0a be a3 4c 38 3e ef 23 2a be
       0.1801128 -0.13531724 0.17997985 -0.1661527
000020 17 c5 cc bd 63 ec 08 bd 70 1c b6 be 04 7b bf 3d
       -0.099985294 -0.03342856 -0.3556857 0.09349635
000030 c5 3b 2b be e7 d6 02 3d 16 2e 38 be 7a ee c2 bc
       -0.16722019 0.031943228 -0.1798633 -0.023795355
000040 f2 5a 3f bd 58 f0 80 bd aa 0c a5 3c 1d 8c 95 3c
       -0.04671759 -0.06295842 0.02014764 0.018255288
000050 72 9f f8 3b 9d 9f b1 bd 0b fb 5b bd ef e8 03 be
       0.0075873667 -0.08673022 -0.05370621 -0.12881826
000060 8a 34 fc 3c 4a 7a 86 3e 13 8b b5 3c 6b dd 44 bd
       0.030786771 0.26265174 0.022161042 -0.048062723
000070 46 83 b9 bc c4 52 7a be 5d 68 66 3d ce 4c 9c 3d
       -0.022645604 -0.24445635 0.056251872 0.07631837
000080 30 e0 86 3d 77 71 93 bc c1 ad 3d 3d d0 a5 6c bd
       0.06585729 -0.01799844 0.046308283 -0.05777532
000090 f9 eb b2 3d 4d 85 ac bd 01 7d 1b be 47 6b 4d 3d
       0.087364145 -0.084238626 -0.15184404 0.050151136
0000a0 3d 0e ce 3d 8a 8b 05 3e 70 0f fe bc 53 4a ff bd
       0.100613095 0.13041511 -0.03101322 -0.12465348
0000b0 50 65 27 be 05 45 fa 3d 19 a5 25 bd eb d4 a8 3d
       -0.16347241 0.12220196 -0.040440653 0.08243736
0000c0 d1 3d ae 3d 4d 01 d5 3d bd aa 0c bf fa 9e 1b bc
       0.08507884 0.10400639 -0.54948026 -0.009498352
0000d0 e4 eb dd 3c 0c 09 81 3d c5 88 c7 bc 9f 8a ac 3d
       0.02709002 0.06300554 -0.024357209 0.084248774
0000e0 02 3c 94 be 1d 3a 8d be 9b 84 6c 3e 48 24 16 bb
       -0.28952032 -0.275834 0.2309746 -0.002290981
0000f0 37 ee 6b 3e f6 6f 46 3d 5e fe 4f 3c ad 3d 51 bd
       0.2304009 0.048446618 0.012694923 -0.05108421
000100 c3 5d 92 be 94 10 73 be 4f e7 33 3d 70 b2 ca 3b
       -0.2858716 -0.23736793 0.043921765 0.006185822
000110 6c a7 89 3d 48 b2 e0 3d 15 0f 7e 3a 8d 71 71 3c
       0.06721386 0.109715044 0.00096915785 0.014736545
000120 a8 4e 15 3e 2e 3f 0d bd 40 3b df 3b e0 91 f6 bc
       0.14580786 -0.03448408 0.006812483 -0.030098855
000130 96 19 8a 3d d2 a0 2b ba b4 e1 fe 3c e2 d6 95 bd
       0.067431614 -0.00065470964 0.031113483 -0.07316376
000140 a4 e9 02 3d d7 3d 8b be 97 8d d5 3c 55 15 62 be
       0.0319611 -0.27195618 0.026068492 -0.2207845
000150 59 bd a0 3c a3 11 e4 3c 2b d4 db 3d b9 54 81 3d
       0.019621538 0.027840441 0.10733827 0.06314988
000160 e1 8d b9 3d 69 90 db bb 66 f0 01 3e 0c c1 c2 bd
       0.090602644 -0.0067005646 0.12689361 -0.09509477
000170 e3 6d 14 bf 6c a7 4c 3d 0c 61 6f bd 44 fb 13 3c
       -0.57980174 0.049964353 -0.05844216 0.009032074
000180 9c 7b 2c 3b ba a8 73 bd 4a c5 e9 bd 98 fe b4 ba
       0.0026318794 -0.059487082 -0.11414583 -0.0013808785
000190 91 22 e9 bd e9 48 c2 3c 3c 3d d3 bc be b4 84 bd
       -0.11383546 0.023716407 -0.025786035 -0.06479786
0001a0 0d d0 5c 3d a0 3f 92 3c 95 a4 8f bd 18 03 5c bd
       0.05390935 0.017852604 -0.070138134 -0.053713888
0001b0 84 69 97 bc ac 49 82 bd 20 9f 25 bc af 44 31 3e
       -0.018482931 -0.06361708 -0.010108739 0.17311357
0001c0 12 1a a3 bd d3 9d 92 3b c4 0c d4 3b 69 90 51 3d
       -0.07963957 0.0044743805 0.0064712483 0.05116311
0001d0 51 b9 9f 3c 9c 2d 49 3d e8 c9 e7 bc 52 c1 d9 3c
       0.019497545 0.049115762 -0.028294519 0.02658144
0001e0 ce 6d 0d bc a4 de b1 bc 92 91 16 3d c6 e7 41 bd
       -0.0086321365 -0.021712609 0.03675992 -0.047340177
0001f0 14 ee 94 bc 77 a5 9d 3d 5b 11 12 3e 57 dc 02 bd
       -0.01817993 0.076975755 0.14264433 -0.031948414
000200 e5 c3 0b 3d 97 46 4c bd 7b 09 28 3c 1a 49 36 3d
       0.034122366 -0.049872007 0.010256167 0.04450331
000210 4a 92 9a bb 7b db d3 3d b4 28 59 bd 17 c4 35 3d
       -0.004717146 0.10344597 -0.053017333 0.04437646
000220 01 b1 13 3e c5 d3 b8 3c 25 34 87 bd 87 46 96 be
       0.1442299 0.022561917 -0.06601743 -0.29350683
000230 54 e3 93 3e d5 07 97 bd 8b a1 2f 3d 26 5a 16 bd
       0.28884375 -0.07374541 0.04287867 -0.036707066
000240 f5 9e 07 3e a6 1a ca be 10 19 85 bd 52 43 8c bd
       0.13244231 -0.39473456 -0.06498921 -0.06848778
000250 e3 d5 c0 3d b9 30 c2 3c ea 48 cc bb a7 96 3b bd
       0.09415796 0.023704873 -0.006234278 -0.04579797
000260 48 96 1a be c2 5b 66 bc 87 86 0a 3c ce 39 ba be
       -0.1509639 -0.014059963 0.008454925 -0.36372226
000270 5a 66 fa 3c 9a 4c ac b9 0b c0 ec 3d b1 1b 2c be
       0.030566383 -0.0003286347 0.11560067 -0.16807438
000280 a5 00 71 be 1d 99 5c 3b f8 11 c8 bd f1 fa c5 3c
       -0.23535402 0.0033660599 -0.09769052 0.02416751
000290 ad c9 00 3e cd 8b 00 3d 80 d1 b2 3d b5 04 e0 bd
       0.12576933 0.031383324 0.08731365 -0.10938398
0002a0 36 08 d6 3d 1a bc a9 bd b4 72 77 bc 23 72 b7 bd
       0.10450785 -0.08287831 -0.015103031 -0.08957317
0002b0 7d 10 1b 3e 3b 80 41 bd 58 30 2d 3c 83 d2 61 be
       0.15143009 -0.04724143 0.010570608 -0.2205296
0002c0 4c 57 03 be be ff 48 3d fd 6e be 3d b8 1e 37 be
       -0.1282627 0.04907202 0.09298513 -0.17882812
0002d0 10 44 0c 3b ff 26 6a bd 0c da ae 3d bb 86 03 bd
       0.0021402873 -0.057166096 0.08537683 -0.03211091
0002e0 95 8c 86 3c be dd 13 3d 28 bb b0 3c 59 a9 89 bb
       0.016424457 0.03610014 0.021573618 -0.004201096
0002f0 50 36 ea 3c ac b1 1e 3e 13 91 39 3c 2e 14 4d 3d
       0.028590351 0.15497464 0.011326092 0.050068073
000300 02 b3 11 3e 2b 7e c1 bc e2 9f 04 3e 20 b9 a9 3c
       0.14228442 -0.023619732 0.12951615 0.020718157
000310 d3 59 ce 3b 73 5e 49 3e e6 5f ac bd 89 da 4f 3d
       0.006297329 0.19664936 -0.08416729 0.05074552
000320 05 de aa bc 16 e5 cc bd 6b 3e d1 ba ee 1a 2f 3e
       -0.02085782 -0.10004632 -0.0015964037 0.17100117
000330 85 6b 16 3e 64 a1 80 3b 15 56 14 bd a1 96 d2 bd
       0.14689453 0.0039254893 -0.036214907 -0.102826364
000340 5d 65 d3 bd bb a8 34 3d 97 00 b0 3c 21 7c 2d 3d
       -0.10322068 0.044106226 0.021484656 0.042354707
000350 b6 1f c0 bd 41 8e 70 bb 97 69 8b bd a1 6b c5 3d
       -0.093810484 -0.0036705884 -0.06807249 0.09639669
000360 40 d8 c9 bd 97 7d 54 3c 8a cf 83 be e2 cc 4a 3d
       -0.098556995 0.012969396 -0.25744277 0.049511798
000370 d1 a3 2a bd d3 2a f8 ba f9 d5 6a bd da e3 be 3c
       -0.041660134 -0.0018933661 -0.057332966 0.023302007
000380 6b 93 c6 bc b9 17 5b be bb a4 0e be ee 85 c9 bd
       -0.024240216 -0.21395768 -0.13930027 -0.09839998
000390 8c d8 20 3e f2 4a ee bd a5 0d 89 3d 8b bb c8 3d
       0.15707606 -0.116353884 0.066920556 0.09801396
0003a0 ac f0 44 bc 29 25 19 3d 2c 16 fe 3d fe 0f 86 3d
       -0.012020271 0.037388954 0.12406573 0.06546019
0003b0 c9 54 96 bc b0 c2 c9 3c 72 aa 83 3d 7e 3a 5c be
       -0.018350976 0.024628967 0.06428994 -0.21506688
0003c0 2b 28 9c 3d 4a d5 80 bd c4 d2 3d 3e b7 53 81 bd
       0.07624849 -0.06290682 0.18537432 -0.063147955
0003d0 cd 26 72 3d 16 16 1b bd 80 92 45 be 38 d6 0c 3c
       0.059119035 -0.03786286 -0.19294167 0.008595996
0003e0 66 b5 06 3e 45 3d 3a 3d c0 cd b9 bd ce b8 2d bd
       0.13155136 0.045468587 -0.09072447 -0.04241257
0003f0 2c e9 c4 3d 56 57 1a be ee ac 55 3c a7 a6 08 bf
       0.096147865 -0.15072379 0.013041718 -0.5337929
