pav_spkid_pytorch/lp_model_hsize_250_lr000125/e14_weights.ckpt (torch_old, 850838 bytes, 8 tensors)

0.weight f4 [250, 189]
000000 6c 9a b5 3c c2 d1 58 bf d8 a7 0d 3f 22 6d a5 be
       0.02216836 -0.84695065 0.55334234 -0.32309824
000010 ed 15 03 3f 4b 17 13 3e fd b8 33 3f 35 19 ac be
       0.5120533 0.14364354 0.70204145 -0.3361298
000020 f0 82 9b 3f 99 39 86 3c c0 1f 22 bf a6 74 98 3e
       1.2149334 0.016384887 -0.63329697 0.29776496
000030 2d 17 2d be ac 7f b4 3e f4 66 29 3e c7 b2 fa 3e
       -0.16903372 0.35253656 0.1654318 0.4896452
000040 ba e6 07 be de dd ac 3f 36 a1 a0 3c c8 b6 26 bf
       -0.13271609 1.3505208 0.019608121 -0.6512265
000050 d4 ec 3a 3e bc aa de bd 92 c8 be 3e c3 48 0a bd
       0.18254405 -0.10872409 0.37262398 -0.033760797
000060 89 fe ef 3e 4f 35 0a 3e 97 c5 cd 3f 22 96 43 3c
       0.46873882 0.13496898 1.6075925 0.01193765
000070 a9 10 4a bf 5a da 02 3e c6 50 bb be 4c dc e8 3e
       -0.7893167 0.12778607 -0.36585063 0.45480573
000080 9c c7 c7 be de 8c 14 3f 49 7c 9e 3e d2 84 e4 3f
       -0.39019477 0.58027446 0.30954197 1.7853034
000090 bf b4 ac 3d 8c 71 85 bf 27 42 50 be 88 b0 1d be
       0.08432912 -1.0425277 -0.20337735 -0.15399373
0000a0 87 45 06 be 18 d5 9c bc 15 9c 68 3c 6b b6 92 3f
       -0.1311246 -0.01914458 0.014197369 1.146192
0000b0 0d 9c e1 3f d7 b8 66 bf d8 01 88 bf a1 0e 17 bf
       1.7625748 -0.90125793 -1.0625563 -0.59006697
0000c0 0c 50 70 3e d7 bc 86 bf 2f bb ed 3e 43 e3 06 bf
       0.23468035 -1.0526379 0.46431872 -0.52690524
0000d0 65 98 ed 3f a2 69 bf 3f 62 3c 81 bf 0d 8e 30 bf
       1.8562132 1.4954112 -1.0096552 -0.6896675
0000e0 85 1c 2e bf 1f fb 0e 3f e0 b2 aa bf bd 95 40 3f
       -0.6801227 0.5585193 -1.3335838 0.7522848
0000f0 e0 1d 29 bf 84 0a ee 3f 16 8b c9 3f 0c 69 02 bc
       -0.6606121 1.8596959 1.5745571 -0.007959615
000100 7f 5c 04 bf 37 8d 90 be 3f 27 08 3f 8e 1f 0a bf
       -0.5170364 -0.28232738 0.53184885 -0.539544
000110 8a 0b 09 3f 49 45 a9 bd 9a 2d 80 3f 78 65 af 3f
       0.5353323 -0.08265168 1.0013916 1.3702841
000120 b8 3c a6 3a f8 db 0c be 3b 45 dc 3e 13 de 8b 3e
       0.001268289 -0.13755786 0.4302157 0.27317867
000130 3b 15 22 3e 3f 04 03 3f 38 74 fc 3e 83 9e f4 3e
       0.15828411 0.51178354 0.49307418 0.47777185
000140 53 a9 c7 3f 51 e4 7f 3c 34 c4 ae 3d cc 32 3e 3f
       1.5598549 0.0156184 0.085335165 0.7429626
000150 07 e6 36 3e 10 59 1f 3f bf 26 a3 3e 09 b1 5d 3f
       0.17861186 0.62245274 0.31865498 0.8659826
000160 24 ba ee 3c a5 7f c5 3f 04 ed 11 3c 4e e3 ad bd
       0.029141493 1.5429579 0.008906607 -0.084906206
000170 c5 b6 35 3f f1 44 4a be 38 ce f6 3e 0d 16 a3 3e
       0.7098201 -0.19752862 0.48204207 0.3185276
000180 17 12 6b 3f 44 eb 4a 3e 0d 8a 8c 3f ab f4 0a ba
       0.9182448 0.19816309 1.097963 -0.00053007406
000190 d4 fb 75 be 8d 26 45 3f 9f a9 16 be c9 1d 92 3e
       -0.24021846 0.7701195 -0.14713143 0.2853835
0001a0 65 85 b9 3e b5 c8 6e 3f 0b 4c 2d 3e 65 8c 75 3f
       0.36234584 0.93275005 0.1692354 0.9591735
0001b0 05 02 2c 3c b3 c0 d6 be 2e a1 19 3f dd d2 a1 bc
       0.010498528 -0.41943893 0.60011566 -0.019753868
0001c0 1c 03 85 3e 6a ed b0 3e e3 80 70 3f 68 5d 2b 3e
       0.25978935 0.34556133 0.93946666 0.1673485
0001d0 50 2a 5a 3f dd d6 33 3b 86 37 a1 be 0b ee d4 3e
       0.85220814 0.00274413 -0.31487674 0.41587862
0001e0 66 81 d8 3c 12 01 65 3e ee 29 1e 3f 3a 5b 28 3f
       0.02642889 0.2236369 0.6178273 0.657642
0001f0 52 bc eb 3e 3b 2a 31 3f d0 78 6e 3a 49 92 9f be
       0.46042114 0.69205064 0.0009096982 -0.31166294
000200 48 d7 95 3e 26 69 3b 3e 01 d5 2d 3b 71 06 19 3f
       0.2926581 0.1830183 0.0026524665 0.59775454
000210 1e 07 18 3f 31 3d 21 3f 27 c1 15 3f 18 3d cc ba
       0.5938586 0.62983996 0.5849785 -0.0015582172
000220 fc 27 e7 be 15 77 67 3e 05 8b 74 3d ce ab 31 bc
       -0.45147693 0.2260402 0.05970289 -0.010844184
000230 16 b2 0f 3f bf bb 31 3f d2 bd 09 3f 41 7b 0f 3f
       0.5613111 0.694271 0.5380527 0.56047446
000240 b1 bd 0e 3b cb d9 a4 be 09 65 85 3e 39 90 04 3e
       0.0021780545 -0.32197413 0.26053646 0.12945642
000250 af 1f 71 bd 25 e1 f6 3e 1f 41 05 3f b6 60 09 3f
       -0.058868106 0.48218647 0.5205249 0.53663194
000260 c2 d5 fc 3e 0e 03 b1 3b b0 ad d9 be f7 01 88 3e
       0.49381834 0.0054019755 -0.42515326 0.26564
000270 9f 42 fb 3c 76 57 25 3b e7 3c a6 3e 06 49 2c 3f
       0.030671416 0.0025229133 0.3246834 0.67298925
000280 f2 93 bc 3e 45 87 03 3f d6 6d 1b 3b b7 df 00 bf
       0.36831623 0.5137828 0.002371659 -0.5034136
000290 4f 24 88 3e c5 3b c1 3d 35 ed 60 bd 6a c9 a1 3e
       0.265902 0.09435228 -0.05491372 0.3159898
0002a0 98 04 16 3f ba 46 d2 3e d6 12 cb 3e 15 a9 35 bb
       0.5860076 0.41069585 0.39662808 -0.002771919
0002b0 c5 98 f8 be fc d8 82 3e 85 0c 0c 3c c1 01 3f 3d
       -0.48554054 0.2555617 0.008547907 0.046632532
0002c0 31 26 a7 3e cf fb 1a 3f 49 30 8f 3e 42 1e 0a 3f
       0.32646325 0.6054048 0.27966526 0.5395242
0002d0 e7 94 eb 3b 0f 19 20 bf be 34 f3 3e 05 1f 1f 3d
       0.0071893814 -0.62538236 0.47501177 0.038847942
0002e0 cf 2a 66 3e 5f d6 02 3e d6 c2 5d 3f 1f d8 8e bb
       0.22477268 0.12777089 0.8662542 -0.0043592597
0002f0 5a f3 01 3f 82 74 21 ba e0 70 38 be 6c cc eb 3e
       0.5076195 -0.00061590236 -0.18011808 0.460544
000300 af b0 90 3c e4 68 09 be f9 c9 51 3f 29 74 9b bf
       0.017662374 -0.13418919 0.8194881 -1.2144824
000310 f8 ac 8e be 90 78 f3 3f 56 3f 2c bc 46 f2 00 be
       -0.2786634 1.9021168 -0.010513147 -0.1259242
000320 40 5e ac 3e 80 e4 63 3b 8b 25 59 bd 1c 8c ed 3e
       0.33665657 0.0034773648 -0.05301432 0.46395957
000330 b7 d0 32 bf 07 4c 67 be 3c 7f ae 3f d3 cb 4f bb
       -0.69849724 -0.22587596 1.3632579 -0.0031707182
000340 f6 e4 bd bd 49 f0 cf 3e 0d 37 29 bd 9e 1c a6 bd
       -0.092721865 0.4061301 -0.041312266 -0.08110927
000350 f5 fb ce 3e 82 4d 44 bf 0a 60 b7 bc 22 86 99 3f
       0.40426603 -0.7668077 -0.022384662 1.1994059
000360 06 d2 48 3d 8d bf 18 be 70 6d bb 3e fd 56 76 3d
       0.04902842 -0.14916821 0.36606932 0.060141552
000370 1b 4b 8c bd b9 d3 f7 3e 9e d7 4b bf 4e 84 42 bd
       -0.06850263 0.4840372 -0.7962588 -0.047489457
000380 f8 34 9b 3f 32 24 02 bd 14 3c eb bd db 48 9c 3e
       1.212554 -0.0317728 -0.11486068 0.30524334
000390 92 dd fa 3c 4a b7 31 be c2 a6 05 3f bf 33 4a bf
       0.030623231 -0.17355075 0.5220758 -0.7898521
0003a0 bd 6c 57 bd f7 7f 99 3f f2 90 15 3d 34 1c 15 be
       -0.052593935 1.1992177 0.036515184 -0.1456154
0003b0 ae 4c a9 3e e4 54 2a bd 56 ff 9c bd e5 8b 24 3f
       0.33066314 -0.041584864 -0.07665889 0.6427596
0003c0 65 cf 47 bf 3f 0c cf 3d 99 85 a3 3f 14 e2 cd bc
       -0.78050834 0.10109758 1.2775146 -0.025132217
0003d0 1f 3d 7c bd a3 16 bd 3e fe 7e dc 3d 04 b7 1e be
       -0.061581727 0.36931333 0.10766409 -0.15499502
0003e0 87 bd 3d 3f ed 3f 5e bf 02 af fa 3d 90 2c ad 3f
       0.7411732 -0.86816293 0.12240411 1.3529224
0003f0 ff 3a 7b 3b f9 c9 ca bd bd e3 82 3e 06 05 d5 3d
       0.0038334725 -0.099018045 0.25564376 0.10401349

0.bias f4 [250]
000000 50 23 0b 40 2a ae f4 3d 2a b0 27 3f b9 11 17 bf
       2.1740303 0.11947282 0.6550318 -0.5901142
000010 cc 1c fe 3b 82 2e 89 be 60 1d bc bc a6 63 9c 3d
       0.0077548977 -0.26793295 -0.022963226 0.07636194
000020 6e 9d 11 bd 70 fc 28 3f 51 19 a8 3f 3e 9d 8b bd
       -0.035550527 0.6601019 1.3132726 -0.06817101
000030 bd a5 da 3f 77 7c 73 bf a5 dd 80 be 59 f9 b2 bf
       1.7081829 -0.95111793 -0.251691 -1.3982345
000040 d0 f6 1e bb 8c b9 ff 3e 5d 15 db 3f f2 44 be 3f
       -0.0024255998 0.4994625 1.7115895 1.486479
000050 65 6c 9c bd cc bf a2 bd ed 61 02 40 f9 b1 83 3e
       -0.07637862 -0.079467386 2.037227 0.2572172
000060 b0 f0 a1 3b 10 8b 9e bd 82 79 8f 3f 6e 20 61 3d
       0.0049420223 -0.07741368 1.1208956 0.054962568
000070 b2 c9 2a 3f e6 ce 98 bf b7 14 1d 3f 00 78 5b bf
       0.6671401 -1.193814 0.61359733 -0.8572998
000080 2f 94 ff bd 18 26 64 3e 64 79 3d 3e 48 61 51 3f
       -0.12479436 0.22280157 0.18503338 0.81789064
000090 70 16 30 bf d4 a3 9c 3e 6d 32 42 bf e3 d3 dc ba
       -0.68784237 0.3059374 -0.75858194 -0.0016847815
0000a0 b3 a1 6c 3e ed 81 68 3d 2e 79 19 be d4 f5 2e 3f
       0.23108558 0.056764532 -0.14987633 0.68343854
0000b0 5e ca 1a 40 d9 62 d8 be 53 e6 6c bd d8 f9 d1 3f
       2.4186015 -0.42262915 -0.05783684 1.6404371
0000c0 0d 1c 89 3f f5 09 9d 3d 08 7d 72 3d 59 1d 14 be
       1.0711685 0.07667915 0.05920127 -0.1446432
0000d0 e8 c3 92 bf 9b 79 99 3f f1 34 82 bf d0 fe a6 3f
       -1.1466036 1.1990236 -1.0172406 1.3046513
0000e0 67 a7 9b 3d dd 30 c9 3d 7e b3 1b be 17 7a ce bd
       0.07600289 0.09823773 -0.1520519 -0.100818805
0000f0 2b a6 4c 3e 90 ed 8b 3d 50 d8 3e bf 97 bf 35 3f
       0.19985263 0.06832421 -0.74548817 0.7099547
000100 14 ea 08 be f7 1a 9d 3d df a3 41 bf 95 0b 78 bf
       -0.13370544 0.07671159 -0.7564067 -0.9689267
000110 86 c0 6f bd 92 34 0b bf d6 b6 df 3c 3b a0 9d 3f
       -0.058533214 -0.5437709 0.027308863 1.2314523
000120 b3 42 11 3e b4 cf 26 40 78 3f 2c 3e aa 79 11 bf
       0.141856 2.6064272 0.16821086 -0.5682627
000130 ae 26 2b 3e 5f 59 3c 3e 44 15 f6 bd 7d 37 bd 3d
       0.16713974 0.18393467 -0.12015775 0.09239099
000140 c6 63 ce bd 41 b2 cb 3d 06 69 b5 bd 27 72 33 bd
       -0.10077624 0.099461086 -0.08857922 -0.043810036
000150 3b 39 dc bf 9b bb be 3d 35 82 5d bf fa 71 24 3e
       -1.7204965 0.09313127 -0.86526805 0.16059104
000160 30 b0 8b bf a1 5a 85 3e a0 64 3a 3f f7 70 27 3d
       -1.0913143 0.26045707 0.7280979 0.040879216
000170 d1 75 df 3d 8d 78 00 3f ed 56 b6 3f 0f ec 31 bf
       0.109111436 0.50183946 1.4245278 -0.6950082
000180 5d 3e 5e 3f a4 49 cd 3d 6d 01 00 3e 07 29 e2 3e
       0.8681391 0.100238115 0.12500544 0.44171926
000190 84 88 1a 3f 75 47 d5 3e 57 2f 31 40 64 10 56 3a
       0.60364556 0.4165608 2.7685144 0.00081658945
0001a0 26 d7 18 3e 92 f7 6f 3e cf 7e c0 bd 3d 59 b2 be
       0.14925823 0.23434284 -0.09399187 -0.34833708
0001b0 2e 1d d9 be 8c b6 a7 3e 9a 9f e5 3e 33 6a 98 3f
       -0.42405075 0.3275646 0.4484833 1.190741
0001c0 a2 02 d4 3e ad 4d c2 be 67 9d fb bb c2 95 58 3d
       0.4140826 -0.37949887 -0.007678676 0.052877195
0001d0 fb 80 69 be e2 57 9d be 2f 46 38 bf a0 7f 2d be
       -0.22803108 -0.30731112 -0.7198209 -0.16943216
0001e0 05 f0 04 3f 00 74 86 be a5 d5 e5 be 0b 1f d6 3f
       0.5192874 -0.26260376 -0.4488956 1.6728224
0001f0 33 59 21 be 5c 0c ba 3d d5 fd a6 bf 4a 43 86 3d
       -0.15756683 0.090843886 -1.3046213 0.06555803
000200 30 f6 16 bd 4f de 75 3f cd 12 85 3d 57 57 55 be
       -0.036855876 0.9604234 0.064977266 -0.20834099
000210 d6 9d d2 be 73 92 1e bd 05 16 6f 3e c2 06 d9 3d
       -0.41136044 -0.038713884 0.23348244 0.10596992
000220 8d 65 66 be 85 25 f1 3d 2d 58 4d bc 25 dc 61 3d
       -0.22499676 0.117747344 -0.01253323 0.055141587
000230 54 71 89 be d0 05 84 3e 12 bd d2 3e 68 54 5f bf
       -0.26844275 0.25785685 0.41159874 -0.8723817
000240 dd 22 c5 3f a7 d6 f4 be 0a 27 1e 3f 17 0a ae bd
       1.5401264 -0.47820017 0.6177832 -0.08498018
000250 5c a1 55 3f 36 95 60 be bb d0 82 bc f1 6e e6 bd
       0.8344934 -0.2193192 -0.015968671 -0.11251629
000260 a1 10 bd 3b ba 68 ab be a0 0a 4b be 85 c8 cb 3e
       0.0057698046 -0.33478338 -0.19828272 0.39801422
000270 a8 bc 26 be d4 73 0d bc f6 1d 18 3e bd 1f 8f 3c
       -0.16282904 -0.008633573 0.14855179 0.017471189
000280 f1 8c 95 3d ae 05 42 bd f9 1f 13 bf d0 9b 96 be
       0.07302273 -0.047368698 -0.5747066 -0.2941575
000290 d1 aa 03 be 85 42 f6 3e 27 2d f5 bd 06 c5 80 bf
       -0.1285813 0.48097625 -0.11971503 -1.0060127
0002a0 d3 2c 2c 40 84 e0 55 3e 5e 05 15 c0 ee ca 58 3c
       2.6902359 0.20886427 -2.3284526 0.013231976
0002b0 dc 56 29 3e ec be 83 3d 12 a4 84 bd 00 0c f3 3d
       0.1653704 0.064329 -0.064766064 0.11867523
0002c0 25 52 b9 be 0d 05 d7 3f 82 43 9f bd 43 28 8c 3e
       -0.36195484 1.6798416 -0.07776548 0.27374467
0002d0 bb 4c 08 3e bc e5 24 3f d1 5c e2 3d 20 2d c1 bd
       0.1331052 0.64413047 0.110528596 -0.09432435
0002e0 ca 5f d3 bf 2c c2 0a 3f 6a 99 45 3e a5 3e e4 bf
       -1.6513608 0.5420253 0.19296804 -1.7831618
0002f0 94 b5 c2 3f 4c 6e a9 be 4f da ac 3e 62 5e 55 be
       1.5211663 -0.33091962 0.33760306 -0.20836785
000300 cc 53 14 40 25 c1 8b 3f 48 13 1b 3f 15 1b 13 40
       2.3176146 1.0918318 0.60576296 2.298528
000310 93 67 0f 3c 59 8f 5a bf 08 86 79 3e 04 32 55 3e
       0.008752721 -0.8537498 0.24367535 0.2081986
000320 d7 bc 36 3f 6d 98 8e bf d0 75 cb bd 9d 9a 1b 3f
       0.71381897 -1.1140267 -0.0993458 0.60782796
000330 df 85 0c bf 85 26 dd be ad a0 88 3d 81 20 c1 bf
       -0.5489177 -0.4319345 0.066712715 -1.5088044
000340 fd 1d 96 3d 8c ac 10 3f 0d c2 a4 be fc dd 29 40
       0.073299386 0.56513286 -0.321793 2.6541739
000350 f0 be 8b bd 9e df 85 be b2 d4 e0 bc 53 dc b9 3e
       -0.06823528 -0.2614717 -0.027445171 0.36300907
000360 8d cb 41 3f 74 9b 37 3d 31 de ac 3e b5 7f 5e 3f
       0.7570122 0.044825986 0.3376327 0.86913615
000370 49 28 60 3f 4b 8f 06 3e c0 a1 45 3f 57 3f c5 3f
       0.8756147 0.131406 0.77199936 1.5409955
000380 e2 c5 8a 3f 03 80 3c 40 68 2b 9b 3e 93 4d a3 be
       1.0841639 2.9453132 0.30306554 -0.31895122
000390 04 df 01 3f 1a 0c c8 3e ad e2 b4 bd 81 43 39 3d
       0.5073092 0.39071733 -0.088322975 0.045230392
0003a0 23 58 c0 3d ec 2a a4 bd 7f 94 b5 3f 7b ec c2 be
       0.09391811 -0.08015999 1.4185942 -0.38071045
0003b0 20 f9 0b 40 36 e7 73 bc 2d 7e e1 bd 5f c3 94 3d
       2.1870804 -0.014886668 -0.11010394 0.072638266
0003c0 a8 7d 82 3d ac e3 ee bb 7a 73 be be ae b5 9b 3e
       0.06371623 -0.007290324 -0.37197477 0.30412048
0003d0 d5 15 13 bd 3f d8 73 bf cc 3e c9 bc 92 bd df be
       -0.035909493 -0.9525184 -0.024566077 -0.43699318
0003e0 0c 06 9d be 0f 25 f0 3e
       -0.30668676 0.46903273

2.weight f4 [250, 250]
000000 1a 74 a4 bb 08 fc 1a 3d f1 16 47 bd 78 f1 17 3d
       -0.005018723 0.037838012 -0.048605863 0.037095517
000010 37 81 59 bc f1 bd 75 bd c9 94 11 bc 80 e3 b3 3c
       -0.013275436 -0.059995595 -0.008885571 0.021959066
000020 c4 62 16 3d f1 a7 96 bd 14 7a 10 bd d3 8c a0 3b
       0.036715284 -0.07356251 -0.035272673 0.0048996
000030 20 86 f7 bd d9 7a 61 bc 90 54 7a bd 02 fd a5 bd
       -0.12086129 -0.013762199 -0.0611158 -0.08104898
000040 1c 96 60 bc 59 fe 1d bd 6a 96 1a be 35 bb 64 bd
       -0.013707664 -0.038572643 -0.15096441 -0.055842597
000050 c9 ae 95 bd a2 d6 ab 3c 61 2f 0b bd b9 1b 6b 3c
       -0.07308728 0.020976368 -0.03398073 0.014349871
000060 1d e9 b8 bd 26 82 b2 3c a7 b7 a1 3c d3 54 21 bd
       -0.09028838 0.021790575 0.019740893 -0.039387535
000070 9b 53 ce bc 3e 73 de 3c 0b 6d 04 3b 76 56 2f bc
       -0.02518635 0.027154561 0.0020206596 -0.010701766
000080 49 70 eb bd dc d6 e4 3b af 20 b6 bd 26 02 83 bd
       -0.11496026 0.006983621 -0.08892953 -0.06396894
000090 22 5d 02 bd 5d 6e 8e bd 79 34 ea 3c 7d b1 33 bd
       -0.0318271 -0.06954644 0.028589474 -0.043870438
0000a0 cf 27 c9 bc 09 57 6a bd fd 56 19 3d 62 00 2d bb
       -0.024555115 -0.05721191 0.037436474 -0.0026397933
0000b0 c1 86 f6 bc 85 47 95 bd c5 bc 27 3d aa 16 5e 3d
       -0.030093553 -0.07289032 0.04095151 0.054220833
0000c0 0e a0 98 bc 9a 78 26 bd dc 41 f6 3c 24 d3 98 bc
       -0.018631008 -0.04064236 0.030060701 -0.018655367
0000d0 07 c2 fa bc 75 30 e9 bc f3 bc 82 bd 1e d5 91 3d
       -0.030610098 -0.028465489 -0.063836955 0.07120727
0000e0 94 63 c8 3c c2 c0 10 3c 48 44 4c bd c0 4e 2a 3d
       0.024461545 0.00883502 -0.049869806 0.041579008
0000f0 2d 98 05 3b 1e fe 1a 3d 10 15 59 bc c6 bc 06 be
       0.0020384893 0.03784 -0.013249651 -0.13157949
000100 6b 8c b3 3c ca dd 88 bd 24 bd cc 3c c4 22 a3 bd
       0.021917542 -0.06682928 0.024992533 -0.079656154
000110 a9 9b ed 3b d4 20 95 bd ef a0 1b 3d c8 c5 b3 bd
       0.007251222 -0.07281652 0.037995275 -0.08777958
000120 d4 53 59 bd d1 05 82 bc 1c 13 84 bc a7 2d 49 3b
       -0.05305846 -0.015871914 -0.016122393 0.0030697377
000130 66 9b f0 3c d4 f2 fc bc 28 17 3a bd 39 f6 ad bc
       0.029370975 -0.030877508 -0.04543224 -0.021235572
000140 8a 6c 49 3c 10 14 5e bd 77 17 a4 bc f6 f8 4f bd
       0.012293944 -0.05421835 -0.02003072 -0.050774537
000150 a1 e7 4f 3d f9 49 70 bd ec a4 87 3d 63 4e a9 bc
       0.050758008 -0.058664296 0.06623253 -0.02066726
000160 27 ed 71 bd 50 e3 0d bd ad 9d 4a 3d 13 20 1e 3d
       -0.059064057 -0.03464061 0.049466778 0.038604807
000170 94 e6 a2 bc 75 f5 66 bc 5a d5 a0 3c 10 43 c4 bc
       -0.019885339 -0.014096607 0.019632984 -0.02395776
000180 8a eb 22 bc 5d f8 f8 b9 d1 a5 26 bc 6d b8 3a bd
       -0.009943852 -0.0004748729 -0.01017137 -0.04558604
000190 33 2b 22 3c 79 de 3c bd b5 5b e3 bd 0a c1 36 bd
       0.009897995 -0.046110604 -0.11101476 -0.04461769
0001a0 18 d5 2f bd 24 c0 86 bb dd b0 f5 bc fc 0a 8b bd
       -0.04292783 -0.0041122604 -0.029991562 -0.067892045
0001b0 3c 24 5f bd ed 98 8e bd 4f 82 ae bb a9 51 52 bd
       -0.054477915 -0.06962762 -0.0053255926 -0.05134741
0001c0 3b ef 4a bc 88 3a 34 3d 56 75 5f bd a7 fe 0f 3c
       -0.012386139 0.044001132 -0.05455526 0.008788741
0001d0 aa 1e 98 bd 6d d8 a4 bc 45 83 f3 3c 53 75 10 bd
       -0.07427724 -0.020122731 0.02972568 -0.03526814
0001e0 8e 7d bc bc 76 c7 d7 3b 6b a1 34 bd 70 d2 3a 3d
       -0.023009088 0.006585057 -0.044099253 0.045610845
0001f0 0e 4c 81 bd bd 85 21 3c 51 e7 49 3c a6 6d 8f 3c
       -0.063133344 0.009858546 0.012323217 0.01750834
000200 18 ec 14 3d ff 28 38 bd a5 7c 23 bd 16 12 23 bc
       0.03635797 -0.044960972 -0.039913792 -0.0099530425
000210 d2 da e8 3d d3 0f 4c 3d bb 1f 42 bb 13 0d 5b bd
       0.11369862 0.04981978 -0.0029620964 -0.053479265
000220 69 55 ee 3c 8f 2a ed bc de f6 47 3d ca c4 80 bd
       0.029093461 -0.028950958 0.048819415 -0.062875345
000230 51 b9 70 bd 63 cc fa bc 4b 94 9c bc d0 c6 92 bc
       -0.05877048 -0.030615037 -0.01911368 -0.017917067
000240 d7 21 43 bd bb c3 4e 3c 0a c8 93 bd 71 f5 b9 bc
       -0.047639694 0.012619908 -0.07215889 -0.022700043
000250 12 60 75 bd a0 6b 27 bd 84 78 2d bd c6 fc d6 3b
       -0.059906073 -0.040874124 -0.04235126 0.0065608947
000260 2e 56 24 bd 92 7d 05 3d 3a c5 22 bc 8e 94 61 bc
       -0.04012125 0.032590456 -0.009934718 -0.013768328
000270 b8 e0 3d 3d 9b 70 4d bc db 09 54 bd c1 85 0d 3d
       0.046356887 -0.012539054 -0.05176721 0.034551386
000280 3b 00 46 3d ca 9d 19 3d fe 0b b5 3b 59 bc e5 bc
       0.048340064 0.037503995 0.005525111 -0.028043913
000290 99 d0 5f 3d 55 cd 1e bc 2e 07 7f bd dd 97 ed 3c
       0.054642294 -0.00969251 -0.062262706 0.029003078
0002a0 fa 86 b2 bd 1d b3 f1 3c b1 f8 5c bd bd 7a 91 bb
       -0.08717151 0.029504353 -0.053948108 -0.0044396804
0002b0 75 34 1d 3d fd 24 05 3d 32 7c 71 bd 01 7c e3 bc
       0.038380105 0.032505978 -0.058956333 -0.02776909
0002c0 63 88 d0 3c fc dc 0f bc a9 ad ca bc 61 98 b5 3c
       0.02545566 -0.008780714 -0.02474101 0.022167386
0002d0 f7 94 e3 3c ce 14 79 3c 52 46 55 bc cc 21 7d bc
       0.027780993 0.015202714 -0.013017254 -0.015449952
0002e0 c1 10 39 3c d8 42 5b bd 1a 38 97 bc 10 0b 8f bd
       0.011295498 -0.053530544 -0.018459368 -0.06984532
0002f0 8c c6 53 bd d2 e9 71 3d 3d a2 18 3d 0f 76 27 bd
       -0.05170302 0.05906088 0.037264097 -0.040884074
000300 61 7c 4d bc 0d d9 4e be f5 51 6e 3b 4b da d5 bd
       -0.012541861 -0.20199986 0.0036364768 -0.10442027
000310 44 51 ec 3c d6 9c b8 3c a3 b4 37 3d c1 d4 93 39
       0.028847344 0.022535723 0.044850003 0.0002819654
000320 d2 29 63 bd 52 f9 80 bc 1b 3b 06 bd 2a 6c 8d bc
       -0.055459805 -0.015743885 -0.03277121 -0.01726349
000330 98 c2 c0 bd 95 66 dc bd 07 3f a6 bc 20 dd a7 bd
       -0.09412116 -0.107617535 -0.020293726 -0.08196473
000340 01 fc 65 3d 8c bc 95 3c 18 43 9a 3c 37 8f 67 3e
       0.056148533 0.018278383 0.01883082 0.22613226
000350 0e e4 91 bd d0 5d a2 bc ec 93 01 bd 8b 40 42 bd
       -0.07123576 -0.019820124 -0.03163521 -0.047424834
000360 4f c1 a3 bc 10 93 7b 3d 0d ab 07 3a 2f 24 ef bc
       -0.019989638 0.061419547 0.000517533 -0.029192058
000370 e8 a0 b0 bb bb 8e 07 bd a8 d8 33 bc c6 65 12 bd
       -0.0053902753 -0.033095103 -0.010976948 -0.03574159
000380 5f 1e 86 bd 2e 52 b0 3d 0c e2 9c 3c eb 7e 35 3d
       -0.065487616 0.086094245 0.019150756 0.04431049
000390 b8 de be bd 14 29 65 3d a7 6e cf b9 39 d9 52 bd
       -0.09319824 0.05594738 -0.0003956456 -0.05147669
0003a0 e5 5d 4c bd e8 83 27 bc c9 56 69 bd 39 aa 18 3d
       -0.049894232 -0.01022432 -0.05696753 0.037271712
0003b0 0a a0 b9 bc ef ef 14 3c fc 1e a2 bd 3e c4 25 3d
       -0.02265932 0.009090408 -0.07916066 0.040470354
0003c0 d4 3d 85 3d 7d c8 2b bd ed ff 66 3c f5 b1 99 3c
       0.065059334 -0.041939247 0.014099103 0.018761614
0003d0 e7 9f 94 bc 51 11 2d bd 7a 3c 66 3b 8f 65 6e 3c
       -0.018142654 -0.042252842 0.0035131262 0.014550581
0003e0 41 b8 4b bd 99 4d 1b be a1 6e 20 bd 72 3b 81 be
       -0.049736265 -0.1516632 -0.039168004 -0.25240666
0003f0 aa ee 82 bd 11 e7 1d be 06 68 7e bc f1 5b 00 3c
       -0.06393178 -0.15420176 -0.015527731 0.007834421

2.bias f4 [250]
000000 7b 16 86 bd a5 86 d1 3d b5 69 8f bd 84 32 67 bd
       -0.065472566 0.102307595 -0.07002584 -0.05644466
000010 22 95 b5 3e a0 df 0b 3d f2 17 c2 3f ed ad 8b 3e
       0.35465342 0.034148812 1.5163558 0.27281132
000020 a4 6f 1e bd d2 8c 14 bd e4 93 5e 3d 36 0d 1d 3f
       -0.038680688 -0.03626711 0.05434026 0.61348283
000030 45 4f f9 bf 2b 5b 88 3f b8 11 75 3d a6 27 ed 3d
       -1.9477316 1.0652822 0.05983135 0.11579828
000040 8a 2c 06 3e 03 80 6d 3c 2c d2 8b 3f 96 85 8e 3f
       0.13102928 0.014495852 1.0923514 1.1134517
000050 11 47 a7 bc 29 2a 42 bd 6d 58 2e 3f 12 f2 33 3f
       -0.02041963 -0.04740349 0.6810368 0.70291245
000060 1b 0b 96 bd 56 bb ba 3c be 9e d2 3e 35 ef 81 bd
       -0.07326337 0.022794407 0.41136736 -0.06344453
000070 d2 50 2e bd 4b a9 e1 bd c4 18 dd bc c4 b9 a2 bd
       -0.042557545 -0.11018618 -0.026989348 -0.07945588
000080 f9 10 64 bd 24 64 d9 3e 43 c6 29 bf ba ea 9b bc
       -0.05568025 0.42459214 -0.6631815 -0.019032825
000090 99 67 50 3c c1 18 24 3f 02 7f fc 3d f1 9a 80 3c
       0.012720012 0.6410027 0.12328912 0.015698882
0000a0 28 63 b1 bc 33 23 20 bd d0 a9 cf bc bd 40 9d bd
       -0.021653727 -0.03909607 -0.025349528 -0.076783635
0000b0 6e 51 63 bd 84 70 29 3e da 7b 2d 3d 00 8f 00 bd
       -0.05549758 0.16546828 0.042354442 -0.031386375
0000c0 26 fa 62 bd dd 6b d6 3e 5e e7 b8 bc e5 d5 9b bd
       -0.05541434 0.41879168 -0.022571262 -0.076091565
0000d0 6d 97 3b bf b8 7e f4 3c 76 58 fe 3d 34 93 79 3c
       -0.7327793 0.02984558 0.12419216 0.01523285
0000e0 44 df 22 3f 58 01 de be 39 e4 3f 3e 09 74 55 3f
       0.63621926 -0.433604 0.18739404 0.8338018
0000f0 dd 78 a4 3f fb cb 22 40 5c 17 6b bd a8 86 9c 3b
       1.2849385 2.5437 -0.057395324 0.0047767945
000100 a7 f8 ac be 95 8e 02 c0 f3 fc 66 3f 4b dd 40 bf
       -0.33783457 -2.0399525 0.9022972 -0.75337666
000110 6e ad b4 3c 42 59 97 bf 73 dc 90 3d 95 f4 b0 bb
       0.022055354 -1.1824114 0.07073297 -0.00540025
000120 74 c1 a6 3e 1e 38 85 bf 4a dd 47 3e 22 5f 97 3f
       0.32569468 -1.0407751 0.19518009 1.1825907
000130 82 7a 93 bd 6a 4f 59 bd c4 72 07 3f 11 56 a0 bd
       -0.07201101 -0.05305425 0.52909493 -0.07828916
000140 8c e2 90 3f e7 a1 de bc 17 53 66 3c c3 b3 86 3f
       1.1319137 -0.02717681 0.014057896 1.0523609
000150 97 f9 b4 bc d0 da 0d 3e 57 4c a7 3f 07 05 1e 3e
       -0.02209167 0.13853002 1.3070172 0.15431605
000160 65 8a 8f 3f ab 49 01 bf cc b3 36 3f 1e a8 9d 3f
       1.121411 -0.50503033 0.713681 1.231693
000170 82 56 81 bd 7b 48 13 bd ff 0c 63 3e c0 2c 93 3f
       -0.06315328 -0.035957795 0.22172926 1.1498032
000180 43 ba 9a bd d0 8e 23 bd 34 8e 93 3f a4 02 00 bd
       -0.07555058 -0.03993112 1.1527772 -0.03125252
000190 9e 4a 1d 3e 35 6e a4 be e2 de 1a 3d d9 f9 dc 3e
       0.15360495 -0.3211533 0.037810214 0.4315937
0001a0 26 84 41 3f 82 b3 2f bd 84 12 6a bd fd 2c 27 bd
       0.7559227 -0.0428958 -0.057146564 -0.04081439
0001b0 cc 0d 13 40 c9 b5 83 3e c0 2a 56 bd 32 0b d4 be
       2.297717 0.2572463 -0.052286863 -0.4141479
0001c0 71 8d 58 3e b0 d0 45 3e a6 bb 71 3f c9 e0 7f bd
       0.21147706 0.19317889 0.94426954 -0.06247023
0001d0 e5 a6 d0 bd 27 b3 50 3d 08 93 df bd ee b9 41 3f
       -0.101880826 0.050952103 -0.10916716 0.7567433
0001e0 34 fa 8e 3c 0d 97 01 be da c0 31 bd 80 24 fa 3e
       0.01745329 -0.12655278 -0.04339681 0.48855972
0001f0 45 71 81 bd d7 b4 50 bd 40 d4 7a bd 7b c2 63 bf
       -0.063204326 -0.050953712 -0.061237574 -0.8896863
000200 17 1f a0 3e 1e 13 ad 3c d1 8e 77 bd 84 c4 29 3f
       0.3127372 0.02112728 -0.060438935 0.66315484
000210 c2 84 a7 bd 96 18 7e b9 52 e9 6b 3d a9 98 c7 be
       -0.081796184 -0.00024232487 0.05759556 -0.38983658
000220 d2 a9 9f bb 12 85 4c 3f a9 6c fc bc d2 c7 3a bc
       -0.004872539 0.7989055 -0.030813532 -0.01140018
000230 eb 70 66 3c 92 78 cb 3b 33 a3 7e bd 84 fd 84 3e
       0.014065008 0.0062094415 -0.062167358 0.25974667
000240 30 c6 99 3e 48 97 f5 3c e8 4b 9f 3e 71 61 bf bc
       0.30034018 0.029979363 0.311126 -0.023361893
000250 c5 31 37 bd d9 8d 62 be dc a0 93 3e 12 57 4e 3f
       -0.0447252 -0.22124423 0.28833663 0.8060161
000260 b1 c9 d8 bd fe 8f e3 bf 90 a6 3e 3f d6 23 43 3d
       -0.105853446 -1.7778318 0.74472904 0.047641598
000270 6a 5a 3a bd 38 5f d0 bc b8 25 37 3d 46 ac 14 3f
       -0.04549638 -0.025436029 0.044713706 0.5807537
000280 bc 4d 8f 3f ae 6b 25 bd b1 f6 3b 3d 24 ad 66 bd
       1.1195598 -0.040385894 0.04588956 -0.056317464
000290 22 a9 16 3d 0e 06 d6 bc aa 49 e6 3e 2b 7e 0b bc
       0.03678239 -0.026125934 0.44978076 -0.0085139675
0002a0 c2 a7 24 3b 8b e3 c8 3c 3d 3e 96 bb 67 90 59 3d
       0.0025124406 0.024522563 -0.004585056 0.05311623
0002b0 64 be a4 3c eb ed 4a 3e 84 4c 16 bd 09 9f 64 bc
       0.020110317 0.19817321 -0.036694065 -0.013953933
0002c0 1f 8a 0c bf ce 6f 4d bf 89 24 82 3f 2c f3 93 bf
       -0.54898256 -0.80248725 1.01674 -1.1558585
0002d0 1f 30 f4 bd 7e 0e 1d bd 23 60 ea bc 6e 28 1e 3d
       -0.11923241 -0.0383439 -0.028610295 0.038612776
0002e0 27 49 82 3d 49 bc fb bb c5 59 4b 3d 17 39 93 3d
       0.06361609 -0.0076823574 0.049646158 0.071886234
0002f0 fc 0c 12 3f 85 d5 cf 3c b5 ac aa 3f 40 6a ac bd
       0.5705106 0.025370369 1.3333956 -0.08418703
000300 0b 93 a5 3e 8b 50 99 bd 22 bd e3 3e bf e7 31 bc
       0.32338747 -0.074860655 0.44480234 -0.010858475
000310 15 06 cd 3e 60 ef 92 bf 89 67 73 bd 7a bc 45 3f
       0.40043703 -1.1479301 -0.05942491 0.7724072
000320 a0 43 74 bf 75 c2 26 bf 75 7b 60 bf 11 27 6f bd
       -0.9541569 -0.6514047 -0.8768838 -0.058386866
000330 0d c9 90 bd c5 ee b5 bd 33 1f 0d bd 57 57 da 3f
       -0.070695974 -0.08883432 -0.034453582 1.7057904
000340 5a c4 ce 3c a0 66 a5 3b 2b 24 2b 3f 30 7c 35 be
       0.025240112 0.0050476342 0.6685206 -0.17723155
000350 13 4e 7e bd a8 d9 ba 3d af 9c 06 40 22 3b 85 bf
       -0.062086176 0.09123546 2.1033132 -1.0408671
000360 16 5f 83 be 76 2e 23 3f d0 31 87 bc 5c 2f 00 3d
       -0.25658482 0.6374277 -0.016503245 0.031295165
000370 dd 75 9b 3d 4f e5 20 bd 06 46 18 3c 61 7e 64 bf
       0.0759084 -0.039281186 0.009294039 -0.8925534
000380 0a 3a 4a 3e 56 df d1 bc c4 c2 dc 3f 76 df 08 3f
       0.19748703 -0.02561919 1.7246938 0.53465974
000390 23 32 bc bd ed ee 25 bd 35 ad 98 bd 22 33 5d 3e
       -0.0918925 -0.04051106 -0.074549116 0.21601537
0003a0 dd 25 d4 3f d3 da ed 3e 84 5f af bd 08 f4 26 40
       1.6574055 0.46456012 -0.0856314 2.6086445
0003b0 a7 78 df bc 32 ec 6b bd 2a 20 c9 3d 3c b2 fd 3c
       -0.027279211 -0.0575983 0.09820588 0.030968778
0003c0 07 ce b4 3c 8f 5a 3b bd 10 d8 43 bf 02 b1 9c 3c
       0.022070898 -0.04574066 -0.7650156 0.019127373
0003d0 ca 0d 9a 3d 69 4d 93 bb 88 84 04 3f e9 d3 ba 3c
       0.07522161 -0.004495312 0.51764727 0.022806125
0003e0 d7 ed 8f 3e 6e 4f 8b 3e
       0.28111145 0.27209038

4.weight f4 [250, 250]
000000 d4 8c fd bc 7e 56 ff 3c dd 92 84 bd c4 62 fd 3c
       -0.030950941 0.031169172 -0.064733244 0.030930884
000010 1e 85 77 bd 43 7a 44 bd 3d 14 09 be 99 63 fc 3d
       -0.060429685 -0.04796816 -0.13386627 0.12323684
000020 d4 10 91 bd dc 58 e5 bc 68 ba 72 bc 61 21 e1 be
       -0.07083288 -0.027996473 -0.0148149505 -0.4397078
000030 e2 15 f4 3d e8 72 27 be 20 92 8f bd 5c 96 0c bd
       0.11918236 -0.16352427 -0.07010293 -0.03432308
000040 f7 fe 27 bd 4f 55 9a 3c 28 9c 8b bd 5e a5 dd 3c
       -0.041014638 0.018839506 -0.06816894 0.027056392
000050 e2 02 1c bd db bd aa bb a6 de a2 ba 5e cf 10 bd
       -0.038088687 -0.005210621 -0.0012425974 -0.03535401
000060 f2 3c 8f 3c 5e ed 7f bc 6c 49 72 be 06 b7 9e 3c
       0.017485116 -0.015620558 -0.2366082 0.019374382
000070 c4 1c 53 3d 6a 8f 38 be 38 cb 94 bc 58 28 a3 bc
       0.051541105 -0.18023458 -0.018163309 -0.019916698
000080 10 a5 54 3d 90 cb b5 bd bf 1c e0 3c 27 44 bf bc
       0.05191523 -0.08876717 0.027357457 -0.023347927
000090 fb 3e 85 3c 11 3d bc bd 05 a5 83 3d 87 7e 73 bc
       0.016265383 -0.09191335 0.06427959 -0.014861709
0000a0 1c e2 ea bb 48 27 56 bd bb e9 27 3c 4b 56 df 3c
       -0.0071680676 -0.052283555 0.010248597 0.027262827
0000b0 a8 71 2b bc bf a6 36 3e cc e7 bb bc 01 a7 08 bd
       -0.0104641095 0.17837046 -0.022937678 -0.033362392
0000c0 75 f8 2e 3c 51 92 92 bd 8e 80 2c 3d 39 78 a8 3c
       0.010679354 -0.07156814 0.042114787 0.02056514
0000d0 b2 18 f0 bc 88 ae 55 3d 80 53 a5 ba 12 b9 56 bc
       -0.02930865 0.0521684 -0.0012613386 -0.013105648
0000e0 ae 05 2d 3d c3 f8 de 3d 96 7b 7e bd 97 37 0d 3d
       0.042241745 0.10887291 -0.06212958 0.034476843
0000f0 61 05 48 3e 18 eb 58 3e 36 de 0e 3d bb ae 14 bc
       0.19533302 0.21183431 0.034879886 -0.009074862
000100 23 5e 58 3d 05 42 cb bd 53 71 93 3d fd 5a 1e be
       0.05282415 -0.099247016 0.07199349 -0.15464397
000110 97 87 97 3c 9f de 11 3e 8c a7 47 bf 58 96 54 bd
       0.018497271 0.1424508 -0.7799003 -0.05190119
000120 7b 8b 2c bd 52 ae 24 be a8 f5 1f 3e f3 d6 5e be
       -0.042125206 -0.16082123 0.15621054 -0.21761684
000130 1a 56 62 3a 01 8f 34 3d ce dc 26 bb 10 43 9d 3b
       0.0008634046 0.04408169 -0.00254612 0.0047992542
000140 f8 ea 72 3d 06 69 b9 3c dc f0 1a 3c 54 a9 1d 3e
       0.059306115 0.022633087 0.009456839 0.15396625
000150 de 30 fc 3a b2 cc 33 bd 2e 00 6d bc 91 be 7b 3e
       0.0019240638 -0.043896385 -0.014465375 0.24584414
000160 28 a3 22 3d 81 cb fc be ef 12 39 bd 8e c1 10 3e
       0.03970638 -0.4937401 -0.045184072 0.14136335
000170 62 7b 4c 3d 11 46 be bc c8 b0 51 3d 5c b8 20 3c
       0.049922355 -0.02322677 0.051193982 0.00980958
000180 f6 50 5d 3d 16 bc 09 3d e6 4f 37 3d 3a b4 66 be
       0.05403229 0.03362664 0.04475393 -0.22529688
000190 8c a5 c2 ba 21 0d d8 bc dd e1 22 3e d1 83 f4 3d
       -0.0014850362 -0.026373448 0.15906473 0.119392045
0001a0 72 23 00 3e a6 21 b1 3b 61 80 df bc 25 b9 44 3d
       0.12513521 0.0054056225 -0.027282896 0.04802813
0001b0 ec e6 4a 3d 49 84 b7 bd 20 30 7e bc 24 50 b8 3c
       0.04953663 -0.08960778 -0.015514404 0.022499152
0001c0 72 94 fd 3d 07 4d fd 3d 82 0d a7 3d bd 50 bf 3a
       0.12381829 0.123682074 0.08156873 0.0014596205
0001d0 49 89 f6 3d a9 1d 34 bd 80 af a4 3c 73 b8 d4 be
       0.12037904 -0.0439736 0.020103216 -0.41546974
0001e0 54 e9 04 3c 24 d6 bd 3d 71 a5 22 bb 53 1e 09 bd
       0.00811227 0.0926936 -0.002481785 -0.033476185
0001f0 66 cd 5d 3d cf 49 f9 3c ca 7d 38 bd 25 41 2e be
       0.05415096 0.030430702 -0.045041837 -0.17017038
000200 be 1c b0 3c 86 1b 08 3d b6 05 e7 bc 21 d9 d2 3d
       0.02149808 0.033229373 -0.028200965 0.1029532
000210 fb e6 0f bd 09 20 c1 3c 8b c9 3a bd 12 e9 c1 bd
       -0.03513239 0.023574846 -0.045602363 -0.09468283
000220 e6 72 c5 be 07 73 94 3c a0 65 69 3e 78 e4 4f bd
       -0.38564223 0.018121256 0.22792673 -0.050754994
000230 71 9e 75 be b5 ff 16 3d 51 86 bc bc 6a 50 34 be
       -0.23986222 0.036864955 -0.023013266 -0.176088
000240 31 02 05 be 25 92 21 bd 5e 39 50 bd de 88 95 bc
       -0.12989117 -0.039446015 -0.05083596 -0.01825374
000250 fa 4a 61 bd 24 04 13 be 7d 91 6b 3e e5 0f 90 bd
       -0.055003144 -0.14357048 0.23004718 -0.07034282
000260 6c 71 62 3d 7f ac 9b 3d c3 b8 9e bd 34 5d b1 3d
       0.05528395 0.076012604 -0.07750084 0.08660355
000270 4d 50 31 bd 38 f9 3c 3d ed 48 ed bc 06 7a 8b be
       -0.04328947 0.04613611 -0.028965438 -0.27241534
000280 f0 4f d0 3d c0 20 50 bd bb 31 42 bc a8 44 e6 bc
       0.10171497 -0.050812483 -0.011852677 -0.02810891
000290 5d 59 0b bd 9f 6c ad bc 7c f0 fd 3c 50 be 2c 3d
       -0.03402077 -0.021169959 0.030998461 0.042173684
0002a0 7e aa 38 3d 36 c8 84 bd c3 76 3f 3c f1 09 fd bc
       0.04508447 -0.064835 0.01168603 -0.03088853
0002b0 cc 93 6d 3c 49 5b 7e bd 24 0f 26 3d af 15 4f 3c
       0.01450057 -0.062098775 0.040541783 0.012639447
0002c0 26 a6 75 bd 96 89 fa 3b ad fc 0f be 5b d3 5e bc
       -0.059972905 0.007645796 -0.14061232 -0.013600196
0002d0 c5 9d d5 3c 11 de 36 bd 62 66 ee bc df 37 8f bd
       0.026076207 -0.044645373 -0.029101554 -0.069930784
0002e0 4d ad a0 bb 59 57 66 bc bd 47 18 ba 99 f6 1b be
       -0.0049034716 -0.014058911 -0.00058090297 -0.15230788
0002f0 75 27 cd 3d ef 3a 38 bc 86 c5 56 3d 84 a7 47 3d
       0.100172915 -0.01124452 0.052434467 0.04874374
000300 a0 a2 12 be 7b 14 7d bc ca 70 2c bc d8 c9 41 3b
       -0.14319849 -0.015446777 -0.010524938 0.002956977
000310 02 e8 fb bc f1 9d 43 bd c3 03 b0 3c 0e da 60 be
       -0.030750278 -0.047758047 0.021486169 -0.21958181
000320 d1 9c 8d 3c 61 2e 8d bd 9b 6a f0 bd eb dd f3 bc
       0.01728669 -0.06893612 -0.117390834 -0.029768905
000330 68 92 49 bd 50 7d c6 bc 8f dd 7b bc a0 9f 65 3e
       -0.04921189 -0.024229676 -0.015372648 0.22424173
000340 4b 3c c4 bd c1 8b 86 be c7 2e 9b be 55 b7 2e 3c
       -0.095818125 -0.262785 -0.30309126 0.010663827
000350 ff e0 d2 bc 75 e9 12 be bb ec 6b 3c 4f 93 11 3e
       -0.025742052 -0.1434687 0.014399703 0.1421635
000360 23 b9 83 3c d2 1d 4e 3c 7e c7 30 3d 59 ae 22 be
       0.016079491 0.012580352 0.043159 -0.15886821
000370 b3 83 8c 3d 99 13 82 bd e6 22 8f bd 9a 2a ab 3c
       0.06861057 -0.06351394 -0.06989078 0.020894337
000380 51 72 1e be 0c 94 46 3d 44 23 fc bd 18 47 34 3c
       -0.15473296 0.048481032 -0.12311414 0.011003278
000390 55 78 b7 3c 84 f2 5d 3c bd c3 10 3d b7 ff 54 bd
       0.022396246 0.01354659 0.03534292 -0.05200168
0003a0 e0 e7 77 be f1 d5 87 3d 6b e5 13 3b 44 3a 36 3c
       -0.24209547 0.06632603 0.0022567164 0.01112229
0003b0 67 ba 2f be f8 4b a5 3c 1e 87 1b 3c e8 46 3b 3d
       -0.1716095 0.020177826 0.009492664 0.04572192
0003c0 56 a0 5b 3d 72 2c 4a 3d 2f d2 67 bd 19 86 75 bd
       0.053619705 0.049358793 -0.05659693 -0.05994234
0003d0 d8 78 5c bc fa 49 ec bc f6 43 b0 be d2 7e f6 bb
       -0.013456546 -0.028843869 -0.3442685 -0.0075224424
0003e0 a9 74 27 3d 86 a2 f5 3d c0 74 5c bd 47 59 1a bd
       0.04088274 0.119938895 -0.05382228 -0.037682798
0003f0 fc 7f 5c bd df 05 1e 3c 1e ef 19 3d d5 d5 66 bd
       -0.053832993 0.009644954 0.037581556 -0.05635627

4.bias f4 [250]
000000 8a 4e 9f 3d fb 4c 00 3d ac 8e cc 3f 8b 0f eb bd
       0.07778652 0.031323414 1.598104 -0.11477574
000010 65 96 6a 3c 9b 8d a8 be fd 0d 30 3c 24 d4 5d bd
       0.014318083 -0.32920536 0.010745523 -0.05415739
000020 59 29 69 bf bf 91 2e bf 55 3d 2c 3f 87 dd d7 bd
       -0.91078717 -0.6819114 0.67281085 -0.105403
000030 b4 c0 00 40 58 0b 95 3e 01 44 5e 3c 3c 43 59 3f
       2.0117617 0.29110217 0.013566018 0.84868217
000040 af fa 00 3f 08 87 6b 3e ab 07 6a bd 2d 76 ca 3d
       0.5038251 0.23000729 -0.05713622 0.098858215
000050 bf ab 92 be cf 7a a6 bd 97 da 36 bc d1 3e ce 3c
       -0.28646657 -0.08128893 -0.011160514 0.025176438
000060 8d 3f f7 bc 4a 60 af 3d 4b 5b a4 bc 66 34 97 3e
       -0.03018167 0.085632876 -0.020063063 0.29532164
000070 53 cc 58 be 48 62 6a be fb a7 7d 3e b9 48 d6 3d
       -0.21171694 -0.22889054 0.2477111 0.104630895
000080 1f 15 10 3f 65 d0 2c 3d 46 f0 59 3d b8 63 81 bd
       0.5628223 0.042190928 0.05320766 -0.06317848
000090 57 4c 5f bf 14 4a c3 bc 82 75 3b 3f 43 ef 49 3f
       -0.8722586 -0.023839034 0.7322618 0.7888071
0000a0 80 13 48 bd aa a8 b1 3f b7 ac 96 bf 82 2e e8 3d
       -0.04884672 1.3879597 -1.1771458 0.11336996
0000b0 25 a2 35 3f c3 a7 b7 be 8a 16 01 bf 4e db b1 bd
       0.7095054 -0.3587018 -0.50425017 -0.08684407
0000c0 c0 7d db be b7 7d ce 3e b1 bb 80 be 09 60 a1 3e
       -0.42869377 0.40330288 -0.25143197 0.31518582
0000d0 c4 83 1b 3e 55 b6 9c 3e 7d 84 42 be f5 b9 15 bf
       0.15186983 0.30607858 -0.18995853 -0.5848687
0000e0 59 bf 06 3d af d9 23 3f 45 20 d2 3e fc b5 cb 3e
       0.032897327 0.64004034 0.41040245 0.3978728
0000f0 84 12 4d bf c4 72 90 3e 1d 30 06 be 1b 41 90 bd
       -0.8010638 0.2821256 -0.13104291 -0.07043668
000100 0e 82 62 3f 55 68 62 3e a8 13 c8 3e 75 47 ad 3e
       0.884797 0.22110112 0.39077497 0.3384358
000110 72 65 75 bd cc c3 ba 3e 06 02 84 bf 02 48 8b 3f
       -0.0599112 0.36477506 -1.0313118 1.088135
000120 72 0a 8f 3f f0 d2 43 be 31 74 0e 3f c0 83 18 bd
       1.1175063 -0.19123435 0.55646044 -0.03723502
000130 62 b7 1f 3e 77 78 60 3f 9b b4 f1 be 1c b6 d1 bd
       0.15597299 0.87683815 -0.47208104 -0.10239813
000140 82 38 59 bf bb 84 12 3f 97 9d a4 bd 06 25 31 3e
       -0.8485185 0.5723378 -0.080378704 0.1729928
000150 80 b3 cc 3d f8 fa 00 be e2 a6 1b 3f 05 62 51 3e
       0.099951744 -0.12595737 0.6080152 0.20447548
000160 7c b7 37 3f 1d 38 10 3f de 11 bd be 58 2b 14 bf
       0.7176435 0.5633562 -0.36927694 -0.5787864
000170 c6 77 50 3e 3f bb 4c 3d 16 82 7b bc 4a ae 02 40
       0.2035819 0.04998326 -0.015350839 2.0418878
000180 29 28 51 bf e6 42 0f bd 5e 58 34 be 5e fa 1a 3e
       -0.81701905 -0.03497591 -0.17611834 0.1513457
000190 a5 40 e0 3e dd e3 b2 bd 68 cd 52 bd 1e 48 09 3f
       0.4379932 -0.08734868 -0.051465422 0.5362567
0001a0 60 6e 09 3e 19 a2 94 3f 8e 4c 33 3f 49 64 80 bf
       0.13421011 1.1611968 0.7003869 -1.0030605
0001b0 76 6f 0d 3d da ce b8 3e eb 95 22 3d 3c 32 bb be
       0.034530126 0.36095315 0.039693754 -0.36561763
0001c0 84 47 0f 3d dd 49 5c bd c1 55 92 3d 0a a7 19 3d
       0.034980312 -0.05378138 0.071452625 0.037512816
0001d0 a1 5b 76 bd da d3 77 bc 55 96 79 bd 30 77 89 3e
       -0.060145978 -0.015126193 -0.060934383 0.26848745
0001e0 13 55 02 3c 99 22 cd 3e d6 9e d6 be 11 8c b8 3e
       0.007954854 0.40065458 -0.41918057 0.36044362
0001f0 83 f0 50 bc 93 a5 bf 3e d3 1c f4 bd 15 ec 80 bd
       -0.012752655 0.3743101 -0.1191956 -0.06295029
000200 74 cc cf bb 74 17 b6 3c 4a 8d 02 3e 2a 95 18 3d
       -0.0063415114 0.02222798 0.1274921 0.03725163
000210 9b 14 2a bd 6c d3 7d 3f d7 a9 8b 3e db 10 9a be
       -0.041523557 0.9915073 0.27278015 -0.30090985
000220 9c c5 a1 3d f8 8b 4a be 71 11 08 3c c0 b2 64 be
       0.07899019 -0.19779956 0.00830494 -0.22333813
000230 df 73 7b 3e b5 c9 ad bd 41 35 33 3d fe 1f 2e 3e
       0.2455592 -0.08485738 0.04375196 0.17004392
000240 e2 3f 85 3e f8 25 eb bd b2 99 f8 bd 74 b2 23 40
       0.260253 -0.11481851 -0.1213869 2.557767
000250 7d 1e dc 3e b9 5d 9f 3e 81 8d ad 39 a8 2a 3c 3c
       0.4299201 0.31126192 0.0003310256 0.011484779
000260 83 05 7d bd 19 71 75 bd ec a1 de 3a 43 e3 12 3e
       -0.061772835 -0.05992231 0.0016985512 0.14344506
000270 82 b1 64 3d 17 51 8a 3e 3d 7c 37 be e8 c2 0b 3f
       0.055833347 0.27014992 -0.17918487 0.5459428
000280 7d 2a e1 bd 47 17 d5 3b e9 45 97 3e 03 99 be bd
       -0.10994432 0.006503019 0.29545525 -0.093065284
000290 9c 05 05 3d 7c aa 7d bf a2 8c 12 be 51 40 cb bd
       0.032476053 -0.99088264 -0.1431146 -0.09924377
0002a0 1b 95 e3 3e fc 0d e5 bd 68 c2 08 3f aa 11 0c be
       0.44449696 -0.11184308 0.5342164 -0.13678613
0002b0 c5 10 00 3e cd b4 95 bb 45 47 8d bd 94 1c 92 3e
       0.12506397 -0.0045686723 -0.06898359 0.28537428
0002c0 2d 4e 58 3f 73 b0 96 3e 4a 8b 32 3e e1 c0 15 3f
       0.84494287 0.29431495 0.17435947 0.58497435
0002d0 2d 71 f9 3d 3c 5f 9c bd 12 45 76 be 96 3d 4b 3d
       0.1217979 -0.07635352 -0.24049786 0.04961928
0002e0 91 32 82 bd 34 01 1f bf af 5c 7e 3f 2c 5e 68 3b
       -0.06357301 -0.6211121 0.99360174 0.0035456521
0002f0 50 4f ae bf be 41 bd be 12 1e 96 3f 80 05 cf 3f
       -1.3617954 -0.3696422 1.1727927 1.6173553
000300 9f e0 f9 3e 25 ce 52 bd 45 a9 0c 3e 6d cf 6f bc
       0.48804185 -0.051466126 0.13736446 -0.0146368565
000310 35 8c 6a 3c 2b b8 9b 3f b1 78 ae bd 6f c5 47 bd
       0.0143156545 1.2165579 -0.08519114 -0.04877227
000320 b5 c1 15 3f 7a 7c 55 be a3 cf d7 3c 3e 2d 43 3d
       0.584987 -0.20848265 0.026344126 0.04765057
000330 dd 60 3b 3f 02 60 d0 3b 7a a0 8d 3e 84 22 c5 bd
       0.73194677 0.0063591013 0.27661496 -0.09625724
000340 3f 23 5b be 3f 01 aa be d0 1c 0c bf ff 7d 18 be
       -0.21400164 -0.33204076 -0.54731464 -0.14891814
000350 99 e3 11 be cd 5c fa bd db 1a 70 3f c6 ea 3d 3e
       -0.14246978 -0.122247316 0.9379098 0.1854659
000360 82 9e ac 3e b5 6e 4e 3c 0a 0e 3f 3f 5e bc bf 3e
       0.33714682 0.012599637 0.74630797 0.374484
000370 c7 d2 e9 3e 22 3c a5 bd 7f 54 b9 3c 22 68 a7 bb
       0.45668623 -0.0806811 0.022623299 -0.005108849
000380 76 39 bc bd 29 93 e0 3e 8c a1 ad bf 99 f1 66 3f
       -0.09190647 0.43862274 -1.3564925 0.902124
000390 66 8b 1b bf 05 bf 3f be 5b 08 b5 3f 7d cf 07 3f
       -0.6075958 -0.18725212 1.4143175 0.53050977
0003a0 2a 0a 29 bd bb ed 9b 3e 79 2c fc 3e 1a 6f 85 3e
       -0.04126946 0.3045481 0.4925268 0.26061326
0003b0 61 e1 46 be c0 65 86 bd 1e 10 81 3e 50 02 9a 3d
       -0.19421913 -0.06562376 0.2520761 0.07519972
0003c0 74 9a 56 3f a9 93 6e 3c a5 a8 4d 3e 35 ef 4f bd
       0.83829427 0.014561572 0.20083864 -0.050765235
0003d0 9c 06 31 be e0 1f 2d bc d4 55 ff 3e 5f 53 bc 3c
       -0.17287678 -0.010566682 0.4987017 0.022988973
0003e0 11 ae 9b 3e c9 39 f7 3e
       0.3040624 0.48286274

6.weight f4 [157, 250]
000000 50 68 53 3d 0b bd 41 bd 18 d9 f2 bb bd 17 28 be
       0.051613152 -0.047299426 -0.0074111335 -0.16415305
000010 b0 ce 4c 3e 5f a2 35 be db aa 33 3e 18 24 18 be
       0.2000072 -0.17737721 0.17545645 -0.14857519
000020 62 f4 01 be ee 41 08 bd 3b ec c1 be b8 fa e6 3d
       -0.12690881 -0.033266 -0.37875542 0.112782896
000030 d9 90 45 be 27 97 97 3d ae a4 57 be e4 da 17 bd
       -0.19293536 0.07401877 -0.21058914 -0.037073985
000040 fc 87 8c 3a da d3 98 bd fa db a4 3c cd f1 0b 3c
       0.0010721679 -0.074622825 0.020124424 0.0085415365
000050 22 f8 e3 bb 0d 2d 01 be 0b fb 5b bd 40 33 26 be
       -0.00695707 -0.12614842 -0.05370621 -0.16230488
000060 8a 34 fc 3c f7 3f 87 3e 13 8b b5 3c ab da a1 bd
       0.030786771 0.2641599 0.022161042 -0.07903036
000070 e6 c7 1f bc 5b 2d 75 be d8 3a 19 3d 61 1e b8 3d
       -0.009752249 -0.23943083 0.037409633 0.08990169
000080 f4 ba c1 3d 77 71 93 bc ea da 8d 3c ee 3a 7b bd
       0.094594866 -0.01799844 0.0173163 -0.061335497
000090 21 ee 73 3d 39 60 ca bd ee 8e 12 be 1a 8c 66 3d
       0.05955327 -0.09881634 -0.14312336 0.056285955
0000a0 53 5e a1 3d 56 0f 1f 3e 7d 48 09 bb 74 22 f5 bc
       0.07879319 0.15533194 -0.0020947747 -0.029923655
0000b0 64 53 fe bd ff b4 33 3e 03 cd 74 bd 0e d0 13 3e
       -0.12418249 0.17549513 -0.059765827 0.14434835
0000c0 f8 59 cf 3d 8e e0 b1 3d fb e0 11 bf 76 52 d4 bb
       0.10124582 0.086854085 -0.5698392 -0.0064795567
0000d0 73 f7 80 3c 9a 35 7d 3d 59 e6 d2 bc ab a1 c5 3d
       0.015742993 0.061818697 -0.025744604 0.09649976
0000e0 1c 9e a9 be eb 76 98 be 0f 23 36 3e bb 85 ab 3c
       -0.3312844 -0.29778227 0.17786811 0.020937791
0000f0 29 46 82 3e a1 9f 21 3d ec c4 80 3c be 6e 96 bc
       0.25444153 0.039458875 0.0157189 -0.018363353
000100 9a 5d c6 be b3 e5 4d be ea 3f 98 3d 3f 33 8c 3b
       -0.38743287 -0.20107155 0.07434066 0.00427857
000110 dc fd d3 3d 14 70 0f 3e c8 b3 0a bc d2 ef 42 3c
       0.10351154 0.14007598 -0.008465715 0.011897998
000120 42 9c 2d 3e b0 27 dd bd ce 64 95 ba cf 7e b2 bd
       0.16954139 -0.107985854 -0.001139784 -0.08715593
000130 a0 ee bb 3d 19 ac 01 bd da 6c 7e 3d b6 07 9e bd
       0.091763735 -0.031658266 0.062115528 -0.077163145
000140 82 64 46 3d 80 11 54 be cc d0 08 3e dd ff 66 be
       0.048435695 -0.207098 0.133609 -0.22558542
000150 24 0f 0f bc 05 18 5d 3c 78 42 d3 3d a8 c0 5f 3d
       -0.008731637 0.013494496 0.10315412 0.05462709
000160 0f 2b dc 3d f8 aa 04 be 81 b6 08 3e 3b 24 ce bd
       0.107504 -0.12955844 0.1335087 -0.10065504
000170 27 f4 29 bf 6c a7 4c 3d 80 fb 90 bd a1 3d 7c 3c
       -0.6638817 0.049964353 -0.0707922 0.015395553
000180 03 ec 1c bc ba a8 73 bd f3 a5 d9 bd e2 6a d9 3b
       -0.009577754 -0.059487082 -0.106273554 0.006635056
000190 10 ad eb bd ed 9c 90 bd 49 24 26 bd 50 69 d6 bd
       -0.115076184 -0.07061181 -0.040561948 -0.104693055
0001a0 cd d5 a9 3c 64 83 30 bd 42 2f 82 bd 3d 94 cd bd
       0.020731831 -0.043094054 -0.0635667 -0.1003804
0001b0 84 69 97 bc 6a 89 31 bd 20 9f 25 bc 86 77 da 3d
       -0.018482931 -0.04334394 -0.010108739 0.106673285
0001c0 86 f4 b8 bd d3 9d 92 3b 89 7a b2 bd 24 f1 10 3d
       -0.09031014 0.0044743805 -0.08714778 0.03538622
0001d0 51 b9 9f 3c 9c 2d 49 3d f0 0b e8 bc c8 7c ac 3c
       0.019497545 0.049115762 -0.028326005 0.021055594
0001e0 cd 89 24 3c 09 bc 43 bc 6d dc 37 3d 68 7e 53 bd
       0.01004262 -0.011946687 0.04488795 -0.051634222
0001f0 c2 ec 16 3e f4 3c 12 3e 9a d1 10 3e 40 c8 fa bc
       0.14738753 0.14281064 0.14142457 -0.030613065
000200 99 09 0a 3d 97 46 4c bd 5d 5a 4d 3d fb 48 36 3d
       0.03370056 -0.049872007 0.050135005 0.044503193
000210 4a 92 9a bb 00 3f ee 3d e1 e4 83 bd 76 b4 5e 3d
       -0.004717146 0.1163311 -0.064401396 0.05437132
000220 b3 c1 15 3e 46 4a 10 3d ce 77 94 bd 88 c7 92 be
       0.14624672 0.035227083 -0.072494134 -0.28667855
000230 07 3a 8b 3e d5 07 97 bd 5e c3 0d 3d 79 84 a8 bd
       0.2719271 -0.07374541 0.034610145 -0.08228392
000240 9a 61 08 3e 23 4b da be 66 c0 8c bd 70 45 9a bd
       0.13318482 -0.4263545 -0.068726346 -0.075327754
000250 bd be 85 3d 2b 3b dc 3c ea 48 cc bb a7 96 3b bd
       0.06530521 0.026883682 -0.006234278 -0.04579797
000260 48 96 1a be 88 30 6c bc 1b e6 09 bc 56 20 d6 be
       -0.1509639 -0.014415868 -0.008416678 -0.41821545
000270 5a 66 fa 3c 65 33 a7 bc 67 e3 f0 3d c3 87 26 be
       0.030566383 -0.020410249 0.117621236 -0.16262726
000280 02 d2 76 be 9d 48 5c 3b 34 51 cd bd 9d d9 b1 ba
       -0.24103549 0.0033612617 -0.10025254 -0.0013568882
000290 4c 5e 03 3e 82 08 0c 3d 1b 62 b9 3d 5e a8 0c be
       0.1282894 0.0341878 0.09051915 -0.13736102
0002a0 ff 89 b8 3d 1a bc a9 bd 0c de 0b bd fd 2a d2 bd
       0.09010696 -0.08287831 -0.034147307 -0.102621056
0002b0 ec f5 2f 3e 3b 80 41 bd 58 30 2d 3c c8 1c 85 be
       0.17183656 -0.04724143 0.010570608 -0.2599852
0002c0 49 53 0b be 0d 6b 21 3d ed e2 e1 3d 99 b1 3e be
       -0.1360599 0.039408732 0.11029611 -0.18622436
0002d0 cf 52 ae bb 2d 51 6e bd d6 da ed 3c bb 86 03 bd
       -0.00531993 -0.058182884 0.029035013 -0.03211091
0002e0 95 8c 86 3c e0 64 1a 3d eb 73 83 3c 29 af 36 3d
       0.016424457 0.03769386 0.016046485 0.04460064
0002f0 05 2b 4c 3d 58 83 28 3e 6a b3 30 3c e6 25 58 3d
       0.049845714 0.16456354 0.010784963 0.052770518
000300 e8 41 0b 3e 2b 7e c1 bc c8 d0 62 3e 20 b9 a9 3c
       0.1359936 -0.023619732 0.22149956 0.020718157
000310 d3 59 ce 3b 72 69 39 3e 8e 16 3f bd 68 93 87 3d
       0.006297329 0.1810663 -0.04665237 0.066199124
000320 4d bc 31 3c 98 c3 da bd eb 70 0c 3d be b8 1a 3e
       0.010848117 -0.10681838 0.034287374 0.15109536
000330 e1 3f f5 3d 64 a1 80 3b ab 18 10 3d 56 5a 38 be
       0.119750746 0.0039254893 0.035179775 -0.1800321
000340 bd e3 c5 bd b5 db 20 3d 8c 20 28 3d 72 c2 c6 3d
       -0.09662578 0.03927203 0.041046664 0.09705056
000350 f0 7d a1 bd 6c d9 8e bd 15 47 9c bd 5b 1e e5 3d
       -0.07885349 -0.06975064 -0.07630745 0.111874305
000360 2a 78 f3 bd 97 7d 54 3c d7 9b 8e be 65 bd 27 3d
       -0.11888154 0.012969396 -0.2785327 0.040952105
000370 ba bb 58 bd d3 2a f8 ba f9 d5 6a bd c0 85 85 3c
       -0.052913405 -0.0018933661 -0.057332966 0.016299129
000380 42 9f c6 bc a0 5c 7f be 41 db 18 be 67 3d fe bd
       -0.024245862 -0.24937677 -0.14927389 -0.12414055
000390 08 9f 1c 3e bc c0 74 be 68 97 45 3d ba 3e e9 3d
       0.1529504 -0.23901647 0.048240095 0.11388917
0003a0 ac f0 44 bc 73 f1 46 3d 0d 5e fa 3d 55 3c 3f 3d
       -0.012020271 0.048570108 0.1222497 0.046688396
0003b0 d9 15 aa bc ba 04 81 3a 50 96 a5 3d 4f ff 60 be
       -0.02076237 0.0009843328 0.080853105 -0.21972392
0003c0 03 71 a6 3d c7 e5 d6 bd a8 2c 1c 3e c4 c0 04 bd
       0.08127024 -0.10493045 0.1525141 -0.032410398
0003d0 83 bf 00 3e b1 18 1b bd 16 ff 37 be 38 d6 0c 3c
       0.12573056 -0.037865344 -0.17968401 0.008595996
0003e0 ef b1 03 3e 42 be 47 3c c1 0f af bd ce b8 2d bd
       0.12860845 0.012191357 -0.08547927 -0.04241257
0003f0 9b 6d 8b 3d 38 d5 7a be 5b a9 fc 3c 5e 40 17 bf
       0.06808015 -0.24495399 0.030842474 -0.5908259
