pav_spkid_pytorch/lp_model_hsize_250_lr000125/e4_weights.ckpt (torch_old, 850838 bytes, 8 tensors)

0.weight f4 [250, 189]
0	0x3d4541fe	0.04815864
1	0xbf39a693	-0.725198
2	0x3eda6533	0.42655334
3	0xbed7182c	-0.4201063
4	0x3ebe9802	0.37225348
5	0xbe2f382c	-0.17111272
6	0x3ef771f1	0.48329118
7	0xbebdd2c8	-0.37074876
8	0x3ec66fd8	0.38757205
9	0xbc3a54f7	-0.011372796
10	0xbf1ebb9d	-0.62005025
11	0x3ea965f8	0.33085608
12	0xbec198db	-0.37811932
13	0x3e57fb3f	0.21091937
14	0xbe253fe0	-0.16137648
15	0x3eaa31f6	0.33241242
16	0xbe821cd3	-0.25412616
17	0x3ef2ef81	0.47448352
18	0x3c996c15	0.018728295
19	0xbf142173	-0.5786354
20	0x3e694bba	0.22782794
21	0xbe32356a	-0.17403188
22	0x3da64fb1	0.08120669
23	0x3d0e01ed	0.034669805
24	0x3da632bc	0.081151456
25	0x3da7f448	0.0820089
26	0x3ef0a8aa	0.4700368
27	0x3d3bd78e	0.045859866
28	0xbefc92b0	-0.49330664
29	0x3d1c07f4	0.038093522
30	0xbe1c1d06	-0.15245447
31	0xbd92a939	-0.07161183
32	0x3df39b4e	0.118948564
33	0x3c2b59bb	0.010458405
34	0x3e94fea5	0.29100528
35	0x3f0a1704	0.5394137
36	0xbe74bc17	-0.23899876
37	0xbf10939e	-0.56475246
38	0xbe3250b0	-0.17413592
39	0x3e06d545	0.13167293
40	0xbef79b11	-0.48360494
41	0x3f07e60a	0.53085387
42	0xbed3b4a8	-0.41348767
43	0x3f4fa25b	0.8110711
44	0x3f0407d1	0.51574427
45	0xbf1d7f09	-0.61521965
46	0xbf05e8cd	-0.5230835
47	0xbe732ab7	-0.23746763
48	0x3e5a0920	0.21292543
49	0xbf21000b	-0.6289069
50	0x3ef2524f	0.4732842
51	0xbeb81e0d	-0.35960427
52	0x3f51a935	0.81898814
53	0x3f0b2777	0.54357094
54	0xbf119b45	-0.5687755
55	0xbea7c17c	-0.32764804
56	0xbe634965	-0.22195967
57	0x3e91df4d	0.28490677
58	0xbf20cf62	-0.6281644
59	0x3f019da7	0.50631183
60	0xbebc5594	-0.3678404
61	0x3f32b584	0.6980822
62	0x3f35fac9	0.7108579
63	0xbc336725	-0.010949885
64	0xbe963bcd	-0.293425
65	0xbddd5b22	-0.10808398
66	0x3e90570a	0.28191406
67	0xbe8410e8	-0.25794148
68	0x3ed3c5e3	0.41361913
69	0xbd4a804c	-0.04943876
70	0x3e91ca3c	0.28474605
71	0x3f415cf3	0.75532454
72	0x3d70218d	0.058625747
73	0xbde6e162	-0.11273457
74	0x3e94842c	0.2900709
75	0x3e1073da	0.14106694
76	0x3da6aad3	0.08138051
77	0x3e8d48b4	0.2759453
78	0x3ea09af6	0.31368226
79	0xbc980211	-0.018555673
80	0x3f5d63fb	0.86480683
81	0x3d2e78b3	0.042595576
82	0xbe14bda5	-0.14525469
83	0x3ecc0013	0.39843807
84	0xbc4eb1d0	-0.012615636
85	0x3e87d50c	0.2652973
86	0x3cb3436e	0.021882739
87	0x3ec3510c	0.3814777
88	0xbe24189a	-0.1602501
89	0x3f3e80a6	0.7441505
90	0x3b8bf973	0.00427168
91	0xbdd32528	-0.10309821
92	0x3ea3222c	0.3186201
93	0xbdc541e0	-0.09631705
94	0x3e812c54	0.25229132
95	0x3ce8bc34	0.028410055
96	0x3f09eaf3	0.5387413
97	0xbe11157d	-0.14168353
98	0x3f0eee55	0.55832416
99	0xbc966760	-0.01835984
100	0xbe5a9188	-0.21344578
101	0x3edb8d34	0.42881167
102	0xbe155509	-0.1458322
103	0x3e3f3995	0.1867431
104	0x3d809dff	0.06280135
105	0x3f016aad	0.505534
106	0xbe2b300e	-0.1671755
107	0x3eb07d4c	0.34470594
108	0x3ceb4d22	0.028723303
109	0xbed2fbb8	-0.4120767
110	0x3ec192e1	0.37807372
111	0xbe1271b6	-0.1430119
112	0x3e6fc318	0.23414266
113	0xbcb30116	-0.021851104
114	0x3f002f4e	0.5007218
115	0xbe24f12f	-0.16107629
116	0x3e896753	0.26836643
117	0xbc180250	-0.009277895
118	0xbe960ceb	-0.2930673
119	0x3e8eff4d	0.27929154
120	0xbe2b64a1	-0.16737606
121	0x3e89af67	0.26891634
122	0x3e18ae6d	0.14910288
123	0x3e986585	0.29764953
124	0x3d7d6be3	0.061870467
125	0x3e11824f	0.14209865
126	0xbb806ebb	-0.00391945
127	0xbe8c08b8	-0.27350402
128	0x3e5f0637	0.21779715
129	0xbbf8f504	-0.0075975675
130	0x3db03f89	0.08605868
131	0x3df73151	0.12069953
132	0x3e6728e9	0.225742
133	0x3e841c80	0.25802994
134	0x3cce4cf1	0.025183173
135	0x3c654eae	0.0139958095
136	0xbec5bb25	-0.38619342
137	0x3e4cfa33	0.20017318
138	0xbdd43d1d	-0.10363219
139	0x3dba3d74	0.090937525
140	0x3e1f946f	0.15583967
141	0x3eaa64d3	0.33280048
142	0x3e527f34	0.20556337
143	0x3da64e18	0.08120364
144	0xbcad949d	-0.021189028
145	0xbe81b4fc	-0.25333393
146	0x3e764b87	0.24052249
147	0x3c4d7ddb	0.012542213
148	0x3d251c06	0.04030993
149	0x3dd3243e	0.10309647
150	0x3e7e0826	0.24807796
151	0x3db8d711	0.09025396
152	0x3e1620bc	0.14660925
153	0x3ccfce53	0.025366938
154	0xbea375dc	-0.31925857
155	0x3e5e3721	0.21700718
156	0xbc686694	-0.014184613
157	0x3d3d9cda	0.046292163
158	0x3d84c0d0	0.064820886
159	0x3eabc877	0.3355138
160	0x3cba0cf5	0.022711257
161	0x3db8b9d1	0.09019817
162	0xbc70cdef	-0.014697536
163	0xbec7bb58	-0.3901012
164	0x3e67d22e	0.22638771
165	0x3d33adab	0.043866795
166	0xbcbfb330	-0.023400873
167	0x3d8ada5d	0.06779931
168	0x3e9704d3	0.29495868
169	0x3ccc01b6	0.02490316
170	0x3ba3a3a8	0.0049938746
171	0x3bd6ce8b	0.0065553836
172	0xbea82e57	-0.32847854
173	0x3e585e69	0.21129765
174	0xbdbffb14	-0.09374061
175	0x3de14b7b	0.11000725
176	0x3daaca4e	0.08339368
177	0x3e9c04c6	0.30472392
178	0xbd79d6a1	-0.0609957
179	0x3dee622b	0.11639818
180	0xbaf1568e	-0.0018412636
181	0xbed1aa3a	-0.40950185
182	0x3eadea89	0.33968
183	0xbd6aad1a	-0.05729399
184	0x3e363e07	0.17797099
185	0x3d295c98	0.04134807
186	0x3eb46336	0.35231942
187	0xbe0b02c1	-0.1357527
188	0x3dc4039e	0.095710024
189	0xbca391c0	-0.01996696
190	0xbd9c709f	-0.07638668
191	0x3e61de74	0.22057515
192	0xbcf80162	-0.030274097
193	0xbe6f9e4d	-0.2340023
194	0x3f09189b	0.5355317
195	0xbf887483	-1.0660557
196	0x3e050739	0.12991036
197	0x3fb7f261	1.4370843
198	0xbc8c8668	-0.017153934
199	0xbd4f43bd	-0.05060171
200	0x3e0180cb	0.12646787
201	0xbd15f4d3	-0.036610436
202	0xbe6aaa4f	-0.2291653
203	0x3eb83075	0.3597447
204	0xbf36e040	-0.7143593
205	0xbdba8f05	-0.0910931
206	0x3fa7761b	1.3082918
207	0x3b51ae10	0.0031994618
208	0xbd226166	-0.039643668
209	0x3e5f8e38	0.21831596
210	0xbdba6951	-0.09102119
211	0xbe5968f6	-0.21231446
212	0x3e9410f4	0.28919184
213	0xbf3e4a06	-0.743317
214	0x3d324e8e	0.043531947
215	0x3f9a0332	1.2032225
216	0x3d9929d9	0.07478685
217	0xbe091a4c	-0.13388938
218	0x3e503247	0.2033168
219	0x3c594edd	0.013263431
220	0xbe35946f	-0.17732404
221	0x3eb5b15a	0.3548687
222	0xbf38a1ea	-0.7212206
223	0xba958749	-0.0011408116
224	0x3f955a31	1.1668149
225	0xbce49ced	-0.02790686
226	0xbddffa88	-0.10936457
227	0x3e0dd614	0.13851196
228	0xbcfc3b37	-0.030789955
229	0xbe899d09	-0.2687762
230	0x3eaf7f7c	0.3427695
231	0xbf2d24d9	-0.6763435
232	0x3d1affaa	0.037841477
233	0x3f9122d2	1.1338751
234	0x3d787e8e	0.060667567
235	0xbdf4364f	-0.11924421
236	0x3e0db4af	0.13838457
237	0xbdc8e6ef	-0.09809672
238	0xbe4520a1	-0.19250728
239	0x3ed3b050	0.41345453
240	0xbf1f888c	-0.6231773
241	0x3e3b7089	0.18304648
242	0x3f96cb8d	1.1780869
243	0xbd0f71c1	-0.035020594
244	0xbd1a8f8a	-0.037734546
245	0x3e329c51	0.17442442
246	0xbbb9afc6	-0.005666706
247	0xbe84ca95	-0.25935808
248	0x3ee27015	0.44226137
249	0xbf30d177	-0.6906962
250	0x3e85b036	0.26111
251	0x3f911e1d	1.1337315
252	0xbca6d9b0	-0.020367473
253	0xbd69d0cb	-0.057083886
254	0x3da05833	0.07829323
255	0xbcc7a1ea	-0.024369199

0.bias f4 [250]
0	0x3f7514d3	0.957349
1	0x3e00edb0	0.1259067
2	0x3ec94907	0.39313528
3	0xbe7a4bbb	-0.24442951
4	0x3bfe1ccc	0.0077548977
5	0xbd57f9d2	-0.05272848
6	0xbad88b28	-0.0016520964
7	0xbd8d55bf	-0.069011204
8	0xbceff415	-0.029291192
9	0x3ed8b0cb	0.42322382
10	0x3f3f689a	0.74768984
11	0xbdc12da1	-0.09432531
12	0x3f2f9fcd	0.6860321
13	0xbe911fb0	-0.28344488
14	0xbdfc9319	-0.12332744
15	0xbf32a170	-0.69777584
16	0xbe2bd87b	-0.167818
17	0x3e1e2595	0.15444024
18	0x3f8f9c9c	1.1219668
19	0x3f17d751	0.5931292
20	0xbdb9cb6f	-0.09072005
21	0xbd9dcff1	-0.07705677
22	0x3f1a3827	0.6024193
23	0x3e0fb4c5	0.14033802
24	0x3d60b5e3	0.05486096
25	0xbd42cb9d	-0.047557462
26	0x3e581402	0.21101382
27	0x3d61206e	0.054962568
28	0x3ed3a6b7	0.4133813
29	0xbe88f995	-0.26752916
30	0x3e4d11b6	0.20026287
31	0xbeae4fd0	-0.34045267
32	0xbe08ae14	-0.13347656
33	0x3e1ad365	0.15119703
34	0xbd0541ff	-0.032533642
35	0x3ea414a2	0.32046992
36	0xbc865415	-0.016397515
37	0x3e58b13c	0.2116136
38	0xbee375d3	-0.4442583
39	0xbd180c09	-0.037120853
40	0xbdf40d8e	-0.11916648
41	0x3d9c7a23	0.07640483
42	0xbd8a5223	-0.067539476
43	0x3e95328f	0.29140136
44	0x3f9a27f9	1.2043449
45	0xbeba38d2	-0.36371475
46	0xbd8d7178	-0.06906408
47	0x3f1401a1	0.57814986
48	0x3eabf677	0.33586475
49	0xbd3dbff0	-0.046325624
50	0x3bb81ce2	0.0056186775
51	0xbdeb3edd	-0.114865996
52	0xbf4987ff	-0.7872314
53	0x3ec6f716	0.38860387
54	0xbedbc87f	-0.42926404
55	0x3f012656	0.5044912
56	0xbe293f99	-0.16528167
57	0x3dbc5151	0.091951974
58	0x3e09a08c	0.1344015
59	0xbdce5e45	-0.10076574
60	0x3c4fc071	0.012680159
61	0xbd280319	-0.04101858
62	0xbf18c70f	-0.5967874
63	0x3e183ce1	0.14866973
64	0xbe311ec9	-0.172969
65	0x3ce1b43e	0.027551766
66	0xbf1f4d08	-0.62226915
67	0xbe97d136	-0.29651803
68	0xbd6fd0a8	-0.0585486
69	0xbedb8b3e	-0.4287967
70	0xbc09f06d	-0.008419138
71	0x3f2b1755	0.66832477
72	0x3cda04d2	0.026613627
73	0x3f95ad3d	1.1693493
74	0x3e04fd61	0.12987281
75	0xbeed211e	-0.4631433
76	0x3bdee7c9	0.0068025333
77	0x3d6ae906	0.057351135
78	0xbdf9a4f8	-0.121896684
79	0x3d57a94c	0.05265169
80	0xbeec3259	-0.46132162
81	0x3e2a268b	0.16616265
82	0xbd68e875	-0.056862313
83	0x3ea381ef	0.3193507
84	0xbf09bc34	-0.538028
85	0x3d843569	0.064555
86	0xbf17808a	-0.5918051
87	0x3dde00fc	0.108400315
88	0xbec52c68	-0.38510442
89	0x3e0f627a	0.1400241
90	0x3e0f3cc2	0.13988021
91	0xbd073a4a	-0.033014573
92	0x3e1af7df	0.15133618
93	0x3e17829a	0.14795914
94	0x3f55d423	0.8352682
95	0xbe3efbf7	-0.18650804
96	0x3e896719	0.2683647
97	0x3c12e611	0.008965985
98	0xbdbff6a5	-0.093732156
99	0xbba0d764	-0.004908489
100	0x3d797fb8	0.060912818
101	0xbd15e93c	-0.036599383
102	0x3fd47b8f	1.6600207
103	0x3c0c32c7	0.008557028
104	0x3d9c6d82	0.076380745
105	0x3e419086	0.18902788
106	0xbc597910	-0.013273492
107	0xbe9ee7b3	-0.31036147
108	0xbe80482b	-0.2505506
109	0x3cd6ce9c	0.026221566
110	0x3e880043	0.265627
111	0x3e8fdeca	0.28099662
112	0x3e0ff780	0.14059258
113	0xbdf61bf8	-0.12017053
114	0xbbfb9d67	-0.007678676
115	0x3d564d52	0.052319832
116	0xbe79646b	-0.24354713
117	0x3da077dd	0.07835362
118	0xbf109e23	-0.564913
119	0xbdbec5ee	-0.09315096
120	0x3d0c671d	0.034278024
121	0xbe0e283b	-0.13882534
122	0xbed65c01	-0.41867068
123	0x3f6a5d36	0.9154848
124	0x3de3ae54	0.11117235
125	0x3e37340e	0.17890951
126	0xbf2a9cbb	-0.666454
127	0xbc0cf980	-0.008604407
128	0x3cb85a9a	0.02250414
129	0x3e8d38c7	0.2758238
130	0x3d65ec9f	0.056133863
131	0x3e136b39	0.14396371
132	0xbee38af5	-0.44441953
133	0xbbc2f84b	-0.005950009
134	0x3e05d119	0.13068046
135	0xbc0b9880	-0.008520246
136	0xbe47ccd3	-0.19511728
137	0x3d801960	0.0625484
138	0xbcb38f2b	-0.021918854
139	0x3dab7e05	0.08373646
140	0x3d1cc5ec	0.03827469
141	0x3e32cfee	0.17462131
142	0x3ea6804b	0.32519755
143	0xbf0e361e	-0.55551326
144	0x3f595fa6	0.8491157
145	0xbe98c599	-0.29838255
146	0x3e57a114	0.2105754
147	0xbda5d245	-0.08096746
148	0x3d5ef75c	0.05443512
149	0xbe2d023f	-0.16895388
150	0xbd97fcb6	-0.07421248
151	0xbc5831a4	-0.013195429
152	0xbd41667e	-0.047216885
153	0xbe3dd86f	-0.18539594
154	0xbe3bb53f	-0.18330859
155	0x3d8771d2	0.066135064
156	0x3d7cc25b	0.06170879
157	0xbd0616bf	-0.032736536
158	0x3e24e649	0.16103472
159	0x3c82fcb1	0.015989633
160	0x3c521555	0.012822469
161	0xbcdc012a	-0.026856024
162	0xbe2dd786	-0.16976747
163	0xbe30c526	-0.17262706
164	0xbd40f583	-0.04710914
165	0x3eaa8605	0.33305374
166	0xbdd585f3	-0.104259394
167	0xbec03e35	-0.3754746
168	0x3fb27042	1.3940508
169	0x3e3d3ac8	0.18479455
170	0xbf76aba7	-0.9635567
171	0xbe6b89c1	-0.23001768
172	0xbcac09a3	-0.021000689
173	0x3e230292	0.15918949
174	0xbda4ae58	-0.08041066
175	0xbcc791b2	-0.024361465
176	0x3dc14fae	0.09439026
177	0x3f600584	0.87508416
178	0xbd98a222	-0.074527994
179	0x3e9e9d65	0.30979457
180	0xbcd79b63	-0.026319211
181	0x3e8b7330	0.2723632
182	0x39fb26f3	0.0004790347
183	0xbdc12d20	-0.09432435
184	0xbf62143a	-0.88312113
185	0x3ea14b41	0.31502727
186	0x3c8b3669	0.016993718
187	0xbf67abb5	-0.9049638
188	0x3f1f0420	0.6211567
189	0xbe9a9623	-0.3019267
190	0x3dd17942	0.10228206
191	0xbd8ef924	-0.069811136
192	0x3f195129	0.59889466
193	0x3f66cd98	0.9015746
194	0x3e8a99c2	0.27070433
195	0x3f712b37	0.94206566
196	0xbc0267b3	-0.007959294
197	0xbef809d3	-0.48444995
198	0x3f35e3e0	0.71050835
199	0x3cefb6ac	0.02926191
200	0x3e807b25	0.25093952
201	0xbf094189	-0.53615624
202	0xbd16ae66	-0.036787413
203	0x3e2db355	0.16962941
204	0xbd8081ba	-0.062747434
205	0xbe8aee81	-0.2713509
206	0x3ca1f341	0.019769313
207	0xbf00a772	-0.502555
208	0xbd2586be	-0.040411703
209	0x3e916ddd	0.28404132
210	0xbe5a0033	-0.21289138
211	0x3fb0ec27	1.3822068
212	0xbda2f84b	-0.079575144
213	0xbe6a58b5	-0.22885402
214	0xbc65365e	-0.013990013
215	0x3e1cf465	0.15327604
216	0x3e21a186	0.15784273
217	0xbe702c43	-0.23454385
218	0x3e40f048	0.1884166
219	0x3eb2dce9	0.34934166
220	0x3ecce07c	0.40015018
221	0x3b8c5c8a	0.0042834925
222	0x3e2ab98e	0.16672346
223	0x3f8fd63a	1.1237252
224	0x3ee85525	0.4537746
225	0x3fd8e5cd	1.694513
226	0x3e4dbb98	0.20091093
227	0xbe898163	-0.26856527
228	0x3e7668e9	0.24063458
229	0x3e152b1c	0.14567226
230	0xbdb4e2ad	-0.088322975
231	0x3d394381	0.045230392
232	0x3deaf3ca	0.1147228
233	0xbdb49d2e	-0.08819042
234	0x3f487934	0.7830994
235	0xbe297be8	-0.16551173
236	0x3f3de7ce	0.7418183
237	0xbc8b7b78	-0.017026648
238	0xbe538bc2	-0.20658782
239	0x3dadbc23	0.0848315
240	0x3d827da8	0.06371623
241	0x3c1f471a	0.009721542
242	0xbd4a0a8b	-0.04932646
243	0x3d4e751f	0.050404664
244	0x3d20ea16	0.03928574
245	0xbeb8869f	-0.36040208
246	0xbd96597d	-0.07341287
247	0xbe238b61	-0.15971138
248	0xbe76dce2	-0.24107698
249	0x3d77f385	0.060534973

2.weight f4 [250, 250]
0	0xbbd2b58b	-0.006430333
1	0x3bae4568	0.0053183325
2	0xbcf776ca	-0.03020801
3	0x3d53d127	0.051713135
4	0xbc598137	-0.013275436
5	0xbd734eaf	-0.05940121
6	0xbc1194c9	-0.008885571
7	0x3cb3e380	0.021959066
8	0x3d1662c4	0.036715284
9	0xbd4b0e3f	-0.049574133
10	0xbbaa10ef	-0.005190007
11	0x3ba36059	0.004985851
12	0xbc816b2d	-0.015798176
13	0x3c54ef4d	0.012996507
14	0xbc8f6828	-0.01750572
15	0xbd59cbb9	-0.0531728
16	0x3b81f6e1	0.003966198
17	0x3c10005b	0.008789147
18	0x3ba25639	0.004954126
19	0xbd6acb8f	-0.057323035
20	0xbd95aec9	-0.07308728
21	0x3cabd6a2	0.020976368
22	0xbc611015	-0.013736744
23	0x3c6b1bb9	0.014349871
24	0xbd6d85f3	-0.057989072
25	0x3cadb842	0.021206025
26	0x3ceb7f1f	0.02874714
27	0xbd2154d3	-0.039387535
28	0xbc911bd9	-0.017713474
29	0x3ca9d044	0.020729192
30	0x3cfb9ace	0.030713465
31	0xbb63e11b	-0.0034771624
32	0xbd1bd7da	-0.03804765
33	0x3be4d6dc	0.006983621
34	0xbd97d2e5	-0.07413272
35	0xbd8269ba	-0.06367822
36	0xbc25ee0e	-0.010127557
37	0xbc8ca0e3	-0.01716656
38	0x3d08ac0d	0.033367205
39	0xbd30974e	-0.043113045
40	0xb835a7d4	-4.3310065e-05
41	0xbd6a0118	-0.05712995
42	0x3d1956fd	0.037436474
43	0x3a608a7e	0.0008565559
44	0xbb82459c	-0.0039755832
45	0x3c0baf74	0.008525718
46	0x3d27bcc5	0.04095151
47	0x3d4ece88	0.050489932
48	0xbc9bfb91	-0.019040855
49	0xbd26789a	-0.04064236
50	0x3d15c277	0.03656241
51	0xbc98d324	-0.018655367
52	0xbbcdcd0a	-0.006280546
53	0xbd88981c	-0.066696376
54	0xbd5a2c88	-0.053265125
55	0x3d312b4a	0.043254174
56	0x3cea22c1	0.028581025
57	0x3c10c0c2	0.00883502
58	0xbd153821	-0.03643048
59	0x3d2a4ec0	0.041579008
60	0x3c029fd5	0.007972677
61	0x3d1afe1e	0.03784
62	0xbb6f4148	-0.0036507417
63	0xbdb55aee	-0.08855234
64	0x3ca73b6e	0.02041408
65	0xbd88734b	-0.066626154
66	0x3cfe0ccc	0.031011961
67	0xbd91a72f	-0.07111966
68	0x3beb91c9	0.00718901
69	0xbd841bc5	-0.06450609
70	0x3d238d96	0.03992995
71	0xbd718c2d	-0.058971573
72	0xbd1ab64a	-0.0377715
73	0xbc9b81eb	-0.018982848
74	0xbc3688d3	-0.01114102
75	0x3b0486e8	0.0020222012
76	0x3d2cb625	0.042165894
77	0xbcfcf2d4	-0.030877508
78	0xbcb2551a	-0.021769095
79	0xbcadf639	-0.021235572
80	0x3cebbca8	0.028776482
81	0xbd55ef96	-0.05223044
82	0x3c4461e3	0.011986229
83	0xbc8b3efb	-0.016997805
84	0x3d607d40	0.054806948
85	0xbd7049f9	-0.058664296
86	0x3d0270c0	0.031845808
87	0xbd7653db	-0.060138565
88	0xbd81c54f	-0.06336462
89	0xbcc20e0e	-0.023688342
90	0x3d332fd8	0.0437468
91	0x3d5eb291	0.054369513
92	0xbca58b14	-0.02020792
93	0x3c1ad248	0.009449549
94	0x3cc8ea7d	0.024525875
95	0xbc8d1a79	-0.017224537
96	0xba3aae6e	-0.0007121329
97	0xb9f8f85d	-0.0004748729
98	0xbd5fef39	-0.0546715
99	0xbd058fca	-0.03260783
100	0x3cccfe86	0.02502371
101	0xbc8d507c	-0.017250292
102	0xbb7640df	-0.0037575287
103	0xbd484278	-0.048891515
104	0xbd3695c1	-0.04457641
105	0x3ab5ad7c	0.0013860906
106	0xbc30f09c	-0.010799553
107	0xbd59ae52	-0.05314476
108	0xbce3d470	-0.027811259
109	0xbd8b8ef1	-0.06814373
110	0xbac34e94	-0.0014900737
111	0xbd6157fb	-0.055015545
112	0xbc3aee6f	-0.011409386
113	0x3d46cd52	0.048535652
114	0xbd5f7556	-0.05455526
115	0x3c1a2265	0.009407614
116	0xbd981eaa	-0.07427724
117	0x3c8997c3	0.016795998
118	0x3d2c1c06	0.042018913
119	0xbd6d7c2e	-0.057979755
120	0xbc499d7e	-0.0123056155
121	0x3be4e55d	0.00698535
122	0xbd34a16b	-0.044099253
123	0xbd569c5b	-0.052395206
124	0xbd2c61dc	-0.042085513
125	0xbb875760	-0.004130289
126	0x3c769ccb	0.015052031
127	0x3d23c75f	0.039985057
128	0x3d2a1695	0.041525442
129	0xbcfccf3e	-0.03086054
130	0xbd0f3470	-0.034962118
131	0x3c2fefcd	0.010738325
132	0x3d2de53b	0.04245494
133	0x3d4c0fd3	0.04981978
134	0x3ceff650	0.029292256
135	0xbd5aad99	-0.053388212
136	0x3c9a43e8	0.018831208
137	0xbced2a8f	-0.028950958
138	0x3d45bfcd	0.04827862
139	0xbd80cbe0	-0.06288886
140	0xbd4e9db6	-0.050443374
141	0xbcfa909c	-0.030586533
142	0xbb920348	-0.0044559576
143	0xbbc890aa	-0.006120761
144	0x3bab5f93	0.005229899
145	0x3bff20e3	0.007785903
146	0xbd1a57eb	-0.0376815
147	0xbcb9f571	-0.022700043
148	0xbd23dfb6	-0.04000827
149	0xbd276ba0	-0.040874124
150	0xbd2e0695	-0.042486746
151	0x3cdf90ef	0.02729079
152	0xbd24562e	-0.04012125
153	0x3cbf554d	0.023356104
154	0xbc22c53a	-0.009934718
155	0xbc61948e	-0.013768328
156	0x3d3f12bf	0.046648737
157	0xbc4d709b	-0.012539054
158	0xbd579ef0	-0.05264181
159	0x3d0d6791	0.034522597
160	0x3d4a938d	0.04945712
161	0x3d199dca	0.037503995
162	0x3bcd1334	0.0062583927
163	0xbd17cfc5	-0.03706338
164	0x3d5fd099	0.054642294
165	0x3cb97c1b	0.022642186
166	0xbd7f072e	-0.062262706
167	0x3d0c983e	0.034324877
168	0xbd25814f	-0.04040652
169	0x3cf1c2f4	0.029511906
170	0xbd491119	-0.04908857
171	0xbac52932	-0.0015042184
172	0x3d2d442e	0.04230135
173	0x3d0896f5	0.03334709
174	0xbd500456	-0.050785385
175	0xbd89ab7f	-0.067221634
176	0xbd1f5dd1	-0.03890783
177	0x3b6d9e1f	0.0036257578
178	0xbccaada9	-0.02474101
179	0x3cb59861	0.022167386
180	0x3d045fbd	0.032317866
181	0x3c512202	0.012764456
182	0xbc554652	-0.013017254
183	0xbc7d21cc	-0.015449952
184	0x3c43d1ad	0.011951846
185	0x3d10fa0d	0.035394717
186	0xbcd45964	-0.025921531
187	0xbd67f1d1	-0.0566271
188	0xbd2d0945	-0.04224517
189	0x3d519a5c	0.0511726
190	0x3d2709de	0.040780894
191	0xbcdcaa71	-0.026936742
192	0xbb8f0691	-0.0043647964
193	0xbe09451b	-0.13405268
194	0x3cb00d0a	0.021490593
195	0xbd5bb3c8	-0.05363825
196	0x3cec5144	0.028847344
197	0x3ca63b85	0.020292053
198	0x3c3dfdf6	0.011596194
199	0xbc991c81	-0.01869035
200	0xbd2cd32b	-0.042193573
201	0xbc1f07dd	-0.009706465
202	0x3d24776a	0.040152945
203	0xbc72263c	-0.014779624
204	0x3c3492a4	0.01102129
205	0xbd9213e2	-0.071326986
206	0xbca63f07	-0.020293726
207	0xbd833990	-0.064074636
208	0x3d65fc01	0.056148533
209	0x3cb1777c	0.02166342
210	0xbd464d9d	-0.04841386
211	0x3d814df4	0.063136965
212	0xbd91e40e	-0.07123576
213	0x3c2167e2	0.009851428
214	0xbd0193ec	-0.03163521
215	0xbd42408b	-0.047424834
216	0xbc64b360	-0.013958782
217	0x3d596349	0.0530732
218	0xbd47667b	-0.048681717
219	0xbd0ca1ab	-0.034333866
220	0xbbb835d3	-0.0056216507
221	0xbd078ebb	-0.033095103
222	0x3abbb252	0.0014320111
223	0xbc50336a	-0.012707571
224	0xbd00cf9b	-0.031447988
225	0x3d9e18f1	0.07719601
226	0x3c831121	0.015999379
227	0xbbdbf7b9	-0.0067128805
228	0xbd81b874	-0.0633401
229	0x3d652914	0.05594738
230	0xb9cf6ea7	-0.0003956456
231	0xbd52d939	-0.05147669
232	0xbd4c5de5	-0.049894232
233	0xbc0d85cb	-0.008637856
234	0xbd808fd6	-0.062774345
235	0x3d2c13d1	0.042011086
236	0x3bccf39a	0.0062546255
237	0xbd17ba51	-0.03704292
238	0xbd8ac2bc	-0.06775424
239	0x3d25700b	0.040390056
240	0x3d853dd4	0.065059334
241	0xbd2bc87d	-0.041939247
242	0x3c9818ad	0.018566454
243	0x3caa3e65	0.020781705
244	0xbc949fe7	-0.018142654
245	0xbce3bb36	-0.02779923
246	0x3b16593c	0.0022941371
247	0x3c11a740	0.008889973
248	0xbd416ded	-0.047223974
249	0xbd888831	-0.066666014
250	0xbe8e6b8f	-0.27816436
251	0xbe41dcee	-0.18931934
252	0xbd5ca508	-0.053868324
253	0xba06d5d9	-0.000514356
254	0xbc7e6806	-0.015527731
255	0xbe05bdb7	-0.13060652

2.bias f4 [250]
0	0xbd52e0d1	-0.051483933
1	0xbd126f7e	-0.03575086
2	0xbd8f69b5	-0.07002584
3	0xbd14d973	-0.03634019
4	0x3e460026	0.19335994
5	0xbd47737a	-0.04869411
6	0x3f7a2477	0.9771189
7	0xbc0f7d22	-0.008757861
8	0x3dfdc341	0.12390757
9	0xbb9287c7	-0.0044717523
10	0x3d625b5f	0.05526292
11	0x3eee9a36	0.4660203
12	0xbf61387a	-0.879768
13	0x3e95ea9d	0.29280558
14	0x3e32adef	0.17449163
15	0xbd780332	-0.060549922
16	0xbca9316c	-0.020653449
17	0x3cc86c6b	0.02446576
18	0x3e9d92bc	0.30776012
19	0x3ed9ad4a	0.42515022
20	0xbca74711	-0.02041963
21	0xbcb74f0c	-0.02237656
22	0x3ec285c0	0.37992668
23	0x3f22a0e5	0.63526756
24	0xbd787e77	-0.06066748
25	0x3d37c33e	0.04486393
26	0x3e1bda3e	0.15219972
27	0xbd530ba0	-0.05152476
28	0xbd2e50d2	-0.042557545
29	0x3e29057b	0.16505997
30	0xbcdd18c4	-0.026989348
31	0xbd30969a	-0.043112375
32	0xbd5c121c	-0.053728208
33	0x3ec7aaa8	0.38997388
34	0xbf080bc9	-0.5314298
35	0xbc67a712	-0.014138954
36	0xbd14a8ed	-0.036293913
37	0x3e1c52dd	0.15265985
38	0xbe252da7	-0.16130696
39	0x3c5e3689	0.013562807
40	0x3c022e3c	0.007945593
41	0xbd82100a	-0.063507155
42	0xbccfa9d0	-0.025349528
43	0xbd9d40bd	-0.076783635
44	0xbd97d395	-0.07413403
45	0x3eabd2ed	0.3355936
46	0x3d2d7c27	0.04235473
47	0xbcc5415d	-0.02407902
48	0xbd587a3f	-0.052850958
49	0xbd19b8c9	-0.03752974
50	0x39a40a13	0.00031288023
51	0xbd70b08c	-0.05876212
52	0xbee21772	-0.44158512
53	0x3cf47eb8	0.02984558
54	0x3dd49328	0.1037963
55	0x3d2aaf97	0.04167136
56	0x3eceafd1	0.40368512
57	0xbeb523f8	-0.35379004
58	0x3cf0462f	0.029330341
59	0x3e8a78b2	0.27045208
60	0x3f4b59a3	0.7943365
61	0x3f7b7c8c	0.9823692
62	0xbd6959a8	-0.05697027
63	0x3c227f68	0.009918071
64	0xbdd1c979	-0.10243506
65	0xbf419d52	-0.75630677
66	0x3f576934	0.841449
67	0xbe81c46e	-0.25345176
68	0x3d1ea31f	0.038729783
69	0xbe97650e	-0.29569286
70	0xbdef2b53	-0.11678185
71	0xbb103206	-0.0022002473
72	0x3dff32c5	0.124608554
73	0xbf00d571	-0.50325686
74	0x3e589a2c	0.21152562
75	0x3f21d6a1	0.6321812
76	0xbd82ddcc	-0.06389961
77	0xbd538bc2	-0.051646955
78	0x3dbe454e	0.092905626
79	0xbd90d99a	-0.07072754
80	0x3f02fbf4	0.511657
81	0xbc622091	-0.01380171
82	0x3c665317	0.014057896
83	0x3e8880ee	0.26660866
84	0xbc5ad21f	-0.013355761
85	0x3ab8a87e	0.00140883
86	0x3f7265af	0.94686407
87	0x3e19388d	0.14962979
88	0x3f0fb82e	0.5614041
89	0xbf045f75	-0.51708156
90	0x3dd1c0d5	0.10241858
91	0x3f391294	0.7229397
92	0xbd92c6cf	-0.07166826
93	0xbd13487b	-0.035957795
94	0x3d0f6bff	0.035015102
95	0x3f1f2cee	0.6217793
96	0xbd56d000	-0.052444458
97	0xbd611276	-0.054949246
98	0x3f5e1c69	0.867621
99	0xbc4bf754	-0.012449104
100	0x3ca0c5c2	0.019625548
101	0xbe0b44a5	-0.13600405
102	0xbba4d000	-0.0050296783
103	0x3e15068d	0.1455328
104	0x3dce3fe2	0.100707784
105	0xbd2008fc	-0.03907107
106	0xbd6a1284	-0.057146564
107	0xbd30a9f3	-0.043130826
108	0x3fbb0a17	1.4612454
109	0x3cd30bf5	0.025762537
110	0xbd562ac0	-0.052286863
111	0xbe806aa8	-0.25081372
112	0xbd224283	-0.03961421
113	0x3d2d7e78	0.042356938
114	0x3ebbf60d	0.3671116
115	0xbd769264	-0.060198203
116	0x3bc59b0d	0.0060304464
117	0x3d3c8ac7	0.046030786
118	0xbd99dc05	-0.075126685
119	0x3ea9ddef	0.33177134
120	0x3c9df6b0	0.019282669
121	0xbd490200	-0.049074173
122	0xbcd8f603	-0.026484495
123	0x3ddf8cfd	0.10915563
124	0xbd32d739	-0.043662284
125	0xbd134ef6	-0.035963975
126	0xbd3af445	-0.04564311
127	0xbead61f1	-0.33863786
128	0xbd697a75	-0.05700155
129	0x3cb2b7e3	0.0218162
130	0xbd58ffdd	-0.052978385
131	0x3eba6edd	0.36412707
132	0xbd2b6912	-0.04184825
133	0xb97e1896	-0.00024232487
134	0x3cb86ba3	0.022512263
135	0xbeb16c39	-0.3465288
136	0x3cdc0cb2	0.026861522
137	0x3ddb85ef	0.10718905
138	0x3d1e1931	0.038598243
139	0x3d02678b	0.031837028
140	0xbd1631bf	-0.036668535
141	0x3c8e90d1	0.017403038
142	0xbd754628	-0.05988136
143	0x3ca40889	0.020023601
144	0x3ea14d9f	0.31504533
145	0x3d3d70c3	0.046250116
146	0x3ede64ab	0.4343618
147	0x3ac3f707	0.0014950939
148	0xbd16d6d5	-0.036825974
149	0xbccaf5fc	-0.024775498
150	0x3e7ee293	0.24891119
151	0x3e17a1d3	0.14807825
152	0xbdbd7a44	-0.09251836
153	0xbf59a025	-0.85009986
154	0x3cabfef5	0.020995596
155	0x3d1055dd	0.035238136
156	0xbd3a5a6a	-0.04549638
157	0xbe5b74bc	-0.2143125
158	0x3d5429ca	0.051797666
159	0x3ea85d21	0.32883552
160	0x3e7aa06e	0.24475262
161	0xbcf9e5f6	-0.030505162
162	0x3d4d4210	0.05011183
163	0xbd53aeee	-0.051680498
164	0x3d2642ed	0.04059117
165	0xbcd6060e	-0.026125934
166	0xbc20e89c	-0.009821083
167	0x3cddebfe	0.027090069
168	0x3c392931	0.011301325
169	0x3cc8e38b	0.024522563
170	0x3c8f79f2	0.017514203
171	0x3d59921b	0.053117853
172	0xbd16b4b8	-0.03679344
173	0x3d23d387	0.03999665
174	0xbd002626	-0.03128638
175	0xbc6414fb	-0.013921018
176	0x3d38640d	0.04501729
177	0xbe14176e	-0.14462063
178	0x3f259f8d	0.6469658
179	0xbf301e30	-0.6879606
180	0xbd15caab	-0.036570232
181	0xbcfaec6b	-0.030630311
182	0xbcc11393	-0.023568904
183	0x3d1e286e	0.038612776
184	0x3cd87102	0.026421074
185	0xbb9aaac0	-0.004720062
186	0x3d6f7c01	0.05846787
187	0xbc75b29c	-0.014996197
188	0x3ebd8c37	0.37021038
189	0x3ccfd585	0.025370369
190	0x3ebd944c	0.37027204
191	0xbd41ebd1	-0.047344033
192	0x3eb16b14	0.34652007
193	0xbd8c041b	-0.068367206
194	0x3c8c0b6a	0.017095286
195	0x3b9b3981	0.0047370796
196	0x3e6b1d33	0.22960357
197	0xbf3b93da	-0.7327248
198	0xbcdd41ee	-0.027008977
199	0x3f0ed88f	0.5579919
200	0xbf251d8f	-0.6449823
201	0xbeb7d88c	-0.359074
202	0xbf1c4a4f	-0.61050886
203	0xbd5c86bf	-0.05383944
204	0xbd3046de	-0.043036334
205	0xbd8727df	-0.06599402
206	0xbcfccb0a	-0.030858535
207	0x3f6ee99a	0.933252
208	0x3c9d5fcf	0.019210724
209	0xbd784aac	-0.060618088
210	0x3e766100	0.2406044
211	0xbd08d2fe	-0.033404343
212	0xbc11c0cf	-0.008896067
213	0x3dc19582	0.094523445
214	0x3f812a81	1.0091096
215	0xbf09614e	-0.536641
216	0xbd9c5ce5	-0.07634906
217	0x3ecbd5f3	0.39811668
218	0xbc848477	-0.016176445
219	0x3d447d03	0.047970783
220	0x3d3f1719	0.046652887
221	0xbb13ca77	-0.0022551098
222	0x3c997db3	0.018736696
223	0xbede8a0d	-0.434647
224	0xbd04f1a4	-0.03245701
225	0xbcb79d24	-0.022413798
226	0x3f5151b4	0.81765294
227	0x3f0c6d5e	0.5485438
228	0x3bf7040d	0.0075383247
229	0xbd02d976	-0.03194567
230	0xbd4f8bf7	-0.05067059
231	0x3dd71df0	0.10503757
232	0x3f8202cc	1.0157104
233	0x3e3469f4	0.17618543
234	0xbd4ef519	-0.050526712
235	0x3fa95243	1.3228229
236	0x3df3ab28	0.1189788
237	0xbcc7524f	-0.02433124
238	0x3d539724	0.05165781
239	0x3d273f65	0.040831942
240	0x3c4aac32	0.012370156
241	0xbcf5e106	-0.030014526
242	0xbe1048b3	-0.14090233
243	0x3c9cb102	0.019127373
244	0x3d5e1b44	0.05422522
245	0xbb8050a2	-0.003915862
246	0x3d6a93f3	0.05727
247	0x3d4c86b1	0.04993314
248	0x3f00e7de	0.503538
249	0x3e314f3e	0.17315385

4.weight f4 [250, 250]
0	0xbcf4c289	-0.029877918
1	0xbbe8e136	-0.0071069254
2	0xbd8492dd	-0.064733244
3	0x3cfd62c4	0.030930884
4	0xbd331a4a	-0.043726243
5	0xbd66a868	-0.05631295
6	0xbdaa7a52	-0.08324112
7	0xbc113c62	-0.008864494
8	0xbd3311e5	-0.043718237
9	0x3b3ac9d4	0.0028501647
10	0xbc72ba68	-0.0148149505
11	0xbd80a5ab	-0.06281599
12	0x3dcc7bfd	0.099845864
13	0xbd99bafe	-0.07506369
14	0xbd249663	-0.040182482
15	0xbd268081	-0.040649895
16	0x3cb1ecbb	0.021719327
17	0x3c9a554f	0.018839506
18	0xbdc61958	-0.09672803
19	0x3d5680dc	0.052368984
20	0xbd1c02e2	-0.038088687
21	0xbb883819	-0.004157078
22	0x3d3f8c7c	0.046764836
23	0x3d8e5a49	0.06950814
24	0x3c93718f	0.017998485
25	0xbb9c9a61	-0.0047791456
26	0xbd2a8ff2	-0.041641183
27	0x3c9eb706	0.019374382
28	0x3d531cc4	0.051541105
29	0xbdbe1f32	-0.09283294
30	0xbc94cb38	-0.018163309
31	0x3c5b96a2	0.013402613
32	0x3d54a510	0.05191523
33	0xbdbe5198	-0.092929065
34	0xbc1faa51	-0.009745196
35	0xbcbf4427	-0.023347927
36	0xbc3724fd	-0.011178252
37	0x3d4500cf	0.048096474
38	0x3c573260	0.013134569
39	0xbc737e87	-0.014861709
40	0xbcd62ce7	-0.026144458
41	0xbd8d3cc3	-0.06896355
42	0x3c27e9bb	0.010248597
43	0x3cdf564b	0.027262827
44	0xbbd7b74b	-0.0065831295
45	0x3e224d5b	0.15849821
46	0xbcbbe712	-0.022937331
47	0x3c95e813	0.018299138
48	0x3c2ef875	0.010679354
49	0xbcab205d	-0.020889455
50	0xbcb78ad6	-0.02240507
51	0xbd257430	-0.04039401
52	0x3d523871	0.051323358
53	0x3d55ae88	0.0521684
54	0x3d9df360	0.07712436
55	0xbc50ec29	-0.0127516175
56	0x3c86eed6	0.016471308
57	0x3d4c9a98	0.04995212
58	0xbc6ecb27	-0.0145748025
59	0x3d239023	0.03993238
60	0x3d31814d	0.0433362
61	0x3d6a3e26	0.057188176
62	0x3d0ede36	0.034879886
63	0xbc14aebb	-0.009074862
64	0xbc4198ae	-0.011816187
65	0xbe0ff12f	-0.14056848
66	0x3dd00610	0.10157406
67	0xbd85e282	-0.065373436
68	0x3c9be06c	0.019027911
69	0x3d4b0d71	0.049573366
70	0xbe9f9327	-0.31166956
71	0xbd549658	-0.05190119
72	0xbd009f5b	-0.031401973
73	0xbd9d0dc5	-0.07668642
74	0x3daeb26b	0.08530124
75	0xbcef44d3	-0.029207623
76	0x3ac6dd8f	0.0015172231
77	0x3d348f01	0.04408169
78	0xbd2606c5	-0.0405338
79	0x3b9d4310	0.0047992542
80	0xbd70e348	-0.058810502
81	0x3cb9d3b8	0.022683963
82	0x3c1af0dc	0.009456839
83	0x3ddb3f5e	0.10705446
84	0x3afc30de	0.0019240638
85	0x3d0ccfce	0.034377865
86	0xbdf0328a	-0.117283896
87	0x3dbc3942	0.091906086
88	0xbd6ef650	-0.05834037
89	0xbee07f9b	-0.43847355
90	0x3c0fc202	0.008774282
91	0xbd4d1654	-0.050070122
92	0x3d4c7b62	0.049922355
93	0xbcbe4611	-0.02322677
94	0xbd0e92bd	-0.03480791
95	0x3bc8da62	0.006129549
96	0x3d5d50f6	0.05403229
97	0x3d09ff1c	0.033690557
98	0x3ca92aad	0.020650232
99	0xbd17f850	-0.037102044
100	0xba9a2011	-0.0011758824
101	0xbd2455ab	-0.04012076
102	0x3d68a164	0.05679454
103	0xbd8f18b7	-0.06987136
104	0x3cfb3361	0.030664148
105	0x3bb12b95	0.0054068067
106	0xbcdf8061	-0.027282896
107	0x3d843709	0.064558096
108	0x3c3212d5	0.010868748
109	0xbd8b528e	-0.068028554
110	0xbc7e3020	-0.015514404
111	0x3d273af6	0.040827714
112	0x3ce2c5b1	0.027682157
113	0xbcd1760e	-0.025568988
114	0x3cd4ace7	0.025961353
115	0x3abf50bd	0.0014596205
116	0x3d6ccec2	0.057814367
117	0xbd3358e5	-0.04378595
118	0x3cf6981d	0.03010183
119	0xbe0e109d	-0.13873525
120	0x3c06a770	0.008218631
121	0x3d1b75b4	0.037954047
122	0xbb22a571	-0.002481785
123	0x3cec6cc6	0.028860461
124	0x3d5ef4bf	0.054432627
125	0x3cfad713	0.030620134
126	0xbad6ec83	-0.001639739
127	0x3d0c2698	0.034216493
128	0xbd1b4dde	-0.037916057
129	0x3d081b86	0.033229373
130	0xbce77b01	-0.028256895
131	0x3d75ac2a	0.05997864
132	0xbd0d9620	-0.034567
133	0x3cc12009	0.023574846
134	0xbd832a6c	-0.06404576
135	0x3d1e4372	0.03863854
136	0xbe4b63eb	-0.19862334
137	0x3c644035	0.013931324
138	0xbd093a57	-0.033502903
139	0xbd523a4d	-0.05132513
140	0xbd949098	-0.072541416
141	0x3d16ffb5	0.036864955
142	0xbcbc8651	-0.023013266
143	0xbd36b027	-0.044601586
144	0x39a87165	0.00032127943
145	0xbcb018f2	-0.02149627
146	0x3947e896	0.00019064764
147	0xbc9588de	-0.01825374
148	0xbd614afa	-0.055003144
149	0xbc2fab14	-0.010721941
150	0x3e259737	0.16170965
151	0xbd47542a	-0.04866425
152	0x3d62716c	0.05528395
153	0x3cbb27a1	0.022846045
154	0x3cf31593	0.029673373
155	0xbd5edc7f	-0.0544095
156	0xbd31504d	-0.04328947
157	0x3cb088df	0.02154964
158	0xbced48ed	-0.028965438
159	0xbc933cce	-0.01797333
160	0xbd5e3657	-0.05425104
161	0xbd5020c0	-0.050812483
162	0xbc4231bb	-0.011852677
163	0xbcd1e917	-0.025623841
164	0xbd08db25	-0.033412118
165	0xbcad6c9f	-0.021169959
166	0x3cefe460	0.029283702
167	0x3d2cbe50	0.042173684
168	0x3d3ddb67	0.046351817
169	0xbd84c836	-0.064835
170	0x3bfe33e8	0.0077576526
171	0xbcfd09e1	-0.0308885
172	0xbc92971c	-0.01789432
173	0xbbef16c9	-0.0072964174
174	0x3d260f24	0.040541783
175	0x3c4f15af	0.012639447
176	0xbd9f36bd	-0.077741124
177	0xbdbf51c1	-0.09341765
178	0xbd777d48	-0.060422212
179	0xbd833517	-0.064066105
180	0x3d549b7d	0.051906098
181	0xbd366c39	-0.044536803
182	0xbcee6662	-0.029101554
183	0xbd8f37df	-0.069930784
184	0xbb1f55a2	-0.0024312516
185	0xbc665759	-0.014058911
186	0x3c30d31d	0.010792521
187	0x3d4a51ea	0.049394526
188	0xbc602ff3	-0.013683307
189	0xbc383aef	-0.01124452
190	0x3d1204cb	0.035649102
191	0x3d47a784	0.04874374
192	0xbd6ea190	-0.058259547
193	0xbc7e017a	-0.015503282
194	0x3d19e5d6	0.037572704
195	0x3b41c9d8	0.002956977
196	0x3b9ee8de	0.0048495373
197	0xba997688	-0.0011708299
198	0x3cc46d58	0.02397792
199	0xbdb4fa8e	-0.08836852
200	0x3c287bf9	0.010283464
201	0xbd95bd29	-0.0731147
202	0x3d15571d	0.03646003
203	0xbcf5959e	-0.02997857
204	0xbd499268	-0.04921189
205	0xbcc67d50	-0.024229676
206	0xbc7bdd8f	-0.015372648
207	0x3e54f63f	0.2079706
208	0xbd7b1068	-0.061294943
209	0xbd827f0c	-0.063718885
210	0xbb4b718a	-0.0031043016
211	0x3d469486	0.048481487
212	0xbcce3f3d	-0.025176639
213	0x3b4b9623	0.003106483
214	0x3ca5afda	0.020225454
215	0x3e12c17d	0.14331622
216	0xba8dc1ff	-0.0010815262
217	0x3cfb3c6f	0.030668465
218	0x3d30c77e	0.043159
219	0xbd49534e	-0.04915171
220	0xbbf9d0cb	-0.007623767
221	0xbd821399	-0.06351394
222	0xbd8f22e6	-0.06989078
223	0x3cff3265	0.03115196
224	0xbd1f0c05	-0.038829822
225	0x3d46940c	0.048481032
226	0xbdf44791	-0.11927713
227	0x3d877352	0.066137925
228	0x3cc22c98	0.023702905
229	0x3c5eb837	0.013593725
230	0x3d10e0f6	0.03537079
231	0xbda6b3d5	-0.08139769
232	0xbdc45cfc	-0.09588048
233	0xbd7754b8	-0.06038353
234	0x3b13e56b	0.0022567164
235	0x3d74fbef	0.059810575
236	0xbdafe348	-0.08588272
237	0x3b01052b	0.0019686918
238	0x3cf516b8	0.02991806
239	0x3d3b46e8	0.04572192
240	0xb8c1eac8	-9.2466886e-05
241	0x3d4a2c72	0.049358793
242	0xbd80b6ce	-0.06284867
243	0xbd758619	-0.05994234
244	0xbd09c5c1	-0.03363586
245	0xbcec49fa	-0.028843869
246	0xbd63a969	-0.055581484
247	0x3ce12075	0.027481297
248	0xbc4e72b2	-0.012600588
249	0xbd3f5f4e	-0.04672175
250	0xbd5c74c0	-0.05382228
251	0xbd1a5947	-0.037682798
252	0xbd5c7ffc	-0.053832993
253	0x3c1e05df	0.009644954
254	0x3d19f1dd	0.037584174
255	0xbd66d5d5	-0.05635627

4.bias f4 [250]
0	0x3ca65ea0	0.020308793
1	0x3d00ede4	0.03147687
2	0x3efe7610	0.4969945
3	0xbdd0a204	-0.10187152
4	0xbd90a3c6	-0.07062487
5	0xbe502c2c	-0.2032935
6	0x3dff5bc4	0.12468675
7	0x3c9019df	0.017590461
8	0xbee82135	-0.45337835
9	0xbe95d397	-0.29262993
10	0x3e800980	0.25007248
11	0x3da3bdd0	0.07995188
12	0x3f9a824d	1.2071015
13	0x3e3486d4	0.17629558
14	0xbb0a399e	-0.0021091471
15	0x3f16daae	0.5892743
16	0xbd8e67a2	-0.0695336
17	0x3da5dd2d	0.080988266
18	0xbd642586	-0.055699848
19	0x3ca86b79	0.02055906
20	0x3cdaffa4	0.026733227
21	0xbd8dd541	-0.069254406
22	0xbc36da97	-0.011160514
23	0x3cdb42a1	0.02676517
24	0xbcf73f8d	-0.03018167
25	0x3d2029f2	0.039102502
26	0xbc207db6	-0.009795597
27	0x3bfe9673	0.0077694
28	0xbd5be6d5	-0.053686935
29	0xbcb5ff5b	-0.02221649
30	0x3e77e629	0.24208893
31	0x3d1819c3	0.037133943
32	0x3e3329fb	0.17496483
33	0x3d53cccb	0.051708978
34	0xbdb0115f	-0.08597063
35	0xbc9370c3	-0.017998105
36	0xbee3f3e3	-0.44522008
37	0xbd8f6a88	-0.07002741
38	0x3e81e5bf	0.25370595
39	0x3f2b0b5b	0.668142
40	0xbc5f7c1a	-0.013640428
41	0x3f0c007c	0.5468824
42	0xbf0f6577	-0.560142
43	0x3ba46b01	0.0050176387
44	0x3eab7f0e	0.33495373
45	0xbd404c1f	-0.046947595
46	0xbda7d886	-0.081955954
47	0xbdbac9c4	-0.09120515
48	0xbe84483d	-0.25836363
49	0xbd88ce80	-0.06680012
50	0xbc968b54	-0.018376984
51	0x3cdc563b	0.026896587
52	0x3eb1725a	0.34657556
53	0x3d3e28fe	0.046425812
54	0xbe33cf64	-0.17559582
55	0xbdc4ca5e	-0.09608911
56	0x3d4d0932	0.050057597
57	0x3e00ea22	0.12589315
58	0xbd89a65a	-0.06721182
59	0xbd94c6a6	-0.07264452
60	0xbeec1a62	-0.46113878
61	0xbbaa5b76	-0.0051988913
62	0xbcc7d962	-0.024395648
63	0x3db8552b	0.090006195
64	0x3f2930d2	0.6609012
65	0xbc8a0496	-0.01684789
66	0x3b8ae6ab	0.0042389235
67	0x3e5bcf3b	0.21465771
68	0xbcbe09a2	-0.023197953
69	0xbd1545ab	-0.036443394
70	0xbe5ff6d6	-0.21871504
71	0x3f14baf3	0.5809776
72	0x3edbfe12	0.42967278
73	0xbd0e7cd0	-0.034787
74	0x3e0d8b7d	0.13822742
75	0xbd468513	-0.048466753
76	0xbdac8378	-0.08423513
77	0x3e8c0bb2	0.27352673
78	0xbe357a27	-0.17722379
79	0xbcf14fd1	-0.029457005
80	0xbec67c87	-0.38766882
81	0x3ea0da07	0.31416342
82	0xbc88363b	-0.016627422
83	0xbd3816ef	-0.044943746
84	0x3d94961f	0.07255196
85	0x3c80b04d	0.015709067
86	0x3e0fcd35	0.14043124
87	0xbd24db94	-0.04024847
88	0x3ee5b756	0.44866437
89	0x3ce0d7eb	0.027446708
90	0xbe404294	-0.18775398
91	0xbea679b9	-0.32514742
92	0x3d6e93c7	0.0582464
93	0x3d574f4a	0.05256585
94	0x3e8446b9	0.25835207
95	0x3fab1267	1.3364991
96	0xbe8df90a	-0.27729064
97	0xbce7723f	-0.028252719
98	0xbd861bc9	-0.06548268
99	0x3d317956	0.043328606
100	0x3e143b12	0.14475659
101	0xbd1abfd0	-0.037780583
102	0x3b6326d2	0.003466059
103	0x3dad8f50	0.084746
104	0xbcff18ae	-0.031139698
105	0x3f06ce4a	0.5265852
106	0x3ec5e424	0.3865062
107	0xbd210ba4	-0.039317742
108	0x3d0d6f76	0.034530126
109	0x3ea2f8ab	0.31830344
110	0x3d33cdad	0.04389732
111	0xbda5cb33	-0.08095398
112	0xbdb08ecc	-0.08620986
113	0xbd5432b3	-0.051806163
114	0x3d12802f	0.035766777
115	0xbd037829	-0.032097016
116	0xbd5e57ad	-0.054282833
117	0x3b9c6a54	0.0047734175
118	0xbd2523ee	-0.04031747
119	0xbd27abb4	-0.040935233
120	0xbcc6c63b	-0.024264446
121	0x3e2891a6	0.1646181
122	0xbe1a6c37	-0.15080343
123	0x3d294061	0.041321162
124	0xbc88eae6	-0.01671357
125	0x3c3e7f53	0.011627036
126	0xbd07cbd7	-0.03315338
127	0xbd773872	-0.060356565
128	0xbbfb78c8	-0.0076743104
129	0x3cc0929d	0.02350741
130	0x3dd267a4	0.10273674
131	0x3d1f677a	0.038917042
132	0xbd2a149b	-0.041523557
133	0x3e965d08	0.29367852
134	0x3bfcfbaf	0.0077204327
135	0xbdc15e74	-0.09441844
136	0xbcd62df1	-0.026144953
137	0xbd1dc6e8	-0.03851977
138	0xbd2520a3	-0.040314328
139	0xbdfdebcd	-0.12398491
140	0x3d1a16f5	0.03761955
141	0xbdadc9b5	-0.08485738
142	0xbcb954ca	-0.022623438
143	0x3b8e4b87	0.0043424997
144	0x3e18e936	0.14932713
145	0xbdbbbfb2	-0.09167422
146	0x3d50240a	0.05081562
147	0x3f86efe9	1.0541965
148	0x3e86f810	0.26361132
149	0x3d9bd773	0.07609453
150	0x39ad8d81	0.0003310256
151	0x3cc15642	0.023600701
152	0xbd71602d	-0.05892961
153	0xbd26287b	-0.04056595
154	0x3e1c3b4d	0.15256996
155	0x3e1dd8da	0.15414754
156	0x3d64b182	0.055833347
157	0x3dc68f95	0.09695355
158	0xbcaa1cd4	-0.0207657
159	0x3e5d21a7	0.21594869
160	0xbd4eed02	-0.050518997
161	0x3c2de1e5	0.0106129395
162	0x3e90aa60	0.28254986
163	0xbd95c1b8	-0.073123395
164	0x3e502980	0.20328331
165	0xbf53b91a	-0.8270432
166	0xbe2505e5	-0.1611553
167	0xbd8af646	-0.06785254
168	0x3c0263f9	0.007958406
169	0xbd86ba77	-0.06578534
170	0x3f32ee4b	0.69894856
171	0xbd60f46f	-0.05492061
172	0xbae2c43f	-0.0017300918
173	0x3c571ed2	0.013129907
174	0xbd8005c7	-0.06251102
175	0x3caa5e23	0.020796841
176	0x3ea74e24	0.32676804
177	0x3e3bb2ac	0.18329877
178	0x3dfd0bdc	0.123557776
179	0x3e74f6a8	0.23922217
180	0xbc5c1100	-0.0134317875
181	0xbd06b3fa	-0.032886483
182	0xbd5a197b	-0.053246956
183	0x3d4b3d96	0.04961928
184	0xbd806709	-0.062696524
185	0xbeef786b	-0.4677156
186	0x3f36d196	0.7141355
187	0x3c045cd7	0.008078775
188	0xbf226433	-0.6343414
189	0xbd914046	-0.07092337
190	0x3f6fb00c	0.93628
191	0x3f85c23f	1.0449904
192	0x3ec525f0	0.38505507
193	0xbd4459d6	-0.047937237
194	0xbcbff601	-0.023432733
195	0xbc6fcf6d	-0.0146368565
196	0x3c86085f	0.016361414
197	0x3f1f9eb2	0.62351525
198	0xbd3ee7da	-0.04660783
199	0x3cdab747	0.026698722
200	0x3ecc186c	0.39862382
201	0x3d22c323	0.039736878
202	0xbd360297	-0.044436064
203	0x3db71fd8	0.089416206
204	0x3e5e5819	0.21713294
205	0x3bd06002	0.0063591013
206	0x3e14d2f1	0.14533593
207	0xbd8fa274	-0.07013407
208	0x3cf11abe	0.029431697
209	0x3e2a50af	0.16632341
210	0xbe804b11	-0.2505727
211	0xbd25c5eb	-0.040471952
212	0xbd80af89	-0.06283481
213	0xbc8f1c86	-0.017469656
214	0x3f08bbdc	0.5341165
215	0x3e5da6b9	0.21645631
216	0xbd1de5a8	-0.038549095
217	0x3c7375c2	0.014859619
218	0x3ef49c36	0.4777543
219	0x3d2b4e8c	0.041822955
220	0x3e514c38	0.20439231
221	0xbda53c22	-0.0806811
222	0x3d004989	0.03132013
223	0xbe1df01c	-0.15423626
224	0xbda3e4f1	-0.080026515
225	0x3d488896	0.048958384
226	0xbf3b7c5e	-0.73236644
227	0x3e7eda3d	0.24887939
228	0xbec87461	-0.3915129
229	0xbdd528be	-0.104081616
230	0x3f36172c	0.7112911
231	0x3e2b198c	0.16708964
232	0xbd28d691	-0.04122025
233	0xbd4103fd	-0.047122944
234	0x3e1bf9b1	0.15231968
235	0x3e146221	0.14490558
236	0x3a1a44de	0.0005884896
237	0xbbeec399	-0.0072865007
238	0x3dc74c33	0.09731331
239	0x3dc7ff96	0.09765546
240	0x3eef5526	0.4674465
241	0xbc79f0e8	-0.01525519
242	0xbcfca3d5	-0.03083984
243	0x3d97eaf9	0.07417864
244	0xbe20bb5e	-0.15696475
245	0xbbffd538	-0.0078074
246	0x3e9833c0	0.29726982
247	0x3cdb717a	0.026787508
248	0x3e96a9ce	0.29426426
249	0x3eb60011	0.35546926

6.weight f4 [157, 250]
0	0x3db4f1fa	0.08835216
1	0xbd41bd06	-0.047299407
2	0x3c77543a	0.015095765
3	0x3c29fed7	0.0103757
4	0xbd29aa10	-0.04142195
5	0x3cfd4fd1	0.030921848
6	0x3e0d5c1d	0.1380467
7	0x3cf9c654	0.030490078
8	0xbcb94d1f	-0.022619782
9	0x3ce0978b	0.027416011
10	0xbebb3d2b	-0.36570105
11	0x3d6c320a	0.05766491
12	0xbe046d5c	-0.12932342
13	0xbd7af153	-0.0612653
14	0x3cd007ab	0.025394281
15	0xbd731b66	-0.0593523
16	0x3c9c6149	0.019089358
17	0x3cc5ca12	0.024144206
18	0x3ca57c3a	0.020200837
19	0xbd200bd6	-0.039073788
20	0x3e091c21	0.13389637
21	0xbd145564	-0.036214247
22	0xbd5bfb0b	-0.05370621
23	0xbcd1b42c	-0.025598608
24	0x3cfc348a	0.030786771
25	0xbc160d2d	-0.009158415
26	0x3cb7d31a	0.022439528
27	0xbd046823	-0.032325875
28	0x3d0c3987	0.03423455
29	0xbe0f48ee	-0.13992664
30	0x3dcd2661	0.10017086
31	0xbca5931f	-0.020211754
32	0x3bba9131	0.0056935777
33	0xbcae985f	-0.02131289
34	0xbcaf0881	-0.02136636
35	0x3b3a37b5	0.0028414552
36	0xbc45255d	-0.012032834
37	0x3d77e398	0.060519785
38	0xbddc2937	-0.107500486
39	0x3cc5be37	0.024138553
40	0x3de9fdfc	0.11425397
41	0x3d7a57e4	0.061118975
42	0xbd31a52e	-0.04337042
43	0xbc5c3ce5	-0.013442253
44	0xbceac3ce	-0.02865782
45	0x3bcfc222	0.006340281
46	0xbd89215e	-0.066958174
47	0xbc64862f	-0.0139480075
48	0x3d7490be	0.05970835
49	0x3d7bea18	0.061502546
50	0xbee20c6d	-0.44150105
51	0x3d51c163	0.05120982
52	0x3d79c315	0.06097706
53	0xbd53ff34	-0.051757053
54	0xbd04f282	-0.032457836
55	0x3dcb3803	0.09922793
56	0xbe55fb6d	-0.20896693
57	0xbdd08c11	-0.101829655
58	0x3d3d0413	0.046146464
59	0x3c333167	0.010937071
60	0x3df469cf	0.11934244
61	0x3d8c5c82	0.06853582
62	0xbd99f313	-0.07517066
63	0x3d986015	0.07440201
64	0xbdc958e2	-0.09831406
65	0xbe74061c	-0.23830456
66	0x3d088d88	0.0333381
67	0x3cfbcb0b	0.030736467
68	0xbcacbeed	-0.021087134
69	0x3cefd321	0.029275479
70	0x3d393cef	0.045224126
71	0xbc497b64	-0.012297485
72	0x3e2bbc4c	0.16771048
73	0x3d9f0d92	0.0776626
74	0xbd6a5241	-0.05720735
75	0xbcf3306e	-0.029686179
76	0x3d2a6f97	0.041610327
77	0xbc6d353a	-0.014478022
78	0x3e210a24	0.15726525
79	0x3cf03ece	0.029326823
80	0x3d817a34	0.063221365
81	0xbe393ba9	-0.18089165
82	0x3d1d9ce7	0.03847971
83	0x3c8da44e	0.01729026
84	0x3cdbddbc	0.02683913
85	0x3d92f5c7	0.071757846
86	0x3ddc978b	0.10771092
87	0xbd7ed52d	-0.06221502
88	0x3d908015	0.0705568
89	0x3d710e11	0.058851305
90	0x3e04d6e3	0.12972598
91	0xbe06641b	-0.13124125
92	0xbe96a83d	-0.2942523
93	0x3d4cd04f	0.050003346
94	0x3b18dcc9	0.0023324958
95	0x3ca4ce06	0.02011777
96	0x3d113df6	0.03545948
97	0xbd731353	-0.0593446
98	0xbdd0cdbc	-0.10195491
99	0xbd1b765b	-0.03795467
100	0xbe1f64e8	-0.15565836
101	0x3cc24a3d	0.02371704
102	0xbd970377	-0.07373708
103	0xbda99281	-0.082798965
104	0x3d464e5c	0.048414573
105	0x3dac489c	0.08412287
106	0xbd88f94f	-0.06688177
107	0x3d518794	0.051154688
108	0xbc976984	-0.018482931
109	0xbd16cd16	-0.03681668
110	0xbc20ab67	-0.0098064905
111	0x3d73513a	0.059403636
112	0xbc53bfdb	-0.01292416
113	0x3b93271b	0.0044907457
114	0x3bddc5dd	0.006767972
115	0xbd154b95	-0.036449034
116	0x3d3f0032	0.046631046
117	0x3d1edd93	0.03878553
118	0xbce7a3d8	-0.028276369
119	0x3db579fe	0.08861159
120	0xbd0b7979	-0.034051392
121	0x3d872a25	0.06599835
122	0xbdd9dd1e	-0.10637878
123	0xbe034689	-0.12819876
124	0xbc9494f5	-0.018137434
125	0xbcb7bf75	-0.022430161
126	0x3cccd975	0.025006035
127	0xbd02bed0	-0.031920254
128	0xbe30c6f1	-0.1726339
129	0xbd4c1805	-0.049827594
130	0xbc7d6c03	-0.0154676465
131	0x3d365f82	0.044524677
132	0xbb9a924a	-0.004717146
133	0x3d926c9f	0.07149624
134	0xbce7d953	-0.02830187
135	0x3dc8dfc4	0.09808305
136	0x3d3e37cc	0.04643993
137	0xbcd757f4	-0.026287057
138	0xbdbfbe59	-0.09362478
139	0xbe179db6	-0.14806256
140	0x3e4adfd5	0.19811948
141	0xbd9707d5	-0.07374541
142	0x3d6c012a	0.057618298
143	0x3d613f90	0.05499226
144	0x3df5da41	0.12004519
145	0xbdddd653	-0.10831895
146	0x3d0442e0	0.03229034
147	0xbd10dcd8	-0.035366863
148	0x3cd9aff7	0.026573164
149	0x3dc618de	0.09672712
150	0xbbcc48ea	-0.006234278
151	0xbd358c00	-0.044322968
152	0xbe1a962a	-0.15096346
153	0xbc6654e9	-0.01405833
154	0x3bb2e1c2	0.0054590413
155	0xbdffb18d	-0.12485037
156	0x3cfa665a	0.030566383
157	0x3d1282a5	0.035769124
158	0x3d777517	0.0604144
159	0xbdf71ac0	-0.12065649
160	0xbe1c2e3e	-0.15252015
161	0x3b5cb259	0.003367564
162	0x3d90e7d4	0.07075468
163	0x3d1040ea	0.035218157
164	0x3dde9bba	0.10869546
165	0xbca84709	-0.020541685
166	0x3ceb7023	0.028739994
167	0x3c6ea229	0.014565029
168	0xbd019d9a	-0.03164444
169	0xbdced744	-0.100996524
170	0x3c74b7bc	0.014936384
171	0x3d300aa1	0.042978887
172	0x3d389bd2	0.045070477
173	0xbd4b6c1d	-0.04966365
174	0x3c2e4747	0.010637111
175	0xbc96fee4	-0.018432088
176	0xbc173262	-0.009228321
177	0xbc8d17d2	-0.017223272
178	0x3d1c2bbe	0.038127653
179	0xbd5a8768	-0.05335179
180	0xbc28a268	-0.010292627
181	0xbd5596d7	-0.052145805
182	0x3d17f252	0.03709633
183	0xbd0386bb	-0.03211091
184	0x3c8c170a	0.01710083
185	0xbb9f03d7	-0.0048527527
186	0xbc39daae	-0.011343641
187	0xbb8901df	-0.0041811313
188	0xbba88e13	-0.0051438897
189	0x3dadf547	0.084940486
190	0xbbf27224	-0.0073988605
191	0x3d029c5e	0.031887405
192	0x3c2fd637	0.010732225
193	0xbcc166d9	-0.023608612
194	0xbdf88490	-0.12134659
195	0x3ca9b920	0.020718157
196	0x3be8dcc1	0.007106394
197	0x3e14df44	0.14538294
198	0xbd514706	-0.051093124
199	0xbd03263a	-0.032018878
200	0xbe2e15ef	-0.17000555
201	0xbdad088f	-0.08448898
202	0x3bf830a8	0.0075741597
203	0x3cfba7cf	0.030719666
204	0xbbd1442a	-0.0063862996
205	0x3b80a164	0.0039254893
206	0xbe4ab7ff	-0.19796751
207	0xbc9be6fb	-0.019031039
208	0x3c75e552	0.0150082875
209	0x3d966766	0.073439404
210	0xbc393bd4	-0.011305768
211	0xbd123cab	-0.03570239
212	0x3ba51b3c	0.005038647
213	0x3d54b404	0.05192949
214	0xbdbbbd70	-0.09166992
215	0x3dd87465	0.105690755
216	0x3d86aa61	0.06575466
217	0x3c5c359e	0.013440518
218	0xbe1780d8	-0.14795244
219	0x3d1cf7c2	0.038322218
220	0xbc63dd5e	-0.0139077585
221	0xbaf82ad3	-0.0018933661
222	0xbd6ad1bf	-0.057328936
223	0x3c906b92	0.017629419
224	0xbcc6921a	-0.024239589
225	0xbcc3b66f	-0.023890702
226	0xbd55ec20	-0.05222714
227	0xbe201006	-0.15631112
228	0x3e1489c6	0.14505681
229	0xbda18b45	-0.07887892
230	0xbd38795e	-0.04503762
231	0x3d39cc77	0.04536101
232	0xbc44f06d	-0.012020213
233	0xbbe7d92a	-0.0070754485
234	0xbb2515a2	-0.0025189896
235	0x3d8fed09	0.07027633
236	0xbd2b92a3	-0.04188789
237	0xbc160ff2	-0.009159075
238	0x3d105cbb	0.035244685
239	0xbdaa9a15	-0.0833017
240	0x3c82ca57	0.015965624
241	0x3d0d0aad	0.03443401
242	0x3cc57a76	0.024106245
243	0xbcfa3c99	-0.030546473
244	0xbc9ecfc6	-0.019386183
245	0xbd146861	-0.036232356
246	0xbe77ebb6	-0.2421101
247	0x3c387604	0.011258606
248	0x3d9eba0f	0.077503316
249	0xbc952474	-0.018205859
250	0xbd634586	-0.055486225
251	0xbd2db8ce	-0.04241257
252	0xbdb515fe	-0.08842085
253	0xbc8856ad	-0.016642893
254	0x3d032499	0.032017324
255	0xbe892a19	-0.2678993
