pav_spkid_pytorch/lpcc_model_hsize_130_lr000125/bestval_e6_weights.ckpt (torch_old, 515082 bytes, 8 tensors)

0.weight f4 [130, 567]
0	0xbc139391	-0.009007351
1	0xbc95e309	-0.018296735
2	0x3bb9c25d	0.005668922
3	0xbcd96482	-0.026537184
4	0xbc2f1854	-0.010686953
5	0xbd52348a	-0.051319636
6	0xbb3cb9bf	-0.0028797237
7	0xbc164ffd	-0.009174344
8	0x3cdbd16d	0.02683326
9	0x3c7bcae6	0.015368199
10	0x3ce7801f	0.028259335
11	0x3cbffbe7	0.023435546
12	0x3bd289d1	0.0064251204
13	0x3d005cd0	0.031338513
14	0x3c05d9d2	0.008169608
15	0xbc443805	-0.011976247
16	0x3cb8e60f	0.022570638
17	0x3c958383	0.018251186
18	0x3cc8bba4	0.024503537
19	0xba8fa5b4	-0.0010959418
20	0x3d133478	0.03593871
21	0x3cac4dab	0.021033129
22	0x3ba49846	0.005023035
23	0xbbebcffa	-0.0071964236
24	0xbd23e277	-0.040010896
25	0x3cdd4c52	0.027013931
26	0xbca868c9	-0.020557778
27	0xbcfb9f3c	-0.030715577
28	0x3cf3233f	0.029679893
29	0xbc6472f6	-0.013943424
30	0xbd5d1658	-0.053976387
31	0x3c9153ad	0.017740095
32	0xbccc0346	-0.024903905
33	0xbd2a7f76	-0.041625462
34	0xbcd3df1a	-0.025863219
35	0xbce711c8	-0.028206721
36	0xbc0d0e35	-0.008609344
37	0x3c4f5dde	0.012656657
38	0x3d3ec4bd	0.046574343
39	0xbb9fbfd1	-0.004875161
40	0xbc57fd47	-0.013182945
41	0xbc5d21d3	-0.013496834
42	0xbc841d91	-0.01612738
43	0x3d20e9f0	0.0392856
44	0x3cfcd97e	0.030865427
45	0x3ca4953a	0.020090688
46	0x3d12bda9	0.035825405
47	0x3b85aaeb	0.004079213
48	0x3aabe304	0.001311392
49	0x3cda17e0	0.026622713
50	0xbd235a46	-0.039881013
51	0x3ced12a5	0.028939554
52	0x3cffb850	0.031215817
53	0x3d29c2ea	0.04144565
54	0x3b2a1bc7	0.0025956498
55	0xbca428a5	-0.020038912
56	0xbbbfedf5	-0.005857224
57	0xbc194675	-0.009355177
58	0xba852d89	-0.0010160665
59	0x3c41f366	0.011837816
60	0x3cb17bb6	0.021665435
61	0x3bebc0bb	0.007194606
62	0x3c5f1968	0.013616897
63	0xbc70ee5f	-0.01470527
64	0x3c3f068c	0.011659276
65	0x3d144cdc	0.03620611
66	0x3d4caf82	0.049972065
67	0xbb9178f7	-0.004439469
68	0x3c7dfa9f	0.015501647
69	0x3b4950d7	0.003071835
70	0x3cdb3fbb	0.026763787
71	0xbd32a9d3	-0.04361899
72	0xbd28131b	-0.041033845
73	0xbcb67ebf	-0.022277234
74	0xbbb9e36d	-0.005672863
75	0xbc7780c1	-0.015106381
76	0x3cb71f0c	0.022353671
77	0xbd3a0460	-0.04541433
78	0x3ccf56ca	0.025309939
79	0xbd4b1d69	-0.049588595
80	0x3d2d2941	0.04227567
81	0x3cc8733f	0.024469016
82	0xbc99f683	-0.018794304
83	0x3cc50641	0.024050834
84	0xbd0e453e	-0.034734003
85	0xbc945fab	-0.018112024
86	0xbb900dd9	-0.004396182
87	0x3d1de61c	0.038549528
88	0x3ab027d1	0.0013439601
89	0xbc3f3e3d	-0.011672554
90	0xbc03be7b	-0.00804102
91	0x3cc866cc	0.02446308
92	0xbc97345f	-0.01845759
93	0xbc4798f7	-0.012182466
94	0x3bded3d1	0.006800153
95	0xbcefa550	-0.029253632
96	0x3bead8e4	0.0071669687
97	0xbce04205	-0.02737523
98	0xbc683040	-0.01417166
99	0x3d280bb1	0.041026775
100	0xbc9cbe0d	-0.019133592
101	0xbd25e4bf	-0.040501352
102	0x3b8821d2	0.0041544223
103	0xbc9e4f54	-0.019324936
104	0xbcc9efda	-0.024650503
105	0xbc83c8d9	-0.016086983
106	0x3d05c577	0.03265902
107	0x3b87b0f0	0.0041409656
108	0x3cc1d39a	0.02366047
109	0x3d44c815	0.048042376
110	0x3bb4c8fc	0.0055171233
111	0xbcc54e3e	-0.02408516
112	0xbc999567	-0.018747998
113	0xbcdeb3bf	-0.027185319
114	0x3c940e1d	0.018073136
115	0x3d176d3c	0.03696941
116	0xbcab66bf	-0.020923017
117	0xbcc24cbe	-0.023718234
118	0x3c18d283	0.009327534
119	0xbccea49f	-0.025224982
120	0xbcfb1071	-0.030647488
121	0xbd145bbd	-0.0362203
122	0x3d43b44b	0.047779363
123	0xbc7242eb	-0.014786462
124	0xbcd0aa64	-0.025471874
125	0xbc773bc1	-0.01508993
126	0xbce7ec41	-0.028310897
127	0x3c958cd9	0.018255638
128	0xbcb768bb	-0.022388807
129	0xbc779249	-0.015110561
130	0x3c9f8de5	0.01947684
131	0x3d1c7b56	0.03820356
132	0x3c4585b6	0.012055805
133	0x3d114a0f	0.03547102
134	0x3c08fd71	0.008361206
135	0xbcd6f401	-0.026239397
136	0xbcd08f6c	-0.025459014
137	0xbc36d7c4	-0.011159841
138	0xbcf7e574	-0.030260779
139	0xbb30c7fe	-0.0026974673
140	0xbd01bb28	-0.031672627
141	0x3d2d0695	0.042242605
142	0x3cc8a196	0.024491113
143	0x3d27ab46	0.040934823
144	0x3c1d6388	0.00960625
145	0x3c0d5ff5	0.008628835
146	0x3cc31201	0.023812296
147	0xbb8ed985	-0.0043594264
148	0x3c5f5192	0.013630288
149	0xbc88b947	-0.01668991
150	0xbcf0575e	-0.029338535
151	0xbcf7e0f7	-0.030258639
152	0xbcd7c3d3	-0.026338493
153	0x3cdcbee7	0.026946498
154	0xbcc82df1	-0.02443597
155	0xbd0f5f3d	-0.035002936
156	0xbced3917	-0.028957887
157	0xbc9e2dcd	-0.019308949
158	0x3b4d109b	0.0031290415
159	0xbcc783ed	-0.0243549
160	0x3d0382ad	0.032107044
161	0xbd163bb9	-0.03667805
162	0xb8c04fd7	-9.170145e-05
163	0xbca6a13a	-0.02034055
164	0x3b932a0a	0.0044910954
165	0x3cc8568d	0.024455333
166	0xbcc8db6c	-0.024518691
167	0x3d302ed9	0.043013427
168	0xbc965824	-0.018352576
169	0xbbdd8371	-0.006760054
170	0x3d12b9b7	0.035821643
171	0x3c2951a9	0.010334411
172	0x3cdc76c5	0.026912102
173	0x3c4930d8	0.012279712
174	0x3d183201	0.037157062
175	0x3b8c7aeb	0.004287114
176	0x3c3d4494	0.011551995
177	0x3d0cde48	0.03439167
178	0x3c8bf4a8	0.017084435
179	0x3ad5d5d7	0.001631434
180	0xbd2e7c2d	-0.042598892
181	0x3c19667f	0.009362816
182	0x3b154d26	0.002278158
183	0x3c1b2f94	0.009471793
184	0xbcf9113e	-0.03040373
185	0xbd00decf	-0.031462487
186	0xbc6e316d	-0.014538151
187	0xbb07fa3c	-0.0020748517
188	0xbd1828cc	-0.037148282
189	0xbd29f2c0	-0.04149127
190	0x3d1aac0f	0.037761744
191	0x3cc5d587	0.02414967
192	0x3c354bc2	0.011065425
193	0x3d6c07cd	0.057624627
194	0xbc8f6bf0	-0.017507523
195	0x3c9ab8ef	0.018887011
196	0x3cd18816	0.025577586
197	0x3d29b09d	0.041428197
198	0x3bc92d8d	0.0061394633
199	0x3d034916	0.032052122
200	0xbc601549	-0.01367695
201	0x3c607f4c	0.013702225
202	0x3b54dbaa	0.0032479563
203	0x3a1f66cc	0.00060806866
204	0x3d3a23a0	0.04544413
205	0x3caeafe0	0.021324098
206	0xbc52a87f	-0.012857555
207	0x3b85506c	0.004068425
208	0xbd03777a	-0.032096364
209	0xbbcb5566	-0.0062052486
210	0xbcd2d66a	-0.025737006
211	0x3d32beea	0.0436391
212	0x3cf987ab	0.0304602
213	0xbc305f77	-0.010764948
214	0x3c8b1965	0.016979882
215	0x3d057abb	0.032587748
216	0xbced036b	-0.028932294
217	0xbb0aa9d7	-0.0021158361
218	0x3d2b8c69	0.041881952
219	0xbc00a2bf	-0.007851302
220	0x3d4b960e	0.04970365
221	0xbd0d43d7	-0.034488525
222	0x3c83d716	0.016093772
223	0x3d29c0db	0.041443687
224	0x3d02c5b8	0.03192684
225	0x3c196cf1	0.009364353
226	0xbb5a9fd3	-0.0033359423
227	0xbd1df734	-0.03856583
228	0xbd0f875f	-0.03504121
229	0xbd16c25c	-0.03680645
230	0xbc164d3f	-0.00917369
231	0xbcb0f9da	-0.021603514
232	0xbc490cba	-0.012271101
233	0xbd3baf32	-0.045821376
234	0x3d2ee762	0.042701133
235	0x3d03cc84	0.032177463
236	0x3ca88262	0.020569984
237	0xbbeb4e55	-0.0071809688
238	0x3cadf042	0.021232728
239	0xbce5752b	-0.028009972
240	0x3c4276e1	0.011869163
241	0x3c7c25d7	0.015389881
242	0xbcdee590	-0.027209073
243	0xbc84dd13	-0.016218698
244	0xbb800115	-0.003906379
245	0x3d1e0397	0.038577642
246	0xbcc15048	-0.023597851
247	0xbcbbd659	-0.022929357
248	0xbc350307	-0.011048085
249	0xbd02f3ec	-0.031970903
250	0xbbfb3d8d	-0.0076672495
251	0x3d2b8a54	0.041879967
252	0xbce410b1	-0.02783999
253	0xbc2aba76	-0.010420432
254	0x3cac79e2	0.021054212
255	0x3c754881	0.0149709

0.bias f4 [130]
0	0xbbaf0ed7	-0.005342345
1	0xbb97b079	-0.0046291915
2	0x3de82669	0.11335451
3	0x3e8ac7f9	0.27105692
4	0x3ea2b854	0.31781256
5	0x3e1a290b	0.15054719
6	0xbc5f1887	-0.013616688
7	0x3badf067	0.005308199
8	0x3c099428	0.00839714
9	0x3a80c543	0.0009824414
10	0x3c2713f0	0.010197625
11	0x3ca6a2da	0.020341326
12	0x3de38ac9	0.111104555
13	0x3e075b65	0.13218458
14	0xbc8ccf35	-0.017188648
15	0xbd4cef20	-0.050032735
16	0xbb4d3080	-0.0031309426
17	0xbbfce9c4	-0.0077182967
18	0xbee7405e	-0.45166296
19	0xbe351da7	-0.17687093
20	0xbd0a606c	-0.03378336
21	0xbcebd648	-0.0287887
22	0x3cb2312b	0.02175196
23	0xbe375df8	-0.1790694
24	0x3d60ef8a	0.054915942
25	0x3e2556eb	0.16146438
26	0x3dad7bf2	0.08470906
27	0x3e034b3e	0.12821671
28	0xbd0ca380	-0.034335613
29	0x3e65123f	0.22370242
30	0xbd1d79f8	-0.038446397
31	0xbddbd828	-0.10734588
32	0xbd0a891e	-0.03382217
33	0x3d482987	0.04886773
34	0xbea55038	-0.32287765
35	0x3e42fc43	0.19041543
36	0xbe63f894	-0.22262794
37	0xbd877cdd	-0.06615613
38	0xbccf3ce1	-0.025297584
39	0x3e3cac71	0.18425156
40	0xbea6a01a	-0.32544023
41	0x3cd6692f	0.026173202
42	0xbe7b399a	-0.24533692
43	0x3cf9f130	0.030510515
44	0x3e4210a4	0.1895166
45	0x3e277ed7	0.1635698
46	0xbd152f20	-0.036421895
47	0xbbfb8554	-0.007675806
48	0xbe171188	-0.14752781
49	0x3cd95fea	0.026534993
50	0xbdc0c4a9	-0.0941251
51	0xbc85c123	-0.016327446
52	0x3bfa189e	0.007632329
53	0xbde505ba	-0.11182733
54	0xbcb0a948	-0.021565095
55	0xbeb6cbe2	-0.35702425
56	0x3e64642e	0.2230384
57	0xbc88fa74	-0.016720988
58	0xbd28231f	-0.04104912
59	0xbda33e48	-0.079708636
60	0xbb2306f0	-0.0024875961
61	0xbdc99aee	-0.098440036
62	0xbe8a0e93	-0.26964244
63	0x3d038e5b	0.032118183
64	0x3e6da6f1	0.23208214
65	0xbd949b95	-0.072562374
66	0xb7291447	-1.0077906e-05
67	0x3dd9ce1b	0.106350146
68	0x3b948800	0.004532814
69	0xbeed701d	-0.46374598
70	0x3bcc2a50	0.00623063
71	0xbce54abc	-0.027989738
72	0x3e10a000	0.14123535
73	0x3a53d985	0.0008081424
74	0x3c954de0	0.01822561
75	0xbd859594	-0.065226704
76	0xbe47513b	-0.1946458
77	0x3ef4f60d	0.47843972
78	0xbee1c1ae	-0.44093078
79	0xbe13311f	-0.14374207
80	0x3d9a4806	0.07533269
81	0xbc853975	-0.01626275
82	0xbc4e8a84	-0.012606267
83	0xbd051e7b	-0.03249977
84	0x3cdee6d7	0.027209682
85	0xbc6a716e	-0.01430927
86	0x3d05963b	0.032613974
87	0x3e5f1a8f	0.21787475
88	0xbc3c7cd8	-0.011504374
89	0xb980a4e4	-0.00024536916
90	0xbd463a49	-0.04839543
91	0xbd549688	-0.05190137
92	0x3c1c21be	0.009529529
93	0xbbd107d8	-0.006379109
94	0xbb949706	-0.004534605
95	0xbce98ecb	-0.028510472
96	0x3c120b58	0.008913837
97	0x3d73e30e	0.059542708
98	0xbd57a287	-0.052645233
99	0xbca240a0	-0.019806206
100	0x3bd2b830	0.0064306483
101	0xbe19b35c	-0.15009826
102	0xbe1c4aa5	-0.1526285
103	0x3e01d2dc	0.12678093
104	0xbcb9eef8	-0.022696957
105	0x3c35917c	0.011082049
106	0x3dd5200a	0.104065016
107	0x3caa5231	0.020791145
108	0x3e2ec3cf	0.17066883
109	0xbea8ad5e	-0.3294477
110	0xbe5b473b	-0.21413891
111	0xbe794b3c	-0.24345106
112	0xbed436ab	-0.41447958
113	0xbe47870e	-0.19485113
114	0x3dad21ef	0.08453738
115	0xbe812be3	-0.25228795
116	0x3cd8c0ea	0.026459176
117	0xbd05a68f	-0.032629546
118	0xbd708e4f	-0.058729466
119	0xbcec0b08	-0.028813854
120	0x3c9c855f	0.019106565
121	0x3f0c0b08	0.5470433
122	0xbbdde69f	-0.006771877
123	0xbceea56d	-0.029131616
124	0xbea45ba6	-0.32101172
125	0xbc5e2cfe	-0.013560532
126	0xbc034de1	-0.008014173
127	0xbdcf62a3	-0.10126235
128	0xbc4b86d1	-0.012422279
129	0xbde651c9	-0.11246068

2.weight f4 [130, 130]
0	0x3dc10575	0.09424869
1	0x3c404d20	0.011737138
2	0x3e29d4cf	0.16585086
3	0xbe5cb8e7	-0.2155491
4	0x3e624240	0.22095585
5	0x3e0cda95	0.13755257
6	0xbd61bc78	-0.05511138
7	0x3d896f5a	0.06710692
8	0xbdcf94a2	-0.10135771
9	0xbd517cb6	-0.051144324
10	0xbd99791f	-0.07493805
11	0xbcc2efb0	-0.023795933
12	0x3ccb87c7	0.024845017
13	0x3dbd813b	0.092531644
14	0x3d9d7e2d	0.07690082
15	0x3d2eb1fe	0.042650215
16	0xbd6f0c13	-0.058361124
17	0x3daec243	0.08533146
18	0xbcc2f096	-0.023796361
19	0xbe5d5e89	-0.21618094
20	0xbc0e55e8	-0.008687474
21	0x3cca4c40	0.024694562
22	0x3c482fa0	0.012218386
23	0xbbdc63dd	-0.006725772
24	0x3d7c9888	0.061668903
25	0x3dd5f3da	0.104469016
26	0xbd329932	-0.04360313
27	0xbddbce1e	-0.10732673
28	0xbc95127c	-0.01819729
29	0xbe2cd86e	-0.16879436
30	0xbc8b1306	-0.016976845
31	0xbe280d07	-0.1641122
32	0xbdd6f650	-0.10496199
33	0x3d853155	0.0650355
34	0xbdd2bb8a	-0.102896765
35	0xbe3c92fa	-0.18415442
36	0x3e6c977d	0.23104663
37	0x3e13aee5	0.14422186
38	0x3b741bc0	0.0037247986
39	0x3d5a9fb9	0.05337498
40	0x3d42123b	0.047380667
41	0xbd8a07db	-0.067397796
42	0xbddf6e10	-0.10909665
43	0xbe327a2d	-0.17429419
44	0xbb7b399b	-0.0038333896
45	0x3e29b984	0.16574675
46	0xbd7286b0	-0.05921048
47	0x3d68813a	0.056763865
48	0xbc9af5e1	-0.018916072
49	0xbd41da46	-0.047327302
50	0x3e275fd4	0.1634515
51	0x3d9a761a	0.07542057
52	0x3e63b5ae	0.22237274
53	0x3e02e852	0.12783936
54	0x3c593caa	0.013259092
55	0x3db32090	0.08746445
56	0x3b69b2b6	0.0035659499
57	0xbd971b45	-0.07378248
58	0x3e16075b	0.14651243
59	0xbe283ca7	-0.16429387
60	0x3d8e7f5d	0.06957886
61	0x3e070e0f	0.13188957
62	0x3dc3d713	0.095625065
63	0x3e4fa259	0.20276774
64	0x3ce9651a	0.028490592
65	0xbe530937	-0.20608984
66	0x3d774599	0.060369108
67	0x3e2f4da6	0.17119464
68	0xbd96a97d	-0.07356546
69	0x3d78023c	0.060549006
70	0xbce0ee14	-0.027457274
71	0xbda08077	-0.07837003
72	0xbdb86aa2	-0.090047136
73	0x3dbbfee1	0.09179474
74	0x3d84ad87	0.0647841
75	0xbdf68d0d	-0.12038622
76	0xbe394494	-0.18092567
77	0xbdd10529	-0.10206062
78	0x3cbf32be	0.023339625
79	0xbc58d4c8	-0.013234325
80	0x3e3ad56c	0.18245476
81	0xbd92c61b	-0.07166692
82	0xbd8eb8c0	-0.06968832
83	0xbcfbbfe8	-0.030731156
84	0xbb2d7a37	-0.002647055
85	0xbd3ba7a6	-0.04581418
86	0x3bc9a140	0.0061532557
87	0x3da4e927	0.08052283
88	0xbd5ff2f0	-0.054675043
89	0x3d94a815	0.072586216
90	0xbe0580c6	-0.13037404
91	0xbd88e778	-0.06684774
92	0x3ce9d917	0.0285459
93	0x3d9726bd	0.073804356
94	0x3d218b2a	0.039439358
95	0xbca92f3a	-0.020652402
96	0xbc9b70a4	-0.01897461
97	0xbe170db4	-0.14751321
98	0x3e1a6082	0.15075877
99	0xbd10f284	-0.03538753
100	0x3da026df	0.07819914
101	0xbe020e3c	-0.12700742
102	0xbe2d26c8	-0.16909325
103	0x3db9e195	0.090762295
104	0xbd312b25	-0.043254036
105	0xbc77cefe	-0.015125034
106	0xbd48e380	-0.049045086
107	0xbe094f68	-0.13409197
108	0x3ec2c46e	0.3804049
109	0xbdfd41c6	-0.12366061
110	0xbdf9380e	-0.12168895
111	0x3cf1e1ba	0.02952658
112	0x3d076f93	0.03306539
113	0x3e5e3170	0.21698546
114	0x3e038120	0.12842226
115	0xbd52d80c	-0.05147557
116	0xbb83be4d	-0.0040204884
117	0x3c938700	0.018008709
118	0x3ddaae93	0.10677829
119	0x3d421014	0.047378615
120	0x3c07b53f	0.0082829585
121	0x3c30e094	0.010795731
122	0x3db572f9	0.0885982
123	0xbdb56902	-0.08857919
124	0x3d96325e	0.073338255
125	0xbe1a85f1	-0.15090157
126	0xbd30efa9	-0.043197308
127	0x3c962a32	0.018330667
128	0xbe19d6dc	-0.15023369
129	0x3d8046c6	0.06263499
130	0xbd679777	-0.056540933
131	0xbc812c27	-0.015768124
132	0x3e11e3aa	0.14247003
133	0xbdce558f	-0.10074913
134	0xbe0c42b3	-0.13697319
135	0xbe0ae9ed	-0.13565798
136	0x3a8fdda3	0.0010976087
137	0xbd93cce2	-0.07216813
138	0xbc0a292d	-0.008432669
139	0x3d0e955f	0.03481042
140	0xbd94aaf3	-0.072591685
141	0xbdb18b1f	-0.08669113
142	0x3e3f901f	0.18707322
143	0xbe083c73	-0.1330431
144	0xbc817d5b	-0.015806844
145	0xbd3bc61f	-0.04584324
146	0xbd2f3b66	-0.042781256
147	0x3d397891	0.045280997
148	0x3ca607a2	0.020267311
149	0x3dd0c665	0.10194091
150	0x3cae8dae	0.021307793
151	0x3d1837a3	0.037162434
152	0xbd46ee69	-0.04856721
153	0xbde27bf6	-0.110588
154	0x3cd90bc1	0.026494863
155	0x3e00156f	0.12508176
156	0x3d1af6b6	0.037832938
157	0x3d1575b0	0.03648919
158	0xbd45eef2	-0.04832358
159	0xbd3c7e15	-0.04601868
160	0xbcf0815c	-0.029358558
161	0x3c56730f	0.013088956
162	0x3ddc3acc	0.10753402
163	0x3d875624	0.06608227
164	0xbc2c4b68	-0.010516025
165	0xbd00f699	-0.031485174
166	0x3dadd476	0.08487789
167	0x3d8bca37	0.06825679
168	0x3d18060c	0.03711514
169	0x3c70ee9a	0.014705325
170	0x3e3e07b8	0.18557632
171	0x3cac8a39	0.021062003
172	0xbd6d651b	-0.05795775
173	0xbdedc776	-0.1161031
174	0x3c562e4e	0.013072563
175	0x3e291b6a	0.16514364
176	0x3d1cb0a5	0.0382544
177	0x3cbbead8	0.02293913
178	0x3e0787a9	0.13235344
179	0xbd184af4	-0.037180856
180	0xbb4d0598	-0.0031283852
181	0x3d48365f	0.048879977
182	0x3de6b614	0.112651974
183	0xbdb9a513	-0.090646885
184	0xbcd96960	-0.026539505
185	0x3da5bb90	0.08092415
186	0x3d0511d7	0.032487717
187	0xbc271c55	-0.010199626
188	0x3df8059a	0.121104434
189	0x3d8bf801	0.06834412
190	0x3d80bc1b	0.06285878
191	0xbb4ce319	-0.003126329
192	0xbd9d145c	-0.07669899
193	0xbe778918	-0.24173391
194	0x3d276494	0.040867403
195	0x3acd6fb3	0.0015673548
196	0x3da46d37	0.080286436
197	0xbdf46f6b	-0.11935314
198	0x3d3694e6	0.044575594
199	0x3cc50b4f	0.024053244
200	0x3d9dccc5	0.07705072
201	0xbcd4b6dc	-0.0259661
202	0x3c9ab62d	0.018885696
203	0x3d7ed4db	0.062214714
204	0xbd48d32c	-0.049029514
205	0x3caa4083	0.020782715
206	0x3d8a4026	0.067505166
207	0xbcb73c3a	-0.022367585
208	0xbde67e11	-0.11254514
209	0x3b9cb3cc	0.0047821756
210	0xbd03c6ef	-0.03217214
211	0xbce50a6c	-0.027959071
212	0x3c98bd15	0.018644849
213	0x3d8c59e3	0.06853082
214	0x3d1c31e5	0.03813352
215	0xbd4929a6	-0.049111985
216	0xbd0128dc	-0.031533107
217	0xbd9e0a26	-0.077167794
218	0xbdaf2575	-0.08552066
219	0x3d8f1b0d	0.069875814
220	0xbd3bce20	-0.045850873
221	0x3e135848	0.14389145
222	0x3d8c961d	0.06864569
223	0x3d71aa3a	0.05900023
224	0x3cc689c4	0.024235614
225	0xbd8e2ea8	-0.06942493
226	0xbd9b269b	-0.07575723
227	0xbe983f4d	-0.29735795
228	0xbdd96243	-0.10614445
229	0x3d833858	0.06407231
230	0xbd9c6567	-0.076365285
231	0x3e12a143	0.14319329
232	0xbdb5d32f	-0.08878171
233	0xbd87e3ea	-0.06635268
234	0x3d98454e	0.07435094
235	0xbe37db0f	-0.17954658
236	0xbe398c3a	-0.18119898
237	0x3d836848	0.064163744
238	0xbe0e4b5c	-0.13895935
239	0xbc1e23a9	-0.009652057
240	0x3d01448d	0.031559516
241	0xbd4354ea	-0.047688402
242	0x3db5eed3	0.08883443
243	0xbe1efb17	-0.1552547
244	0x3e32b8db	0.1745333
245	0x3cae57ec	0.021282159
246	0x3cac0778	0.020999655
247	0xbdb00db2	-0.08596362
248	0xbe8628ef	-0.26203105
249	0xbdac2c67	-0.084069066
250	0xbd03a392	-0.032138415
251	0x3e5613d5	0.20906003
252	0x3d1c330a	0.038134612
253	0x3ca8f1db	0.020623138
254	0x3d4645ae	0.048406295
255	0xbe17a5d0	-0.14809346

2.bias f4 [130]
0	0xbd267fc7	-0.0406492
1	0x3bf30a50	0.007417001
2	0x3f06effe	0.5270995
3	0xbdbe83d5	-0.09302489
4	0xbe76900a	-0.24078384
5	0xbd6e5b15	-0.05819233
6	0xbdc3485a	-0.09535284
7	0xbd97123d	-0.073765256
8	0x3dd051eb	0.101718746
9	0xbe33bce6	-0.17552528
10	0xbe9e7827	-0.30951044
11	0xbd61d05f	-0.05513036
12	0xbd56f862	-0.05248297
13	0xbd41dedd	-0.04733168
14	0xbcb99166	-0.02265234
15	0x3e535e26	0.20641384
16	0xbc904ead	-0.01761564
17	0xbddb66ef	-0.107129924
18	0xbd9eb41f	-0.07749199
19	0x3e082893	0.13296728
20	0xbd0b02d3	-0.03393824
21	0xbdd9c1b4	-0.10632649
22	0xbd1a5d89	-0.03768686
23	0xbdbd5257	-0.09244221
24	0xbdc39241	-0.0954938
25	0xbed291e2	-0.41126925
26	0xbea20776	-0.31646317
27	0xbe662631	-0.22475506
28	0x3d21136a	0.039325155
29	0x3d1f292e	0.03885763
30	0x3f155f3c	0.5834844
31	0xbda125fc	-0.07868573
32	0xbd9f4f2a	-0.07778771
33	0x3ca1f8af	0.019771902
34	0xbdb4a5b8	-0.08820671
35	0x3e045a3e	0.1292505
36	0xbe1167e3	-0.14199786
37	0xbe2042a9	-0.15650429
38	0xbe3bbc40	-0.1833353
39	0xbd7f5c4f	-0.06234389
40	0x3d7c9468	0.06166497
41	0x3ed321d3	0.41236743
42	0xbe834f4d	-0.2564644
43	0xbe23f0d5	-0.16009839
44	0xbd31fcb3	-0.043453883
45	0xb9217c2c	-0.00015400414
46	0x3e90fdde	0.28318685
47	0x3e2459f6	0.16049942
48	0x3dac2361	0.084051855
49	0x3e035bb5	0.12827952
50	0xbeec56e8	-0.46160054
51	0x3dfcaa0c	0.12337121
52	0xbd5f7152	-0.05455143
53	0xbd369bd8	-0.044582218
54	0xbdc14987	-0.09437852
55	0x3e1787e1	0.14797927
56	0xbd4762e1	-0.048678283
57	0x3dda411e	0.10656951
58	0x3f4c280b	0.797486
59	0xbcc35c34	-0.023847677
60	0xbc93f66b	-0.018061837
61	0xbc6d9a90	-0.014502183
62	0xbcb5616d	-0.022141183
63	0xbd44604c	-0.0479434
64	0xbe89712d	-0.2684416
65	0x3e7c94ae	0.24666092
66	0xbdc1345b	-0.09433814
67	0xbdb95b2d	-0.090505935
68	0xbe5ab902	-0.21359637
69	0x3edb1320	0.4278803
70	0xbd385433	-0.045002174
71	0xbe0ec1f7	-0.13941179
72	0x3e49447d	0.19655032
73	0xbe68c9eb	-0.22733276
74	0xbb879ac6	-0.0041383235
75	0xbee28d27	-0.44248316
76	0xbdf476eb	-0.11936744
77	0xbe358bf2	-0.17729166
78	0x3d0e01ee	0.03466981
79	0x3b81c257	0.0039599347
80	0x3da68272	0.08130349
81	0xbd89b75f	-0.067244284
82	0x3e658165	0.22412641
83	0x3e898df2	0.26866108
84	0x3e559695	0.20858224
85	0x3f02db1a	0.5111557
86	0xbe907baa	-0.28219348
87	0xbe633fd9	-0.22192325
88	0x3d8018a0	0.06254697
89	0x3f12834a	0.5723158
90	0xbe0c94e7	-0.13728677
91	0xbdbe4bd9	-0.092918105
92	0x3f6585fb	0.8965756
93	0xbd4822a1	-0.04886115
94	0xbddbe7b4	-0.10737553
95	0x3e1d5860	0.15365744
96	0xbe932cb9	-0.28745058
97	0x3e690c89	0.22758688
98	0xbe32b3c5	-0.17451389
99	0xbcf1a5c1	-0.029497983
100	0xbdecfa2f	-0.11571156
101	0xbe8ca447	-0.27469084
102	0x3e8f70f3	0.2801586
103	0x3e35bb8b	0.17747323
104	0x3eac794d	0.33686295
105	0xbcaf4e8f	-0.021399764
106	0x3ccd16b5	0.025035242
107	0xbd37e475	-0.044895608
108	0xbd655e11	-0.05599791
109	0x3d41879b	0.047248464
110	0xbde7b630	-0.113140464
111	0xbda62988	-0.0811339
112	0x3c9bf78d	0.01903894
113	0xbda267d7	-0.07929962
114	0xbe352e07	-0.1769334
115	0xbd8ca937	-0.06868213
116	0x3e653d27	0.22386609
117	0xbd9b7d7f	-0.07592296
118	0xbdadc51a	-0.0848486
119	0xbdbea8b2	-0.0930952
120	0xbd28894c	-0.04114656
121	0x3c92d7f2	0.017925236
122	0x3e88e91e	0.26740354
123	0xbdd5007f	-0.10400485
124	0x3e86ece8	0.2635262
125	0xbe23b6ab	-0.15987651
126	0xbe8b54f5	-0.27213255
127	0x3d76f4df	0.06029212
128	0xbe8c6db1	-0.27427438
129	0x3da6d6c7	0.08146434

4.weight f4 [130, 130]
0	0x3d24015e	0.040040366
1	0xbc3a7896	-0.011381289
2	0xbdec8635	-0.115490355
3	0x3d861996	0.06547849
4	0x3e35f56a	0.177694
5	0xbcd7de94	-0.02635125
6	0xbb13e065	-0.002256417
7	0x3e7d8cdb	0.24760763
8	0xbe2ca882	-0.16861156
9	0x3cd376c4	0.025813468
10	0xbd6d3d3a	-0.05791972
11	0xbd18a2cb	-0.037264626
12	0xbc725973	-0.014791834
13	0x3ded50a7	0.11587649
14	0xbe32662f	-0.17421792
15	0x3dafc567	0.085825734
16	0xbe57bad6	-0.21067366
17	0xbdb0e01e	-0.08636497
18	0xbd3632f5	-0.04448219
19	0x3dbba927	0.091631226
20	0xbd1d9338	-0.038470477
21	0xbdbdf28a	-0.09274776
22	0xbe09b123	-0.13446479
23	0x3deaa1e9	0.11456663
24	0xbe00c643	-0.12575631
25	0x3ca8ad95	0.020590583
26	0xbda68d04	-0.08132365
27	0x3d9005c9	0.070323534
28	0x3e231420	0.15925646
29	0x3ea37122	0.3192225
30	0xbe09047f	-0.13380621
31	0xbdfdef93	-0.12399211
32	0xbe37cfcb	-0.1795036
33	0xbd1c70e1	-0.038193587
34	0xbc999bd7	-0.018751068
35	0x3e912fc2	0.2835675
36	0xbd01a397	-0.031650152
37	0xbe2e32b8	-0.17011535
38	0x3e1e395b	0.15451567
39	0xbd387be1	-0.045040015
40	0x3e15c6e5	0.14626653
41	0x3de9ae76	0.11410229
42	0x3d171f01	0.036894802
43	0xbee8153b	-0.45328698
44	0x3cfe95a9	0.031077223
45	0x3da8e7fb	0.08247372
46	0xbce54b2c	-0.027989946
47	0x3e0cbe94	0.13744575
48	0xbd7a0456	-0.06103929
49	0x3dadf73e	0.08494423
50	0xbd2a71b1	-0.04161233
51	0xbe1a5c5c	-0.15074295
52	0x3d93c1ae	0.07214676
53	0x3d286a1e	0.041116826
54	0xbd1e3b61	-0.038630847
55	0x3b845c9b	0.0040393597
56	0x3ea5fedb	0.32421002
57	0xbd48c924	-0.049019948
58	0x3d9f9211	0.07791532
59	0x3c9e927a	0.019356955
60	0x3be60ef2	0.0070208246
61	0xbd53183a	-0.051536776
62	0xbda51fd2	-0.0806271
63	0xbd41c3c7	-0.04730585
64	0x3cd7a94f	0.02632585
65	0x3e9ff876	0.31244248
66	0x3dacf7de	0.084457144
67	0x3cb69f6d	0.022292817
68	0x3e80e29b	0.25172886
69	0xbe5c838d	-0.21534558
70	0xbd220745	-0.039557714
71	0xbce9b0f4	-0.02852676
72	0x3e2baf5f	0.16766118
73	0xbce1e12d	-0.027573192
74	0x3e5968f9	0.2123145
75	0xbcf516fb	-0.029918185
76	0x3e2b553a	0.1673173
77	0xbdde440a	-0.10852821
78	0x3e615bda	0.22007695
79	0x3de4bc5f	0.111687414
80	0xbe81baa9	-0.25337723
81	0xbdd31d6a	-0.10308345
82	0x3e31a2c0	0.1734724
83	0x3e41a437	0.18910299
84	0x3e1638a3	0.14670043
85	0xbe1ca5b7	-0.1529759
86	0x3d965021	0.07339502
87	0xbe676435	-0.2259682
88	0x3e08f328	0.13374007
89	0x3e94b6a2	0.29045588
90	0xbe9aaa02	-0.3020783
91	0xbc3ade0c	-0.011405479
92	0xbbbac5f1	-0.005699866
93	0x3bf4edbb	0.0074746287
94	0x3d365cc1	0.04452205
95	0x3e1d6543	0.1537066
96	0x3d00e64b	0.031469624
97	0x3d208d2c	0.039197132
98	0x3e2aaf0c	0.16668338
99	0x3dd289d7	0.10280197
100	0xbd650be4	-0.055919543
101	0x3ccfd66d	0.0253708
102	0xbe495318	-0.19660604
103	0x3e1d4799	0.15359344
104	0x3dd460ec	0.10370049
105	0xbda058cf	-0.07829439
106	0xbdfacff2	-0.12246694
107	0x3df83c58	0.12120885
108	0x3e47dd72	0.19518068
109	0xbca685e9	-0.020327525
110	0xbd0bb087	-0.034103896
111	0x3e9ce09a	0.30640107
112	0x3d16ea6e	0.036844663
113	0x3cc7872e	0.02435645
114	0x3dd28ed4	0.102811486
115	0x3c67f0aa	0.0141565
116	0x3d2a2ebd	0.04154848
117	0xbdeca3d1	-0.11554683
118	0x3c6540e5	0.013992523
119	0x3ca0ffb2	0.019653175
120	0x3df4c01d	0.11950705
121	0xbc41e89e	-0.011835245
122	0xbe3b3c95	-0.18284829
123	0xbd3b7cf7	-0.045773473
124	0xbdd38b7e	-0.103293404
125	0x3e3b82fd	0.18311687
126	0xbe813cb0	-0.25241613
127	0x3e43a753	0.19106798
128	0xbd3d06f3	-0.046149205
129	0xbeeebde9	-0.46629265
130	0x3ce2cfac	0.027686916
131	0x3dcd7827	0.10032683
132	0x3e416255	0.18885167
133	0xbda90f93	-0.08254924
134	0x3e3e26c3	0.18569474
135	0x3c28e59c	0.010308649
136	0xbd7fa4ab	-0.0624129
137	0x3d178c7c	0.03699921
138	0xbe3121d5	-0.17298062
139	0x3e47c8f3	0.1951025
140	0x3dce5200	0.10074234
141	0xbe16484a	-0.14676014
142	0xbd10ad7d	-0.0353217
143	0x3de4fdec	0.11181244
144	0x3cb99db9	0.022658216
145	0xbd96c732	-0.07362212
146	0x3d571bfd	0.052516926
147	0xbc4094ef	-0.011754259
148	0x3e376999	0.17911376
149	0xbc60b453	-0.013714868
150	0x3da7e40b	0.081977926
151	0xbd135a12	-0.03597457
152	0x3d709cd5	0.058743317
153	0x3d284727	0.04108348
154	0xbc70661b	-0.014672781
155	0x3c5b2641	0.01337582
156	0x3c8ebb3f	0.01742327
157	0xbdffc09d	-0.1248791
158	0xbd6ea5f8	-0.05826375
159	0xbd0bd4c4	-0.034138456
160	0x3de5f05b	0.11227485
161	0xbbcc1d44	-0.0062290747
162	0x3e28cb3b	0.16483776
163	0xbde0c925	-0.10975865
164	0x3d548535	0.05188485
165	0x3eab2907	0.3342974
166	0xbdf2851f	-0.11841797
167	0xbdc6b478	-0.097023904
168	0xbdc3d970	-0.09562957
169	0xbe0751a6	-0.1321474
170	0xbdf4d64e	-0.11954938
171	0xbd175ded	-0.03695481
172	0x3d0745c3	0.033025514
173	0xbcabce5b	-0.020972421
174	0xbd29fa80	-0.04149866
175	0x3d754cf4	0.05988784
176	0xbc7a761e	-0.01528695
177	0xbe4768ec	-0.19473618
178	0xbdabcf81	-0.083891876
179	0xbdb636a0	-0.08897138
180	0x3d0c2baa	0.03422133
181	0x3d9dd2d0	0.07706225
182	0x3dfe7cc3	0.1242614
183	0xbd8d5f8e	-0.06902991
184	0x3d259458	0.040424675
185	0x3e6aa554	0.2291463
186	0xbd4aa191	-0.049470488
187	0x3c44d03a	0.012012536
188	0x3ea0a397	0.3137481
189	0x3d09753a	0.03355906
190	0xbbbb0037	-0.0057068127
191	0xbdaf0f0c	-0.08547792
192	0x3d94b320	0.07260728
193	0xbdb9aa43	-0.09065678
194	0x3d673b02	0.05645276
195	0xbe333c0a	-0.17503372
196	0xbc4facea	-0.012675503
197	0x3daba0c2	0.083802715
198	0xbe5674aa	-0.20942941
199	0x3e75bd83	0.23998074
200	0x3cb89f0c	0.022536777
201	0xbbd0a4e9	-0.006367315
202	0xbddce99e	-0.107867464
203	0x3da319d6	0.07963912
204	0x3e11e8e3	0.14248995
205	0xbe87d9ea	-0.26533443
206	0xbe3d03ca	-0.18458477
207	0xbd86a9d2	-0.065753594
208	0x3c82ac3e	0.015951272
209	0x3c538abd	0.012911496
210	0x3d3367e8	0.043800265
211	0xbddf0e5e	-0.10891412
212	0xbe3cec3f	-0.18449496
213	0x3d954e4c	0.072903246
214	0xbb935530	-0.004496239
215	0x3ea353f5	0.31899992
216	0x3c46581e	0.01210597
217	0xbca2f617	-0.019892735
218	0xbe3d1e2e	-0.18468544
219	0x3e46d81f	0.19418381
220	0x3dea3299	0.11435432
221	0x3d9fc3ee	0.078010425
222	0xbedd4cad	-0.4322256
223	0x3dc0078d	0.0937644
224	0x3e870258	0.26368976
225	0x3e63e302	0.22254565
226	0x3cc6f0db	0.02428477
227	0xbe36a2a0	-0.17835474
228	0xbdfb4528	-0.1226905
229	0xbdd3d3c7	-0.10343128
230	0xbd0f1072	-0.034927793
231	0xbcc35585	-0.02384449
232	0x3e1152dd	0.14191766
233	0xbdf0ef01	-0.117643364
234	0x3cd5e03e	0.026107904
235	0x3dd877cb	0.10569724
236	0x3e3539ed	0.17697878
237	0x3d95280e	0.072830305
238	0x3d81070b	0.063001715
239	0xbd984f90	-0.0743705
240	0x3d91eb7b	0.071249925
241	0xbc56d88f	-0.013113155
242	0xbd0462b7	-0.032320704
243	0x3dea55bc	0.11442134
244	0xbd2450ec	-0.040116236
245	0xbe087fd4	-0.13330013
246	0xbdea9625	-0.11454419
247	0xbe074650	-0.13210416
248	0x3d503dd6	0.05084022
249	0x3d3fb88b	0.046806853
250	0xbc68e77d	-0.014215347
251	0xbbf5de77	-0.0075033265
252	0xbc9f65da	-0.019457746
253	0xbbe4ca87	-0.006982151
254	0x3e564586	0.20924959
255	0x3e3ae9e5	0.18253286

4.bias f4 [130]
0	0x3dcb0a46	0.09914069
1	0x3e12b399	0.14326324
2	0xbdbf20dc	-0.09332439
3	0x3e6c241e	0.23060653
4	0xbd303080	-0.043015003
5	0xbd1ede3f	-0.03878617
6	0x3d34bfa0	0.04412806
7	0x3e528247	0.2055751
8	0xbc9bd43d	-0.019022102
9	0xbed05775	-0.40691724
10	0xbd04e446	-0.03244426
11	0xbd6f366d	-0.058401514
12	0x3dd3d342	0.103430286
13	0x3e86c962	0.26325518
14	0x3dc175c8	0.09446293
15	0xbe31e58c	-0.17372721
16	0xbdf4fbd9	-0.11962099
17	0x3d8a10bf	0.06741475
18	0xbe377ebb	-0.17919438
19	0xbcc8e250	-0.024521977
20	0x3eb30040	0.34961128
21	0xbbba2b69	-0.0056814444
22	0xbe13bc9d	-0.14427419
23	0x3e2dfa77	0.16990076
24	0xbe4e48d5	-0.2014497
25	0xbc93d1a5	-0.018044302
26	0x3c44ba57	0.0120073175
27	0x3e1e90bf	0.15484904
28	0x3e0a8c17	0.13530003
29	0xbe2f8151	-0.17139174
30	0xbe4e75bf	-0.20162104
31	0x3d9c9a65	0.07646636
32	0xbda56fb8	-0.08077949
33	0xbe4b391b	-0.19846003
34	0x3ed0be27	0.40770075
35	0xbcaf4341	-0.021394374
36	0x3d8497d5	0.06474272
37	0xbe7cfdc2	-0.24706176
38	0xbd944756	-0.07240169
39	0xbe1b84e9	-0.1518742
40	0x3b4edbe9	0.0031564182
41	0xbd35e962	-0.044412024
42	0xbe2ab99d	-0.16672368
43	0xbe0b211a	-0.13586846
44	0x3e0baa2c	0.13639134
45	0x3d4ef62f	0.050527748
46	0xbe47e34e	-0.19520304
47	0x3b94f583	0.004545869
48	0x3ed85f48	0.42260194
49	0xbf000f65	-0.5002349
50	0xbb8a4726	-0.0042199073
51	0x3dffe1dd	0.12494252
52	0xbc74e910	-0.014948145
53	0xbd2c1bd8	-0.04201874
54	0x3e53f7d8	0.20700014
55	0x3e253fa4	0.16137558
56	0x3e648f6f	0.2232034
57	0x3da2f2fa	0.079565
58	0xbe3fe020	-0.1873784
59	0xbe326a34	-0.17423326
60	0xbc50f1fa	-0.012753004
61	0xbce52f5c	-0.027976684
62	0xbe0e1fb9	-0.13879289
63	0xbcb9fb77	-0.022702916
64	0x3e08fc39	0.13377465
65	0x3de5ecb8	0.11226791
66	0xbc85034d	-0.016236925
67	0x3e1cde52	0.15319183
68	0x3e2a8d0c	0.16655368
69	0xbd97eb81	-0.07417966
70	0xbd138e49	-0.036024366
71	0x3eab3417	0.3343818
72	0xbc716762	-0.014734121
73	0xbec2d16c	-0.380504
74	0x3ebff6f7	0.37493107
75	0x3de861cb	0.113467775
76	0x3eb03743	0.3441716
77	0xbd2ad159	-0.041703556
78	0xbee98936	-0.45612496
79	0xbd0d00de	-0.034424655
80	0x3cf5e4d7	0.030016346
81	0xbe0c46d5	-0.13698895
82	0x3e359ea1	0.17736293
83	0x3de2fdb0	0.11083543
84	0xbee6ac5e	-0.4505338
85	0x3c420fa3	0.011844548
86	0x3d242c70	0.04008144
87	0xbe0a2e2b	-0.13494174
88	0xbd80cb62	-0.06288792
89	0x3dc2e9d0	0.095172524
90	0x3de4d273	0.111729525
91	0xbdf5e194	-0.12005916
92	0xbc819f11	-0.01582292
93	0xbe70a9c0	-0.23502254
94	0xbc836803	-0.016040808
95	0x3e0d84ba	0.13820162
96	0x3cac5eca	0.021041293
97	0xbe919547	-0.28434202
98	0x3e1eb523	0.15498786
99	0x3e8ab6a2	0.27092463
100	0xbc4f0889	-0.012636312
101	0xbe63f971	-0.22263123
102	0x3e53f8fd	0.2070045
103	0x3e0fd779	0.1404704
104	0x3e76559c	0.24056095
105	0xbd328d5b	-0.04359184
106	0x3dcb96b4	0.09940854
107	0x3e0da841	0.13833715
108	0xbd9a9eba	-0.07549806
109	0xbe6fd7da	-0.23422185
110	0x3e96883c	0.29400814
111	0x3e6dcb1b	0.2322201
112	0xbd49bf98	-0.049254984
113	0xbddb699f	-0.10713505
114	0xbdfdf1c7	-0.12399631
115	0x3e182fa0	0.14861917
116	0x3e2997c3	0.16561799
117	0xbe8b5275	-0.27211347
118	0x3e492567	0.19643174
119	0xbe1e5f72	-0.15466097
120	0x3d43ee97	0.04783496
121	0x3e02514f	0.1272633
122	0xbd564615	-0.05231293
123	0x3c85c9bc	0.016331546
124	0x3d987dee	0.07445894
125	0xbe2a6f51	-0.16644026
126	0xbd97cf5d	-0.07412598
127	0xbe22facb	-0.15915982
128	0xbe7071b2	-0.23480871
129	0x3ca3990f	0.019970445

6.weight f4 [157, 130]
0	0x3d46ff0a	0.048583068
1	0xbdb64618	-0.08900088
2	0x3cf9263d	0.030413741
3	0x3e04d28d	0.12970944
4	0xbb5b8f0b	-0.0033502008
5	0x3d22a549	0.03970841
6	0x3d27767e	0.040884487
7	0xbd8e159c	-0.069377154
8	0x3d533174	0.051560834
9	0xbdfc0a0c	-0.12306604
10	0xbc656fec	-0.014003735
11	0xbd529e94	-0.051420763
12	0x3e1ec6fe	0.15505597
13	0xbdab7fb2	-0.08373965
14	0xbadbbf14	-0.001676532
15	0xbc32a7ac	-0.010904234
16	0xbc57293a	-0.013132388
17	0x3dbe1e50	0.092831254
18	0xbba1ee19	-0.0049417135
19	0x3d8a8435	0.06763498
20	0xbc8f9288	-0.017525926
21	0xbd4148e8	-0.04718867
22	0xbdeba1af	-0.11505448
23	0x3e59921e	0.21247146
24	0xbed3e393	-0.41384563
25	0x3e25c961	0.16190101
26	0xbdc8935e	-0.09793733
27	0xbe5f8877	-0.21829401
28	0x3c8b06c7	0.016971005
29	0x3db48a18	0.08815402
30	0xbd2f759a	-0.042836763
31	0x3dee1087	0.11624246
32	0xbceebb7c	-0.029142134
33	0xbdbdfcda	-0.09276743
34	0x3df133e3	0.11777475
35	0x3c72da4b	0.014822553
36	0xbe3cba47	-0.18430434
37	0x3cb33e32	0.021880243
38	0x3d279cba	0.04092095
39	0xbd4abaec	-0.04949467
40	0xbdbc81d6	-0.09204452
41	0xbd39368f	-0.045218047
42	0xbc714cd9	-0.014727795
43	0xbc7de274	-0.015495885
44	0x3d584281	0.052797798
45	0x3d3300df	0.043702003
46	0xbe318cbc	-0.17338842
47	0x3d09b776	0.033622228
48	0x3d750552	0.059819527
49	0xbd485da3	-0.048917424
50	0x3caf2f97	0.021384997
51	0x3df5d477	0.12003415
52	0xbd7a8337	-0.061160292
53	0x3ca0434f	0.019563345
54	0xbe4a0841	-0.19729711
55	0x3d4282e2	0.0474881
56	0xbc43d37b	-0.011952276
57	0x3e0c7773	0.13717441
58	0xbe2cea2e	-0.16886207
59	0xbe074e6a	-0.13213506
60	0x3e2c00c7	0.16797172
61	0xbe6cf51d	-0.23140378
62	0xbe117d0d	-0.1420786
63	0x3e89542e	0.26822037
64	0xbf0ef61c	-0.55844283
65	0xbe4a486b	-0.19754188
66	0xbe802969	-0.25031593
67	0xbdce9d07	-0.10088544
68	0xbc971f80	-0.018447638
69	0xbd59cfa9	-0.053176556
70	0x3d09b49f	0.03361952
71	0x3d4d0639	0.050054763
72	0xbc54396f	-0.012953146
73	0x3c4c1798	0.012456797
74	0xbf18a3ef	-0.5962514
75	0x3e231ad2	0.159282
76	0xbd7cb98b	-0.061700385
77	0xbcaecb07	-0.021337045
78	0xbc6dbde8	-0.014510609
79	0x3d33e4bd	0.043919314
80	0xbe3e2f74	-0.1857279
81	0x3d3b33dd	0.045703758
82	0xbedd735c	-0.43252075
83	0x3d87e421	0.06635309
84	0x3d631252	0.055437393
85	0xbe8fe3c6	-0.28103465
86	0x3c77f236	0.015133431
87	0xbe96159a	-0.29313356
88	0x3d97be13	0.07409301
89	0xbdf40249	-0.11914498
90	0xbe43f03d	-0.19134612
91	0x3d870919	0.06593532
92	0xbdbcf062	-0.09225537
93	0x3d288184	0.04113914
94	0xbe628064	-0.2211929
95	0x3d12feb1	0.035887424
96	0xbd199adf	-0.037501212
97	0xbdd7f8f7	-0.10545533
98	0x3d757531	0.059926216
99	0x3deca495	0.11554829
100	0xbd879875	-0.06620876
101	0xbe873271	-0.2640567
102	0x3d2d1b3d	0.042262305
103	0xbcbc43f2	-0.022981618
104	0x3d59d787	0.05318406
105	0xbf01e105	-0.5073398
106	0x3c09e9c7	0.008417553
107	0xbc1de12a	-0.009636203
108	0x3dc1ffbe	0.09472607
109	0xbe061cfb	-0.13096993
110	0xbb75e964	-0.0037523145
111	0xbe7a6c84	-0.24455458
112	0xbde5addf	-0.11214804
113	0x3d62e18a	0.055390872
114	0xbc5db6cd	-0.013532353
115	0xbc7b15a3	-0.015324983
116	0x3d29b9ea	0.041437067
117	0xbc46610b	-0.012108098
118	0x3e552c21	0.20817615
119	0xbca95f83	-0.020675426
120	0x3c48f1ae	0.012264652
121	0x3e266651	0.16249968
122	0x3d3d00b5	0.046143252
123	0x3da447aa	0.08021481
124	0x3c5e994b	0.013586353
125	0xbdea1e26	-0.114315316
126	0x3e9786bf	0.2959499
127	0x3e2bf0e3	0.1679111
128	0x3e109178	0.14117992
129	0xbd7ed654	-0.062216118
130	0xbd328b0f	-0.043589648
131	0xbce2162a	-0.02759846
132	0x3e47804d	0.19482537
133	0x3db74add	0.08949826
134	0xbcec582c	-0.028850637
135	0x3be4383d	0.006964712
136	0x3c682339	0.014168554
137	0x3ca587e0	0.020206392
138	0x3d544097	0.05181941
139	0xbd82048b	-0.06348523
140	0x3b1b2934	0.0023675682
141	0xbd6caba2	-0.05778087
142	0xbdc263b3	-0.09491672
143	0x3d1bf033	0.03807087
144	0xbe3fdd4b	-0.1873676
145	0xbdafcf45	-0.085844554
146	0x3d98448a	0.07434948
147	0xbda315db	-0.07963153
148	0x3c00a6aa	0.007852236
149	0xbd24fe07	-0.04028132
150	0xbd990ae6	-0.07472782
151	0xbd9fb626	-0.07798414
152	0x3d20f8c0	0.039299726
153	0x3d8cb473	0.068703555
154	0xbd49f399	-0.04930458
155	0xbe806689	-0.25078228
156	0xbd8c7f1a	-0.0686018
157	0x3d7b4328	0.061343342
158	0xbdfc1df7	-0.12310403
159	0x3d2f46cb	0.042792123
160	0x3e618e8c	0.22027034
161	0x3c8fdb51	0.017560633
162	0xbcf20b7b	-0.02954649
163	0x3d3745d8	0.044744343
164	0x3da15b4e	0.07878743
165	0xbc3d121e	-0.011539964
166	0xbe1905e8	-0.1494366
167	0x3d7501aa	0.05981604
168	0x3c25345d	0.010083285
169	0xbe156ebf	-0.14593028
170	0x3d63e1d7	0.0556353
171	0xbd188317	-0.037234392
172	0x3d9b48aa	0.07582219
173	0xbe159f55	-0.14611562
174	0xbe4cafdd	-0.19988962
175	0xbd8b8242	-0.06811954
176	0xbe2abcc2	-0.16673568
177	0xbbab64fd	-0.0052305446
178	0xbeb8d33d	-0.36098662
179	0x3db83ae4	0.089956075
180	0xbdf5675f	-0.11982607
181	0xbddf5242	-0.10904361
182	0x3d07f6e7	0.03319445
183	0xbcccf665	-0.025019834
184	0xbd47a218	-0.04873857
185	0x3d10a7b7	0.035316195
186	0x3e12c1d9	0.1433176
187	0xbdf4468d	-0.11927519
188	0xbd38f80d	-0.045158435
189	0x3ab16c90	0.0013536382
190	0xbca891a6	-0.020577263
191	0xbe82087d	-0.253971
192	0xbe292e91	-0.1652167
193	0xbd4709d9	-0.048593376
194	0xbd998558	-0.074961364
195	0xbdb4014d	-0.087893106
196	0xbe063090	-0.13104463
197	0x3d857dd1	0.06518138
198	0x3d049774	0.032371
199	0xbd37067d	-0.044683922
200	0xbd561758	-0.052268356
201	0x3d8e8139	0.06958241
202	0xbd9442f6	-0.07239334
203	0x3dd34343	0.103155635
204	0x3c4484b5	0.01199453
205	0xbd984779	-0.07435507
206	0x3c23b734	0.0099924095
207	0xbd5868a2	-0.05283416
208	0x3e452e7b	0.19256012
209	0x3dc2ce1b	0.09511968
210	0xbe12f553	-0.14351396
211	0x3b8e8283	0.0043490543
212	0xbe88bb68	-0.2670548
213	0xbd4046b5	-0.04694243
214	0x3df00313	0.11719336
215	0xbb8d069b	-0.004303766
216	0x3ce42f5d	0.027854616
217	0x3d54001c	0.051757917
218	0xbd088ea8	-0.033339173
219	0x3daa20eb	0.0830706
220	0x3e246383	0.16053586
221	0x3e01f8f3	0.12692623
222	0xbcd525c5	-0.026018986
223	0x3ddb20d9	0.106996246
224	0x3d71c910	0.05902964
225	0xbc8070d9	-0.01567881
226	0x3c4553d3	0.012043911
227	0x3e1bdefb	0.15221779
228	0xbe04c746	-0.12966642
229	0x3e08cee5	0.13360174
230	0xbd913f61	-0.07092167
231	0x3e07052c	0.13185567
232	0xbc83c480	-0.01608491
233	0xbe368c70	-0.1782701
234	0x3d92532e	0.071447715
235	0xbdc25e54	-0.09490648
236	0x3d82fb23	0.06395557
237	0xbdba797b	-0.09105202
238	0xbd2045e4	-0.039129153
239	0x3a81d2cf	0.0009904745
240	0xbe389886	-0.18026933
241	0xbdf381bc	-0.11889979
242	0xbc1083d6	-0.008820495
243	0x3e2678cd	0.1625702
244	0x3e2ee279	0.1707858
245	0xbc341922	-0.01099232
246	0xbe546064	-0.20739895
247	0x3e683c09	0.22679152
248	0x3d2f4adc	0.042796
249	0x3c852103	0.016251093
250	0x3d38d0a2	0.045120843
251	0xbc15db9e	-0.009146599
252	0xbd9249ae	-0.071429595
253	0x39f18852	0.0004606867
254	0x3d81edda	0.06344195
255	0xbe01e21a	-0.12683907

6.bias f4 [157]
0	0x3e816ab1	0.25276712
1	0xbe27b902	-0.16379169
2	0xbea8e4b8	-0.32987
3	0x3b451322	0.0030071218
4	0x3d967b62	0.07347752
5	0xbe86eaf0	-0.26351118
6	0xbe9870d5	-0.29773584
7	0x3d30c1ad	0.043153454
8	0x3ed1a29d	0.40944377
9	0xbde19243	-0.11014225
10	0xbd6f0be9	-0.058360968
11	0x3e6a5c33	0.22886734
12	0xbd8d72a2	-0.0690663
13	0x3e30798b	0.17233865
14	0x3e23892f	0.159703
15	0x3e0af355	0.13569386
16	0xbd9b32e0	-0.07578063
17	0xbda77c80	-0.08178043
18	0x3e1ea4ca	0.1549255
19	0x3d4bf207	0.049791362
20	0xbe4c15f0	-0.19930243
21	0xbd940f0d	-0.07229433
22	0x3ef10475	0.47073713
23	0xbd599533	-0.053120803
24	0x3e882e51	0.26597837
25	0x3ee53dd2	0.44773728
26	0x3e16caa8	0.14725745
27	0xbea29d80	-0.31760788
28	0x3edda64f	0.43290946
29	0xbd810c37	-0.06301158
30	0xbdeac2ab	-0.11462911
31	0x3d0897dc	0.03334795
32	0xbcfdc1d0	-0.030976206
33	0xbdcdcd10	-0.10048878
34	0x3e5a84d2	0.2133973
35	0x3d5cf841	0.05394769
36	0xbea5206e	-0.32251304
37	0xbebe5f45	-0.3718206
38	0x3dc70174	0.09717074
39	0xbddc5147	-0.1075769
40	0xbe8062ad	-0.25075284
41	0xbdaf69f8	-0.08565134
42	0xbeaa801e	-0.3330087
43	0x3cdc0e0c	0.026862167
44	0x3e055872	0.1302202
45	0xbe6b0d3c	-0.22954267
46	0xbdac9799	-0.084273525
47	0xbe01c2b1	-0.12671925
48	0xbe6a6627	-0.2289053
49	0xba062010	-0.0005116472
50	0xbe07b90f	-0.13254188
51	0xbe3a3538	-0.18184364
52	0x3d9ad741	0.07560588
53	0x3de7fe0f	0.11327755
54	0xb9d24339	-0.00040104406
55	0x3e1da7e0	0.1539607
56	0xbe16a17d	-0.1471004
57	0xbe872e91	-0.26402715
58	0xbd8ce9ea	-0.06880553
59	0x3e30f6cd	0.17281647
60	0xbdd2e44a	-0.10297449
61	0x3db97948	0.09056336
62	0x3d34016a	0.04394666
63	0xbcde8659	-0.027163671
64	0x3e960547	0.293009
65	0x3e4213b2	0.18952826
66	0xbe2ea0de	-0.17053553
67	0x3e803e0e	0.25047344
68	0xbdad19c1	-0.08452178
69	0x3eb3d507	0.35123464
70	0x3e96c6d6	0.29448575
71	0x3e02ebc9	0.12785257
72	0xbec3e4b0	-0.38260412
73	0xbe80b828	-0.251405
74	0x3de18aff	0.110128395
75	0x3e072d15	0.13200791
76	0x3c93c000	0.018035889
77	0xbd5de026	-0.054168843
78	0xbda01ce4	-0.078180104
79	0x3dc57d66	0.096430585
80	0xbe91baad	-0.28462735
81	0x3e8edb04	0.2790147
82	0x3e39d73f	0.18148516
83	0x3db33e59	0.08752126
84	0xbd57129a	-0.052507974
85	0x3e38df5b	0.18053953
86	0x3e765d09	0.24058928
87	0x3d8fcfe7	0.07022076
88	0x3de04b0f	0.10951816
89	0x3e49c06a	0.19702306
90	0x3deba973	0.11506929
91	0xbb619579	-0.0034421368
92	0x3d89449a	0.06702538
93	0xbe8ca702	-0.27471167
94	0xbd9d11d7	-0.07669418
95	0xbe150cc8	-0.14555657
96	0x3e083bd8	0.13304079
97	0xbe090e20	-0.13384295
98	0xbde9e7a7	-0.11421137
99	0xbc57d52d	-0.013173384
100	0x3e8836f4	0.26604426
101	0x3e05b55e	0.13057467
102	0x3e730975	0.23734076
103	0xb8457da0	-4.7085457e-05
104	0xbe87621e	-0.26442045
105	0x3e939556	0.28824872
106	0xbe3c807b	-0.18408386
107	0x3dbd47bf	0.092422
108	0xbdb3f95b	-0.08787795
109	0xbdcd3a31	-0.10020865
110	0x3e25954a	0.1617023
111	0xbe6008a0	-0.2187829
112	0xbd1c36a1	-0.038138036
113	0xbe82375d	-0.25432864
114	0x3dbabc7f	0.09117984
115	0xbe99111d	-0.2989587
116	0xbe15c552	-0.14626053
117	0x3d991876	0.07475369
118	0xbdf94ffa	-0.121734574
119	0x3e00cea4	0.12578827
120	0x3e5736ac	0.2101695
121	0xbe5829da	-0.21109715
122	0xbe252031	-0.16125561
123	0x3ed77467	0.42080995
124	0xbe69469a	-0.22780839
125	0x3d87e7dc	0.066360205
126	0x3ce17b6e	0.027524676
127	0xbe9f6b89	-0.3113673
128	0xbe15ff5a	-0.1464819
129	0xbdd0cab1	-0.1019491
130	0xbe8a228d	-0.26979485
131	0x3d95d0b8	0.073152006
132	0xbdf52360	-0.11969638
133	0x3d8dca58	0.0692336
134	0xbe95bddc	-0.29246414
135	0xbe7441f5	-0.23853286
136	0x3dd6d1be	0.10489224
137	0x3e6283cf	0.22120593
138	0xbe088be4	-0.13334614
139	0xbe84efb1	-0.2596412
140	0x3eb0c2b4	0.34523547
141	0xbe623595	-0.22090752
142	0x3eacc09f	0.33740708
143	0xbda27c81	-0.079339035
144	0x3d5711ce	0.052507214
145	0x3dd87fe5	0.10571269
146	0x3dde66e8	0.108594716
147	0xbd04ec3b	-0.03245185
148	0x3ed0008c	0.40625417
149	0xbe693f69	-0.22778095
150	0xbc9787ae	-0.018497314
151	0x3e5bfe31	0.21483685
152	0xbeb99dd9	-0.3625324
153	0xbdf47f90	-0.11938393
154	0x3e9917b5	0.299009
155	0xbe933acc	-0.28755796
156	0x3dc0fd76	0.09423344
