pav_spkid_pytorch/lpcc_model_hsize_130_lr000125/bestval_e5_weights.ckpt (torch_old, 515082 bytes, 8 tensors)

0.weight f4 [130, 567]
00000000: 9193 13bc 09e3 95bc 5dc2 b93b 8264 d9bc
00000010: 5418 2fbc 8a34 52bd bfb9 3cbb fd4f 16bc
00000020: 6dd1 db3c e6ca 7b3c 1f80 e73c e7fb bf3c
00000030: d189 d23b d05c 003d d2d9 053c 0538 44bc
00000040: 0fe6 b83c 8383 953c a4bb c83c b4a5 8fba
00000050: 7834 133d ab4d ac3c 4698 a43b facf ebbb
00000060: 77e2 23bd 524c dd3c c968 a8bc 3c9f fbbc
00000070: 3f23 f33c f672 64bc 5816 5dbd ad53 913c
00000080: 4603 ccbc 767f 2abd 1adf d3bc c811 e7bc
00000090: 350e 0dbc de5d 4f3c bdc4 3e3d d1bf 9fbb
000000a0: 47fd 57bc d321 5dbc 911d 84bc f0e9 203d
000000b0: 7ed9 fc3c 3a95 a43c a9bd 123d ebaa 853b
000000c0: 04e3 ab3a e017 da3c 465a 23bd a512 ed3c
000000d0: 50b8 ff3c eac2 293d c71b 2a3b a528 a4bc
000000e0: f5ed bfbb 7546 19bc 892d 85ba 66f3 413c
000000f0: b67b b13c bbc0 eb3b 6819 5f3c 5fee 70bc
00000100: 8c06 3f3c dc4c 143d 82af 4c3d f778 91bb
00000110: 9ffa 7d3c d750 493b bb3f db3c d3a9 32bd
00000120: 1b13 28bd bf7e b6bc 6de3 b9bb c180 77bc
00000130: 0c1f b73c 6004 3abd ca56 cf3c 691d 4bbd
00000140: 4129 2d3d 3f73 c83c 83f6 99bc 4106 c53c
00000150: 3e45 0ebd ab5f 94bc d90d 90bb 1ce6 1d3d
00000160: d127 b03a 3d3e 3fbc 7bbe 03bc cc66 c83c
00000170: 5f34 97bc f798 47bc d1d3 de3b 50a5 efbc
00000180: e4d8 ea3b 0542 e0bc 4030 68bc b10b 283d
00000190: 0dbe 9cbc bfe4 25bd d221 883b 544f 9ebc
000001a0: daef c9bc d9c8 83bc 77c5 053d f0b0 873b
000001b0: 9ad3 c13c 15c8 443d fcc8 b43b 3e4e c5bc
000001c0: 6795 99bc bfb3 debc 1d0e 943c 3c6d 173d
000001d0: bf66 abbc be4c c2bc 83d2 183c 9fa4 cebc
000001e0: 7110 fbbc bd5b 14bd 4bb4 433d eb42 72bc
000001f0: 64aa d0bc c13b 77bc 41ec e7bc d98c 953c
00000200: bb68 b7bc 4992 77bc e58d 9f3c 567b 1c3d
00000210: b685 453c 0f4a 113d 71fd 083c 01f4 d6bc
00000220: 6c8f d0bc c4d7 36bc 74e5 f7bc fec7 30bb
00000230: 28bb 01bd 9506 2d3d 96a1 c83c 46ab 273d
00000240: 8863 1d3c f55f 0d3c 0112 c33c 85d9 8ebb
00000250: 9251 5f3c 47b9 88bc 5e57 f0bc f7e0 f7bc
00000260: d3c3 d7bc e7be dc3c f12d c8bc 3d5f 0fbd
00000270: 1739 edbc cd2d 9ebc 9b10 4d3b ed83 c7bc
00000280: ad82 033d b93b 16bd d74f c0b8 3aa1 a6bc
00000290: 0a2a 933b 8d56 c83c 6cdb c8bc d92e 303d
000002a0: 2458 96bc 7183 ddbb b7b9 123d a951 293c
000002b0: c576 dc3c d830 493c 0132 183d eb7a 8c3b
000002c0: 9444 3d3c 48de 0c3d a8f4 8b3c d7d5 d53a
000002d0: 2d7c 2ebd 7f66 193c 264d 153b 942f 1b3c
000002e0: 3e11 f9bc cfde 00bd 6d31 6ebc 3cfa 07bb
000002f0: cc28 18bd c0f2 29bd 0fac 1a3d 87d5 c53c
00000300: c24b 353c cd07 6c3d f06b 8fbc efb8 9a3c
00000310: 1688 d13c 9db0 293d 8d2d c93b 1649 033d
00000320: 4915 60bc 4c7f 603c aadb 543b cc66 1f3a
00000330: a023 3a3d e0af ae3c 7fa8 52bc 6c50 853b
00000340: 7a77 03bd 6655 cbbb 6ad6 d2bc eabe 323d
00000350: ab87 f93c 775f 30bc 6519 8b3c bb7a 053d
00000360: 6b03 edbc d7a9 0abb 698c 2b3d bfa2 00bc
00000370: 0e96 4b3d d743 0dbd 16d7 833c dbc0 293d
00000380: b8c5 023d f16c 193c d39f 5abb 34f7 1dbd
00000390: 5f87 0fbd 5cc2 16bd 3f4d 16bc daf9 b0bc
000003a0: ba0c 49bc 32af 3bbd 62e7 2e3d 84cc 033d
000003b0: 6282 a83c 554e ebbb 42f0 ad3c 2b75 e5bc
000003c0: e176 423c d725 7c3c 90e5 debc 13dd 84bc
000003d0: 1501 80bb 9703 1e3d 4850 c1bc 59d6 bbbc
000003e0: 0703 35bc ecf3 02bd 8d3d fbbb 548a 2b3d
000003f0: b110 e4bc 76ba 2abc e279 ac3c 8148 753c
-0.009007351 -0.018296735 0.005668922 -0.026537184 -0.010686953 -0.051319636 -0.0028797237 -0.009174344
0.02683326 0.015368199 0.028259335 0.023435546 0.0064251204 0.031338513 0.008169608 -0.011976247
0.022570638 0.018251186 0.024503537 -0.0010959418 0.03593871 0.021033129 0.005023035 -0.0071964236
-0.040010896 0.027013931 -0.020557778 -0.030715577 0.029679893 -0.013943424 -0.053976387 0.017740095
-0.024903905 -0.041625462 -0.025863219 -0.028206721 -0.008609344 0.012656657 0.046574343 -0.004875161
-0.013182945 -0.013496834 -0.01612738 0.0392856 0.030865427 0.020090688 0.035825405 0.004079213
0.001311392 0.026622713 -0.039881013 0.028939554 0.031215817 0.04144565 0.0025956498 -0.020038912
-0.005857224 -0.009355177 -0.0010160665 0.011837816 0.021665435 0.007194606 0.013616897 -0.01470527
0.011659276 0.03620611 0.049972065 -0.004439469 0.015501647 0.003071835 0.026763787 -0.04361899
-0.041033845 -0.022277234 -0.005672863 -0.015106381 0.022353671 -0.04541433 0.025309939 -0.049588595
0.04227567 0.024469016 -0.018794304 0.024050834 -0.034734003 -0.018112024 -0.004396182 0.038549528
0.0013439601 -0.011672554 -0.00804102 0.02446308 -0.01845759 -0.012182466 0.006800153 -0.029253632
0.0071669687 -0.02737523 -0.01417166 0.041026775 -0.019133592 -0.040501352 0.0041544223 -0.019324936
-0.024650503 -0.016086983 0.03265902 0.0041409656 0.02366047 0.048042376 0.0055171233 -0.02408516
-0.018747998 -0.027185319 0.018073136 0.03696941 -0.020923017 -0.023718234 0.009327534 -0.025224982
-0.030647488 -0.0362203 0.047779363 -0.014786462 -0.025471874 -0.01508993 -0.028310897 0.018255638
-0.022388807 -0.015110561 0.01947684 0.03820356 0.012055805 0.03547102 0.008361206 -0.026239397
-0.025459014 -0.011159841 -0.030260779 -0.0026974673 -0.031672627 0.042242605 0.024491113 0.040934823
0.00960625 0.008628835 0.023812296 -0.0043594264 0.013630288 -0.01668991 -0.029338535 -0.030258639
-0.026338493 0.026946498 -0.02443597 -0.035002936 -0.028957887 -0.019308949 0.0031290415 -0.0243549
0.032107044 -0.03667805 -9.170145e-05 -0.02034055 0.0044910954 0.024455333 -0.024518691 0.043013427
-0.018352576 -0.006760054 0.035821643 0.010334411 0.026912102 0.012279712 0.037157062 0.004287114
0.011551995 0.03439167 0.017084435 0.001631434 -0.042598892 0.009362816 0.002278158 0.009471793
-0.03040373 -0.031462487 -0.014538151 -0.0020748517 -0.037148282 -0.04149127 0.037761744 0.02414967
0.011065425 0.057624627 -0.017507523 0.018887011 0.025577586 0.041428197 0.0061394633 0.032052122
-0.01367695 0.013702225 0.0032479563 0.00060806866 0.04544413 0.021324098 -0.012857555 0.004068425
-0.032096364 -0.0062052486 -0.025737006 0.0436391 0.0304602 -0.010764948 0.016979882 0.032587748
-0.028932294 -0.0021158361 0.041881952 -0.007851302 0.04970365 -0.034488525 0.016093772 0.041443687
0.03192684 0.009364353 -0.0033359423 -0.03856583 -0.03504121 -0.03680645 -0.00917369 -0.021603514
-0.012271101 -0.045821376 0.042701133 0.032177463 0.020569984 -0.0071809688 0.021232728 -0.028009972
0.011869163 0.015389881 -0.027209073 -0.016218698 -0.003906379 0.038577642 -0.023597851 -0.022929357
-0.011048085 -0.031970903 -0.0076672495 0.041879967 -0.02783999 -0.010420432 0.021054212 0.0149709

0.bias f4 [130]
00000000: d70e afbb 79b0 97bb a53a c93d 7dca 833e
00000010: 3d9a 913e abda f73d 8718 5fbc 67f0 ad3b
00000020: 2894 093c 43c5 803a f013 273c daa2 a63c
00000030: 4c63 be3d d748 d63d 35cf 8cbc 20ef 4cbd
00000040: 8030 4dbb c4e9 fcbb 3f08 ccbe ff8b 1fbe
00000050: 6c60 0abd 48d6 ebbc 2b31 b23c 43ab 2bbe
00000060: 0ffb f33c 3d3f 213e 7d8b 8a3d e5ad db3d
00000070: 3825 b2bc abcc 423e f879 1dbd 6767 bbbd
00000080: d3f8 0cbd 386b 633d 80d1 9abe 7c00 233e
00000090: f60a 4abe 924e 5bbd e13c cfbc 0811 323e
000000a0: d411 89be 2f69 d63c 14a5 74be f365 ee3c
000000b0: 6cfa 283e 7f5f 133e 202f 15bd 5485 fbbb
000000c0: 95b6 13be 13ff 163d 6407 97bd 23c1 85bc
000000d0: 6542 b53a cc6a b5bd 48a9 b0bc 633a 94be
000000e0: f9d6 4c3e 74fa 88bc 37a0 28bd 4a6f 92bd
000000f0: f006 23bb 7464 b9bd d56d 7dbe 552c dd3c
00000100: e178 553e 9739 99bd 4714 29b7 57a9 c83d
00000110: 0088 943b 5d77 c7be 502a cc3b bc4a e5bc
00000120: e62b fd3d 85d9 533a e04d 953c b029 53bd
00000130: 3ae7 2ebe c34b ea3e f7e0 c1be 4239 f6bd
00000140: ecd2 763d 7539 85bc 848a 4ebc 7b1e 05bd
00000150: d7e6 de3c 6e71 6abc 3b96 053d d318 383e
00000160: d87c 3cbc cf41 08bc 1cc7 19bd ba82 4bbd
00000170: be21 1c3c d807 d1bb 0697 94bb cb8e e9bc
00000180: 580b 123c 43a6 393d f091 1fbd a040 a2bc
00000190: 30b8 d23b 56ed fdbd 39bf 00be ccce d63d
000001a0: f8ee b9bc bcc7 73bb 2ee4 c03d f584 88b9
000001b0: 6417 1a3e 4491 95be 82e4 39be 3d03 57be
000001c0: da98 b8be 0fcf 24be db18 a73d 0ddd 63be
000001d0: 1322 213d 8fa6 05bd e7d3 5fbd 080b ecbc
000001e0: e8ae ea3c 7de9 033f 9fe6 ddbb 6da5 eebc
000001f0: 3d23 8dbe 991e a0bc e14d 03bc d662 9cbd
00000200: 1b96 6cbc fa44 c4bd
-0.005342345 -0.0046291915 0.09825639 0.25740424 0.28437987 0.121022545 -0.013616688 0.005308199
0.00839714 0.0009824414 0.010197625 0.020341326 0.09296283 0.10463112 -0.017188648 -0.050032735
-0.0031309426 -0.0077182967 -0.3985004 -0.15580748 -0.03378336 -0.0287887 0.02175196 -0.1676455
0.0297828 0.1574678 0.067648865 0.10726527 -0.021746263 0.19023387 -0.038446397 -0.09150582
-0.034416985 0.055522174 -0.3023796 0.15918154 -0.19730744 -0.053541727 -0.025297584 0.1738931
-0.26771414 0.026173202 -0.23891097 0.029101348 0.16501778 0.14391898 -0.036421895 -0.007675806
-0.14425118 0.03686435 -0.073744565 -0.016327446 0.0013828991 -0.088582605 -0.021565095 -0.28950796
0.2000388 -0.016720988 -0.041168418 -0.07150133 -0.0024875961 -0.09052363 -0.24748929 0.026998678
0.20846893 -0.074816875 -1.0077906e-05 0.09797924 0.004532814 -0.38958254 0.00623063 -0.027989738
0.123618886 0.0008081424 0.01822561 -0.05155343 -0.17080393 0.45760927 -0.37866947 -0.1202264
0.060259745 -0.01626275 -0.012606267 -0.03249977 0.027209682 -0.01430927 0.032613974 0.1797822
-0.011504374 -0.008316471 -0.0375434 -0.049685217 0.009529529 -0.006379109 -0.004534605 -0.028510472
0.008913837 0.045324575 -0.038957536 -0.019806206 0.0064306483 -0.12398784 -0.12572946 0.10488662
-0.022696957 -0.0037197908 0.09418522 -0.00026039002 0.15047985 -0.2921239 -0.18153575 -0.20997329
-0.36054116 -0.16094612 0.08159038 -0.22252293 0.039339136 -0.032629546 -0.054645445 -0.028813854
0.028647855 0.5152815 -0.006771877 -0.029131616 -0.27565947 -0.01954584 -0.008014173 -0.07636039
-0.014440085 -0.09583469

2.weight f4 [130, 130]
00000000: 7505 c13d 204d 403c fc39 1a3e d86e 65be
00000010: 2dfb 593e 24c5 153e 78bc 61bd 5a6f 893d
00000020: a294 cfbd b67c 51bd 1f79 99bd b0ef c2bc
00000030: 58ef 833c 1120 be3d 2d7e 9d3d feb1 2e3d
00000040: 130c 6fbd 43c2 ae3d fb45 e8bc 9dad 60be
00000050: e855 0ebc 404c ca3c a02f 483c 8eff 37ba
00000060: e90d 723d de38 e03d 1cd1 21bd 667c efbd
00000070: 634b f0bb d191 2bbe 0613 8bbc 5832 2dbe
00000080: 431e ebbd 5bbf 8e3d f2f6 d5bd b4d4 3dbe
00000090: 4aac 603e f44d 073e c01b 743b 7d3b 413d
000000a0: 3a0d 673d db07 8abd 600a dfbd 583e 24be
000000b0: 767d 5bbc e57f 243e b086 72bd 3a81 683d
000000c0: 1d8c 90bc 7d89 9fbd 1cd0 023e 1a76 9a3d
000000d0: 022f 603e 04b0 003e aa3c 593c 123b a83d
000000e0: 625b 353c 451b 97bd 3cae e23d 27fd 1cbe
000000f0: 5d7f 8e3d 468e 083e fa40 b83d dc39 3f3e
00000100: 6cb3 043d 3d16 3ebe 9945 773d fe71 2d3e
00000110: 7da9 96bd f6fd 503d 14ee e0bc 7780 a0bd
00000120: 745e b6bd e1fe bb3d 87ad 843d bc37 b9bd
00000130: ff57 31be 66bd dcbd 51e2 193c 0ae6 27bc
00000140: 2204 353e 1bc6 92bd c0b8 8ebd e8bf fbbc
00000150: 377a 2dbb a6a7 3bbd 40a1 c93b 0331 883d
00000160: f0f2 5fbd 5439 7b3d d556 f5bd bfdd 84bd
00000170: 17d9 e93c bd26 973d 2a8b 213d 3a2f a9bc
00000180: a470 9bbc ef62 04be de98 203e 84f2 10bd
00000190: df26 a03d bb4d fdbd 1b78 19be e969 bb3d
000001a0: 252b 31bd 3a3d e6bc 9a7e 26bd 6650 04be
000001b0: bf9f b53e 5e29 e7bd 49be f2bd d459 033d
000001c0: b4b8 2f3d 2794 513e 0cbf ee3d 6994 ffbc
000001d0: f2eb ba39 0087 933c 432a fa3d 1410 423d
000001e0: 00f2 23bb ddf6 01bc f972 b53d 0269 b5bd
000001f0: b3ff 893d 4b32 1abe a9ef 30bd 07b7 fc3c
00000200: ed80 0cbe e6ff 773d 7797 67bd 272c 81bc
00000210: 0117 2b3e 541b c5bd b35d e8bd 2112 e6bd
00000220: a3dd 8f3a e2cc 93bd 2d29 0abc 5f95 0e3d
00000230: f3aa 94bd 1f8b b1bd acfa 393e 4462 03be
00000240: 5b7d 81bc 1fc6 3bbd 663b 2fbd 9178 393d
00000250: eca3 cb3c 6047 c83d ae8d ae3c a337 183d
00000260: 69ee 46bd 407d cdbd 016b 103d 3586 083e
00000270: df07 033d 8b71 cb3c 1fae 41bd ff1f 0dbd
00000280: 5c81 f0bc cdcd f33b 5465 dd3d 21f6 703d
00000290: b8bb 06bb 3379 06bd 86b8 bd3d 9e49 903d
000002a0: 0c06 183d 9e54 143c f43c 373e 398a ac3c
000002b0: 5243 5abd 4d88 d3bd c9ae e33b 4faf 223e
000002c0: a5b0 1c3d d8ea bb3c c2ac 033e ebda 4abd
000002d0: 237d 483b 5f36 483d 8b61 f03d 47e9 a9bd
000002e0: 6069 d9bc d227 b33d 2ca8 233d 551c 27bc
000002f0: 718a ea3d c067 9a3d 1bbc 803d 5023 43bb
00000300: 839c 8ebd 5cad 54be 7274 203d a0b4 b53b
00000310: 376d a43d 36a7 eebd e694 363d cdd6 d43c
00000320: c5cc 9d3d dcb6 d4bc b423 e13c dbd4 7e3d
00000330: 2cd3 48bd 931f d73c f15b 7b3d ec6a 93bc
00000340: ee11 d3bd da58 a93b 446f 2dbd 6c0a e5bc
00000350: 15bd 983c e359 8c3d e531 1c3d a629 49bd
00000360: dc28 01bd 6f99 9ebd 7525 afbd 94a3 873d
00000370: 4952 53bd 8938 123e 1d96 8c3d 3aaa 713d
00000380: c489 c63c a82e 8ebd 9b26 9bbd f9ea 93be
00000390: 6f23 ccbd 5838 833d 6765 9cbd af1a 133e
000003a0: 1ff0 a3bd 7bd7 93bd 4e45 983d 34dd 1dbe
000003b0: 5b22 2fbe a234 943d bb82 0dbe 5647 ccbb
000003c0: 89c2 113d 39f3 1abd fe19 ab3d d478 1dbe
000003d0: 57b2 3b3e 32f5 fb3c dc57 af3c b20d b0bd
000003e0: 7187 76be 672c acbd 209a 04bd fc5c 4e3e
000003f0: 0a33 1c3d dbf1 a83c 55c5 523d 1f1e 07be
0.09424869 0.011737138 0.15061182 -0.22405565 0.21287222 0.14625984 -0.05511138 0.06710692
-0.10135771 -0.051144324 -0.07493805 -0.023795933 0.016105339 0.0928346 0.07690082 0.042650215
-0.058361124 0.08533146 -0.028353682 -0.21941228 -0.008687474 0.024694562 0.012218386 -0.00070189766
0.059095297 0.109483466 -0.039506063 -0.11693649 -0.0073332055 -0.16754843 -0.016976845 -0.16913736
-0.11480381 0.06970092 -0.10447492 -0.18538171 0.21940723 0.1321333 0.0037247986 0.047175873
0.0564091 -0.067397796 -0.10890651 -0.16039407 -0.013396611 0.16064413 -0.05921048 0.056763865
-0.017644936 -0.07789896 0.127747 0.07542057 0.21892932 0.12567145 0.013259092 0.08214392
0.011069151 -0.07378248 0.11068389 -0.15330945 0.06957886 0.13335523 0.08996768 0.18674415
0.032397673 -0.1856317 0.060369108 0.16938016 -0.07356546 0.051023446 -0.027457274 -0.07837003
-0.08904734 0.09179474 0.0647841 -0.090438336 -0.17318724 -0.107783124 0.009392337 -0.010247717
0.17677358 -0.07166692 -0.06968832 -0.030731156 -0.002647055 -0.04581418 0.0061532557 0.06649973
-0.054675043 0.06133397 -0.119794525 -0.06487607 0.0285459 0.073804356 0.039439358 -0.020652402
-0.01897461 -0.12928365 0.15683314 -0.03538753 0.07819914 -0.123683415 -0.14987223 0.0915106
-0.043254036 -0.028105367 -0.04064808 -0.12921295 0.3547344 -0.11287187 -0.118527 0.03206809
0.042900756 0.20466672 0.11657533 -0.031198697 0.00035652478 0.018008709 0.12215092 0.047378615
-0.002501607 -0.007932392 0.0885982 -0.08857919 0.06738224 -0.15058248 -0.043197308 0.030848993
-0.13721056 0.06054678 -0.056540933 -0.015768124 0.16707994 -0.09624353 -0.11345997 -0.112339266
0.0010976087 -0.07216813 -0.008432669 0.03481042 -0.072591685 -0.08669113 0.1816203 -0.12830454
-0.015806844 -0.04584324 -0.042781256 0.045280997 0.024858437 0.09779239 0.021307793 0.037162434
-0.04856721 -0.10033655 0.035258297 0.13332446 0.03198993 0.024834415 -0.047285195 -0.034454342
-0.029358558 0.007440305 0.108103424 0.058828477 -0.0020558666 -0.03283043 0.09263711 0.07045291
0.03711514 0.009053377 0.17894346 0.021062003 -0.053286858 -0.10328732 0.0069483262 0.15887187
0.0382544 0.02293913 0.1285887 -0.049525183 0.0030592165 0.048879977 0.11737355 -0.08296447
-0.026539505 0.087478295 0.039955303 -0.010199626 0.11452187 0.0753932 0.06285878 -0.0029775687
-0.06963446 -0.20769256 0.03917355 0.005545214 0.080286436 -0.11652987 0.044575594 0.025981331
0.07705072 -0.0259661 0.027482845 0.062214714 -0.049029514 0.026260173 0.06136698 -0.01799532
-0.10306154 0.0051680626 -0.04234244 -0.027959071 0.018644849 0.06853082 0.03813352 -0.049111985
-0.031533107 -0.07744109 -0.08552066 0.06622997 -0.051592145 0.14279379 0.06864569 0.05900023
0.024235614 -0.06942493 -0.07575723 -0.28890207 -0.09967696 0.06407231 -0.076365285 0.14365648
-0.08004784 -0.07218834 0.07435094 -0.15416414 -0.1710295 0.072366014 -0.13819401 -0.00623409
0.035585914 -0.03782961 0.08354567 -0.15378124 0.1832975 0.030756567 0.0214042 -0.08596362
-0.24075104 -0.084069066 -0.032373548 0.20152658 0.038134612 0.020623138 0.05145772 -0.13195084

2.bias f4 [130]
00000000: 2bd7 35bd 7336 343c 1f4f f83e d583 bebd
00000010: 3d4d 58be 155b 6ebd 5a48 c3bd fcf2 b3bd
00000020: cda1 c73d c570 17be 286c 87be 3d51 7bbd
00000030: 62f8 56bd 1547 30bd 2cdc 61bb ee8e 323e
00000040: 9b3b 0dbd ef66 dbbd 25be 8fbd 7ce4 e93d
00000050: d302 0bbd fd66 b5bd 4a03 26bd dcf6 bebd
00000060: e1a2 b9bd 40b1 c1be 60ce 96be 3402 42be
00000070: 0578 0e3d 2767 2f3d e029 0a3f fc25 a1bd
00000080: 1129 8abd 4f82 143d 9d60 96bd 1a6c f33d
00000090: b34f e7bd 9c8d 17be dd76 2dbe 35aa 85bd
000000a0: f30c 883d 8141 c53e b129 67be baeb 1bbe
000000b0: b3fc 31bd 2c7c 21b9 8f1b 873e 5d5d 153e
000000c0: c9be ad3d 7bdd d13d 03b5 d4be e522 f13d
000000d0: b177 35bd 02da 52bd 6903 8fbd 84b0 093e
000000e0: f6c5 41bd 4bf1 d53d a988 3f3f 76eb dcbc
000000f0: 6bf6 93bc 909a 6dbc 6d61 b5bc df9c 62bd
00000100: 5802 7bbe 3b14 6c3e 5b34 c1bd 2d5b b9bd
00000110: 92e7 3fbe c35c d03e 4296 35bd c29b 0dbe
00000120: 69fe 423e a758 3fbe 7129 373c 7b1a d8be
00000130: 1554 e2bd d8d2 1bbe b993 103d f7d8 a1b9
00000140: d647 703d 53fc 79bd 7973 5a3e 0093 6e3e
00000150: 0d5f 463e 50a1 ec3e 5a8b 84be adc3 40be
00000160: 963d 613d 0c76 053f 87a8 cfbd d94b bebd
00000170: e991 543f a122 48bd cbb1 a3bd 9bc7 1a3e
00000180: f92f 82be 4ece 563e ef39 1fbe 4a39 72bc
00000190: 2ffa ecbd c7c4 72be dcb6 773e c7bf 1d3e
000001a0: c1c7 9b3e 7a13 92bc c8ce e23c 6dba 12bd
000001b0: 165e 0fbd 9b87 413d 30b6 e7bd ea16 98bd
000001c0: 8df7 9b3c 702b 7dbd e470 14be d2ed 77bd
000001d0: f202 603e 7f7d 9bbd 1ac5 adbd 8575 a8bd
000001e0: 4901 dbbc 31f5 dd3c d4ef 803e 7f00 d5bd
000001f0: f6bb 793e faa8 05be 3b14 7bbe 962a 863d
00000200: a942 75be cd10 8c3d
-0.044394653 0.01099931 0.48497865 -0.09302489 -0.21123214 -0.05819233 -0.09535284 -0.0878658
0.09747658 -0.14789112 -0.26449704 -0.06135677 -0.05248297 -0.04303654 -0.0034463508 0.17437336
-0.034480672 -0.107129924 -0.07018689 0.11420533 -0.03393824 -0.08857534 -0.04053048 -0.093244284
-0.0906427 -0.37830544 -0.29454327 -0.18946153 0.03478243 0.042822983 0.53970146 -0.07868573
-0.06746114 0.036257084 -0.07342646 0.11885853 -0.11294498 -0.14800113 -0.16939874 -0.06526605
0.06643095 0.38526538 -0.22574498 -0.15226641 -0.043453883 -0.00015400414 0.26388213 0.14586397
0.08483655 0.10247322 -0.4154435 0.11774234 -0.0443036 -0.05147744 -0.06983072 0.13446242
-0.04730793 0.104464136 0.748179 -0.026967745 -0.018061837 -0.014502183 -0.022141183 -0.055325385
-0.24512613 0.23054592 -0.09433814 -0.090505935 -0.18740681 0.40695772 -0.04433275 -0.13828948
0.19042362 -0.18686162 0.011179314 -0.42207703 -0.110511936 -0.1521715 0.03529713 -0.00030869964
0.058662258 -0.06103165 0.21333112 0.23298264 0.19372196 0.46216822 -0.25887567 -0.18824644
0.054990374 0.5213325 -0.10139566 -0.092918105 0.8303514 -0.04886115 -0.07992896 0.15115206
-0.25427225 0.20977136 -0.15549444 -0.014784167 -0.11571156 -0.23707877 0.24190849 0.15405189
0.30425838 -0.017831553 0.027686492 -0.03582232 -0.035001837 0.047248464 -0.113140464 -0.074262455
0.01903894 -0.061809003 -0.1449619 -0.060529537 0.21876124 -0.07592296 -0.0848486 -0.0822554
-0.026734011 0.027094455 0.25182974 -0.10400485 0.24388108 -0.1305274 -0.24519436 0.065510914
-0.2395121 0.06839142

4.weight f4 [130, 130]
00000000: 355a 543d 632b 87bc a503 febd 9619 863d
00000010: 37e5 343e 94de d7bc 65e0 13bb 260b 793e
00000020: 7e8d 28be 1a5a db3c f0ef 0ebd 9200 dabc
00000030: 7359 72bc 01da ee3d 6196 24be 5a2d 893d
00000040: ddaa 35be 1ee0 b0bd ac47 33bd af0b bd3d
00000050: 3893 1dbd 4d3e b4bd 214b 07be 7dd2 ee3d
00000060: afd2 e9bd 4bee ae3c 52e8 5ebd a44f 3c3d
00000070: 388d 143e e845 a23e 65d3 12be 93ef fdbd
00000080: 6f38 2cbe 3b3b 05bd 5654 1bbd beb0 883e
00000090: 28b0 aabc 4175 1bbe 5c4b 123e de29 40bd
000000a0: 7844 123e 1032 f83d 5961 043c e697 e1be
000000b0: a995 fe3c fbe7 a83d fdba f9bc bda1 0a3e
000000c0: 788e 58bd c91d ca3d b36c 06bd 3f9f 0abe
000000d0: 38f6 803d b880 0d3d df9e 1bbd 8a4e a13b
000000e0: b84b a23e ba59 61bd 0867 dc3d b5a5 683b
000000f0: f20e e63b 3a18 53bd d21f a5bd 447c 40bd
00000100: d65b 9c3b 3999 a93e def7 ac3d 6d9f b63c
00000110: d0d4 753e c957 58be 0341 e4bc 0c24 20bc
00000120: 7e96 233e a3c1 34bb 84a2 583e 0c46 babb
00000130: 038c 183e 8aed d9bd 51ae 553e 08d8 d43d
00000140: 49b6 69be d8ac c6bd c34d 2c3e e3a6 443e
00000150: 4d40 1e3e ebc0 0fbe e682 723d b24d 6dbe
00000160: 256e fd3d 39c4 973e 7f1e 91be 0cde 3abc
00000170: ae4b 0ebd bbed f43b 49e7 ed3c 9c8b 073e
00000180: 4d05 8c3c 78ed 4b3d 0b7b 2c3e 94d8 c63d
00000190: e40b 65bd 70af d33c 2744 33be 85ab 253e
000001a0: 1aae d63d 335c a7bd c29c f0bd 3c33 f03d
000001b0: 0db0 553e e985 a6bc 87b0 0bbd 8026 913e
000001c0: 6eea 163d 0059 983c 99d5 bf3d d405 883c
000001d0: ba89 0e3d d1a3 ecbd e540 653c 12b1 0e3c
000001e0: 1319 fd3d d878 2e3a 51a7 26be f77c 3bbd
000001f0: 4a12 dbbd 524e 113e 428f 73be 8d19 2a3e
00000200: cb5e 49bd a91c e6be ed06 7d3c 592d df3d
00000210: 5774 373e 930f a9bd 96e3 333e 9ce5 283c
00000220: aba4 7fbd 7b67 333d a3e5 3abe e5d3 433e
00000230: c5bf e43d 8cd5 f8bd 7dad 10bd 4620 c73d
00000240: 94ad f63c 2244 abbd ea9e 473d ef94 40bc
00000250: d5f8 333e e308 08bd 0be4 a73d 2576 15bd
00000260: 18fc 503d 51f7 3a3d 516a 6dbc b496 fb3c
00000270: fd68 d23c 0969 fbbd fd65 37bd 8e92 02bd
00000280: 41fb 003e 441d ccbb 9407 2a3e 6089 cbbd
00000290: a684 563d fe47 a13e 0e50 e4bd 4296 bebd
000002a0: 45ed ddbd 8079 07be f7ea d1bd 324e d1bb
000002b0: 934f 333d 43c4 35bd 80fa 29bd f44c 753d
000002c0: 63ca d5bc a323 30be bb01 aebd 7ffd 68bd
000002d0: 121b 343d 812e a43d be28 fb3d b5e6 afbd
000002e0: 0bbf 483d 30dc 7f3e b317 30bd 7fac af3b
000002f0: a159 a33e e218 0c3d 3700 bbbb 0c0f afbd
00000300: 20b3 943d 2884 aabd 509c 4d3d fbe8 30be
00000310: eaac 4fbc c2a0 ab3d 0738 41be 8a0a 6c3e
00000320: 8526 ec3c abc8 8b3a bea9 e4bd 2b84 9b3d
00000330: f22d 053e 12cd 5cbe 3b8c 46be 778b 77bd
00000340: 0dc1 5a3c 4f77 af3c edb6 cf3c 564e cebd
00000350: 55cb 34be b613 9b3d c296 1ebc b3d4 8d3e
00000360: dd83 223c bf31 68ba c744 28be 6875 403e
00000370: 618b f23d eec3 9f3d 45f7 cdbe 8d07 c03d
00000380: deed 8d3e c98e 443e 01fb 123d c23b 36be
00000390: c78c f3bd fb29 b8bd 7210 0fbd e10f 80bc
000003a0: 3e15 f03d e31c eebd a599 b23c 7fd7 dc3d
000003b0: 0123 213e 9df9 8b3d 93ec a13d 904f 98bd
000003c0: 7beb 913d cc96 44bc b762 04bd c304 c73d
000003d0: f957 c6bc 4766 f5bd 739d e4bd 5046 07be
000003e0: d63d 503d 7796 813d 2e22 dfbc 90d0 bd3b
000003f0: b410 4a3b 87ca e4bb 2075 3d3e f567 2f3e
0.05184384 -0.01650018 -0.12403039 0.06547849 0.17665564 -0.02635125 -0.002256417 0.24320659
-0.16460225 0.026776362 -0.03489679 -0.0266116 -0.014791834 0.11662675 -0.1607299 0.06698103
-0.1774096 -0.08636497 -0.043769524 0.09230744 -0.038470477 -0.088009454 -0.13212253 0.11661241
-0.11417138 0.021353861 -0.054420777 0.04597439 0.14506996 0.3169396 -0.14338453 -0.12399211
-0.16818403 -0.03252719 -0.037922226 0.26697344 -0.020835951 -0.15181448 0.1428656 -0.046914928
0.14283931 0.12118924 0.00807985 -0.44061202 0.031077223 0.08247372 -0.03048467 0.13538261
-0.052870244 0.09868962 -0.032818507 -0.1353731 0.062969625 0.034546584 -0.03799331 0.0049226927
0.31698394 -0.05501721 0.10761839 0.003549916 0.0070208246 -0.051536776 -0.0806271 -0.04699351
0.00477169 0.33124712 0.084457144 0.022292817 0.24006963 -0.21127237 -0.027863031 -0.009774219
0.15975377 -0.0027581237 0.21155745 -0.00568462 0.1489716 -0.1064101 0.20867278 0.10392767
-0.22823443 -0.09700936 0.16826539 0.19204287 0.15454216 -0.14038436 0.059206866 -0.2317417
0.12374524 0.29641894 -0.2834358 -0.011405479 -0.034740143 0.0074746287 0.02904095 0.1323685
0.017092371 0.049787015 0.16843812 0.09709278 -0.055919543 0.025840491 -0.17506467 0.16178711
0.10482426 -0.081718825 -0.11748649 0.11728522 0.2086794 -0.020327525 -0.034103896 0.28349686
0.036844663 0.018597126 0.093669124 0.016604342 0.034799315 -0.11554683 0.013992523 0.008709209
0.12358298 0.00066555804 -0.16274764 -0.045773473 -0.10696848 0.14190033 -0.23785117 0.1661131
-0.049162667 -0.4494374 0.015443546 0.10897321 0.17915474 -0.08254924 0.17567286 0.010308649
-0.0624129 0.04379986 -0.18251662 0.191238 0.1116939 -0.12150106 -0.0353217 0.097229525
0.030112065 -0.08362605 0.048735537 -0.011754259 0.1757539 -0.0332116 0.081977926 -0.036489625
0.051021665 0.045646016 -0.01449068 0.03071151 0.025684828 -0.12275893 -0.044774998 -0.031878047
0.12595846 -0.0062290747 0.16604453 -0.099383116 0.052372597 0.31500238 -0.11148082 -0.09306003
-0.10836271 -0.13229942 -0.10249894 -0.0063874954 0.04377706 -0.044376623 -0.04149866 0.05988784
-0.026097482 -0.17201094 -0.08496424 -0.056882378 0.04397113 0.080166824 0.1226363 -0.08588926
0.049010318 0.24986339 -0.04299135 0.0053611393 0.3190432 0.034203418 -0.0057068127 -0.08547792
0.07260728 -0.08325988 0.0501979 -0.17276375 -0.012675503 0.083802715 -0.18869029 0.23050895
0.028826961 0.0010664662 -0.11165188 0.075935684 0.13005808 -0.21562603 -0.19389431 -0.06043574
0.013351691 0.021419195 0.02535578 -0.10073535 -0.1765569 0.07572119 -0.009679498 0.2770134
0.009919134 -0.00088575104 -0.16432486 0.18794787 0.11842991 0.078010425 -0.40227714 0.0937644
0.2772054 0.19195093 0.035883907 -0.17796233 -0.118920855 -0.08992382 -0.034927793 -0.015632572
0.117228016 -0.116266035 0.021801779 0.1078329 0.15736009 0.06834719 0.07906451 -0.0743705
0.071249925 -0.011998843 -0.032320704 0.09717705 -0.02421187 -0.119823985 -0.111628436 -0.13210416
0.05084022 0.06327527 -0.027237978 0.005792685 0.003083271 -0.006982151 0.18501711 0.171295

4.bias f4 [130]
00000000: 0710 a93d 78d2 fc3d 7130 b1bd 381f 503e
00000010: 37db 02bd 3fde 1ebd a0bf 343d 636f 4d3e
00000020: 3dd4 9bbc f5cb babe 66fb d1bc a104 71bd
00000030: 36a8 af3d 4956 833e 59d4 b63d e10a 21be
00000040: e8d9 f7bd bf10 8a3d 8c7d 19be 50e2 c8bc
00000050: 9555 a53e 692b babb 1168 febd 16d5 163e
00000060: c7e3 44be f499 c9bc e8a9 d33a cd67 243e
00000070: 4aaa ea3d eac7 21be 5dc1 40be e6a4 a33d
00000080: b86f a5bd 17ae 4abe 9584 bf3e 4143 afbc
00000090: 9f17 603d 51f3 55be 5647 94bd 66e9 0dbe
000000a0: e9db 4e3b 62e9 35bd f6ca 2bbe 66e5 03be
000000b0: 1a19 ef3d a3cf 783d c418 4cbe 83f5 943b
000000c0: 8afd be3e f8f3 f6be db01 58bc e368 033e
000000d0: 10e9 74bc 183f f6bc 3bcd 523e 55ff 1b3e
000000e0: 5668 583e a3ca 893d a0c0 35be 0b19 2bbe
000000f0: 2c6e 1bbc 3036 c8bc b91f 0ebe 4e3c 493c
00000100: 43f3 da3d 7e73 c73d 89d7 90bc 4905 0f3e
00000110: 7001 163e 4430 88bd 498e 13bd e3a3 a43e
00000120: 9b76 6d3c 95ce a9be d9c3 b43e a7cc e93d
00000130: 8aaf 9b3e 59d1 2abd 144d dbbe effb 83bc
00000140: 3d1e f63b 1562 e7bd e0d3 203e 23be ca3d
00000150: 97b2 d1be a03c 71bc 702c 243d 32de e1bd
00000160: 62cb 80bd 5331 ba3d 5076 cc3d 1e27 e3bd
00000170: 119f 81bc b4f6 58be e794 4abd 0837 d73d
00000180: ca5e ac3c d8e5 77be cc07 013e 9620 793e
00000190: 8908 4fbc 2b07 54be ddbd 463e 42b6 f73d
000001a0: 452b 6d3e 6058 0ebd 68b4 b33d b87f 0a3e
000001b0: f395 98bd 4c85 5cbe 91af 8a3e 1416 593e
000001c0: 98bf 49bd 9fdd cdbd 2d7a d6bd 9982 0c3e
000001d0: 6611 1e3e fc1d 7abe 418a 303e cfcc f9bd
000001e0: 315a 8f3d 2ae1 ef3d 1546 56bd f51b 5a3c
000001f0: ee7d 983d 0554 24be 09c0 7abd 7ddf 21be
00000200: 8028 5dbe 7ac1 6b3c
0.0825501 0.12344831 -0.086518176 0.20324409 -0.03194734 -0.03878617 0.04412806 0.20062022
-0.019022102 -0.36483732 -0.025632571 -0.058842305 0.085770056 0.25651768 0.08927221 -0.15726806
-0.12102109 0.06741475 -0.14989299 -0.024521977 0.32291856 -0.0056814444 -0.12422193 0.14729723
-0.19227515 -0.024609543 0.0016148658 0.16055222 0.11458261 -0.15798917 -0.18823762 0.07990436
-0.08077949 -0.19792973 0.3740584 -0.021394374 0.054710027 -0.20893599 -0.07240169 -0.13858566
0.0031564182 -0.044412024 -0.16776642 -0.12880477 0.116747096 0.060744893 -0.19931322 0.004545869
0.3730281 -0.48233008 -0.013184036 0.1283298 -0.014948145 -0.030059382 0.20586102 0.1523412
0.21133551 0.06728103 -0.17749262 -0.16708772 -0.009486716 -0.024439901 -0.13879289 0.012282444
0.1069093 0.09738825 -0.0176809 0.1396686 0.14648986 -0.06649831 -0.036024366 0.32156286
0.01449361 -0.33165422 0.3530567 0.114159875 0.30407363 -0.041703556 -0.42832243 -0.016111342
0.007510929 -0.112980045 0.15705824 0.09899547 -0.40956566 -0.014723927 0.04008144 -0.110287085
-0.06288792 0.09091439 0.09983504 -0.110914454 -0.01582292 -0.2118786 -0.04945841 0.10508543
0.021041293 -0.24208772 0.1260063 0.24328837 -0.012636312 -0.2070586 0.19408365 0.1209531
0.23161037 -0.03475225 0.08774644 0.13525283 -0.074504755 -0.21535224 0.27087072 0.21199828
-0.049254984 -0.100520365 -0.10472522 0.13721694 0.15436324 -0.244255 0.1724024 -0.12197267
0.069996245 0.117128685 -0.05231293 0.01331233 0.07445894 -0.16047676 -0.061218295 -0.1580791
-0.21597481 0.01438939

6.weight f4 [157, 130]
00000000: 31aa 5e3d fc5b bfbd 56ac 8b3c b01e 173e
00000010: 7d45 9fbc 49a5 223d 7e76 273d fb44 59bd
00000020: 7431 533d 80e3 c3bd da99 97bc a704 1dbd
00000030: 23f6 173e 64bb 84bd d26f 06bc 1a55 973c
00000040: 0768 213c 501e be3d e590 59ba 3584 8a3d
00000050: b2fe 8bbc e848 41bd b888 f7bd 5a61 533e
00000060: c06b e2be 7420 113e 5889 bcbd e6a8 51be
00000070: 993c ab3c a0fa b13d f371 59bd e0f6 053e
00000080: 7cbb eebc 7ddc edbd 0fc0 de3d 4bda 723c
00000090: c80e 2cbe 2ae8 e6ba ba9c 273d 0857 93bd
000000a0: d681 bcbd 8f36 39bd d1eb a5bc 8a65 dfbb
000000b0: ac85 433d bcb9 c33c 10d6 3abe 76b7 093d
000000c0: 49a6 643d 6eec 88bd c84d 813c 98b5 de3d
000000d0: 3783 7abd dcad 2a3d 7ea5 42be 0cdd 773d
000000e0: b8fb 18bc 9ef5 0c3e 2062 42be 8bf6 09be
000000f0: 114a 383e 26db 5abe 0d7d 11be 1f58 853e
00000100: c9c5 05bf c9f6 39be 71d2 54be 214e e8bd
00000110: 9960 40bc a300 4ebd 9fb4 093d 8083 903d
00000120: 4e94 89bd 6986 683b 733a 0ebf 542c 253e
00000130: 3c76 8fbd 07cb aebc c28b c3bc 6d39 043d
00000140: 2597 37be 11fa 6c3d 5fc5 cfbe ca41 883d
00000150: 563d ab3d b62a 71be 36f2 773c 0852 8fbe
00000160: 13be 973d 86dc f3bd 272c 37be 14e5 8b3d
00000170: 62f0 bcbd 13d7 153d 163a 57be c8a2 693d
00000180: df9a 19bd 2880 c9bd c48a 4c3d 3e0b bd3d
00000190: 7598 87bd 2e51 6abe 81e2 423d 5c20 fd3b
000001a0: 89d3 353d 3096 03bf 3e9d 2c3d 2bef 0fbc
000001b0: 8863 d03d 71b8 01be af76 7a3c d21d 71be
000001c0: dfad e5bd b08a 963d cfd1 04bc 9d40 06bc
000001d0: 3cda 7b3d ad79 813b 63e8 4a3e bba6 84bc
000001e0: 09cb 003d a2df e43d b500 3d3d 1ddc a03d
000001f0: 4b99 5e3c 4fa3 e9bd a570 8a3e 9ccd 193e
00000200: 8c60 053e 12d7 8fbd 6824 d1bc a393 09bd
00000210: 7e68 503e 058e ad3d 7c8d eabc 3d38 e43b
00000220: 3923 683c 93a8 9a3c 9740 543d ea44 8ebd
00000230: b566 a0bc ad11 5dbd 87d1 a0bd c0f7 123d
00000240: 03ea 47be e681 bcbd 86c9 a13d db15 a3bd
00000250: 4e72 1fbc 07fe 24bd 53ee 9fbd 26b6 9fbd
00000260: be8a bd3c f003 993d 0b22 65bd 56b5 6bbe
00000270: 5e5c 6dbd 160b 7b3d 7233 f0bd a698 2f3d
00000280: 0f51 5a3e cd86 103b 7b0b f2bc 2848 6a3d
00000290: 2d61 953d 1e12 3dbc 8b12 14be f5f8 5b3d
000002a0: 5d34 253c c4ae fcbd d7e1 633d 1783 18bd
000002b0: 5b97 873d d15d f8bd b45a 44be 846f 8fbd
000002c0: a314 27be fd64 abbb 4405 aabe 13ae bc3d
000002d0: ee21 00be 8c20 b2bd e7f6 073d 4247 bbbc
000002e0: 9e14 5dbd a860 f13c 09e4 0a3e fdf1 ffbd
000002f0: 144a 90bc b255 3ebc f918 dcbc 3b48 85be
00000300: 912e 29be bda4 76bd 8739 93bd 1f53 a3bd
00000310: ea73 05be 2af7 3a3d f483 103d 21f2 34bd
00000320: 5817 56bd 4350 533d 7da7 90bd a7af d73d
00000330: 3896 f93c b514 d0bd b659 8d3c a268 58bd
00000340: aa52 2d3e 4f24 b43d 6939 f2bd 9472 ecba
00000350: 5bc5 8dbe 34b0 5dbd 7f3c de3d 0182 5abc
00000360: 5d2f e43c 4de3 893d a88e 08bd 9a5c a73d
00000370: a087 1e3e baf5 e43d c525 d5bc 3b03 9e3d
00000380: fdda 923d 3414 b8bc d353 453c 4438 0c3e
00000390: 2067 dabd ac45 113e 613f 91bd aa0e ea3d
000003a0: 80ec 2ebc 9c2d 1bbe 3c14 773d 3769 cabd
000003b0: 5a97 7b3d 458e dabd 7aba b9bc 7a58 283c
000003c0: cf0b 30be e941 cabd d683 10bc 6b0b 103e
000003d0: 4118 373e 45d5 1dbc 39be 4bbe b4e2 5f3e
000003e0: 0b2f 773d 9893 793c 5388 2c3d 177b 32bc
000003f0: ae49 92bd 5ebf adbb daed 813d 2e7d 07be
0.054361526 -0.093437165 0.01704995 0.147578 -0.019442314 0.03970841 0.040884487 -0.0530443
0.051560834 -0.095648766 -0.01850598 -0.038334515 0.14839987 -0.064810544 -0.008205371 0.018473197
0.009851462 0.092831254 -0.0008299484 0.06763498 -0.017089222 -0.04718867 -0.12086624 0.20642605
-0.44222832 0.14172536 -0.09205884 -0.20474586 0.020902919 0.08690381 -0.053087186 0.13082457
-0.029142134 -0.116143204 0.10876476 0.014822553 -0.16802514 -0.0017616798 0.04092095 -0.07194334
-0.09204452 -0.045218047 -0.020254048 -0.0068175243 0.0477349 0.023892276 -0.18245721 0.033622228
0.055822644 -0.066857204 0.01578416 0.1087448 -0.061160292 0.04166971 -0.19008443 0.06051354
-0.009337358 0.1376557 -0.18982744 -0.13472955 0.17997004 -0.21372661 -0.1420786 0.26043794
-0.5225492 -0.18160547 -0.20783402 -0.11343027 -0.011741781 -0.050293576 0.03361952 0.07056332
-0.0671774 0.0035480505 -0.55557936 0.16130191 -0.07004973 -0.021337045 -0.023870353 0.032281328
-0.17928751 0.05785567 -0.4058027 0.06653173 0.08361308 -0.23551449 0.015133431 -0.27992272
0.07409301 -0.11907296 -0.17887937 0.068308026 -0.09225537 0.036582064 -0.21018252 0.057040006
-0.037501212 -0.09838897 0.049937025 0.0923066 -0.06620876 -0.2288253 0.047579292 0.007724805
0.04439119 -0.5140104 0.042142145 -0.008785049 0.10175234 -0.12668015 0.015287085 -0.23546532
-0.11214804 0.07350671 -0.008106663 -0.008194116 0.06148742 0.0039512725 0.19815211 -0.016192785
0.03144363 0.11175467 0.046143252 0.07854483 0.013586353 -0.11408102 0.27039066 0.1501984
0.13025111 -0.07023443 -0.025530055 -0.033588063 0.2035236 0.08474354 -0.028631918 0.006964712
0.014168554 0.01887921 0.05181941 -0.06946738 -0.019580225 -0.053971935 -0.07852464 0.035880804
-0.19522862 -0.09204464 0.07899766 -0.07963153 -0.009731842 -0.04028132 -0.078091286 -0.07798414
0.023137446 0.07471454 -0.05594067 -0.23018393 -0.057949416 0.06128987 -0.117285624 0.042870186
0.21319984 0.0022053004 -0.02954649 0.05719772 0.072939254 -0.011539964 -0.14460199 0.05370422
0.010083285 -0.123380214 0.0556353 -0.037234392 0.06620666 -0.12127269 -0.19175225 -0.07003692
-0.16316466 -0.0052305446 -0.33207142 0.092128895 -0.12512943 -0.08697614 0.03319445 -0.022861127
-0.05397474 0.029465035 0.13563551 -0.124973275 -0.017613448 -0.011617111 -0.026867377 -0.2603167
-0.1652167 -0.0602157 -0.07188707 -0.079748385 -0.13032499 0.04564587 0.03528209 -0.044176225
-0.052268356 0.051590215 -0.07063196 0.1053155 0.030467138 -0.101601996 0.017254692 -0.05283416
0.16926065 0.08795988 -0.11827356 -0.0018039518 -0.27689633 -0.05412312 0.108513825 -0.013336659
0.027854616 0.06732807 -0.033339173 0.08171959 0.15481424 0.11179681 -0.026018986 0.0771546
0.07170675 -0.022470571 0.012043911 0.13693339 -0.10664201 0.14186734 -0.07092167 0.11428578
-0.010676503 -0.15154117 0.06032203 -0.098833494 0.061423637 -0.10671667 -0.022671927 0.010275001
-0.17192005 -0.098758526 -0.008820495 0.14066856 0.17880346 -0.009633367 -0.19896783 0.21863824
0.060347598 0.015232943 0.042122196 -0.010893605 -0.071429595 -0.0053023538 0.06344195 -0.13231346

6.bias f4 [157]
00000000: 61d5 703e be02 0bbe 1e72 94be 3d62 c4bb
00000010: f817 373d c046 76be 7a93 93be 6378 1f3d
00000020: a408 c53e 8a19 c3bd 2df7 4dbd 271e 513e
00000030: 5dd3 a6bd fc9a 1e3e 4ac2 1b3e 3af6 0d3e
00000040: 58d6 96bd 2304 87bd 3a18 0a3e 744a 0b3d
00000050: 5587 1cbe 6b0f 96bd f579 d53e f6c6 14bd
00000060: 4020 6e3e 2909 ca3e 7531 043e a886 92be
00000070: ffdb c93e 9cd2 4ebd faa8 d4bd 022c c13c
00000080: 95a8 23bd c953 c8bd 7c2d 3e3e 2ada 523d
00000090: a550 97be 7114 b4be 4ed4 873d dac7 abbd
000000a0: 8676 59be 06b5 c9bd bce8 9abe a0b8 8e3c
000000b0: 5e2c f23d b932 54be 7287 97bd bc6c d1bd
000000c0: ff1c 51be ca69 17bc 9c69 e7bd e684 21be
000000d0: da5f 943d 2638 d33d 8247 023c 614b 1e3e
000000e0: 37ed 1bbe 616d 78be 531a 63bd 3dff 183e
000000f0: 1bff e2bd 2d91 a23d b3c8 343d 1efc 06bd
00000100: d185 8c3e 8637 403e 105b 1abe d866 733e
00000110: 921b 98bd 05e9 9f3e f9c6 8b3e 6a0b 103e
00000120: ec41 acbe 311f 73be 4794 dd3d 6570 f43d
00000130: a027 ecbb 6f5b 94bd 7e91 95bd 505b a93d
00000140: 0411 74be 21ab 7e3e add8 2b3e f190 a23d
00000150: e369 22bd 2e6e 283e 47d3 693e ef69 693d
00000160: a836 c73d b419 383e d076 e33d 6652 c2bb
00000170: ed08 3a3d aaa8 73be 1ff4 65bd 8d6f 11be
00000180: 41cd ff3d 9292 08be 9fa0 d0bd 9d8e 21bc
00000190: a7fa 5b3e f044 f63d 3c31 773e 22bc 573c
000001a0: 641d 80be 32e6 813e 0a48 2ebe b87a 9e3d
000001b0: abf6 a0bd 9bde cfbd ec3a 233e bd68 3bbe
000001c0: d016 10bd 025e 78be 8741 cb3d fe2d 8abe
000001d0: 4b36 fcbd 709a 563d 8e99 debd 1436 f83d
000001e0: ed94 4d3e 3264 3abe d13f 0abe b758 bf3e
000001f0: 2bc4 50be 9376 9a3d 7895 f23c 57b2 91be
00000200: 34ca 0abe c371 aabd 0d82 76be 4c7c 5c3d
00000210: 0b12 dfbd 9b13 5e3d cf59 8abe 4b81 68be
00000220: 30e8 d43d db0d 4e3e 43a9 debd 032e 48be
00000230: 53d0 9f3e 45f0 40be bcb3 8c3e b932 b4bd
00000240: f0ae cd3c 9919 e33d 268e d03d 5530 f2bc
00000250: 9d2f ba3e 021b 4fbe 9b26 85bc 1416 343e
00000260: eabe a8be 40cd d4bd bd21 823e 5851 81be
00000270: aedb dc3d
0.23518898 -0.13575265 -0.28993315 -0.005993156 0.044700593 -0.24050426 -0.28823453 0.03893317
0.38483155 -0.095263556 -0.050284553 0.20421658 -0.08145783 0.1548881 0.15210834 0.13863459
-0.073651016 -0.06592586 0.13485804 0.03400655 -0.15286 -0.073271595 0.41694608 -0.036322556
0.2325449 0.39460114 0.12909491 -0.2861836 0.39425656 -0.05049382 -0.10383792 0.023580555
-0.039955694 -0.09781606 0.18572038 0.05147759 -0.29553714 -0.35171846 0.06632291 -0.08387728
-0.2123662 -0.098489806 -0.30255687 0.01742202 0.118248686 -0.20722474 -0.07398881 -0.102258176
-0.20421217 -0.009241531 -0.1129944 -0.15773353 0.07244845 0.10313444 0.007951619 0.15458442
-0.15227209 -0.24260475 -0.055445027 0.14941116 -0.11083814 0.07937846 0.044136714 -0.03295528
0.27445844 0.1877118 -0.150738 0.237697 -0.074271336 0.31232467 0.27300242 0.14066854
-0.33644044 -0.23742367 0.10819297 0.119355 -0.007206872 -0.07244002 -0.07303141 0.082693696
-0.23834616 0.24869968 0.16781874 0.07937802 -0.039651763 0.1644828 0.22834502 0.05698579
0.09727222 0.17978555 0.11106646 -0.005930233 0.04541867 -0.23794809 -0.056141015 -0.1420271
0.12490321 -0.13337162 -0.10186886 -0.009860662 0.21482335 0.120248675 0.24139875 0.013167413
-0.25022423 0.25370938 -0.17019668 0.077382505 -0.07859548 -0.101498805 0.15940446 -0.18301673
-0.035178006 -0.24254611 0.09924608 -0.26988214 -0.12315043 0.052393377 -0.10869132 0.121196896
0.20076342 -0.18202284 -0.13500907 0.37372372 -0.20387332 0.075421475 0.029612288 -0.28456375
-0.13553697 -0.083224796 -0.24073048 0.053829476 -0.10892113 0.054217916 -0.27021644 -0.22705571
0.10395849 0.20122473 -0.10872128 -0.19548802 0.31213626 -0.18841656 0.27480876 -0.08798737
0.02510783 0.11088867 0.10183363 -0.029564062 0.3636445 -0.20225146 -0.01625376 0.17586547
-0.32958156 -0.10390711 0.25416365 -0.25257373 0.10784088
