pav_spkid_pytorch/lpcc_model_hsize_130_lr000125/e15_weights.ckpt (torch_old, 515082 bytes, 8 tensors)

0.weight f4 [130, 567]
-0.009007351 -0.018296735 0.005668922 -0.026537184 -0.010686953 -0.051319636 -0.0028797237 -0.009174344
0.02683326 0.015368199 0.028259335 0.023435546 0.0064251204 0.031338513 0.008169608 -0.011976247
0.022570638 0.018251186 0.024503537 -0.0010959418 0.03593871 0.021033129 0.005023035 -0.0071964236
-0.040010896 0.027013931 -0.020557778 -0.030715577 0.029679893 -0.013943424 -0.053976387 0.017740095
-0.024903905 -0.041625462 -0.025863219 -0.028206721 -0.008609344 0.012656657 0.046574343 -0.004875161
-0.013182945 -0.013496834 -0.01612738 0.0392856 0.030865427 0.020090688 0.035825405 0.004079213
0.001311392 0.026622713 -0.039881013 0.028939554 0.031215817 0.04144565 0.0025956498 -0.020038912
-0.005857224 -0.009355177 -0.0010160665 0.011837816 0.021665435 0.007194606 0.013616897 -0.01470527
0.011659276 0.03620611 0.049972065 -0.004439469 0.015501647 0.003071835 0.026763787 -0.04361899
-0.041033845 -0.022277234 -0.005672863 -0.015106381 0.022353671 -0.04541433 0.025309939 -0.049588595
0.04227567 0.024469016 -0.018794304 0.024050834 -0.034734003 -0.018112024 -0.004396182 0.038549528
0.0013439601 -0.011672554 -0.00804102 0.02446308 -0.01845759 -0.012182466 0.006800153 -0.029253632
0.0071669687 -0.02737523 -0.01417166 0.041026775 -0.019133592 -0.040501352 0.0041544223 -0.019324936
-0.024650503 -0.016086983 0.03265902 0.0041409656 0.02366047 0.048042376 0.0055171233 -0.02408516
-0.018747998 -0.027185319 0.018073136 0.03696941 -0.020923017 -0.023718234 0.009327534 -0.025224982
-0.030647488 -0.0362203 0.047779363 -0.014786462 -0.025471874 -0.01508993 -0.028310897 0.018255638
-0.022388807 -0.015110561 0.01947684 0.03820356 0.012055805 0.03547102 0.008361206 -0.026239397
-0.025459014 -0.011159841 -0.030260779 -0.0026974673 -0.031672627 0.042242605 0.024491113 0.040934823
0.00960625 0.008628835 0.023812296 -0.0043594264 0.013630288 -0.01668991 -0.029338535 -0.030258639
-0.026338493 0.026946498 -0.02443597 -0.035002936 -0.028957887 -0.019308949 0.0031290415 -0.0243549
0.032107044 -0.03667805 -9.170145e-05 -0.02034055 0.0044910954 0.024455333 -0.024518691 0.043013427
-0.018352576 -0.006760054 0.035821643 0.010334411 0.026912102 0.012279712 0.037157062 0.004287114
0.011551995 0.03439167 0.017084435 0.001631434 -0.042598892 0.009362816 0.002278158 0.009471793
-0.03040373 -0.031462487 -0.014538151 -0.0020748517 -0.037148282 -0.04149127 0.037761744 0.02414967
0.011065425 0.057624627 -0.017507523 0.018887011 0.025577586 0.041428197 0.0061394633 0.032052122
-0.01367695 0.013702225 0.0032479563 0.00060806866 0.04544413 0.021324098 -0.012857555 0.004068425
-0.032096364 -0.0062052486 -0.025737006 0.0436391 0.0304602 -0.010764948 0.016979882 0.032587748
-0.028932294 -0.0021158361 0.041881952 -0.007851302 0.04970365 -0.034488525 0.016093772 0.041443687
0.03192684 0.009364353 -0.0033359423 -0.03856583 -0.03504121 -0.03680645 -0.00917369 -0.021603514
-0.012271101 -0.045821376 0.042701133 0.032177463 0.020569984 -0.0071809688 0.021232728 -0.028009972
0.011869163 0.015389881 -0.027209073 -0.016218698 -0.003906379 0.038577642 -0.023597851 -0.022929357
-0.011048085 -0.031970903 -0.0076672495 0.041879967 -0.02783999 -0.010420432 0.021054212 0.0149709
00000000: 9193 13bc 09e3 95bc 5dc2 b93b 8264 d9bc
00000010: 5418 2fbc 8a34 52bd bfb9 3cbb fd4f 16bc
00000020: 6dd1 db3c e6ca 7b3c 1f80 e73c e7fb bf3c
00000030: d189 d23b d05c 003d d2d9 053c 0538 44bc
00000040: 0fe6 b83c 8383 953c a4bb c83c b4a5 8fba
00000050: 7834 133d ab4d ac3c 4698 a43b facf ebbb
00000060: 77e2 23bd 524c dd3c c968 a8bc 3c9f fbbc
00000070: 3f23 f33c f672 64bc 5816 5dbd ad53 913c
00000080: 4603 ccbc 767f 2abd 1adf d3bc c811 e7bc
00000090: 350e 0dbc de5d 4f3c bdc4 3e3d d1bf 9fbb
000000a0: 47fd 57bc d321 5dbc 911d 84bc f0e9 203d
000000b0: 7ed9 fc3c 3a95 a43c a9bd 123d ebaa 853b
000000c0: 04e3 ab3a e017 da3c 465a 23bd a512 ed3c
000000d0: 50b8 ff3c eac2 293d c71b 2a3b a528 a4bc
000000e0: f5ed bfbb 7546 19bc 892d 85ba 66f3 413c
000000f0: b67b b13c bbc0 eb3b 6819 5f3c 5fee 70bc
00000100: 8c06 3f3c dc4c 143d 82af 4c3d f778 91bb
00000110: 9ffa 7d3c d750 493b bb3f db3c d3a9 32bd
00000120: 1b13 28bd bf7e b6bc 6de3 b9bb c180 77bc
00000130: 0c1f b73c 6004 3abd ca56 cf3c 691d 4bbd
00000140: 4129 2d3d 3f73 c83c 83f6 99bc 4106 c53c
00000150: 3e45 0ebd ab5f 94bc d90d 90bb 1ce6 1d3d
00000160: d127 b03a 3d3e 3fbc 7bbe 03bc cc66 c83c
00000170: 5f34 97bc f798 47bc d1d3 de3b 50a5 efbc
00000180: e4d8 ea3b 0542 e0bc 4030 68bc b10b 283d
00000190: 0dbe 9cbc bfe4 25bd d221 883b 544f 9ebc
000001a0: daef c9bc d9c8 83bc 77c5 053d f0b0 873b
000001b0: 9ad3 c13c 15c8 443d fcc8 b43b 3e4e c5bc
000001c0: 6795 99bc bfb3 debc 1d0e 943c 3c6d 173d
000001d0: bf66 abbc be4c c2bc 83d2 183c 9fa4 cebc
000001e0: 7110 fbbc bd5b 14bd 4bb4 433d eb42 72bc
000001f0: 64aa d0bc c13b 77bc 41ec e7bc d98c 953c
00000200: bb68 b7bc 4992 77bc e58d 9f3c 567b 1c3d
00000210: b685 453c 0f4a 113d 71fd 083c 01f4 d6bc
00000220: 6c8f d0bc c4d7 36bc 74e5 f7bc fec7 30bb
00000230: 28bb 01bd 9506 2d3d 96a1 c83c 46ab 273d
00000240: 8863 1d3c f55f 0d3c 0112 c33c 85d9 8ebb
00000250: 9251 5f3c 47b9 88bc 5e57 f0bc f7e0 f7bc
00000260: d3c3 d7bc e7be dc3c f12d c8bc 3d5f 0fbd
00000270: 1739 edbc cd2d 9ebc 9b10 4d3b ed83 c7bc
00000280: ad82 033d b93b 16bd d74f c0b8 3aa1 a6bc
00000290: 0a2a 933b 8d56 c83c 6cdb c8bc d92e 303d
000002a0: 2458 96bc 7183 ddbb b7b9 123d a951 293c
000002b0: c576 dc3c d830 493c 0132 183d eb7a 8c3b
000002c0: 9444 3d3c 48de 0c3d a8f4 8b3c d7d5 d53a
000002d0: 2d7c 2ebd 7f66 193c 264d 153b 942f 1b3c
000002e0: 3e11 f9bc cfde 00bd 6d31 6ebc 3cfa 07bb
000002f0: cc28 18bd c0f2 29bd 0fac 1a3d 87d5 c53c
00000300: c24b 353c cd07 6c3d f06b 8fbc efb8 9a3c
00000310: 1688 d13c 9db0 293d 8d2d c93b 1649 033d
00000320: 4915 60bc 4c7f 603c aadb 543b cc66 1f3a
00000330: a023 3a3d e0af ae3c 7fa8 52bc 6c50 853b
00000340: 7a77 03bd 6655 cbbb 6ad6 d2bc eabe 323d
00000350: ab87 f93c 775f 30bc 6519 8b3c bb7a 053d
00000360: 6b03 edbc d7a9 0abb 698c 2b3d bfa2 00bc
00000370: 0e96 4b3d d743 0dbd 16d7 833c dbc0 293d
00000380: b8c5 023d f16c 193c d39f 5abb 34f7 1dbd
00000390: 5f87 0fbd 5cc2 16bd 3f4d 16bc daf9 b0bc
000003a0: ba0c 49bc 32af 3bbd 62e7 2e3d 84cc 033d
000003b0: 6282 a83c 554e ebbb 42f0 ad3c 2b75 e5bc
000003c0: e176 423c d725 7c3c 90e5 debc 13dd 84bc
000003d0: 1501 80bb 9703 1e3d 4850 c1bc 59d6 bbbc
000003e0: 0703 35bc ecf3 02bd 8d3d fbbb 548a 2b3d
000003f0: b110 e4bc 76ba 2abc e279 ac3c 8148 753c

0.bias f4 [130]
-0.005342345 -0.0046291915 0.20631653 0.25877517 0.5335271 0.40695482 -0.013616688 0.005308199
0.00839714 0.0009824414 0.010197625 0.020341326 0.26561505 0.3755185 -0.017188648 -0.050032735
-0.0031309426 -0.0077182967 -0.8536398 -0.3342904 -0.03378336 -0.0287887 0.02175196 -0.16466303
0.29342556 0.22081095 0.22745079 0.29586476 -0.17077637 0.44337094 -0.038446397 -0.21070494
-0.005939631 -0.070988156 -0.41587967 0.458651 -0.382626 -0.12868346 -0.025297584 0.20640324
-0.7400857 0.026173202 -0.23008527 0.09634762 0.44070005 0.33955267 -0.036421895 -0.007675806
-0.20081638 -0.06572567 -0.35810947 -0.016327446 0.023546066 -0.22483017 -0.021565095 -0.8258171
0.3684359 -0.016720988 -0.0898326 -0.12609676 -0.0024875961 -0.16167367 -0.4207857 0.036244616
0.40197283 -0.017185431 -1.0077906e-05 0.12577614 0.004532814 -0.93602324 0.00623063 -0.027989738
0.24273518 0.0008081424 0.01822561 -0.16350186 -0.46546263 0.60073256 -0.9472022 -0.3154638
0.14486457 -0.01626275 -0.012606267 -0.03249977 0.027209682 -0.01430927 0.032613974 0.5176025
-0.011504374 0.13087822 -0.13841932 -0.06525889 0.009529529 -0.006379109 -0.004534605 -0.028510472
0.008913837 0.22399011 -0.09890473 -0.019806206 0.0064306483 -0.34706655 -0.33838543 0.35624948
-0.022696957 0.10693385 0.12917337 0.21439105 0.36192945 -0.5970024 -0.4336041 -0.49231458
-0.8428564 -0.44917753 0.10271927 -0.5193738 -0.10347075 -0.032629546 -0.07784379 -0.028813854
-0.06634002 0.7228687 -0.006771877 -0.029131616 -0.5980705 0.04886305 -0.008014173 -0.29018587
0.045771025 -0.2083911
00000000: d70e afbb 79b0 97bb a444 533e 2e7e 843e
00000010: 3b95 083f 625c d03e 8718 5fbc 67f0 ad3b
00000020: 2894 093c 43c5 803a f013 273c daa2 a63c
00000030: b2fe 873e f643 c03e 35cf 8cbc 20ef 4cbd
00000040: 8030 4dbb c4e9 fcbb 2388 5abf 1c28 abbe
00000050: 6c60 0abd 48d6 ebbc 2b31 b23c 6d9d 28be
00000060: e03b 963e 441c 623e dce8 683e 967b 973e
00000070: 00e0 2ebe 8401 e33e f879 1dbd 09c3 57be
00000080: 3ca1 c2bb 3d62 91bd 2eee d4be 4ed4 ea3e
00000090: 8ee7 c3be 99c5 03be e13c cfbc 5f5b 533e
000000a0: 4276 3dbf 2f69 d63c 799b 6bbe e751 c53d
000000b0: 70a3 e13e d9d9 ad3e 202f 15bd 5485 fbbb
000000c0: cfa2 4dbe 2e9b 86bd 205a b7be 23c1 85bc
000000d0: aee3 c03c e139 66be 48a9 b0bc c068 53bf
000000e0: a1a3 bc3e 74fa 88bc 27fa b7bd 821f 01be
000000f0: f006 23bb c88d 25be 3971 d7be 3c75 143d
00000100: 62cf cd3e 76c8 8cbc 4714 29b7 76cb 003e
00000110: 0088 943b 389f 6fbf 502a cc3b bc4a e5bc
00000120: 928f 783e 85d9 533a e04d 953c 086d 27be
00000130: 1e51 eebe 9cc9 193f d87b 72bf 7984 a1be
00000140: 6157 143e 7539 85bc 848a 4ebc 7b1e 05bd
00000150: d7e6 de3c 6e71 6abc 3b96 053d 9981 043f
00000160: d87c 3cbc f104 063e cbbd 0dbe 74a6 85bd
00000170: be21 1c3c d807 d1bb 0697 94bb cb8e e9bc
00000180: 580b 123c aa5d 653e 908e cabd a040 a2bc
00000190: 30b8 d23b b5b2 b1be db40 adbe 5566 b63e
000001a0: f8ee b9bc 2200 db3d 0646 043e 5489 5b3e
000001b0: d14e b93e 26d5 18bf 5b01 debe a810 fcbe
000001c0: 70c5 57bf 99fa e5be 7b5e d23d aef5 04bf
000001d0: 79e8 d3bd 8fa6 05bd 916c 9fbd 080b ecbc
000001e0: 47dd 87bd ec0d 393f 9fe6 ddbb 6da5 eebc
000001f0: 261b 19bf 9f24 483d e14d 03bc 3e93 94be
00000200: 667a 3b3d 7a64 55be

2.weight f4 [130, 130]
0.09424869 0.011737138 0.18145177 -0.1037249 0.22808923 -0.053382378 -0.05511138 0.06710692
-0.10135771 -0.051144324 -0.07493805 -0.023795933 0.09710679 0.031281937 0.07690082 0.042650215
-0.058361124 0.08533146 -0.043127205 -0.20642804 -0.008687474 0.024694562 0.012218386 -0.027573366
0.032464612 0.0751032 -0.014863631 0.054394085 -0.07630888 -0.29824317 -0.016976845 -0.11892051
-0.07394183 0.064906314 -0.04782576 -0.13299587 0.28029576 0.20315483 0.0037247986 0.044792093
0.030363323 -0.067397796 -0.035922896 -0.27138472 -0.06872418 0.19235268 -0.05921048 0.056763865
-0.028634733 0.09208459 0.26243603 0.07542057 0.24978188 0.084937125 0.013259092 0.088586204
-0.009351287 -0.07378248 0.20749353 -0.2537242 0.06957886 0.09439602 0.09774046 0.1783258
-0.053457703 -0.33816183 0.060369108 0.06960939 -0.07356546 0.101379 -0.027457274 -0.07837003
-0.113900006 0.09179474 0.0647841 -0.18197893 -0.25021327 0.0016305923 0.100715846 -0.017209237
0.18753472 -0.07166692 -0.06968832 -0.030731156 -0.002647055 -0.04581418 0.0061532557 0.15928587
-0.054675043 0.13439804 -0.17217039 -0.07373514 0.0285459 0.073804356 0.039439358 -0.020652402
-0.01897461 -0.16453992 0.055089325 -0.03538753 0.07819914 -0.17193761 -0.24113436 0.12020604
-0.043254036 0.044728577 -0.087224774 -0.22972517 0.3618227 -0.2189822 -0.17631453 0.020370832
-0.07803172 0.28264666 0.26075348 -0.12401889 -0.020459682 0.018008709 0.10665031 0.047378615
0.06584782 0.20716223 0.0885982 -0.08857919 0.11182129 -0.24801475 -0.043197308 -0.017385881
-0.18690123 0.09839782 -0.056540933 -0.015768124 0.04252847 -0.00882952 -0.1943474 -0.12891479
0.0010976087 -0.07216813 -0.008432669 0.03481042 -0.072591685 -0.08669113 0.27936685 -0.15464722
-0.015806844 -0.04584324 -0.042781256 0.045280997 0.014237272 0.09538293 0.021307793 0.037162434
-0.04856721 -0.096008785 -0.001159227 0.061085034 0.09887014 0.080290355 -0.0241154 -0.11530895
-0.029358558 0.022699088 0.111168064 0.09149239 0.047708564 -0.025632584 0.017241117 0.07307763
0.03711514 0.063047394 0.1845186 0.021062003 -0.02658512 -0.0655981 0.10093086 0.16371629
0.0382544 0.02293913 0.17687668 0.010254126 -0.05724075 0.048879977 0.10981193 -0.12615591
-0.026539505 0.06924409 0.0031791078 -0.010199626 0.18893561 0.048296493 0.06285878 0.05008667
-0.1146376 -0.3809034 0.06899365 -0.1474642 0.080286436 -0.09091814 0.044575594 0.012027506
0.07705072 -0.0259661 -0.07257131 0.062214714 -0.049029514 0.04240899 0.15760255 0.03222419
-0.1951134 -0.070704125 0.04734037 -0.027959071 0.018644849 0.06853082 0.03813352 -0.049111985
-0.031533107 -0.0945533 -0.08552066 0.13780074 0.04646622 0.14126715 0.06864569 0.05900023
0.024235614 -0.06942493 -0.07575723 -0.3150508 -0.151996 0.06407231 -0.076365285 0.115644544
-0.17417355 -0.04025635 0.07435094 -0.29233596 -0.07650056 0.055326566 0.0009192633 -0.049784064
0.032923333 -0.13365442 0.123016804 -0.17508443 0.15697639 -0.091076426 0.085924834 -0.08596362
-0.41887727 -0.084069066 0.023857335 0.16215186 0.038134612 0.020623138 0.022302827 -0.23254567
00000000: 7505 c13d 204d 403c 7ece 393e b86d d4bd
00000010: 3990 693e 7ba7 5abd 78bc 61bd 5a6f 893d
00000020: a294 cfbd b67c 51bd 1f79 99bd b0ef c2bc
00000030: eddf c63d 7d21 003d 2d7e 9d3d feb1 2e3d
00000040: 130c 6fbd 43c2 ae3d 27a6 30bd df61 53be
00000050: e855 0ebc 404c ca3c a02f 483c 8ae1 e1bc
00000060: 9df9 043d b5cf 993d 9686 73bc 55cc 5e3d
00000070: d447 9cbd 54b3 98be 0613 8bbc 998c f3bd
00000080: d06e 97bd 9aed 843d f2e4 43bd 1230 08be
00000090: ed82 8f3e d207 503e c01b 743b ea77 373d
000000a0: 81bc f83c db07 8abd e323 13bd f0f2 8abe
000000b0: 43bf 8cbd 1af8 443e b086 72bd 3a81 683d
000000c0: 6393 eabc d896 bc3d 045e 863e 1a76 9a3d
000000d0: d2c6 7f3e 84f3 ad3d aa3c 593c af6c b53d
000000e0: 2436 19bc 451b 97bd 2f79 543e 23e8 81be
000000f0: 5d7f 8e3d b352 c13d 262c c83d 0a9b 363e
00000100: 77f6 5abd 8c23 adbe 9945 773d 5e8f 8e3d
00000110: 7da9 96bd cb9f cf3d 14ee e0bc 7780 a0bd
00000120: 6844 e9bd e1fe bb3d 87ad 843d af58 3abe
00000130: f41b 80be 99b9 d53a 1c44 ce3d 63fa 8cbc
00000140: 1a09 403e 1bc6 92bd c0b8 8ebd e8bf fbbc
00000150: 377a 2dbb a6a7 3bbd 40a1 c93b d61b 233e
00000160: f0f2 5fbd a49f 093e 6f4d 30be 7302 97bd
00000170: 17d9 e93c bd26 973d 2a8b 213d 3a2f a9bc
00000180: a470 9bbc 277d 28be 58a5 613d 84f2 10bd
00000190: df26 a03d 6a10 30be edeb 76be 962e f63d
000001a0: 252b 31bd 5035 373d e7a2 b2bd 133d 6bbe
000001b0: d340 b93e df3c 60be cc8b 34be bbe0 a63c
000001c0: 18cf 9fbd 10b7 903e 7b81 853e 9efd fdbd
000001d0: 109b a7bc 0087 933c 7a6b da3d 1410 423d
000001e0: 39db 863d 5622 543e f972 b53d 0269 b5bd
000001f0: 8f02 e53d 94f7 7dbe a9ef 30bd d66c 8ebc
00000200: 0963 3fbe cc84 c93d 7797 67bd 272c 81bc
00000210: 5532 2e3d b1a9 10bc 0103 47be 3d02 04be
00000220: a3dd 8f3a e2cc 93bd 2d29 0abc 5f95 0e3d
00000230: f3aa 94bd 1f8b b1bd 2c09 8f3e d75b 1ebe
00000240: 5b7d 81bc 1fc6 3bbd 663b 2fbd 9178 393d
00000250: 7243 693c 2058 c33d ae8d ae3c a337 183d
00000260: 69ee 46bd 41a0 c4bd 34f1 97ba 4d34 7a3d
00000270: 6e7c ca3d 456f a43d a98d c5bc 1927 ecbd
00000280: 5c81 f0bc 70f3 b93c 15ac e33d 5d60 bb3d
00000290: 0e6a 433d 6dfb d1bc 3e3d 8d3c b9a9 953d
000002a0: 0c06 183d fe1e 813d 72f2 3c3e 398a ac3c
000002b0: 0ac9 d9bc 4c58 86bd d7b4 ce3d 3ea5 273e
000002c0: a5b0 1c3d d8ea bb3c 291f 353e ec00 283c
000002d0: 4775 6abd 5f36 483d 14e5 e03d 042f 01be
000002e0: 6069 d9bc d8cf 8d3d 9458 503b 551c 27bc
000002f0: 5678 413e 8bd2 453d 1bbc 803d ae27 4d3d
00000300: 1ec7 eabd c505 c3be 8b4c 8d3d db00 17be
00000310: 376d a43d 4a33 babd e694 363d 040f 453c
00000320: c5cc 9d3d dcb6 d4bc 44a0 94bd dbd4 7e3d
00000330: 2cd3 48bd 0db5 2d3d 9062 213e 83fd 033d
00000340: cfcb 47be 53cd 90bd fae7 413d 6c0a e5bc
00000350: 15bd 983c e359 8c3d e531 1c3d a629 49bd
00000360: dc28 01bd 29a5 c1bd 7525 afbd a31b 0d3e
00000370: 5d53 3e3d 56a8 103e 1d96 8c3d 3aaa 713d
00000380: c489 c63c a82e 8ebd 9b26 9bbd 574e a1be
00000390: d7a4 1bbe 5838 833d 6765 9cbd 0cd7 ec3d
000003a0: 8d5a 32be d8e3 24bd 4e45 983d 0fad 95be
000003b0: 53ac 9cbd 1c9e 623d b7fa 703a 60ea 4bbd
000003c0: 9eda 063d b4dc 08be 3cf0 fb3d 5549 33be
000003d0: 6bbe 203e 4786 babd 5cf9 af3d b20d b0bd
000003e0: 1577 d6be 672c acbd 7570 c33c 230b 263e
000003f0: 0a33 1c3d dbf1 a83c 6bb4 b63c 7420 6ebe

2.bias f4 [130]
0.004877407 -0.018872164 0.7922198 -0.1315218 -0.44309324 -0.05819233 -0.11081913 0.084638745
0.20620991 -0.35700518 -0.6289854 -0.0015910062 -0.05248297 -0.15056805 -0.14696045 0.41180193
0.12857431 -0.107129924 -0.08351526 0.23162682 -0.03393824 -0.24827075 0.031619925 -0.059656918
-0.04853126 -0.62631255 -0.4432844 -0.5164087 0.0775608 -0.0036698224 0.87828934 -0.07868573
-0.16537817 -0.11519661 -0.08820671 0.1096951 -0.3521571 -0.20810305 -0.17739049 -0.14157945
-0.008218058 0.588074 -0.56228334 -0.20533276 -0.043453883 -0.00015400414 0.38925308 0.2282242
0.10645477 0.32177627 -0.6655973 0.18999346 -0.13489518 0.000530765 -0.324827 0.19126585
-0.08277498 0.13559231 1.0376216 0.05247389 -0.018061837 -0.014502183 -0.022141183 0.06680838
-0.48811677 0.32606503 -0.09433814 -0.090505935 -0.31630233 0.51739544 0.0682899 -0.107261725
0.24496987 -0.49660245 -0.065000884 -0.5408968 -0.092195764 -0.28962675 0.0693622 0.0109193865
0.17277654 -0.077434175 0.29969847 0.582367 0.41278327 0.771375 -0.5196257 -0.5001654
0.051566165 0.83629817 -0.44149297 -0.092918105 1.2826511 -0.04886115 -0.349888 0.06294527
-0.40017208 0.4221536 -0.3226635 -0.17022537 -0.11571156 -0.50485104 0.50736666 0.32234523
0.6388114 -0.005377129 -0.08078325 -0.08747213 -0.21106423 0.047248464 -0.113140464 -0.087835714
0.01903894 -0.29485455 -0.43290094 -0.0921842 0.21319923 -0.07592296 -0.12270804 -0.11299936
-0.119188935 -0.10956658 0.3552122 -0.10400485 0.33603442 -0.3880703 -0.50020534 0.040796652
-0.510832 0.18940288
00000000: a8d2 9f3b cc99 9abc ebce 4a3f a7ad 06be
00000010: 1edd e2be 155b 6ebd 24f5 e2bd 1457 ad3d
00000020: b128 533e 62c9 b6be 3005 21bf 4f89 d0ba
00000030: 62f8 56bd 832e 1abe cd7c 16be b4d7 d23e
00000040: fca8 033e ef66 dbbd 0c0a abbd 952f 6d3e
00000050: d302 0bbd b03a 7ebe e583 013d d05a 74bd
00000060: b7c8 46bd 0556 20bf 2cf6 e2be 5c33 04bf
00000070: 32d8 9e3d 6781 70bb 92d7 603f fc25 a1bd
00000080: e558 29be 33ec ebbd b8a5 b4bd d3a7 e03d
00000090: ef4d b4be f718 55be daa5 35be 34fa 10be
000000a0: 09a5 06bc 058c 163f cdf1 0fbf c042 52be
000000b0: b3fc 31bd 2c7c 21b9 2e4c c73e 9bb3 693e
000000c0: f504 da3d dcbf a43e 9664 2abf a58d 423e
000000d0: f621 0abe 0923 0b3a b94f a6be 32db 433e
000000e0: ee85 a9bd b6d8 0a3e c9d0 843f ddee 563d
000000f0: 6bf6 93bc 909a 6dbc 6d61 b5bc d5d2 883d
00000100: 71ea f9be fff1 a63e 5b34 c1bd 2d5b b9bd
00000110: 61f2 a1be 0774 043f 93db 8b3d 09ac dbbd
00000120: 62d9 7a3e ad42 febe 2f1f 85bd 3678 0abf
00000130: 22d1 bcbd f549 94be c50d 8e3d 3ae7 323c
00000140: 55ec 303e cf95 9ebd 1472 993e 0116 153f
00000150: 5458 d33e d578 453f 3106 05bf d70a 00bf
00000160: 0b37 533d a317 563f 5e0b e2be d94b bebd
00000170: e92d a43f a122 48bd 8524 b3be 73e9 803d
00000180: 5be3 ccbe 8424 d83e 2634 a5be 8f4f 2ebe
00000190: 2ffa ecbd eb3d 01bf c8e2 013f 6f0a a53e
000001a0: 2589 233f a132 b0bb b071 a5bd 9724 b3bd
000001b0: 3921 58be 9b87 413d 30b6 e7bd 36e3 b3bd
000001c0: 8df7 9b3c 2df7 96be 31a5 ddbe 12cb bcbd
000001d0: e650 5a3e 7f7d 9bbd 5a4e fbbd 356c e7bd
000001e0: 5419 f4bd 7164 e0bd 60de b53e 7f00 d5bd
000001f0: b40c ac3e 26b1 c6be 750d 00bf 641a 273d
00000200: e3c5 02bf d4f2 413e

4.weight f4 [130, 130]
0.0053890543 0.009946851 -0.0023793017 0.06547849 0.2561205 -0.02635125 -0.0018382407 0.157929
-0.12848769 0.05730342 -0.21427463 -0.103295766 -0.014791834 0.13008606 -0.2526397 0.09953585
-0.36464137 -0.08636497 -0.03952162 0.028379673 -0.038470477 -0.0807312 -0.087915525 0.13046634
-0.08609461 0.031737935 -0.23103556 0.11856206 0.3845312 0.28991768 -0.061969075 -0.12399211
-0.17940287 -0.080499336 -0.018751068 0.38733768 -0.09466173 -0.31549877 0.13209246 -0.08582896
0.1998118 0.11529704 0.023681981 -0.3748217 0.031077223 0.08247372 -0.023778468 0.08468458
-0.07706579 0.124008045 -0.011983659 -0.25812507 0.10969166 0.04912747 -0.035905328 0.070547245
0.31671327 -0.024287343 -0.023865059 0.08161634 0.0070208246 -0.051536776 -0.0806271 -0.0108188335
0.14659175 0.30015087 0.084457144 0.022292817 0.23226774 -0.25400952 0.031205717 -0.071280845
0.15061681 -0.10991267 0.17131288 -0.17577422 0.18979567 -0.11665255 0.30425572 0.10368301
-0.35025963 -0.01780818 0.22947866 0.11207417 0.10358887 -0.20493837 0.2108131 -0.18177241
0.09505293 0.27271095 -0.43755546 -0.011405479 0.0094305705 0.0074746287 0.0647962 0.21641715
0.052717175 0.00672013 0.07892314 0.047644857 -0.055919543 0.008672311 -0.27010608 0.13792062
0.16755319 -0.11208096 -0.107289106 0.09770846 0.023317615 -0.020327525 -0.034103896 0.39649397
0.036844663 0.10279761 0.15908724 0.0043392265 0.04571333 -0.11554683 0.04359565 0.0046867137
0.12815335 -0.0024145169 -0.19281821 -0.045773473 -0.10076136 0.28951347 -0.16616634 0.21992502
-0.05505035 -0.37826356 0.008378103 -0.06693904 0.38962865 -0.12047737 0.30543274 0.010308649
-0.06304828 0.13109937 -0.082580626 0.19675401 0.15042724 -0.2487541 -0.0353217 0.22147001
-0.0022813582 -0.1243979 0.07014184 -0.011754259 0.1813465 0.098943494 0.081977926 -0.057307687
0.06474501 0.037383396 -0.04815182 -0.036334712 0.029216936 -0.17718469 -0.09058695 -0.028789282
0.021178646 -0.0062290747 0.1701083 -0.09354425 0.05188485 0.43192416 -0.087634265 -0.09287167
0.0354307 -0.086118326 -0.14656462 -0.15352856 0.08185839 -0.0028548045 -0.04149866 0.05988784
0.082097754 -0.22751185 -0.04074002 -0.085733555 0.04937817 0.056970403 0.14509183 0.035893206
-0.06686832 0.07690744 -0.08828026 0.07252637 0.16979678 0.0109893065 -0.0057068127 -0.08547792
0.07260728 -0.077959225 0.065582275 -0.32684454 -0.012675503 0.083802715 -0.323779 0.26531142
-0.035127267 -0.002348648 -0.09609507 0.098851085 0.1763018 -0.45884448 -0.13959892 -0.046174373
0.047283653 -0.025807321 0.059294015 -0.080785245 -0.216914 0.067209095 0.04916026 0.36838344
-0.038158163 -0.12153694 -0.24120426 0.34903982 0.083736524 0.078010425 -0.5318706 0.0937644
0.17586681 0.39487058 0.033738907 -0.20010068 -0.07427129 -0.23553167 -0.034927793 -0.06700197
0.22503775 -0.12286475 -0.016665911 0.083105095 0.35508353 0.14141966 -0.051633894 -0.0743705
0.071249925 -0.002584072 -0.032320704 0.28479156 -0.1320814 -0.16168144 -0.1004191 -0.13210416
0.026590252 0.05134883 0.0861284 0.009050951 -0.1012576 -0.006982151 0.21733288 0.20633298
00000000: aa96 b03b 1ef8 223c 0fee 1bbb 9619 863d
00000010: 3a22 833e 94de d7bc 1ff1 f0ba 24b8 213e
00000020: 4792 03be feb6 6a3d cf6a 5bbe bb8c d3bd
00000030: 7359 72bc 4835 053e fe59 81be 74d9 cb3d
00000040: 46b2 babe 1ee0 b0bd 6ce1 21bd 7d7c e83c
00000050: 3893 1dbd 6656 a5bd 0e0d b4bd f898 053e
00000060: 5f52 b0bd a3ff 013d 9694 6cbe aad0 f23d
00000070: 46e1 c43e 1770 943e 49d3 7dbd 93ef fdbd
00000080: 63b5 37be d6dc a4bd d79b 99bc 2051 c63e
00000090: 02de c1bd 0e89 a1be 3f43 073e 18c7 afbd
000000a0: 779b 4c3e db20 ec3d b700 c23c a1e8 bfbe
000000b0: a995 fe3c fbe7 a83d 10cb c2bc 1c6f ad3d
000000c0: abd4 9dbd eef7 fd3d 1c57 44bc f828 84be
000000d0: 05a6 e03d e339 493d 7711 13bd 137b 903d
000000e0: 3e28 a23e 40f6 c6bc a880 c3bc 7826 a73d
000000f0: f20e e63b 3a18 53bd d21f a5bd 7a41 31bc
00000100: 261c 163e 60ad 993e def7 ac3d 6d9f b63c
00000110: 98d7 6d3e 890d 82be 22a3 ff3c b1fb 91bd
00000120: 4b3b 1a3e e519 e1bd a56c 2f3e 28fe 33be
00000130: cc59 423e 88e7 eebd 68c7 9b3e c257 d43d
00000140: 3b55 b3be 76e2 91bc 74fc 6a3e 2487 e53d
00000150: 6726 d43d 5ddb 51be 64df 573e 8c22 3abe
00000160: 1cab c23d c5a0 8b3e 4507 e0be 0cde 3abc
00000170: ae82 1a3c bbed f43b dfb3 843d 759c 5d3e
00000180: f7ed 573d 8934 dc3b 75a2 a13d 4127 433d
00000190: e40b 65bd 4f16 0e3c 584b 8abe 103b 0d3e
000001a0: 1093 2b3e b48a e5bd 64ba dbbd 601b c83d
000001b0: 9504 bf3c e985 a6bc 87b0 0bbd 4201 cb3e
000001c0: 6eea 163d 8e87 d23d c4e7 223e 1230 8e3b
000001d0: e73d 3b3d d1a3 ecbd 5a91 323d 0193 993b
000001e0: a23a 033e df3c 1ebb 2372 45be f77c 3bbd
000001f0: f95b cebd 1c3b 943e 8227 2abe 0634 613e
00000200: 7a7c 61bd c3ab c1be 5044 093c 5617 89bd
00000210: 687d c73e d7bc f6bd ae61 9c3e 9ce5 283c
00000220: 751f 81bd ea3e 063e 0820 a9bd e279 493e
00000230: 9909 1a3e 65b9 7ebe 7dad 10bd 09c9 623e
00000240: d782 15bb 54c4 febd 86a6 8f3d ef94 40bc
00000250: e6b2 393e e3a2 ca3d 0be4 a73d 77bb 6abd
00000260: 0899 843d 551f 193d d83a 45bd b5d3 14bd
00000270: 5b58 ef3c e76f 35be a785 b9bd 80d7 ebbc
00000280: d77e ad3c 441d ccbb df30 2e3e 2194 bfbd
00000290: 3585 543d 2a25 dd3e 9879 b3bd 8133 bebd
000002a0: c81f 113d ce5e b0bd 0915 16be 9736 1dbe
000002b0: 5fa5 a73d ac17 3bbb 80fa 29bd f44c 753d
000002c0: de22 a83d def8 68be 02df 26bd 1395 afbd
000002d0: c440 4a3d cc59 693d f492 143e c104 133d
000002e0: 42f2 88bd a681 9d3d 48cc b4bd b588 943d
000002f0: 35df 2d3e 7e0c 343c 3700 bbbb 0c0f afbd
00000300: 20b3 943d 16a9 9fbd 0050 863d 2b58 a7be
00000310: eaac 4fbc c2a0 ab3d 5cc6 a5be e6d6 873e
00000320: 9ce1 0fbd c6eb 19bb 7ecd c4bd 7072 ca3d
00000330: 7688 343e aaed eabe 05f3 0ebe 5721 3dbd
00000340: 81ac 413d e069 d3bc 48de 723d bc72 a5bd
00000350: b41e 5ebe eca4 893d 455c 493d c19c bc3e
00000360: bc4b 1cbd 5ce8 f8bd 40fe 76be 59b5 b23e
00000370: 0e7e ab3d eec3 9f3d ac28 08bf 8d07 c03d
00000380: 6e16 343e 7a2c ca3e cf31 0a3d 31e7 4cbe
00000390: 8c1b 98bd 372f 71be 7210 0fbd 5438 89bd
000003a0: 4c70 663e 84a0 fbbd f386 88bc 0133 aa3d
000003b0: 82cd b53e 51d0 103e 107e 53bd 904f 98bd
000003c0: 7beb 913d 8959 29bb b762 04bd 33d0 913e
000003d0: 5940 07be d28f 25be 87a8 cdbd 5046 07be
000003e0: cdd3 d93c 2753 523d 1664 b03d 714a 143c
000003f0: 2560 cfbd 87ca e4bb 838c 5e3e f448 533e

4.bias f4 [130]
0.16776417 0.2691539 -0.14080097 0.42965594 -0.17974286 -0.03878617 0.04412806 0.1276256
-0.019022102 -0.6859419 -0.07013879 -0.015394026 0.16417697 0.28714937 0.18106583 -0.2561384
-0.14778885 0.06741475 -0.41885597 -0.024521977 0.5079515 -0.0056814444 -0.3520337 0.26001045
-0.15713412 0.07515592 -0.007304958 0.094058104 0.23777601 -0.17132586 -0.28210953 0.080383964
-0.08077949 -0.24058208 0.6007716 -0.034302726 0.1559015 -0.4677054 -0.08714098 -0.23811083
0.0031564182 -0.04725825 -0.14931267 -0.13571803 0.28226092 0.0070898156 -0.103151225 0.004545869
0.8404407 -0.5387911 -0.004304687 -0.05323249 -0.014948145 -0.18961011 0.13049339 0.3160547
0.1923492 0.11342012 -0.16900681 -0.19103207 -0.08253222 -0.16176125 -0.13879289 -0.29971656
0.2906045 0.31293374 0.014899878 0.2509508 0.24721152 -0.07417966 -0.036024366 0.4362455
-0.014734167 -0.6020327 0.4378816 0.1073104 0.5776834 -0.041703556 -0.5767102 -0.23229411
0.2545498 -0.3177963 0.32659966 0.08410672 -0.69536495 0.175297 0.04008144 -0.27580333
-0.06288792 0.029425038 0.11243088 -0.16214143 -0.01582292 -0.45341897 0.22141792 0.32790387
0.021041293 -0.52530056 0.321441 0.5011015 -0.012636312 -0.3198889 0.31025556 0.31191304
0.2589987 -0.1163453 0.12598363 0.08803067 -0.067873865 -0.38860586 0.40735996 0.4875771
-0.049254984 -0.12608367 -0.24529785 0.2168864 0.2508809 -0.49308264 0.35946026 -0.3501352
-0.16237232 0.19191845 -0.05231293 0.062187966 0.037410546 -0.21412833 -0.10999721 -0.103631414
-0.2808159 0.11123873
00000000: 5fca 2b3e 8ace 893e 212e 10be ddfb db3e
00000010: 830e 38be 3fde 1ebd a0bf 343d 49b0 023e
00000020: 3dd4 9bbc e399 2fbf eda4 8fbd 3a37 7cbc
00000030: 021e 283e 3e05 933e 5269 393e 9324 83be
00000040: f655 17be bf10 8a3d 4a74 d6be 50e2 c8bc
00000050: 1c09 023f 692b babb c33d b4be 1720 853e
00000060: c4e7 20be 59eb 993d 6e5e efbb 89a1 c03d
00000070: 8e7b 733e 0c70 2fbe a970 90be 59a0 a43d
00000080: b86f a5bd 265b 76be 2bcc 193f 0481 0cbd
00000090: a5a4 1f3e 1577 efbe f876 b2bd 53d3 73be
000000a0: e9db 4e3b de91 41bd 6ce5 18be abf9 0abe
000000b0: 8184 903e af51 e83b f340 d3bd 83f5 943b
000000c0: 1f27 573f 37ee 09bf 550e 8dbb 500a 5abd
000000d0: 10e9 74bc 2729 42be 0fa0 053e ecd1 a13e
000000e0: 30f7 443e cf48 e83d 1f10 2dbe e99d 43be
000000f0: a706 a9bd bea4 25be b91f 0ebe 7374 99be
00000100: 1dca 943e da38 a03e 9e1e 743c a07c 803e
00000110: 0425 7d3e 81eb 97bd 498e 13bd 925b df3e
00000120: 9367 71bc d11e 1abf 0432 e03e 8ec5 db3d
00000130: 0fe3 133f 59d1 2abd 48a3 13bf 82de 6dbe
00000140: 5a54 823e 32b6 a2be 1238 a73e 2540 ac3d
00000150: 7003 32bf 0f81 333e 702c 243d 1836 8dbe
00000160: 62cb 80bd c70c f13c 2942 e63d 6708 26be
00000170: 119f 81bc 8826 e8be 61bb 623e 04e3 a73e
00000180: ca5e ac3c 197a 06bf ea93 a43e 3048 003f
00000190: 8908 4fbc 7ac8 a3be d1d9 9e3e 11b3 9f3e
000001a0: 7a9b 843e 7246 eebd da01 013e 6d49 b43d
000001b0: 7401 8bbd 59f7 c6be 7c91 d03e b5a3 f93e
000001c0: 98bf 49bd 141c 01be 5c2f 7bbe 7817 5e3e
000001d0: 7673 803e 5475 fcbe 2d0b b83e ec44 b3be
000001e0: ee44 26be 4586 443e 1546 56bd cfb8 7e3d
000001f0: cd3b 193d 7544 5bbe 3846 e1bd b53c d4bd
00000200: 1ac7 8fbe 22d1 e33d

6.weight f4 [157, 130]
0.012555625 -0.14671841 0.08473196 0.10554491 -0.083282955 0.03970841 0.040884487 -0.050585244
0.051560834 -0.19027907 -0.024196455 0.03963711 0.1356364 -0.32478 0.14147766 -0.064082295
-0.039600104 0.092831254 0.0005033137 0.06763498 0.06591721 -0.04718867 -0.07322969 0.30317295
-0.15130854 0.27664614 -0.08746587 -0.17346431 -0.051528934 -0.015174843 -0.06413061 0.043203983
-0.029142134 -0.027056279 0.14981258 0.0069484157 -0.38677493 0.11185045 0.040920567 -0.11305966
-0.09204452 -0.04576908 0.057518654 0.008666994 0.10763116 0.13415441 -0.1552353 0.033622228
0.03197183 -0.025247019 0.075722486 0.1892273 -0.061160292 -0.115382105 -0.21043004 -0.004056086
0.0016403784 0.12511896 -0.059034802 -0.10049679 0.28126204 -0.171896 -0.1420786 0.39080283
-0.5923751 -0.24811266 -0.41570485 -0.056804582 0.0133674 -0.053176556 0.03361952 -0.0034282359
-0.012953084 -0.021157261 -0.52127236 0.19089973 0.019666173 -0.021337045 -0.025546772 0.04861657
-0.22093189 -0.018251657 -0.269042 0.061034385 -0.08679578 -0.49473533 0.015133431 -0.19855483
0.07409301 -0.28429574 -0.28991517 0.14466774 -0.09225537 0.063390695 -0.31695 0.06609125
-0.037501212 -0.12405855 0.16055712 0.120957635 -0.06620876 -0.29483032 0.07731592 -0.1271987
0.080597736 -0.6666085 -0.06816707 -0.105320774 0.14063828 -0.056077108 -0.07847497 -0.19554019
-0.11214804 0.10058139 0.013898201 -0.018695641 -0.040829916 -0.051575035 0.25318605 -0.08186893
-0.12788633 0.27155772 0.046143252 0.10344209 0.013586291 -0.17150849 0.37975833 0.17855884
0.19702545 -0.031022208 -0.17481093 -0.024290204 0.16423057 0.18576322 -0.033341713 0.006964712
0.014168554 0.09085514 0.05181941 0.02978147 -0.024509655 -0.17936072 -0.12148296 0.029948
-0.2206095 -0.04233817 0.009690905 -0.07963153 0.116715044 -0.04028132 -0.027540874 -0.07798414
0.11895258 0.009897582 -0.060392603 -0.36724627 -0.19241045 0.10251896 -0.104927026 0.04945313
0.24980791 0.055911392 -0.02954649 0.02546845 0.057743277 -0.013217701 -0.13171816 0.10874302
0.010082176 -0.15624435 0.0556353 -0.037234392 0.111822754 -0.25214782 -0.13642341 -0.04738993
-0.22098234 -0.0052305446 -0.50619256 0.16817291 -0.14594552 -0.0011584905 0.03319445 -0.020262025
-0.04611921 0.019778127 0.097336404 -0.21910718 -0.17558083 0.05951236 0.08525303 -0.25745267
-0.1652167 -0.065218724 -0.045096762 -0.1803368 -0.17557795 0.09201664 0.013326755 -0.044683922
-0.052268356 0.12038421 -0.07239334 0.05055736 -0.030423455 -0.052198764 0.04105884 -0.05283416
0.24646795 0.08842903 -0.28388566 -0.026526248 -0.19187376 -0.036196943 0.08610822 0.095553815
0.027854616 0.015280827 -0.033339173 0.059320863 0.19583377 0.19918421 -0.026018986 0.13289106
-0.07182204 0.050854735 0.012043911 0.17230503 -0.21982665 0.16981828 -0.07092167 0.19173414
-0.09220023 -0.3501967 0.07542335 -0.08519415 0.029463548 -0.09713968 -0.11493575 0.060604583
-0.19675991 -0.3202596 -0.008820495 0.17297739 0.09631572 0.0058048214 -0.2723583 0.2386602
0.031864583 0.008545919 0.119389005 0.007006835 -0.071429595 0.029451448 0.06298837 -0.070169166
00000000: 1cb6 4d3c 5a3d 16be f387 ad3d ee27 d83d
00000010: 4190 aabd 49a5 223d 7e76 273d 7932 4fbd
00000020: 7431 533d 84d8 42be a537 c6bc 865a 223d
00000030: 45e4 0a3e 9049 a6be 85df 103e 943d 83bd
00000040: b833 22bd 501e be3d d0f0 033a 3584 8a3d
00000050: 9aff 863d e848 41bd 73f9 95bd 7c39 9b3e
00000060: a0f0 1abe 90a4 8d3e 4e21 b3bd a1a0 31be
00000070: 0110 53bd e89f 78bc e956 83bd a9f6 303d
00000080: 7cbb eebc 21a5 ddbc 7868 193e 89af e33b
00000090: 5d07 c6be d911 e53d 539c 273d d38b e7bd
000000a0: d681 bcbd 5c78 3bbd ae98 6b3d 0200 0e3c
000000b0: ba6d dc3d c65f 093e 01f6 1ebe 76b7 093d
000000c0: e5f4 023d d6d2 cebc 6414 9b3d cdc4 413e
000000d0: 3783 7abd 744d ecbd f97a 57be eae8 84bb
000000e0: f701 d73a 2f1f 003e 7ace 71bd 43d1 cdbd
000000f0: 9401 903e 8105 30be 0d7d 11be 4f17 c83e
00000100: e5a5 17bf 3f11 7ebe 44d7 d4be ecab 68bd
00000110: f002 5b3c a9cf 59bd 9fb4 093d 41ac 60bb
00000120: 2c39 54bc fe51 adbc 1b72 05bf 387b 433e
00000130: f41a a13c 07cb aebc 7747 d1bc 2b22 473d
00000140: f83b 62be 8084 95bc dfbf 89be 31ff 793d
00000150: fcc1 b1bd f34d fdbe 36f2 773c f551 4bbe
00000160: 13be 973d 368f 91be c36f 94be c823 143e
00000170: 62f0 bcbd fbd2 813d 4547 a2be d95a 873d
00000180: df9a 19bd 6912 febd 1669 243e a3b8 f73d
00000190: 7598 87bd 00f4 96be cf57 9e3d 6040 02be
000001a0: 6d10 a53d dba6 2abf 2d9b 8bbd 6bb2 d7bd
000001b0: 7b03 103e 1cb1 65bd 7cb7 a0bd b03b 48be
000001c0: dfad e5bd 9efd cd3d 48b5 633c 9a27 99bc
000001d0: 453d 27bd 5840 53bd 9aa1 813e e6aa a7bd
000001e0: a2f4 02be 9d09 8b3e b500 3d3d 72d9 d33d
000001f0: 0999 5e3c ec9f 2fbe af6f c23e 21d8 363e
00000200: 0ac1 493e 4922 febc a301 33be 40fc c6bc
00000210: 0f2c 283e b738 3e3e 5291 08bd 3d38 e43b
00000220: 3923 683c 4212 ba3d 9740 543d 45f8 f33c
00000230: 79c8 c8bc 56aa 37be 0fcc f8bd 8255 f53c
00000240: 75e7 61be ca6a 2dbd 9ac6 1e3c db15 a3bd
00000250: 4c08 ef3d 07fe 24bd 669d e1bc 26b6 9fbd
00000260: 699d f33d 7829 223c 3c5e 77bd b407 bcbe
00000270: 3f07 45be 76f5 d13d fbe3 d6bd 5e8f 4a3d
00000280: a5cd 7f3e 5803 653d 7b0b f2bc 36a3 d03c
00000290: 3784 6c3d 0e8f 58bc 20e1 06be a9b4 de3d
000002a0: b62f 253c 85fe 1fbe d7e1 633d 1783 18bd
000002b0: 5403 e53d 8519 81be 94b2 0bbe f11b 42bd
000002c0: 3249 62be fd64 abbb d695 01bf 8535 2c3e
000002d0: be72 15be 7ed8 97ba e7f6 073d 8cfc a5bc
000002e0: 7fe7 3cbd bd05 a23c 4f58 c73d a25d 60be
000002f0: 76cb 33be 3bc3 733d 2499 ae3d d6d0 83be
00000300: 912e 29be 6591 85bd 62b7 38bd 36aa 38be
00000310: b5ca 33be 3873 bc3d 7658 5a3c 7d06 37bd
00000320: 5817 56bd ff8b f63d f642 94bd 3c15 4f3d
00000330: 9c3a f9bc 5fce 55bd 502d 283d a268 58bd
00000340: 1862 7c3e 471a b53d 7659 91be 934d d9bc
00000350: 8e7a 44be 3f43 14bd 8259 b03d b8b1 c33d
00000360: 5d2f e43c 6f5c 7a3c a88e 08bd 6ffa 723d
00000370: a688 483e f2f6 4b3e c525 d5bc 9814 083e
00000380: 6f17 93bd 0e4d 503d d353 453c bb70 303e
00000390: 3d1a 61be d8e4 2d3e 613f 91bd f455 443e
000003a0: 79d3 bcbd fb4c b3be 8f77 9a3d 457a aebd
000003b0: 8a5d f13c 2bf1 c6bd 6f63 ebbd 833c 783d
000003c0: 6e7b 49be 11f9 a3be d683 10bc fc20 313e
000003d0: 2d41 c53d 5f36 be3b 8c72 8bbe 5763 743e
000003e0: 7084 023d 2f04 0c3c 3982 f43d 9899 e53b
000003f0: ae49 92bd 2a44 f13c 0c00 813d dab4 8fbd

6.bias f4 [157]
0.4047644 -0.32100645 -0.6799665 0.1500063 0.297899 -0.42910773 -0.31134537 0.122966275
0.58922106 -0.20267616 -0.15517733 0.4427049 0.02539984 0.24095011 0.22143245 0.13701439
-0.08432487 -0.07905281 0.31364676 0.13266952 -0.55433255 0.0077746883 0.83064574 -0.18456103
0.42768028 0.79497254 0.26684874 -0.57187194 0.5218101 -0.14711362 -0.262749 0.11299235
0.0333939 -0.058187936 0.38803974 0.1612271 -0.4565014 -0.4827227 0.25702542 -0.32583624
-0.52331996 0.05253847 -0.47441843 0.12343852 0.16386648 -0.38439313 -0.23194148 -0.34637958
-0.37205943 0.11843797 -0.2315601 -0.35568926 0.105962075 0.20519525 0.03246517 0.10901846
-0.0686812 -0.37346956 -0.118050195 0.50624764 -0.119246796 0.21543983 0.1203773 0.005241918
0.40838954 0.15017413 -0.34845793 0.28240144 -0.09863513 0.47359455 0.41597265 -0.019339986
-0.6752736 -0.40184256 0.13018964 0.21064629 0.18076444 0.13545322 -0.08611392 0.22785552
-0.59922105 0.47412172 0.18080153 0.13211957 -0.18396068 0.2102284 0.2790315 0.17292371
0.084461406 0.25445962 0.10437774 0.046608876 0.20486762 -0.4423501 -0.1853107 -0.11387867
0.08741462 -0.09226926 -0.10958775 -0.12378455 0.5969281 0.087727025 0.20720746 -0.16829976
-0.28880006 0.50695026 -0.19623435 0.19329979 -0.15884845 -0.0626724 0.20866923 -0.5059876
-0.06965052 -0.3792087 -0.0014029556 -0.47143143 -0.3604679 0.31438962 -0.21696393 0.079926424
0.23151368 -0.51828223 -0.43944767 0.6405249 -0.41424513 -0.15523529 0.09004167 -0.44436574
-0.063299164 -0.27843314 -0.44047385 0.21853197 -0.2627283 0.18569109 -0.35892123 -0.2821043
0.19848512 0.35986722 -0.27948052 -0.7472096 0.6048532 -0.44505054 0.7783422 0.055684943
0.26365063 0.10148991 0.094959676 -0.092140436 0.7026771 -0.44461757 -0.019578423 0.49914578
-0.5784241 -0.17045137 0.58741814 -0.4873357 0.05628129
00000000: 483d cf3e f55a a4be 4912 2ebf 409b 193e
00000010: 3886 983e 02b4 dbbe a968 9fbe bed5 fb3d
00000020: 31d7 163f 578a 4fbe cee6 1ebe 37aa e23e
00000030: 5313 d03c a0bb 763e 30bf 623e 804d 0c3e
00000040: 84b2 acbd 71e6 a1bd 4f96 a03e 85da 073e
00000050: bde8 0dbf d0c2 fe3b 33a5 543f 91fd 3cbe
00000060: e9f8 da3e 5283 4b3f 66a0 883e 3366 12bf
00000070: 5995 053f f4a4 16be 0987 86be 8868 e73d
00000080: 0bc8 083d 7956 6ebd 25ad c63e b818 253e
00000090: 8dba e9be 6e27 f7be d698 833e 02d4 a6be
000000a0: 4cf8 05bf 9432 573d f9e6 f2be 56cd fc3d
000000b0: 9dcc 273e 2dcf c4be 1182 6dbe aa58 b1be
000000c0: 937e bebe 9b8f f23d 171e 6dbe e71c b6be
000000d0: a502 d93d b41e 523e 33fa 043d 1245 df3d
000000e0: bba8 8cbd 6737 bfbe 4dc4 f1bd 7299 013f
000000f0: aa37 f4bd 429c 5c3e 6088 f63d 65c4 ab3b
00000100: 6f18 d13e 3fc7 193e 1469 b2be ec96 903e
00000110: 3701 cabd fc7a f23e 5efa d43e e46e 9ebc
00000120: bbde 2cbf 4fbe cdbe 6f50 053e a9b3 573e
00000130: 501a 393e 40b4 0a3e 7f5c b0bd f552 693e
00000140: 8d66 19bf 15c0 f23e 0924 393e 5a4a 073e
00000150: 3060 3cbe 1d46 573e 37dd 8e3e ea12 313e
00000160: 1afa ac3d 8848 823e ffc3 d53d f3e8 3e3d
00000170: d1c8 513e b67b e2be 17c2 3dbe 3839 e9bd
00000180: 7006 b33d aaf7 bcbd 8b6f e0bd c182 fdbd
00000190: 48d0 183f 3aaa b33d 312e 543e c656 2cbe
000001a0: 9add 93be 7ec7 013f a8f1 48be 61f0 453e
000001b0: 2ba9 22be 635a 80bd 63ad 553e 6788 01bf
000001c0: efa4 8ebd a527 c2be 61e3 b7ba 765f f1be
000001d0: 408f b8be adf7 a03e cb2b 5ebe 77b0 a33d
000001e0: ec11 6d3e 25ae 04bf 49ff e0be 71f9 233f
000001f0: f017 d4be 00f6 1ebe c467 b83d e883 e3be
00000200: fea2 81bd ca8e 8ebe ca85 e1be d8c6 5f3e
00000210: 5384 86be ce25 3e3e 86c4 b7be fa6f 90be
00000220: af3f 4b3e 8440 b83e 1218 8fbe 2149 3fbf
00000230: a9d7 1a3f aadd e3be 6f41 473f e515 643d
00000240: 37fd 863e f1d9 cf3d 387a c23d 20b4 bcbd
00000250: a5e2 333f eaa4 e3be ee62 a0bc 0990 ff3e
00000260: 9a13 14bf ce8a 2ebe 0961 163f 1184 f9be
00000270: 3687 663d
