pav_spkid_pytorch/lpcc_model_hsize_130_lr000125/e16_weights.ckpt (torch_old, 515082 bytes, 8 tensors)

0.weight f4 [130, 567]
000000 91 93 13 bc 09 e3 95 bc 5d c2 b9 3b 82 64 d9 bc
       -0.009007351 -0.018296735 0.005668922 -0.026537184
000010 54 18 2f bc 8a 34 52 bd bf b9 3c bb fd 4f 16 bc
       -0.010686953 -0.051319636 -0.0028797237 -0.009174344
000020 6d d1 db 3c e6 ca 7b 3c 1f 80 e7 3c e7 fb bf 3c
       0.02683326 0.015368199 0.028259335 0.023435546
000030 d1 89 d2 3b d0 5c 00 3d d2 d9 05 3c 05 38 44 bc
       0.0064251204 0.031338513 0.008169608 -0.011976247
000040 0f e6 b8 3c 83 83 95 3c a4 bb c8 3c b4 a5 8f ba
       0.022570638 0.018251186 0.024503537 -0.0010959418
000050 78 34 13 3d ab 4d ac 3c 46 98 a4 3b fa cf eb bb
       0.03593871 0.021033129 0.005023035 -0.0071964236
000060 77 e2 23 bd 52 4c dd 3c c9 68 a8 bc 3c 9f fb bc
       -0.040010896 0.027013931 -0.020557778 -0.030715577
000070 3f 23 f3 3c f6 72 64 bc 58 16 5d bd ad 53 91 3c
       0.029679893 -0.013943424 -0.053976387 0.017740095
000080 46 03 cc bc 76 7f 2a bd 1a df d3 bc c8 11 e7 bc
       -0.024903905 -0.041625462 -0.025863219 -0.028206721
000090 35 0e 0d bc de 5d 4f 3c bd c4 3e 3d d1 bf 9f bb
       -0.008609344 0.012656657 0.046574343 -0.004875161
0000a0 47 fd 57 bc d3 21 5d bc 91 1d 84 bc f0 e9 20 3d
       -0.013182945 -0.013496834 -0.01612738 0.0392856
0000b0 7e d9 fc 3c 3a 95 a4 3c a9 bd 12 3d eb aa 85 3b
       0.030865427 0.020090688 0.035825405 0.004079213
0000c0 04 e3 ab 3a e0 17 da 3c 46 5a 23 bd a5 12 ed 3c
       0.001311392 0.026622713 -0.039881013 0.028939554
0000d0 50 b8 ff 3c ea c2 29 3d c7 1b 2a 3b a5 28 a4 bc
       0.031215817 0.04144565 0.0025956498 -0.020038912
0000e0 f5 ed bf bb 75 46 19 bc 89 2d 85 ba 66 f3 41 3c
       -0.005857224 -0.009355177 -0.0010160665 0.011837816
0000f0 b6 7b b1 3c bb c0 eb 3b 68 19 5f 3c 5f ee 70 bc
       0.021665435 0.007194606 0.013616897 -0.01470527
000100 8c 06 3f 3c dc 4c 14 3d 82 af 4c 3d f7 78 91 bb
       0.011659276 0.03620611 0.049972065 -0.004439469
000110 9f fa 7d 3c d7 50 49 3b bb 3f db 3c d3 a9 32 bd
       0.015501647 0.003071835 0.026763787 -0.04361899
000120 1b 13 28 bd bf 7e b6 bc 6d e3 b9 bb c1 80 77 bc
       -0.041033845 -0.022277234 -0.005672863 -0.015106381
000130 0c 1f b7 3c 60 04 3a bd ca 56 cf 3c 69 1d 4b bd
       0.022353671 -0.04541433 0.025309939 -0.049588595
000140 41 29 2d 3d 3f 73 c8 3c 83 f6 99 bc 41 06 c5 3c
       0.04227567 0.024469016 -0.018794304 0.024050834
000150 3e 45 0e bd ab 5f 94 bc d9 0d 90 bb 1c e6 1d 3d
       -0.034734003 -0.018112024 -0.004396182 0.038549528
000160 d1 27 b0 3a 3d 3e 3f bc 7b be 03 bc cc 66 c8 3c
       0.0013439601 -0.011672554 -0.00804102 0.02446308
000170 5f 34 97 bc f7 98 47 bc d1 d3 de 3b 50 a5 ef bc
       -0.01845759 -0.012182466 0.006800153 -0.029253632
000180 e4 d8 ea 3b 05 42 e0 bc 40 30 68 bc b1 0b 28 3d
       0.0071669687 -0.02737523 -0.01417166 0.041026775
000190 0d be 9c bc bf e4 25 bd d2 21 88 3b 54 4f 9e bc
       -0.019133592 -0.040501352 0.0041544223 -0.019324936
0001a0 da ef c9 bc d9 c8 83 bc 77 c5 05 3d f0 b0 87 3b
       -0.024650503 -0.016086983 0.03265902 0.0041409656
0001b0 9a d3 c1 3c 15 c8 44 3d fc c8 b4 3b 3e 4e c5 bc
       0.02366047 0.048042376 0.0055171233 -0.02408516
0001c0 67 95 99 bc bf b3 de bc 1d 0e 94 3c 3c 6d 17 3d
       -0.018747998 -0.027185319 0.018073136 0.03696941
0001d0 bf 66 ab bc be 4c c2 bc 83 d2 18 3c 9f a4 ce bc
       -0.020923017 -0.023718234 0.009327534 -0.025224982
0001e0 71 10 fb bc bd 5b 14 bd 4b b4 43 3d eb 42 72 bc
       -0.030647488 -0.0362203 0.047779363 -0.014786462
0001f0 64 aa d0 bc c1 3b 77 bc 41 ec e7 bc d9 8c 95 3c
       -0.025471874 -0.01508993 -0.028310897 0.018255638
000200 bb 68 b7 bc 49 92 77 bc e5 8d 9f 3c 56 7b 1c 3d
       -0.022388807 -0.015110561 0.01947684 0.03820356
000210 b6 85 45 3c 0f 4a 11 3d 71 fd 08 3c 01 f4 d6 bc
       0.012055805 0.03547102 0.008361206 -0.026239397
000220 6c 8f d0 bc c4 d7 36 bc 74 e5 f7 bc fe c7 30 bb
       -0.025459014 -0.011159841 -0.030260779 -0.0026974673
000230 28 bb 01 bd 95 06 2d 3d 96 a1 c8 3c 46 ab 27 3d
       -0.031672627 0.042242605 0.024491113 0.040934823
000240 88 63 1d 3c f5 5f 0d 3c 01 12 c3 3c 85 d9 8e bb
       0.00960625 0.008628835 0.023812296 -0.0043594264
000250 92 51 5f 3c 47 b9 88 bc 5e 57 f0 bc f7 e0 f7 bc
       0.013630288 -0.01668991 -0.029338535 -0.030258639
000260 d3 c3 d7 bc e7 be dc 3c f1 2d c8 bc 3d 5f 0f bd
       -0.026338493 0.026946498 -0.02443597 -0.035002936
000270 17 39 ed bc cd 2d 9e bc 9b 10 4d 3b ed 83 c7 bc
       -0.028957887 -0.019308949 0.0031290415 -0.0243549
000280 ad 82 03 3d b9 3b 16 bd d7 4f c0 b8 3a a1 a6 bc
       0.032107044 -0.03667805 -9.170145e-05 -0.02034055
000290 0a 2a 93 3b 8d 56 c8 3c 6c db c8 bc d9 2e 30 3d
       0.0044910954 0.024455333 -0.024518691 0.043013427
0002a0 24 58 96 bc 71 83 dd bb b7 b9 12 3d a9 51 29 3c
       -0.018352576 -0.006760054 0.035821643 0.010334411
0002b0 c5 76 dc 3c d8 30 49 3c 01 32 18 3d eb 7a 8c 3b
       0.026912102 0.012279712 0.037157062 0.004287114
0002c0 94 44 3d 3c 48 de 0c 3d a8 f4 8b 3c d7 d5 d5 3a
       0.011551995 0.03439167 0.017084435 0.001631434
0002d0 2d 7c 2e bd 7f 66 19 3c 26 4d 15 3b 94 2f 1b 3c
       -0.042598892 0.009362816 0.002278158 0.009471793
0002e0 3e 11 f9 bc cf de 00 bd 6d 31 6e bc 3c fa 07 bb
       -0.03040373 -0.031462487 -0.014538151 -0.0020748517
0002f0 cc 28 18 bd c0 f2 29 bd 0f ac 1a 3d 87 d5 c5 3c
       -0.037148282 -0.04149127 0.037761744 0.02414967
000300 c2 4b 35 3c cd 07 6c 3d f0 6b 8f bc ef b8 9a 3c
       0.011065425 0.057624627 -0.017507523 0.018887011
000310 16 88 d1 3c 9d b0 29 3d 8d 2d c9 3b 16 49 03 3d
       0.025577586 0.041428197 0.0061394633 0.032052122
000320 49 15 60 bc 4c 7f 60 3c aa db 54 3b cc 66 1f 3a
       -0.01367695 0.013702225 0.0032479563 0.00060806866
000330 a0 23 3a 3d e0 af ae 3c 7f a8 52 bc 6c 50 85 3b
       0.04544413 0.021324098 -0.012857555 0.004068425
000340 7a 77 03 bd 66 55 cb bb 6a d6 d2 bc ea be 32 3d
       -0.032096364 -0.0062052486 -0.025737006 0.0436391
000350 ab 87 f9 3c 77 5f 30 bc 65 19 8b 3c bb 7a 05 3d
       0.0304602 -0.010764948 0.016979882 0.032587748
000360 6b 03 ed bc d7 a9 0a bb 69 8c 2b 3d bf a2 00 bc
       -0.028932294 -0.0021158361 0.041881952 -0.007851302
000370 0e 96 4b 3d d7 43 0d bd 16 d7 83 3c db c0 29 3d
       0.04970365 -0.034488525 0.016093772 0.041443687
000380 b8 c5 02 3d f1 6c 19 3c d3 9f 5a bb 34 f7 1d bd
       0.03192684 0.009364353 -0.0033359423 -0.03856583
000390 5f 87 0f bd 5c c2 16 bd 3f 4d 16 bc da f9 b0 bc
       -0.03504121 -0.03680645 -0.00917369 -0.021603514
0003a0 ba 0c 49 bc 32 af 3b bd 62 e7 2e 3d 84 cc 03 3d
       -0.012271101 -0.045821376 0.042701133 0.032177463
0003b0 62 82 a8 3c 55 4e eb bb 42 f0 ad 3c 2b 75 e5 bc
       0.020569984 -0.0071809688 0.021232728 -0.028009972
0003c0 e1 76 42 3c d7 25 7c 3c 90 e5 de bc 13 dd 84 bc
       0.011869163 0.015389881 -0.027209073 -0.016218698
0003d0 15 01 80 bb 97 03 1e 3d 48 50 c1 bc 59 d6 bb bc
       -0.003906379 0.038577642 -0.023597851 -0.022929357
0003e0 07 03 35 bc ec f3 02 bd 8d 3d fb bb 54 8a 2b 3d
       -0.011048085 -0.031970903 -0.0076672495 0.041879967
0003f0 b1 10 e4 bc 76 ba 2a bc e2 79 ac 3c 81 48 75 3c
       -0.02783999 -0.010420432 0.021054212 0.0149709

0.bias f4 [130]
000000 d7 0e af bb 79 b0 97 bb 4c 55 59 3e 1b 74 83 3e
       -0.005342345 -0.0046291915 0.21223944 0.2567452
000010 7f 53 0c 3f 8d aa db 3e 87 18 5f bc 67 f0 ad 3b
       0.54814905 0.42903557 -0.013616688 0.005308199
000020 28 94 09 3c 43 c5 80 3a f0 13 27 3c da a2 a6 3c
       0.00839714 0.0009824414 0.010197625 0.020341326
000030 81 da 8f 3e 2f 49 ca 3e 35 cf 8c bc 20 ef 4c bd
       0.28096393 0.3950896 -0.017188648 -0.050032735
000040 80 30 4d bb c4 e9 fc bb a2 e6 63 bf 34 d7 b2 be
       -0.0031309426 -0.0077182967 -0.8902379 -0.34929812
000050 6c 60 0a bd 48 d6 eb bc 2b 31 b2 3c 7b 49 21 be
       -0.03378336 -0.0287887 0.02175196 -0.15750687
000060 30 9d a1 3e 0d c8 68 3e e5 81 79 3e ff 19 a0 3e
       0.31565237 0.22732563 0.24365957 0.31269833
000070 04 d2 3b be 84 71 e9 3e f8 79 1d bd 64 fc 60 be
       -0.18341833 0.45594418 -0.038446397 -0.2197128
000080 f0 09 c8 39 5d e5 ac bd 24 1b d9 be dc d3 f7 3e
       0.00038154377 -0.08442185 -0.4240352 0.48403823
000090 98 f6 c9 be 0a 71 03 be e1 3c cf bc 7e 8c 51 3e
       -0.3944595 -0.1283609 -0.025297584 0.2046375
0000a0 ee 3c 46 bf 2f 69 d6 3c 61 ab 62 be 01 45 db 3d
       -0.7743672 0.026173202 -0.22135688 0.10706521
0000b0 18 91 f0 3e 1a 66 b7 3e 20 2f 15 bd 54 85 fb bb
       0.46985698 0.35820085 -0.036421895 -0.007675806
0000c0 1e e9 57 be 6f 5b a5 bd de 42 c7 be 23 c1 85 bc
       -0.21085021 -0.0807408 -0.38918203 -0.016327446
0000d0 b7 bc af 3c 2b 94 6c be 48 a9 b0 bc 30 6c 5e bf
       0.021452291 -0.23103397 -0.021565095 -0.8688383
0000e0 3c bf c6 3e 74 fa 88 bc 4b 60 c4 bd 81 0e 01 be
       0.38817775 -0.016720988 -0.09588679 -0.12603189
0000f0 f0 06 23 bb 1b bb 2a be 6e 00 de be 6a 98 05 3d
       -0.0024875961 -0.16672938 -0.43359703 0.032616057
000100 6e e7 d7 3e 64 42 63 bc 47 14 29 b7 f8 4d fa 3d
       0.42168754 -0.013870809 -1.0077906e-05 0.122219026
000110 00 88 94 3b 38 bd 79 bf 50 2a cc 3b bc 4a e5 bc
       0.004532814 -0.9755435 0.00623063 -0.027989738
000120 12 67 80 3e 85 d9 53 3a e0 4d 95 3c 5d da 36 be
       0.25078636 0.0008081424 0.01822561 -0.17856736
000130 07 da fd be 4d eb 1c 3f 5e ed 7e bf 28 6b aa be
       -0.49580404 0.6129654 -0.99580944 -0.3328488
000140 0a 2e 19 3e 75 39 85 bc 84 8a 4e bc 7b 1e 05 bd
       0.14958969 -0.01626275 -0.012606267 -0.03249977
000150 d7 e6 de 3c 6e 71 6a bc 3b 96 05 3d c0 58 0b 3f
       0.027209682 -0.01430927 0.032613974 0.54432297
000160 d8 7c 3c bc 17 f7 1e 3e 74 78 15 be 87 ed 85 bd
       -0.011504374 0.15523945 -0.1459673 -0.06539445
000170 be 21 1c 3c d8 07 d1 bb 06 97 94 bb cb 8e e9 bc
       0.009529529 -0.006379109 -0.004534605 -0.028510472
000180 58 0b 12 3c 71 bb 75 3e ec d0 c4 bd a0 40 a2 bc
       0.008913837 0.23997284 -0.09610161 -0.019806206
000190 30 b8 d2 3b f8 4a ba be 77 09 b5 be 4b ff be 3e
       0.0064306483 -0.36385322 -0.35358784 0.37304148
0001a0 f8 ee b9 bc b4 84 f1 3d 48 0d 07 3e a7 af 70 3e
       -0.022696957 0.11792889 0.1318866 0.23504506
0001b0 1c 0f c4 3e 1e 9b 1f bf 3a 89 e5 be ce 82 03 bf
       0.38292778 -0.62346065 -0.44831258 -0.5137147
0001c0 5d 4c 62 bf 85 f2 f1 be 82 f9 da 3d a8 10 0d bf
       -0.8839777 -0.4725534 0.10692121 -0.5510354
0001d0 d7 aa f0 bd 8f a6 05 bd 3a 64 a6 bd 08 0b ec bc
       -0.11751335 -0.032629546 -0.081245854 -0.028813854
0001e0 9a 3d 9b bd 72 e1 3b 3f 9f e6 dd bb 6d a5 ee bc
       -0.07580109 0.7339088 -0.006771877 -0.029131616
0001f0 d5 c5 1e bf e2 31 52 3d e1 4d 03 bc 8d 3c a0 be
       -0.6202062 0.051317103 -0.008014173 -0.31296197
000200 ad 2f 64 3d f6 3e 5a be
       0.05570953 -0.2131308

2.weight f4 [130, 130]
000000 75 05 c1 3d 20 4d 40 3c 8d 31 31 3e 9a e4 c0 bd
       0.09424869 0.011737138 0.17304058 -0.09418602
000010 8a e9 72 3e b7 e9 83 bd 78 bc 61 bd 5a 6f 89 3d
       0.237219 -0.06441062 -0.05511138 0.06710692
000020 a2 94 cf bd b6 7c 51 bd 1f 79 99 bd b0 ef c2 bc
       -0.10135771 -0.051144324 -0.07493805 -0.023795933
000030 52 ca da 3d cb 17 14 3d 2d 7e 9d 3d fe b1 2e 3d
       0.10683121 0.036155503 0.07690082 0.042650215
000040 13 0c 6f bd 43 c2 ae 3d 8a 16 21 bd 9b 17 4d be
       -0.058361124 0.08533146 -0.039328136 -0.20028536
000050 e8 55 0e bc 40 4c ca 3c a0 2f 48 3c 78 ac cc bc
       -0.008687474 0.024694562 0.012218386 -0.024984583
000060 ee 4f 06 3d ff 87 8e 3d 41 8d 39 bc bf ee 81 3d
       0.03279107 0.06959533 -0.011325181 0.06344365
000070 34 fa 8f bd b6 7d 9b be 06 13 8b bc 59 ac e5 bd
       -0.07030144 -0.30369347 -0.016976845 -0.11214513
000080 e8 34 6c bd 4a 85 7a 3d 10 2f 1c bd 8b 20 f4 bd
       -0.057667643 0.06116227 -0.03813082 -0.119202696
000090 df 72 90 3e 4a e3 55 3e c0 1b 74 3b fe 9d 4a 3d
       0.2821264 0.20887485 0.0037247986 0.04946708
0000a0 6d 9d 0b 3d db 07 8a bd 96 b7 a3 bc 57 f5 8d be
       0.03408568 -0.067397796 -0.019985002 -0.27726242
0000b0 9a c9 8b bd fe 5c 43 3e b0 86 72 bd 3a 81 68 3d
       -0.06825562 0.19078442 -0.05921048 0.056763865
0000c0 b2 9c cd bc ce a0 dc 3d 78 25 90 3e 1a 76 9a 3d
       -0.025099132 0.107728586 0.28153586 0.07542057
0000d0 af bd 80 3e d7 91 99 3d aa 3c 59 3c cf 61 b2 3d
       0.25144717 0.0749852 0.013259092 0.08710062
0000e0 e0 80 69 bc 45 1b 97 bd 82 02 54 3e 0c 58 81 be
       -0.014251918 -0.07378248 0.20704082 -0.25262487
0000f0 5d 7f 8e 3d fd 5b bc 3d 02 7b ca 3d f1 8a 36 3e
       0.06957886 0.09197233 0.09886743 0.1782644
000100 6c 7b 56 bd be 2f aa be 99 45 77 3d 26 b7 46 3d
       -0.052363798 -0.3323955 0.060369108 0.048514508
000110 7d a9 96 bd d9 0b de 3d 14 ee e0 bc 77 80 a0 bd
       -0.07356546 0.108421035 -0.027457274 -0.07837003
000120 3e 0a 02 be e1 fe bb 3d 87 ad 84 3d e2 5f 30 be
       -0.1269922 0.09179474 0.0647841 -0.17224076
000130 46 8c 83 be 54 3c b1 3c 4c 88 e4 3d a7 a3 28 bc
       -0.25692958 0.021635212 0.11158809 -0.010292924
000140 d6 2c 45 3e 1b c6 92 bd c0 b8 8e bd e8 bf fb bc
       0.19255385 -0.07166692 -0.06968832 -0.030731156
000150 37 7a 2d bb a6 a7 3b bd 40 a1 c9 3b e0 02 2f 3e
       -0.002647055 -0.04581418 0.0061532557 0.1709094
000160 f0 f2 5f bd 1d ff 11 3e 20 d5 2d be da 73 83 bd
       -0.054675043 0.14257474 -0.16975832 -0.06418581
000170 17 d9 e9 3c bd 26 97 3d 2a 8b 21 3d 3a 2f a9 bc
       0.0285459 0.073804356 0.039439358 -0.020652402
000180 a4 70 9b bc 1e 7c 29 be fa 2b 46 3d 84 f2 10 bd
       -0.01897461 -0.16551253 0.048381783 -0.03538753
000190 df 26 a0 3d c5 b2 30 be ad a5 7c be e9 e1 ed 3d
       0.07819914 -0.17255695 -0.24672575 0.116153546
0001a0 25 2b 31 bd 63 97 37 3d c4 4b a7 bd 6a b0 60 be
       -0.043254036 0.044822108 -0.08168748 -0.21942297
0001b0 02 8a b6 3e 7b 1b 68 be c6 77 38 be 71 57 08 3d
       0.35652167 -0.22666733 -0.1801444 0.033286516
0001c0 61 f8 b1 bd 00 81 94 3e 6c 1d 88 3e 1f 7c 02 be
       -0.08689953 0.2900467 0.26584947 -0.12742661
0001d0 01 53 a9 bc 00 87 93 3c 03 5f dd 3d 14 10 42 3d
       -0.020669462 0.018008709 0.10809138 0.047378615
0001e0 90 85 8a 3d cd bc 54 3e f9 72 b5 3d 02 69 b5 bd
       0.06763756 0.20775147 0.0885982 -0.08857919
0001f0 ec 22 f0 3d 4d 37 81 be a9 ef 30 bd 0f 08 a1 bc
       0.11725411 -0.25237504 -0.043197308 -0.019657163
000200 84 b4 3e be 2a b0 c9 3d 77 97 67 bd 27 2c 81 bc
       -0.18623549 0.09848054 -0.056540933 -0.015768124
000210 8f 2d 08 3d b3 6b 14 3c 6f 25 4b be 32 2e 11 be
       0.033246573 0.009058881 -0.19838499 -0.14177778
000220 a3 dd 8f 3a e2 cc 93 bd 2d 29 0a bc 5f 95 0e 3d
       0.0010976087 -0.07216813 -0.008432669 0.03481042
000230 f3 aa 94 bd 1f 8b b1 bd b8 5e 93 3e 3f 3d 25 be
       -0.072591685 -0.08669113 0.28783202 -0.16136645
000240 5b 7d 81 bc 1f c6 3b bd 66 3b 2f bd 91 78 39 3d
       -0.015806844 -0.04584324 -0.042781256 0.045280997
000250 8c 19 58 3c de 2b c8 3d ae 8d ae 3c a3 37 18 3d
       0.013189685 0.09773992 0.021307793 0.037162434
000260 69 ee 46 bd 24 c8 c1 bd 84 40 9a bb 16 9a 69 3d
       -0.04856721 -0.09462002 -0.004707398 0.057031713
000270 ea e2 d0 3d 0f f7 8f 3d b3 b7 ae bc f1 56 f4 bd
       0.101995304 0.070295446 -0.021327829 -0.11930645
000280 5c 81 f0 bc 3e 0e e5 3c 8b e2 e1 3d 5b ee c2 3d
       -0.029358558 0.027960893 0.11029538 0.09518119
000290 f9 cb 5e 3d 69 93 ab bc 10 b7 96 3b 7c 5a 8f 3d
       0.054393742 -0.020944314 0.0045994595 0.069996804
0002a0 0c 06 18 3d b7 95 90 3d 88 a5 39 3e 39 8a ac 3c
       0.03711514 0.07059806 0.18129551 0.021062003
0002b0 7f b9 ce bc 3e 58 83 bd ff 10 d3 3d a5 fb 24 3e
       -0.025234936 -0.06413315 0.10305976 0.1611162
0002c0 a5 b0 1c 3d d8 ea bb 3c 0f f0 3f 3e 97 8b 26 3c
       0.0382544 0.02293913 0.18743919 0.010165117
0002d0 ea 65 74 bd 5f 36 48 3d 61 bc d7 3d ec 8f 00 be
       -0.059667505 0.048879977 0.10533977 -0.12554902
0002e0 60 69 d9 bc 4d fc 8b 3d 8e 7c 9c ba 55 1c 27 bc
       -0.026539505 0.06835232 -0.0011938976 -0.010199626
0002f0 70 9c 46 3e 38 df 32 3d 1b bc 80 3d 56 05 6d 3d
       0.19395614 0.04366991 0.06285878 0.057866417
000300 c7 c1 00 be 71 2e c7 be 2e 89 8c 3d 15 f2 26 be
       -0.1257392 -0.3890262 0.068621024 -0.16303284
000310 37 6d a4 3d 9a 23 af bd e6 94 36 3d 7d 5b 39 3b
       0.080286436 -0.08551712 0.044575594 0.002828329
000320 c5 cc 9d 3d dc b6 d4 bc 1d ff ac bd db d4 7e 3d
       0.07705072 -0.0259661 -0.084470965 0.062214714
000330 2c d3 48 bd 75 40 55 3d 4d 4f 29 3e c2 04 28 3d
       -0.049029514 0.052063424 0.16534157 0.041020162
000340 ef 8b 4f be 64 15 9c bd 45 e0 40 3d 6c 0a e5 bc
       -0.20268224 -0.076212674 0.04708888 -0.027959071
000350 15 bd 98 3c e3 59 8c 3d e5 31 1c 3d a6 29 49 bd
       0.018644849 0.06853082 0.03813352 -0.049111985
000360 dc 28 01 bd 4f a4 bc bd 75 25 af bd fc e6 11 3e
       -0.031533107 -0.09211027 -0.08552066 0.1424827
000370 00 22 59 3d 22 01 10 3e 1d 96 8c 3d 3a aa 71 3d
       0.05301094 0.14062932 0.06864569 0.05900023
000380 c4 89 c6 3c a8 2e 8e bd 9b 26 9b bd c5 66 9f be
       0.024235614 -0.06942493 -0.07575723 -0.31133094
000390 f5 4b 1f be 58 38 83 3d 67 65 9c bd ba 12 ed 3d
       -0.15556319 0.06407231 -0.076365285 0.115758374
0003a0 7e 96 3b be 42 66 17 bd 4e 45 98 3d 7e 2e 98 be
       -0.18319127 -0.036962755 0.07435094 -0.2972297
0003b0 77 f2 88 bd 6e f5 69 3d 5c ef bb 3c 1e 70 6b bd
       -0.066868715 0.057118826 0.022941284 -0.05747997
0003c0 2c 57 d1 3c ba 6d 06 be ba f0 fd 3d f4 5c 3c be
       0.025554262 -0.13127795 0.123994306 -0.18394834
0003d0 cf 33 20 3e d0 14 cc bd 5a da be 3d b2 0d b0 bd
       0.15644763 -0.09964907 0.09318991 -0.08596362
0003e0 bb 8e db be 67 2c ac bd 62 f4 f0 3c 72 d0 11 3e
       -0.42882332 -0.084069066 0.029413406 0.14239672
0003f0 0a 33 1c 3d db f1 a8 3c 4a 22 de 3c 00 fc 66 be
       0.038134612 0.020623138 0.02711596 -0.22557068

2.bias f4 [130]
000000 c5 ef 79 3c a6 03 be bc 44 c1 50 3f a7 ad 06 be
       0.015254919 -0.0231951 0.815449 -0.1315218
000010 8c 88 ea be 15 5b 6e bd 24 f5 e2 bd bf 29 bb 3d
       -0.45807302 -0.05819233 -0.11081913 0.09138822
000020 f8 d6 60 3e 52 a1 be be 18 82 28 bf d1 0c 7f 3b
       0.21957004 -0.37232453 -0.6582351 0.0038917551
000030 62 f8 56 bd 9f 2f 2c be c0 7f 19 be 79 f3 de 3e
       -0.05248297 -0.16815041 -0.14990139 0.4354513
000040 77 2e 12 3e ef 66 db bd b6 1f a8 bd f0 38 72 3e
       0.14275537 -0.107129924 -0.082091734 0.23654532
000050 d3 02 0b bd 4c c2 88 be 37 17 33 3d 05 53 60 bd
       -0.03393824 -0.26710737 0.04372331 -0.054766674
000060 bc 3f 1f bd 95 b8 24 bf a6 1c e9 be 71 ab 0c bf
       -0.03887914 -0.6434415 -0.4552967 -0.549491
000070 64 ff a4 3d d8 e1 9e bb 86 78 66 3f fc 25 a1 bd
       0.080565244 -0.0048487 0.90027654 -0.07868573
000080 4b c5 31 be 26 e3 03 be b8 a5 b4 bd 84 ad ca 3d
       -0.17360418 -0.12879619 -0.08820671 0.09896377
000090 ab bb b9 be 39 64 55 be d1 27 32 be 19 68 20 be
       -0.36275992 -0.20839013 -0.17398001 -0.1566471
0000a0 6c 79 a3 bc 00 72 19 3f b8 81 16 bf 08 56 52 be
       -0.01995536 0.59939575 -0.58791685 -0.20540631
0000b0 b3 fc 31 bd 2c 7c 21 b9 e2 2a cd 3e a6 4a 69 3e
       -0.043453883 -0.00015400414 0.4007178 0.22782382
0000c0 40 80 e3 3d a7 b8 ab 3e 72 38 2e bf e6 3d 4d 3e
       0.11108446 0.33539316 -0.6805488 0.20043144
0000d0 c2 8e 0e be 3c 20 8a 3b ab 5b b3 be 03 78 49 3e
       -0.13921645 0.0042152684 -0.35030875 0.19674687
0000e0 55 5b b0 bd bf 45 14 3e 6c 3c 87 3f 81 b7 85 3d
       -0.0861117 0.14479731 1.0565314 0.06529141
0000f0 6b f6 93 bc 90 9a 6d bc 6d 61 b5 bc 32 0a a1 3d
       -0.018061837 -0.014502183 -0.022141183 0.07863273
000100 c9 03 03 bf fb df ab 3e 5b 34 c1 bd 2d 5b b9 bd
       -0.5117765 0.3356932 -0.09433814 -0.090505935
000110 10 aa a4 be 05 c8 05 3f bb 52 b4 3d d1 ab dc bd
       -0.32160997 0.5225833 0.08804842 -0.10774959
000120 24 5d 7f 3e cb c9 06 bf f7 ba 8b bd 7b a2 0d bf
       0.24937874 -0.5265166 -0.0682277 -0.5532605
000130 39 f1 a9 bd e8 6d 98 be c6 1b 88 3d bd dc 8d 3c
       -0.08297963 -0.29771352 0.06645922 0.01731717
000140 55 85 33 3e a2 e6 9d bd 7a 49 9d 3e e5 03 1d 3f
       0.17531331 -0.07710005 0.3072012 0.6133407
000150 4f ab dc 3e bf 46 49 3f 30 c4 0b bf 1e c6 07 bf
       0.43099448 0.78623575 -0.54596233 -0.5303668
000160 7e 40 3d 3d fa 8d 5b 3f f4 68 f4 be d9 4b be bd
       0.046204083 0.85763514 -0.47736323 -0.092918105
000170 1b 2c a8 3f a1 22 48 bd f1 a7 bf be 81 f7 54 3d
       1.313846 -0.04886115 -0.37432817 0.05199385
000180 41 e3 cf be 4e 2b e2 3e 9e 64 ad be fd 14 3c be
       -0.40603068 0.44173664 -0.33865827 -0.18367381
000190 2f fa ec bd 3f e9 04 bf 69 76 05 3f 12 f4 a8 3e
       -0.11571156 -0.51918405 0.52133805 0.3299871
0001a0 ef 5b 2a 3f d1 41 5c 3b 85 9d c1 bd 92 67 ae bd
       0.6654653 0.0033608566 -0.094538726 -0.08515848
0001b0 9c a8 68 be 9b 87 41 3d 30 b6 e7 bd fa 91 c4 bd
       -0.2272057 0.047248464 -0.113140464 -0.09598155
0001c0 8d f7 9b 3c ab 5d a2 be 93 32 e4 be 90 5f bf bd
       0.01903894 -0.31712088 -0.44569835 -0.09344399
0001d0 84 1a 5b 3e 7f 7d 9b bd 5a 4e fb bd c3 d6 dc bd
       0.21396834 -0.07592296 -0.12270804 -0.1078315
0001e0 38 e7 fb bd e3 12 fc bd 21 81 bc 3e 7f 00 d5 bd
       -0.12299961 -0.1230829 0.36817268 -0.10400485
0001f0 51 a2 ac 3e b6 a5 cf be 9f 12 06 bf 91 79 1f 3d
       0.33717588 -0.40556115 -0.52372164 0.038934294
000200 a2 18 06 bf 9e 59 4e 3e
       -0.52381337 0.20151374

4.weight f4 [130, 130]
000000 e5 6b 3c 3c 32 9c 78 3c ad f6 62 3b 96 19 86 3d
       0.011500333 0.015173959 0.0034631894 0.06547849
000010 2e 06 84 3e 94 de d7 bc 1f f1 f0 ba a0 31 0d 3e
       0.25785965 -0.02635125 -0.0018382407 0.13788462
000020 a6 79 f4 bd b8 f0 47 3d d0 f3 61 be a7 21 e1 bd
       -0.11937265 0.04881355 -0.22065663 -0.10992747
000030 73 59 72 bc 8b 1b 09 3e 90 41 89 be b7 ac bf 3d
       -0.014791834 0.13389413 -0.26807833 0.093591146
000040 4a c5 ba be 1e e0 b0 bd a8 37 1d bd 7c 83 11 3d
       -0.36478645 -0.08636497 -0.038383156 0.035525784
000050 38 93 1d bd a9 95 98 bd ab 10 a2 bd 41 56 02 3e
       -0.038470477 -0.074504204 -0.079133354 0.12728216
000060 34 8c 9f bd 4e be 05 3d 7f 75 81 be 87 a6 de 3d
       -0.077904135 0.03265219 -0.25284955 0.10871606
000070 8b 80 d0 3e 54 78 92 3e 90 1a 84 bd 93 ef fd bd
       0.4072307 0.28607428 -0.06450379 -0.12399211
000080 24 82 30 be f4 a4 bd bd d7 9b 99 bc b9 2c c9 3e
       -0.17237145 -0.09259978 -0.018751068 0.39291933
000090 c0 c1 db bd b5 93 a8 be a0 2c fe 3d 0e a9 c3 bd
       -0.10730314 -0.32925192 0.12410855 -0.09553729
0000a0 42 61 4e 3e 07 1e e0 3d 4e c5 99 3c ff f4 bb be
       0.20154288 0.10943227 0.01877084 -0.36710355
0000b0 a9 95 fe 3c fb e7 a8 3d 50 7f d0 bc bc 67 93 3d
       0.031077223 0.08247372 -0.025451332 0.0719752
0000c0 a2 84 a7 bd 39 20 ff 3d 06 eb ff bb 02 df 82 be
       -0.081795946 0.12457318 -0.0078099994 -0.25560766
0000d0 a2 55 ce 3d bf 57 44 3d 0b f4 10 bd c6 ba ae 3d
       0.10074927 0.047935244 -0.035388988 0.08531718
0000e0 7c f0 9f 3e ec 4f e7 bc d6 53 03 bd cd de af 3d
       0.31238163 -0.028236352 -0.032062374 0.08587418
0000f0 f2 0e e6 3b 3a 18 53 bd d2 1f a5 bd 2b 4a a3 bb
       0.0070208246 -0.051536776 -0.0806271 -0.0049832067
000100 9c de 15 3e 5f 2e 9b 3e de f7 ac 3d 6d 9f b6 3c
       0.146357 0.30308816 0.084457144 0.022292817
000110 07 e7 66 3e ad d2 86 be f3 77 2e 3d a7 a5 96 bd
       0.22549067 -0.26332608 0.04259486 -0.073558144
000120 19 f1 14 3e 49 ba f5 bd 37 b2 2e 3e 43 05 3b be
       0.14545096 -0.11998422 0.17060171 -0.18263726
000130 99 69 3d 3e 35 fd fd bd 0d ca 9b 3e 3a 4c bf 3d
       0.18497314 -0.12401811 0.3042759 0.09340711
000140 e0 9a ba be 62 7d 91 bc 4d 29 6d 3e 17 81 cd 3d
       -0.36446285 -0.017759982 0.23160286 0.100343876
000150 e9 f3 c8 3d 69 41 53 be 9a d5 5b 3e 6d 8e 3f be
       0.09812147 -0.2063042 0.21468201 -0.18706675
000160 94 9f bc 3d 22 40 8b 3e c2 e3 e7 be 0c de 3a bc
       0.092101246 0.27197367 -0.45290953 -0.011405479
000170 05 fe bf 3c bb ed f4 3b 9a d0 7d 3d 1e 7f 5f 3e
       0.023436556 0.0074746287 0.061966516 0.21825835
000180 43 dd 4e 3d 66 7f 0f bc be 06 8d 3d 9e a5 2f 3d
       0.05050398 -0.0087584015 0.068860516 0.042882554
000190 e4 0b 65 bd 0e b3 ca 3b 6b b1 90 be 23 e4 05 3e
       -0.055919543 0.0061858958 -0.2826036 0.13075309
0001a0 be 47 30 3e 77 5c ea bd 06 96 de bd 9c da c0 3d
       0.17214867 -0.114434175 -0.108684584 0.094166964
0001b0 40 84 5d 3c e9 85 a6 bc 87 b0 0b bd d8 cf c8 3e
       0.0135203 -0.020327525 -0.034103896 0.39221072
0001c0 6e ea 16 3d 91 61 cc 3d 07 72 20 3e c8 cb 18 3c
       0.036844663 0.09979547 0.15668498 0.009325929
0001d0 c3 4a 27 3d d1 a3 ec bd 5a 91 32 3d 6b 63 e1 3b
       0.040842783 -0.11554683 0.04359565 0.0068783066
0001e0 83 09 02 3e c6 a9 30 ba 30 02 46 be f7 7c 3b bd
       0.12698941 -0.00067391654 -0.19336772 -0.045773473
0001f0 1b 7c d6 bd d6 85 90 3e 5f 28 29 be 1a 00 5e 3e
       -0.1047289 0.2822711 -0.16519307 0.21679726
000200 60 a5 74 bd 7a dc bc be a0 48 05 3a ea 2f aa bd
       -0.059728026 -0.3688696 0.00050843693 -0.0830992
000210 ac 04 cc 3e d7 bc f6 bd 9b 24 a0 3e 9c e5 28 3c
       0.39847314 -0.12047737 0.31277928 0.010308649
000220 75 1f 81 bd 99 03 0c 3e 20 22 99 bd 22 92 49 3e
       -0.06304828 0.13673247 -0.07477212 0.19684651
000230 c0 0a 20 3e fa 0c 81 be 7d ad 10 bd 1d 77 67 3e
       0.15629101 -0.25205213 -0.0353217 0.22604032
000240 78 4f 19 bc 49 4f f5 bd 58 ce 99 3d ef 94 40 bc
       -0.009357326 -0.11978013 0.0751006 -0.011754259
000250 48 63 3e 3e d2 3a d7 3d 0b e4 a7 3d 91 48 6a bd
       0.1859256 0.10509266 0.081977926 -0.05719811
000260 fc dd 70 3d 9d 4c 03 3d c5 82 58 bd 60 58 28 bd
       0.05880545 0.032055486 -0.052859087 -0.041099906
000270 4a ad ed 3c 20 f0 2f be 2e 1a bc bd de e4 0e bd
       0.029013295 -0.17181444 -0.09184681 -0.034886234
000280 2c a1 7d 3b 44 1d cc bb 47 d4 30 3e 55 d1 ad bd
       0.0038700802 -0.0062290747 0.17268477 -0.084871925
000290 35 85 54 3d be d8 e2 3e 0e 2f 95 bd 7b 3e bc bd
       0.05188485 0.44305986 -0.072843656 -0.09191605
0002a0 a5 3e 40 3d 6c d1 ac bd 47 6d 19 be e8 57 15 be
       0.046934742 -0.084383816 -0.14983092 -0.14584315
0002b0 23 32 ba 3d 55 4d 98 bc 80 fa 29 bd f4 4c 75 3d
       0.09091594 -0.018591562 -0.04149866 0.05988784
0002c0 99 24 b9 3d bc 8a 60 be f7 3a 04 bd 36 66 a0 bd
       0.090401836 -0.21927923 -0.032282796 -0.07831995
0002d0 d7 54 4f 3d 33 07 61 3d 81 37 14 3e 7d 9e f9 3c
       0.05061802 0.054938506 0.14474298 0.03047108
0002e0 87 a5 90 bd 04 6a 27 3d f0 eb b0 bd a0 3a 8c 3d
       -0.07062822 0.04087259 -0.086387515 0.06847119
0002f0 8d 85 1c 3e 47 03 32 3c 37 00 bb bb 0c 0f af bd
       0.1528532 0.010865039 -0.0057068127 -0.08547792
000300 20 b3 94 3d 5b ca 86 bd 82 05 8e 3d 23 be a8 be
       0.07260728 -0.06581565 0.06934644 -0.32957563
000310 ea ac 4f bc c2 a0 ab 3d b7 52 a0 be 13 d1 85 3e
       -0.012675503 0.083802715 -0.31313106 0.26136073
000320 95 92 f0 bc f6 b2 d0 bb 14 86 d4 bd 7c 2e c3 3d
       -0.02936677 -0.00636899 -0.10377136 0.095303506
000330 0b 45 32 3e c8 07 ed be 1c c7 10 be 7d 19 27 bd
       0.1740915 -0.46295 -0.14138454 -0.040795792
000340 60 63 31 3d a5 40 d4 bc e7 1e 81 3d 9a e4 9a bd
       0.043307662 -0.025909731 0.06304722 -0.075631335
000350 89 22 5e be fc 5c 8f 3d ae 4a 57 3d b8 0e bb 3e
       -0.21692862 0.07000157 0.052561454 0.36534667
000360 3f 6d 29 bd 6e b6 06 be be 16 7c be c7 81 bb 3e
       -0.04136395 -0.13155529 -0.2461805 0.3662245
000370 e5 0a a0 3d ee c3 9f 3d 9c 63 07 bf 8d 07 c0 3d
       0.07814578 0.078010425 -0.52886367 0.0937644
000380 54 b3 27 3e 29 d4 cd 3e 16 c8 1c 3d 75 2a 55 be
       0.16377002 0.40200928 0.038276754 -0.20816977
000390 a5 79 96 bd 85 f9 78 be 72 10 0f bd 1a d4 92 bd
       -0.073474206 -0.24313934 -0.034927793 -0.071693614
0003a0 61 88 69 3e 15 1f 09 be a5 cf 48 bc 48 0d af 3d
       0.2280593 -0.13390763 -0.012256538 0.08547455
0003b0 3a f6 bc 3e 06 ea 0f 3e 46 ce 92 bd 90 4f 98 bd
       0.36906606 0.14054117 -0.0716825 -0.0743705
0003c0 7b eb 91 3d 9f 74 d4 ba b7 62 04 bd 1d 6d 97 3e
       0.071249925 -0.0016209072 -0.032320704 0.29575434
0003d0 1b 94 0e be dd 98 21 be 23 b7 c7 bd 50 46 07 be
       -0.13923685 -0.15780969 -0.097517274 -0.13210416
0003e0 cd d3 d9 3c b4 8b 3a 3d bd a6 ad 3d 56 b3 97 3c
       0.026590252 0.045543388 0.084790684 0.018518131
0003f0 19 c0 e8 bd 87 ca e4 bb ca 9e 53 3e 55 bc 4c 3e
       -0.11364765 -0.006982151 0.20666042 0.19993718

4.bias f4 [130]
000000 a8 68 2c 3e be f1 8e 3e 7b bb 0d be 87 94 e4 3e
       0.16836798 0.2791881 -0.1384105 0.44644567
000010 1e 20 48 be 3f de 1e bd a0 bf 34 3d 34 c2 e9 3d
       -0.19543502 -0.03878617 0.04412806 0.114139944
000020 3d d4 9b bc f2 86 37 bf 40 26 a4 bd 44 a7 26 bc
       -0.019022102 -0.71690285 -0.08015108 -0.010171715
000030 85 cb 26 3e 45 fd 93 3e 2f 0e 41 3e 7c 0e 89 be
       0.16288574 0.28904167 0.18853067 -0.26768863
000040 ee f8 1a be bf 10 8a 3d f0 39 e2 be 50 e2 c8 bc
       -0.15134022 0.06741475 -0.44184828 -0.024521977
000050 76 d4 04 3f 69 2b ba bb 8d 00 bf be ca 98 89 3e
       0.5188669 -0.0056814444 -0.37305108 0.2687438
000060 94 b8 1e be 7a b5 af 3d bd ee 5f bc 7b f9 b3 3d
       -0.15500098 0.08579536 -0.0136677595 0.08787819
000070 eb 1a 7a 3e 05 37 2c be 92 06 95 be 71 ca 9d 3d
       0.24424331 -0.16817863 -0.29106575 0.07704628
000080 b8 6f a5 bd 8a e5 7d be 31 85 1e 3f 04 81 0c bd
       -0.08077949 -0.24794593 0.61921984 -0.034302726
000090 40 50 22 3e 91 96 f8 be f8 76 b2 bd 83 97 79 be
       0.15850925 -0.48552373 -0.08714098 -0.24374203
0000a0 e9 db 4e 3b de 91 41 bd ba 54 1a be c4 89 0d be
       0.0031564182 -0.04725825 -0.15071383 -0.13822085
0000b0 da f5 96 3e 54 b3 df 39 59 e7 bb bd 83 f5 94 3b
       0.29484445 0.00042667484 -0.091749854 0.004545869
0000c0 ac a6 60 3f 6a 7d 09 bf 37 cd 66 bb 24 be 9c bd
       0.8775432 -0.5370699 -0.0035217532 -0.07653454
0000d0 10 e9 74 bc 9c f8 55 be a7 45 f8 3d 85 1b ac 3e
       -0.014948145 -0.20895618 0.1212266 0.33614746
0000e0 21 70 3e 3e 7b 5e e3 3d cd 0c 23 be 91 d3 47 be
       0.18597461 0.11102005 -0.15922852 -0.195143
0000f0 d6 27 c7 bd ad 95 33 be b9 1f 0e be e7 19 a7 be
       -0.09724395 -0.17537566 -0.13879289 -0.3263695
000100 32 7f 9c 3e af 50 af 3e cd c7 8a 3c 24 69 86 3e
       0.30565792 0.34241244 0.016940976 0.2625209
000110 67 ea 81 3e 81 eb 97 bd 49 8e 13 bd c0 8f e2 3e
       0.25374147 -0.07417966 -0.036024366 0.44250298
000120 93 67 71 bc 79 21 1e bf e1 cb e4 3e 3e 7e e2 3d
       -0.014734167 -0.61769825 0.44686797 0.11059235
000130 09 49 17 3f 59 d1 2a bd 55 82 15 bf de 81 81 be
       0.5909582 -0.041703556 -0.58401996 -0.25294393
000140 9a 58 8e 3e 81 3b ab be 01 7e af 3e 59 91 a0 3d
       0.27801973 -0.33443835 0.3427582 0.07840223
000150 c8 13 37 bf f1 33 3e 3e 70 2c 24 3d 69 29 93 be
       -0.7151456 0.18574502 0.04008144 -0.2874253
000160 62 cb 80 bd 5f ea d0 3c 02 c8 dc 3d a6 3f 26 be
       -0.06288792 0.025502382 0.10780336 -0.16235217
000170 11 9f 81 bc b0 f4 f5 be 2f a5 7e 3e 07 90 ae 3e
       -0.01582292 -0.48038244 0.248677 0.3409426
000180 ca 5e ac 3c cf 9b 0a bf 78 42 ab 3e 12 85 05 3f
       0.021041293 -0.54143995 0.3344915 0.52156174
000190 89 08 4f bc 67 3e a8 be 8a 51 a1 3e 05 d4 a7 3e
       -0.012636312 -0.3286011 0.31507522 0.32778946
0001a0 1b 55 86 3e f5 55 00 be 73 b4 fc 3d 83 cd a2 3d
       0.26236805 -0.1253279 0.123391055 0.079493545
0001b0 32 9d 87 bd 18 4d cc be d9 d2 d2 3e 01 ba 02 3f
       -0.066217795 -0.39902568 0.4117649 0.5106507
0001c0 98 bf 49 bd 99 33 06 be ef f7 80 be c0 6c 69 3e
       -0.049254984 -0.1310562 -0.25189158 0.22795391
0001d0 36 44 84 3e 5e cf 04 bf e7 88 bd 3e e7 e6 b9 be
       0.2583329 -0.5187892 0.3701851 -0.36308977
0001e0 68 fc 3b be c1 1b 48 3e 15 46 56 bd 3f 5d 84 3d
       -0.18358004 0.19541837 -0.05231293 0.06463098
0001f0 cd 3b 19 3d ba 0d 5e be 3d 98 ed bd ae 31 c9 bd
       0.037410546 -0.21684924 -0.11601303 -0.09823929
000200 18 52 8f be 1e ef 01 3e
       -0.2799232 0.12688872

6.weight f4 [157, 130]
000000 b0 0e 2a 3c 13 eb 16 be 8c ca bc 3d d1 95 e6 3d
       0.010379478 -0.14738111 0.0921832 0.11259044
000010 00 89 cb bd 49 a5 22 3d 7e 76 27 3d e5 1b 14 bd
       -0.0993824 0.03970841 0.040884487 -0.036159415
000020 74 31 53 3d 47 8e 3c be 87 f4 c9 bc cc f2 2c 3d
       0.051560834 -0.1841365 -0.024652733 0.042223737
000030 2b 0a 10 3e fb 83 ad be 64 e5 21 3e df 70 84 bd
       0.14066379 -0.33889756 0.15810162 -0.06466841
000040 0d 08 1a bd 50 1e be 3d 61 a7 c1 3b 35 84 8a 3d
       -0.037605334 0.092831254 0.0059098457 0.06763498
000050 87 22 9c 3d e8 48 41 bd 6e d7 82 bd 61 06 a1 3e
       0.07623773 -0.04718867 -0.06388746 0.3145018
000060 bf 6d 0a be da 03 91 3e 63 c5 92 bd f9 85 28 be
       -0.13518427 0.2832325 -0.07166555 -0.16457357
000070 3a 3b 57 bd 08 09 b5 bc 18 98 93 bd 7e 50 38 3d
       -0.052546717 -0.022099033 -0.07206744 0.04499864
000080 7c bb ee bc 3a c5 8a bc f1 23 13 3e 89 af e3 3b
       -0.029142134 -0.016939748 0.1436918 0.0069484157
000090 97 66 d1 be 96 5d ea 3d 53 9c 27 3d 68 26 e1 bd
       -0.40898582 0.11443631 0.040920567 -0.109936535
0000a0 d6 81 bc bd 5c 78 3b bd 32 66 88 3d 6c 0b 91 3c
       -0.09204452 -0.04576908 0.06660117 0.017705642
0000b0 98 89 e4 3d 68 af 03 3e 63 01 2e be 76 b7 09 3d
       0.111590564 0.12859881 -0.16992716 0.033622228
0000c0 f9 80 15 3d 38 b8 6d bc 5e 52 96 3d b3 a7 42 3e
       0.03649995 -0.014509253 0.07339929 0.19009285
0000d0 37 83 7a bd 90 8d 02 be e2 a9 5b be 35 17 95 3b
       -0.061160292 -0.12749314 -0.21451524 0.0045498856
0000e0 35 4d 5f 3b 57 d4 e0 3d 01 42 7b bd 9f 0d d5 bd
       0.0034073119 0.109780006 -0.061342243 -0.10402989
0000f0 63 6d 9c 3e ee 75 1e be 0d 7d 11 be 3b fa cb 3e
       0.30552205 -0.15474674 -0.1420786 0.39839348
000100 4e c9 19 bf ce c3 82 be 28 bc d7 be 7c 09 88 bd
       -0.6007279 -0.25540012 -0.4213574 -0.06642434
000110 10 87 c3 3c a9 cf 59 bd 9f b4 09 3d 3a 7d cd 39
       0.023868114 -0.053176556 0.03361952 0.00039193948
000120 2c 39 54 bc 59 4d d2 bc f1 f8 fa be 17 70 41 3e
       -0.012953084 -0.025671648 -0.49018052 0.18890415
000130 f3 6c d1 3c 07 cb ae bc 57 a9 da bc 22 42 7e 3d
       0.025564646 -0.021337045 -0.026692076 0.062074788
000140 bb 83 57 be 8b 39 da bc 50 f5 6b be b1 32 7c 3d
       -0.21046345 -0.026638767 -0.23042798 0.06157178
000150 39 82 c0 bd a3 0a 00 bf 36 f2 77 3c bc 96 54 be
       -0.09399838 -0.5001623 0.015133431 -0.20760626
000160 13 be 97 3d 21 ed 98 be b9 5f 8f be 8a 11 1b 3e
       0.07409301 -0.29868415 -0.28002718 0.1514341
000170 62 f0 bc bd 1f 48 84 3d 31 b8 a9 be 01 9e 9f 3d
       -0.09225537 0.064590685 -0.3314834 0.07793809
000180 df 9a 19 bd 62 b3 03 be f9 35 21 3e 75 f3 eb 3d
       -0.037501212 -0.12861398 0.15743245 0.11521045
000190 75 98 87 bd c3 d2 8e be b8 50 b1 3d 61 f2 0e be
       -0.06620876 -0.27895173 0.08657974 -0.13959648
0001a0 ca d7 a2 3d 5f df 2a bf fd 49 7a bd 90 55 ee bd
       0.07951315 -0.6674709 -0.061105717 -0.116374135
0001b0 4e 19 19 3e 24 ca 4a bd 12 ff ae bd 02 8d 43 be
       0.14951059 -0.049509183 -0.085447446 -0.19096759
0001c0 df ad e5 bd 16 70 c6 3d 74 f4 fb 3c 89 0c 80 bc
       -0.11214804 0.096893474 0.030756213 -0.015630977
0001d0 60 e8 09 bd 3a 8a 44 bd b5 2a 85 3e 81 80 8a bd
       -0.033668876 -0.047983386 0.26009145 -0.067627914
0001e0 b5 87 02 be 5d 29 8f 3e b5 00 3d 3d f4 36 d3 3d
       -0.1274708 0.27961245 0.046143252 0.10313216
0001f0 09 99 5e 3c 05 8c 37 be 8b a8 c2 3e 57 64 2e 3e
       0.013586291 -0.17924507 0.38019213 0.17030464
000200 b3 63 49 3e e5 30 20 bd 51 bf 2e be b6 36 f5 bc
       0.19666938 -0.03910913 -0.17065169 -0.029933315
000210 61 7c 2b 3e 2d 14 48 3e 43 73 f8 bc 3d 38 e4 3b
       0.16746666 0.19538946 -0.030328399 0.006964712
000220 39 23 68 3c 7a e3 ca 3d 97 40 54 3d c9 d0 23 3d
       0.014168554 0.09906669 0.05181941 0.039994035
000230 b0 d2 dc bc f3 1d 3a be f4 d6 f5 bd 6f f4 ce 3c
       -0.026955932 -0.18175487 -0.1200389 0.02526304
000240 a1 3b 66 be aa cf 1e bd f5 9a cd 3b db 15 a3 bd
       -0.22483684 -0.038772263 0.006274576 -0.07963153
000250 aa 1a f3 3d 07 fe 24 bd c3 d4 f2 bc 26 b6 9f bd
       0.1187032 -0.04028132 -0.029642468 -0.07798414
000260 b2 89 e7 3d c5 ce 86 3b 52 c8 70 bd 4d 63 bc be
       0.1130556 0.0041140043 -0.05878479 -0.3679451
000270 63 9c 48 be 83 6e ed 3d af b7 d6 bd 0e 5d 62 3d
       -0.19590907 0.11593344 -0.104842536 0.055264525
000280 7f b0 85 3e da 21 56 3d 7b 0b f2 bc 04 c8 a8 3c
       0.26111218 0.052278377 -0.02954649 0.020603187
000290 be 9c 7b 3d 0e 8f 58 bc dc d2 eb bd 55 e8 e2 3d
       0.061428778 -0.013217701 -0.115148276 0.1107947
0002a0 b6 2f 25 3c 52 53 1f be d7 e1 63 3d 17 83 18 bd
       0.010082176 -0.15559128 0.0556353 -0.037234392
0002b0 71 92 eb 3d 61 36 80 be d1 e4 00 be 65 45 33 bd
       0.11502541 -0.25041488 -0.12587287 -0.04376735
0002c0 58 9a 5b be fd 64 ab bb 8a 34 04 bf be 7c 39 3e
       -0.21445596 -0.0052305446 -0.5164267 0.18113992
0002d0 40 f7 1c be 78 58 88 3c e7 f6 07 3d 34 49 94 bc
       -0.15328693 0.016643748 0.03319445 -0.018101312
0002e0 3d 01 3c bd e0 c4 9d 3c f0 d9 ba 3d 81 f9 6e be
       -0.04589962 0.019258916 0.091235995 -0.23337366
0002f0 a7 f0 45 be f7 98 8d 3d 21 76 b3 3d 88 cb 87 be
       -0.19330083 0.06913941 0.08762766 -0.2652247
000300 91 2e 29 be 61 ae 64 bd 93 3e 3c bd 68 02 47 be
       -0.1652167 -0.055830363 -0.045958113 -0.19434512
000310 6c 54 37 be 98 36 c9 3d b4 4c 3a 3c 7d 06 37 bd
       -0.17903298 0.09824866 0.0113708265 -0.044683922
000320 58 17 56 bd 60 72 e6 3d f6 42 94 bd 4e 96 56 3d
       -0.052268356 0.11252284 -0.07239334 0.052389435
000330 96 f6 ea bc a5 ae 25 bd 8d 9d 43 3d a2 68 58 bd
       -0.028682034 -0.040449757 0.047757674 -0.05283416
000340 07 09 78 3e 1c 06 bb 3d 4b 15 91 be af a0 a7 bc
       0.24222194 0.09132025 -0.28336558 -0.020462362
000350 27 11 47 be 5c e7 00 bd 5c 40 b7 3d 34 3c c8 3d
       -0.19440137 -0.03147064 0.089478225 0.09777108
000360 5d 2f e4 3c 00 07 24 3c a8 8e 08 bd d3 37 82 3d
       0.027854616 0.010011435 -0.033339173 0.06358304
000370 fc 3d 48 3e fe 13 4b 3e c5 25 d5 bc 77 86 00 3e
       0.19554895 0.19831845 -0.026018986 0.12551294
000380 f7 90 b4 bd aa 23 7c 3d d3 53 45 3c 7b 3e 29 3e
       -0.08816712 0.06155745 0.012043911 0.1652774
000390 fd c6 61 be 44 71 3d 3e 61 3f 91 bd 2c 44 45 3e
       -0.22048564 0.18500239 -0.07092167 0.19264287
0003a0 df 61 b3 bd 7f de b6 be 63 9d 97 3d 42 a8 b1 bd
       -0.08758902 -0.35716626 0.07403066 -0.08674671
0003b0 6c ca ce 3c 1d 09 c4 bd 56 d5 ec bd 58 9a 8a 3d
       0.025243007 -0.09572051 -0.11564128 0.0676772
0003c0 f8 45 3a be 6e 95 ae be d6 83 10 bc 7d e8 2a 3e
       -0.18190753 -0.3409838 -0.008820495 0.1669025
0003d0 a9 6d b9 3d 45 29 0b 3b b2 15 96 be 98 c6 75 3e
       0.09054119 0.0021234315 -0.29313427 0.24001539
0003e0 9d 45 df 3c 00 eb 39 3c 6d c6 07 3e 87 60 81 3b
       0.027254874 0.011347532 0.13259287 0.0039482745
0003f0 ae 49 92 bd 54 83 ff 3c 0c 00 81 3d 02 77 82 bd
       -0.071429595 0.031190552 0.06298837 -0.06370355

6.bias f4 [157]
000000 fd 3e d7 3e 10 43 aa be c3 99 36 bf 6b f0 2d 3e
       0.42040244 -0.3325429 -0.7132837 0.16986243
000010 02 25 a7 3e 1d 70 e7 be 3d bf 9e be ee b4 04 3e
       0.32645422 -0.45202723 -0.31005278 0.12959644
000020 f0 01 1a 3f 71 ba 56 be 23 e1 29 be 04 8f ec 3e
       0.60159206 -0.20969559 -0.16589789 0.46202862
000030 45 88 dd 3c d6 5e 81 3e b2 29 63 3e 3a 0b 0e 3e
       0.027042517 0.25267667 0.22183874 0.1387147
000040 86 4d ab bd 62 b1 a3 bd 00 d9 aa 3e 5d c0 0a 3e
       -0.08364396 -0.079928175 0.33368683 0.13549943
000050 cf 62 17 bf 4f 50 b3 3c 0e 27 5c 3f 66 02 4d be
       -0.59135145 0.02188888 0.8599709 -0.20020446
000060 b5 13 e3 3e 1f 16 53 3f df be 8f 3e 1a 28 18 bf
       0.44350973 0.8245563 0.2807531 -0.5943619
000070 90 a1 05 3f 7b 2a 1b be 5e 3e 8a be 65 2d 02 3e
       0.5219965 -0.15152924 -0.27000707 0.12712629
000080 f5 50 0e 3d 94 cf 5c bd 95 64 cc 3e 78 9f 3b 3e
       0.034745175 -0.0539089 0.39920488 0.18322551
000090 36 50 f0 be ac 24 ff be af cc 86 3e 3e 53 b2 be
       -0.46936196 -0.49832666 0.26328036 -0.34829134
0000a0 57 5e 0d bf 63 44 8c 3d 6b 3c f7 be 4e e9 09 3e
       -0.55222076 0.06848981 -0.48288283 0.13467905
0000b0 36 99 2a 3e 6d 08 cc be 22 2e 7e be ff cb bd be
       0.16660008 -0.39850178 -0.24822286 -0.370697
0000c0 d6 12 c6 be 42 d1 fc 3d 5a 69 73 be f0 e7 be be
       -0.38686246 0.123446 -0.23770657 -0.3728633
0000d0 4b a5 da 3d e9 a8 57 3e 6d c8 13 3d b5 fd dc 3d
       0.106760584 0.21060528 0.036079813 0.10790578
0000e0 23 26 7e bd de 91 c4 be 9a d1 fd bd 02 c1 0b 3f
       -0.06204809 -0.38392538 -0.12393494 0.5459138
0000f0 64 21 f8 bd 39 92 73 3e ad 0d 07 3e 1f 55 57 3b
       -0.12115744 0.23786248 0.1318881 0.0032857133
000100 6a 7c d5 3e d5 0e 17 3e 2e 3f bb be 1d 82 91 3e
       0.41696483 0.14751752 -0.3657164 0.2841958
000110 f3 ce c9 bd df 73 f2 3e 42 7d da 3e 05 2f 1c bd
       -0.098539256 0.47354028 0.4267369 -0.03813078
000120 0e 2c 34 bf cb 18 d4 be 7f 75 06 3e 87 c1 59 3e
       -0.7037972 -0.41425166 0.13130759 0.21265231
000130 55 98 4e 3e 9d eb 1e 3e e3 3b c0 bd 72 49 79 3e
       0.20175298 0.15519567 -0.093864225 0.24344423
000140 0e 5e 21 bf 05 de fc 3e 73 2c 31 3e a5 d3 13 3e
       -0.6303414 0.49388137 0.17302112 0.14436205
000150 a6 89 4a be 69 6b 5d 3e 1b 81 92 3e fd 66 35 3e
       -0.19779071 0.21623005 0.28614125 0.17715068
000160 1b 29 ad 3d 01 c0 81 3e 75 6e ca 3d 89 8e 58 3d
       0.08455106 0.253418 0.09884349 0.052870307
000170 fc a5 59 3e 77 50 e9 be 0f 65 41 be 9c 23 e1 bd
       0.21254724 -0.45569202 -0.18886207 -0.1099312
000180 04 d4 96 3d 44 bd b6 bd 17 3a e2 bd 5b 9a 12 be
       0.073646575 -0.08922818 -0.11046236 -0.14316694
000190 61 fe 1e 3f 47 b5 90 3d 6a f5 55 3e 5d b1 39 be
       0.621069 0.07065826 0.208944 -0.18134065
0001a0 4a 72 94 be a3 53 07 3f 8e 93 43 be 79 eb 4f 3e
       -0.28993446 0.52861995 -0.19099256 0.2030467
0001b0 b9 9c 2b be 9f 55 83 bd 32 a4 5a 3e ed 4c 08 bf
       -0.16759004 -0.06412815 0.21351698 -0.5324238
0001c0 e9 16 93 bd e1 7d c9 be c5 41 e4 bb fc f1 f9 be
       -0.07182104 -0.3935385 -0.006965848 -0.48817432
0001d0 99 33 c3 be 8f dd b0 3e 7a 65 62 be af 48 92 3d
       -0.38125303 0.34544036 -0.22109023 0.071427695
0001e0 c4 c3 6f 3e d9 b1 0c bf 4c 8a f0 be 3d 31 28 3f
       0.23414522 -0.54958874 -0.46980512 0.6570013
0001f0 66 f2 de be d6 c3 3b be 2a 79 cd 3d ba 2b e6 be
       -0.4354431 -0.18336424 0.10032876 -0.44955236
000200 af d2 57 bd 6d 73 96 be 45 13 e9 be 38 7c 6b 3e
       -0.052691158 -0.29384938 -0.45522514 0.22996604
000210 d9 81 8f be ba a2 49 3e 38 6f b7 be 8f 8f 8f be
       -0.28028753 0.19690982 -0.3582704 -0.28039214
000220 2b df 5d 3e 1c 51 bf 3e 53 b9 94 be 71 76 4a bf
       0.21667163 0.3736657 -0.2904764 -0.7908698
000230 a2 db 1f 3f 65 f9 ed be 57 a1 51 3f 7a c6 97 3d
       0.6244451 -0.46479335 0.8188681 0.07410903
000240 3b 45 91 3e d8 46 d3 3d 9e 37 af 3d 41 73 cb bd
       0.2837313 0.10316247 0.0855553 -0.09934092
000250 f4 69 3b 3f 88 42 ef be 41 63 82 bc ba 64 08 3f
       0.73208547 -0.46730447 -0.015916469 0.53278697
000260 ab 37 18 bf 7e 48 2c be 8e d8 1d 3f 04 47 02 bf
       -0.5945994 -0.16824529 0.6165856 -0.5088961
000270 01 83 6b 3d
       0.057497982
