pav_spkid_pytorch/lp_model_hsize_175_lr0001/e18_weights.ckpt (torch_old, 491138 bytes, 8 tensors)

0.weight f4 [175, 189]
00000000: 4332 4fbc 1069 a43e ab21 a3be 971c 8d3b
00000010: 5f32 a3bb 9c31 42be 8ca4 eabd 5332 263d
00000020: 6879 013e e5b3 a8ba fed4 c53e 3f38 83be
00000030: 1b91 fc3c 66fd f33d 81c5 82be ea35 7f3d
00000040: e390 babd eab7 603e a0e9 1d3c 4b3c a73e
00000050: 7984 38be b0bd b9bd 2ee1 593e 2fe6 a1be
00000060: 02a0 b23d 990a 64bc d6b0 883e 0a43 873a
00000070: 5651 6d3e 0709 5fbd b824 05be e5ab 893e
00000080: 1dc1 c2be 8fb6 923d 8ae4 f5bd 3cc4 983e
00000090: 3191 a1bc b489 aa3d 2766 543d cac6 d3bd
000000a0: 2739 823e 3c00 a7be d87b 9a3d bd95 bdbd
000000b0: 3d32 443e 05d2 073c 6f9d 1b3e 25b3 b03d
000000c0: 9b10 b2bd b0f4 273e a8a5 28be eab7 b1bc
000000d0: f0b0 84bd 5af5 703d ef88 bd3c 4d05 f83c
000000e0: 1f81 043e dbd0 03be 2047 2a3e bc57 d9bd
000000f0: cd93 2bbe 7957 fcbc 5e82 313c 3c02 843c
00000100: ef18 9bbd c35a 163e ca6e 8fbb 576c c53d
00000110: c2d2 5fbd f0ab 5dbe 0ef6 7f3c 6124 f7bd
00000120: 55b3 be3b c0e7 8abc f8d7 483d 37d5 ca3d
00000130: e396 05be 452d 653e f9df 75be f5a7 7c3b
00000140: 657d 36be 4216 90bc fd3b 1dbd 5681 ee3d
00000150: 25f0 a13e 346b 5cbe 5c3a bb3e 4f9e 7fbe
00000160: 9566 a03d 5cd0 8bbe 9b57 f7bc 2cd3 bdbd
00000170: ab10 493d dead ba3e dde1 96be 75d7 d93e
00000180: 4dad 96be 9bb9 573e fd29 b3be 884b 7ebd
00000190: 5ede 82bd 6ace 4a3e 838b 583e faba adbe
000001a0: 072b cd3e 3db4 0abe ac4d 4abe 76bd bcbe
000001b0: 9d4f 94bc fbc6 2fbe a004 593e d0b1 d23d
000001c0: 121e 82be 3df3 383e db12 bd3d 4227 14bf
000001d0: ea99 95bd 6016 3b3c 0dab 58be 152e 7e3e
000001e0: 21c2 80be e9f4 c53d 3757 61bc c56e 773e
000001f0: d6e2 69bf 4d70 4d3d de3c 363d 8233 b0be
00000200: 4891 d03e 0148 e2be c825 8c3e 695f 9bbe
00000210: d8ac d73e 3ef9 90bf 8353 643e b29d 4e3d
00000220: e0f6 afbe 557e dd3e 2e9c f1be 46f5 ef3e
00000230: d69e 92be b3d6 c43e 377b 8fbf 8573 8b3e
00000240: 7909 e63c 3cfc 7dbe af30 d43e 44a9 a8be
00000250: 15d2 d53e e3de dabd 5b9b b03e 864d 79bf
00000260: 33e9 4a3e f6df dd3b 9911 d4bd 48cf f53e
00000270: 79d0 23bc e91c 753e 1f4c 923d b9ec 3e3e
00000280: ff95 44bf 8395 20be 3ec0 5abd 7c04 b03d
00000290: 79d3 ed3e 27ec 673e a382 903a f312 dc3e
000002a0: 2107 b93c b51a ddbe 35a7 9fbe c800 46bd
000002b0: e751 753e ed6d d43e f1b6 0a3f 4574 84be
000002c0: 0974 5a3f fec6 28be fcc3 fdbd 7eba 00bf
000002d0: ea50 7ebc 7047 b33e cc84 bb3e 7db1 653f
000002e0: d708 dfbe 3c35 863f b5c7 cabe 7c1b 7b3e
000002f0: 4632 20bf d542 12bc ae03 46bf 46cc 8d3e
00000300: b206 723b 6bfa 38be 3e0e 323e 8a72 8c3f
00000310: b57d cbbf d4b6 0fc0 7f20 633c 7d00 e1be
00000320: 6b22 623e 94fd ceba f66f b4bd 3b76 ee3d
00000330: fa3b 353f 11b1 93bf 1beb cfbf 104d 973c
00000340: 267b dfbe 4ae0 683e 902c 853d 4c1c b7bd
00000350: 9eed ae3d a269 ff3e 0e94 88bf e607 9dbf
00000360: 04f1 c9bc 6fd7 ccbe ac06 143e 7457 473e
00000370: d0cc 35be a5f6 bf3d e409 0d3f e9b7 87bf
00000380: 56df 9dbf c871 f33c 8dda b5be c2c0 113e
00000390: 82b7 e73d 03d2 51be 8ca9 f93d ecf3 063f
000003a0: 034d 8ebf 1c10 95bf 8e40 9dbc 7414 a0be
000003b0: 855c 0e3e 54b5 523e 2f23 0ebe ac8a ef3d
000003c0: 5f30 243f 06b6 96bf 10dc 9ebf af36 14bd
000003d0: 23bf 9bbe 672f 603e 5aa2 e63d c653 1abe
000003e0: bc92 163e e9b6 293f c3e7 8ebf 944e 99bf
000003f0: bb64 123d b787 d0be d037 5b3e 448b 303e
-0.012646261 0.32111406 -0.31861624 0.0043063867 -0.00498037 -0.18964237 -0.11457166 0.040575337
0.12643969 -0.0012870996 0.38639063 -0.2562885 0.03083091 0.11913566 -0.2554131 0.062307276
-0.09109666 0.21945158 0.00963822 0.32663187 -0.18019284 -0.09069383 0.21277305 -0.3162093
0.08721925 -0.013918542 0.26697415 0.0010319662 0.23175558 -0.05445197 -0.13002288 0.26888958
-0.3803796 0.071637265 -0.12006481 0.29837215 -0.019722553 0.08327046 0.051855233 -0.103406504
0.2543423 -0.32617366 0.075431526 -0.09257076 0.1915979 0.008289819 0.15196775 0.08627919
-0.086945735 0.16401935 -0.16469443 -0.021694142 -0.06479061 0.058827735 0.023136584 0.030275965
0.12939881 -0.12872641 0.16628695 -0.10612437 -0.167556 -0.030803429 0.010834305 0.016114347
-0.07573115 0.1468306 -0.0043772208 0.09639805 -0.054644354 -0.2164762 0.015622629 -0.120674856
0.005819718 -0.01695621 0.04903409 0.09903949 -0.1304584 0.2238055 -0.2401122 0.0038552259
-0.17821272 -0.017588738 -0.038387287 0.116457626 0.31628528 -0.2152527 0.36567962 -0.24962734
0.07832066 -0.27307403 -0.03019314 -0.092687935 0.04908816 0.36460775 -0.29469195 0.42547193
-0.29429093 0.21066897 -0.34992972 -0.06208375 -0.063900694 0.19805303 0.2114697 -0.33931714
0.4007189 -0.13545318 -0.19756192 -0.36863297 -0.018104369 -0.17165749 0.2119317 0.10287821
-0.25413567 0.18061538 0.09232112 -0.578724 -0.073047474 0.011418909 -0.21159 0.24822266
-0.2514811 0.096658535 -0.013753704 0.24163349 -0.9136175 0.050155926 0.04449164 -0.34414297
0.4073584 -0.4419556 0.27372575 -0.3034623 0.42124057 -1.1326063 0.22297482 0.05044336
-0.34368038 0.43260446 -0.47189468 0.46866816 -0.28636807 0.38445053 -1.1209477 0.27236572
0.028080689 -0.24803251 0.41443393 -0.3294164 0.41761842 -0.106870435 0.34493527 -0.97383916
0.19815521 0.006771083 -0.10354919 0.48009706 -0.009998434 0.2393681 0.07143425 0.1864499
-0.76791376 -0.15682034 -0.053405993 0.08594605 0.46450403 0.22648679 0.0011025261 0.42983207
0.022586407 -0.43184438 -0.31182256 -0.04834059 0.23957025 0.41490117 0.54185396 -0.25869957
0.85333306 -0.1648216 -0.12390897 -0.50284564 -0.015522221 0.3501544 0.36624753 0.8972395
-0.43561432 1.0484996 -0.3960549 0.24522203 -0.6257671 -0.008927067 -0.77349365 0.2769491
0.003693026 -0.18064277 0.17388245 1.0972455 -1.5897738 -2.245534 0.013862728 -0.43945685
0.22083442 -0.0015792125 -0.08810417 0.116436444 0.7079464 -1.1538411 -1.6243623 0.018469363
-0.43648642 0.2274181 0.0650264 -0.08940944 0.08541416 0.4988528 -1.0670183 -1.2268035
-0.024651058 -0.40008113 0.1445567 0.19466954 -0.17753911 0.093732156 0.55093217 -1.0603
-1.2333782 0.029717341 -0.35518304 0.14233688 0.11314298 -0.2049027 0.121905416 0.52715945
-1.1117252 -1.1645541 -0.019195821 -0.31265604 0.13902481 0.20576984 -0.13880609 0.116963714
0.6413631 -1.1774299 -1.2410908 -0.036184963 -0.30419263 0.21893083 0.11261435 -0.1507102
0.14704412 0.66294724 -1.1164478 -1.1977105 0.035740595 -0.40728542 0.2140801 0.17240626

0.bias f4 [175]
00000000: eced 36bf ce47 82be b998 e03e dd71 983e
00000010: a9a8 703e 2b2c a63e ec89 7a3e 20de 28bf
00000020: bdb0 1640 78be 8ebc e6b8 19bf c6a7 89bb
00000030: d617 383d d47c 243e 6a90 1cbe ffa4 323f
00000040: eb51 6c3e 83a6 80bd d43d bfbf 01bb 963d
00000050: fa55 f33f d8d9 a8be ee1e 593f bd63 863f
00000060: abce 0240 7e20 143e 85e1 363e 7f43 bcbd
00000070: 6bd0 253d d87a e4be 058d 0e3f f3f7 bebc
00000080: a9a6 41bb c71e ad3e 062b 343f ec4b 16bf
00000090: 6688 83be 06d7 583f 67a9 9bbe b387 16bf
000000a0: 4d4e 053e b1ec 11bf bb1f 10bd 8891 39bd
000000b0: 7065 04be f835 9bbf 78e4 1140 5a45 d83f
000000c0: 2f62 553e 8d29 ca3f d0d9 643e c553 983c
000000d0: 89cf ca3e ba75 d8be c3b5 91be 6473 923e
000000e0: 0ef7 2840 1b5c 26bf 8478 373f 6110 28bf
000000f0: f093 153e 7672 f6bd bff9 4ebd 1608 55bf
00000100: a58a fa3b d5cc 8bbe b57e 4abf d74b b2be
00000110: 14b6 083f c791 d13f 3cea 553f ed70 c9be
00000120: 6bb6 7abd cb2c 1040 4ebc e33e b1ec 853e
00000130: 86b3 743e 00fb 80be 3aa5 be3d 84d4 35bf
00000140: f3ce 08bf c560 1440 75d0 98be 4fe7 a5bc
00000150: a31b 9fbf 8b77 15be 31f1 813e a90f dc3d
00000160: f543 963d 5481 aa3e de19 d03d 4d17 f33e
00000170: a140 8bbf c5a0 a8be 6b1e d9be 2230 763e
00000180: c33f 933e 615c 08be 3ca3 aebd 025c b03e
00000190: 1f52 d93e c23e 46bd 6194 9b3f 82ac d3bf
000001a0: 3eba 2c3f e636 a4be 7fdd 103e 8ed9 8f3f
000001b0: 5e14 9b3e c2b7 ba3d b4c9 3640 726f d43d
000001c0: 8a30 0d3f f2f9 2fbe 30ec 153e 8562 ad3e
000001d0: cfe8 903f 58a8 c6bf a328 813e 227e 0740
000001e0: b7d0 9cbd 636b 203f 17b9 683e 54f2 743e
000001f0: c27e 823e 4b86 253f d03f bbbe 94e1 ce3e
00000200: 070c 623f 146c 38be dab1 9abd 1b83 df3f
00000210: 5fd0 873f e01a 2a3e c7b5 39be d655 4d3f
00000220: 5778 8cbd a2d3 fe3e 948a af3e 77e2 e33e
00000230: c048 413c 3ac1 2c3b 090e 6cbf 9d0e 1cbd
00000240: 8082 7f3f cb08 443f 4c6c a23e ac16 663e
00000250: 8840 81be 575c e7bd 77f6 313d 4ec7 1abc
00000260: 1c6b 1fbe 509d 8d3d bb84 063e 877e b9be
00000270: 1b30 2340 a4f8 133f 44a0 9c3f a7ce 1f3f
00000280: 45cf 99bc 3e1f fb3f 3c20 583e 09d6 26bf
00000290: 9e37 803e afdb ff3d a93d 1240 0e3d c33d
000002a0: 748f 33bd c376 253e 1dc9 f3bb 86cd 243f
000002b0: 0ccb 5d3f ddc1 083f 51bf 1d3e
-0.7145679 -0.25445408 0.43866518 0.2977437 0.23501839 0.32455572 0.24466676 -0.65963936
2.3545372 -0.017424807 -0.6004776 -0.0042009084 0.044944607 0.16063243 -0.15289465 0.69783014
0.23078124 -0.062817596 -1.4940743 0.07359887 1.9010613 -0.32978702 0.8481282 1.0499188
2.043864 0.1446552 0.17859466 -0.09192561 0.040481966 -0.44624972 0.5568393 -0.02331159
-0.00295488 0.33812544 0.7037815 -0.587096 -0.2569 0.847031 -0.3040268 -0.5880081
0.1301815 -0.5700179 -0.03518651 -0.045304805 -0.1292932 -1.2125845 2.2795696 1.6896164
0.20838235 1.579393 0.22348714 0.018594632 0.39611462 -0.42277318 -0.28458986 0.2860366
2.640079 -0.6498429 0.7166827 -0.6564999 0.14607215 -0.120335504 -0.050531145 -0.83215463
0.0076459222 -0.27304712 -0.7909959 -0.34823486 0.5340283 1.6372613 0.8356054 -0.39343968
-0.061209124 2.252734 0.44479603 0.26157144 0.23896608 -0.25191498 0.09308858 -0.710274
-0.5344078 2.3184063 -0.2984654 -0.020251898 -1.2430309 -0.14596383 0.25379327 0.107451744
0.073371805 0.33301795 0.10161184 0.47478715 -1.0879098 -0.32935157 -0.4240602 0.24041799
0.28759584 -0.1331649 -0.08527228 0.34445196 0.42445466 -0.048399694 1.2154657 -1.653702
0.67471683 -0.32073134 0.14146994 1.1238267 0.30288976 0.0911708 2.856061 0.10372819
0.5515219 -0.1718519 0.1464088 0.33864227 1.1321048 -1.5520124 0.25226316 2.1170735
-0.07656997 0.6266386 0.22726856 0.23920566 0.25487334 0.6465804 -0.36572123 0.40406477
0.882996 -0.18009979 -0.07553454 1.7461885 1.0610465 0.16611814 -0.18135749 0.802091
-0.068588905 0.49770838 0.34285414 0.44508716 0.01179713 0.002636029 -0.92208916 -0.038099874
0.998085 0.76575917 0.3172325 0.22469586 -0.25244546 -0.11296909 0.043447938 -0.009446932
-0.15568203 0.069147706 0.1313657 -0.36229345 2.5498111 0.5780127 1.2236409 0.624247
-0.018775592 1.9618909 0.21106046 -0.6517034 0.25042433 0.12493073 2.2850134 0.0953313
-0.04383798 0.16158585 -0.007439746 0.64376104 0.8663795 0.5342081 0.15405013

2.weight f4 [175, 175]
00000000: 830d 893c 718f 8e3d 5085 9cbd 7e8e e9bc
00000010: 5e46 193d 1e66 6ebd 05b7 c5bd 8bcf 183d
00000020: eda2 143b 7f72 003e c6e0 e7bc b1fb 1dbd
00000030: 65dd 0dbd 1419 3c3b 0bfd aabc 39d2 6bbc
00000040: b30b 2e3c a869 1cbd cead c0bd cf00 b8bc
00000050: 5d08 5abb 268a 89bc e780 7bbc bc02 613d
00000060: 6c4a 91bd 05fd babd fc91 f3bc e065 a63d
00000070: 8f30 6abc 3cc9 f03c 50a3 e4bd 08ef bd3d
00000080: e143 90bc 77d7 9c3d 37fb c13c 89a0 1f3d
00000090: 413a c13d a905 843d a617 b33c 3a78 7dba
000000a0: 0971 be3d 1289 933a 0cc1 b1bc 7138 77bd
000000b0: 45bf e0bc 85c6 b2bc 2eae 3b3e 7575 973c
000000c0: 9f08 e8bc 39b9 d13c 519c 37bc f664 913d
000000d0: b5bc 05bd 6dc8 50bd e176 80bd ff39 3bbd
000000e0: 12f8 0a3e b6c6 39bd 3866 5b3b c544 22bd
000000f0: e2dc 3fbd fa37 7a3b d457 373e 2c67 12bc
00000100: 0a0b 0ebd 1ff9 a83b 3829 febc 192c 32bd
00000110: 19e2 5b3d b7da 9fbe 4cc4 aa3c 3774 253d
00000120: 5821 e23c 097e 963d 981d 443d 7cf7 d13b
00000130: 44a3 32bd a20b a6bc af3d acbc b3be a73c
00000140: a023 013d 92f7 4a3d 0121 20bd 9848 cd3c
00000150: 269e d6bc 243a 863b 591d 97bc 1620 9a3c
00000160: 8b0a 0a3d e3f1 d1bd 4b75 c73d a04c 9bbd
00000170: 65a8 5abc 0a1b ab3c 6648 82bd f9ab 3e3c
00000180: dd7a ccbc 76c5 9cbd 48ae 973d c4e1 49bd
00000190: e9e2 423b 29b9 8c3e 86fa 63bd b491 393d
000001a0: 951a 22bc 14c3 7f3b f452 71bd dc68 8dbc
000001b0: b63b 5a3d 70f0 a2bd 82e0 d23d eda8 22bd
000001c0: 8641 afbc 0413 4dbd d462 b2bd 2e80 b2bd
000001d0: 1576 c33b dc7c a23c 74df be3c 4cb0 9b3c
000001e0: b893 a63c cd0c 673d c86f b8bc 9b84 2bbd
000001f0: fa3e cb3d c9bd 54bc d182 903d 823b e5ba
00000200: 5213 23bd 7bbb 82bc f0c5 9dbd 08a5 41bc
00000210: 559a d9bc b5cd 0e3e 14b1 8a3d 7d5b 79bd
00000220: 4d58 5dbd 479b 13bc 98a6 9fbc 68d0 d6bb
00000230: c706 833d f0b6 fcbd c7b5 5cbb 0dfb 99bc
00000240: 22e4 ccba 1bee a63d d3c9 893b 7198 29bd
00000250: 4d78 11bd ee2d 443e f6a7 bdbc 78d3 dc3b
00000260: d953 16bc 9dcb 2e3c 2483 e6bc 9074 8abc
00000270: a966 1d3e 3dd5 63bd 4122 43be f570 9abd
00000280: 2ba7 23bd 277c 71bd 76d2 ccbd 28ee a8bc
00000290: fc9a 30be b80c 86bd 1a75 95bc bedd 6c3d
000002a0: 60e2 953d 2488 8dbd aca9 1f3c c8f1 3bbe
000002b0: d423 c9bc 4807 bdbd c72f 3c3b 9c13 1fbc
000002c0: af8e 8e3c ec26 8ebc 2a72 d8bd 9186 28bd
000002d0: c66a 073e 252c bdbb aed6 dd3c 6b14 8dbe
000002e0: 340d 503d 4362 32bb 2075 313d 51d6 4c3c
000002f0: d061 0abe dc9c 87bc 7d64 07be cd15 023d
00000300: cf73 d9bd abbf b63d f4f1 813d c72e 1abf
00000310: 25e8 a1bd 8206 99bb 46eb 22be a1f6 8d3d
00000320: 7fbf 76be 9d5e eb3b 3370 2d3d a114 29be
00000330: 4ec7 dcbd a354 1ebe 7963 90bd 1042 48bd
00000340: ac2f 943e e67a c1bd 92f9 b9bd 3f9e d1bc
00000350: 92db 973c f365 be3b 3634 e73b 8dc0 50be
00000360: 0d71 353d ef6d 1d3e 7298 10be ee67 0fbd
00000370: 3b32 953c 4b32 8d3e 044c 93bd 0cea 97bd
00000380: 8ce4 dbbd 1c40 cbbb 1cef 08bc 5996 dbbb
00000390: 092e cdbd 3563 46bd 8920 7d3d 7762 eabe
000003a0: 8625 9f3b fc4e 753c 089a a73a bbfb de3d
000003b0: ea7c 9abb ffa7 97bd 4160 29bd d01d af3d
000003c0: b969 21be 93f1 28bd caa6 ac3d 1a59 093c
000003d0: 0b79 c0bc f1ce 5ebe 6239 943e 3858 1ebe
000003e0: 73c4 3abf e3ff 6c3e 67f8 a43d 4636 083d
000003f0: 98b8 abbd 54e8 623a f42b 1b3b fceb 00ba
0.016730076 0.06960953 -0.07642615 -0.028510328 0.037420623 -0.058202855 -0.09654049 0.037307303
0.002268012 0.12543677 -0.028305423 -0.03857011 -0.034634966 0.0028701471 -0.020872613 -0.014393383
0.0106229065 -0.0381867 -0.094081506 -0.022461323 -0.0033269145 -0.016789507 -0.015350557 0.05493425
-0.07094273 -0.09130291 -0.029732697 0.081249 -0.014293804 0.029392831 -0.11163962 0.09274107
-0.017610492 0.07658284 0.023679359 0.038971458 0.09434939 0.06446392 0.021861862 -0.0009669099
0.092989035 0.001125606 -0.021698497 -0.06035656 -0.027434954 -0.021823177 0.18328163 0.018488625
-0.028324423 0.025601016 -0.011206702 0.07099335 -0.03265067 -0.05097239 -0.06272674 -0.045709606
0.13571194 -0.04535552 0.0033477675 -0.039616365 -0.04684151 0.0038180337 0.17904598 -0.008935731
-0.034678496 0.0051566507 -0.031025514 -0.043499086 0.05368242 -0.31221554 0.020845555 0.040394034
0.02760379 0.07348258 0.047879785 0.0064076763 -0.043612733 -0.020269219 -0.021025507 0.020476675
0.031528115 0.049552508 -0.039093975 0.02505903 -0.026198458 0.0040962864 -0.018446611 0.018814128
0.03370146 -0.10251214 0.09739169 -0.075829744 -0.013345812 0.020886917 -0.06361465 0.011637681
-0.02496093 -0.0765485 0.074062884 -0.049287573 0.00297373 0.27485016 -0.05565884 0.04530497
-0.009894033 0.0039026188 -0.058917 -0.017261915 0.0532796 -0.07956016 0.10296728 -0.03971188
-0.021393549 -0.050066963 -0.08710256 -0.087158546 0.005965004 0.019834928 0.02329991 0.019004963
0.02033411 0.056408692 -0.022514239 -0.04187451 0.09924121 -0.012984701 0.07056201 -0.0017489048
-0.039813347 -0.015958538 -0.07703769 -0.011819132 -0.026562849 0.13945659 0.06772056 -0.060878266
-0.05403929 -0.009009189 -0.019488618 -0.0065556057 0.06397777 -0.1233958 -0.0033677684 -0.018796468
-0.0015631954 0.08150884 0.0042049675 -0.041405145 -0.03551512 0.19158146 -0.02315138 0.006739076
-0.009175264 0.010668662 -0.028138705 -0.016901284 0.15371193 -0.05562328 -0.19056036 -0.07541076
-0.039954346 -0.05895629 -0.1000108 -0.020621374 -0.17246622 -0.06545395 -0.018244315 0.057828657
0.07318568 -0.069107324 0.009745043 -0.18353951 -0.024553217 -0.092299044 0.0028715 -0.009709265
0.017402021 -0.017352544 -0.1056865 -0.041143958 0.13224325 -0.0057730847 0.027079906 -0.2755464
0.05079384 -0.0027219213 0.04332459 0.012502269 -0.13513875 -0.016554289 -0.13221927 0.031759072
-0.10617792 0.089232765 0.06344977 -0.60227627 -0.07905606 -0.0046699652 -0.15910062 0.06931806
-0.24096487 0.0071829096 0.04234333 -0.16511776 -0.10780202 -0.15461974 -0.07050223 -0.048891127
0.2894262 -0.09447269 -0.09080805 -0.025588153 0.018537316 0.005810493 0.0070557846 -0.20385952
0.044297267 0.15373968 -0.14120653 -0.035011224 0.018212428 0.27577433 -0.07192233 -0.07417688
-0.10736951 -0.006202711 -0.008357789 -0.0067012724 -0.10018546 -0.048434455 0.061798606 -0.45778248
0.004856768 0.014972445 0.0012786994 0.108878575 -0.004714598 -0.074050896 -0.04135156 0.08550608
-0.15762986 -0.041246008 0.0843025 0.00838306 -0.023495218 -0.2175863 0.2895003 -0.1546334
-0.7295601 0.23144488 0.080551915 0.033254884 -0.08384818 0.00086558354 0.002367732 -0.0004917977

2.bias f4 [175]
00000000: 7b94 8fbc ec17 95bf a12c 19be 7983 30be
00000010: e84b a0be 6d03 74bf 9b99 0940 b3d6 063f
00000020: 0401 b1bd 9f5d b4bd 9dea 983e 742c 45bf
00000030: 4a80 d5bf 0001 a73d 648b 8cbf 8380 383e
00000040: 7fb1 5ebc 7ed0 253e cbf2 afbe 85e1 d1bc
00000050: c657 8abf f25b 5bbf cdc3 3f3f e785 75bf
00000060: 4772 2e3e 8b53 68bf 0c5e 2840 3429 9ebd
00000070: 0620 00bf 48eb 95be 092a 633f bcba 7fbf
00000080: eb1b 17bf 653c debe 3e95 c2bf fa6d 75bd
00000090: f90b 0440 1014 1e3f 1ce2 5abf c27f 2abd
000000a0: 0b1f 83be 2bef d1bd e957 ef3d 5d96 85bf
000000b0: 5dfb 563f 4b79 193f e212 913b 3176 c1be
000000c0: 244d 19bf 3525 5dbe 2769 b53e f16d 0dbf
000000d0: 9220 8c3e 9b86 803f d903 63bd 5132 ac3f
000000e0: a7f6 0d3f e866 5e3e b4bf a93d cac3 313e
000000f0: 9209 4b3f 1f5f 1040 2d32 273e 6c59 67be
00000100: 2476 c83f cb72 48bd adcf c53f 06b6 06bf
00000110: bee9 a33e 97ab de3e 0574 1c3d c9e1 39bf
00000120: 086c 21bf 6c4e 4e3e dc5a ccbe 5b76 dabd
00000130: b156 2a3e fdb5 88bf 8402 4f3f 518e 79be
00000140: 5130 c1bd dde7 b53e 101d a7bf 30b9 393f
00000150: 004d 8fbd 2099 7c3f 6161 193f 1ed6 9d3f
00000160: 836e 1d3d d475 d83d 4863 eebd 5da4 2ebd
00000170: 46b4 213f d30f c83f cf45 a43c cfa3 0b3e
00000180: 71ef 6bbc 1b76 70be b24e 43bf d274 ea3e
00000190: dd8d 9a3f 6f54 063f b9eb e03d 376b a6bf
000001a0: 07b3 a0bd c95e 0840 8df7 f33f f13e a3bf
000001b0: de33 223e 654f 883f a9f3 913f 9b79 e93e
000001c0: 4c6e ea3b 2747 e23f bdfe a33f 3e03 1ebb
000001d0: 15e4 2bbe 7d56 26c0 910a 92bc 716c 94bd
000001e0: 5054 31bd 0a2c 70bf 7c86 96be f8a5 58bc
000001f0: 899e 53bf 2560 263f 5fe3 3ebd 44e1 be3d
00000200: ec7b 25bd 7332 723e 50cc c9bd 1ee5 c8bd
00000210: f127 8bbf 60c1 0e3f 7db7 b63e a270 52bb
00000220: 5c2e c13c 80b7 c23c fd0c 2fbe 59c4 0540
00000230: e32c 703f b4c0 ad3d 8b10 ca3c 56b4 bcbf
00000240: 443c a13e 8a35 f43d ac7f 46bf da7e db3e
00000250: 08ae 223f ffeb 1bbb 7c4b 7f3f 515c 0d3f
00000260: d6aa 24bf bb3d 203e 42d8 16be b36c ddbe
00000270: 89e9 243e 13ae 7dbd 994b 7abe f9fa 893f
00000280: ae08 35bf 8ec2 10be 5047 ac3e 70f5 23bf
00000290: b60b 02bd d661 d23d f411 843e 15b8 813f
000002a0: 78d5 a93f 7ab4 b43f d9e4 b8bd cbd5 f1bc
000002b0: 9563 643f 8df5 41bf 9ed1 e8bd
-0.017526856 -1.1647925 -0.14958431 -0.17237653 -0.31307912 -0.9531773 2.1500003 0.52671355
-0.08642772 -0.08806919 0.29866496 -0.77020955 -1.6679776 0.081544876 -1.0980039 0.18017773
-0.013592123 0.16192815 -0.34364924 -0.025620231 -1.0808036 -0.8568717 0.74908143 -0.95907444
0.17035781 -0.90752476 2.6307402 -0.077227026 -0.50048864 -0.29281068 0.88736016 -0.9989431
-0.59026974 -0.43405452 -1.5201795 -0.059919335 2.0632308 0.6174936 -0.85501266 -0.041625746
-0.2560962 -0.10250696 0.116866894 -1.0436512 0.839773 0.59950703 0.0044273 -0.37785485
-0.5988333 -0.21596225 0.35431787 -0.5524588 0.273686 1.0041078 -0.05542359 1.3452855
0.55454487 0.21718943 0.082885176 0.17359844 0.7931148 2.2558057 0.16327734 -0.22592705
1.5661054 -0.0489376 1.5454003 -0.52621496 0.3201427 0.43490288 0.038196582 -0.72610146
-0.6305547 0.20147103 -0.3991307 -0.10667106 0.16634633 -1.0680538 0.80863214 -0.24370696
-0.09433044 0.3552846 -1.3055744 0.725482 -0.069971085 0.9867115 0.59914213 1.2330968
0.03843547 0.10569349 -0.1164003 -0.042637218 0.631657 1.5629829 0.020052819 0.13636707
-0.014400349 -0.23482554 -0.76291955 0.45792252 1.2074543 0.52472585 0.109824605 -1.3001469
-0.07846647 2.1307852 1.9059922 -1.2753583 0.15840098 1.0649229 1.1402484 0.4560059
0.0071542617 1.7677964 1.2812115 -0.002411082 -0.16786225 -2.5990288 -0.017827304 -0.07247246
-0.043293297 -0.938172 -0.29399478 -0.013223164 -0.8266378 0.64990455 -0.046603557 0.0932031
-0.040401384 0.23652057 -0.09853423 -0.09809326 -1.0871564 0.55763817 0.35686865 -0.0032110591
0.023581676 0.02376914 -0.17094798 2.090109 0.9381849 0.08484021 0.024666091 -1.4742534
0.31491292 0.11924274 -0.7753856 0.42870218 0.635468 -0.0023791788 0.99724555 0.5521899
-0.64323175 0.15648548 -0.14730933 -0.43246993 0.16104712 -0.06193359 -0.244429 1.0779716
-0.7071637 -0.14136717 0.33648157 -0.6404638 -0.03174945 0.10272567 0.25794947 1.0134302
1.326827 1.4117577 -0.09028024 -0.02952089 0.8921445 -0.75765306 -0.11368106

4.weight f4 [175, 175]
00000000: 4660 2c3d be28 923e 8a93 f0bc 8919 8c3b
00000010: 96dc a2bd 54f0 38bd 80b1 863c 6f4b 363d
00000020: 7cff 123d ae5b 68bc 9b28 88bd 0e83 eb3d
00000030: 84f8 8a3e 0789 653d 681e 903d cfb2 1bbe
00000040: 1603 c1bd 8a92 b63d b86f 963c c05c 07bd
00000050: f6f6 1dbe 5541 c83d 51cb 16be b31c 253e
00000060: bde0 003e 079d c6bd e22c 343e fd86 0f3d
00000070: 3eb1 a13d a535 62bd 3418 babc d601 a93e
00000080: 694c 4cbe 8407 623e d486 81bd f921 49bd
00000090: 9c97 b73d 5495 183d e14e 64bc 44a1 0f3d
000000a0: e15d 143c 6ce8 763d 6005 52bb 2b3a 163d
000000b0: d3b6 c43d e3b9 97bc 97ee 82bc ff85 0cbe
000000c0: 782d 36be 8595 e6bd bf1a b4bd 08b4 843c
000000d0: 2704 1f3e 3d39 053e 2ccc f93c 8258 2f3c
000000e0: 2a44 1bbd d3e4 2c3b 75c7 cc3c 3c83 353e
000000f0: 31b1 1fbe 38e4 7fbd 12ee 00be bdd4 d7bd
00000100: 5f97 a7bc ef72 a43c f177 813e 08ca 89bb
00000110: d105 a0bb a958 94bd 84a9 29be e263 38bd
00000120: e3f7 613d 5b61 5bbe cb6c 06be 2dca c53c
00000130: b25e ffbd 2892 2d3d 57a3 12be cbca 583d
00000140: f17b ad3c 08dc 8c3d b471 a4bd 56a2 343b
00000150: 6541 773d b564 1d3e bc55 15be fd22 bfbd
00000160: 6ef8 593e 5714 f2bd fb15 9cbd a3dd f33b
00000170: 167c 5a3e 37e8 97bc 34d9 503d f1ab 253b
00000180: 2859 3639 108e 6fbe 8890 4fbe 6b85 41bd
00000190: d7c3 d0bd 97ff f03e 5e63 40bd b615 36bd
000001a0: 70ef 103d 56fc 8f3d f508 82be d1fa b63b
000001b0: de6f 553e 081f 3c3e 3c1d c4bd 2d04 f93e
000001c0: d9a5 8c3d ee5e bf3d 4aed f8bb 0f8f 32be
000001d0: 1777 91bd ab37 80be f003 eebc 6bbd 7dbd
000001e0: 428f 81bd e7af f0bd 9dae a9be 7757 18bb
000001f0: 4ffe 46bd c814 c53d 81b9 5b3d 613e 873d
00000200: 2653 d0bd 56fb 1c3e 7aab c2bc 0446 33be
00000210: ac03 e23d 8e22 d6bd 577c 43bd d2a1 7abd
00000220: 11e1 ee3c 0c48 513d 4b5b 03bc 5ee5 333c
00000230: e2ab 38be d7cc 7f3e 8fa5 a8be d801 0dbe
00000240: 191f 963c 43ab 543d 96dd 6fbe 7a48 943d
00000250: 5e49 b13b 2d04 26be 26a1 05be b7be adbe
00000260: a64b 243d cfa9 f13d a259 d33d 6827 4b3e
00000270: 5f00 1fbe a0c5 3dbd 7c4b 183d 53d7 913c
00000280: 0d21 48be e89c 45bd fd65 76be 1337 5cbd
00000290: d7c7 febc 4c7f e7bd 344e 663d 070c 473e
000002a0: 6448 90be 1e08 c1bc fc0a d7bd 7790 75bd
000002b0: 5353 0c3b 2cc1 263d 5476 eebc f505 a2bc
000002c0: 49aa 1c3e 8a45 0abe 4f5a 113e 06fe e4bd
000002d0: f3d8 9b3c 2d28 433d 716d 16be ae60 763d
000002e0: ef13 c83b d978 6dbd f76b 07be 4250 b0bd
000002f0: ce5f c93d d7c1 a93d 198c 893c 194f 8ebd
00000300: ac1c 213e 67df 47bd cca7 3e3b 9f40 ce3c
00000310: ae30 dcbc 74f2 683d b934 b4bd 8a80 a9bd
00000320: 615f 03be eaee 123e eb32 493b a67f a83d
00000330: 085b 5a3e 6395 053e 87a2 f93d 5378 2bbc
00000340: 9c98 ea3c 1bd4 543d 4acd 8cbd 2a6f 943e
00000350: 9f25 473d 0fb8 9e3d f443 d33b 5aaa 50bd
00000360: d298 c23c d4ee f139 d2e9 0fbe b76c 5ebe
00000370: 3835 403c 0ed9 3f3c 7faf 7abc 1742 013e
00000380: 41f4 e1be 3585 623d 9c11 c8bd 6ac1 30bd
00000390: 1209 a0be 1b52 1e3d 0fb4 bdbd 19ef 26bd
000003a0: b841 1b3d 7332 8b3d aac7 17be 63d8 e6bd
000003b0: fb7a 7d3e 59fa 703c 7622 74be 01e3 853e
000003c0: 2215 f738 e228 e4bc 1a17 97bd 8164 c2bc
000003d0: d88e f8bd 00db dd3c 40e3 e6bb a975 81be
000003e0: da65 5bbe ddc1 37be a3d0 d0bc c36d 12be
000003f0: 2eae 0dbe 203d 46bc d9c7 57be 8a21 63bd
0.042084 0.2854671 -0.029367227 0.004275505 -0.0795223 -0.04515107 0.01644206 0.044505533
0.03588818 -0.014182014 -0.0664837 0.11499606 0.27142727 0.056038883 0.070370495 -0.15204929
-0.09424417 0.08914669 0.018363819 -0.033047438 -0.1542624 0.09778086 -0.14725997 0.16124229
0.12585731 -0.09697919 0.17595246 0.035040844 0.078951344 -0.05522694 -0.02271662 0.33009213
-0.19951023 0.2207318 -0.063245445 -0.049104664 0.08964464 0.037251785 -0.013934822 0.035065904
0.009055586 0.06028025 -0.003204666 0.036676567 0.096051835 -0.018521255 -0.01598291 -0.1372299
-0.17790782 -0.11258987 -0.08794164 0.016199127 0.15528928 0.13010116 0.030492865 0.010702254
-0.037906803 0.0026381507 0.024997452 0.17725843 -0.15594937 -0.062473506 -0.12590817 -0.105386235
-0.020457922 0.020074336 0.2528682 -0.004204992 -0.004883506 -0.07243473 -0.16568571 -0.04501713
0.055168044 -0.21423857 -0.13127439 0.024144256 -0.124692336 0.042375714 -0.14320122 0.052927773
0.021177264 0.06877905 -0.080295 0.002756258 0.0603651 0.15370448 -0.14583486 -0.09332845
0.21286175 -0.11820286 -0.0762138 0.0074421926 0.21336398 -0.018543346 0.05098839 0.0025279487
0.00017390086 -0.23394036 -0.20269978 -0.047246378 -0.101936035 0.4707 -0.046969764 -0.0444543
0.035384595 0.07030551 -0.2539746 0.005584099 0.20843455 0.18371212 -0.095758885 0.48635998
0.068675704 0.09344278 -0.0075966464 -0.17437385 -0.07102793 -0.2504247 -0.029054612 -0.06194822
-0.063261524 -0.11752301 -0.33141032 -0.0023245492 -0.04858237 0.09623104 0.053643707 0.06603695
-0.10172109 0.15330252 -0.023763407 -0.17507178 0.110358566 -0.104558095 -0.047726 -0.06118948
0.029160054 0.0510941 -0.008017371 0.010979978 -0.18034318 0.24980484 -0.3293881 -0.13770235
0.018325375 0.05192114 -0.23424372 0.07240386 0.0054103574 -0.1621253 -0.13049755 -0.33934566
0.040111206 0.117999665 0.103198305 0.19839251 -0.15527485 -0.046331048 0.037181363 0.01780287
-0.19543858 -0.04824534 -0.24062343 -0.05376346 -0.03110115 -0.11303577 0.056226924 0.19438182
-0.2818023 -0.02356344 -0.10500142 -0.059952226 0.002141197 0.040711567 -0.029109158 -0.019778231
0.15299334 -0.1350309 0.14194606 -0.111812636 0.019024348 0.047645736 -0.14690186 0.060150795
0.006105892 -0.057976577 -0.13224779 -0.08609058 0.098327264 0.08288925 0.016790437 -0.069486804
0.15733594 -0.048797037 0.0029091714 0.025177298 -0.026878681 0.056871846 -0.087991185 -0.0827647
-0.12829353 0.14348951 0.0030700515 0.08227472 0.21323788 0.13045268 0.12189203 -0.010465699
0.028637223 0.051960092 -0.06875093 0.2899106 0.048619863 0.0774995 0.0064473096 -0.05094371
0.023754511 0.00046145043 -0.14054039 -0.21721159 0.011731438 0.011709465 -0.015300631 0.12622868
-0.44131663 0.055302817 -0.09768984 -0.043153204 -0.3125692 0.03865252 -0.09262859 -0.040755365
0.03790447 0.06796732 -0.1482226 -0.11271741 0.24753945 0.014708125 -0.23841271 0.26149753
0.00011781814 -0.027851526 -0.07377453 -0.023729565 -0.1213662 0.027081966 -0.0070461333 -0.2528508
-0.21425572 -0.17945047 -0.02549011 -0.14299683 -0.13835976 -0.012099534 -0.2107233 -0.055451907

4.bias f4 [175]
00000000: e681 8bbe d720 1c3e 304e 0bbe 9c0c a4bd
00000010: 2a2b febc 93e4 b43d df43 f9bd bed9 2640
00000020: 3962 963f 6702 87bc 78b6 04be 6661 8d3f
00000030: b3fd a63e 9b42 c9bb 2978 5f3e 0309 adbe
00000040: 9466 a63e 39fa de3e db77 d1bc 1524 30bd
00000050: d329 753f 4197 293f 79da 2ebe a0ca 553f
00000060: ac85 473e af04 3ebe 63ac 8cbe 8a86 36bd
00000070: 79b0 dfbc dee1 893f 24ac 0bbf 81ff e03c
00000080: 5ff4 0dbf f8b0 853f 7bb9 fdbe 391a bd3e
00000090: 59c4 b4bd 608b 183e 6266 983f 3443 e73c
000000a0: 1129 453d b138 6d3f 9332 fcbe 1fe6 c23e
000000b0: a052 c63e 0dd7 aa3e fbbb 8d3f ebd5 d6bb
000000c0: 461a ac3e 9936 823e 8b99 0f3d f96f 5f3d
000000d0: a0a1 d83d 3406 9cbe 0e79 babe d9d4 d0be
000000e0: fd4a 613f 2e4c 4bbf dc20 35bf 5a89 84bd
000000f0: c046 233f 2f86 1a3f 8551 7d3f 0927 5b3f
00000100: bd97 99be 27a2 ff3e 38dc 3b3f 7ceb a63e
00000110: 9a55 5d3c 107d 24bc 3e09 8fbe 2b6a b73f
00000120: 000a 59bf 0af9 30be 8430 b83d 4359 99bc
00000130: 036e 68bc 2e5b d73e 5461 c338 caea 053f
00000140: 7f6d 493e b94b ea3e e4fa 993c 8a85 5bba
00000150: e5d0 ec3d 4a1f 433e d865 c2bb f5a4 dbbd
00000160: 9602 46bd ca20 77bd df82 613e c982 25bd
00000170: 9b19 e9bd db04 b43e b89d e83c de33 a33e
00000180: 7a68 803e 6e08 6dbe 78e3 f9bd e9a1 57be
00000190: d052 993d 78b6 713f c7bf 5f3f f000 86be
000001a0: d379 943e 962b 2340 fd20 bdbd b602 e13d
000001b0: 3b86 0d3d 9d02 f73e f617 883e 92d9 2ebd
000001c0: ac57 d9bd 1b15 793e ddbb ddbb 2b33 a2bd
000001d0: 6e8c 2b3e b56e 373f 9d45 67bf 0e99 7f3f
000001e0: eaf4 80bd 42d9 673e 548b 5a3d f79b 9ebd
000001f0: f8bc 783e 3aaf 053f 23c5 233e 6764 333e
00000200: e47b ac3f 1b03 973e 0dc6 123f 0b51 cabe
00000210: 405f a2bd 9533 7fbe 42c9 e8bd 8473 06bf
00000220: f294 0f3e 25b8 f73e 846b c13e d919 dbbd
00000230: a769 69ba d0fc a4be e36a 163e 1044 d8be
00000240: d929 7fbc d6ed 25bd 1abe 4e3f 195a 6abd
00000250: 18f8 a9be 2fd4 793e e66c 3a3f b926 7a3f
00000260: 23f4 aa3d 87ed 75be f8ae e93d 0b7a 9d3d
00000270: 89ee d33e 8aab 023d 6c93 143f 7be0 b33d
00000280: a4cd 3c3f 93a6 2f3f 7ebe a5ba a78b 8cbd
00000290: 16d7 5ebe 6f27 c7bd ef33 9abc 0d34 c3bc
000002a0: b4d3 13bf 3e9f bc3e 288c 333e 38b0 293f
000002b0: f2aa 2dbf b71c 503e a0e0 1e3f
-0.27247542 0.15246902 -0.13604045 -0.080102175 -0.031026442 0.088326596 -0.121711485 2.60704
1.1748725 -0.016480638 -0.12960231 1.1045349 0.32615432 -0.006141973 0.21823181 -0.33795938
0.32500136 0.4355028 -0.025569847 -0.04300316 0.95766944 0.6624642 -0.17075528 0.83512306
0.19484586 -0.18556474 -0.2747527 -0.0445619 -0.027305828 1.0772054 -0.5455954 0.027465584
-0.55451006 1.0444632 -0.49555573 0.3693407 -0.08826513 0.14896917 1.1906245 0.028230287
0.048134867 0.9266463 -0.49257335 0.38066193 0.38734913 0.33367196 1.1072992 -0.0065562627
0.33613795 0.2543228 0.03505854 0.054550145 0.105777025 -0.30473483 -0.36420482 -0.4078739
0.8800505 -0.79413116 -0.70753264 -0.0647151 0.6377983 0.60361 0.98952514 0.8560644
-0.2999858 0.499284 0.733829 0.32601535 0.0135091785 -0.010039583 -0.2793674 1.4329275
-0.84780884 -0.17282501 0.089936286 -0.018719321 -0.014186385 0.42061752 9.316453e-05 0.52311385
0.19670676 0.45760897 0.018796392 -0.0008374086 0.11563281 0.19054905 -0.005932551 -0.107248224
-0.04834231 -0.060334004 0.2202258 -0.04040793 -0.11381837 0.35159954 0.028395519 0.3187551
0.2507971 -0.23147747 -0.12201589 -0.21057858 0.07486498 0.9441905 0.87402004 -0.2617259
0.28999195 2.5495353 -0.09234808 0.10986845 0.03455184 0.4824418 0.2658078 -0.04268796
-0.10612425 0.24324457 -0.00676678 -0.07919916 0.16752788 0.716533 -0.90340596 0.9984292
-0.06296714 0.22641471 0.05335553 -0.07744592 0.24290836 0.522205 0.1599317 0.17518769
1.3475308 0.29494557 0.5733345 -0.39514956 -0.07928324 -0.2492202 -0.11366512 -0.5252001
0.14021662 0.4838268 0.3777734 -0.106982894 -0.0008903988 -0.3222413 0.14689212 -0.42239428
-0.015573942 -0.04051002 0.8075882 -0.05721483 -0.33197093 0.24397348 0.72822416 0.97715336
0.08347347 -0.2401639 0.11410326 0.076892935 0.41392925 0.031901874 0.5803745 0.087830506
0.7375128 0.6861355 -0.0012645272 -0.06862574 -0.21761736 -0.09724318 -0.018823592 -0.02382853
-0.5774491 0.36840242 0.17533934 0.66284513 -0.67838967 0.20323454 0.620615

6.weight f4 [157, 175]
00000000: 887d 143e 33bd 9dbd aea9 2ebd 879f f4bd
00000010: fe69 38bd f0e7 03bd 2bce 153c 3809 0f3d
00000020: 8a41 aabc 7a7d 1e3d 690f 323c a060 b13d
00000030: be14 753d 415b 3f3c 07a8 59be aeac 8dbc
00000040: d303 933d 7e63 713d eb26 bbbe c7e6 87be
00000050: 2335 3f3e 0e3c 9fbe a6ac 263e f833 bc3c
00000060: 3f2d 283e b28e 513e a8b4 c03d b7a5 cdbe
00000070: 3633 b6bd ba32 c63d db06 c8bd b198 5ebb
00000080: 112e a03d 12b6 a0bd 022a 7dbe 1043 bbbd
00000090: 6b7a f93c 920e a93e e83b 853d 8415 643d
000000a0: a7d3 94bd a426 84bd 56d0 533e ff87 e13c
000000b0: db03 b3bd 9410 edbe 110b 95be 7214 0cbb
000000c0: 51cc d73e a1a8 57bd 5083 15bd da8f 8d3d
000000d0: e4fb 2ebd 00dc 5db5 2df0 d9bd 4d12 773d
000000e0: b707 83bd 00b8 05be b59c d53c 2994 79bb
000000f0: 0a07 e5bd 0649 153d f601 203e 6143 703d
00000100: 9c11 783e fd02 4dbc 2c82 cebc 2984 1a3d
00000110: 71ab 68be 9669 aebd 6030 a13d b4dc 2abe
00000120: 8640 ad3d 5d5d 06be 854b ccbd efdd eabd
00000130: ad62 3ebd 8008 f2bc 2d2f f23a 7df3 063e
00000140: 9418 443d fccc c23c d7cb 98bc 1e9b c23c
00000150: be1f 293e 9e93 0abb ac01 1abe 95a0 803d
00000160: 0fcb 32be 1262 9ebd d054 353d 6403 49bd
00000170: 1373 28bd c6c5 2fbe 8181 883b 7a73 21bd
00000180: 56ff 8bbe fcc8 33bc 1237 dc3d 4cef b5bd
00000190: 016b 90be 3e41 f7bc 4d9b a4be fd4c 3bbe
000001a0: 07a3 a7be 85c2 3cbe ec4b e7bd c719 12be
000001b0: 5c09 02be 2a3f 013d daa4 353e 1a2b 40be
000001c0: db9e c3bd b027 733b 8aa0 7abd 6d82 853d
000001d0: 1291 9fbc 6d03 77bf df7b 8c3d 6068 0fbe
000001e0: dd4f 053d a19c b9bc 21b7 2ebe de0e c6bc
000001f0: 8b2f 23be b3fb b43d d3c7 7e3d 258e 923a
00000200: 7dc1 3b3d 92a3 80bd 39ef a1bd 22b9 af3d
00000210: e2e5 9a3d 70d5 06be 292c 95be dd7e 1e3e
00000220: 0a8b 85bd cd24 5ebe e821 29bd 02ef 253e
00000230: 670b 58bd 4323 10be 3130 e3bd ca57 47bd
00000240: febd f2bc 7e51 03bd 83fd 053e 8b44 87be
00000250: 6911 dcbd d52a aa3c a7d8 33be db88 67bc
00000260: 4d68 11be 2da7 c5bc c5d9 973d ff03 b43c
00000270: 0478 543e 06f6 623d 0312 d33d 8f9a d5bc
00000280: adde 2abd 7030 8a3d fefd 40bd 3de3 683d
00000290: 6f81 443c 6f9d e83c b367 08be 59b8 1e3d
000002a0: 10b3 eabd 4cde 953d 7ac3 9bbe b2d4 aa3e
000002b0: 2345 abbc 3ff1 46bd a6fb b83c c5cd 8d3d
000002c0: 2902 3abd 5345 7abd 84d8 09bc cafa abbd
000002d0: 4f5f a9bd 1546 a63d 412b 86bd 0e68 e4be
000002e0: 91af b0be b0f5 113d de45 4dbd 49c1 9cbe
000002f0: 3ca5 6a3d 26c2 12bc 9201 e4bd fb0a 76bc
00000300: 53ba 903d 4120 b3bd 3b43 043d a095 ec3d
00000310: a495 e8bd 60d7 c8bd f45f 1ebc 4031 bebd
00000320: d742 acbc 5cee ba3d f716 ccbd 4feb c93d
00000330: 447b 05bf 108b 38bc ecb0 17bd 5563 ee3d
00000340: dbba 48bd 0051 f6be da18 35be 8d0c 8abd
00000350: ac83 85bd c40b 903c ebdc 2cbd 1c5e 063d
00000360: 1571 7a3d e40d 7e3d 9f43 26be 903d 95bb
00000370: 9abe babe e644 fe3b 9a9c 28bc 7b50 3c3e
00000380: e587 36bc 2b00 09bf 58c5 76be 0caa 403e
00000390: 0496 a13c fe8f 813d 9f77 983c dbed e3bd
000003a0: 357c 9fbd 0062 c23d 476f d2bb f5c3 403e
000003b0: abb4 273e 7efd 183d 4aa3 083e 3535 c43c
000003c0: 8509 173e 07f6 b73e 0e2f 3dbe 3d8d 623c
000003d0: dce4 483d adf9 a8bc 8dcd 983d d8c5 583d
000003e0: 5faf a23c 68b8 eb3d 7467 d43d 7167 5f3d
000003f0: 5abc 69be 8937 eebb 594f 083e 4ef7 63bd
0.14501011 -0.077021025 -0.042642288 -0.1194449 -0.045022957 -0.032203615 0.009143393 0.0349209
-0.020783205 0.038693883 0.010867932 0.08661008 0.059834234 0.0116794715 -0.21255504 -0.017294254
0.07178464 0.058932774 -0.3655313 -0.26543257 0.18672614 -0.31100506 0.16276798 0.022974
0.1642351 0.2046459 0.094094574 -0.40165493 -0.088964865 0.09677644 -0.097669326 -0.0033965523
0.078212865 -0.07847227 -0.24723056 -0.091436505 0.030453881 0.3301893 0.06505567 0.05568458
-0.07266932 -0.064526826 0.20684943 0.027530668 -0.0874097 -0.4630171 -0.29110005 -0.002137449
0.4214807 -0.05265105 -0.036502182 0.06912203 -0.04272069 -8.264906e-07 -0.10641513 0.060320187
-0.06397956 -0.13058472 0.0260757 -0.0038082695 -0.11182983 0.036446594 0.15625748 0.058658008
0.24225467 -0.0125129195 -0.025208555 0.037723694 -0.2272165 -0.08516233 0.07870555 -0.16685754
0.084595725 -0.13121553 -0.09975342 -0.11468112 -0.046480823 -0.029545069 0.0018477194 0.13178821
0.047875002 0.023779385 -0.018651886 0.023755606 0.16516015 -0.0021145116 -0.150397 0.062806286
-0.17460273 -0.07733549 0.044270337 -0.0490755 -0.04112537 -0.17165288 0.0041658287 -0.039416768
-0.27343243 -0.010973211 0.10752691 -0.08883533 -0.28206638 -0.030182477 -0.32149735 -0.18291087
-0.32741567 -0.18433578 -0.11293778 -0.14267646 -0.12698883 0.03155438 0.17738667 -0.18766442
-0.09551784 0.0037102513 -0.06118826 0.06519017 -0.019478355 -0.964896 0.06859564 -0.1400466
0.032546867 -0.022657694 -0.17062046 -0.024177011 -0.15936105 0.0883707 0.062202286 0.0011181278
0.04583882 -0.062811986 -0.07906956 0.08580233 0.07563378 -0.13167357 -0.29135254 0.15478082
-0.0652066 -0.21693726 -0.0412921 0.16204455 -0.05274525 -0.14075951 -0.11093176 -0.048667707
-0.029631611 -0.03206014 0.13084988 -0.26419482 -0.10745508 0.020772377 -0.17563115 -0.01413175
-0.14199944 -0.024127567 0.07414583 0.021974562 0.20748907 0.055410407 0.1030617 -0.026074676
-0.041716266 0.0674752 -0.047117226 0.056857336 0.01199375 0.028395383 -0.13320808 0.038750026
-0.11459935 0.073177904 -0.30422574 0.333654 -0.02090699 -0.048569914 0.022580933 0.06924013
-0.045412216 -0.06110127 -0.008413438 -0.083974436 -0.08270132 0.08118836 -0.06551219 -0.44610637
-0.34508947 0.035634696 -0.05011546 -0.30616215 0.057286486 -0.008957421 -0.11133112 -0.015017266
0.070667885 -0.08746386 0.03229068 0.11551976 -0.11356667 -0.098067045 -0.009666432 -0.092867374
-0.021027965 0.09127495 -0.09965318 0.09859335 -0.52141213 -0.011263624 -0.03703396 0.1164004
-0.049006324 -0.48108673 -0.17685261 -0.06740675 -0.06519255 0.017583735 -0.04220287 0.032804593
0.061143 0.062024966 -0.16236733 -0.004554458 -0.36473542 0.007759678 -0.010291243 0.18390076
-0.011140798 -0.5351588 -0.24098718 0.18814868 0.019724853 0.063262925 0.018611727 -0.11129352
-0.077873625 0.09491348 -0.0064219567 0.18824752 0.16377513 0.037351124 0.1334354 0.023951152
0.14749725 0.3592989 -0.18474981 0.013827619 0.049046382 -0.020626867 0.07461081 0.052923054
0.019859014 0.11509782 0.103712946 0.05454201 -0.22825757 -0.007269804 0.13311519 -0.05565577

6.bias f4 [157]
00000000: 6948 c53d 17f1 eebd 535c 32be 46e9 09bd
00000010: 1fcd 33bf 85a1 5b3e 59dd 51be d185 4dbe
00000020: 8422 633f baa8 04bf 9620 f8be 7a27 6e3d
00000030: c508 62bf 4e4e a13e be11 803e eed5 0dbd
00000040: 557b debe 2655 1c3e 728a 003f 64bb 63bf
00000050: 760e 44be ba5e a9be ff92 aabe 8b83 ad3e
00000060: 1aaa b13e dffb 8e3f 9378 18be 3d9d 30be
00000070: 6a4a a6be 35c8 f6bc 1efa 2bbf 63ab 283e
00000080: ee04 1dbd e81e 55be 1a77 13bf aaec 1bbd
00000090: 53b4 65bf 1c09 f0bc d4bf d8bd 8ca4 38be
000000a0: 7466 47bb 33b1 83be 5379 27be b103 973e
000000b0: 7c04 943f 4a80 f3be 8d0a 3aba 983a 11bf
000000c0: 3ad0 a5bd 643e 393f fb6e bf3e 040e c7bd
000000d0: 5936 13bf bea4 a7be ba7c b6bf 2c9c 433f
000000e0: efa5 47bf 5f77 04bf 9fb8 cf3d 3f60 de3d
000000f0: 70f7 ebbe 89c4 12be ccdd 583e ba62 55bd
00000100: 0843 1c3f 1410 4bbd c9c5 3cbe b764 3d3e
00000110: a39d b83e dce4 ad3e e8ff d83d 2104 09bf
00000120: eaa1 94be 3eb9 673e 6489 ea3e 0c81 d63e
00000130: af5b 343e 0a1d 353e 7514 0ebf 5483 2ebe
00000140: d418 543f 7784 573f 7fd3 c5bd c252 41bf
00000150: 9051 87be 22e3 e73e 71b2 1c3e 2854 cd3d
00000160: ce66 3c3f 9b1a 153e c6a7 7f3e ceb9 9abc
00000170: 0f6d 333f 9b94 c43e 0750 233f 1adb 00bf
00000180: 1d5b 4abf f1ba 33be c5ae a7be acb9 d6be
00000190: 1ef4 b03e 9afa d03b 609f 643e 72ac 1abf
000001a0: 9477 6abe c7d9 21be 800d 343e 6997 c33d
000001b0: 43ef 6e3f d2c4 4abd 5401 a6be ee00 82be
000001c0: b822 82be b73b c53e a038 853e 9791 043e
000001d0: b770 8cbf c8f8 933d 9b0e b7be 9a12 82be
000001e0: ed44 813e 7303 55bf 8803 c63e da95 0fbd
000001f0: 56cc a0be e4db 2a3f 87ae 383f b31b 53be
00000200: 54bb 1e3f 9841 c93e 7693 1b3f 9482 85bd
00000210: 4256 e9bc f9b1 fcbd 121a 73bf 7d77 93be
00000220: 8aed 2fbf 3b0b b83e dc7f 0abf d57e a6bc
00000230: 1922 713f 614b e6bd 93d6 f43d 3114 82bd
00000240: b0e8 5ebe 69d7 333f 4a15 573e 5cbd 0b3e
00000250: 7117 1d3f 77ab 033f 9527 063f 756b 573e
00000260: e960 b5be 250c 7cbf 68cf 643d b9fb db3e
00000270: 5ac0 593f
0.09632952 -0.11667078 -0.17418031 -0.033669733 -0.70234865 0.21448334 -0.20494594 -0.20070578
0.8872454 -0.51819956 -0.4846236 0.058143117 -0.8829463 0.31505054 0.25013536 -0.034627847
-0.4345347 0.15266857 0.5021125 -0.8895781 -0.19146141 -0.33080083 -0.33315274 0.33889422
0.3470009 1.1170615 -0.14889745 -0.17247482 -0.32478648 -0.030124763 -0.67178524 0.16471629
-0.03833478 -0.20812571 -0.5760361 -0.038067497 -0.8972828 -0.029301219 -0.10583463 -0.1803152
-0.0030426057 -0.2572113 -0.16354875 0.29495004 1.1563869 -0.47558814 -0.0007096909 -0.5673003
-0.08096357 0.72360826 0.3738936 -0.0971947 -0.575048 -0.32742876 -1.4256814 0.76410174
-0.7798757 -0.51744646 0.101426356 0.10858201 -0.46087217 -0.14332785 0.21178359 -0.052096106
0.6103978 -0.04957588 -0.18434824 0.18495451 0.36057767 0.33963668 0.10595685 -0.53521925
-0.2902978 0.22629258 0.45807946 0.4189533 0.176131 0.17686859 -0.55499965 -0.17042285
0.82850385 0.841865 -0.0965948 -0.75516903 -0.26429415 0.45290476 0.15302445 0.10025817
0.7359437 0.1456093 0.24966344 -0.018887427 0.70088285 0.38394627 0.6379399 -0.5033432
-0.7904528 -0.17551781 -0.32750526 -0.4193853 0.34561247 0.0063775303 0.22326422 -0.6041938
-0.22897178 -0.15805732 0.17583275 0.095503636 0.93333834 -0.04950411 -0.32422888 -0.25391334
-0.25417113 0.3852212 0.26019764 0.12946163 -1.0971898 0.07225186 -0.3575333 -0.25404817
0.252479 -0.8320839 0.3867457 -0.03505502 -0.31405896 0.66741776 0.7214131 -0.20616035
0.6200459 0.39307857 0.6077188 -0.065190464 -0.028483514 -0.12338633 -0.94961655 -0.288021
-0.6872183 0.35946068 -0.5410135 -0.02032415 0.94192654 -0.11244846 0.11954989 -0.063515075
-0.2176845 0.70250565 0.21004215 0.13646454 0.61363894 0.5143351 0.5240415 0.21037085
-0.354255 -0.9845603 0.05586186 0.42965487 0.8505913
