pav_spkid_pytorch/lp_model_hsize_175_lr0001/e7_weights.ckpt (torch_old, 491138 bytes, 8 tensors)

0.weight f4 [175, 189]
0	0xbc92d7c9	-0.01792516
1	0x3df2051d	0.118173815
2	0xbd54c901	-0.051949505
3	0x361f5f80	2.3748435e-06
4	0xbcc46b05	-0.023976812
5	0xbe4cc790	-0.19998002
6	0xbda24128	-0.07922584
7	0xbdc2c365	-0.09509925
8	0x3d7f3056	0.062301956
9	0x3b9b3e13	0.0047376244
10	0x3e3dc975	0.18533881
11	0xbcda9590	-0.026682645
12	0x3cd91d13	0.026503121
13	0x3d02c709	0.031928096
14	0xbe118e9d	-0.14214559
15	0x3d1848b2	0.037178703
16	0xbe576504	-0.21034628
17	0x3dfca6a2	0.1233647
18	0x3bf8e028	0.007595081
19	0x3e30a31a	0.17249718
20	0xbd29c336	-0.041445933
21	0xbd3bca5d	-0.045847286
22	0x3d037fba	0.03210423
23	0xbe179580	-0.14803123
24	0x3c283f12	0.010268943
25	0xbe36348c	-0.17793483
26	0x3dbb3356	0.09140651
27	0xbb493b9d	-0.0030705698
28	0x3dc15ebf	0.094418995
29	0x3d16d3f5	0.03682323
30	0xbd8a66ad	-0.06757865
31	0x3d60f7dc	0.054923877
32	0xbe529dbc	-0.20567983
33	0xbbab6c0c	-0.005231386
34	0xbe8ec5a2	-0.27885157
35	0x3dbc5ad1	0.09197009
36	0x3b9c8921	0.004777089
37	0xbd3b6592	-0.045751162
38	0x3ddf8104	0.1091328
39	0xbd803c2b	-0.06261476
40	0x3d935279	0.07193465
41	0xbe7fb3c4	-0.24970919
42	0x3dde4e14	0.10854736
43	0xbe9a41b2	-0.30128247
44	0x3d828fe0	0.06375098
45	0x3c69a3be	0.014260231
46	0x3d0f9cd7	0.035061684
47	0x3e16883b	0.14700405
48	0xbdb65afd	-0.089040734
49	0x3c9e203a	0.019302476
50	0xbe0cc8c2	-0.13748458
51	0x3d21dd2d	0.03951757
52	0xbe95b5a6	-0.2924015
53	0xbc95a224	-0.018265791
54	0x3a892743	0.0010463971
55	0xbc45decd	-0.012077046
56	0x3e1ecb82	0.1550732
57	0xbdaa3d11	-0.08312429
58	0x3bea85e8	0.007157076
59	0xbd88dce7	-0.06682759
60	0xbd9763ec	-0.073921055
61	0xbe8b28cb	-0.2717956
62	0xbc738dc6	-0.014865344
63	0xbca54859	-0.0201761
64	0xbd8ff938	-0.070299566
65	0x3e191120	0.14947939
66	0x3cf95ad2	0.030438814
67	0xbc57e0eb	-0.013176183
68	0xbdb4a6d6	-0.08820884
69	0xbd88d238	-0.06680721
70	0xbe559937	-0.20859228
71	0xbd741f51	-0.05960018
72	0xbc95fbef	-0.018308608
73	0xbc715a7b	-0.014731045
74	0x3d955fb2	0.07293643
75	0x3c2f6cc3	0.010707083
76	0xbdd53368	-0.104101956
77	0x3dafb732	0.085798636
78	0xbe20ca30	-0.15702128
79	0xbe78adb3	-0.24285011
80	0xbe24b545	-0.16084774
81	0xbd193153	-0.037400555
82	0xbd93e136	-0.0722069
83	0x3e193874	0.14962941
84	0x3dcb1402	0.099159256
85	0xbdaf36c3	-0.08555367
86	0x3e0bc28b	0.13648431
87	0xbe106945	-0.14102657
88	0xbe7f5312	-0.24934033
89	0xbe1ac008	-0.15112317
90	0xbd38f057	-0.04515108
91	0xbdecd19d	-0.11563418
92	0x3dbedec6	0.093198344
93	0x3dc232f6	0.09482376
94	0xbd3b2454	-0.045688942
95	0x3e09c182	0.13452724
96	0xbe280133	-0.16406707
97	0xbe37b986	-0.17941865
98	0xbe4f990d	-0.20273228
99	0xbce036d8	-0.027369902
100	0xbd8857c8	-0.06657368
101	0x3e7d5dbe	0.24742791
102	0xbd57296e	-0.052529745
103	0xbb3a633f	-0.0028440503
104	0x3d482377	0.048861947
105	0xba87c79f	-0.0010359174
106	0xbee46504	-0.4460832
107	0xbe41c2bc	-0.18921942
108	0xbbcb16e3	-0.0061977967
109	0xbe02df62	-0.12780526
110	0x3e939877	0.2882726
111	0xbd70e21e	-0.058809392
112	0x3d919090	0.07107651
113	0xbdc65a7d	-0.09685228
114	0x3e087025	0.1332403
115	0xbf1a48be	-0.60267246
116	0x3c65d6c8	0.014028259
117	0x3c88d218	0.016701743
118	0xbdae92ff	-0.08524131
119	0x3e935c35	0.28781286
120	0xbe7534b4	-0.23945886
121	0x3e999007	0.29992697
122	0xbe546912	-0.20743206
123	0x3e43bfbd	0.19116111
124	0xbf477873	-0.77918166
125	0x3d4a2e05	0.049360294
126	0x3d09fcf4	0.0336885
127	0xbe19a539	-0.15004434
128	0x3ec0dea3	0.37669858
129	0xbe8d914a	-0.2764991
130	0x3eaf85ab	0.34281668
131	0xbee85dd4	-0.45384085
132	0x3e95db9e	0.29269117
133	0xbf674d1d	-0.9035204
134	0x3dcd3b76	0.10021107
135	0x3d3f3c2f	0.046688255
136	0xbe35db45	-0.17759426
137	0x3ec72c43	0.38900957
138	0xbe9579c7	-0.2919447
139	0x3eee3feb	0.4653314
140	0xbec11dc0	-0.3771801
141	0x3e74a518	0.23891103
142	0xbf5fe9cf	-0.8746614
143	0x3dcab30b	0.09897431
144	0x3c9c4751	0.019076975
145	0xbe0bf86d	-0.13668986
146	0x3ebe3478	0.37149405
147	0xbe6681fb	-0.22510521
148	0x3ed7a204	0.42115796
149	0xbe834624	-0.2563945
150	0x3e85c89a	0.2612961
151	0xbf3b0897	-0.7305998
152	0x3d7fc5d5	0.062444527
153	0x3cb3c3c4	0.021943934
154	0xbda7fe24	-0.0820277
155	0x3ee42bb2	0.44564587
156	0xbe168b49	-0.1470157
157	0x3eceb562	0.4037276
158	0xbe5a789f	-0.21335076
159	0x3e125357	0.14289604
160	0xbf1eb03f	-0.6198768
161	0xbe393037	-0.18084799
162	0xbd121c9e	-0.035671823
163	0x3cf457b3	0.029826974
164	0x3ec03cf1	0.37546495
165	0xbd439eea	-0.047758974
166	0x3e7bcc7f	0.24589728
167	0x3c8a8353	0.016908323
168	0x3c581152	0.013187723
169	0xbeef1a7b	-0.4669989
170	0xbe727bf3	-0.23680095
171	0xbd1f73aa	-0.038928665
172	0x3de35c96	0.11101644
173	0x3e96a85e	0.2942533
174	0x3e026dff	0.12737273
175	0x3d88a0de	0.06671308
176	0x3e905dd5	0.28196588
177	0xbdd61caa	-0.10454686
178	0xbe47c9f9	-0.1951064
179	0xbeb04b30	-0.34432364
180	0xbdc613b4	-0.09671727
181	0x3d93df49	0.07220323
182	0x3e8e65a3	0.27811918
183	0x3e9180c7	0.28418562
184	0x3c8d16ea	0.01722284
185	0x3e9c194f	0.3048806
186	0xbe4d4d7e	-0.20049092
187	0x3c85ff37	0.016357047
188	0xbee68a17	-0.4502723
189	0xbbd2a95f	-0.006428882
190	0xbf18fbc1	-0.59759146
191	0x3df6b567	0.120463185
192	0x3cafeea9	0.021476107
193	0xbe20052a	-0.1562697
194	0x3e066a06	0.13126382
195	0x3f81c82c	1.0139213
196	0xbf98aa31	-1.1926938
197	0xbfbb92b5	-1.4654146
198	0x3d1038eb	0.03521053
199	0xbed1a3ab	-0.4094518
200	0x3e030862	0.12796167
201	0xbd5ebcc1	-0.05437923
202	0xbcd150b4	-0.025551178
203	0x3da7dab1	0.08196009
204	0x3f4fe5d9	0.81210095
205	0xbf6dde4f	-0.9291734
206	0xbfa64647	-1.2990197
207	0x3cefb41f	0.029260693
208	0xbed5f537	-0.41788647
209	0x3e181324	0.14851052
210	0xbcdd2b52	-0.026998196
211	0xbd09b176	-0.033616506
212	0x3d8be476	0.06830685
213	0x3f117f27	0.56834644
214	0xbf504967	-0.81362003
215	0xbf861968	-1.0476503
216	0xbcef0734	-0.02917824
217	0xbec6e0ad	-0.3884329
218	0x3dabd3bf	0.08389997
219	0x3daa80d7	0.083253555
220	0xbdc6f2de	-0.09714292
221	0x3d9bb6f7	0.07603257
222	0x3f1671be	0.58767307
223	0xbf4614cf	-0.773755
224	0xbf85f8da	-1.0466568
225	0x3d1c29e3	0.038125884
226	0xbe9f6a56	-0.31135815
227	0x3dbb5f4d	0.091490366
228	0xbba71d77	-0.005099948
229	0xbdc54f83	-0.09634306
230	0x3dc25ddd	0.09490559
231	0x3f115d07	0.56782573
232	0xbf4daf67	-0.8034577
233	0xbf6f90dd	-0.9358042
234	0xbd056264	-0.032564536
235	0xbe87bea1	-0.26512626
236	0x3dbcc2fc	0.09216878
237	0x3ddb1d4b	0.106989466
238	0xbd2cb27d	-0.042162407
239	0x3dbe1e37	0.09283107
240	0x3f261835	0.64880687
241	0xbf53a8f2	-0.82679665
242	0xbf7a6109	-0.97804314
243	0xbd50bfc4	-0.050964132
244	0xbe8e0367	-0.2773697
245	0x3e2604a7	0.16212712
246	0x3cae9fd8	0.021316454
247	0xbdb19d91	-0.086726315
248	0x3dfec80a	0.12440498
249	0x3f20ab66	0.62761533
250	0xbf394615	-0.7237256
251	0xbf77af65	-0.96752006
252	0x3d41ecbf	0.04734492
253	0xbec75d27	-0.38938257
254	0x3e20e841	0.15713598
255	0x3db4e65c	0.08833

0.bias f4 [175]
0	0xbebe4ede	-0.37169546
1	0x3e24a80e	0.16079733
2	0x3eb8a59c	0.3606385
3	0x3da50691	0.08057893
4	0x3e072401	0.13197328
5	0x3da44a04	0.0802193
6	0x3e463cac	0.19359082
7	0xbd916224	-0.07098797
8	0x3f98e059	1.1943465
9	0x3c172418	0.009224914
10	0xbe2e1e4d	-0.17003746
11	0xbd993d62	-0.07482411
12	0x3d3817da	0.04494462
13	0x3e20c838	0.15701377
14	0xbe833db6	-0.2563302
15	0x3ee712bf	0.4513149
16	0x3dad3489	0.08457286
17	0xbdf6a0ab	-0.12042364
18	0xbf6b6e4d	-0.9196518
19	0x3d89705d	0.06710885
20	0x3f621be6	0.8832382
21	0xbe83b435	-0.25723425
22	0x3ece776d	0.4032549
23	0x3f81f5d4	1.0153146
24	0x3fa7cd78	1.3109579
25	0x373f8930	1.1416429e-05
26	0x3d83a1c3	0.06427338
27	0xbdd59acc	-0.10429916
28	0x3d25d06b	0.040481966
29	0xbedbcb93	-0.42928752
30	0x3e52c3eb	0.2058255
31	0xbca6e84a	-0.020374436
32	0xbe03e689	-0.12880911
33	0x3e3476f6	0.17623505
34	0x3ef19cf5	0.4719006
35	0xbefa2810	-0.4885869
36	0x3e228aad	0.15873213
37	0x3f28cbab	0.6593577
38	0xbe11f834	-0.14254838
39	0xbec36cbe	-0.381689
40	0x3d4dece4	0.050274745
41	0xbefa2322	-0.4885493
42	0xbd845d5d	-0.0646312
43	0xbdaca48c	-0.08429822
44	0xbe94097e	-0.28913492
45	0xbf0598ae	-0.52186096
46	0x3fd7dd5c	1.6864429
47	0x3f9eab47	1.239602
48	0x3dee4bf3	0.1163558
49	0x3f363919	0.71180874
50	0x3e83b896	0.25726765
51	0x3e143307	0.1447259
52	0x3d0f5811	0.034996096
53	0xbec2028b	-0.37892565
54	0xbe866a23	-0.2625285
55	0x3e93ac2a	0.28842288
56	0x3fb08481	1.3790437
57	0xbf09a4b3	-0.53766936
58	0x3e4163d4	0.18885738
59	0xbe649903	-0.22323994
60	0x3dbf68f9	0.09346194
61	0xbe8b0820	-0.27154636
62	0xbcd7a43f	-0.026323436
63	0xbef31253	-0.47474918
64	0xbd19433f	-0.037417646
65	0xbe900753	-0.28130588
66	0xbe47f022	-0.19525197
67	0xbe560f07	-0.2090417
68	0x3e405672	0.18782976
69	0x3f819649	1.0123988
70	0x3e424da3	0.18974929
71	0xbea9dbcc	-0.33175504
72	0xbd30f4c9	-0.043202195
73	0x3f6afdef	0.9179372
74	0x3f033bb7	0.5126299
75	0x3e119b56	0.14219412
76	0x3d8bc6b7	0.06825011
77	0xbd481ac8	-0.048853666
78	0xbdcab0fc	-0.09897038
79	0xbf0a3087	-0.53980297
80	0xbf165355	-0.58720905
81	0x3f590799	0.8477722
82	0xbed10316	-0.40822667
83	0xbca5e74f	-0.020251898
84	0xbf455484	-0.77082086
85	0xbe468943	-0.19388299
86	0x3df4825f	0.11938929
87	0x3d32266c	0.043493673
88	0x3d5f4d1f	0.054516908
89	0x3e65cdc2	0.22441772
90	0x3d1dec62	0.03855551
91	0x3e126322	0.14295629
92	0xbf44c24f	-0.7685899
93	0xbe56b86a	-0.20968786
94	0xbe2ddeb7	-0.1697949
95	0x3b6487df	0.0034871025
96	0x3e08d033	0.13360672
97	0xbdb04fa2	-0.08608939
98	0x3e5a5cb6	0.21324429
99	0xbe1f87a8	-0.15579093
100	0x3ea9e2d0	0.33180857
101	0x3dcf0df9	0.10110087
102	0x3f26bf36	0.65135515
103	0xbf6b5f98	-0.9194274
104	0x3ea3c99b	0.3198975
105	0xbe2f9c3c	-0.17149442
106	0x3de18a4d	0.11012707
107	0x3f2e0636	0.6797823
108	0x3eaa153b	0.33219323
109	0x3d71f124	0.05906786
110	0x3fc5d2a7	1.5454911
111	0x3d3e555f	0.046468135
112	0x3e56435f	0.20924138
113	0xbe3cb8a5	-0.18429811
114	0xbd363ec7	-0.044493463
115	0x3e41f79d	0.18942113
116	0x3ef8b703	0.48577127
117	0xbf89f221	-1.0777017
118	0x3e21f9fa	0.15818015
119	0x3f73478b	0.9503104
120	0xbd986453	-0.0744101
121	0x3f141ec2	0.5785943
122	0x3e68b917	0.22726856
123	0x3e7567fe	0.23965451
124	0x3e2885e6	0.16457328
125	0x3e82f576	0.25577897
126	0x3d3a20e8	0.045441538
127	0x3f0751d6	0.52859247
128	0x3e9d2300	0.30690765
129	0xbeae2e39	-0.3401964
130	0xbda1f9e4	-0.07908991
131	0x3f77f09b	0.9685151
132	0x3f1df9fa	0.6170956
133	0x3d9fb897	0.077988796
134	0xbea27e1f	-0.31736848
135	0x3f073b37	0.5282473
136	0xbd8c7857	-0.068588905
137	0x3e7406f4	0.23830777
138	0x3e2d239f	0.1690812
139	0x3e4efc39	0.20213403
140	0x3c88bb34	0.016690828
141	0xbd41e06b	-0.047333162
142	0xbf11b8fe	-0.569229
143	0xbc87166a	-0.01649018
144	0x3f5c45ee	0.86044204
145	0x3eacab80	0.33724594
146	0x3debe10b	0.11517533
147	0x3e0901a6	0.13379535
148	0xbe1880d9	-0.14892901
149	0x3cb4884e	0.022037651
150	0x3dff0f5f	0.12454104
151	0x3e14572d	0.1448638
152	0xbdf5d5d2	-0.120036736
153	0x3dcedef7	0.10101121
154	0x3e0e43ca	0.13893047
155	0xbe0ef83f	-0.13961886
156	0x3fd31636	1.6491153
157	0x3ebbc9e1	0.3667746
158	0x3f0f0b11	0.5587626
159	0x3f12ecbb	0.5739247
160	0xbd59b42f	-0.053150352
161	0x3fac335b	1.3453172
162	0x3e149aa9	0.14512123
163	0xbe7938e5	-0.2433811
164	0x3e2c5ac4	0.168315
165	0xbd0d5f18	-0.034514517
166	0x3fac8bea	1.3480198
167	0xbdd67c8a	-0.10472973
168	0xbdb1391c	-0.08653471
169	0xbd90f18c	-0.070773214
170	0xbd036181	-0.03207541
171	0x3db086c9	0.08619458
172	0x3ee113b8	0.43960357
173	0x3e91917c	0.28431308
174	0x3d840945	0.064470805

2.weight f4 [175, 175]
0	0xbccb2874	-0.024799563
1	0x3db1482b	0.08656343
2	0xbd2102cf	-0.03930932
3	0x3c95b7d9	0.018276142
4	0x3dbf805b	0.09350654
5	0x3cd2fe8e	0.025756147
6	0xbba712b4	-0.005098665
7	0x3d17b31d	0.03703605
8	0x3c8e140c	0.017343543
9	0x3d921022	0.07131983
10	0x3b7328e2	0.0037103225
11	0xbcbad190	-0.022805005
12	0xbd0ddd6c	-0.034634992
13	0xbd749493	-0.059712004
14	0xbd74b28f	-0.0597406
15	0xbcfff580	-0.031244993
16	0x3b787c08	0.0037915725
17	0xbd300abf	-0.042979
18	0xbd47271c	-0.048621282
19	0xbdcaab4b	-0.09895953
20	0x390ccab0	0.00013426947
21	0x3bf026e4	0.007328855
22	0xbd73e0cd	-0.05954056
23	0x3c8721c2	0.01649559
24	0xbbfd0b6e	-0.00772231
25	0x3be1561b	0.0068767196
26	0x3b15e6e8	0.0022873227
27	0x3d03c3de	0.032169215
28	0xbc6a308f	-0.014293804
29	0x3ccf0d16	0.025274795
30	0xbd24e016	-0.040252768
31	0x3d96acb2	0.07357158
32	0x3c84d2bc	0.016213767
33	0xbc761caf	-0.015021487
34	0x3cd1e2b0	0.025620788
35	0xbc12ee12	-0.008967893
36	0x3df42654	0.11921373
37	0x3d5cbcbf	0.05389094
38	0x3ce96ef1	0.028495284
39	0xbc39d3c0	-0.011341989
40	0x3d996fd7	0.07492035
41	0xbc996ce0	-0.018728673
42	0xbc99543d	-0.018716926
43	0xbcc02a39	-0.023457633
44	0xbc9bef85	-0.01903511
45	0xbcab2aad	-0.020894373
46	0x3d936729	0.071974106
47	0xbd9dd579	-0.07706732
48	0xbc5b6145	-0.01338989
49	0x3d2259b4	0.03963633
50	0xbc72e428	-0.0148249045
51	0x3d89b1b1	0.06723345
52	0xbd4d6602	-0.05014611
53	0xbd8ce674	-0.06879893
54	0xbd3d184d	-0.046165753
55	0xbd853920	-0.06505036
56	0x3d0279be	0.031854384
57	0xbcdd9a4a	-0.02705111
58	0xbc5c127c	-0.013432141
59	0xbd3ef986	-0.046624683
60	0xbd483c80	-0.048885822
61	0xbc7999ef	-0.015234455
62	0x3c2fabd6	0.010722121
63	0xba531d5c	-0.0008053386
64	0xbd914714	-0.07093635
65	0xbc981de9	-0.01856895
66	0xbcf7f8bc	-0.030269973
67	0xbd45d0e4	-0.048294917
68	0x3c353574	0.0110601075
69	0xbe7e1b19	-0.24815024
70	0x3c5e5872	0.013570892
71	0xbd16015a	-0.036622383
72	0x3d7a4beb	0.061107557
73	0x3d8d84ab	0.0691007
74	0x3d2813d0	0.04103452
75	0x3c9c6ee6	0.01909585
76	0xbb225af0	-0.0024773441
77	0xbcaa4be1	-0.020788135
78	0x3bd9384e	0.0066290265
79	0x3d0cda05	0.034387607
80	0x3d814640	0.06312227
81	0x3c4498b3	0.011999297
82	0xbd9a5dc1	-0.075374134
83	0x3ccd4898	0.02505903
84	0xbb96e3e6	-0.0046048043
85	0x3b32a5d7	0.0027259493
86	0xbbaeb106	-0.0053311614
87	0x3b1f33d8	0.0024292376
88	0x3d2758b5	0.040856082
89	0xbd64ff3c	-0.055907473
90	0x3dcc61bb	0.09979578
91	0xbdb6c69c	-0.089246005
92	0xbcef7504	-0.029230602
93	0x3d7afc25	0.06127562
94	0xbda55c77	-0.08074277
95	0xbbba9c8d	-0.005694932
96	0xbd1e9c0e	-0.038723044
97	0xbd63a29b	-0.055574995
98	0x3d9b5f87	0.0758658
99	0xbd2412c9	-0.040056977
100	0x3cf1747d	0.029474491
101	0x3e7e94d1	0.24861456
102	0xbd3240a9	-0.043518696
103	0x3cf30b05	0.02966834
104	0xbce8e6d5	-0.028430382
105	0xbc6ff6cb	-0.014646242
106	0xbc3c8eaa	-0.011508623
107	0x3c7d19a4	0.015448008
108	0x3d356a65	0.04429092
109	0xbd234820	-0.039863706
110	0x3d4a2c2f	0.049358543
111	0xbda200ad	-0.07910285
112	0x3d1ea900	0.03873539
113	0xbd84b4cf	-0.06479799
114	0x3d4a4cff	0.049389835
115	0xbd276d9d	-0.04087602
116	0x3d060d65	0.032727618
117	0x3c5abb7f	0.013350367
118	0xbd94de86	-0.072690055
119	0xbd0653ef	-0.03279489
120	0x3cbafd58	0.022825882
121	0x3d2862df	0.041109916
122	0xbcb86fc8	-0.022514239
123	0xbbbc0424	-0.0057377983
124	0x3dbc3a60	0.09190822
125	0xbcfa1b06	-0.030530464
126	0x3d9e7214	0.077366024
127	0x3c130c03	0.008975032
128	0xbd0ef0a4	-0.03489746
129	0xbbb22fcd	-0.005437827
130	0xbd8818ce	-0.06645356
131	0xbd15e310	-0.036593497
132	0xbd3cabb7	-0.046062198
133	0x3dbdf209	0.0927468
134	0x3c91996c	0.017773353
135	0xbd8f3418	-0.06992358
136	0xbd5d584d	-0.05403929
137	0x3ca94c67	0.020666314
138	0xbd82789e	-0.06370662
139	0x3a2e8442	0.0006657281
140	0x3d8306c7	0.06397777
141	0xbca46e82	-0.020072225
142	0x3bc5d5bc	0.006037442
143	0xbdb04169	-0.08606226
144	0xbc4c1bab	-0.012457768
145	0x3d040d3d	0.032239188
146	0x3c9bea60	0.019032657
147	0xbda85a05	-0.08220295
148	0xbd9a0b31	-0.07521666
149	0x3e295609	0.16536726
150	0xbc7f2b65	-0.015574311
151	0x3ce19a9e	0.027539548
152	0x3c855822	0.016277377
153	0xbdb3fffc	-0.087890595
154	0xbd207b89	-0.039180312
155	0x39725004	0.00023108727
156	0x3d609ccb	0.05483703
157	0xbd6ded83	-0.058087837
158	0xbd9f253e	-0.07770775
159	0xbafdb98e	-0.0019357668
160	0xbd999a80	-0.07500172
161	0xbd7c8b93	-0.061656546
162	0xbde84323	-0.1134093
163	0xbd2497e1	-0.040183906
164	0xbc41affe	-0.011821745
165	0xbd90305e	-0.07040475
166	0xbd441f02	-0.047881134
167	0x3d8d3b61	0.06896091
168	0xbcd677d8	-0.026180193
169	0xbcf7cd73	-0.030249333
170	0xbd139983	-0.036035072
171	0xbe099b7d	-0.1343822
172	0xbc0412a2	-0.008061083
173	0xbd3120de	-0.043244235
174	0x3d1e8fa5	0.03871121
175	0x3b5fb80d	0.0034136802
176	0x3cb1a722	0.02168614
177	0xbb9f7115	-0.0048657754
178	0xbdbe5255	-0.09293047
179	0xbe2a6b25	-0.16642435
180	0x3c83ce8e	0.016089704
181	0x3bdc62ee	0.0067256605
182	0xbbdf1e02	-0.006808997
183	0xbe88065c	-0.26567352
184	0x3d8be0bd	0.06829975
185	0x3d5dc81c	0.054145917
186	0x3cb0813b	0.021545997
187	0x3c4cd651	0.012502269
188	0x3cdf229b	0.02723818
189	0xbdadf32c	-0.08493647
190	0xbdf92dce	-0.1216694
191	0x3d859a03	0.06523516
192	0xbde10ba2	-0.10988547
193	0x3dad0b9f	0.08449482
194	0x3d5374f1	0.051625196
195	0xbe57a46e	-0.21058819
196	0xbd096a12	-0.033548422
197	0x3d43d0f0	0.04780668
198	0xbe0c66be	-0.13711068
199	0x3cc104eb	0.023561915
200	0xbdc4ec84	-0.09615424
201	0x3d8dc7d3	0.06922879
202	0x3d3514c3	0.044209253
203	0xbe2914a1	-0.16511776
204	0xbd41e344	-0.047335878
205	0xbdfc4c1b	-0.123192035
206	0xbd4d8591	-0.050176207
207	0xbdab77b9	-0.08372445
208	0x3e8a7396	0.2704131
209	0xbdece121	-0.115663774
210	0xbe0b2b2a	-0.13590685
211	0xbabc6c80	-0.0014375597
212	0x3ba80439	0.0051274565
213	0xbc039356	-0.008030733
214	0x3cad165e	0.02112883
215	0xbbf1d1b4	-0.007379735
216	0xbcec1380	-0.028817892
217	0xbd3c30a9	-0.045944843
218	0xbe24acb9	-0.16081513
219	0x3d313599	0.043264005
220	0x3d5c61ce	0.05380421
221	0x3e83b0f7	0.2572095
222	0xbd265696	-0.04060992
223	0xbe3aa359	-0.18226375
224	0xbda554f0	-0.08072841
225	0xbceba7c7	-0.028766526
226	0x3cb0c7c3	0.021579629
227	0x39de9bdf	0.00042459273
228	0xbdb94652	-0.09046616
229	0xbcf18934	-0.029484369
230	0x3d1fcc97	0.03901347
231	0xbe9816d7	-0.29704925
232	0x3d393b43	0.045222532
233	0xbdad7c1a	-0.08470936
234	0xbd39ed12	-0.045392103
235	0x3d77105d	0.06031834
236	0x3d240382	0.040042408
237	0xbdc5d241	-0.096592434
238	0xbd8c1a46	-0.06840949
239	0xbc25e330	-0.0101249665
240	0xbd9a12e6	-0.07523136
241	0xbd0ffa7c	-0.03515099
242	0x3e2e9659	0.1704954
243	0xbd7d55f2	-0.061849542
244	0x3d6d2953	0.057900738
245	0xbd78dede	-0.060759418
246	0x3e322836	0.17398152
247	0xbdbea659	-0.09309072
248	0xbe5b7587	-0.21431552
249	0x3d90ff13	0.070799015
250	0x3d47d124	0.048783436
251	0x3d403647	0.046926763
252	0xbd307cbf	-0.043087717
253	0x3d6882de	0.05676543
254	0x3cd05c23	0.02543456
255	0x3b16e1dc	0.0023022806

2.bias f4 [175]
0	0x3dc55ad3	0.09636464
1	0xbf73c5af	-0.95223516
2	0xbd8f0273	-0.06982889
3	0xbccb26f6	-0.024798851
4	0xbe52da1f	-0.20591019
5	0xbef1a0c9	-0.47192982
6	0x3fb516b5	1.4147555
7	0x3e841944	0.25800526
8	0xbd65b684	-0.056082264
9	0xbda57e1c	-0.08080694
10	0x3dbcea70	0.09224403
11	0xbee2bfd6	-0.44286984
12	0xbf75a858	-0.9596
13	0xbe0f863b	-0.14016049
14	0xbf0fe717	-0.5621199
15	0x3d40c85a	0.04706607
16	0x3c8c744e	0.017145302
17	0x3cbac9ad	0.022801245
18	0xbe1739c2	-0.14768127
19	0x3a3910b3	0.00070596783
20	0xbeff1f9c	-0.49828804
21	0xbebde885	-0.3709146
22	0x3eb3c1cf	0.35108802
23	0xbedee804	-0.4353639
24	0xbdc22c53	-0.094811104
25	0xbeb77f0f	-0.35839126
26	0x3fe015ca	1.750665
27	0xbd2b2c94	-0.04179056
28	0xbe82bbdd	-0.25533953
29	0xbd0f479c	-0.0349804
30	0x3f0ae12b	0.5424983
31	0xbf1f9d8d	-0.6234978
32	0xbddc49d5	-0.1075627
33	0xbe195d28	-0.14976943
34	0xbf15aa35	-0.5846284
35	0xbd756dfa	-0.059919335
36	0x3fba3561	1.454754
37	0x3e9dab9a	0.30794984
38	0xbf12fc81	-0.5741654
39	0xbd1a8cf5	-0.037732083
40	0xbe1bbf75	-0.15209754
41	0xbdb3f23d	-0.08786438
42	0x3d292425	0.041294236
43	0xbece118e	-0.40247768
44	0x3f0b2488	0.5435262
45	0x3ebb6ec9	0.3660796
46	0x3b9112e2	0.0044273
47	0xbe330621	-0.17482807
48	0xbedcf79f	-0.4315767
49	0xbe254fd1	-0.16143729
50	0x3e802aad	0.2503256
51	0xbe857251	-0.2606378
52	0x3e8fb3b9	0.28066805
53	0x3f17a977	0.5924296
54	0x3d143ab6	0.036188804
55	0x3f1e4634	0.6182587
56	0x3d937455	0.07199923
57	0x3d9fc42b	0.07801088
58	0x3d6676af	0.05626553
59	0xbd17e01e	-0.03707897
60	0x3eaf7566	0.34269255
61	0x3fb89987	1.4421853
62	0x3e550f71	0.20806672
63	0x3d956a0c	0.072956175
64	0x3f87b200	1.0601196
65	0xbcc4fc6c	-0.024046145
66	0x3f88cb8f	1.0687121
67	0xbeb6e273	-0.35719642
68	0x3eaec96a	0.34138042
69	0x3d760149	0.06005982
70	0x3ba48e0c	0.005021816
71	0xbf019fef	-0.50634664
72	0xbe788941	-0.24271108
73	0x3e0e3374	0.13886815
74	0xbdb22a98	-0.0869953
75	0xbdda765b	-0.10667106
76	0x3e238f88	0.15972722
77	0xbe5284be	-0.2055845
78	0x3ea454d6	0.32095975
79	0x3ce2f4cd	0.02770462
80	0xbd8594b1	-0.06522501
81	0xbcf91ba4	-0.030408688
82	0xbf79dbfc	-0.97601295
83	0x3ea933af	0.33047244
84	0xbd264b7c	-0.04059933
85	0x3f37acb4	0.717479
86	0x3efcbc64	0.4936248
87	0x3f56e3e7	0.839415
88	0xbc442a63	-0.011972996
89	0xbec8f1b1	-0.39246896
90	0xbd7a71a0	-0.061143517
91	0xbd2ea45d	-0.042637218
92	0x3ef65bdc	0.48116958
93	0x3f568eab	0.83811444
94	0xbdab7a14	-0.08372894
95	0xbd4c63e2	-0.049899943
96	0x3a6b7573	0.000898204
97	0x3e0fbed3	0.14037637
98	0xbeb00668	-0.34379888
99	0x3e3e4032	0.18579176
100	0x3ea61dd1	0.32444623
101	0x3ead5f4b	0.33861765
102	0xbd072457	-0.03299364
103	0xbf17fb34	-0.5936768
104	0xbd849761	-0.06474186
105	0x3fbfe131	1.4990598
106	0x3f9b4b79	1.2132407
107	0xbf02d0b1	-0.5109969
108	0xbd0ac0a0	-0.033875108
109	0x3f639dff	0.8891296
110	0x3f00d5b6	0.50326097
111	0x3e4ff85b	0.20309584
112	0x3bea6e4c	0.0071542617
113	0x3f9e70d7	1.2378186
114	0x3f2384b3	0.6387436
115	0x3e48f05a	0.19622937
116	0x3c812d9f	0.015768824
117	0xbfa24c1c	-1.2679477
118	0xbc1c5176	-0.009540906
119	0xbd50c3d5	-0.05096801
120	0xbd24bfdd	-0.040222038
121	0xbec8facf	-0.39253852
122	0xbda31eea	-0.07964881
123	0x3c279146	0.010227507
124	0xbf12e57b	-0.5738141
125	0x3f00e42e	0.50348175
126	0xbd9fbfa5	-0.07800225
127	0x3c6e2fdd	0.014537779
128	0xbc81778d	-0.015804077
129	0x3db26523	0.087106965
130	0xbdb12ff0	-0.086517215
131	0xbd7ac63f	-0.06122422
132	0xbf6b03c3	-0.91802615
133	0x3d6ca920	0.057778478
134	0x3e0a23f9	0.13490285
135	0x3c94413f	0.018097518
136	0x3d2dc8dd	0.042427886
137	0xbcc21c8d	-0.023695255
138	0xbd8c9e7c	-0.06866166
139	0x3f933c53	1.1502784
140	0x3efc66a2	0.49297053
141	0x3dae11e8	0.08499509
142	0x3d47eb71	0.04880852
143	0xbf11abce	-0.5690278
144	0x3e67824f	0.22608303
145	0x3e1084fd	0.14113231
146	0xbef108a5	-0.47076908
147	0x3e685ea6	0.22692356
148	0x3ea71164	0.32630455
149	0xbd48680f	-0.048927363
150	0x3e9c9760	0.3058424
151	0x3ed8db74	0.4235493
152	0xbec7360b	-0.3890842
153	0x3db3d962	0.08781697
154	0xbe7822aa	-0.24231973
155	0xbe8eb6b3	-0.27873763
156	0x3e5d5447	0.2161418
157	0xbd7dae13	-0.06193359
158	0xbe07789a	-0.132296
159	0x3ef961d0	0.48707438
160	0xbd5c3bb2	-0.053767867
161	0xbd977089	-0.07394511
162	0x3cf4aca0	0.02986747
163	0xbebd3ffc	-0.3696288
164	0xbd020bb6	-0.03174945
165	0x3d0ea741	0.034827475
166	0x3de333a9	0.11093838
167	0x3ef7a0b9	0.4836481
168	0x3f85327b	1.040603
169	0x3f549f12	0.8305522
170	0x3cc4749e	0.023981389
171	0xbd981c32	-0.07427253
172	0x3ec5e701	0.38652804
173	0xbe87afbb	-0.2650126
174	0xbdadbe34	-0.08483544

4.weight f4 [175, 175]
0	0x3c5e9fe7	0.013587928
1	0x3e4f8bea	0.20268217
2	0xbcd403fa	-0.025880802
3	0x3d6a74f0	0.057240427
4	0xbd6529f4	-0.055948213
5	0x3d35b756	0.044364296
6	0x3dc9b081	0.098481186
7	0x3bfce2fe	0.0077174893
8	0x3b8bf22d	0.004270813
9	0xbc685bae	-0.014182014
10	0xbc10608b	-0.00881208
11	0x3cc44b22	0.023961607
12	0x3db3c865	0.087784566
13	0x3c3e34c9	0.011609265
14	0x3c587827	0.01321224
15	0xbd457478	-0.048206776
16	0xbdf9b69b	-0.12193032
17	0xbd40f54f	-0.047108945
18	0xbb5be541	-0.0033553394
19	0x3c20fb94	0.009825606
20	0xbd99f4bc	-0.075173825
21	0xbcce7d32	-0.025206182
22	0xbda21964	-0.07914999
23	0x3d7f9d4e	0.062405877
24	0x3d379bc6	0.04482629
25	0x3c8a4d52	0.016882572
26	0x3dd8a34a	0.1057802
27	0x3cd6896c	0.026188575
28	0x3d16e97f	0.036843773
29	0xbd1ef912	-0.03881175
30	0xbd3122dd	-0.04324614
31	0x3e24ef39	0.16106881
32	0xbcfde0a5	-0.030990908
33	0x3b25ca51	0.0025297592
34	0xbdb993b9	-0.09061379
35	0xbd4921f9	-0.049104664
36	0x3d945e80	0.07244587
37	0xbbb78f65	-0.0056018108
38	0xbdb7084d	-0.0893713
39	0x3d0fa3bc	0.03506826
40	0xbd32986a	-0.043602385
41	0x3d76d445	0.06026103
42	0xbcc2745c	-0.023737125
43	0x3d66434c	0.056216523
44	0x3d8ce95b	0.068804465
45	0x3cd2ddd2	0.025740538
46	0xbc82ee97	-0.01598291
47	0xbd3a7b64	-0.04552783
48	0xbd4e7b8c	-0.050410792
49	0xbd91a391	-0.07111276
50	0xbd28c785	-0.0412059
51	0x3d8c99cd	0.06865273
52	0x3d2a77e2	0.041618235
53	0x3d4eacda	0.050457813
54	0x3d065f37	0.032805648
55	0x3c209790	0.00980176
56	0x3d182431	0.03714389
57	0xbd6db453	-0.0580333
58	0x3c87dd76	0.016585093
59	0x3d7345da	0.059392788
60	0xbd34092b	-0.043954056
61	0xbda5a090	-0.080872655
62	0x3b013a6d	0.0019718662
63	0xbc139f47	-0.009010143
64	0x3b7e7d0b	0.0038831856
65	0x3cc4f33e	0.024041768
66	0x3e4f02d1	0.20215918
67	0xbc990447	-0.018678797
68	0x3cca7841	0.024715545
69	0xbc21adcb	-0.009868096
70	0xbcc62963	-0.024189657
71	0x3d2fa0eb	0.042878073
72	0xbcfb98c7	-0.030712498
73	0xbd85639b	-0.06513139
74	0x3cf6e9e7	0.03014083
75	0x3cc5ca2d	0.024144256
76	0xbe756ff4	-0.23968488
77	0xbd139924	-0.03603472
78	0xbd8955cb	-0.06705817
79	0xbd4d23f5	-0.05008312
80	0x3cb03665	0.021510312
81	0x3c4e34f7	0.01258587
82	0xbd5a34c7	-0.05327299
83	0xbc97e374	-0.018541075
84	0x3d774165	0.0603651
85	0xbda0ec71	-0.078575976
86	0xbad20732	-0.0016023873
87	0xbda104fb	-0.07862278
88	0xbd9569f0	-0.072955966
89	0xbdd4c7df	-0.10389685
90	0xbd77071d	-0.060309518
91	0x3bf3dda3	0.0074421926
92	0x3e68a2da	0.22718373
93	0x3bc2b1cd	0.0059416057
94	0x3d33fbeb	0.04394142
95	0xbd450d0f	-0.048108157
96	0x39365928	0.00017390086
97	0xbdaff399	-0.085913844
98	0xbde3dfa3	-0.1112664
99	0x3c3616c9	0.011113831
100	0x3d1c9fd8	0.038238376
101	0x3e9fd588	0.312176
102	0x3d5e712f	0.05430716
103	0xbd6fe6f8	-0.05856988
104	0x3c8639e4	0.016385026
105	0xbd0b2a98	-0.033976167
106	0xbe25daa7	-0.1619669
107	0x3d6c9dae	0.057767563
108	0x3ca47be4	0.020078607
109	0x3e0ffb75	0.14060767
110	0x3cfb7938	0.03069745
111	0x3e9bbbb8	0.30416656
112	0x3d8ca5d9	0.068675704
113	0x3e256ec2	0.16155532
114	0x3d0ff36f	0.035144266
115	0xbd2635f5	-0.0405788
116	0xbd88a302	-0.06671716
117	0xbe1c6d6d	-0.15276118
118	0xbcee5e6c	-0.029097758
119	0xbd7dbd6b	-0.06194822
120	0xbd818f42	-0.063261524
121	0xbe0edb49	-0.13950838
122	0x3c8ad831	0.016948791
123	0xbb185777	-0.0023245492
124	0x3d36a57b	0.04459141
125	0xbc024968	-0.007952072
126	0x3d891cfc	0.066949815
127	0xbcf02457	-0.029314203
128	0xbd6961e3	-0.056978118
129	0x3e00f8e2	0.12594941
130	0xbd6d7693	-0.05797441
131	0x3d30c3bb	0.043155413
132	0x3d8b5f45	0.068052806
133	0xbc917e42	-0.0177604
134	0xbc38f59e	-0.011289028
135	0xbd77b727	-0.060477402
136	0x3c9852a7	0.0185941
137	0x3d55f4df	0.05223548
138	0x3ccf192b	0.025280556
139	0x3d30443c	0.043033823
140	0xbcb7b416	-0.022424739
141	0x3c55ed5f	0.013057082
142	0xbe0dc381	-0.1384411
143	0xbda3f1e9	-0.08005125
144	0xbdeca8c0	-0.11555624
145	0x3d28573a	0.04109881
146	0xbda6d894	-0.08146778
147	0x3ca62d06	0.02028514
148	0xbd15a39d	-0.036532987
149	0xbd52feb2	-0.051512428
150	0x3d1b2123	0.0378734
151	0xbde46a34	-0.11153069
152	0xbcac6a8f	-0.021046905
153	0x3d35a18b	0.044343513
154	0x3d096d79	0.033551667
155	0xbdee24f8	-0.11628145
156	0xbde05f59	-0.10955686
157	0xbd3dc5a0	-0.046331048
158	0xbbc5e1ca	-0.006038879
159	0x3c03bfb7	0.008041314
160	0xbdd701a7	-0.10498362
161	0xbb824992	-0.0039760554
162	0xbd1279cb	-0.035760682
163	0xbd5dcb7f	-0.054149147
164	0xbcfec7d7	-0.03110115
165	0x3b906a68	0.004407216
166	0x3da1272b	0.07868799
167	0x3cced402	0.025247578
168	0xbe52f9a7	-0.20603047
169	0x3c396494	0.011315484
170	0x3c8ff9bd	0.01757514
171	0x3d3c4a32	0.045969196
172	0x3d54d13a	0.051957346
173	0xbd5b67a7	-0.053565647
174	0xbbf6b340	-0.0075286925
175	0xbcc9d062	-0.024635497
176	0x3dfab6fa	0.12241931
177	0xbc832676	-0.01600955
178	0xbd90a366	-0.07062416
179	0xbda6f520	-0.08152223
180	0xbd5d35a7	-0.054006245
181	0xbd56e967	-0.052468684
182	0x3ce531e5	0.027977893
183	0x3d7660ae	0.060150795
184	0x3bc813ef	0.006105892
185	0xbcb1639b	-0.02165394
186	0xbe1ae5d6	-0.15126738
187	0x3d768a23	0.06019033
188	0x3dd23cd2	0.10265507
189	0x3cf381df	0.029725013
190	0x3c875d70	0.016524047
191	0xbd8e4f19	-0.069486804
192	0x3cb709f7	0.022343619
193	0xbdba2c6b	-0.09090503
194	0x3d2bc4d1	0.041935746
195	0x3caaa4e9	0.020830588
196	0xbbd48ef0	-0.006486766
197	0xbb0bf06b	-0.0021353017
198	0xbddf28ce	-0.10896455
199	0xbd8dda79	-0.06926436
200	0xbc6c934d	-0.014439416
201	0x3c91427d	0.0177319
202	0xba4a7f7c	-0.0007724685
203	0x3e20ce5c	0.1570372
204	0xbc06e791	-0.008233921
205	0x3d42cbb7	0.04755756
206	0xbcc3705a	-0.023857284
207	0xbbef59cc	-0.007304406
208	0xbd9fbee3	-0.078000806
209	0x3d18ce8a	0.037306346
210	0xbd8ccd4a	-0.06875093
211	0x3e9521d7	0.2912738
212	0xbd7ab5f0	-0.061208665
213	0x3d9c4bed	0.07631669
214	0x3bd343f4	0.0064473096
215	0xbbdbb743	-0.006705196
216	0x3cc298d2	0.023754511
217	0xbc7725a3	-0.015084657
218	0xbd759edb	-0.05996595
219	0xbd978cb2	-0.073998824
220	0xbc287081	-0.010280729
221	0x3c3fd90e	0.011709465
222	0x3d0839ea	0.033258356
223	0x3d32abeb	0.043620985
224	0xbd89a824	-0.067215234
225	0xbcd8decf	-0.02647343
226	0xbe3f14f5	-0.18660338
227	0x3da61844	0.08110097
228	0xbdec5167	-0.11538964
229	0x3c75dc1f	0.015006094
230	0x3cff36de	0.031154092
231	0xbda62074	-0.08111659
232	0xbcc0433c	-0.02346956
233	0x3d122ca0	0.03568709
234	0x3cf8e1ee	0.03038117
235	0xbd9023a2	-0.070380464
236	0x3e7b28b5	0.24527247
237	0xbb29a3b1	-0.0025884921
238	0xbda3dcf0	-0.08001125
239	0x3d89a6ee	0.067212924
240	0xbd8d5b0c	-0.069021314
241	0xbd8d02c8	-0.06885296
242	0x3cbed81e	0.023296412
243	0x3c1e9f0d	0.009681475
244	0xbd9a7ab9	-0.07542939
245	0xbade0f51	-0.001694182
246	0xbd126344	-0.0357392
247	0xbd907212	-0.07053007
248	0xbdc91018	-0.09817523
249	0xbbf30222	-0.0074160257
250	0xbcd0d0a3	-0.02549011
251	0xbd2f682a	-0.042823948
252	0xbd840b98	-0.06447524
253	0xbde5ab59	-0.112143226
254	0x3cbef9a6	0.023312401
255	0xbd63218a	-0.055451907

4.bias f4 [175]
0	0xbdff8969	-0.12477381
1	0x3ddc99b2	0.107715026
2	0xbdce5614	-0.10075012
3	0xbd977e2b	-0.073971115
4	0xbc9a99c3	-0.018872147
5	0xbd9cbf85	-0.07653717
6	0xbdeb6df0	-0.11495578
7	0x3fe4d702	1.7878115
8	0x3f10c13a	0.5654484
9	0xbda26437	-0.07929271
10	0xbde71dec	-0.11285004
11	0x3f6ae9ee	0.917632
12	0x3e879089	0.2647746
13	0x3b86dbe5	0.004115569
14	0x3ca7f316	0.020501655
15	0xbd8b8166	-0.0681179
16	0x3e765ba1	0.24058391
17	0x3ed3e99a	0.4138916
18	0xbc9a663e	-0.018847581
19	0xbd036a3d	-0.03208374
20	0x3eb73e62	0.35789782
21	0x3f4ac2c1	0.7920342
22	0xbda145a7	-0.07874613
23	0x3f44fd18	0.7694869
24	0x3dbf2282	0.09332754
25	0xbd84db83	-0.06487181
26	0xbe1446ca	-0.14480129
27	0x3d43e843	0.047828924
28	0x39ae8c24	0.0003329228
29	0x3f26f8ae	0.65223205
30	0xbedefb17	-0.4355094
31	0x3d332b5f	0.043742534
32	0xbe62a7ea	-0.22134367
33	0x3f2c6196	0.67336404
34	0xbe7c4c6f	-0.24638532
35	0x3ec856d6	0.3912875
36	0xbd950119	-0.072756
37	0x3d8f84a5	0.07007722
38	0x3f5bb31e	0.85820186
39	0x3cf1d7da	0.029521871
40	0x3d4fd806	0.050743125
41	0x3ec85b84	0.3913232
42	0xbe2470e5	-0.16058691
43	0x3dfed87f	0.12443637
44	0x3cd3d692	0.025859151
45	0x3e83efe0	0.25768948
46	0x3f2bce1a	0.6711136
47	0xbbd6d5eb	-0.0065562627
48	0x3e0a2c14	0.13493377
49	0x3e3d9f54	0.1851781
50	0x3d131ba1	0.03591502
51	0x3da8d9fe	0.08244704
52	0xbd13849b	-0.036015134
53	0xbde514fd	-0.11185644
54	0xbe9669c8	-0.2937758
55	0xbea3c162	-0.31983477
56	0x3dc4f8cd	0.096177675
57	0xbea8c74f	-0.3296456
58	0xbf0a1f22	-0.53953755
59	0xbd69786e	-0.056999616
60	0x3e0763a1	0.13221599
61	0x3dd52e19	0.10409183
62	0x3f212684	0.62949395
63	0x3f1745ca	0.59090865
64	0xbe30d4c7	-0.17268668
65	0x3e8abfff	0.27099606
66	0x3e01538b	0.12629525
67	0xbd454782	-0.0481639
68	0x3e81b002	0.25329596
69	0x3b3a19ea	0.0028396794
70	0xbe05b462	-0.13057092
71	0x3f3dec98	0.7418914
72	0xbeef0fd6	-0.4669177
73	0xbe29a5f5	-0.16567214
74	0xbcb42b08	-0.021993175
75	0xbd002e50	-0.031294167
76	0x3c0fac16	0.008769056
77	0x3e248fd8	0.16070497
78	0x3abab0f1	0.0014243406
79	0x3e59f7cc	0.21285933
80	0xbda5101f	-0.080597155
81	0x3debea13	0.115192555
82	0x3c99fae4	0.018796392
83	0x39cb7b9d	0.00038811276
84	0x3e39a8d7	0.18130814
85	0x3e080ec4	0.13286883
86	0x3a0fde65	0.00054881565
87	0xbda4d60c	-0.08048639
88	0x3cbd0a4f	0.023076205
89	0xbd8d6eeb	-0.069059215
90	0x3d313e51	0.04327232
91	0xbda42db5	-0.080165304
92	0xbdaf3a9a	-0.08556099
93	0x3eb7b3a0	0.3587923
94	0x3cf02d19	0.02931838
95	0x3e45c52f	0.19313501
96	0x3dcd1b5d	0.10014985
97	0xbdf0ddaf	-0.11761033
98	0xbe5bbb30	-0.21458125
99	0x3df3a711	0.118971
100	0x3dea0d19	0.114282794
101	0x3ef085fb	0.4697722
102	0x3f360a82	0.71109784
103	0xbe2bc1cc	-0.16773146
104	0x3ea1a076	0.31567734
105	0x3fbcb561	1.4742852
106	0xbd9dc8cd	-0.07704315
107	0xbdf18106	-0.117921874
108	0xbd966f46	-0.073454425
109	0x3e7cde6b	0.2469422
110	0x3d8ea6cd	0.069654085
111	0xbd559a2d	-0.052148987
112	0xbdc002c9	-0.09375531
113	0x3e364abc	0.17801946
114	0xbaae3c6b	-0.0013293152
115	0xbda08a43	-0.07838871
116	0x3ddb6d17	0.107141666
117	0x3e8d2075	0.27563825
118	0xbf29e3d3	-0.6636326
119	0x3f20464d	0.6260727
120	0xbd8baf3a	-0.06820531
121	0x3e37ff0c	0.17968386
122	0xbdc3db2a	-0.095632866
123	0xbd5af27b	-0.053453904
124	0xbd82c42d	-0.06385074
125	0x3eb2d31f	0.34926698
126	0x3e17b501	0.14815141
127	0x3e5242f2	0.2053335
128	0x3f8035a4	1.001637
129	0xbd8f27ee	-0.06990038
130	0x3e7509f4	0.23929578
131	0xbe0b2a91	-0.13590457
132	0xbd1100d4	-0.03540118
133	0xbe1af64b	-0.15133016
134	0xbcba548c	-0.022745393
135	0xbdda8c41	-0.106712826
136	0x3d991bbe	0.074759945
137	0x3e3413cc	0.17585677
138	0x3e360bae	0.17777893
139	0xbd0cf5ba	-0.03441403
140	0x3c866752	0.016406689
141	0xbe7bd6de	-0.24593684
142	0x3dd11a04	0.1021004
143	0xbe6649ac	-0.22489041
144	0xbbd6c9e6	-0.00655483
145	0xbd0bdd40	-0.034146547
146	0x3f358e27	0.7092003
147	0xbd2b518b	-0.041825812
148	0xbe16f4e7	-0.1474186
149	0x3db796b4	0.08964291
150	0x3d88b183	0.06674483
151	0x3f51608e	0.81787956
152	0x3d6cc537	0.057805266
153	0xbe26691f	-0.16251038
154	0x3d177d35	0.03698464
155	0x3e0d75d7	0.13814484
156	0x3e913003	0.28356943
157	0x3c95f109	0.018303411
158	0x3f1521a3	0.5825445
159	0xbd4ed2f3	-0.050494146
160	0x3f27e9e5	0.6559127
161	0x3f138fe6	0.57641447
162	0xbd5aea34	-0.05344601
163	0xbd71142a	-0.05885712
164	0xbe13b60c	-0.14424914
165	0xbdaf9f8b	-0.08575352
166	0x3cc9b7bb	0.024623742
167	0xbcc3340d	-0.02382853
168	0xbebdd0e2	-0.37073427
169	0x3f0340bd	0.5127066
170	0x3e03f679	0.1288699
171	0x3e8e2d2a	0.27768832
172	0xbeba463a	-0.36381704
173	0xbd0c2cc4	-0.03422238
174	0x3eb9132e	0.36147445

6.weight f4 [157, 175]
0	0x3e0ae4d9	0.13563861
1	0xbe1e0736	-0.15432438
2	0xbd13ee46	-0.036115907
3	0xbdf38e55	-0.11892382
4	0x3cf8206c	0.030288897
5	0xbd0d6d99	-0.03452835
6	0x3c16a288	0.009194024
7	0x3c92282c	0.017841421
8	0xbdf29b3c	-0.11846015
9	0xbd498cc1	-0.0492065
10	0xbcd58db3	-0.026068544
11	0xbd791b01	-0.06081677
12	0x3dd8060e	0.1054803
13	0x3c4f1605	0.012639527
14	0xbdc6a5bd	-0.09699581
15	0xbd499333	-0.049212646
16	0xbe1233ef	-0.14277624
17	0x3e3e5be9	0.18589748
18	0xbda64368	-0.081183255
19	0xbe48cc1a	-0.19609109
20	0x3c6ede60	0.0145793855
21	0xbe7e151a	-0.24812737
22	0x3dd56b39	0.10420842
23	0x3dfe8bb3	0.12428989
24	0x3dfb419d	0.12268374
25	0x3dee63c1	0.1164012
26	0x3c2ca778	0.010537975
27	0xbe1fcc79	-0.15605344
28	0xbc05801f	-0.008148222
29	0xbc8fbd48	-0.017546311
30	0xbdc2abda	-0.09505434
31	0x3d7ad599	0.06123886
32	0x3b8223ea	0.0039715664
33	0xbd910d01	-0.070825584
34	0xbe37a574	-0.17934209
35	0xbdd11aae	-0.10210167
36	0x3cf97a88	0.030453935
37	0x3e963ce2	0.29343325
38	0x3d67dc65	0.05660667
39	0x3d664746	0.056220315
40	0xbd94d3a7	-0.07266932
41	0xbe1bb0d6	-0.15204176
42	0x3e43816d	0.19092341
43	0x3c0d9ab9	0.008642846
44	0x3c4bd737	0.012441448
45	0xbecfb1e2	-0.405654
46	0xbe3fd2f8	-0.18732822
47	0xbb0c1472	-0.002137449
48	0x3eabc5a9	0.3354924
49	0xbda0fd27	-0.07860785
50	0x3ba47f0d	0.0050200284
51	0x3d262c2d	0.040569473
52	0xbe17f03e	-0.14837739
53	0x3cf49f85	0.029861221
54	0xbd4e5832	-0.05037708
55	0x3d374bd0	0.044750035
56	0xbc7ea199	-0.015541458
57	0xbd5d7e98	-0.054075807
58	0x3cd598dc	0.026073866
59	0xbb65b16f	-0.0035048386
60	0x3ce8bfc1	0.028411748
61	0x3df0301c	0.11727926
62	0x3e30aa8e	0.17252561
63	0x3e5250b4	0.20538598
64	0x3db67cc3	0.08910515
65	0x3ca03aad	0.019559229
66	0xbced44b5	-0.028963426
67	0xbcab6b83	-0.020925289
68	0xbde22338	-0.11041874
69	0x3d86a369	0.06574137
70	0x3c8ab590	0.016932279
71	0xbe7b8a17	-0.24564396
72	0x3da0e371	0.07855881
73	0xbd819238	-0.06326717
74	0x3cf052c8	0.029336348
75	0xbd234b3c	-0.03986667
76	0xbd3e31fd	-0.04643439
77	0x3cdadb4f	0.026715903
78	0x3af2ba2f	0.0018518622
79	0xbcb0a08a	-0.021560926
80	0x3d3122f8	0.04324624
81	0x3d5aa9b9	0.053384516
82	0xbc98cbd7	-0.018651886
83	0x3cc4438c	0.02395799
84	0x3de1818e	0.11011039
85	0xb9fbde9e	-0.00048040313
86	0xbe04ce6d	-0.1296937
87	0x3d85cb8e	0.065329656
88	0xbe65cfab	-0.224425
89	0x3cc1d001	0.023658754
90	0x3d81ec32	0.06343879
91	0xbc546365	-0.012963151
92	0x3b2d9fb8	0.0026492905
93	0xbe1141ac	-0.14185208
94	0x3b8882c3	0.0041659786
95	0xbe0d3ece	-0.1379349
96	0xbe3ef6a4	-0.18648773
97	0xbd2bf0f9	-0.041977856
98	0x3da4e220	0.080509424
99	0xbcb287ef	-0.021793334
100	0xbdd11929	-0.10209877
101	0xbd3ddbd6	-0.04635223
102	0xbe95b137	-0.29236767
103	0xbdd3f9c3	-0.10350373
104	0xbe19f9b3	-0.15036659
105	0xbe2d7356	-0.16938528
106	0xbde675ae	-0.11252914
107	0xbdf10a90	-0.11769593
108	0xbd27d547	-0.04097488
109	0x3da22b97	0.0791847
110	0x3ddabbf2	0.10680379
111	0xbd9ab8eb	-0.075548016
112	0xbdc267a7	-0.09492426
113	0xbd7296c1	-0.0592258
114	0xbd1763e2	-0.03696049
115	0x3d85826d	0.06519017
116	0xbd85e6d8	-0.065381706
117	0xbf05b422	-0.52227986
118	0x3e19b15b	0.15009062
119	0xbe086343	-0.13319115
120	0x3d0e2143	0.03469969
121	0xbcc923f4	-0.024553277
122	0x3d55462f	0.052068885
123	0xbcc5f57d	-0.02416491
124	0xbcd3b05f	-0.025840936
125	0x3d75f271	0.060045663
126	0x3d4d0d93	0.050061774
127	0x3d612080	0.054962635
128	0xbba4c2a7	-0.005028087
129	0x3d09e8c6	0.033669256
130	0xbe3c5fc1	-0.18395902
131	0x3c8201be	0.015869971
132	0x3d9f0011	0.077636845
133	0xbe00a95d	-0.12564607
134	0x3d630650	0.055425942
135	0x3d9bed0a	0.07613571
136	0xbd922546	-0.071360156
137	0xbd57a392	-0.052646227
138	0xbe247de3	-0.16063647
139	0x3db91c4f	0.090386026
140	0xbd70b920	-0.0587703
141	0xbd9c8543	-0.07642605
142	0xbc994e79	-0.018714176
143	0xbce14527	-0.027498795
144	0xbcefd5e7	-0.029276801
145	0xbd035093	-0.032059263
146	0x3da75cc0	0.081719875
147	0xbdad17f9	-0.08451838
148	0xbd948a75	-0.07252971
149	0x3d32b007	0.043624904
150	0xbcbc019c	-0.022949986
151	0x3ce59ade	0.028027948
152	0xbd803ba6	-0.06261377
153	0x3c22f45e	0.009945957
154	0x3cfaf81e	0.03063589
155	0x3c465cd9	0.012107098
156	0x3d38421a	0.044984914
157	0x3d6d51aa	0.05793921
158	0x3d4b2181	0.0495925
159	0x3dad2268	0.08453828
160	0x3e237336	0.15961918
161	0xbc98c1ed	-0.018647159
162	0x3c3d9f06	0.011573559
163	0x3d6912c0	0.056902647
164	0xbded0693	-0.115735196
165	0x3ce98d27	0.02850969
166	0xbd876960	-0.066118956
167	0x3d1eb859	0.038750026
168	0xbadda4da	-0.0016910092
169	0x3d052c49	0.032512937
170	0xbe283ef6	-0.16430268
171	0x3df15e1a	0.117855266
172	0x3d0b9fec	0.03408806
173	0xbc8bc885	-0.017063389
174	0x3d160e29	0.036634598
175	0x3d997c00	0.07494354
176	0x3d03635a	0.03207717
177	0xbb87416b	-0.0041276715
178	0xbb9b6b91	-0.0047430475
179	0xbbcd9219	-0.0062735197
180	0xbb61297d	-0.0034357004
181	0x3da64615	0.08118836
182	0xbd3adfde	-0.045623653
183	0xbe5ffc24	-0.21873528
184	0xbd61dd44	-0.055142656
185	0x3c971b92	0.018445764
186	0xbc513aee	-0.012770398
187	0xbe3c35ad	-0.1837985
188	0x3d4eb67f	0.05046701
189	0xbdc40d77	-0.09572881
190	0x3d7527f4	0.059852555
191	0xbe4efec9	-0.2021438
192	0xbdf8fa1f	-0.12157082
193	0xb9b0911b	-0.00033677448
194	0x3d97f3b2	0.07419528
195	0x3d86f3e7	0.065894894
196	0xbe04dc5f	-0.1297469
197	0xbc998a99	-0.018742846
198	0xbcd05b21	-0.025434079
199	0xbd0f6eae	-0.03501766
200	0xbe116451	-0.14198424
201	0x3cc66ea8	0.024222687
202	0xb93aa6a0	-0.00017800415
203	0xbcb4b31b	-0.02205806
204	0xbdaff8ea	-0.085923985
205	0x3b40b441	0.0029404315
206	0xbd152894	-0.03641565
207	0x3dd0a695	0.10188023
208	0xbdb65a43	-0.08903935
209	0xbd0689e5	-0.03284635
210	0xbdb0a31b	-0.0862486
211	0xbd8a06f7	-0.0673961
212	0xbe069556	-0.13142905
213	0xbb161958	-0.002290329
214	0xbd2821e5	-0.04104795
215	0x3d065e1c	0.032804593
216	0x3dcb4e26	0.09927015
217	0x3cec7f25	0.028869221
218	0xbcd2f71b	-0.025752595
219	0xbd326c6a	-0.043560423
220	0xbea2a2f0	-0.31764936
221	0x3dd006b5	0.10157529
222	0xbc289c9a	-0.010291243
223	0x3de96200	0.11395645
224	0xbccc4577	-0.024935467
225	0x3d2c4294	0.04205568
226	0xbca5d612	-0.020243678
227	0xbcc1ec0b	-0.023672124
228	0xbc8ace48	-0.016944066
229	0x3d36fbfd	0.04467391
230	0x3d33b9d9	0.04387841
231	0x3d2e8824	0.042610303
232	0x3cb7f090	0.022453576
233	0x3cc50be4	0.024053521
234	0xbbd26ca2	-0.0064216414
235	0x3d712f6b	0.058883112
236	0x3cc7179b	0.024303248
237	0xbd6186f1	-0.05506033
238	0x3d7a5abf	0.0611217
239	0x3ccd9976	0.02509759
240	0x3de5680c	0.11201486
241	0x3e58ac12	0.2115939
242	0xbd419d5e	-0.047269218
243	0x3c6932c2	0.014233293
244	0x3d8ff934	0.070299536
245	0x3c1383a6	0.009003555
246	0x3dba79b4	0.09105244
247	0x3d87117f	0.06595134
248	0x3da3cb0f	0.07997715
249	0x3d569a9e	0.05239355
250	0x3d9c72cc	0.07639083
251	0x3d5f8067	0.054565813
252	0x3b2be5f9	0.0026229604
253	0xbbee0056	-0.0072632236
254	0x3dd59507	0.10428815
255	0xbc9562c7	-0.018235577

6.bias f4 [157]
0	0x3dcc831b	0.09985944
1	0xbe8a089f	-0.26959702
2	0xbedc8c5d	-0.4307584
3	0xbba69143	-0.0050832345
4	0xbf0ccd8f	-0.5500116
5	0x3d3c44ab	0.045963924
6	0xbe724d10	-0.2366221
7	0xbe70666d	-0.23476572
8	0x3f52ddad	0.823695
9	0xbeae63e9	-0.340606
10	0xbed1587f	-0.4088783
11	0x3e2602a6	0.16211948
12	0xbf23099e	-0.6368655
13	0x3e5a5c39	0.21324243
14	0x3e0ef0c8	0.13959038
15	0xbe1ced44	-0.15324885
16	0xbed7aade	-0.4212255
17	0x3e3fb7c5	0.18722446
18	0x3eda01bb	0.42579445
19	0xbf30982e	-0.6898221
20	0xbd9050b4	-0.07046643
21	0xbe9ab1b0	-0.3021369
22	0xbe28b15e	-0.1647391
23	0x3e980721	0.2969294
24	0xb9090e99	-0.00013070776
25	0x3f82c1da	1.0215409
26	0xbda50f36	-0.08059542
27	0xbeb607ff	-0.35552976
28	0xbe5b1052	-0.21392944
29	0x3e01ed08	0.12688076
30	0xbf10b409	-0.5652471
31	0x3db23a82	0.08702566
32	0xbdee43ac	-0.11634001
33	0xbeba795f	-0.36420724
34	0xbbe6f32a	-0.0070480304
35	0xbe8317e9	-0.2560418
36	0xbf1be111	-0.608903
37	0xbc1ad102	-0.009449245
38	0xbe6efab7	-0.23337828
39	0xbe17015f	-0.14746617
40	0xbe010708	-0.12600338
41	0xbdfa7d50	-0.12230933
42	0xbe8f86bc	-0.28032482
43	0x3e898ffc	0.26867664
44	0x3f49a60a	0.7876898
45	0xbe911b36	-0.28341073
46	0xbe5a03df	-0.21290539
47	0xbe3086f0	-0.17238975
48	0x3e05a764	0.13052136
49	0x3f420349	0.7578626
50	0x3dd656b4	0.10465756
51	0x3d9fbcb5	0.07799665
52	0xbf14ffbe	-0.5820273
53	0xbe7d5b31	-0.24741818
54	0xbf786165	-0.9702361
55	0x3f254a60	0.6456661
56	0xbf14f197	-0.58181137
57	0xbef1f6bc	-0.47258556
58	0x3d93b505	0.07212261
59	0x3e23d018	0.1599735
60	0xbeb2f506	-0.34952563
61	0xbdf4c900	-0.119524
62	0x3e9cee10	0.30650377
63	0xbde5af77	-0.11215108
64	0x3efa0ef1	0.48839524
65	0xbd1ad5cb	-0.037801545
66	0xbe98e237	-0.29860088
67	0xbdad7bfd	-0.084709145
68	0x3ed1a4d8	0.40946078
69	0x3ec401c6	0.38282603
70	0x3e0a4d13	0.13505964
71	0xbe8c7384	-0.2743188
72	0xbd6f8784	-0.058478847
73	0x3e5e0a20	0.2168355
74	0x3e41bd51	0.18919875
75	0x3eed1c73	0.46310768
76	0x3cce3d10	0.025175601
77	0x3d86887e	0.065690026
78	0xbed30367	-0.41213533
79	0xbd51786f	-0.051140245
80	0x3f4c279f	0.79747957
81	0x3f0e32a6	0.55546033
82	0xbe391f77	-0.18078409
83	0xbf1a0874	-0.6016915
84	0xbe977f08	-0.29589105
85	0x3f0cd686	0.55014837
86	0x3d4e00ab	0.050293606
87	0x3d865f14	0.065611035
88	0x3e9c485f	0.30523965
89	0x3e4609b7	0.19339643
90	0x3dac5045	0.08413748
91	0xbd996fea	-0.07492049
92	0x3edee3c8	0.43533158
93	0x3ea7c675	0.32768598
94	0x3eb15b5e	0.3464002
95	0xbf0ad4a7	-0.5423073
96	0xbeddbe7e	-0.43309397
97	0x3d801a2c	0.06254992
98	0xbead9b78	-0.33907676
99	0xbecba907	-0.39777395
100	0x3edbf5d0	0.42960978
101	0xbd9786ea	-0.0739878
102	0x3ed7700a	0.42077667
103	0xbf0ed4a5	-0.5579322
104	0xbe24cdf3	-0.16094188
105	0xbe7cbbe1	-0.24681045
106	0xbb502c70	-0.0031764768
107	0xbc85b24c	-0.01632037
108	0x3f021e43	0.50827426
109	0xbdf647ae	-0.120253906
110	0xbd8d1373	-0.06888475
111	0xbdf9a70b	-0.12190064
112	0x3a8c7f83	0.0010719154
113	0x3e12eea0	0.1434884
114	0x3ed007c6	0.4063093
115	0x3db9ba70	0.09068763
116	0xbf28da84	-0.6595843
117	0xbd0aaa66	-0.03385391
118	0xbd9d0834	-0.0766758
119	0xbd63d615	-0.055624086
120	0x3e6ac119	0.22925223
121	0xbf32ad0e	-0.6979531
122	0x3db1659a	0.08661957
123	0x3c521e11	0.012824551
124	0xbec267b2	-0.37969738
125	0x3ef440f9	0.4770582
126	0x3f0f542a	0.559878
127	0xbe05633c	-0.13026136
128	0x3ebc2a0b	0.36750826
129	0x3e8f90d4	0.28040183
130	0x3f08a228	0.5337243
131	0xbca74a0a	-0.020421047
132	0xbc2fe1ec	-0.010735016
133	0xbe09d142	-0.13458732
134	0xbf29ab01	-0.66276556
135	0xbef13234	-0.47108614
136	0xbef3a826	-0.47589225
137	0x3eab0412	0.33401543
138	0xbf020d68	-0.50801706
139	0x3e8ff79b	0.28118595
140	0x3f5302d8	0.82426214
141	0xbdddfb9d	-0.10839007
142	0x3e55af76	0.20867714
143	0xbd1b184d	-0.037864972
144	0x3dffc075	0.1248788
145	0x3f1bb8c4	0.60828805
146	0x3e2b4603	0.16725926
147	0xbe301968	-0.17197192
148	0x3ea84416	0.32864445
149	0x3e407256	0.18793616
150	0x3eead772	0.45867497
151	0x3e4be5a7	0.19911824
152	0xbefe33d7	-0.49648926
153	0xbf0f5a73	-0.5599739
154	0x3dad3426	0.08457212
155	0x3ebd8c92	0.3702131
156	0x3eedd8d7	0.46454498
