pav_spkid_pytorch/lp_model_hsize_250_lr0001/bestval_e4_weights.ckpt (torch_old, 850838 bytes, 8 tensors)

0.weight f4 [250, 189]
0.020964233 0.030914092 -0.15998071 0.01157338 -0.091107644 0.13124208 -0.49958888 0.061263677
0.42406273 -0.06635605 0.032917153 -0.069616295 0.1954853 -0.15835828 0.22463264 -0.33630908
0.03727723 0.36802435 0.0145672085 0.048754998 -0.2045201 0.13551797 -0.16953476 0.17261884
-0.38979033 -0.046491712 0.24930549 -0.09827951 0.047855888 -0.1026742 0.12649171 -0.1033547
0.043593906 -0.20972972 -0.0402146 0.33328575 -0.13669753 0.010559682 -0.11771937 0.06889638
0.022811076 0.089703046 -0.18426313 -0.024583017 0.29453504 -0.075804286 0.12940252 -0.10775266
0.06361122 -0.0020459963 0.0019453496 -0.14893915 -0.19057003 0.31654882 0.078409016 0.031847574
-0.11444813 0.081680454 0.09274213 0.14328739 -0.09318178 -0.059007723 0.37554663 -0.051654674
0.12816745 -0.018378796 0.062898695 0.0140319895 0.10377929 -0.13719796 -0.043505464 0.49384558
0.035995536 0.1324678 -0.030576233 0.08431267 0.054387655 0.14302574 -0.20463634 0.01755653
0.6501573 0.02732415 0.08309174 0.010670392 0.16393033 0.036661144 0.17556958 -0.3384808
0.12080729 0.6506246 -0.053678248 0.17491059 -0.052948114 0.1642425 0.020278659 0.22394729
-0.24693738 0.11868959 0.87730944 0.027971417 0.13126731 0.07621819 0.121390596 0.058323458
0.21857262 -0.32690984 0.18875729 0.88615775 0.043131165 0.06519213 -0.017905148 0.0048987335
0.005759959 0.11682259 -0.36404788 0.24570864 0.8720395 -0.032315888 0.13114595 0.00053687743
0.04236615 0.032054886 -0.0018422499 -0.27782488 0.24745436 0.81879693 -0.0009686296 0.11329907
0.039251544 0.046462845 0.24242793 -0.09405291 -0.11353061 0.11460834 0.81230134 0.0065800543
0.08781723 0.08293772 0.004747799 0.20540495 -0.18489687 -0.14818096 0.10250462 0.95416516
0.04861231 0.06081801 -0.030592151 0.03719713 0.2683866 -0.19257762 -0.112075716 0.07738959
0.91686785 -0.05112362 0.09985585 0.010981109 0.07816541 0.21215889 -0.19257803 -0.12656336
-0.048072595 1.0106186 0.016287737 0.1292253 0.0042054616 0.015169679 0.09798586 -0.03875636
-0.20386113 0.08108316 1.0708942 0.024635943 0.118104436 -0.12663992 0.121888235 0.022921422
-0.09180743 -0.1987282 0.08743717 1.1285208 -0.0017476482 0.22667211 -0.11480444 0.1960054
-0.16677013 0.112417825 -0.27309397 0.22662167 1.1035043 -0.011503977 -0.0066956896 0.1329774
-0.088295534 -0.015109361 0.111205615 -0.08165436 0.3850786 0.6730493 0.028356243 -0.02711559
0.12638503 -0.18850781 -0.09734684 0.011636731 -0.08124698 0.33205253 0.6391245 -0.013363079
-0.045852218 0.034293305 -0.15631326 -0.095622145 0.010586205 -0.08147773 0.46826068 0.4611176
0.03107613 -0.04803039 0.021198787 -0.123452544 0.0060874773 0.04845624 -0.01123804 0.46775296
0.48921734 -0.027874378 -0.024603708 0.15204068 -0.24664311 -0.085453756 0.07905984 0.039440524
0.45279714 0.36389855 0.0008940327 -0.03360573 0.061896607 -0.14426601 -0.06901686 -0.02808738
-0.035889506 0.38733092 0.37860864 0.009812302 -0.12368192 0.084596865 -0.13745897 -0.102202184
0.041768342 0.024881732 0.26074925 0.40445524 0.0025919667 -0.10115265 0.09638656 -0.1536582
00000000: 2fbd ab3c 8d3f fd3c fcd1 23be 469e 3d3c
00000010: a596 babd 5364 063e 1dca ffbe 9fef 7a3d
00000020: c01e d93e aee5 87bd 23d4 063d fd92 8ebd
00000030: 4c2d 483e ac28 22be 1906 663e b430 acbe
00000040: 02b0 183d b06d bc3e 4dab 6e3c 52b3 473d
00000050: b86d 51be 39c5 0a3e 859a 2dbe fec2 303e
00000060: 9992 c7be 186e 3ebd f049 7f3e c546 c9bd
00000070: 8904 443d da46 d2bd 0b87 013e a1ab d3bd
00000080: 868f 323d 63c3 56be 10b8 24bd 6ea4 aa3e
00000090: 70fa 0bbe 8402 2d3c da16 f1bd 8c19 8d3d
000000a0: 4bde ba3c 3bb6 b73d 79af 3cbe 5362 c9bc
000000b0: 4ccd 963e 473f 9bbd 1882 043e 6dad dcbd
000000c0: 9946 823d 1f16 06bb 1afb fe3a 8183 18be
000000d0: ca24 43be b012 a23e e894 a03d 9a72 023d
000000e0: c863 eabd 1548 a73d 96ef bd3d eeb9 123e
000000f0: 17d6 bebd 15b2 71bd a647 c03e da93 53bd
00000100: 543e 033e 218f 96bc 08d1 803d 6ee6 653c
00000110: 3d8a d43d 9f7d 0cbe c932 32bd 54d9 fc3e
00000120: 0e70 133d a4a5 073e 027b fabc 1fac ac3d
00000130: 97c5 5e3d 5775 123e 308c 51be b6d2 8f3c
00000140: b570 263f e5d6 df3c 012c aa3d ded2 2e3c
00000150: 5add 273e ff29 163d 83c8 333e 5b4d adbe
00000160: d069 f73d 558f 263f b9dd 5bbd c31b 333e
00000170: 1fe0 58bd 302f 283e 6e1f a63c 7052 653e
00000180: 27dd 7cbe 8713 f33d 5a97 603f 5024 e53c
00000190: f06a 063e 4818 9c3d a29b f83d 94e4 6e3d
000001a0: 80d1 5f3e ba60 a7be 9749 413e 3cdb 623f
000001b0: 4eaa 303d 7483 853d d1ad 92bc 8e85 a03b
000001c0: 0abe bc3b af40 ef3d 7c64 babe 0c9b 7b3e
000001d0: fb3d 5f3f aa5d 04bd 204b 063e 3cbd 0c3a
000001e0: 2188 2d3d fc4b 033d a677 f1ba 103f 8ebe
000001f0: ad64 7d3e ad9c 513f a2eb 7dba 5809 e83d
00000200: 3ac6 203d d34f 3e3d 073f 783e d09e c0bd
00000210: bd82 e8bd c7b7 ea3d fbf2 4f3f 7f9d d73b
00000220: 85d9 b33d 40db a93d 6d93 9b3b ad55 523e
00000230: 9b55 3dbe c0bc 17be f1ed d13d 2b44 743f
00000240: b41d 473d 4e1c 793d 649c fabc 055c 183d
00000250: f869 893e 1133 45be f487 e5bd 6f7e 9e3d
00000260: dab7 6a3f 0067 51bd 3981 cc3d 1cea 333c
00000270: 3015 a03d 2e40 593e 2d33 45be d399 01be
00000280: c5e7 44bd f35b 813f dc6d 853c a353 043e
00000290: f8cd 893b 3f8a 783c d0ac c83d fdbe 1ebd
000002a0: f9c0 50be ee0e a63d 1013 893f 51d1 c93c
000002b0: bde0 f13d e5ad 01be 8aa0 f93d b5c5 bb3c
000002c0: 8905 bcbd 687f 4bbe 4212 b33d 5f73 903f
000002d0: 5811 e5ba bc1c 683e 971e ebbd a4b5 483e
000002e0: cac5 2abe 513b e63d f9d2 8bbe 830f 683e
000002f0: a13f 8d3f 2d7b 3cbc 8467 dbbb 3a2b 083e
00000300: 4ad4 b4bd 418d 77bc c5bf e33d 673a a7bd
00000310: 0629 c53e f54c 2c3f 5a4b e83c 8421 debc
00000320: 146b 013e 3108 41be c85d c7bd fda7 3e3c
00000330: d164 a6bd ca02 aa3e aa9d 233f d1f0 5abc
00000340: 89cf 3bbd 2377 0c3d 9510 20be 8bd5 c3bd
00000350: c371 2d3c ccdd a6bd ddbf ef3e 9b17 ec3e
00000360: 5e93 fe3c 84bb 44bd 14a9 ad3c b0d4 fcbd
00000370: 7679 c73b 0d7a 463d c21f 38bc 517d ef3e
00000380: b27a fa3e cf58 e4bc b78d c9bc 8db0 1b3e
00000390: 0390 7cbe 6102 afbd 20ea a13d 638c 213d
000003a0: 07d5 e73e e950 ba3e 855d 6a3a 29a6 09bd
000003b0: 4c87 7d3d 78ba 13be b658 8dbd 8117 e6bc
000003c0: e000 13bd 3d50 c63e fed8 c13e c7c3 203c
000003d0: f24c fdbd 1f41 ad3d 0bc2 0cbe 614f d1bd
000003e0: 4815 2b3d c6d4 cb3c ed80 853e c214 cf3e
000003f0: fcdd 293b 1f29 cfbd 5166 c53d 9358 1dbe

0.bias f4 [250]
0.12677667 1.2134309 -0.15323044 -0.04420316 -0.1375833 0.21614034 -0.071527936 -0.49817565
-0.2556405 -0.022369869 -0.040539227 0.2023044 0.11790616 1.1964288 0.10345999 -0.09141229
-0.020669628 -0.14873184 1.03183 0.11243463 -0.5705103 -0.02321456 -0.16471994 -0.040961888
0.04877548 0.102367945 0.09435278 -0.06868259 -0.14265533 -0.29999053 0.348432 -0.029120762
0.09462048 0.98316425 0.16506138 0.009625221 0.27664885 -0.38987377 -0.062959306 0.021015357
-0.12640068 -0.015587117 0.05460245 0.134632 0.06054318 0.9659367 -0.033366516 1.0321962
-0.40244845 0.06309498 -0.25580472 0.034554742 -0.23958996 0.075589254 -0.05266175 -0.06464846
0.27080798 0.2688316 1.268891 -0.17508125 0.12000075 -0.04131415 0.392425 0.064779125
0.24575327 -0.24786437 -0.033191226 -0.4212045 -0.12908867 0.05562047 0.14362799 -0.0056449147
0.6692865 0.07306876 -0.48712853 -0.06686263 -0.12834163 -0.38185784 0.6312207 -0.33399612
1.1829233 -0.309779 0.38131112 0.024538156 0.0066394424 1.0564882 -0.396841 -0.06315359
1.0337838 0.16181596 -0.24071032 -0.17011088 0.69256115 0.11668891 -0.22824472 0.038215674
-0.2708386 0.6761637 0.09055513 -0.334945 0.06992279 0.07257687 0.65864515 0.0146758165
-0.35838997 0.0668603 0.785048 0.12268809 -0.16294828 -0.16184707 -0.0066692447 0.5381588
0.29924613 0.21771938 0.18288635 -0.40053642 0.10874242 0.17250325 0.13356936 -0.81732666
-0.080557175 0.51426923 0.8979041 -0.117515296 0.76146513 -0.34315827 -0.30753866 0.12691969
-0.36743763 0.058760628 0.039551713 0.119626425 0.11119021 -0.5087322 0.48006508 -0.25400373
0.06932582 0.17936267 0.4406583 0.035079047 0.124858335 -0.31136715 -0.08767513 0.70476353
0.10643068 0.5381401 -0.35741648 0.95946854 0.18825226 -0.032254416 -0.4715087 -0.43055555
0.01135664 0.29884824 0.35988277 0.14013875 -0.08530462 -0.12275089 0.03122446 -0.21026501
-0.39709672 0.07172221 0.015382776 0.93377596 -0.5105024 0.018819345 0.9872516 0.069963954
0.27568796 -0.30066192 0.49685735 -0.08494204 -0.18802014 -0.035918392 0.031755134 0.4812227
0.27001277 0.21886934 0.18487276 0.54385453 -0.010781293 0.20864691 0.067413844 0.8272949
0.09280905 0.49327883 -0.030652532 0.08915946 0.0720921 -0.04632915 0.26976988 0.6462169
-0.04395502 -0.407189 -0.10038565 0.21914509 -0.830351 -0.091781676 0.0014085436 0.102857016
0.6012424 0.109565586 -0.07467822 0.19179761 0.06768401 0.5503674 -0.3038892 0.017274532
-0.020960908 0.07932332 0.9183669 -0.36965856 0.4264279 0.017345157 0.32136866 0.25999516
1.1078342 0.042229034 0.2785683 -0.17508991 0.23395018 -0.29005638 -0.17584792 0.91405255
-0.28013298 -0.004439294 0.11492309 0.18736386 -0.24724612 -0.122001804 0.5147117 0.32819206
-0.17757834 0.17201838 0.06160256 0.064789556 -0.03939449 -0.034821708 -0.088611014 0.9046844
-0.6124682 -0.8402618 0.45091763 -0.3158031 0.22938006 0.014554896 -0.075751536 -0.0131007945
0.06856659 -0.18067281
00000000: bed1 013e b451 9b3f 71e8 1cbe 5f0e 35bd
00000010: a3e2 0cbe e553 5d3e 3d7d 92bd e110 ffbe
00000020: 50e3 82be 0441 b7bc 760c 26bd e228 4f3e
00000030: c978 f13d 9424 993f d5e2 d33d 5e36 bbbd
00000040: 5a53 a9bc 294d 18be 0113 843f 2144 e63d
00000050: f70c 12bf 762c bebc 58ac 28be a7c7 27bd
00000060: ccc8 473d 49a6 d13d 083c c13d 75a9 8cbd
00000070: 3d14 12be 5c98 99be ae65 b23e aa8e eebc
00000080: 62c8 c13d a7b0 7b3f da05 293e 1ab3 1d3c
00000090: eba4 8d3e 899d c7be cff0 80bd 6628 ac3c
000000a0: 2e6f 01be 1b61 7fbc d2a6 5f3d f9dc 093e
000000b0: 20fc 773d a147 773f 54ab 08bd 011f 843f
000000c0: b90d cebe f137 813d d6f8 82be 4689 0d3d
000000d0: 1257 75be 8ace 9a3d d9b3 57bd 6966 84bd
000000e0: 58a7 8a3e 4ca4 893e 056b a23f 8048 33be
000000f0: f4c2 f53d 0739 29bd eeeb c83e ebaa 843d
00000100: bfa6 7b3e 28d0 7dbe 86f3 07bd 1ea8 d7be
00000110: d22f 04be 4ad2 633d 3713 133e faf8 b8bb
00000120: 5c56 2b3f 13a5 953d e968 f9be 46ef 88bd
00000130: fd6b 03be df82 c3be ae97 213f 8a01 abbe
00000140: 086a 973f 5a9b 9ebe 363b c33e 3e04 c93c
00000150: ae8f d93b 013b 873f be2e cbbe ab56 81bd
00000160: 0753 843f 15b3 253e c47c 76be 8c31 2ebe
00000170: b04b 313f 98fa ee3d fcb8 69be 0a88 1c3d
00000180: 5bab 8abe 1019 2d3f f874 b93d e97d abbe
00000190: ae33 8f3d 2fa3 943d f89c 283f d672 703c
000001a0: e47e b7be 0eee 883d e8f8 483f e543 fb3d
000001b0: eadb 26be 3dbb 25be ae89 dabb c6c4 093f
000001c0: ca36 993e d4f1 5e3e 8f46 3b3e 1c13 cdbe
000001d0: 59b4 de3d b1a4 303e 68c6 083e 523c 51bf
000001e0: 29fb a4bd 26a7 033f 0bdd 653f dcab f0bd
000001f0: 61ef 423f 71b2 afbe b575 9dbe 3cf7 013e
00000200: c920 bcbe fcae 703d fa00 223d b3fe f43d
00000210: b1b7 e33d 463c 02bf 17cb f53e c70c 82be
00000220: b2fa 8d3d d9aa 373e f79d e13e 0caf 0f3d
00000230: bab5 ff3d 846b 9fbe 058f b3bd 626b 343f
00000240: 54f8 d93d 8dc3 093f 4bff b6be bb9f 753f
00000250: 33c5 403e 351d 04bd 9769 f1be c771 dcbe
00000260: 3311 3a3c a302 993e 8e42 b83e 8880 0f3e
00000270: 30b4 aebd d264 fbbd 70ca ff3c b64f 57be
00000280: 4350 cbbe 18e3 923d 0a08 7c3c f10b 6f3f
00000290: 49b0 02bf 072b 9a3c 85bc 7c3f 4349 8f3d
000002a0: f926 8d3e 5cf0 99be 1664 fe3e 18f6 adbd
000002b0: 5a88 40be 2a1f 13bd ac11 023d d262 f63e
000002c0: 1d3f 8a3e 491f 603e 494f 3d3e 0d3a 0b3f
000002d0: 05a4 30bc 89a7 553e 4510 8a3d 99c9 533f
000002e0: ac12 be3d 0b8f fc3e 051b fbbc 3c99 b63d
000002f0: 06a5 933d a3c3 3dbd 471f 8a3e 796e 253f
00000300: 2e0a 34bd 147b d0be fe96 cdbd 9267 603e
00000310: e291 54bf 08f8 bbbd e19e b83a b3a6 d23d
00000320: 06eb 193f ec63 e03d e5f0 98bd 9866 443e
00000330: ea9d 8a3d e1e4 0c3f 5d97 9bbe 5283 8d3c
00000340: 36b6 abbc 4474 a23d 181a 6b3f e343 bdbe
00000350: c254 da3e 6e17 8e3c 6f8a a43e 161e 853e
00000360: 83cd 8d3f 5af8 2c3d 81a0 8e3e c54a 33be
00000370: a390 6f3e 4582 94be 7a11 34be 59ff 693f
00000380: 976d 8fbe 7f77 91bb cc5c eb3d 50dc 3f3e
00000390: 162e 7dbe 15dc f9bd 25c4 033f ca08 a83e
000003a0: 19d7 35be 9625 303e f752 7c3d 63b0 843d
000003b0: 1e5c 21bd 35a1 0ebd b179 b5bd 6699 673f
000003c0: b7ca 1cbf 661b 57bf adde e63e f2b0 a1be
000003d0: 9be2 6a3e a977 6e3c 9f23 9bbd b7a4 56bc
000003e0: a46c 8c3d 4b02 39be

2.weight f4 [250, 250]
-0.037407458 0.349256 -0.055791896 0.05572561 0.02253567 0.043991756 0.016525676 0.012761834
-0.21630926 -0.02995169 0.021643355 0.044517197 -0.0758961 0.11076664 -0.015819957 -0.0133115165
0.06457654 -0.075594716 -0.09953265 0.0018864045 0.023638215 0.007289969 0.017256437 -0.058465123
0.029647967 0.04971149 0.027784832 -0.063994594 -0.06823492 -0.054082923 -0.071939394 -0.005917892
0.016686328 -0.08228944 -0.040395893 -0.071326464 0.00016170836 -0.033777338 -0.04914876 -0.030082876
-0.115973614 -0.097132266 0.04428086 -0.010349901 -0.12233614 -0.09103602 0.017105306 -0.14301105
-0.016102428 -0.05741489 0.04514074 -0.019158408 -0.05489443 -0.07402989 -0.024746351 -0.07219405
0.044149034 -0.010809728 0.14425479 0.015693624 -0.023332095 -0.03758392 -0.033991735 -0.042957786
0.051602375 -0.066173844 0.015269174 -0.004603673 0.012615314 -0.01710055 -0.07137574 0.029040826
-0.102548726 0.001678917 0.022765279 0.013951742 0.0039701127 0.00037463353 -0.06786781 -0.0018007946
-0.013423266 -0.03709421 0.053341366 0.01720916 -0.03480785 -0.041839674 0.00012106508 0.008456852
0.032729756 0.040151935 -0.021266803 -0.06460472 -0.0992202 -0.06637798 -0.018508073 -0.12990133
0.008609917 -0.03479682 -0.051010787 -0.010104885 -0.002984535 -0.010622488 0.0010385204 0.056104302
-0.060752083 -0.0414705 -0.0977152 -0.025771795 0.054214343 -0.15715715 0.020261547 0.047588423
-0.0183855 0.011415801 -0.06094692 -0.026585568 -0.060105532 0.03540978 -0.02353301 -0.0055761114
-0.0401332 -0.08486141 0.0097349575 -0.035880733 0.15447453 -0.088602856 0.009205293 -0.029884418
-0.01819689 -0.06373314 0.035722494 0.07199584 6.324717e-05 -0.08474874 -0.03660562 -0.06852786
0.024973761 0.014854712 -0.09845964 -0.06179408 -0.020324292 -0.02753674 -0.091237955 -0.0339825
0.0009310653 -0.03366336 0.019900205 -0.015798276 -0.09334056 -0.08823678 0.032100435 -0.017918902
-0.070915245 0.034208875 -0.00285163 -0.013634132 -0.021999374 -0.019580936 0.006107978 -0.0045984974
0.029244475 0.024820225 -0.06869698 0.047354665 -0.043102607 -0.008381867 0.027363254 0.044738423
0.06242236 0.04982551 -0.15318663 0.024406606 -0.09184909 -0.118161134 -0.06789225 -0.056160007
0.03889509 -0.051811684 0.048564922 -0.061342865 -0.045036867 -0.06861241 -0.0067649176 -0.082639106
-0.13929252 0.036555767 0.0502672 -0.011022628 0.029113078 0.038948473 0.0782749 -0.0032086791
0.048198037 -0.09314096 0.016324582 -0.0500072 -0.026302405 -0.004021448 -0.034879357 -0.04639193
0.04424162 0.014430795 -0.04805445 0.0038323125 0.036663722 0.027081754 -0.03962723 -0.056425646
-0.05241366 -0.051733308 -0.011972817 -0.0033310174 0.024963306 -0.010260967 0.050656963 -0.004352049
-0.041916396 -0.056574658 -0.006932366 -0.061479863 -0.023002738 -0.06246506 -0.06380936 -0.033424012
-0.030093398 -0.03833927 -0.03454685 0.065146565 0.022856357 0.048561912 0.0046909982 0.024148587
-0.048599783 -0.04150756 -0.050572034 -0.018934557 -0.039948653 -0.035649043 0.0015532617 0.16502099
0.05126923 -0.061575003 0.029856894 -0.063702926 -0.04692858 0.025932023 -0.14956419 -0.011258317
0.052906025 -0.057567716 0.03184573 -0.04924639 0.03599114 0.044101708 -0.0067825997 0.015684295
00000000: 9038 19bd afd1 b23e 0b86 64bd 8a40 643d
00000010: ba9c b83c b330 343d db60 873c 0317 513c
00000020: 2d80 5dbe 3f5d f5bc 684d b13c aa57 363d
00000030: 6a6f 9bbd 9fd9 e23d db98 81bc 8c18 5abc
00000040: b440 843d 67d1 9abd c6d7 cbbd 3b41 f73a
00000050: eea4 c13c b1e0 ee3b 5f5d 8d3c 2079 6fbd
00000060: 4be0 f23c 469e 4b3d 049d e33c 990f 83bd
00000070: c0be 8bbd 0e86 5dbd f654 93bd e0ea c1bb
00000080: c4b1 883c 5e87 a8bd 2a76 25bd 9c13 92bd
00000090: 4290 2939 1b5a 0abd 3650 49bd 5d70 f6bc
000000a0: 9383 edbd 48ed c6bd d95f 353d a292 29bc
000000b0: 5f8b fabd 1871 babd 6d20 8c3c 7d71 12be
000000c0: 3de9 83bc e02b 6bbd 7fe5 383d 18f2 9cbc
000000d0: fbd8 60bd fc9c 97bd dcb8 cabc 79da 93bd
000000e0: 9ed5 343d 491b 31bc 87b7 133e ea8f 803c
000000f0: f322 bfbc 99f1 19bd eb3a 0bbd 81f4 2fbd
00000100: 035d 533d 2786 87bd 8f2b 7a3c 68da 96bb
00000110: 76b0 4e3c 7416 8cbc 722d 92bd 07e7 ed3c
00000120: 1105 d2bd 1b0f dc3a 407e ba3c d995 643c
00000130: b817 823b 766a c439 47fe 8abd a408 ecba
00000140: 42ed 5bbc 19f0 17bd 7a7c 5a3d 39fa 8c3c
00000150: ad92 0ebd 1460 2bbd 52e4 fd38 9c8e 0a3c
00000160: a30f 063d 5b76 243d b837 aebc 7b4f 84bd
00000170: f633 cbbd 2ef1 87bd 3e9e 97bc db04 05be
00000180: 9c10 0d3c 1c87 0ebd b0f0 50bd f68e 25bc
00000190: 3098 43bb f209 2ebc f61e 883a a0cd 653d
000001a0: 2dd7 78bd f9dc 29bd e81e c8bd 5f1f d3bc
000001b0: dc0f 5e3d ceed 20be 8bfb a53c 14ec 423d
000001c0: 309d 96bc 5709 3b3c 7aa3 79bd fac9 d9bc
000001d0: 3831 76bd d809 113d 4dc8 c0bc d0b7 b6bb
000001e0: b662 24bd d2cb adbd 5f7f 1f3c adf7 12bd
000001f0: 922e 1e3e 6a75 b5bd ccd1 163c 2bd0 f4bc
00000200: a511 95bc 8586 82bd c051 123d 8e72 933d
00000210: 91a3 8438 bf90 adbd c6ef 15bd 5658 8cbd
00000220: c695 cc3c 2e61 733c 35a5 c9bd ca1b 7dbd
00000230: 217f a6bc bb94 e1bc f7da babd 3c31 0bbd
00000240: bc12 743a 97e2 09bd c105 a33c 636b 81bc
00000250: 5629 bfbd 7cb5 b4bd bf7b 033d a9ca 92bc
00000260: 033c 91bd 9b1e 0c3d 6ae2 3abb b261 5fbc
00000270: 0838 b4bc 3368 a0bc 6f25 c83b feae 96bb
00000280: 1c92 ef3c c953 cb3c 01b1 8cbd f7f6 413d
00000290: 5c8c 30bd 1954 09bc e728 e03c a33f 373d
000002a0: 97ae 7f3d d515 4c3d f5dc 1cbe 5df0 c73c
000002b0: 601b bcbd 77fe f1bd 180b 8bbd 0908 66bd
000002c0: 7550 1f3d 7d38 54bd 03ec 463d a842 7bbd
000002d0: 9478 38bd aa84 8cbd 3eac ddbb b13e a9bd
000002e0: b3a2 0ebe 80bb 153d fbe4 4d3d 4198 34bc
000002f0: 8d7e ee3c 6f88 1f3d 974e a03d b448 52bb
00000300: 4e6b 453d b0c0 bebd 21bb 853c 5ad4 4cbd
00000310: 2478 d7bc 5ac6 83bb a8dd 0ebd 7705 3ebd
00000320: b336 353d 246f 6c3c bed4 44bd 8927 7b3b
00000330: b32c 163d 8eda dd3c 2a50 22bd 941e 67bd
00000340: b5af 56bd 4ee6 53bd a229 44bc 334d 5abb
00000350: d97f cc3c 9d1d 28bc ad7d 4f3d a29b 8ebb
00000360: 87b0 2bbd d4ba 67bd e728 e3bb 4fd2 7bbd
00000370: 3d70 bcbc 5ddb 7fbd 7bae 82bd 9ee7 08bd
00000380: 6e86 f6bc a309 1dbd ff80 0dbd 906b 853d
00000390: 413d bb3c dbe8 463d f2b6 993b 42d3 c53c
000003a0: 9110 47bd d503 2abd 9f24 4fbd a51c 9bbc
000003b0: 33a1 23bd bb04 12bd d096 cb3a 43fb 283e
000003c0: afff 513d 1236 7cbd 7296 f43c ae76 82bd
000003d0: 2f38 40bd 656f d43c 5b27 19be ce74 38bc
000003e0: fdb3 583d 20cc 6bbd ab70 023d 95b6 49bd
000003f0: 726b 133d fea3 343d 9240 debb 5a7c 803c

2.bias f4 [250]
0.27319232 -0.29782012 0.008282013 0.10822936 0.04604021 -0.031535387 -0.027306445 -0.07575265
-0.005589481 -0.025197582 -0.085186735 0.0282296 0.1094351 -0.009095148 -0.13422814 -0.11098065
-0.075872764 0.59707856 -0.015837131 0.8530521 -0.021552298 0.59109855 0.021622991 0.069356814
-0.21564199 0.029746335 0.058663737 0.003263583 -0.046342567 -0.15901162 -0.14435527 -0.013511105
-0.16853994 -0.029556446 -0.078952715 0.08847873 0.19224739 0.71672577 0.6528813 -0.27756903
0.04662387 0.0026202486 0.39823973 0.09951086 -0.07133967 -0.017213639 -0.05681699 0.068450004
0.040899053 0.9137573 0.43136966 0.633458 -0.32465595 1.2894648 0.5490925 -0.11800557
0.02916825 0.14720485 0.22866818 0.17093547 -0.06751656 -0.60549885 0.02397247 0.13954586
0.60318446 -0.014566215 -0.070710205 0.007950629 -0.032584947 -0.26902407 0.064914204 0.6093774
0.037610065 -0.19895416 -0.04984253 0.04522319 0.11367586 0.3734304 0.010764718 0.1652922
0.122390315 1.0087045 -0.053141437 -0.06027045 -0.049526967 0.5441252 0.18841453 -0.21736626
0.09329278 -0.6109539 -0.034665354 -0.23408729 -0.015377029 0.26110867 0.7511418 -0.090752035
-0.59179187 0.0864433 0.04500108 -0.4003858 -0.022001637 -0.15275677 -0.24401604 -0.07113169
0.38563183 0.5759928 -0.021644577 -0.73728985 0.28488597 -0.13279292 0.13606793 0.18734208
0.013705021 0.77290785 0.010414265 0.047392998 0.014057041 0.04196963 0.049026396 0.02103032
0.01396369 0.10600641 0.026100814 -0.052687906 0.0374646 0.0004939805 -0.016554104 -0.17299199
-0.05978512 -0.048857518 0.07811106 0.5306603 -0.03379386 -0.028638516 0.7505763 0.42898408
-0.18274897 -0.034412153 0.033939824 -0.020306937 -0.3257012 -0.024558477 -0.10683323 0.9225176
0.051417053 -0.0084250085 -0.052559435 -0.0087408 0.02676204 -0.07882175 -0.015948882 -0.0042070216
0.14471373 0.6711531 0.23913665 -0.27984613 0.030346071 -0.048595835 0.035000186 0.28283682
-0.49643895 0.48020396 -0.39208958 -0.4751438 -0.060738135 0.076463565 -0.32787636 -0.023719499
0.0848744 -0.35541677 0.25815943 -0.67789584 -0.26531908 0.0058547743 0.03803358 -0.032305237
-0.4934956 0.001383003 0.3539511 -0.31922343 -0.062551185 0.00047432756 0.08583944 -0.3700381
-0.017680319 0.26388764 -0.091569416 -0.16375028 0.041018996 0.011686614 -0.2928978 0.30511698
0.029033158 -0.12553287 0.0643378 -0.06395552 0.007516956 -0.14699058 0.76300395 0.99929714
0.0091447085 -0.12522902 -0.023215827 0.06380389 0.012450764 -0.067963935 -0.59001005 0.1464782
0.84479886 -0.0061539416 0.021950534 -0.20331226 0.27616963 -0.25760317 0.7934791 0.28985426
0.008084827 -0.044289365 0.25771037 0.57994807 -0.05954599 0.3162854 0.052732244 0.0080537135
0.39809665 0.54548764 -0.26970473 -0.07353872 -0.12068565 -0.22647893 0.11013491 -0.010108574
0.640866 0.015965132 -0.16552599 0.01540408 -2.24338e-05 0.29975227 0.9456818 0.5352341
0.026437692 0.06917656 -0.02176988 -0.05180056 -0.040826585 -0.07455647 0.43811002 1.0192443
-0.07328132 -0.005471025
00000000: dddf 8b3e e17b 98be 48b1 073c 5ba7 dd3d
00000010: a994 3c3d 402b 01bd c4b1 dfbc 3524 9bbd
00000020: f727 b7bb 296b cebc 6276 aebd c341 e73c
00000030: 821f e03d d103 15bc 1a73 09be d349 e3bd
00000040: 2e63 9bbd 24da 183f dfbc 81bc 9f61 5a3f
00000050: 728e b0bc 3c52 173f b322 b13c f20a 8e3d
00000060: 41d1 5cbe 96ae f33c 6349 703d d6e1 553b
00000070: b4d1 3dbd f1d3 22be ded1 13be af5d 5dbc
00000080: bc95 2cbe 5c20 f2bc f6b1 a1bd 5634 b53d
00000090: 80dc 443e 577b 373f 3b23 273f 871d 8ebe
000000a0: acf8 3e3d 7ab8 2b3b 14e6 cb3e 5acc cb3d
000000b0: 881a 92bd 9e03 8dbc efb8 68bd 842f 8c3d
000000c0: c485 273d 00ec 693f 7cdc dc3e 4e2a 223f
000000d0: 4e39 a6be 2f0d a53f 5391 0c3f e7ac f1bd
000000e0: 41f2 ee3c debc 163e fe27 6a3e b509 2f3e
000000f0: 1f46 8abd f901 1bbf ea61 c43c 1ce5 0e3e
00000100: 4c6a 1a3f 22a7 6ebc 83d0 90bd 5b43 023c
00000110: cb77 05bd 86bd 89be bdf1 843d 2800 1c3f
00000120: 030d 1a3d a4ba 4bbe ae27 4cbd f43b 393d
00000130: e4ce e83d 4532 bf3e 805e 303c 5c42 293e
00000140: c6a7 fa3d 3b1d 813f d6aa 59bd 26de 76bd
00000150: cadc 4abd ca4b 0b3f bdef 403e 4395 5ebe
00000160: 4910 bf3d 7a67 1cbf 42fd 0dbd 94b4 6fbe
00000170: efef 7bbc 09b0 853e d44a 403f 34dc b9bd
00000180: ac7f 17bf 2f09 b13d 0d53 383d 5eff ccbe
00000190: c73c b4bc 456c 1cbe 57df 79be 7ead 91bd
000001a0: 8971 c53e 4474 133f f84f b1bc 07bf 3cbf
000001b0: 93dc 913e defa 07be 6455 0b3e 9ad6 3f3e
000001c0: 068b 603c 4add 453f 98a0 2a3c 291f 423d
000001d0: 814f 663c 59e8 2b3d e7cf 483d c747 ac3c
000001e0: f6c7 643c e419 d93d 60d1 d53c 46cf 57bd
000001f0: 7b74 193d 787e 013a 799c 87bc d024 31be
00000200: 3ee1 74bd d21e 48bd b1f8 9f3d 5ad9 073f
00000210: 6e6b 0abd 529b eabc c525 403f cda3 db3e
00000220: 8c22 3bbe c2f3 0cbd 7c04 0b3d bc5a a6bc
00000230: 4fc2 a6be dc2e c9bc 61cb dabd 1d2a 6c3f
00000240: b09a 523d 0c09 0abc 9048 57bd 9335 0fbc
00000250: 113c db3c 4c6d a1bd 3ba7 82bc 0edb 89bb
00000260: d62f 143e b1d0 2b3f 3de0 743e fe47 8fbe
00000270: 5398 f83c 6d0c 47bd 5b5c 0f3d fdcf 903e
00000280: 3f2d febe 4bdd f53e f7bf c8be 0c46 f3be
00000290: 8dc8 78bd ee98 9c3d 69df a7be 654f c2bc
000002a0: a1d2 ad3d 30f9 b5be 792d 843e 958a 2dbf
000002b0: e7d7 87be 68d9 bf3b 19c9 1b3d 7f52 04bd
000002c0: 75ab fcbe e145 b53a 1439 b53e 4171 a3be
000002d0: d61a 80bd 2baf f839 97cc af3d a275 bdbe
000002e0: 51d6 90bc 481c 873e bf88 bbbd 27ae 27be
000002f0: 8903 283d 3679 3f3c b3f6 95be 4b38 9c3e
00000300: f2d6 ed3c b08b 00be 89c3 833d 1dfb 82bd
00000310: cc50 f63b b384 16be 3a54 433f f0d1 7f3f
00000320: b0d3 153c 093c 00be 1e2f bebc 9dab 823d
00000330: 4afe 4b3c ad30 8bbd e60a 17bf 62fe 153e
00000340: bd44 583f 01a7 c9bb 9bd1 b33c 1731 50be
00000350: 1b66 8d3e 90e4 83be 7221 4b3f c767 943e
00000360: 3976 043c c468 35bd 9df2 833e 7a77 143f
00000370: 7fe6 73bd 29f0 a13e c4fd 573d b9f3 033c
00000380: 53d3 cb3e 14a5 0b3f bd16 8abe 789b 96bd
00000390: 0a2a f7bd 18ea 67be 698e e13d 6f9e 25bc
000003a0: cb0f 243f 4fc9 823c a57f 29be 6561 7c3c
000003b0: 3830 bcb7 2179 993e 3418 723f 1a05 093f
000003c0: dc93 d83c 71ac 8d3d bf56 b2bc d32c 54bd
000003d0: c739 27bd 10b1 98bd f54f e03e 9976 823f
000003e0: 8414 96bd 4946 b3bb

4.weight f4 [250, 250]
0.016599108 -0.07413999 0.025383592 -0.032938067 0.037691265 0.038156528 -0.032024607 -0.02166253
-0.013057912 0.0060001635 -0.06627921 -0.026755191 -0.005924493 0.044103775 -0.041517343 0.045028325
0.0033534335 0.020095536 -0.07833689 0.04465086 0.02108854 -0.043585707 0.09094198 -0.06104754
-0.008966781 0.0016095466 -0.048153862 -0.014065616 -0.016183715 -0.047712438 0.028973434 0.022764962
-0.023844736 0.03308731 0.08190009 -0.019030912 0.115158275 0.06163488 0.080772504 -0.0036183842
-0.023141561 0.04228308 0.06273993 -0.029443692 -0.056352306 -0.011699363 -0.017983379 -0.066508345
-0.039448414 0.053948045 -0.04517529 0.042761497 0.0069170427 -0.09105055 0.03872366 0.02071166
-0.06783033 0.045087 -0.058688704 0.14619856 0.005176853 -0.051168952 -0.025651162 0.05693707
-0.023446051 -0.024946375 -0.0087643135 -0.012435648 0.0245288 0.010864856 -0.073572986 -0.1962871
-0.012665972 -0.042129498 0.0069739837 0.049853563 0.036965765 0.05848166 0.0024052772 -0.05650318
0.04528779 -0.2581564 -0.025479883 -0.023974178 -0.06279739 -0.051858217 0.0012667171 -0.15164457
0.04523249 0.057130694 0.021076873 0.06512422 -0.008094582 -0.0058950433 0.03505624 0.03981078
0.053737827 -0.021974774 -0.057238914 0.019860143 -0.0044885464 -0.081002615 0.05747427 0.017562687
-0.040906433 -0.077133484 -0.006504302 0.05181216 -0.08006072 -0.011098282 -0.064940624 -0.019691972
0.02119441 -0.05468884 -0.02382334 -0.055500407 -0.024594946 0.042001642 -0.025985356 0.08083617
-0.046158224 -0.026968122 -0.037709534 -0.012534132 -0.0019584182 -0.023037378 -0.014634163 -0.01446583
-0.062529214 0.091017984 -0.09218644 0.03523088 0.03668993 -0.006865913 0.04236783 -0.08524875
-0.0464944 0.01914202 0.013728116 0.04586866 -0.047142133 -0.03127775 -0.0049189935 0.0061019277
0.04021354 -0.10359733 4.28417e-05 -0.0064134435 0.057599504 -0.014981493 0.013620633 0.04854782
0.081703745 0.12027478 -0.092932776 -0.06549121 -0.03388053 0.02087046 0.036525525 0.086025156
0.096630245 0.18905583 -0.0045385472 0.034074526 -0.0185478 0.0236874 -0.01274229 0.05047924
-0.06339361 -0.039539788 0.022115227 0.17458242 0.095960595 0.065487474 -0.046974618 -0.0463407
-0.046999883 0.0043271836 -0.04011328 0.018974064 -0.039342444 0.03288888 -0.105327494 -0.11472126
-0.012787471 -0.032503087 -0.09496309 0.03900265 -0.05397687 0.04088709 -0.055661194 -0.14505148
-0.03482634 0.10646952 -0.02701505 -0.070430286 0.035702143 -0.061994877 -0.025307056 -0.061185952
0.061651215 0.009375108 0.035534594 -0.009571494 0.043092377 0.039073136 -0.025237048 -0.00930034
-0.05867455 -0.09113592 0.047459826 -0.104407616 -0.031136204 -0.11498921 -0.03810335 -0.017332602
-0.0051019033 0.05616904 -0.01962738 -0.04248785 0.053205557 -0.034903955 -0.021549344 -0.05896254
-0.071979016 -0.031241355 -0.019984659 -0.010151563 -0.062285062 -0.09389339 -0.0037467051 -0.011289856
-0.092560194 0.052867044 -0.059718806 0.0233234 -0.00059133925 0.093780495 0.09783067 -0.111309126
-0.0146241 -0.07627408 -0.053326193 0.027314315 -0.027700163 0.05002419 -0.0105424365 -0.020908698
-0.00059412513 0.026292406 0.07441117 -0.063003875 -0.08229781 -0.01678723 0.03089731 0.004907784
00000000: dafa 873c b5d6 97bd 40f1 cf3c 11ea 06bd
00000010: 2862 1a3d 054a 1c3d 3c2c 03bd 9e75 b1bc
00000020: daf0 55bc 059d c43b 65bd 87bd b42d dbbc
00000030: 4022 c2bb 29a6 343d 170e 2abd 9f6f 383d
00000040: 47c5 5b3b 659f a43c 176f a0bd d2e3 363d
00000050: e0c1 ac3c ed86 32bd ca3f ba3d fc0c 7abd
00000060: 68e9 12bc 6cf7 d23a fc3c 45bd 7873 66bc
00000070: b693 84bc 1e6e 43bd b259 ed3c 967d ba3c
00000080: 0956 c3bc 8f86 073d 3cbb a73d b7e6 9bbc
00000090: 1ad8 eb3d db74 7c3d 0e6c a53d 6a22 6dbb
000000a0: 5f93 bdbc 0631 2d3d cb7d 803d e633 f1bc
000000b0: add1 66bd afae 3fbc e151 93bc 8735 88bd
000000c0: a994 21bd a0f8 5c3d ba09 39bd ae26 2f3d
000000d0: 5ca8 e23b b678 babd b39c 1e3d 80ab a93c
000000e0: a1ea 8abd 25ad 383d 9163 70bd 13b5 153e
000000f0: 97a2 a93b 8996 51bd 6322 d2bc d836 693d
00000100: ef11 c0bc 575c ccbc 3298 0fbc e3be 4bbc
00000110: 9ff0 c83c 8202 323c 6fad 96bd 7cff 48be
00000120: f084 4fbc fb8f 2cbd 0486 e43b 4033 4c3d
00000130: 6a69 173d 778a 6f3d dba1 1d3b e16f 67bd
00000140: b17f 393d 132d 84be 30bb d0bc 7f65 c4bc
00000150: eb9b 80bd 4869 54bd f907 a63a b748 1bbe
00000160: b445 393d e001 6a3d 68a9 ac3c d95f 853d
00000170: 239f 04bc 352b c1bb 2297 0f3d a110 233d
00000180: 321c 5c3d 7104 b4bc 5a73 6abd bdb1 a23c
00000190: a814 93bb b3e4 a5bd 246a 6b3d a0df 8f3c
000001a0: 818d 27bd 29f8 9dbd 0a22 d5bb fd38 543d
000001b0: e0f6 a3bd 92d5 35bc 97ff 84bd 0f51 a1bc
000001c0: e69f ad3c 6801 60bd 2a29 c3bc 6554 63bd
000001d0: 577b c9bc ea09 2c3d 3edf d4bc 6f8d a53d
000001e0: 6810 3dbd 40ec dcbc 5075 1abd f65b 4dbc
000001f0: ce58 00bb e2b8 bcbc 21c4 6fbc 1702 6dbc
00000200: 510f 80bd a367 ba3d 3fcc bcbd 414e 103d
00000210: 2e48 163d 74fb e0bb e489 2d3d e696 aebd
00000220: e970 3ebd bacf 9c3c e4eb 603c c7e0 3b3d
00000230: 1c18 41bd 191d 00bd 822f a1bb aef2 c73b
00000240: f4b6 243d d62a d4bd edb0 3338 dd27 d2bb
00000250: 75ed 6b3d f074 75bc 1329 5f3c 14da 463d
00000260: 4b54 a73d a052 f63d 8a53 bebd 4120 86bd
00000270: 50c6 0abd 87f8 aa3c ca9b 153d f52d b03d
00000280: 14e6 c53d da97 413e 18b8 94bb bb91 0b3d
00000290: 8ef1 97bc 140c c23c 0ac5 50bc 52c3 4e3d
000002a0: 82d4 81bd 79f4 21bd fe2a b53c bcc5 323e
000002b0: fd86 c43d 4c1e 863d 7568 40bd bfcf 3dbd
000002c0: f382 40bd 0ccb 8d3b d34d 24bd 7f6f 9b3c
000002d0: 8b25 21bd 7eb6 063d f1b5 d7bd fbf2 eabd
000002e0: 8a82 51bc f521 05bd 027c c2bd 3ec1 1f3d
000002f0: da16 5dbd 3979 273d fefc 63bd 6088 14be
00000300: 10a6 0ebd b10c da3d ab4e ddbc c13d 90bd
00000310: 693c 123d 57ee 7dbd be50 cfbc 1f9e 7abd
00000320: fc85 7c3d 0e9a 193c b98c 113d c1d1 1cbc
00000330: a281 303d 270b 203d edbd cebc 7460 18bc
00000340: ba54 70bd 78a5 babd 3c65 423d a9d3 d5bd
00000350: 5a11 ffbc 777f ebbd 4212 1cbd 1afd 8dbc
00000360: de2d a7bb 8211 663d 99c9 a0bc bd07 2ebd
00000370: 12ee 593d 73f7 0ebd 4088 b0bc b482 71bd
00000380: bc69 93bd dfed ffbc deb6 a3bc be52 26bc
00000390: 9f1e 7fbd 2d4b c0bd 488b 75bb 17f9 38bc
000003a0: 3390 bdbd 1d8b 583d b59b 74bd b710 bf3c
000003b0: 1b04 1bba fd0f c03d 725b c83d 0af6 e3bd
000003c0: ec99 6fbc 9635 9cbd 916c 5abd 45c2 df3c
000003d0: 74eb e2bc 2ae6 4c3d 2fba 2cbc b848 abbc
000003e0: 10bf 1bba 2c63 d73c e264 983d 2d08 81bd
000003f0: c18b a8bd 5f85 89bc 5b1c fd3c 7ad1 a03b

4.bias f4 [250]
-0.11452815 0.09642195 -0.17929696 -0.25769728 0.17373222 -0.06853885 -0.026784817 0.92362607
0.01489085 0.44350615 0.008675599 -0.007033831 -0.048240528 0.08267108 -0.104186304 -0.007281681
-0.11153963 0.48031324 0.0073001664 -0.06568405 0.12608755 0.0077868695 0.094359964 -0.07852599
0.013626782 0.04441247 0.005522094 0.29013363 0.049501363 0.0039930497 0.175551 -0.0006344541
-0.064392485 -0.06345862 0.025751704 0.051904164 0.69117475 -0.06805616 -0.027333774 -0.2012423
-0.021884011 0.22664638 0.008065617 -0.030728554 -0.027765822 -0.24577098 -0.008369367 0.120126456
-0.0498147 -0.005357612 0.028238263 0.29015142 -0.057209995 0.027476817 -0.045579128 0.05535594
-0.38258088 -0.09020343 0.05230177 -0.07048267 -0.4175759 0.41576794 -0.1217355 0.29755148
0.48059162 -0.05000194 -0.0050946125 -0.0012920802 0.052086644 -0.0023754463 0.13539088 -0.043495927
-0.07642944 0.022217564 -0.11669639 -0.024674702 0.06749729 0.08985188 0.58883035 -0.16283518
-0.0063222907 -0.06320941 0.028923644 -0.08036737 0.23731193 -0.03028232 -0.017952235 -0.074571714
0.14463155 0.012046406 0.112186156 -0.01945833 0.026279427 0.5203914 -0.018784365 0.5849089
0.2093561 0.096489646 0.336935 0.032560673 0.041747153 0.22359502 -0.25598314 0.4108276
0.023061303 1.1496596 -0.04091356 -0.04639454 -0.033284266 0.5168737 0.33378252 -0.03944122
-0.0017602657 -0.026002476 0.123342186 -0.056739952 0.27806437 0.16294645 -0.0446989 0.025541058
0.15181945 -0.01377706 0.040310517 -0.06487245 0.25799114 -0.04193119 -0.06579211 -0.047644835
-0.055094697 0.016912278 0.031638227 0.06485914 0.0058464543 0.012714044 0.0313141 0.043221183
0.10736613 0.20471531 -0.22133361 0.04285209 0.4145425 -0.10027785 0.49872568 0.0049244114
0.7079421 0.21767521 0.1194394 -0.0069079963 -0.34131595 0.15629217 0.00012738144 0.032600895
-0.01692129 0.031330988 -0.072474465 -0.06589577 0.06541947 0.0004253991 0.029910281 0.20386924
0.0002035344 -0.040371466 0.12317313 -0.09044219 0.20696296 -0.040795933 -0.08432674 -0.07054811
-0.05150287 -0.019286625 0.21550414 -0.20767634 0.011629769 0.57744664 0.15310429 -0.045794033
-0.02833485 0.29094785 0.8986596 0.5299465 -0.023375686 0.016711593 -0.050559003 0.02727204
-0.51539934 -0.039618336 0.08358799 -0.088089645 0.03511614 -0.07145979 0.41737485 0.18062967
-0.090932995 -0.0148465475 0.63555163 0.9373944 0.50624245 -0.037445612 0.0695669 -0.052401736
0.118367605 0.43274426 -0.12417593 -0.006153848 -0.023544434 0.10189466 0.004616174 -0.006516065
0.015867112 0.06119871 0.05302251 -0.081927866 0.20672193 -0.0067338054 0.058652803 0.06659602
-0.027222037 -0.046690874 -0.07644523 -0.1754221 -0.06831838 -0.3189525 -0.026408812 0.19196412
0.0076824855 0.08333649 -0.09800297 -0.3605794 0.02101976 0.45775363 -0.07272747 0.28633973
-0.005177725 0.19370814 0.005876423 0.30370104 -0.06905599 -0.0443879 -0.047736455 -0.052155532
-0.063787624 -0.0064350483 0.26000413 0.109952554 0.06456935 -0.0542789 -0.13539432 -0.046486896
-0.00027011347 0.022171348
00000000: bc8d eabd df78 c53d 9f99 37be e6f0 83be
00000010: dce6 313e 195e 8cbd d56b dbbc c272 6c3f
00000020: c0f8 733c 3d13 e33e 1924 0e3c 0d7c e6bb
00000030: dc97 45bd 754f a93d a15f d5bd 2b9b eebb
00000040: e46e e4bd 9eeb f53e 3c36 ef3b 5c85 86bd
00000050: 181d 013e ff28 ff3b cc3f c13d 3cd2 a0bd
00000060: de42 5f3c dae9 353d aff2 b43b 658c 943e
00000070: f1c1 4a3d 21d8 823b a4c3 333e 7e51 26ba
00000080: 35e0 83bd 98f6 81bd 3df5 d23c 7699 543d
00000090: d4f0 303f 0761 8bbd 14eb dfbc 7612 4ebe
000000a0: 1946 b3bc fd15 683e a625 043c 73ba fbbc
000000b0: 2675 e3bc 63ab 7bbe ab1f 09bc dc04 f63d
000000c0: 800a 4cbd e88e afbb ee53 e73c ba8e 943e
000000d0: 0755 6abd 1017 e13c 2eb1 3abd e9bc 623d
000000e0: a4e1 c3be 93bc b8bd 613a 563d 3859 90bd
000000f0: 82cc d5be 89df d43e 7650 f9bd ab58 983e
00000100: 1b10 f63e d6ce 4cbd b5f0 a6bb 045b a9ba
00000110: ce58 553d 60ad 1bbb e8a3 0a3e c928 32bd
00000120: 0a87 9cbd 9c01 b63c 84fe eebd 9a22 cabc
00000130: 053c 8a3d 4304 b83d 96bd 163f 44be 26be
00000140: 382b cfbb ef73 81bd 47f1 ec3c a697 a4bd
00000150: e601 733e a112 f8bc 9110 93bc 0eb9 98bd
00000160: 4b1a 143e 4a5e 453c dbc1 e53d 1367 9fbc
00000170: f447 d73c 5f38 053f abe1 99bc 97bc 153f
00000180: 7261 563e 5d9c c53d bf82 ac3e 575e 053d
00000190: 10ff 2a3d 18f6 643e 3910 83be ff57 d23e
000001a0: 0feb bc3c 0c28 933f fa94 27bd 3408 3ebd
000001b0: 1555 08bd d651 043f 8be5 aa3e 1e8d 21bd
000001c0: b7b8 e6ba 2503 d5bc d49a fc3d 2768 68bd
000001d0: 745e 8e3e 6fdb 263e 3216 37bd 7b3b d13c
000001e0: 8f76 1b3e 2eb9 61bc a41c 253d d9db 84bd
000001f0: 6a17 843e 0ac0 2bbd 04be 86bd 3b27 43bd
00000200: faaa 61bd 9e8b 8a3c 1697 013d ded4 843d
00000210: 9d93 bf3b 914e 503c 3743 003d b208 313d
00000220: c6e2 db3d e4a0 513e 47a5 62be ac85 2f3d
00000230: ea3e d43e 795e cdbd f958 ff3e f55c a13b
00000240: b23b 353f 40e6 5e3e a59c f43d 795c e2bb
00000250: f7c0 aebe 0e0b 203e b291 0539 8488 053d
00000260: 849e 8abc ec54 003d 7e6d 94bd 5df4 86bd
00000270: a5fa 853d 1a08 df39 6806 f53c 19c3 503e
00000280: d96b 5539 8d5c 25bd 3242 fc3d c139 b9bd
00000290: 19ee 533e a319 27bd 7fb3 acbd 877b 90bd
000002a0: acf4 52bd fcfe 9dbc 1ead 5c3e 1ba9 54be
000002b0: c98a 3e3c 8bd3 133f 5fc7 1c3e 8692 3bbd
000002c0: 7d1e e8bc 1ef7 943e 8e0e 663f 93aa 073f
000002d0: 5e7e bfbc c0e6 883c f516 4fbd 9d69 df3c
000002e0: 36f1 03bf d646 22bd 2e30 ab3d 5868 b4bd
000002f0: f1d5 0f3d 8359 92bd 28b2 d53e fcf6 383e
00000300: 143b babd ef3e 73bc 83b3 223f 14f9 6f3f
00000310: 1b99 013f 9260 19bd 1779 8e3d 34a3 56bd
00000320: b76a f23d a890 dd3e f34f febd 38a6 c9bb
00000330: 42e0 c0bc 26ae d03d 4643 973b b784 d5bb
00000340: bffb 813c 80ab 7a3d 222e 593d ccc9 a7bd
00000350: eaae 533e 41a7 dcbb ec3d 703d 7e63 883d
00000360: c000 dfbc ee3e 3fbd 518f 9cbd daa1 33be
00000370: 82ea 8bbd be4d a3be 4b57 d8bc 3e92 443e
00000380: 5cbd fb3b 52ac aa3d c8b5 c8bd dd9d b8be
00000390: a231 ac3c af5e ea3e 24f2 94bd 1f9b 923e
000003a0: e8a9 a9bb 6d5b 463e 028f c03b b47e 9b3e
000003b0: 3a6d 8dbd 16d0 35bd 4d87 43bd 0aa1 55bd
000003c0: 16a3 82bd 19dd d2bb 431f 853e ce2e e13d
000003d0: ef3c 843d 8d53 5ebd cfa4 0abe 0b69 3ebd
000003e0: 049e 8db9 b0a0 b53c

6.weight f4 [157, 250]
0.020114612 -0.023915801 -0.01003211 -0.023104616 -0.06405792 -0.008010885 -0.0034311386 -0.33351606
-0.06087607 -0.093803465 0.025533816 -0.034247886 -0.0010213741 -0.11266697 -0.031710103 0.0596447
-0.112118796 -0.023538494 0.05408791 0.06325873 0.0078882985 -0.026186904 0.017129831 0.011145857
-0.07307228 0.009994981 -0.011577289 0.016261414 0.09007632 -0.014545266 -0.00605815 -0.25222173
-0.060518354 -0.095173925 -0.015572354 0.02347863 0.014211177 -0.04363317 -0.027566142 0.119473875
0.054029427 -0.037295733 -0.08163924 0.040482495 0.011317094 0.043860666 0.04646373 -0.088795945
0.042036638 -0.08971732 -0.025310658 0.009691491 0.06176684 -0.21499915 -0.037166744 -0.05066846
-0.015654666 -0.07124689 0.05239434 0.0390901 0.019047229 -0.0150516275 0.11548158 0.027509255
-0.010608806 0.018063473 -0.020798307 -0.008245057 0.115924634 0.0567342 0.065739736 0.047773037
-0.046439372 0.025357738 0.040279023 0.013595398 -0.06652186 0.023608107 -0.08613755 0.03070512
0.07232156 -0.049169555 -0.0131437825 0.05043634 -0.11101169 -0.04918226 -0.008531611 -0.05534413
-0.048920687 -0.02560556 0.073182955 0.004345428 0.026869044 -0.066466756 0.04550555 0.04927568
0.14182256 0.078218 -0.0074390117 -0.022967776 -0.04838533 0.013330368 -0.14173512 -0.013893528
-0.06663544 -0.06314099 0.04178983 0.023316 -0.026001744 0.0685292 0.18057589 -0.0652969
0.018270986 -0.022908 0.01614649 -0.011449937 -0.3854436 0.024196394 -0.051254485 -0.016606329
-0.046186987 -0.027727952 -0.028412418 -0.043556347 0.16386414 -0.10558956 0.09064065 0.0739621
-0.012038136 -0.016205054 0.051863298 0.015710887 0.01866329 -0.010865387 0.047345825 -0.023243256
0.023570517 0.021831352 -0.055405643 -0.06037202 -0.19126116 -0.082034856 -0.07485061 0.028725863
-0.059693716 -0.03206997 -0.03347524 0.006438516 0.07078635 0.0372956 0.039227102 0.052752424
-0.01385522 -0.050303932 0.0074076303 0.037887283 0.04698677 0.019607896 0.057878777 0.03497284
0.03322637 -0.017821832 -0.08155421 -0.18437505 -0.19509348 0.15456331 0.051220365 -0.044615388
-0.053627603 0.024463624 -0.041384254 0.046156634 -0.016261254 0.111454524 0.05730812 -0.033625543
0.0034867143 0.033197176 0.09293976 0.050231315 0.011941589 -6.551207e-05 0.015633393 -0.076531604
-0.01307272 0.0047902246 0.015598926 -0.018215626 0.06808708 0.010298004 0.09804489 -0.16880521
0.06541839 -0.048756734 -0.034757975 -0.049267244 -0.05507879 -0.058949538 0.0019105352 0.039891437
-0.0059344615 0.04799518 0.018638441 -0.037342392 0.0637145 0.05272991 -0.02851247 -0.17180091
-0.004769606 -0.06509074 -0.10732412 -0.006072029 -0.07879278 -0.053060573 0.010626964 -0.03932473
0.0042630327 0.008905545 0.048071437 0.0053060735 -0.005669842 0.05851931 -0.10803476 -0.04416246
0.002854297 -0.002293184 -0.0283523 0.07153668 -0.01159717 0.10119395 0.03521622 0.070103206
0.026706172 -0.0052017123 -0.017172646 0.09324384 0.051574845 -0.06984726 0.065777525 -0.066649474
0.0029626435 -0.051378336 -0.08512409 -0.02641841 -0.019821387 0.055126797 0.08380331 -0.12254748
-0.043697547 0.01586646 0.13268264 -0.09091366 -0.067223415 0.045975033 0.089589484 0.0262797
00000000: 66c7 a43c 12eb c3bc b85d 24bc e445 bdbc
00000010: cc30 83bd 1640 03bc f4dc 60bb 9ec2 aabe
00000020: 3059 79bd 081c c0bd 4b2c d13c 8347 0cbd
00000030: a1df 85ba f1bd e6bd 74e2 01bd 004e 743d
00000040: 8a9e e5bd cdd3 c0bc 498b 5d3d cb8d 813d
00000050: ec3d 013c eb85 d6bc dc53 8c3c 1d9d 363c
00000060: eba6 95bd fdc1 233c abae 3dbc a836 853c
00000070: ef79 b83d 444f 6ebc 7283 c6bb 3523 81be
00000080: 18e2 77bd 8cea c2bd 3023 7fbc 4256 c03c
00000090: ffd5 683c b2b8 32bd 64d2 e1bc b8ae f43d
000000a0: f64d 5d3d 69c3 18bd 7932 a7bd f9d0 253d
000000b0: 556b 393c 3ea7 333d c150 3e3d a6da b5bd
000000c0: 9c2e 2c3d b7bd b7bd 4c58 cfbc 0fc9 1e3c
000000d0: 3aff 7c3d bd28 5cbe 283c 18bd bb89 4fbd
000000e0: 373e 80bc e4e9 91bd 739b 563d f11c 203d
000000f0: ef08 9c3c 1a9b 76bc 9b81 ec3d 175b e13c
00000100: 8fd0 2dbc d9f9 933c 3661 aabc 4716 07bc
00000110: e569 ed3d 1f62 683d 8ea2 863d a9ad 433d
00000120: 3637 3ebd 08bb cf3c 9efb 243d 3bbf 5e3c
00000130: 9d3c 88bd ca65 c13c e268 b0bd 4e89 fb3c
00000140: 531d 943d 0466 49bd 0559 57bc 5696 4e3d
00000150: 195a e3bd 5673 49bd 2cc8 0bbc 87b0 62bd
00000160: 0f61 48bd c0c2 d1bc f2e0 953d 1864 8e3b
00000170: 781c dc3c b91f 88bd 0764 3a3d 4cd5 493d
00000180: ef39 113e c230 a03d f4c2 f3bb eb26 bcbc
00000190: b22f 46bd 9e67 5a3c 0323 11be aea1 63bc
000001a0: 2978 88bd 1050 81bd d02b 2b3d 3201 bf3c
000001b0: 9c01 d5bc 0a59 8c3d e3e8 383e 62ba 85bd
000001c0: 09ad 953c 8fa9 bbbc a545 843c 8498 3bbc
000001d0: dd58 c5be 8437 c63c 39f0 51bd ff09 88bc
000001e0: 912e 3dbd bb25 e3bc 29c1 e8bc 2468 32bd
000001f0: 00cc 273e 573f d8bd cea1 b93d 7179 973d
00000200: 9a3b 45bc 76c0 84bc 9c6e 543d 1eb4 803c
00000210: c2e3 983c bc04 32bc b2ed 413d a468 bebc
00000220: f516 c13c aad7 b23c 07f1 62bd a748 77bd
00000230: f7d9 43be e401 a8bd 474b 99bd 8052 eb3c
00000240: 6681 74bd cd5b 03bd 551d 09bd 30fa d23b
00000250: 6ff8 903d 45c3 183d 99ac 203d ed12 583d
00000260: 0101 63bc 7f0b 4ebd b5bb f23b b22f 1b3d
00000270: 3375 403d bda0 a03c 4c12 6d3d ae3f 0f3d
00000280: 6018 083d 17ff 91bc e505 a7bd d0cc 3cbe
00000290: 96c6 47be d845 1e3e 72cc 513d a0be 36bd
000002a0: 9ea8 5bbd f067 c83c 8982 29bd bd0e 3d3d
000002b0: 5236 85bc 4542 e43d ebbb 6a3d f0ba 09bd
000002c0: 5c81 643b c3f9 073d 3357 be3d 5abf 4d3d
000002d0: a8a6 433c 8663 89b8 9a11 803c 9abc 9cbd
000002e0: f62e 56bc 51f7 9c3b a392 7f3c f038 95bc
000002f0: 3d71 8b3d f6b8 283c c2cb c83d 46db 2cbe
00000300: 14fa 853d 24b5 47bd 615e 0ebd 73cc 49bd
00000310: 4c9a 61bd 1275 71bd ec6a fa3a 3465 233d
00000320: df75 c2bb 9896 443d a5af 983c 56f4 18bd
00000330: bf7c 823d 51fb 573d fc92 e9bc 94ec 2fbe
00000340: 5b4a 9cbb 4b4e 85bd c0cc dbbd dff7 c6bb
00000350: 1c5e a1bd 0b56 59bd b81c 2e3c f812 21bd
00000360: e9b0 8b3b 90e8 113c 8ee6 443d 92de ad3b
00000370: 15ca b9bb f2b1 6f3d 5441 ddbd b2e3 34bd
00000380: 280f 3b3b 3e49 16bb 1543 e8bc d381 923d
00000390: 0e02 3ebc c63e cf3d e23e 103d 4592 8f3d
000003a0: e7c6 da3c 2073 aabb a6ad 8cbc a0f6 be3d
000003b0: 2540 533d 150c 8fbd 5eb6 863d 857f 88bd
000003c0: e928 423b 1772 52bd 8a55 aebd 6c6b d8bc
000003d0: 7660 a2bc a3cc 613d 12a1 ab3d 2cfa fabd
000003e0: 33fc 32bd 61fa 813c f5dd 073e f130 babd
000003f0: 6eac 89bd 5150 3c3d b17a b73d 8748 d73c

6.bias f4 [157]
0.13770215 -0.21418251 -0.36080134 -0.038563777 -0.44387287 0.02182957 -0.3223056 -0.15175164
0.5846081 -0.25586903 -0.4604218 0.06717016 -0.4183867 0.12589364 0.2844716 -0.120764285
-0.3758216 0.0863743 0.2091375 -0.4495566 0.028967688 -0.18943252 -0.10905571 0.1629656
0.029634621 0.7779419 -0.06482961 -0.349887 -0.20817567 0.08875786 -0.4774891 0.06720623
-0.050742947 -0.40057358 0.1616988 -0.2748929 -0.5141495 -0.0075730644 -0.19481923 -0.0976456
0.0069512706 -0.07913845 -0.33600307 0.1395608 0.5141938 -0.17253064 -0.22514717 0.06195599
0.23397808 0.59119886 0.08138215 0.20825525 -0.4310897 -0.12481797 -0.61501956 0.52394295
-0.48096985 -0.3844795 0.104053214 0.13643019 -0.18824217 -0.028316854 0.21457435 -0.22016512
0.37443873 -0.097613096 -0.2917528 -0.1359767 0.31404814 0.3188645 0.08894952 -0.1261831
-0.07625742 0.18684597 0.020158827 0.26862773 -0.10312393 0.17473377 -0.31777614 -0.11063972
0.63934636 0.3839888 -0.107081175 -0.39824265 -0.20914145 0.36387563 -0.07463183 0.08840672
0.1676608 0.17682634 0.056273784 -0.006913601 0.32660183 0.309487 0.30099154 -0.3649105
-0.31639305 0.07292385 -0.19210476 -0.24791056 0.28323853 -0.04588417 0.4011342 -0.51324207
-0.08925732 -0.094909064 -0.1096642 -0.022437098 0.31785867 -0.16369198 -0.01401116 -0.047372457
-0.0077773845 0.008196766 0.28651458 0.016547304 -0.32231644 -0.0926308 -0.0863621 0.09757256
0.23954353 -0.5482171 -0.041067194 0.07303399 -0.37630495 0.27457315 0.39246887 -0.08385877
0.16101244 0.28048056 0.46298245 0.010315427 0.02591894 -0.119478114 -0.5571574 -0.31713608
-0.27491674 0.30315396 -0.38233322 0.23001476 0.6155114 0.01941521 0.1869468 -0.06941192
0.09414639 0.40586737 0.10769526 -0.2290644 0.23436241 0.03947212 0.35643896 0.14523283
-0.33881354 -0.38538608 0.17884734 0.112111166 0.15854856
00000000: cb01 0d3e a952 5bbe f4ba b8be 0df5 1dbd
00000010: 4e43 e3be edd3 b23c 3d05 a5be c864 1bbe
00000020: e0a8 153f 4401 83be 68bc ebbe 8290 893d
00000030: c836 d6be 43ea 003e 43a6 913e 4453 f7bd
00000040: b06b c0be 02e5 b03d 2428 563e 482c e6be
00000050: a54d ed3c 99fa 41be 9a58 dfbd 74e0 263e
00000060: 4ec4 f23c 3327 473f 63c5 84bd 6424 b3be
00000070: 012c 55be aec6 b53d 7479 f4be 6ba3 893d
00000080: d6d7 4fbd fb17 cdbe 5f94 253e c3be 8cbe
00000090: 4d9f 03bf 7827 f8bb b17e 47be 6bfa c7bd
000000a0: 7cc7 e33b 5713 a2bd 9808 acbe 07e9 0e3e
000000b0: 34a2 033f dfab 30be fb8c 66be 90c5 7d3d
000000c0: f397 6f3e cf58 173f afab a63d dd40 553e
000000d0: cab7 dcbe 90a0 ffbd ec71 1dbf 2021 063f
000000e0: ae41 f6be 7fda c4be da19 d53d 5bb4 0b3e
000000f0: 8ec2 40be bff8 e7bc 61b9 5b3e f772 61be
00000100: 6fb6 bf3e 60e9 c7bd 9f60 95be 7a3d 0bbe
00000110: ebca a03e 3542 a33e 2a2b b63d 2436 01be
00000120: da2c 9cbd 8d54 3f3e 2024 a53c 9389 893e
00000130: a432 d3bd 69ed 323e 8eb3 a2be 1497 e2bd
00000140: 34ac 233f 2e9a c43e 604d dbbd 76e6 cbbe
00000150: 2d29 56be e84d ba3e 93d8 98bd 950e b53d
00000160: 46af 2b3e f711 353e 577f 663d 7d8b e2bb
00000170: 5b38 a73e 1475 9e3e 901b 9a3e 8dd5 babe
00000180: 45fe a1be 1959 953d 1cb7 44be 44dc 7dbe
00000190: a404 913e 0af1 3bbd 7661 cd3e d563 03bf
000001a0: 8bcc b6bd af5f c2bd a097 e0bd 01ce b7bc
000001b0: 5fbe a23e df9e 27be 108f 65bc 9f09 42bd
000001c0: 6ed9 febb ba4b 063c 0ab2 923e 368e 873c
000001d0: a906 a5be 38b5 bdbd 9dde b0bd 1fd4 c73d
000001e0: e64a 753e f557 0cbf 1336 28bd d892 953d
000001f0: 0bab c0be da94 8c3e aef1 c83e 26be abbd
00000200: 72e0 243e 269b 8f3e 090c ed3e 0902 293c
00000210: f553 d43c f1b0 f4bd dea1 0ebf a95f a2be
00000220: e3c1 8cbe ff36 9b3e 2ec1 c3be fd88 6b3e
00000230: 2892 1d3f a50c 9f3c fb6e 3f3e d627 8ebd
00000240: d3cf c03d d9cd cf3e 558f dc3d dc8f 6abe
00000250: b3fc 6f3e 85ad 213d 2b7f b63e eab7 143e
00000260: f878 adbe 5351 c5be c223 373e 8a9a e53d
00000270: 8e5a 223e
