pav_spkid_pytorch/lp_model_hsize_250_lr0001/bestval_e6_weights.ckpt (torch_old, 850838 bytes, 8 tensors)

0.weight f4 [250, 189]
0.03219487 -0.09429627 -0.15384768 -0.043725148 -0.12619777 0.12093519 -0.57036775 0.12286516
0.3664624 -0.0707421 -0.065054506 -0.082769305 0.17183983 -0.21215129 0.2507209 -0.44997203
0.18449648 0.24695374 -0.0047987695 -0.029359791 -0.24219573 0.16097544 -0.24279025 0.2323308
-0.5314587 0.13523427 0.16253802 -0.13111253 -0.017271785 -0.15143554 0.18127622 -0.19109638
0.10566182 -0.31969783 0.10688119 0.28300855 -0.17405328 -0.023712948 -0.17218055 0.15344188
-0.063677475 0.17137603 -0.2895686 0.099381045 0.2714118 -0.056183342 0.14062823 -0.14718741
0.18759085 -0.08356671 0.11966927 -0.2479787 -0.08200152 0.29781508 0.0776104 0.049059976
-0.14188372 0.2108622 0.040497 0.25011376 -0.18021937 0.011890196 0.3469184 -0.053926036
0.15903588 -0.05487108 0.1879934 -0.028987654 0.18387716 -0.22466917 0.059076354 0.46287042
0.037033234 0.16407806 -0.049684845 0.17830934 0.04731421 0.17624216 -0.26887637 0.08267306
0.66872734 0.027026508 0.13796304 -0.023690227 0.2813331 0.017142814 0.223238 -0.40148425
0.20929752 0.69833034 -0.047191568 0.25384095 -0.09946795 0.29371488 -0.017324315 0.27896282
-0.3312392 0.2144974 0.9394234 0.02906145 0.2299333 0.01778407 0.25515342 0.010359915
0.28126335 -0.41136482 0.31266186 0.99784 0.042818412 0.16188373 -0.07144369 0.106291726
-0.0050097965 0.13299933 -0.42846474 0.33948734 1.0046383 -0.030007763 0.21426491 -0.027014311
0.111604504 0.05151448 -0.0089304475 -0.32844695 0.30769658 0.972036 -0.0012479406 0.19535366
0.020255532 0.11352253 0.2615386 -0.11636635 -0.13769002 0.17565729 0.98617226 0.00080585934
0.16183145 0.05997331 0.07477708 0.22301696 -0.21033646 -0.16690391 0.18070163 1.099217
0.04722677 0.12005865 -0.040235113 0.07887006 0.3100195 -0.24220781 -0.11002 0.14803933
1.0632919 -0.04522198 0.14586024 0.0035040653 0.11176795 0.2365657 -0.23477969 -0.1226845
0.024006002 1.1668992 0.015088697 0.16690996 0.0061110295 0.040699 0.12640142 -0.104575954
-0.17550157 0.12802505 1.2102683 0.018572696 0.15313567 -0.120452434 0.111748606 0.07029173
-0.1993186 -0.12618883 0.10487131 1.3101554 -0.01676176 0.26799777 -0.11875354 0.20375213
-0.14460525 0.011980209 -0.19537616 0.22730835 1.2922046 -0.008127808 0.0369141 0.1967498
-0.090449505 -0.00463713 0.037426252 0.03339529 0.3521994 0.725834 0.023416914 0.02108646
0.17680661 -0.18404712 -0.10771912 -0.029652532 0.0067412355 0.3018462 0.6700199 -0.012457284
0.0025655974 0.07277469 -0.1561837 -0.1214148 -0.023943981 -0.01344812 0.45288044 0.4803228
0.029196864 -0.0015928632 0.067870505 -0.14907797 -0.0075299162 0.020351 0.048328113 0.48530176
0.4932865 -0.022030385 0.018393332 0.19391254 -0.27905685 -0.09267095 0.055997975 0.10908772
0.47276804 0.36830473 -0.00042962463 0.0045558945 0.101854265 -0.19387195 -0.078628436 -0.047450803
0.025973808 0.41711035 0.38110346 0.00722078 -0.08701795 0.1247425 -0.1902679 -0.11732831
0.033657998 0.09805309 0.30620405 0.37871048 0.0005185114 -0.0607134 0.13318127 -0.2060396
00000000: c5de 033d 671e c1bd 3f8a 1dbe 2419 33bd
00000010: fd39 01be deac f73d 9f03 12bf bba0 fb3d
00000020: f6a0 bb3e 3ce1 90bd 4c3b 85bd f482 a9bd
00000030: c8f6 2f3e 303e 59be 7d5e 803e bc62 e6be
00000040: a5ec 3c3e 71e1 7c3e ff3e 9dbb f283 f0bc
00000050: 2802 78be bfd6 243e 029e 78be 20e8 6d3e
00000060: ad0d 08bf da7a 0a3e 5e70 263e 5d42 06be
00000070: 8f7d 8dbc eb11 1bbe 79a0 393e c5ae 43be
00000080: 3965 d83d 6faf a3be 86e4 da3d 7fe6 903e
00000090: 063b 32be a841 c2bc 1950 30be de1f 1d3e
000000a0: 5669 82bd 337d 2f3e 5642 94be 4a88 cb3d
000000b0: 7df6 8a3e 8120 66bd d900 103e 4cb8 16be
000000c0: d117 403e 0625 abbd 2a15 f53d 21ee 7dbe
000000d0: 6af0 a7bd 387b 983e 34f2 9e3d 1df3 483d
000000e0: f749 11be 43ec 573e 2fe0 253d e90e 803e
000000f0: 6d8b 38be 19cf 423c 4a9f b13e 8ce1 5cbd
00000100: 4dda 223e 7fc0 60bd 5881 403e 8477 edbc
00000110: 4b4a 3c3e ad0f 66be 0cfa 713d 5afd ec3e
00000120: 29b0 173d 1404 283e 5682 4bbd b996 363e
00000130: 8ccc 413d d378 343e 2aaa 89be 7e50 a93d
00000140: b731 2b3f b266 dd3c 2f46 0d3e 0212 c2bc
00000150: e40a 903e 166f 8c3c 8198 643e 588f cdbe
00000160: 1752 563e c7c5 323f f24b 41bd 71f7 813e
00000170: dab5 cbbd cc61 963e b9eb 8dbc 37d4 8e3e
00000180: 2f98 a9be 35a5 5b3e 0d7e 703f 4712 ee3c
00000190: a373 6b3e e6af 913c 78a3 823e a2bc 293c
000001a0: c001 903e 699e d2be 3715 a03e 7172 7f3f
000001b0: 5c62 2f3d d9c4 253e 1251 92bd 7aaf d93d
000001c0: 3829 a4bb fa30 083e bb5f dbbe 49d1 ad3e
000001d0: fd97 803f d7d2 f5bc 4368 5b3e 1e4d ddbc
000001e0: e790 e43d d900 533d 0351 12bc 332a a8be
000001f0: 688a 9d3e 5ad7 783f f091 a3ba ca0a 483e
00000200: eeee a53c 807e e83d 63e8 853e 7b51 eebd
00000210: 9dfe 0cbe 81df 333e c975 7c3f 4e40 533a
00000220: 25b7 253e 93a6 753d ba24 993d 8f5e 643e
00000230: 7162 57be dce8 2abe d909 393e 25b3 8c3f
00000240: dc70 413d 4fe1 f53d 93cd 24bd a086 a13d
00000250: e0ba 9e3e 5305 78be 2a52 e1bd 9f97 173e
00000260: f319 883f af3a 39bd 635c 153e 76a4 653b
00000270: 98e6 e43d 473e 723e 166a 70be 0342 fbbd
00000280: 3ca8 c43c f45c 953f 9536 773c 72ea 2a3e
00000290: 083f c83b ffb3 263d 606f 013e eb2b d6bd
000002a0: afb6 33be 0019 033e 12ea 9a3f c425 983c
000002b0: 99cf 1c3e c4af f6bd 74dc e43d 1cf5 8f3d
000002c0: 2d1a 4cbe a537 01be c5c6 d63d 2cb3 a73f
000002d0: f54f 89bc 0137 893e 0e35 f3bd 66a4 503e
000002e0: 6613 14be a348 443c b010 48be 85c3 683e
000002f0: f666 a53f 7f2a 05bc 3d33 173d c878 493e
00000300: 973d b9bd 11f3 97bb 454c 193d 80c9 083d
00000310: 7b53 b43e 42d0 393f d4d4 bf3c 83bd ac3c
00000320: cb0c 353e d976 3cbe d89b dcbd dee9 f2bc
00000330: 95e5 dc3b 968b 9a3e 6d86 2b3f a319 4cbc
00000340: 9523 283b e60a 953d 9fee 1fbe 53a8 f8bd
00000350: 2b26 c4bc 8155 5cbc f2df e73e dfec f53e
00000360: 432e ef3c 9fc7 d0ba b1ff 8a3d e5a7 18be
00000370: 84bd f6bb 24b7 a63c b3f3 453d 7979 f83e
00000380: 0c90 fc3e 1179 b4bc 9dad 963c 0291 463e
00000390: 8ae0 8ebe 44ca bdbd 225e 653d 6269 df3d
000003a0: a70e f23e 7092 bc3e 3e3f e1b9 9d49 953b
000003b0: f898 d03d 5e86 46be f207 a1bd c65b 42bd
000003c0: 06c7 d43c 7d8f d53e fe1f c33e 4b9c ec3b
000003d0: 7836 b2bd ff78 ff3d 97d5 42be d349 f0bd
000003e0: f8dc 093d 0fd0 c83d c7c6 9c3e 57e6 c13e
000003f0: b6ec 073a 9dae 78bd ac60 083e 0bfc 52be

0.bias f4 [250]
0.21334566 1.505768 -0.12546586 -0.04420316 -0.2695504 0.25066006 -0.073412634 -0.81190366
-0.26637837 -0.025446013 -0.15368822 0.33479512 0.12693527 1.5335473 0.09770387 -0.08169161
0.12895527 -0.17455553 1.6818048 0.16587116 -0.69665635 0.004763629 -0.17811565 0.012270878
0.028943744 0.10343434 0.03463034 -0.06778767 -0.2112522 -0.5426941 0.51843613 -0.12834011
0.09579834 1.1944772 0.23188496 0.020153966 0.32986835 -0.76526004 -0.013340916 0.09287707
-0.19932604 0.12221268 0.08162628 0.11260013 0.007253274 1.2387989 -0.06899203 1.3492812
-0.6540919 0.06186765 -0.54700387 0.05659491 -0.24880683 0.16477716 -0.06836878 -0.06553089
0.2917369 0.50818837 1.4798445 -0.21624635 0.13455744 -0.065302975 0.66547173 0.07351791
0.5587339 -0.39835763 -0.24146327 -0.5341967 -0.1631399 0.09882782 0.28641766 0.1518342
0.91948426 0.09422523 -0.63998073 -0.072392665 -0.2609377 -0.30089068 0.8040733 -0.49168384
1.5373565 -0.35923392 0.4876801 0.024538156 0.0066394424 1.3168846 -0.50576764 -0.07870524
1.3919228 0.30233213 -0.43931764 -0.18984455 0.98124325 0.30767247 -0.22057699 0.1079079
-0.4387547 1.0116011 0.30291954 -0.3881504 0.059995167 0.029411286 1.0214038 0.0146758165
-0.49608535 0.09011371 1.0712224 0.24646309 -0.22684205 -0.32695627 0.006738469 0.80289316
0.4292844 0.29113182 0.26616618 -0.5164516 0.16476245 0.27232248 0.25138962 -0.98420125
-0.10433549 0.5586884 1.3048798 -0.26979887 0.8558816 -0.58697605 -0.4492616 0.177278
-0.48953465 -0.016756639 0.03871764 0.3529793 0.18965463 -0.5151192 0.64478785 -0.2140733
-0.057864197 0.06662319 0.6145015 0.04567076 0.096618846 -0.4554957 -0.21920434 1.0346049
0.1356276 0.5753948 -0.48476994 1.3024507 0.30926532 0.038809877 -0.5878378 -0.60276055
0.07549463 0.5639424 0.38467366 0.14155748 -0.116053596 -0.24744973 -0.0017418411 -0.21710438
-0.45520785 0.123924196 0.014745458 1.0229282 -0.69885814 0.04356431 1.4798182 0.16640829
0.3179697 -0.35181653 0.6100712 -0.06358893 -0.32136667 0.016664544 0.117946416 0.5604057
0.33452356 0.3264677 0.16991654 0.5871882 0.019027907 0.32920322 0.2822905 1.3756866
0.06513439 0.79664505 -0.14615266 0.08259476 0.118837506 -0.037384164 0.34040013 0.893267
-0.04395502 -0.4240434 -0.1544228 0.27680892 -1.1815653 -0.1469226 0.023217399 0.15321663
0.7509844 0.0774314 -0.12502539 0.21858193 0.07519287 0.7781141 -0.3944808 0.01727197
-0.06199805 0.010924343 1.2398285 -0.40379995 0.56519353 0.07528837 0.27001724 0.09908743
1.4559555 0.10345667 0.214603 -0.14423232 0.3788616 -0.3079883 -0.16850907 1.2027828
-0.23569144 0.0010727434 0.32604086 0.25395525 -0.37267137 -0.0316254 0.7335945 0.3381612
-0.124457896 0.3674989 0.06291493 0.24576575 0.0016801512 -0.034821708 0.054655075 0.77868116
-0.6895905 -1.3768175 0.53548616 -0.36801744 0.43903223 0.011503274 -0.1014947 -0.013682055
0.06092683 -0.2637324
00000000: 4977 5a3e 01bd c03f 1f7a 00be 5f0e 35bd
00000010: 8302 8abe 8456 803e 5d59 96bd ebd8 4fbf
00000020: bf62 88be 2874 d0bc 7260 1dbe 446a ab3e
00000030: 52fb 013e 474b c43f f718 c83d ee4d a7bd
00000040: da0c 043e afbe 32be 6145 d73f 21da 293e
00000050: 1258 32bf 3718 9c3b f363 36be cb0b 493c
00000060: 6e1b ed3c 62d5 d33d 8bd8 0d3d 43d4 8abd
00000070: 7f52 58be 00ee 0abf 3bb8 043f 976b 03be
00000080: ec31 c43d a1e4 983f 4073 6d3e ee19 a53c
00000090: 81e4 a83e 15e8 43bf db93 5abc 5536 be3d
000000a0: 201c 4cbe a44a fa3d ae2b a73d e69a e63d
000000b0: dfac ed3b f690 9e3f b24b 8dbd 3fb5 ac3f
000000c0: 9172 27bf ef68 7d3d 7208 0cbf 10d0 673d
000000d0: 38c7 7ebe 58bb 283e ee04 8cbd 0f35 86bd
000000e0: 8a5e 953e a218 023f 8b6b bd3f af6f 5dbe
000000f0: 6dc9 093e 91bd 85bd 5b5c 2a3f 8f90 963d
00000100: 2f09 0f3f 88f5 cbbe 2642 77be 1dc1 08bf
00000110: 250e 27be 3d66 ca3d 56a5 923e 6d7a 1b3e
00000120: 5263 6b3f 28f9 c03d c7d5 23bf 9b42 94bd
00000130: a099 85be 580e 9abe bfd7 4d3f fcbd fbbe
00000140: 19c8 c43f 82ed b7be 35b1 f93e 3e04 c93c
00000150: ae8f d93b ad8f a83f fd79 01bf 3630 a1bd
00000160: 872a b23f 47cb 9a3e 3eee e0be 9c66 42be
00000170: c232 7b3f 3f87 9d3e efde 61be d1fe dc3d
00000180: 75a4 e0be 257c 813f 4518 9b3e a6bb c6be
00000190: 7ebd 753d f0ef f03c 5cbd 823f d672 703c
000001a0: e6fe fdbe 898d b83d d11d 893f d260 7c3e
000001b0: 4849 68be d066 a7be 60ce dc3b 688a 4d3f
000001c0: 2acb db3e 3b0f 953e ef46 883e 2c36 04bf
000001d0: 7db7 283e da6d 8b3e 24b6 803e 9df4 7bbf
000001e0: d8ad d5bd 3406 0f3f 4d06 a73f 1423 8abe
000001f0: 0e1b 5b3f 1044 16bf 9e05 e6be 5d88 353e
00000200: 49a4 fabe 3845 89bc 6396 1e3d b4b9 b43e
00000210: d334 423e dade 03bf d110 253f 0836 5bbe
00000220: 0203 6dbd bd71 883d f84f 1d3f 4311 3b3d
00000230: 1ae0 c53d bb36 e9be 1a77 60be ef6d 843f
00000240: f6e1 0a3e 134d 133f c433 f8be b4b6 a63f
00000250: 0658 9e3e 1bf7 1e3d 8a7c 16bf 844e 1abf
00000260: ee9c 9a3d 875e 103f f2f3 c43e 72f4 103e
00000270: 82ad edbd 7663 7dbe 7d4e e4ba 9c50 5ebe
00000280: 0111 e9be f8cb fd3d ef96 713c 50ef 823f
00000290: 5ee8 32bf 7d70 323d af6a bd3f ef66 2a3e
000002a0: edcc a23e 4c21 b4be a02d 1c3f ea3a 82bd
000002b0: 2c8a a4be 1584 883c e48d f13d bf76 0f3f
000002c0: ac46 ab3e c626 a73e 9afe 2d3e f751 163f
000002d0: 6ae0 9b3c 538d a83e 6188 903e 8016 b03f
000002e0: 2e65 853d eef0 4b3f 0ba9 15be 7127 a93d
000002f0: 1461 f33d 2320 19bd ed48 ae3e 25ad 643f
00000300: 2e0a 34bd 371c d9be 0321 1ebe e6b9 8d3e
00000310: 883d 97bf e172 16be 6a32 be3c d2e4 1c3e
00000320: 8340 403f 5b94 9e3d a806 00be f1d3 5f3e
00000330: b8fe 993d 7c32 473f 63f9 c9be f27d 8d3c
00000340: abf1 7dbd 04fc 323c b3b2 9e3f debe cebe
00000350: 86b0 103f ca30 9a3d b33f 8a3e 5aee ca3d
00000360: c05c ba3f 17e1 d33d e4c0 5b3e a3b1 13be
00000370: 26fa c13e a4b0 9dbe a48d 2cbe c9f4 993f
00000380: 1959 71be 4c9b 8c3a d4ee a63e 6c06 823e
00000390: c8ce bebe a389 01bd d9cc 3b3f 7723 ad3e
000003a0: c8e3 febd d128 bc3e 8bd9 803d 04aa 7b3e
000003b0: 8538 dc3a 35a1 0ebd 00de 5f3d a657 473f
000003c0: 0189 30bf 8e3b b0bf 9f15 093f c86c bcbe
000003d0: d5c8 e03e 3a78 3c3c 74dc cfbd b32a 60bc
000003e0: 698e 793d ef07 87be

2.weight f4 [250, 250]
-0.035961736 0.38572 -0.056661293 0.05572561 0.027475018 0.04417032 0.016200876 0.008292962
-0.3001338 -0.02995169 0.09291482 0.009335902 -0.09603394 0.12454639 -0.015901554 -0.012981954
0.05827325 -0.07760396 -0.12664913 0.0012813054 0.009399502 0.0071019805 0.010865339 -0.058465157
0.029583687 0.05327284 0.0009761805 -0.063994594 -0.052014295 -0.058815204 -0.11154275 0.007176245
0.016686328 -0.13729934 -0.034801915 -0.08493589 0.001451334 -0.008201539 -0.027750911 -0.05756723
-0.1786991 -0.13065651 0.043525726 -0.0053400947 -0.14439236 -0.10411507 0.017105306 -0.1493468
-0.006457313 -0.056986295 0.07640066 -0.019158408 -0.05350206 -0.08295836 -0.03312095 -0.07219405
0.055720195 -0.00418101 0.13437833 0.015676022 -0.041105743 -0.03758392 -0.043926913 -0.043471508
0.049389835 -0.0682562 -0.004410119 0.011487954 0.011633037 -0.027199542 -0.16658244 0.008233467
-0.09223506 0.0020563249 0.0066053174 0.011467895 0.0006404215 0.0017420661 -0.061800092 0.0077955993
-0.012465432 -0.0461597 0.04749006 0.01720916 -0.03480785 -0.002824249 -0.02489058 0.010243102
0.020506931 0.022148715 0.0049165655 -0.06460472 -0.06629419 -0.07174111 -0.013336457 -0.14489828
0.037210003 -0.054763265 -0.06840723 -0.012510985 -0.002984535 -0.012009104 -0.0017794194 0.056104302
-0.06941693 -0.09792956 -0.10295668 -0.03121864 0.057987202 -0.16512239 0.020261547 0.031514626
-0.09229057 0.012217557 -0.071832694 -0.031290855 -0.076647446 -0.006897952 -0.024174495 0.0061525065
-0.0401332 -0.0715155 0.0052704313 -0.02432286 0.17463678 -0.11791765 0.0005735482 -0.054386172
-0.11764934 -0.08404639 0.035722494 0.0040722955 -0.0072028865 -0.10433169 -0.19387582 -0.07388427
0.0402567 0.034311444 -0.08682447 -0.06179408 -0.019076731 -0.028648378 -0.016485246 0.016834933
-0.010092145 -0.043862864 0.016545914 -0.013357666 -0.108514175 -0.07603456 0.030739432 -0.03597668
-0.069672965 0.10423705 0.08815612 -0.013376454 -0.042486466 -0.017589083 0.00076058356 0.024419999
0.023603765 0.011384307 -0.06869698 0.075686075 -0.056055497 0.018127864 3.0604395e-05 0.04250489
0.06702236 0.059082232 -0.19755274 0.024090473 -0.105437025 -0.13189535 -0.0687244 -0.0022858742
0.083689 0.005077605 0.0831211 -0.04380338 -0.045036867 -0.09347603 -0.018821703 -0.118096724
-0.17193982 0.028485712 0.098451495 0.0001324942 0.028515438 0.037745595 0.0885544 -0.0073223757
0.048198037 -0.12767947 0.016324582 -0.047518935 -0.008593645 0.0058571897 -0.03489719 -0.044800866
0.060766213 0.018419964 -0.04805445 0.011026275 0.039560717 0.06954846 -0.043833308 -0.056425646
-0.05239392 -0.054166783 0.064831495 0.0029471037 0.046636503 -0.010424538 0.07286148 0.027210895
-0.035917953 -0.04028983 0.022166427 -0.05459913 -0.02243974 -0.06010695 -0.07231754 0.0134216985
-0.033513803 -0.038233887 -0.051225115 0.08510051 0.017784785 0.04688515 -0.02695088 0.051427238
-0.012247738 -0.070268735 -0.05231811 -0.020742128 -0.069145724 -0.035649043 -0.0031485157 0.184364
0.045292147 -0.04807832 0.036374845 -0.043041866 -0.05709979 0.025932023 -0.15778023 -0.011258286
0.05819268 -0.031048423 0.025642447 -0.032624785 0.031908847 0.044101708 -0.003115609 0.014850589
00000000: 9d4c 13bd 187d c53e ac15 68bd 8a40 643d
00000010: 4a13 e13c f0eb 343d b3b7 843c 34df 073c
00000020: 23ab 99be 3f5d f5bc 204a be3d 9cf5 183c
00000030: 71ad c4bd 2d12 ff3d fa43 82bc 43b2 54bc
00000040: eeaf 6e3d d3ee 9ebd 4fb0 01be 7af1 a73a
00000050: 5e00 1a3c bbb7 e83b 8904 323c 2979 6fbd
00000060: 7d59 f23c 9f34 5a3d 5de6 7f3a 990f 83bd
00000070: f10c 55bd 36e8 70bd 8670 e4bd b526 eb3b
00000080: c4b1 883c 3398 0cbe 748c 0ebd def2 adbd
00000090: b03a be3a bf5f 06bc e155 e3bc 9ecb 6bbd
000000a0: e6fc 36be d2ca 05be 0848 323d f6fb aebb
000000b0: 97db 13be 483a d5bd 6d20 8c3c 5eee 18be
000000c0: de97 d3bb 766a 69bd f377 9c3d 18f2 9cbc
000000d0: fa24 5bbd 13e6 a9bd d5a9 07bd 79da 93bd
000000e0: dc3a 643d db00 89bb 799a 093e 006b 803c
000000f0: 7f5e 28bd 99f1 19bd b5ec 33bd 2e0f 32bd
00000100: ff4c 4a3d e8c9 8bbd c282 90bb f937 3c3c
00000110: 7e98 3e3c 93d1 debc 9694 2abe aae5 063c
00000120: bce5 bcbd 68c3 063b 6b71 d83b d6e3 3b3c
00000130: f6e1 273a 0a56 e43a 1822 7dbd 3a72 ff3b
00000140: d03b 4cbc f411 3dbd f084 423d 39fa 8c3c
00000150: ad92 0ebd 0917 39bb 54e7 cbbc afd2 273c
00000160: 27fe a73c 3971 b53c 241b a13b 7b4f 84bd
00000170: 40c5 87bd 01ed 92bd 2881 5abc 3760 14be
00000180: 8469 183d 724f 60bd 1719 8cbd e0fa 4cbc
00000190: 3098 43bb d5c1 44bc 683b e9ba a0cd 653d
000001a0: 772a 8ebd 4b8f c8bd f4da d2bd 3cbe ffbc
000001b0: fd83 6d3d d815 29be 8bfb a53c 7b15 013d
000001c0: d702 bdbd 262c 483c 051d 93bd d72a 00bd
000001d0: 56f9 9cbd 3708 e2bb 9709 c6bc f79a c93b
000001e0: b662 24bd b876 92bd 95b3 ac3b bc40 c7bc
000001f0: fcd3 323e cf7e f1bd 2b5a 163a 09c4 5ebd
00000200: 23f2 f0bd 8420 acbd c051 123d e470 853b
00000210: 3106 ecbb daab d5bd 6287 46be a350 97bd
00000220: 36e4 243d 288a 0c3d 07d1 b1bd ca1b 7dbd
00000230: ce46 9cbc 01b0 eabc 110c 87bc 6ae9 893c
00000240: 8659 25bc 8ca9 33bd 4c8b 873c 1dda 5abc
00000250: ae3c debd 02b8 9bbd 43d1 fb3c 495c 13bd
00000260: b3b0 8ebd 3c7a d53d 328b b43d ea28 5bbc
00000270: 4a06 2ebd fb16 90bc e661 473a 730c c83c
00000280: af5c c13c 3f85 3a3c 01b1 8cbd 4d01 9b3d
00000290: 739a 65bd e380 943c 385d 0038 9c19 2e3d
000002a0: 0543 893d 3600 723d 444b 4abe 6259 c53c
000002b0: 5eef d7bd 930f 07be 61bf 8cbd 9bce 15bb
000002c0: 2365 ab3d 0a62 a63b 653b aa3d 2c6b 33bd
000002d0: 9478 38bd 5c70 bfbd f92f 9abc b2dc f1bd
000002e0: fe10 30be de5a e93c f0a0 c93d 24ee 0a39
000002f0: 3599 e93c 209b 1a3d 025c b53d 8af0 efbb
00000300: 4e6b 453d 68be 02be 21bb 853c 37a3 42bd
00000310: 5ccc 0cbc abed bf3b 5bf0 0ebd 1d81 37bd
00000320: fee5 783d 77e5 963c bed4 44bd 8da7 343c
00000330: 6b0a 223d 6c6f 8e3d 8e8a 33bd 941e 67bd
00000340: 029b 56bd fddd 5dbd 60c6 843d 3224 413b
00000350: eb05 3f3d aecb 2abc 6638 953d 62e9 de3c
00000360: b41e 13bd f306 25bd 5e96 b53c 56a3 5fbd
00000370: 8cd3 b7bc b532 76bd 381b 94bd afe6 5b3c
00000380: c545 09bd 239b 1cbd 6dd1 51bd 2d49 ae3d
00000390: 66b1 913c a50a 403d 18c8 dcbc 5ea5 523d
000003a0: bdaa 48bc 0ee9 8fbd 844b 56bd 65eb a9bc
000003b0: 469c 8dbd bb04 12bd 5457 4ebb ebc9 3c3e
000003c0: 4284 393d c6ed 44bd cafd 143d ab4c 30bd
000003d0: 78e1 69bd 656f d43c 2491 21be ad74 38bc
000003e0: 735b 6e3d 4359 febc 1c10 d23c 91a1 05bd
000003f0: dab2 023d fea3 343d 3f2f 4cbb e34f 733c

2.bias f4 [250]
0.32505643 -0.5185862 0.10072993 0.15773955 0.029202973 -0.13524653 -0.024896078 -0.22770019
-0.0010925011 -0.020482687 -0.21036622 0.0282296 0.1490269 -0.009095148 -0.22421002 -0.21572274
0.110265 0.80710214 -0.015837131 0.9367592 -0.021552298 0.8813255 0.07260927 0.089513846
-0.2749622 0.035966907 -0.03302586 0.003263583 -0.046342567 -0.24320513 -0.15713483 -0.008562048
-0.114727594 -0.070720986 -0.081525385 0.19268265 0.18721886 0.8178279 0.72345173 -0.27837157
0.030340068 0.0026202486 0.502414 0.21890101 -0.07281565 -0.01774559 -0.07398165 0.34759018
0.040899053 1.1123116 0.54825944 0.91402113 -0.4772203 1.5851709 0.79658294 -0.32281625
0.08850913 0.28471813 0.33972824 0.16530524 -0.06745269 -0.61865383 0.022332368 0.10234019
0.6817747 -0.055145565 -0.053886503 0.007900976 0.028838485 -0.2826329 0.22501385 0.8287289
0.037610065 -0.30551457 -0.050763033 0.15021174 0.16610211 0.5466796 0.010613825 0.19009116
0.34790233 1.2318331 -0.1344182 -0.064233266 -0.049933195 0.8099568 0.164761 -0.23267578
0.1772877 -0.7947918 -0.034665354 -0.30788764 0.00832918 0.34114453 0.9142853 -0.09236382
-0.8491197 0.42594224 0.04500108 -0.5987476 -0.02256116 -0.22734278 -0.5236647 -0.073652476
0.5474166 0.7733272 0.10012515 -0.9890254 0.44712564 -0.28207114 0.36290285 0.27006677
0.0071242056 1.0209045 0.04315013 0.16370535 0.008794431 0.04196963 0.166423 0.02103032
-0.05530278 0.1313841 0.018724687 -0.054112613 0.0374646 -0.0025901252 -0.018702174 -0.24185684
-0.07316531 -0.33008277 0.17992915 0.6154661 -0.034279108 -0.021241415 1.0249833 0.60321015
-0.07968511 0.10653868 0.04363314 -0.03689633 -0.51928836 -0.03457373 -0.06809664 1.1254461
0.051417053 0.022125365 -0.032406945 -0.010233262 0.02676204 -0.19310206 -0.015948882 -0.0033989558
0.12498488 0.7138248 0.35433307 -0.3916193 0.029764444 -0.048595835 0.035000186 0.31052494
-0.7064466 0.55394655 -0.6869322 -0.57832587 -0.060738135 0.036211915 -0.44884518 -0.11801907
0.09049645 -0.4935422 0.2523835 -0.86269134 -0.39544198 0.13797522 0.03803358 -0.033633437
-0.7323792 0.14449878 0.614727 -0.28910688 -0.18799594 0.00047432756 0.050365854 -0.5014008
0.090444975 0.5177195 -0.11079873 -0.25854045 0.033765726 -0.013897198 -0.39640212 0.48995975
0.029033158 -0.14244714 0.17593488 -0.06395552 0.013035794 -0.27386013 1.0953783 1.299926
-0.13188335 -0.012895914 -0.0468188 0.16720833 0.012450764 -0.06963826 -1.0259104 0.14797331
1.21427 -0.04143579 0.03740423 -0.30381534 0.4017473 -0.30872178 1.195714 0.4514696
0.034435477 -0.020525878 0.4714659 0.9779181 -0.059468005 0.5879453 0.04812784 0.007507675
0.44344485 0.69070804 -0.25570744 -0.05081367 -0.17127033 -0.4015399 0.16727592 0.016527621
0.9181299 0.015584285 -0.25233153 0.015026365 -0.0448035 0.23706688 1.2755787 0.72069436
0.019348022 0.016298834 -0.007198497 -0.05180056 -0.045050398 -0.07455647 0.5104291 1.2946477
-0.07328132 -0.019920249
00000000: cc6d a63e 11c2 04bf 7e4b ce3d 7a86 213e
00000010: 133b ef3c 117e 0abe dcf2 cbbc 3d2a 69be
00000020: 4132 8fba 4fcb a7bc 3e6a 57be c341 e73c
00000030: 829a 183e d103 15bc 5097 65be 6ce6 5cbe
00000040: 9ed2 e13d 3f9e 4e3f dfbc 81bc 73cf 6f3f
00000050: 728e b0bc 8c9e 613f 2bb4 943d 0953 b73d
00000060: d8c7 8cbe 0952 133d 2046 07bd d6e1 553b
00000070: b4d1 3dbd c40a 79be f4e7 20be d547 0cbc
00000080: 4df6 eabd 2ad6 90bd c8f6 a6bd 9a4e 453e
00000090: 4db6 3f3e 2b5d 513f 2234 393f b886 8ebe
000000a0: bc8b f83c 7ab8 2b3b 349e 003f 9627 603e
000000b0: 5f20 95bd 335f 91bc b183 97bd 57f7 b13e
000000c0: c485 273d 3a60 8e3f bb5a 0c3f 4afd 693f
000000d0: 3856 f4be e1e6 ca3f dcec 4b3f 2c48 a5be
000000e0: 4644 b53d 93c6 913e dcf0 ad3e c745 293e
000000f0: a324 8abd 1960 1ebf 5ff2 b63c bc97 d13d
00000100: c988 2e3f 51e0 61bd 18b8 5cbd 1873 013c
00000110: b03e ec3c 42b5 90be 086a 663e 9427 543f
00000120: 030d 1a3d 686c 9cbe e6ec 4fbd 1bd1 193e
00000130: ac16 2a3e 32f3 0b3f 9ce5 2d3c 42a7 423e
00000140: 4120 b23e b5ac 9d3f eda4 09be bb8c 83bd
00000150: c086 4cbd 5459 4f3f 1cb7 283e 8f42 6ebe
00000160: e88a 353e 7a77 4bbf 42fd 0dbd 73a3 9dbe
00000170: 1d77 083c 7faa ae3e 9a0e 6a3f 3e29 bdbd
00000180: e95f 59bf 1a15 da3e 0d53 383d 8647 19bf
00000190: 2fd2 b8bc 8ccc 68be e40e 06bf 1cd7 96bd
000001a0: 7f23 0c3f c5f8 453f 6a0e cd3d c530 7dbf
000001b0: a7ed e43e a16b 90be 67ce b93e 3146 8a3e
000001c0: 2b72 e93b 00ad 823f 31be 303d 60a2 273e
000001d0: 8416 103c 59e8 2b3d ca6a 2a3e c747 ac3c
000001e0: 2b85 62bd 8e89 063e 8464 993c 30a5 5dbd
000001f0: 7b74 193d 17bf 29bb 4d35 99bc 52a9 77be
00000200: b2d7 95bd 9c00 a9be 593f 383e 308f 1d3f
00000210: 4068 0cbd 7a02 aebc a732 833f fb6b 1a3f
00000220: f231 a3bd f430 da3d aab8 323d 9b20 17bd
00000230: 15f0 04bf 2f9d 0dbd 4076 8bbd 9e0e 903f
00000240: b09a 523d 4140 b53c 25bd 04bd 69a9 27bc
00000250: 113c db3c 8cbc 45be 3ba7 82bc 04c1 5ebb
00000260: 13f8 ff3d 39bd 363f 256b b53e 5382 c8be
00000270: 90d4 f33c 6d0c 47bd 5b5c 0f3d 20fd 9e3e
00000280: afd9 34bf 71cf 0d3f cada 2fbf 2a0d 14bf
00000290: 8dc8 78bd f252 143d 09cf e5be fbb3 f1bd
000002a0: 3456 b93d 90b1 fcbe 6938 813e 57d9 5cbf
000002b0: 5f77 cabe 6049 0d3e 19c9 1b3d 37c3 09bd
000002c0: 347d 3bbf 7df7 133e c05e 1d3f d105 94be
000002d0: 0282 40be 2baf f839 6d4c 4e3d ce5b 00bf
000002e0: 373b b93d 4489 043f 72ea e2bd 6a5f 84be
000002f0: ee4d 0a3d 13b1 63bc 38f5 cabe 01dc fa3e
00000300: f2d6 ed3c aadd 11be 4628 343e 1dfb 82bd
00000310: 1594 553c 6537 8cbe 5b35 8c3f fa63 a63f
00000320: 6e0c 07be 6249 53bc 12c5 3fbd a938 2b3e
00000330: 4afe 4b3c 819e 8ebd 0851 83bf 5186 173e
00000340: 336d 9b3f 93b8 29bd 2e35 193d af8d 9bbe
00000350: d2b1 cd3e c810 9ebe 280d 993f 0627 e73e
00000360: 370c 0d3d e325 a8bc fa63 f13e d758 7a3f
00000370: b994 73bd 9583 163f b321 453d f102 f63b
00000380: 340b e33e 3ed2 303f 16ec 82be ff21 50bd
00000390: 7d61 2fbe a396 cdbe 614a 2b3e ef64 873c
000003a0: 900a 6b3f 3b55 7f3c 9931 81be 2531 763c
000003b0: e083 37bd a9c1 723e 2a46 a33f 6d7f 383f
000003c0: be7f 9e3c 2285 853c 5fe1 ebbb d32c 54bd
000003d0: c486 38bd 10b1 98bd 7bab 023f 04b7 a53f
000003e0: 8414 96bd ca2f a3bc

4.weight f4 [250, 250]
0.039721034 -0.06402566 0.038883064 -0.009772583 0.03783819 0.04211864 -0.03197532 -0.03238577
-0.014717427 0.016277583 -0.078271545 -0.026755191 0.0007795745 0.044103775 -0.08985728 0.03721775
-0.009332869 0.028962204 -0.07833689 0.06450312 0.02108854 -0.04843617 0.09456012 -0.035691213
0.00034943616 0.0013861279 -0.051617652 -0.014065616 -0.016183715 -0.06631402 -0.016917406 0.022796415
-0.021712959 -0.035137344 0.08182319 0.0030736565 0.18162255 0.0778429 0.09407046 -0.0036671197
-0.023517713 0.04228308 0.06390931 -0.034337334 -0.0823234 -0.011699363 -0.02240589 -0.06571873
-0.039448414 0.049550977 -0.03627059 0.03206841 -0.0002469163 -0.11409512 0.004503081 0.043238055
-0.045421682 0.047023658 -0.06398237 0.15244015 0.005176853 -0.04189113 -0.025651162 0.05946422
0.001345911 -0.034639183 -0.007772316 -0.012374176 0.00071114604 0.045822505 -0.061344758 -0.19338205
-0.012665972 -0.053803526 0.0069739837 0.056893814 0.012123903 0.08417901 0.002551437 -0.035573825
0.042847194 -0.2896139 -0.022337426 -0.024751479 -0.06279739 -0.040260535 -0.031135324 -0.12534338
0.07004516 0.08644924 0.021076873 0.07776949 -0.017283233 0.06823864 0.031910725 0.009811767
0.05783014 -0.05193767 -0.057238914 0.036179923 -0.0044885464 -0.083038256 0.062391974 0.017562687
-0.09429443 -0.07699943 0.00049583544 0.051885914 -0.018820984 0.0021182657 -0.028022652 -0.042020317
0.021752287 -0.08681518 -0.024460204 -0.016400674 -0.024661161 0.042001642 -0.021146264 0.08083617
-0.012289803 -0.029742256 -0.037057325 -0.012534132 -0.0019584182 -0.023003403 -0.014634163 0.023303444
-0.07194653 0.10141036 -0.07161708 -0.017362438 0.057444435 -0.0012467658 -0.012806646 -0.10277306
-0.052418675 0.0011670244 0.03232892 0.045171734 -0.041065134 -0.0308347 -0.005618542 0.005482933
0.04021354 -0.13574126 -0.00283206 -0.0064134435 0.057599504 -0.027750324 0.013620633 0.031860597
0.06969165 0.12674361 -0.06707977 -0.06695505 -0.03388053 0.02087046 0.036525525 0.13108249
0.11960921 0.1667646 0.006911202 0.012478667 -0.0185478 0.0025931948 -0.0035318586 0.092023596
-0.07720685 -0.06692592 0.045475435 0.19615217 0.11244663 0.07120593 -0.046974618 -0.0463407
-0.039404806 0.045708142 -0.050892945 0.013213039 -0.06536685 0.03288888 -0.12277182 -0.10819071
-0.01822874 -0.031432267 -0.04584818 0.06366586 -0.040070217 0.042283528 -0.039269067 -0.13652498
-0.03482634 0.11260349 0.088698775 -0.070430286 0.043808755 -0.044565003 -0.029369108 -0.04101877
0.112270474 0.114459135 0.008541241 -0.019524729 0.043092377 0.03906531 0.0010570602 -0.00930034
-0.1088443 -0.07980932 0.0490596 -0.105671905 -0.06933637 -0.15413791 -0.07942022 -0.0278468
0.05418693 0.057642933 -0.050642394 -0.09253263 0.052949462 -0.008961731 -0.030118082 -0.058986753
-0.03985064 0.020532692 -0.02057297 -0.03654267 -0.058861747 -0.08897307 -0.003310806 -0.026764156
-0.10449829 0.052854113 -0.05921763 0.02327984 -0.0013838256 0.06664759 0.10667638 -0.12869951
-0.014362794 -0.13070601 0.028916279 0.027314315 -0.02094434 0.05002419 0.022305205 -0.036556195
-0.00059412513 0.056102436 0.08109737 -0.06664336 -0.0619345 0.057612047 0.031984672 0.0019351263
00000000: 86b2 223d e31f 83bd d943 1f3d 2f1d 20bc
00000010: 38fc 1a3d 9884 2c3d 8ef8 02bd f1a6 04bd
00000020: 5d21 71bc 9158 853c d54c a0bd b42d dbbc
00000030: 5c5c 4c3a 29a6 343d 1807 b8bd a471 183d
00000040: e4e8 18bc 2542 ed3c 176f a0bd 361a 843d
00000050: e0c1 ac3c 0165 46bd bca8 c13d f330 12bd
00000060: 8734 b739 bcae b53a 086d 53bd 7873 66bc
00000070: b693 84bc a5cf 87bd 5f96 8abc 8cbf ba3c
00000080: 60df b1bc 2dec 0fbd eb92 a73d 666f 493b
00000090: 43fb 393e 196c 9f3d 03a8 c03d 0f54 70bb
000000a0: 38a8 c0bc 0631 2d3d e2e2 823d 4ea5 0cbd
000000b0: 2c99 a8bd afae 3fbc 8f8c b7bc 8b97 86bd
000000c0: a994 21bd f7f5 4a3d 7890 14bd 2a5a 033d
000000d0: 8b74 81b9 b4aa e9bd 958e 933b 631a 313d
000000e0: 160c 3abd e19b 403d 3009 83bd 4519 1c3e
000000f0: 97a2 a93b 0996 2bbd 6322 d2bc c190 733d
00000100: 4769 b03a d1e1 0dbd eaae febb 0ebd 4abc
00000110: 346c 3a3a 61b0 3b3d a444 7bbd f205 46be
00000120: f084 4fbc 1661 5cbd 0486 e43b 7d09 693d
00000130: 56a3 463c 0b66 ac3d 0236 273b dcb5 11bd
00000140: 8a80 2f3d 4648 94be fafc b6bc 9dc3 cabc
00000150: eb9b 80bd 3be8 24bd 820f ffbc 045a 00be
00000160: d673 8f3d 4d0c b13d 68a9 ac3c 9c45 9f3d
00000170: 9195 8dbc b3c0 8b3d d2b4 023d 89c1 203c
00000180: 4cdf 6c3d 98bc 54bd 5a73 6abd 6631 143d
00000190: a814 93bb f60f aabd ba8e 7f3d a0df 8f3c
000001a0: 701d c1bd e1b1 9dbd f4fa 013a 5386 543d
000001b0: 772e 9abc 9ad2 0a3b c38f e5bc 7f1d 2cbd
000001c0: da31 b23c 28cc b1bd c460 c8bc b55a 86bc
000001d0: 3406 cabc ea09 2c3d ee3a adbc 6f8d a53d
000001e0: 2b5b 49bc 08a6 f3bc 6cc9 17bd f65b 4dbc
000001f0: ce58 00bb a271 bcbc 21c4 6fbc dde6 be3c
00000200: b458 93bd 3cb0 cf3d faab 92bd ac3b 8ebc
00000210: db4a 6b3d 856a a3ba f7d2 51bc af7a d2bd
00000220: f7b4 56bd d7f6 983a 546b 043d ff05 393d
00000230: ea33 28bd 0e99 fcbc bf1b b8bb 2daa b33b
00000240: f4b6 243d c2ff 0abe 159a 39bb dd27 d2bb
00000250: 75ed 6b3d a654 e3bc 1329 5f3c 4280 023d
00000260: 7fba 8e3d 14c9 013e 1e61 89bd bb1f 89bd
00000270: 50c6 0abd 87f8 aa3c ca9b 153d 7d3a 063e
00000280: acf5 f43d 57c4 2a3e 5d77 e23b 5373 4c3c
00000290: 8ef1 97bc 97f2 293b c176 67bb de76 bc3d
000002a0: a01e 9ebd 7510 89bd 7344 3a3d 1ddc 483e
000002b0: 6b4a e63d 6ad4 913d 7568 40bd bfcf 3dbd
000002c0: ef66 21bd 7638 3b3d 1f75 50bd 817b 583c
000002d0: 0edf 85bd 7eb6 063d cb6f fbbd 1793 ddbd
000002e0: 7054 95bc 1fbf 00bd 4dcb 3bbd 3f63 823d
000002f0: ab20 24bd 7e31 2d3d 9ad8 20bd 34cd 0bbe
00000300: 10a6 0ebd a99c e63d b4a7 b53d c13d 90bd
00000310: cf70 333d cb89 36bd 7c97 f0bc 4c03 28bd
00000320: 10ee e53d 8d69 ea3d 90f0 0b3c 53f2 9fbc
00000330: a281 303d f202 203d 0e8d 8a3a 7460 18bc
00000340: c3e9 debd 1273 a3bd b8f2 483d 836a d8bd
00000350: 3a00 8ebd 54d6 1dbe 11a7 a2bd f91e e4bc
00000360: 1df3 5d3d ff1a 6c3d 666e 4fbd bf81 bdbd
00000370: 89e1 583d 39d4 12bc 32ba f6bc 189c 71bd
00000380: 6d3a 23bd 2d34 a83c a588 a8bc c4ad 15bd
00000390: 0419 71bd 8337 b6bd 1bfa 58bb 8140 dbbc
000003a0: 3303 d6bd 8e7d 583d 308e 72bd 5db5 be3c
000003b0: 7b61 b5ba 887e 883d 2579 da3d cec9 03be
000003c0: ed51 6bbc ccd7 05be d5e1 ec3c 45c2 df3c
000003d0: 7793 abbc 2ae6 4c3d 68b9 b63c f3bb 15bd
000003e0: 10bf 1bba abcb 653d 6116 a63d 507c 88bd
000003f0: 08af 7dbd 9cfa 6b3d 5c02 033d 10a4 fd3a

4.bias f4 [250]
-0.24036321 0.2099365 -0.3153416 -0.41477454 0.27971599 -0.098118305 -0.032583553 1.2915887
0.046620328 0.5043914 0.00729193 0.059989307 -0.045933086 0.078826725 -0.104186304 -0.07456394
-0.14676268 0.66643727 0.012966077 -0.06568405 0.20902061 0.018508699 0.13320293 -0.18402739
0.013626782 0.26515442 0.0006011062 0.28011906 0.06617792 0.08522185 0.18793784 0.059046075
-0.064392485 -0.13345547 0.07549984 0.1258942 0.76806915 -0.07722121 -0.02860068 -0.24556279
0.021412132 0.28786793 0.008065617 -0.18370415 -0.031308725 -0.22730133 -0.008369367 0.13674664
-0.05379936 0.060266208 0.023581307 0.34482652 -0.04825211 0.0607114 -0.045579128 0.053541332
-0.5919601 -0.098530635 0.13659438 -0.08021255 -0.50148827 0.42417273 -0.2769288 0.429796
0.47994962 -0.05358956 -0.007749797 -0.0012920802 0.11155498 -0.05563092 0.17489818 -0.032484397
-0.07941435 0.03152289 -0.07189003 -0.12297933 0.05577379 0.21905564 0.62729025 -0.30375925
-0.032664593 -0.06836914 0.064324625 -0.12057971 0.3019998 -0.029089369 -0.017952235 -0.081211835
0.21674351 0.004324053 0.24063173 0.037998203 0.059404373 0.5809485 -0.021678464 0.72014636
0.2642601 0.13987356 0.41513467 0.05161985 0.059335522 0.28168458 -0.1641216 0.48951063
-0.057765447 1.5456423 -0.023827257 0.005655183 0.13852696 0.7473302 0.5041919 -0.043041512
-0.14994366 -0.026002476 0.15244265 -0.057760462 0.31132835 0.27958456 -0.045863032 0.02328242
0.23082602 -0.0760368 0.040116694 -0.061663497 0.2481806 -0.020979138 -0.034308925 -0.073043756
-0.063297056 0.018407945 0.003869 0.22474562 0.0058464543 0.009796798 -0.032935027 0.1273779
0.1963505 0.21194643 -0.30961356 0.04285209 0.4979264 -0.086764 0.6576894 -0.012880411
0.90574723 0.1657825 0.0915167 -0.015032903 -0.4671298 0.34238517 -0.0007804276 0.03480362
0.029684244 0.030964028 -0.11221336 -0.040354908 0.09474411 -0.0014544282 0.05476263 0.2774554
0.0002035344 -0.0536377 0.36800858 -0.18827307 0.19209832 -0.10250207 -0.08920757 -0.12595472
-0.051517725 -0.022740794 0.44378525 -0.3125726 0.011629769 0.6048535 0.20101085 -0.045794033
-0.02833485 0.31386968 1.2092398 0.8205501 -0.02582113 0.022345595 -0.047443856 0.007119807
-0.6575048 0.0050335233 0.14894661 -0.123721704 0.0025690151 -0.119599834 0.4894693 0.42277148
-0.11440097 -0.017930564 0.7280677 1.1340789 0.5225876 -0.088204116 0.13081965 -0.05378487
0.09141009 0.5733857 -0.1054937 -0.044344228 -0.039552357 0.10756187 0.004616174 -0.023723772
0.0082462095 0.209921 0.20222433 -0.08205937 0.2669556 -0.0226943 0.037103537 0.07887455
-0.07640252 -0.046690874 -0.078964435 -0.28042647 -0.07270407 -0.51655805 -0.030556994 0.341198
0.0076824855 0.14491487 -0.10051222 -0.60829395 0.019433513 0.6248685 -0.07272747 0.50979704
-0.0034505737 0.22816488 -0.013674093 0.33657348 -0.06587671 -0.007579768 -0.053408615 -0.09129366
-0.07895964 -0.0075210147 0.26110706 0.25674465 0.0770061 -0.10165913 -0.15735285 -0.16795057
-0.00027011347 0.012321889
00000000: c621 76be 98f9 563e 7474 a1be 545d d4be
00000010: ef36 8f3e 40f2 c8bd 5576 05bd c752 a53f
00000020: f5f4 3e3d cb1f 013f 24f1 ee3b 59b7 753d
00000030: 5524 3cbd e86f a13d a15f d5bd fbb4 98bd
00000040: f548 16be a29b 2a3f ab6f 543c 5c85 86bd
00000050: 8009 563e 8e9f 973c 5966 083e ad71 3cbe
00000060: de42 5f3c 52c2 873e 8e93 1d3a c46b 8f3e
00000070: 4a88 873d cb88 ae3d c772 403e 4cda 713d
00000080: 35e0 83bd 8da8 08be a99f 9a3d 69ea 003e
00000090: 2ea0 443f 2726 9ebd f94b eabc d074 7bbe
000000a0: 7f68 af3c 6d63 933e a625 043c f11c 3cbe
000000b0: 943d 00bd aec1 68be ab1f 09bc 5007 0c3e
000000c0: b85c 5cbd b3d9 763d 962d c13c 1a8d b03e
000000d0: 01a4 45bd 84ac 783d 2eb1 3abd 284e 5b3d
000000e0: b28a 17bf 6eca c9bd 66df 0b3e 7a46 a4bd
000000f0: 8961 00bf 2b2d d93e 9dc9 8dbe 390e dc3e
00000100: f5bb f53e ba80 5bbd 02f2 fdbb 045b a9ba
00000110: f076 e43d 3fdd 63bd 8218 333e 5c0e 05bd
00000120: fea3 a2bd 251e 013d 143b 93bd 96dc fbbd
00000130: 0f73 643d 1f50 603e 1896 203f 5586 9bbe
00000140: 4fcb 05bd 1f05 8cbd a1bc 833d 7ff2 f6bd
00000150: b89f 9a3e d44c eebc 9110 93bc 6452 a6bd
00000160: 03f2 5d3e c9b0 8d3b 2a68 763e 01a4 1b3d
00000170: 0052 733d 0ab9 143f 0997 b1bc 835b 383f
00000180: 1a4d 873e 043b 0f3e 888c d43e 566f 533d
00000190: ce09 733d f638 903e 7e0f 28be 23a1 fa3e
000001a0: 769b 6cbd 9bd7 c53f 6131 c3bc 1d4f b93b
000001b0: 03da 0d3e 0851 3f3f b812 013f 4c4c 30bd
000001c0: d58a 19be 2503 d5bc ed19 1c3e 3c96 6cbd
000001d0: 6e66 9f3e b525 8f3e e0da 3bbd c6ba be3c
000001e0: a85d 6c3e 2fb9 9bbd 6751 243d dd92 7cbd
000001f0: 0e23 7e3e 71dc abbc 8487 0cbd f797 95bd
00000200: e3a1 81bd 42cc 963c 0c8f 7d3b b723 663e
00000210: 9d93 bf3b c082 203c e1e6 06bd 5a6f 023e
00000220: 1b10 493e 7c08 593e ab85 9ebe ac85 2f3d
00000230: 36f0 fe3e 53b1 b1bd 555e 283f 5c08 53bc
00000240: 0ddf 673f e3c2 293e 1c6d bb3d 914c 76bc
00000250: a32b efbe 1c4d af3e 9c95 4cba 3e8e 0e3d
00000260: 5f2c f33c 46a8 fd3c 1ed0 e5bd 304b 25bd
00000270: 3309 c23d 83a2 beba c84e 603d a20e 8e3e
00000280: d96b 5539 34b3 5bbd 9f6b bc3e a8ca 40be
00000290: 6cb5 443e 9bec d1bd 75b2 b6bd 46fa 00be
000002a0: 4004 53bd e74a babc d237 e33e 8409 a0be
000002b0: c98a 3e3c aed7 1a3f cad5 4d3e 8692 3bbd
000002c0: 7d1e e8bc 87b3 a03e 5fc8 9a3f 920f 523f
000002d0: d686 d3bc 1c0e b73c 7d54 42bd 454d e93b
000002e0: 3c52 28bf 41f0 a43b 7685 183e ce61 fdbd
000002f0: ec5c 283b c2f0 f4bd b89b fa3e 8175 d83e
00000300: 0e4b eabd 1ee3 92bc a562 3a3f 7f29 913f
00000310: 4dc8 053f 5ca4 b4bd 96f5 053e 864d 5cbd
00000320: 3735 bb3d 68c9 123f 150d d8bd 4ba2 35bd
00000330: a701 22bd 6649 dc3d 4643 973b 5b58 c2bc
00000340: 1c1b 073c 88f5 563e e513 4f3e be0e a8bd
00000350: 68ae 883e 66e9 b9bc e1f9 173d fb88 a13d
00000360: ed78 9cbd ee3e 3fbd 1bb8 a1bd 0f94 8fbe
00000370: dfe5 94bd 263d 04bf a952 fabc 81b1 ae3e
00000380: 5cbd fb3b 9064 143e 5ad9 cdbd 27b9 1bbf
00000390: 0833 9f3c 62f7 1f3f 24f2 94bd 0f82 023f
000003a0: 0523 62bb 0ea4 693e 4e09 60bc 5c53 ac3e
000003b0: 5eea 86bd b45f f8bb fec2 5abd 2cf8 babd
000003c0: 97b5 a1bd d872 f6bb d3af 853e 0974 833e
000003d0: 60b5 9d3d a932 d0bd 1b21 21be 3cfb 2bbe
000003e0: 049e 8db9 c0e1 493c

6.weight f4 [157, 250]
-0.03673007 -0.042639833 -0.006380656 -0.0669868 -0.07881646 -0.043033358 -0.018522866 -0.33790106
-0.043917518 -0.120117344 0.025533816 -0.034820307 -0.0010225272 -0.07180572 -0.031710103 -0.12920918
-0.06564661 -0.024722442 0.054230172 0.06325873 0.040326335 -0.06370362 -0.0130725 -0.02484377
-0.07307228 -0.06925964 -0.011593222 0.063557476 0.091046326 -0.005701359 0.033357736 -0.21411699
-0.060518354 -0.111146264 0.04198176 0.08988416 0.05708392 0.017310828 -0.027567158 0.11334915
0.055465765 -0.0064827623 -0.08163924 0.032511156 0.009618442 0.07096711 0.04646373 -0.04185851
0.04197374 -0.09942046 -0.025995301 -0.0036759295 0.08224624 -0.30311298 -0.037166744 -0.05066846
-0.07037665 -0.13492607 0.06261393 0.015074527 0.02761421 -0.011805106 0.086093955 0.010050315
-0.016706837 0.018058185 -0.020846978 -0.008245057 0.12171271 0.07262665 0.088754736 0.04706726
-0.046507873 0.014332862 0.03202097 0.07912823 -0.07065844 0.03260802 -0.156439 0.00927039
0.07787474 -0.04917056 0.0061907694 -0.020732323 -0.10176527 -0.048998013 -0.008531611 -0.07167233
-0.03080459 -0.05338074 0.07752781 -0.0032108056 -0.08559008 -0.05516749 0.04548443 0.07247052
0.15823914 0.053802323 -0.0055599716 -0.021017527 -0.0637911 0.040706165 -0.13958116 -0.025834357
-0.098842606 -0.07018953 0.04451618 0.04819939 -0.115906574 0.07042188 0.26340207 -0.06322058
0.03855234 -0.022908 0.011628623 -0.012213562 -0.393963 0.036077008 -0.05125465 -0.016611895
-0.0038142982 -0.06573808 -0.027188702 -0.04368276 0.12402421 -0.1589076 0.046070594 0.08836797
0.007748865 -0.016250243 0.05023846 0.054429203 0.01866329 -0.01779026 0.123659186 -0.0064532063
-0.028181797 -0.0035783947 -0.06613102 -0.06037202 -0.22875702 -0.11120511 -0.0815923 0.08335502
-0.034173544 -0.013700456 0.041025184 -0.009433945 0.07514495 0.07965543 0.039141715 0.052297976
-0.0071487115 -0.050305977 0.06244332 0.008441292 0.061679076 0.019600624 0.009597228 0.03314781
0.03322637 0.015067342 -0.09922869 -0.26321504 -0.19688752 0.19336179 0.1660712 -0.057257593
-0.042586878 -0.0018081269 -0.028533923 0.027247507 -0.016261254 0.11341694 0.055822264 -0.033625543
0.0034867143 -0.0023077668 0.10863103 0.041042533 0.01194145 0.037206832 0.015458708 -0.15899807
-0.0039499965 0.052294787 -0.0072434116 -0.019432092 0.06100296 0.00051230803 0.11708761 -0.28887746
0.13772362 -0.05013576 0.029742124 -0.012831212 -0.062300768 -0.07359814 -0.047233034 0.039781284
-0.06073505 0.058543276 0.03534167 -0.01662929 0.08840648 0.10022283 -0.02851247 -0.2579294
-0.006528093 -0.090359546 -0.11072955 -0.0060767033 -0.019622697 -0.07495539 -0.025370402 -0.030058136
0.01240504 0.008905545 0.048041645 0.025150841 -0.005670251 0.059160907 -0.11188169 -0.034498446
0.002854297 -0.080944136 -0.026336167 0.01795725 -0.011620051 0.105845146 0.03521622 0.08488382
0.026416536 -0.003850218 -0.013613837 0.108876005 0.05314412 -0.05154951 0.06572811 -0.14680487
-0.056484476 -0.051418263 -0.08955995 0.0018603858 0.022576235 0.06682486 0.12768498 -0.17915514
-0.043697547 -0.19726865 0.16605598 -0.12716568 -0.050526276 0.106221825 0.09671139 0.041182064
00000000: 4572 16bd 1ba7 2ebd d214 d1bb 6030 89bd
00000010: 866a a1bd bf43 30bd 44bd 97bc 5e01 adbe
00000020: dbe2 33bd 1500 f6bd 4b2c d13c bd9f 0ebd
00000030: 5206 86ba e10e 93bd 74e2 01bd 694f 04be
00000040: bb71 86bd b886 cabc 7520 5e3d cb8d 813d
00000050: 3a2d 253d 0b77 82bd 0a2e 56bc 2985 cbbc
00000060: eba6 95bd 00d8 8dbd 7ff1 3dbc 6c2a 823d
00000070: 7f76 ba3d 77d2 babb 1fa2 083d 7c41 5bbe
00000080: 18e2 77bd a7a0 e3bd 11f5 2b3d 3015 b83d
00000090: d4d0 693d 70cf 8d3c 85d4 e1bc 9923 e83d
000000a0: 1230 633d 5a6d d4bb 7932 a7bd 6b2a 053d
000000b0: ab96 1d3c 3457 913d c150 3e3d d473 2bbd
000000c0: a8ec 2b3d f49c cbbd 19f4 d4bc dde7 70bb
000000d0: b770 a83d a031 9bbe 283c 18bd bb89 4fbd
000000e0: a221 90bd 0f2a 0abe bb3b 803d 26fb 763c
000000f0: 3237 e23c 346a 41bc 0752 b03d 14aa 243c
00000100: c7dc 88bc c2ee 933c 48c7 aabc 4716 07bc
00000110: 8344 f93d 48bd 943d 0bc5 b53d 99c9 403d
00000120: 0a7f 3ebd 61d4 6a3c 6c28 033d fb0d a23d
00000130: 5fb5 90bd fd8f 053d 8c31 20be d5e2 173c
00000140: cb7c 9f3d 1267 49bd f0db ca3b d5d6 a9bc
00000150: 4f6a d0bd 24b2 48bd 2cc8 0bbc f1c8 92bd
00000160: e859 fcbc c3a5 5abd e7c6 9e3d 616c 52bb
00000170: da49 afbd 4ef7 61bd e24d 3a3d 6d6b 943d
00000180: 7109 223e d35f 5c3d 6c30 b6bb f32c acbc
00000190: e9a4 82bd 82bb 263d 5dee 0ebe 93a2 d3bc
000001a0: fe6d cabd 87bf 8fbd 9956 363d b96c 453d
000001b0: 6d60 edbd 5939 903d a3dc 863e cb79 81bd
000001c0: 0fe9 1d3d 8fa9 bbbc fb85 3e3c 641b 48bc
000001d0: 85b5 c9be 7cc5 133d 65f0 51bd ab15 88bc
000001e0: 4ef9 79bb b0a1 86bd d7ba debc b2ec 32bd
000001f0: 6800 fe3d adb8 22be 85b4 3c3d 44fa b43d
00000200: 31ea fd3b 3b1f 85bc d8c6 4d3d 28f1 5e3d
00000210: c2e3 983c e1bc 91bc 0741 fd3d 6b75 d3bb
00000220: 83dd e6bc 8083 6abb b36f 87bd a748 77bd
00000230: 483f 6abe 81bf e3bd dd19 a7bd 09b6 aa3d
00000240: 8ff9 0bbd e177 60bc 060a 283d d590 1abc
00000250: 98e5 993d 6322 a33d 1053 203d 6736 563d
00000260: bd3f eabb a40d 4ebd 91c4 7f3d 584d 0a3c
00000270: 33a3 7c3d 7d91 a03c b13d 1d3c ffc5 073d
00000280: 6018 083d 03dd 763c 6938 cbbd 1fc4 86be
00000290: e29c 49be a200 463e 920e 2a3e f086 6abd
000002a0: 946f 2ebd acfe ecba f9bf e9bc 2a36 df3c
000002b0: 5236 85bc 2447 e83d e3a5 643d f0ba 09bd
000002c0: 5c81 643b e73d 17bb f279 de3d 371c 283d
000002d0: 12a6 433c 3166 183d 8546 7d3c 64d0 22be
000002e0: f96e 81bb 0f33 563d 245a edbb 0d30 9fbc
000002f0: 3dde 793d 694c 063a a1cb ef3d bfe7 93be
00000300: 6c07 0d3e 285b 4dbd c1a5 f33c 013a 52bc
00000310: 172f 7fbd 9fba 96bd 6d77 41bd b3f1 223d
00000320: 51c5 78bd 13cb 6f3d 6dc2 103d 263a 88bc
00000330: 750e b53d a141 cd3d fc92 e9bc 530f 84be
00000340: 9de9 d5bb 6d0e b9bd 2dc6 e2bd 151f c7bb
00000350: c7bf a0bc 3682 99bd 97d5 cfbc 7b3c f6bc
00000360: 823e 4b3c 90e8 113c 51c7 443d 2309 ce3c
00000370: 83cd b9bb b552 723d 3a22 e5bd 3e4e 0dbd
00000380: 280f 3b3b 0ac6 a5bd f2be d7bc 151b 933c
00000390: 0762 3ebc 57c5 d83d e23e 103d 91d7 ad3d
000003a0: 7e67 d83c f053 7cbb 920c 5fbc 62fa de3d
000003b0: a6ad 593d 9425 53bd 769c 863d 0454 16be
000003c0: 445c 67bd f59b 52bd 356b b7bd 30d8 f33a
000003d0: ccf1 b83c 79db 883d dabf 023e 7274 37be
000003e0: 33fc 32bd cb00 4abe 940a 2a3e b837 02be
000003f0: a4f4 4ebd d48a d93d 9f10 c63d 86ae 283d

6.bias f4 [157]
0.14843972 -0.21187449 -0.39284453 -0.031221477 -0.4838228 0.038565114 -0.2820747 -0.26831824
0.68604046 -0.3489228 -0.52383494 0.0348214 -0.5290091 0.24792704 0.24935392 -0.075820014
-0.38126 0.15418155 0.23832244 -0.5583596 -0.00056733453 -0.28620416 -0.2152348 0.21585527
0.075378835 0.9113908 -0.104489475 -0.35794768 -0.27085063 0.07352333 -0.5326261 0.13435024
-0.080502115 -0.41014513 0.07461125 -0.26991266 -0.60190994 0.048249144 -0.2248556 -0.11097902
-0.064483486 -0.14911331 -0.3792302 0.13860622 0.6144688 -0.29188836 -0.16344427 -0.072442755
0.1225577 0.63479763 0.054092605 0.18501997 -0.5616368 -0.18519786 -0.7729378 0.5747103
-0.5407839 -0.4675209 0.054892905 0.10302323 -0.22461575 -0.0075819693 0.209144 -0.23819357
0.34407997 -0.11546663 -0.34462437 -0.08064252 0.4506669 0.3359249 0.16038622 -0.20851976
-0.13881496 0.09373196 0.061444208 0.32040006 -0.005788451 0.1829869 -0.36856598 -0.24202721
0.7295774 0.47995284 -0.1462364 -0.47815365 -0.17694032 0.40696505 -0.055977672 0.052506763
0.28441912 0.26661178 0.108148254 -0.00090096635 0.44494835 0.34040764 0.35455632 -0.41485414
-0.4034748 0.057445887 -0.32977283 -0.3321355 0.39309728 -0.024406008 0.415184 -0.5524598
-0.09936788 -0.2175661 -0.013359916 0.012303752 0.50420594 -0.14185748 -0.0521691 -0.056764714
0.035002828 0.11536815 0.32549548 0.08124645 -0.4907872 -0.02476554 -0.068227306 0.0014772569
0.24003913 -0.66833013 0.020739231 0.0810153 -0.4203822 0.4431612 0.48268282 -0.07656099
0.21556269 0.3285505 0.6084832 -0.04689017 0.072216995 -0.117360495 -0.6389448 -0.4096644
-0.31469336 0.3636011 -0.41810623 0.24191052 0.74880356 0.012561705 0.2445604 -0.07365485
0.09274805 0.5073053 0.22594842 -0.17481343 0.29792127 0.10653276 0.42088416 0.24885015
-0.40053713 -0.4781219 0.1858454 0.1740611 0.22857799
00000000: 9500 183e a0f5 58be eb22 c9be 2fc4 ffbc
00000010: 9fb7 f7be 74f6 1d3d 186c 90be 0261 89be
00000020: 59a0 2f3f 02a6 b2be 0c1a 06bf e2a0 0e3d
00000030: 246d 07bf 96e0 7d3e a256 7f3e 8647 9bbd
00000040: 8334 c3be c5e1 1d3e cc0a 743e a8f0 0ebf
00000050: 2db9 14ba 5a89 92be 8366 5cbe 2a09 5d3e
00000060: 3860 9a3d e850 693f 94fe d5bd eb44 b7be
00000070: efac 8abe 6693 963d 2f5a 08bf 1c93 093e
00000080: 4bde a4bd 8bfe d1be c8cd 983d fe31 8abe
00000090: c516 1abf e5a0 453d 8c40 66be f848 e3bd
000000a0: eb0f 84bd 29b1 18be 762a c2be caee 0d3e
000000b0: d44d 1d3f 6472 95be ef5d 27be de5c 94bd
000000c0: 88ff fa3d 1982 223f 3590 5d3d e075 3d3e
000000d0: 6ec7 0fbf 82a4 3dbe 40df 45bf 3720 133f
000000e0: d070 0abf e65e efbe 62d7 603d d8fd d23d
000000f0: ac01 66be 2b72 f8bb d829 563e 04e9 73be
00000100: 402b b03e c579 ecbd 9b72 b0be e827 a5bd
00000110: d0bd e63e 59fe ab3e 493c 243e 3486 55be
00000120: 8225 0ebe 8bf6 bf3d ecac 7b3d 7a0b a43e
00000130: 0cad bdbb eb60 3b3e aeb4 bcbe fbd5 77be
00000140: 96c5 3a3f 61bc f53e ffbe 15be 8ed0 f4be
00000150: d82f 35be b95d d03e d848 65bd 5511 573d
00000160: 629f 913e 5781 883e d57c dd3d d42e 6cba
00000170: 45d0 e33e e949 ae3e 6888 b53e c367 d4be
00000180: 4094 cebe 614c 6b3d fcd7 a8be aa0d aabe
00000190: 0c44 c93e 1cef c7bc ff92 d43e 016e 0dbf
000001a0: 6381 cbbd a6c9 5ebe 8de3 5abc ad95 493c
000001b0: a413 013f 1643 11be 44af 55bd 1e82 68bd
000001c0: 205f 0f3d 2346 ec3d 58a7 a63e 8a64 a63d
000001d0: 7648 fbbe 1ae1 cabc c2ba 8bbd 84a0 c13a
000001e0: d1cc 753e af17 2bbf 52e5 a93c 59eb a53d
000001f0: 563c d7be 06e6 e23e 3422 f73e 02cc 9cbd
00000200: 77bc 5c3e c537 a83e 8ec5 1b3f e80f 40bd
00000210: 81e6 933d b35a f0bd e391 23bf 88bf d1be
00000220: 7d1f a1be ec29 ba3e 0512 d6be 64b7 773e
00000230: 97b1 3f3f 9ccf 4d3c 0b6e 7a3e 5bd8 96bd
00000240: b1f2 bd3d c3de 013f 065f 673e 4b02 33be
00000250: 2389 983e d92d da3d 217e d73e 93d2 7e3e
00000260: 3413 cdbe 65cc f4be 424e 3e3e 133d 323e
00000270: 5910 6a3e
