pav_spkid_pytorch/lp_model_hsize_250_lr0001/bestval_e0_weights.ckpt (torch_old, 850838 bytes, 8 tensors)

0.weight f4 [250, 189]
-0.015716158 0.07616759 -0.090362385 -0.03967394 0.02855706 -0.012420378 -0.1415226 0.074012354
0.020614723 -0.062483374 0.07338569 0.041846566 0.088791706 -0.0025101658 0.058100272 -0.013565644
0.08463532 0.04695325 0.059249647 0.090175994 -0.07795889 0.048226744 -0.07585843 0.07306263
-0.12856993 0.052416608 -0.046728812 -0.02493459 0.060565405 0.032540478 0.041904878 -0.037235465
-0.033661842 0.010892071 0.067409456 0.025418129 -0.06975542 -0.01374547 0.00024269341 -0.027830463
0.041970998 0.026746321 0.0009014867 0.10917398 -0.0015325214 -0.05211872 0.083667055 -0.04325477
-0.0151127875 -0.066897936 -0.0063371323 -0.05633045 -0.029893184 -0.0072436286 0.053985916 -0.0315065
-0.072105795 -0.024783475 0.031318076 0.08469387 -0.0048634573 0.12395622 -0.021776436 -0.07166495
0.03937648 0.006881747 -0.07640102 -0.03612371 0.023383353 0.012206493 0.070943035 -0.0007682629
0.035763938 0.050352827 -0.025661752 -0.0525922 0.042206213 0.05634478 -0.02023638 0.04008772
0.06747007 0.034694605 -0.0088006025 0.019975988 0.0020912702 0.0774337 0.018732812 -0.09887528
0.114256576 -0.039767373 -0.03888095 0.0795852 -0.04420755 0.0018178207 0.062163867 0.045432616
0.004069342 0.040131487 0.08024041 0.03398018 0.050083466 0.07793501 0.008322536 0.07404061
0.09294687 -0.08748041 0.054743934 0.021309959 0.05096397 -0.0063678934 -0.040572572 -0.05471508
-0.04226529 0.051990174 -0.11377206 0.12561686 0.0022637513 -0.022323063 0.055766508 -0.028419694
0.0011373893 -0.05586144 -0.017625045 -0.066921405 0.14016373 -0.025640039 0.0037794742 0.04874038
-0.018894847 0.05221479 0.069452636 0.033589784 -0.0039901934 0.11161474 -0.05165292 0.003132816
0.029247668 0.021762503 0.016020162 0.015153098 -0.024002237 -0.053063713 0.09837449 0.0519761
0.035246674 -0.015658982 -0.073657446 0.04072701 0.060205262 -0.007518488 -0.049175188 0.09210836
-0.042361412 -0.052378356 0.032324336 -0.022875993 0.067300744 0.043294143 -0.012603305 -0.051099893
0.009054648 0.034635678 0.017381167 0.067846075 0.00080472353 -0.03721922 -0.00892118 0.11891661
-0.12757301 0.12897614 0.069156796 0.020662209 0.027195664 -0.07184582 0.014332125 -0.007851716
0.039698362 -0.10953132 0.08953537 0.079520725 0.0064158496 0.0915581 -0.0068280166 0.018857405
-0.081401266 0.13536139 -0.054182105 0.055952292 0.015502079 -0.03272503 -0.13983087 0.1353565
-0.03745846 0.02725938 0.17213795 -0.13651036 0.20178047 0.011842601 0.06359141 -0.17590575
0.17133932 -0.16673964 -0.04047975 0.06187537 -0.16582601 0.14551648 0.10838629 -0.016063742
-0.17935067 0.08868114 -0.123861246 -0.0456573 0.054141685 -0.14395209 0.20471494 0.042050842
0.0020007333 -0.16174576 0.06403681 -0.07035903 0.06101993 0.06537587 -0.085577525 0.17328072
0.15501611 -0.07206389 -0.10447216 0.19573946 -0.17252512 -0.025502367 0.098326854 -0.071197085
0.17281605 0.07546892 0.019475523 -0.07661054 0.09861669 -0.054878075 0.014567162 -0.008657861
-0.16954058 0.13992848 0.112414084 0.00919963 -0.14709511 0.10873241 -0.060128693 -0.031599183
0.08604711 -0.15150571 0.040161956 0.16814211 -0.023943938 -0.105186224 0.1181887 -0.097380556
00000000: 2cbf 80bc c1fd 9b3d ea0f b9bd 2481 22bd
00000010: 7ff0 e93c d77e 4bbc 4deb 10be ca93 973d
00000020: 35e0 a83c 91ee 7fbd 3d4b 963d 4e67 2b3d
00000030: 6dd8 b53d 9881 24bb 8dfa 6d3d 6f42 5ebc
00000040: 4855 ad3d 0d52 403d c2af 723d 31ae b83d
00000050: e9a8 9fbd 6889 453d aa5b 9bbd dca1 953d
00000060: d6a7 03be ccb2 563d b666 3fbd a043 ccbc
00000070: 6e13 783d 2a49 053d 73a4 2b3d 3784 18bd
00000080: 00e1 09bd a874 323c f80d 8a3d ae39 d03c
00000090: eedb 8ebd ae34 61bc 847b 7e39 b6fc e3bc
000000a0: c8e9 2b3d 1a1b db3c c051 6c3a 9c96 df3d
000000b0: e3de c8ba 707a 55bd a259 ab3d ea2b 31bd
000000c0: a09b 77bc c901 89bd b8a7 cfbb c2ba 66bd
000000d0: 8de2 f4bc f65b edbb 5620 5d3d f60c 01bd
000000e0: 34ac 93bd b706 cbbc 6247 003d fb73 ad3d
000000f0: a35d 9fbb c2dc fd3d 7f64 b2bc 13c5 92bd
00000100: 3b49 213d 4780 e13b 2378 9cbd 75f6 13bd
00000110: 728e bf3c befd 473c 954a 913d 4065 49ba
00000120: 357d 123d c43e 4e3d 9838 d2bc eb6a 57bd
00000130: 6ce0 2c3d c9c9 663d c4c6 a5bc 0533 243d
00000140: c02d 8a3d ee1b 0e3d 6730 10bc afa4 a33c
00000150: b10d 093b 8f95 9e3d 8e75 993c 1f7f cabd
00000160: 5aff e93d 1de3 22bd a241 1fbd 91fd a23d
00000170: fa12 35bd f143 ee3a 8a9f 7e3d 8d17 3a3d
00000180: 1d58 853b ea60 243d 1655 a43d cd2e 0b3d
00000190: 5224 4d3d 649c 9f3d 3f5b 083c 9aa2 973d
000001a0: ee5a be3d ee28 b3bd 2d3b 603d 3992 ae3c
000001b0: 99bf 503d c3a9 d0bb 6d2f 26bd eb1c 60bd
000001c0: 5e1e 2dbd a6f3 543d 5301 e9bd b5a1 003e
000001d0: 725b 143b dbde b6bc 6c6b 643d 6bd0 e8bc
000001e0: 7414 953a f7ce 64bd 6662 90bc 170e 89bd
000001f0: 1587 0f3e 0f0b d2bc 0eb1 773b fea3 473d
00000200: 5ec9 9abc 2ddf 553d 2f3d 8e3d 7195 093d
00000210: 2bc0 82bb 4596 e43d 0392 53bd ee4f 4d3b
00000220: ce98 ef3c 4747 b23c b73c 833c b344 783c
00000230: 57a0 c4bc 5659 59bd 9178 c93d e4e4 543d
00000240: d15e 103d 4447 80bc b7d9 96bd 5ed1 263d
00000250: cb99 763d a65d f6bb ec6b 49bd 4fa3 bc3d
00000260: 2983 2dbd b08a 56bd 8666 043d 6f66 bbbc
00000270: f9d4 893d 3355 313d 187e 4ebc 1f4e 51bd
00000280: f259 143c 24de 0d3d f362 8e3c e2f2 8a3d
00000290: 15f4 523a 2e73 18bd 242a 12bc 8d8a f33d
000002a0: 80a2 02be 5212 043e 14a2 8d3d cb43 a93c
000002b0: 71c9 de3c e723 93bd 4ad1 6a3c 7ca4 00bc
000002c0: c09a 223d f551 e0bd 525e b73d c3db a23d
000002d0: 0c3c d23b d082 bb3d 8ebd dfbb d87a 9a3c
000002e0: b5b5 a6bd 2d9c 0a3e 0eee 5dbd 3b2e 653d
000002f0: 6ffc 7d3c ae0a 06bd d32f 0fbe e59a 0a3e
00000300: 0b6e 19bd 104f df3c ee44 303e 5fc9 0bbe
00000310: 8a9f 4e3e 7807 423c 373c 823d a320 34be
00000320: 9373 2f3e ccbd 2abe 18ce 25bd 0771 7d3d
00000330: 4bce 29be 4602 153e a2f9 dd3d 1c98 83bc
00000340: b4a7 37be 759e b53d f7aa fdbd 2603 3bbd
00000350: acc3 5d3d 2d68 13be cba0 513e 813d 2c3d
00000360: bc1e 033b aea0 25be bb25 833d 6518 90bd
00000370: 09f0 793d c9e3 853d 4543 afbd 8070 313e
00000380: 8bbc 1e3e 3c96 93bd 80f5 d5bd ed6f 483e
00000390: 6daa 30be 57ea d0bc 975f c93d c7cf 91bd
000003a0: b1f6 303e 738f 9a3d 228b 9f3c fde5 9cbd
000003b0: 8cf7 c93d d5c7 60bd 1bab 6e3c b3d9 0dbc
000003c0: 0c9c 2dbe 6949 0f3e 5b39 e63d 0bba 163c
000003d0: 1aa0 16be 19af de3d 8149 76bd 256e 01bd
000003e0: 7839 b03d 5024 1bbe dd80 243d 722d 2c3e
000003f0: 1426 c4bc e06b d7bd eb0c f23d 756f c7bd

0.bias f4 [250]
-0.06626824 0.124188416 -0.027110307 -0.029551202 -0.0036448294 0.01109784 -0.05630133 -0.16344407
-0.03227144 -0.00023459244 0.10078173 -0.06723245 0.046771765 0.04805481 0.03810319 -0.04692901
-0.10383447 -0.042502716 0.013459117 0.06428627 -0.05301053 -0.03569613 -0.049046993 -0.048058357
-0.0009672861 0.07922726 0.071003534 -0.02995868 0.04285777 0.09446608 0.062413998 -0.054537546
0.011040588 0.066197544 0.0650027 -0.11691211 0.112452835 -0.038283844 -0.020862108 -0.01695685
-0.0012123382 -0.03981574 0.0497085 -0.021822734 -0.005229545 0.076917276 -0.0027167278 0.10961476
0.03451278 -0.028479317 0.05528464 0.064324655 -0.053401724 -0.012645948 -0.06481903 -0.031236658
-0.05788205 0.0031506696 0.30842036 -0.10739255 0.03181913 -0.022593394 0.009519172 0.04275933
0.0069372733 0.012697731 -0.054610685 0.023885265 -0.020274764 -0.012660706 -0.0086178 -0.07571704
-0.07817893 -0.048347235 -0.13106166 -0.08202741 -0.07518668 -0.11874423 0.054527774 0.09133923
0.06420922 0.060246095 0.018556448 0.027439127 -0.02741358 0.17431565 -0.12109203 -0.07654678
7.9401885e-05 0.016709268 -0.087796345 -0.10265394 -0.012923462 0.01856809 0.000885761 -0.14228404
0.057513695 0.055439893 -0.085246734 -0.066084936 0.057596054 0.017240522 0.074343115 0.0146758165
-0.060808163 0.02414356 0.075534664 0.025695778 0.069005504 -0.0019580044 -0.013972629 -0.018905008
0.043968126 0.00965774 0.033968903 -0.0094882 -0.07957589 0.022988124 -0.09743428 -0.112942964
-0.010006268 0.022538263 -0.0627056 0.025513291 -0.008307165 -0.086911686 -0.07783238 -0.04056663
-0.003943882 -0.03946771 0.052430414 -0.06252393 0.020691546 -0.08936093 0.008392216 -0.05582752
0.24007975 0.042540558 0.2653371 0.043839436 0.06884787 0.024707658 -0.0038091447 -0.003427387
0.012250655 -0.01688225 0.03713525 0.071913905 0.064959794 -0.066491246 -0.066975184 -0.07097541
0.064113416 -0.06709199 -0.02010299 0.052863546 0.019493366 0.14465094 0.036717523 -0.06922474
-0.021179033 0.0032069653 0.022086035 0.058956154 -0.008704042 -0.00763745 0.013909007 -0.014295528
0.08529267 0.07643372 0.028377173 -0.070093654 0.098680526 -0.04688811 -0.048330363 -0.028229406
0.033255536 -0.017532075 0.05617557 0.060577348 -0.0064033302 -0.050781034 -0.019313214 0.062934496
-0.0075826272 0.027178468 -0.030313067 0.1007504 0.00026119102 -0.020457065 -0.019582426 0.0876967
-0.043107316 -0.047577918 -0.0073817875 0.0785692 -0.065577075 -0.04571898 -0.10532468 0.058617372
-0.080273345 0.11603836 -7.8771256e-05 0.030083856 0.0056095743 0.0036918952 -0.023114247 0.029383482
0.040655393 0.015818883 0.103803605 -0.13457046 -0.037148513 -0.010599688 0.05223775 0.03702779
0.032790948 -0.03428635 0.0428246 0.051694173 0.023201413 0.03348829 -0.076326035 0.009897531
-0.09090623 -0.022105964 0.025140619 -0.014628204 0.0876939 -0.15850343 -0.05268861 0.018181201
0.018412257 -0.07292209 0.065443695 -0.1653962 -0.046633575 -0.019579098 -0.02835695 0.43087822
-0.110998824 0.004367037 0.0996871 -0.041668046 0.03317057 0.0021032183 -0.009111168 -0.010825408
0.0357077 -0.06299042
00000000: a5b7 87bd 7f56 fe3d 6f16 debc 5d15 f2bc
00000010: 17de 6ebb b7d3 353c 399c 66bd e25d 27be
00000020: 0f2f 04bd eefc 75b9 a766 ce3d 2bb1 89bd
00000030: c093 3f3d 1fd5 443d 1712 1c3d a238 40bd
00000040: 2ba7 d4bd 5417 2ebd a183 5c3c 85a8 833d
00000050: 9221 59bd 1b36 12bd 80e5 48bd d7d8 44bd
00000060: 7991 7dba e741 a23d 4d6a 913d e86b f5bc
00000070: a18b 2f3d 6f77 c13d d2a5 7f3d c362 5fbd
00000080: 95e3 343c 9492 873d 2320 853d 9e6f efbd
00000090: ac4d e63d 85cf 1cbd 03e7 aabc 18e9 8abc
000000a0: 52e7 9eba d415 23bd 249b 4b3d 97c5 b2bc
000000b0: 9a5c abbb ce86 9d3d 210b 32bb b47d e03d
000000c0: 465d 0d3d 754d e9bc 2672 623d a5bc 833d
000000d0: c4bb 5abd f330 4fbc d7bf 84bd 05e4 ffbc
000000e0: ba15 6dbd 777b 4e3b 46e9 9d3e a0f0 dbbd
000000f0: c754 023d c815 b9bc 4df6 1b3c 6824 2f3d
00000100: 1152 e33b 250a 503c 74af 5fbd 08ab c33c
00000110: 4317 a6bc da6e 4fbc ac31 0dbc 8911 9bbd
00000120: 461c a0bd c007 46bd 0735 06be fdfd a7bd
00000130: 79fb 99bd 2d30 f3bd 8458 5f3d 1010 bb3d
00000140: 2080 833d 9cc4 763d b103 983c 05c8 e03c
00000150: 7292 e0bc cd7f 323e 19ff f7bd 8fc4 9cbd
00000160: 9084 a638 e0e1 883c 92ce b3bd 3b3c d2bd
00000170: eebc 53bc 1b1c 983c 6a32 683a e8b2 11be
00000180: 7b93 6b3d f114 633d d795 aebd 8a57 87bd
00000190: d7e9 6b3d ff3b 8d3c 3441 983d d672 703c
000001a0: fb11 79bd b7c8 c53c ebb1 9a3d f47f d23c
000001b0: c252 8d3d dd51 00bb 74ed 64bc adde 9abc
000001c0: ec17 343d 7f3b 1e3c fa22 0b3d 6574 1bbc
000001d0: aff8 a2bd 9751 bc3c a08b c7bd a44e e7bd
000001e0: 54f1 23bc 2aa2 b83c cb6b 80bd 4001 d13c
000001f0: c61a 08bc c1fe b1bd 9566 9fbd 3229 26bd
00000200: ae3b 81bb e5a8 21bd 46c1 563d 8c0c 80bd
00000210: 5181 a93c dd02 b7bd 817f 093c 66ab 64bd
00000220: 77d7 753e 023f 2e3d 44da 873e fb90 333d
00000230: 1d00 8d3d b767 ca3c d8a2 79bb 039e 60bb
00000240: f9b6 483c a54c 8abc 221b 183d 9947 933d
00000250: a409 853d 902c 88bd 492a 89bd 8e5b 91bd
00000260: e54d 833d 8667 89bd 07af a4bc 7287 583d
00000270: 8db0 9f3c 601f 143e 1d65 163d b3c5 8dbd
00000280: a77f adbc f32b 523b c6ed b43c 027c 713d
00000290: 669b 0ebc 9343 fabb 9be2 633c ca37 6abc
000002a0: ecad ae3d 4889 9c3d 3f77 e83c 438d 8fbd
000002b0: 0419 ca3d bf0d 40bd 0ff6 45bd 5b41 e7bc
000002c0: f536 083d 6d9f 8fbc 5b18 663d f41f 783d
000002d0: 07d3 d1bb c6ff 4fbd bf36 9ebc cde3 803d
000002e0: b077 f8bb 61a5 de3c 1c53 f8bc 3a56 ce3d
000002f0: 77f0 8839 9395 a7bc 536b a0bc 549a b33d
00000300: 4c91 30bd 10e1 42bd ece2 f1bb e4e8 a03d
00000310: 464d 86bd d343 3bbd 77b4 d7bd c518 703d
00000320: 5a66 a4bd 85a5 ed3d ff31 a5b8 6b72 f63c
00000330: 85d0 b73b b9f3 713b 175a bdbc a1b5 f03c
00000340: 4586 263d 9a96 813c fc96 d43d d7cc 09be
00000350: 0a29 18bd 50aa 2dbc 40f7 553d 74aa 173d
00000360: cd4f 063d d86f 0cbd d968 2f3d 45bd 533d
00000370: e410 be3c 042b 093d d350 9cbd 4129 223c
00000380: 0c2d babd 9117 b5bc b3f3 cd3c 22ab 6fbc
00000390: dc98 b33d b94e 22be 03d0 57bd bef0 943c
000003a0: 4dd5 963c 2d58 95bd 5807 863d 9f5d 29be
000003b0: d902 3fbd 5864 a0bc d64c e8bc 129c dc3e
000003c0: 5a53 e3bd 5d19 8f3b c028 cc3d 1dac 2abd
000003d0: dddd 073d 26d6 093b 0247 15bc 0d5d 31bc
000003e0: 3d42 123d 1f01 81bd

2.weight f4 [250, 250]
-0.038744137 0.17209339 -0.043742117 0.05572561 0.026112752 0.049844816 0.0353156 0.03098157
-0.06224452 -0.021683468 0.026329456 0.040833205 -0.03234174 0.013848701 -0.01726723 -0.0109295705
0.057428524 -0.06725862 0.02606953 0.00762818 0.035919182 0.010527205 0.01995764 -0.058400843
0.034321163 0.06311336 -0.030710284 -0.040216986 -0.04479623 0.018772103 -0.03940336 -0.006203385
0.018114015 -0.014652824 0.018287575 -0.05225174 0.0035770456 0.009713134 -0.050295096 -0.038360298
-0.054118212 -0.025839206 0.046567723 -0.0024666172 -0.03938381 -0.031180752 -0.03904534 -0.035695404
0.046788506 -0.028776892 0.055497 -0.020314096 -0.039066646 -0.036486894 -0.019634902 -0.0039889487
0.0373798 -0.018493399 0.07112584 0.018248616 -0.031072887 -0.030906763 -0.026316293 -0.035154328
0.029973226 -0.06696608 0.027025802 0.00063227594 0.021706888 0.011413415 -0.019623391 0.019083306
-0.05465453 0.003392947 0.040634762 0.031354383 0.021002984 0.007658442 -0.041787848 0.01591714
-0.0085316785 -0.03277744 0.050381232 0.01720916 -0.030834537 0.031586077 0.0022816854 0.009931998
-0.027109498 0.024873523 -0.0029127721 -0.06382481 -0.052330147 -0.06797981 -0.010597171 -0.06507545
0.013166244 -0.03610282 -0.042819813 -0.006802558 0.0075231846 -0.009985058 -0.04122788 0.056104302
-0.047438372 0.017359989 -0.016002245 -0.01991923 0.026967766 -0.0033637444 0.031929784 0.05494251
0.024600457 0.012650414 -0.055995602 -0.04500972 -0.055767275 0.05251376 -0.022104573 0.004681128
-0.032070532 0.024844894 0.03313788 0.00841918 -0.009798182 0.0076138875 0.0131998025 0.019245483
0.004606555 -0.04454917 0.036086682 0.05450254 0.03290262 -0.029520957 0.02208504 -0.0688618
0.05348482 0.049503334 -0.04051811 -0.040083893 0.0014829728 -0.016356857 -0.05083412 -0.024962418
0.004092722 -0.04346566 0.023766184 0.03886544 -0.049622618 -0.051594567 0.05455574 -0.0016566613
-0.046254653 -0.0032345662 -0.03137386 0.018445546 0.014417978 0.04036702 0.011400585 0.022475373
0.03251457 0.040685195 -0.06899026 -0.021906426 -0.026685944 0.0020414146 0.0335829 0.044361632
0.030134514 0.046149977 -0.042637497 0.026281307 -0.06701018 -0.03990613 -0.06696177 -0.06133958
-0.024117308 -0.04324334 -0.012505083 -0.023631724 -0.03288553 -0.061667908 -0.016981117 -0.059392408
-0.0668925 0.04142811 0.021394994 -0.008876453 0.030537743 0.03478441 0.046668738 0.03622097
0.055244666 -0.058408692 0.016941527 -0.047886737 -0.030236369 0.02138072 -0.03688541 -0.033984706
0.06527744 0.056836154 -0.047658958 0.002676099 0.055719435 0.032486763 -0.018398523 -0.04183347
-0.052853566 -0.044633172 -0.06576896 -0.011336516 -0.04998455 -0.0093119135 0.044184417 0.019808393
-0.017014373 -0.056574658 0.030550377 -0.055840477 -0.008728428 -0.04832736 0.021858858 -0.03896784
-0.032090705 -0.037687246 -0.029842308 0.03726101 0.0418547 0.052412935 -0.05891882 0.020346578
-0.042395573 0.041879058 -0.051102974 -0.015970562 -0.028521806 -0.035649043 0.007476793 0.15726174
0.053009577 -0.032750476 0.00997172 -0.06177207 -0.059476085 0.02835933 -0.062066086 -0.00075355946
0.05274051 0.0031186247 0.043356225 -0.03799808 0.03689396 0.025780044 -0.019918688 0.023335783
00000000: 2cb2 1ebd 4039 303e ef2a 33bd 8a40 643d
00000010: 69ea d53c 142a 4c3d 17a7 103d 10cd fd3c
00000020: 1cf4 7ebd 87a1 b1bc dfb0 d73c b840 273d
00000030: c678 04bd a9e5 623c 0274 8dbc f111 33bc
00000040: 2c3a 6b3d e3be 89bd c48f d53c d0f5 f93b
00000050: fe1f 133d 4c7a 2c3c 347e a33c b935 6fbd
00000060: 5994 0c3d 9441 813d 2294 fbbc 91ba 24bd
00000070: 407c 37bd f4c7 993c 6b65 21bd c445 cbbb
00000080: d863 943c 6612 70bc d3cf 953c ec05 56bd
00000090: de6c 6a3b d623 1f3c 3b02 4ebd b01f 1dbd
000000a0: 0fab 5dbd beac d3bc ccbd 3e3d f8a6 21bb
000000b0: eb50 21bd c76e ffbc 02ee 1fbd 5835 12bd
000000c0: 4ea5 3f3d 84bd ebbc d350 633d bf69 a6bc
000000d0: 5904 20bd 4873 15bd 60d9 a0bc bab5 82bb
000000e0: 901b 193d 787f 97bc 6daa 913d 1f7e 953c
000000f0: 918c febc 2e30 fdbc 4495 d7bc fcfd 0fbd
00000100: 698a f53c 8325 89bd 3765 dd3c 52bf 253a
00000110: a5d2 b13c 55ff 3a3c 3cc1 a0bc 9854 9c3c
00000120: 6edd 5fbd 345c 5e3b a370 263d 746d 003d
00000130: 730e ac3c abf3 fa3b bc29 2bbd a964 823c
00000140: 74c8 0bbc a341 06bd 8d5c 4e3d 39fa 8c3c
00000150: b698 fcbc 6760 013d 5488 153b d2b9 223c
00000160: bd14 debc 8fc3 cb3c 35e4 3ebb 95b6 82bd
00000170: 2358 56bd 0039 8bbd c29f 2dbc 4746 85bd
00000180: 3bb7 573c 8de0 13bd d463 2fbd fee7 debb
00000190: 0c85 f63b 5e98 23bc 91de 28bd a0cd 653d
000001a0: bd4e 42bd 8936 8e3c 2417 83bc a72d a3bc
000001b0: 81eb dc3c 4472 5cbb cec8 023d 660b 613d
000001c0: e686 c93c af43 4f3c a55b 65bd 1d5c 38bd
000001d0: 3a6c 64bd ab18 573d a614 b5bc 2664 993b
000001e0: 645c 03bd 8587 cb3c 96bb 073d 9af0 093c
000001f0: 8e88 20bc eb7d f93b fc43 583c b4a8 9d3c
00000200: 96f2 963b 3179 36bd a1cf 133d 0e3e 5f3d
00000210: e6c4 063d efd5 f1bc b0eb b43c 6a07 8dbd
00000220: e612 5b3d 02c4 4a3d 51f6 25bd 022f 24bd
00000230: 4f60 c23a d1fe 85bc 7037 50bd fc7d ccbc
00000240: 3e1c 863b 0c09 32bd 4db1 c23c 5e31 1f3d
00000250: 1641 4bbd d354 53bd d775 5f3d 5424 d9ba
00000260: 8575 3dbd 04fb 53bb e081 00bd 1d1b 973c
00000270: 6239 6c3c e357 253d 85c9 3a3c 461e b83c
00000280: ff2d 053d 85a5 263d c44a 8dbd 1b75 b3bc
00000290: 7b9c dabc 41c9 053b 398e 093d 8bb4 353d
000002a0: a8dc f63c c207 3d3d a8a4 2ebd e54b d73c
000002b0: a23c 89bd 9c74 23bd 4123 89bd 363f 7bbd
000002c0: a991 c5bc ee1f 31bd 1fe2 4cbc 5197 c1bc
000002d0: fab2 06bd 7d97 7cbd fc1b 8bbc 7445 73bd
000002e0: effe 88bd 86b0 293d 8e44 af3c 8b6e 11bc
000002f0: 4a2a fa3c 197a 0e3d b827 3f3d 715c 143d
00000300: 3b48 623d f43d 6fbd f5c8 8a3c e224 44bd
00000310: 43b2 f7bc 9f26 af3c 2815 17bd 8c33 0bbd
00000320: 2eb0 853d 07cd 683d 0a36 43bd 7e61 2f3b
00000330: 103a 643d d710 053d 80b8 96bc 9359 2bbd
00000340: fb7c 58bd 46d1 36bd e0b1 86bd cbbc 39bc
00000350: 99bc 4cbd ff90 18bc b8fa 343d 3645 a23c
00000360: ba61 8bbc d4ba 67bd c944 fa3c fcb8 64bd
00000370: ae01 0fbc e9f2 45bd 5911 b33c be9c 1fbd
00000380: 8b71 03bd f15d 1abd db77 f4bc 009f 183d
00000390: d56f 2b3d f2ae 563d dc54 71bd dead a63c
000003a0: fba6 2dbd 6089 2b3d 5a51 51bd b2d4 82bc
000003b0: 90a6 e9bc bb04 12bd e3ff f43b 3909 213e
000003c0: 9220 593d 5d25 06bd 6d60 233c b604 7dbd
000003d0: 329d 73bd d351 e83c 0239 7ebd 858a 45ba
000003e0: 6f06 583d d761 4c3b 4c96 313d e0a3 1bbd
000003f0: 1f1e 173d ac30 d33c 842c a3bc af2a bf3c

2.bias f4 [250]
-0.0343269 0.10053755 -0.001698412 0.016696882 0.04879893 0.06868588 -0.01418997 -0.03852899
0.00782237 -0.019581163 0.085697755 0.03172104 -0.0454358 -0.008251859 -0.026053747 -0.06267247
-0.15635593 0.02808427 -0.025519174 0.18700717 0.00573013 0.0002542981 0.026884606 0.037295435
-0.098623894 0.04135562 -0.058349438 0.025325755 -0.03684674 0.079933636 -0.10378674 -0.02086622
-0.083584644 0.0070342775 -0.06418773 -0.06596309 -0.0638517 0.22980647 0.043465167 -0.07809118
-0.00079657335 0.0026568878 0.026071958 0.027323069 -0.04958689 -0.015117184 -0.049970612 0.01863181
0.054865748 0.1387276 0.05107205 -0.019555543 -0.050757688 0.030646386 -0.056657236 -0.04742144
-0.027648916 -0.0034775601 0.037179843 0.043343652 -0.0668149 -0.113882825 0.02670765 -0.0034934795
-0.008400169 -0.0076533477 -0.06090291 0.02411583 -0.02409607 -0.025568318 -0.05774027 0.033271734
0.037610065 -0.11330426 -0.04956688 -0.022529943 -0.026400156 0.01665516 0.027550092 -0.04482827
-0.04359255 0.13207392 -0.06307174 -0.0592824 -0.047544163 0.04560688 0.017818214 -0.046222843
-0.035980683 -0.034280103 -0.032074023 -0.042123914 0.010602391 0.034677405 0.041924886 -0.0864285
-0.0748245 -0.19478594 0.046856873 -0.05345727 -0.023011848 -0.097131364 0.06512106 -0.06723046
0.0770944 -0.0025631872 -0.060298517 -0.059954137 0.0073837047 0.058601473 -0.03643564 0.09067585
0.01674479 0.020714462 0.00042337994 -0.040084027 0.03408355 0.047372572 -0.04585946 0.03400307
0.02865477 -0.04034422 0.027462026 -0.051439602 0.038320154 0.00287118 -0.009870336 -0.022332782
-0.07117015 -0.01093861 -0.048720866 0.03914784 -0.02185878 -0.025758369 0.04122202 0.08809151
0.024659539 -0.071780786 -0.046435717 -0.020373285 -0.014861855 -0.024796505 0.0713321 0.05281345
0.05170724 -0.053591844 -0.03927508 -0.005994999 0.027450234 -0.00640127 -0.0082191685 0.0062092417
-0.039718993 -0.029446399 -0.039515235 -0.09509881 0.039443538 -0.047829572 0.03512433 0.038404267
-0.068326876 0.044570476 -0.043755338 0.031352233 -0.047707487 0.029825624 -0.15336263 0.007529475
-0.0008842253 -0.017094402 0.058781605 -0.17085116 0.031545665 -0.034257993 0.038333222 -0.02798973
-0.016043825 -0.07658613 0.02117697 0.018001746 -0.029073136 0.03885433 -0.017013129 -0.27189246
-0.061644018 0.041689835 0.033533223 0.027544351 0.03317302 0.025865953 0.016956085 -0.027234696
0.046768278 -0.08214669 -0.03708792 -0.05142365 -0.058543414 -0.09370027 0.034976166 0.014377858
0.053339712 0.030597555 -0.0144590745 0.008037327 0.01247657 -0.062445417 -0.12118268 0.057977784
0.04604354 -0.034015488 0.024663543 0.1330691 -0.0041872384 -0.007479421 0.056446504 0.004137512
-0.025550986 0.054616675 0.051806524 0.06488816 -0.05838693 -0.057638712 0.052852616 0.010600942
-0.03266955 0.090269454 -0.09740781 -0.040338174 -0.038391497 -0.009041739 -0.031904705 0.045030802
0.09154533 0.015288678 -0.05254692 0.017714463 -0.0011010597 0.02380194 0.14104551 -0.056527223
0.03742413 -0.031236226 -0.04662321 -0.032180663 -0.060578685 -0.07117497 0.017458243 0.1895638
-0.048756924 0.018944053
00000000: 5d9a 0cbd a2e6 cd3d 409d deba e6c7 883c
00000010: 63e1 473d 2fab 8c3d 0c7d 68bc 93d0 1dbd
00000020: 6629 003c ad68 a0bc 4e82 af3d eced 013d
00000030: e41a 3abd ce32 07bc ab6e d5bc 6d5a 80bd
00000040: c51b 20be fc10 e63c 960d d1bc cf7e 3f3e
00000050: d0c3 bb3b 5053 8539 1b3d dc3c 19c3 183d
00000060: 53fb c9bd 8364 293d d2ff 6ebd f577 cf3c
00000070: 9bec 16bd 3fb4 a33d 248e d4bd a3ef aabc
00000080: 6d2e abbd cc7f e63b db74 83bd a817 87bd
00000090: aec4 82bd 6352 6b3e 8808 323d 45ee 9fbd
000000a0: 22d1 50ba 2e1f 2e3b dc94 d53c a1d4 df3c
000000b0: 9f1b 4bbd 11ae 77bc fcad 4cbd bda1 983c
000000c0: e8ba 603d 9c0e 0e3e ed30 513d f232 a0bc
000000d0: 4be7 4fbd 210e fb3c 6b11 68bd fc3c 42bd
000000e0: fb7f e2bc c7e7 63bb e449 183d 1d89 313d
000000f0: 40d6 88bd 663b e9bd 00ca da3c dcf2 64bb
00000100: dda0 09bc efc8 fabb 5475 79bd 908e c53c
00000110: 1f65 c5bc a674 d1bc 1081 6cbd f147 083d
00000120: 030d 1a3d 100c e8bd a406 4bbd b790 b8bc
00000130: 2445 d8bc 6770 883c bbb0 e13c d99d 37bd
00000140: 1a8e 32bd 633e 073e c22b 81bd 1ad2 72bd
00000150: abbd 42bd 48ce 3a3d 81f7 913c 2a54 3dbd
00000160: 7b60 13bd 4b69 0cbd 0d60 03bd 208a 2cbd
00000170: a7b5 2d3c e509 0e3d 6eb9 2b3d 6d01 b1bd
00000180: 963d 99bd f775 47be feec 3f3d 03f6 5abd
00000190: 5883 bcbc cfec c6bd 315e 853d 20b0 89bd
000001a0: abe3 9d3d 25fb 27bb 94fb 76bd 7892 75bd
000001b0: 01f3 f13b 1908 703d 8a3d 15bd 43b4 b93d
000001c0: 5f2c 893c 60b1 a93c 18f9 dd39 262f 24bd
000001d0: 319b 0b3d be09 423d 21d7 3bbd ce46 0b3d
000001e0: 69bd ea3c fb3f 25bd 0bf8 e03c 55b2 52bd
000001f0: 98f5 1c3d 682a 3c3b 31b7 21bc 3df3 b6bc
00000200: a8c1 91bd db37 33bc 888f 47bd 7c59 203d
00000210: 2f11 b3bc 3703 d3bc 6cd8 283d 5269 b43d
00000220: cd02 ca3c ce01 93bd 6133 3ebd e0e5 a6bc
00000230: 237f 73bc 0a22 cbbc 9016 923d eb52 583d
00000240: f9ca 533d 1f83 5bbd e8de 20bd b271 c4bb
00000250: 50df e03c bfc1 d1bb b1a9 06bc e576 cb3b
00000260: 62b0 22bd 9339 f1bc bada 21bd 2ac3 c2bd
00000270: 8c8f 213d f1e8 43bd 88de 0f3d cb4d 1d3d
00000280: f6ee 8bbd 888f 363d cc38 33bd 336b 003d
00000290: ed68 43bd de54 f43c 180b 1dbe d0b9 f63b
000002a0: 5bcb 67ba 8f09 8cbc fbc4 703d 9bf3 2ebe
000002b0: 0736 013d 1c52 0cbd 4c03 1d3d b84a e5bc
000002c0: 576e 83bc 30d9 9cbd 537b ad3c 6678 933c
000002d0: c92a eebc b825 1f3d 1e5f 8bbc 7d35 8bbe
000002e0: 707e 7cbd f6c2 2a3d 225a 093d b1a4 e13c
000002f0: 6fe0 073d d6e4 d33c 7de7 8a3c 4c1b dfbc
00000300: 1890 3f3d 863c a8bd 81e9 17bd 9ba1 52bd
00000310: 38cb 6fbd ede5 bfbd 2b43 0f3d 1b91 6b3c
00000320: be7a 5a3d b9a7 fa3c c1e5 6cbc feae 033c
00000330: 876a 4c3c c4c6 7fbd a02e f8bd 1d7a 6d3d
00000340: 2798 3c3d d353 0bbd 330b ca3c 4443 083e
00000350: 1a35 89bb ee15 f5bb 7334 673d f793 873b
00000360: 4d50 d1bc bcb5 5f3d 1433 543d 15e4 843d
00000370: 2227 6fbd 9216 6cbd fc7b 583d 93af 2d3c
00000380: 82d0 05bd 31df b83d bf7d c7bd a439 25bd
00000390: 6740 1dbd cd23 14bc 82ae 02bd 3872 383d
000003a0: 1e7c bb3d 5d7d 7a3c 703b 57bd ec1d 913c
000003b0: 6f51 90ba 49fc c23c 3c6e 103e 1789 67bd
000003c0: 0b4a 193d 1de3 ffbc fbf7 3ebd dfcf 03bd
000003d0: 5b21 78bd 2fc4 91bd 9704 8f3c 031d 423e
000003e0: 57b5 47bd 8f30 9b3c

4.weight f4 [250, 250]
0.0071414774 -0.023922652 -0.00036425286 -0.035011057 0.03765286 0.03149506 -0.03201749 -0.021253413
-0.024289563 -0.0057642995 -0.015853537 -0.027598962 -0.03159071 0.044103775 -0.016516276 0.042262364
0.02548103 0.028541006 -0.057695296 0.017769663 0.017127702 0.009253237 0.036130268 -0.051533286
0.006135476 -0.004296651 -0.029101705 -0.014065616 -0.016183715 -0.037059132 -0.039641336 0.020500159
-0.019129911 0.031701293 0.052625917 -0.008299373 0.026330909 0.0078091645 0.002182188 -0.006348179
-0.024530033 0.04228308 -0.05064474 -0.027636461 -0.03544543 -0.011698218 -0.018221179 -0.06662832
-0.039448414 0.024956249 -0.04135124 0.037106175 -0.06353525 -0.018728815 -0.048014328 0.019893149
-0.0031529015 0.019411508 -0.041971598 0.058733445 0.005173501 0.023323309 -0.025651162 0.046784904
-0.035112068 -0.021233404 -0.009076731 -0.042224713 0.015802275 0.014869401 0.0023883842 -0.018791588
-0.012665972 -0.0071328534 0.0069739837 0.04599566 0.041629344 0.02406332 0.015455761 0.0045724185
0.03604561 -0.047735162 -0.06744683 -0.023861501 -0.06279739 -0.050926268 0.017124029 -0.0454631
0.031082042 0.04501295 0.021076873 0.03944854 -0.011964438 -0.021751475 -0.021333972 0.020158818
0.036851715 -0.0031251824 -0.057238914 0.020432217 -0.0045114616 -0.041357428 0.0061837826 0.017562687
-0.0065192664 -0.04008174 -0.009017253 -0.015341149 -0.050227318 -0.026311865 -0.04678897 -0.020797852
0.02116543 0.007892382 -0.02101689 -0.038701825 -0.026597204 0.042001642 -0.026867133 0.056086317
-0.040105555 -0.045767076 -0.037708554 -0.0125297615 -0.0019662355 -0.023040231 -0.014634163 0.00669248
-0.042459764 0.057737976 -0.060329143 0.05780361 0.05612827 -0.007056297 0.039017737 -0.059132203
0.0096046 0.010754533 -0.0038085398 0.04586866 -0.055244237 -0.029927008 0.022670861 0.013322991
0.04021354 0.0043537384 0.00019386862 -0.006434347 0.057599504 0.035261896 0.054180488 0.045333877
0.027968798 0.03973833 -0.06424912 -0.047165178 -0.033686906 0.02087046 0.036525525 0.035531905
0.026420332 0.027492568 -0.0069928155 0.051572237 -0.0185478 0.020725911 0.017319355 -0.045842335
-0.009714177 -0.009317989 0.032699503 0.028935205 -0.037130997 -0.0017501708 -0.046974618 -0.0463407
-0.0021082 -0.055622723 -0.04972271 0.029953869 -0.04998755 0.03288888 -0.021664968 -0.05638528
-0.012498066 -0.027112434 -0.057625942 0.032761298 -0.06550134 0.040885735 -0.04472868 -0.066391826
-0.03482634 0.04290901 0.012428054 -0.06642177 0.031505994 -0.046120856 -0.06556022 -0.044557694
0.030066919 -0.039476372 0.03538777 -0.024490695 0.043092377 0.03962802 -0.055380363 -0.008349549
-0.0045573446 -0.064175546 0.03495639 0.013065055 -0.04277382 -0.02804519 -0.009714382 -0.0038531164
0.0061819004 0.055869862 -0.037315305 -0.0011932825 0.053205557 0.007212271 -0.030983603 -0.058976743
-0.06410641 -0.0069753886 0.0095152445 -0.011272367 -0.06539427 -0.053052127 0.009168167 -0.023132676
-0.06420128 0.052893396 -0.011009001 0.023314634 -0.00059133925 0.027662849 0.03465821 -0.023670847
-0.015589177 -0.02125829 -0.039426703 0.04239604 0.0055237114 0.05002419 0.00023644071 -0.05553522
-0.013001741 0.026292406 0.0624108 -0.009162847 -0.06615738 -0.021644186 0.030704055 0.03334353
00000000: 0e03 ea3b 70f9 c3bc 31f9 beb9 c167 0fbd
00000010: e339 1a3d f700 013d c624 03bd a31b aebc
00000020: e8fa c6bc 73e2 bcbb 47df 81bc 3817 e2bc
00000030: 4365 01bd 29a6 343d 244d 87bc 4d1b 2d3d
00000040: 98bd d03c d4ce e93c e751 6cbd af91 913c
00000050: 654f 8c3c e49a 173c 55fd 133d 9114 53bd
00000060: 1a0c c93b ecca 8cbb b366 eebc 7873 66bc
00000070: b693 84bc 51cb 17bd f45e 22bd f3ef a73c
00000080: 55b6 9cbc 37d9 013d 468e 573d 18fa 07bc
00000090: ebb3 d73c 05e4 ff3b 0a03 0f3b 6304 d0bb
000000a0: 35f3 c8bc 0631 2d3d dc70 4fbd dc65 e2bc
000000b0: 3a2f 11bd e2a9 3fbc 9544 95bc 6e74 88bd
000000c0: a994 21bd 0c71 cc3c eb5f 29bd a5fc 173d
000000d0: c51e 82bd 2c6d 99bc acaa 44bd f5f6 a23c
000000e0: e9a0 4ebb e204 9f3c 69ea 2bbd 7b92 703d
000000f0: 7986 a93b 8610 bf3c 6322 d2bc 87a1 3f3d
00000100: acd1 0fbd adf1 adbc 92b6 14bc d2f3 2cbd
00000110: c673 813c ca9e 733c 7086 1c3b d1f0 99bc
00000120: f084 4fbc b6ba e9bb 0486 e43b f265 3c3d
00000130: 8883 2a3d 7120 c53c 293a 7d3c 3ad4 953b
00000140: 90a4 133d f285 43bd 9021 8abd 3279 c3bc
00000150: eb9b 80bd 1098 50bd b147 8c3c 8437 3abd
00000160: c49f fe3c 805f 383d 68a9 ac3c cb94 213d
00000170: 7d06 44bc 2630 b2bc 95c4 aebc 1b24 a53c
00000180: d3f1 163d dccf 4cbb 5a73 6abd 7761 a73c
00000190: e2d4 93bb 6866 29bd 54a1 ca3b a0df 8f3c
000001a0: 929f d5bb c02c 24bd 1abd 13bc 7159 7bbc
000001b0: 29bb 4dbd fb8b d7bc caa5 3fbd 4260 aabc
000001c0: 2063 ad3c 0d4f 013c 9d2b acbc ce85 1ebd
000001d0: 61e2 d9bc ea09 2c3d 7618 dcbc c4ba 653d
000001e0: b945 24bd 4276 3bbd 4974 1abd a149 4dbc
000001f0: f5db 00bb debe bcbc 21c4 6fbc 974c db3b
00000200: 4aea 2dbd a87e 6c3d b11b 77bd 7ac3 6c3d
00000210: c2e6 653d 8238 e7bb 10d1 1f3d 9c34 72bd
00000220: 9d5c 1d3c c833 303c b298 79bb c7e0 3b3d
00000230: c847 62bd 7c29 f5bc 3eb8 b93c ad48 5a3c
00000240: f4b6 243d cea9 8e3b 3649 4b39 37d7 d2bb
00000250: 75ed 6b3d c76e 103d 5cec 5d3d 04b0 393d
00000260: d21e e53c a9c4 223d 0b95 83bd 4630 41bd
00000270: 48fb 09bd 87f8 aa3c ca9b 153d e789 113d
00000280: 746f d83c 1838 e13c fd23 e5bb 693d 533d
00000290: 8ef1 97bc 63c9 a93c 52e1 8d3c 2cc5 3bbd
000002a0: 3628 1fbc 7baa 18bc eaef 053d 8609 ed3c
000002b0: ac16 18bd fd65 e5ba 7568 40bd bfcf 3dbd
000002c0: ba29 0abb a7d4 63bd 0aaa 4bbd d161 f53c
000002d0: bfbf 4cbd 7eb6 063d bb7a b1bc 40f4 66bd
000002e0: b0c4 4cbc e51a debc 2e09 6cbd b630 063d
000002f0: 9125 86bd cd77 273d 6c35 37bd 70f8 87bd
00000300: 10a6 0ebd 5cc1 2f3d 099f 4b3c 2308 88bd
00000310: 6e0c 013d 39e9 3cbd 7044 86bd 2182 36bd
00000320: e64e f63c fab1 21bd c4f2 103d b6a0 c8bc
00000330: a281 303d fe50 223d 85d6 62bd 8ccc 08bc
00000340: c755 95bb 786e 83bd 6e2e 0f3d d00e 563c
00000350: 9a33 2fbd 07bf e5bc 1229 1fbc 9184 7cbb
00000360: 8a91 ca3b ccd7 643d efd7 18bd eb67 9cba
00000370: 12ee 593d ea54 ec3b 53d1 fdbc 9991 71bd
00000380: 394a 83bd cd91 e4bb d4e5 1b3c bcaf 38bc
00000390: 6eed 85bd 304d 59bd 1436 163c bd80 bdbc
000003a0: f67b 83bd bfa6 583d 195f 34bc 55fe be3c
000003b0: 1b04 1bba 339d e23c c4f5 0d3d 5de9 c1bc
000003c0: bf69 7fbc de25 aebc e57d 21bd 78a7 2d3d
000003d0: 4000 b53b 2ae6 4c3d 12ed 7739 e678 63bd
000003e0: 4105 55bc 2c63 d73c 78a2 7f3d c41f 16bc
000003f0: 857d 87bd 264f b1bc 1287 fb3c 3a93 083d

4.bias f4 [250]
-0.035936706 -0.07784597 -0.010904513 0.003394276 0.038831927 -0.06564461 -0.016212597 -0.022681614
0.015989272 0.11010575 0.017601661 -0.0037770737 -0.03724013 0.02080911 -0.064865224 -0.0039667487
-0.02935082 0.011343293 0.012104183 -0.059720285 -0.018857589 0.028203946 -0.0052970476 0.011947795
0.025516065 0.03165416 0.010858614 -0.00870348 0.0074360133 -0.052863397 -0.0512861 -0.0026298454
-0.0323172 0.018149577 0.019943533 0.046594117 -0.0022608733 0.028302392 -0.019681344 0.048506472
-0.019857746 0.029087 0.019349594 0.004308782 -0.021219214 -0.044972647 -0.00255194 0.005987995
-0.035664584 -0.05308082 0.025050184 0.037383206 -0.05569062 -0.044550825 -0.033291418 0.053166516
0.044115614 -0.027317042 0.05861724 -0.060907237 -0.112065 0.0028480594 0.022798562 -0.008366403
0.007640522 -0.04501744 0.02325372 -0.0012920802 0.04917285 0.0056089764 0.05030412 -0.033704516
-0.073858224 -0.022307323 -0.03283788 0.029293703 0.06750409 0.01721381 -0.04185652 0.0011330309
-0.04318608 -0.055530686 0.041480437 -0.07376868 0.049444858 -0.029227508 -0.017952235 -0.07051329
-0.010026718 0.019855078 -0.042716943 -0.021491164 0.03584235 0.22132306 -0.026546696 0.024743713
0.040604178 0.046074495 -0.006015998 -0.057279874 0.014561238 0.012308992 -0.29658955 0.10503387
0.024562487 0.023148024 -0.03951431 -0.056961298 -0.018534042 0.0038191085 0.0039127925 -0.030567799
0.065509416 -0.007876363 -0.020900669 -0.055564344 0.011955673 -0.00031093386 -0.043033723 0.041603226
0.036380492 0.0049076993 0.035593826 -0.046791054 0.01908502 0.04847353 -0.036780234 -0.0078006256
-0.04476931 0.023251483 0.04867478 -0.00807859 0.025391452 0.031501543 0.0368702 0.04894036
-0.029370818 0.043158986 -0.012744577 0.04285209 -0.03225189 -0.05542127 0.008590931 0.009290548
0.1486123 0.074334435 0.0050775353 -0.0028587037 -0.22221716 0.030524114 0.008039138 0.041005217
-0.04251766 0.03126196 -0.070463926 -0.06298074 0.0089947 0.001981008 0.028537972 0.026416607
0.01784621 -0.039044872 0.046613477 0.008782562 -0.046349045 -0.023368005 -0.068232104 0.009122166
-0.051792298 0.0076238243 -0.010029498 0.037880767 0.019676985 0.08403643 0.14843252 -0.025753515
-0.02833485 -0.015135642 0.16725314 -0.02823714 -0.022117537 0.021623496 -0.04552797 0.039602254
-0.06748362 -0.045726616 -0.007507565 -0.07691034 0.0281981 -0.07147572 0.017978977 -0.074819095
-0.044446234 -0.013790871 0.12278125 0.35092655 0.20877263 0.06327777 0.046254694 -0.05161561
0.017019482 -0.00372162 -0.0548521 0.0017931941 -0.025429768 0.036103375 0.0054933694 0.019936698
0.021770714 0.060784206 -0.041469753 -0.056923468 -0.021391386 0.015682273 0.026237313 -0.031450678
0.0007617721 -0.024361145 -0.044136666 -0.061228715 -0.06419987 -0.0068031247 -0.008123828 0.024078485
0.008013225 -0.029389434 -0.074881576 -0.035516646 0.026493033 0.08794817 -0.04360479 0.008400322
0.0028321005 0.04552047 0.0029167796 -0.017997755 -0.06793256 -0.05390498 -0.0430133 -0.032658666
-0.0548408 0.010438225 -0.0026430907 0.024552263 0.04291344 -0.053171437 -0.058691293 0.04084578
0.00958217 0.034238115
00000000: 5e32 13bd b56d 9fbd d8a8 32bc 8072 5e3b
00000010: 3a0e 1f3d ae70 86bd 48d0 84bc cbce b9bc
00000020: effb 823c 207f e13d 5c31 903c c888 77bb
00000030: 1b89 18bd de77 aa3c 0fd8 84bd 80fb 81bb
00000040: 2271 f0bc 38d9 393c a050 463c 429d 74bd
00000050: 3b7b 9abc f60b e73c db92 adbb afc0 433c
00000060: 1107 d13c cba7 013d 54e8 313c 0a99 0ebc
00000070: cda9 f33b 4a87 58bd 6011 52bd 7c59 2cbb
00000080: 0a5f 04bd 6cae 943c 9f60 a33c 79d9 3e3d
00000090: 292b 14bb 6bda e73c c53a a1bc b9ae 463d
000000a0: b6ac a2bc dc47 ee3c 0a83 9e3c af30 8d3b
000000b0: ebd3 adbc 3d35 38bd 733e 27bb f136 c43b
000000c0: 0715 12bd 466b 59bd 0b36 cd3c 221f 193d
000000d0: d91b 64bd ed7a 36bd 955c 08bd 22c5 593d
000000e0: 93b2 343d fdc7 dfbc a218 703d de79 79bd
000000f0: 5682 e5bd 82a6 3a3b 0dc4 ba3c 3d13 09bc
00000100: 585d fa3b 3564 38bd 967e be3c 045b a9ba
00000110: 7869 493d 81cb b73b b10b 4e3d bf0d 0abd
00000120: fb42 97bd d9bd b6bc 0381 06bd 59f9 ef3c
00000130: 963f 8a3d fa03 8d3c be71 2bbd 3582 943a
00000140: e3e3 30bd 2574 63bd 64e7 293d 0914 97bd
00000150: b186 4a3d 876e efbc 9110 93bc 4669 90bd
00000160: 1a47 24bc 1ea7 a23c f6f7 2ebd 3d0e b0bc
00000170: 6ecf 123d 83a2 623e 7578 d9bc 54b3 ca3c
00000180: 9150 263d 9cb8 3c3d d921 c5bb 4d9e 6abd
00000190: 4292 6e3c a8ab 493c 96da 97be ff1b d73d
000001a0: 4537 c93c eda0 bd3c c2d9 21bd 4050 69bd
000001b0: b4d4 97bc 024a 7a3b e236 803b 5269 fabc
000001c0: cd29 863d dc0b 01bc e137 abbc 7097 63bd
000001d0: bae1 433c d604 a3b9 2144 30bd 2568 2a3d
000001e0: b603 153d c4d0 a03b d5ca 113d faa7 3fbd
000001f0: 3058 9c3c 2e8c 463d dfa6 16bd 649c ffbb
00000200: 0660 37bd e579 be3c 355f 473d 105c 04bc
00000210: bc01 d03c c307 013d 3505 173d b075 483d
00000220: 129b f0bc 7ac7 303d a1ce 50bc ac85 2f3d
00000230: 8f1a 04bd 6a01 63bd fac0 0c3c 6237 183c
00000240: d32d 183e a73c 983d 7461 a63b 1759 3bbb
00000250: e58c 63be b50d fa3c 97b6 033c 16f5 273d
00000260: ff26 2ebd 8a0c 003d 644f 90bd 0cfc 80bd
00000270: 825e 133c cdd3 013b 77c8 e93c a467 d83c
00000280: 3732 923c 84ed 1fbd c6ed 3e3d bce4 0f3c
00000290: 7fd8 3dbd 426e bfbc 46bd 8bbd 2375 153c
000002a0: 2924 54bd 46d1 f93b c352 24bc dd28 1b3d
000002b0: a131 a13c 4b1b ac3d b2fe 173e 09f9 d2bc
000002c0: 7d1e e8bc 7cfb 77bc 6844 2b3e 9351 e7bc
000002d0: d62f b5bc c223 b13c 897b 3abd f935 223d
000002e0: da34 8abd d54b 3bbd 0502 f6bb 2b83 9dbd
000002f0: b4ff e63c dd61 92bd a648 933c c13a 99bd
00000300: 410d 36bd 1bf3 61bc bc74 fb3d a5ac b33e
00000310: 7ec8 553e c797 813d 9075 3d3d e46a 53bd
00000320: 716c 8b3c 6ce6 73bb 98ac 60bd 9c09 eb3a
00000330: 1752 d0bc 22e1 133d b901 b43b 4952 a33c
00000340: 7f58 b23c dcf8 783d 30dc 29bd 9528 69bd
00000350: fd3c afbc 1c78 803c a2ef d63c 6dd2 00bd
00000360: a9b1 473a 0691 c7bc a6c8 34bd f6ca 7abd
00000370: 397b 83bd bfec debb ce19 05bc 3e40 c53c
00000380: e749 033c 1cc2 f0bc 835b 99bd e779 11bd
00000390: eb07 d93c 2c1e b43d f09a 32bd 81a1 093c
000003a0: c39a 393b ac73 3a3d 7127 3f3b 0770 93bc
000003b0: 3a20 8bbd 78cb 5cbd b72e 30bd 18c5 05bd
000003c0: bfa0 60bd 1705 2b3c b437 2dbb d421 c93c
000003d0: 01c6 2f3d 4bca 59bd 4866 70bd e84d 273d
000003e0: 89fe 1c3c 443d 0c3d

6.weight f4 [157, 250]
0.06494016 0.023633437 0.06200163 0.03810455 0.010241986 -0.007520708 -0.0033037697 -0.007366014
-0.01569466 -0.030518718 0.025319334 -0.035227116 0.00015884178 -0.05378326 -0.0049724933 0.060201544
0.054562837 0.027273927 0.055726636 0.0642094 0.04360276 -0.04086026 0.031183071 0.017988028
-0.044007316 0.044711363 -0.011518216 0.041028384 -0.039504584 -0.016279396 0.028940981 -0.05454934
-0.009013373 -0.047780886 -0.013212921 0.02369372 -0.0042659435 -0.047703043 -0.028738119 0.06994057
0.054889675 -0.020482508 -0.055918302 -0.04769538 0.012889048 0.025615316 0.046946082 -0.041607067
0.035300862 0.07073829 -0.007242122 -0.003923531 0.062211253 -0.05158082 -0.03435441 -0.05206468
-0.021988768 -0.045032255 -0.004799006 0.043682624 -0.0826596 0.021146305 0.06334518 0.06795218
0.020204062 0.033077948 -0.020853914 -0.008245057 0.06018713 0.053210977 0.0157915 0.053190816
-0.04643607 0.050624143 -0.031241398 -0.049194716 -0.06651438 -0.05223923 -0.003768517 0.0169078
-0.020803833 -0.04898552 -0.049110323 0.05858241 -0.038181245 -0.04910907 -0.008531611 -0.055184864
0.0051916093 -0.006062734 0.031261865 0.005865205 0.030164937 -0.0051365197 0.045559887 0.06588661
-0.00059397484 0.03926026 0.006291567 -0.03395019 -0.04346529 0.025491122 -0.08369779 -0.037335385
0.03491061 -0.036316298 0.041406207 0.023909975 -0.008389795 -0.012666667 0.018298835 -0.06484962
0.02575976 -0.02679218 -0.009150632 -0.010791941 0.0052593118 0.029861338 -0.0512538 -0.012851611
-0.048430547 -0.032297663 -0.02808767 -0.04491913 0.05178747 -0.051383775 0.0474459 0.06780767
-0.011761361 -0.018166175 0.06517482 0.013936575 0.019729016 -0.0024139252 0.050784074 -0.029547825
-0.015432641 0.02576408 -0.0070696226 -0.06037202 -0.047676772 -0.05476014 -0.033452675 0.028953867
-0.035469163 -0.03643181 -0.005569978 0.0062652146 0.016862947 0.020279702 0.039864052 0.053665612
-0.038478624 -0.05018794 0.035535872 0.054733817 0.021876212 0.019633885 0.0629446 0.020129438
0.03536085 -0.017853308 -0.021630684 -0.0424944 -0.031422634 0.051576708 0.02828576 -0.032769796
-0.053563595 0.025384616 -0.038089894 -0.050646655 -0.0162143 0.06566673 0.08536058 -0.033431213
0.0034867143 0.048955254 -0.013884027 -0.04396737 0.011960567 -0.0015256366 0.016897146 -0.08444383
0.002031385 0.0295005 -0.02018405 0.016926562 0.074354954 0.012484721 0.0018134653 -0.02352629
0.0041065314 -0.048671722 -0.009401777 0.013842727 -0.0075181667 0.031651396 0.018950734 0.039898355
0.062979326 -0.019590113 -0.010730894 -0.036418397 0.06371459 0.0012510393 -0.028429719 -0.02341799
-0.0047663585 -0.008827089 -0.033358004 0.004787637 -0.023114614 -0.021884946 0.024469735 -0.0027122782
-0.0426322 0.018879056 0.043330606 0.025808275 -0.005388735 -0.020833012 -0.07083385 0.001265645
0.002902287 0.01554193 -0.060267232 0.06726941 -0.010769926 0.01883188 0.039443746 -0.034899104
0.026726382 -0.027395857 -0.0157202 -0.025270158 0.050918814 -0.04773205 0.064576045 -0.03528748
0.0039520073 -0.051777802 0.03020387 -0.031430755 -0.004740282 0.05519771 0.003557024 -0.039366122
-0.043806862 0.033364896 0.020777566 -0.04054322 0.03634814 -0.032377407 0.0546494 0.02624549
00000000: 59ff 843d e99a c13c 6cf5 7d3d 8413 1c3d
00000010: 01ce 273c 4570 f6bb 0f84 58bb 9b5e f1bb
00000020: 1692 80bc 6402 fabc 7e6a cf3c 4f4a 10bd
00000030: c48e 2639 d64b 5cbd 4cf0 a2bb e595 763d
00000040: 487d 5f3d 926d df3c 9d41 643d 3880 833d
00000050: cf98 323d 175d 27bd a473 ff3c a15b 933c
00000060: 0441 34bd 4323 373d e6b6 3cbc 610d 283d
00000070: 8fcf 21bd 5e5c 85bc a315 ed3c 216f 5fbd
00000080: d4ac 13bc e4b5 43bd 027b 58bc 5519 c23c
00000090: 54c9 8bbb 4464 43bd 346c ebbc 003d 8f3d
000000a0: ffd3 603d efca a7bc 970a 65bd 3b5c 43bd
000000b0: 962c 533c 36d7 d13c 894a 403d 2c6c 2abd
000000c0: a397 103d 3ddf 903d 534f edbb f790 80bb
000000d0: 3ad1 7e3d 6946 53bd 36b7 0cbd c641 55bd
000000e0: ca21 b4bc be73 38bd fb40 9dbb 8dec 323d
000000f0: 7049 a9bd 043b ad3c 1ebb 813d 832a 8b3d
00000100: fd82 a53c be7c 073d d4d5 aabc 4716 07bc
00000110: c886 763d c1f3 593d 2d5d 813c 9dde 593d
00000120: c033 3ebd 435b 4f3d f6ed ffbc 6680 49bd
00000130: b138 88bd cef8 55bd 39f9 76bb 3a82 8a3c
00000140: cd6c aabc 0aa5 48bd e827 49bd 1cf4 6f3d
00000150: f063 1cbd 9826 49bd 2cc8 0bbc 8609 62bd
00000160: 601e aa3b e6a9 c6bb 710c 003d e830 c03b
00000170: 751c f73c 4050 a8bb 019d 3a3d 8fef 863d
00000180: fab4 1bba 5ecf 203d 7d29 ce3b 5b0f 0bbd
00000190: a908 32bd c2d2 d03c bf69 abbd fdec 18bd
000001a0: 6efe 0e3d 66c0 14bd 8e99 293d dade c33c
000001b0: 5a75 09bc da87 4fbc 70e7 953c e1cf 84bd
000001c0: 2206 d33c 467b dbbc 88ec 15bc aed0 30bc
000001d0: 4e56 ac3b c49f f43c 81ef 51bd 908f 52bc
000001e0: 1c5f 46bd 8e4a 04bd 1d18 e6bc 1ffd 37bd
000001f0: 191f 543d cb77 52bd a256 423d bfde 8a3d
00000200: b9b2 40bc 3bd1 94bc 607a 853d 3b56 643c
00000210: bf9e a13c f232 1ebb f602 503d 480e f2bc
00000220: 30d9 7cbc 310f d33c 4ba8 e7bb a748 77bd
00000230: b848 43bd 2b4c 60bd ac05 09bd a930 ed3c
00000240: 1d48 11bd 8639 15bd 5d84 b6bb 6e4c cd3b
00000250: 2a24 8a3c 9e21 a63c 7d48 233d 79d0 5b3d
00000260: c39b 1dbd df91 4dbd 108e 113d 9130 603d
00000270: be35 b33c 3ed7 a03c 19e9 803d 7ee6 a43c
00000280: 8ad6 103d 1a41 92bc d532 b1bc 9c0e 2ebd
00000290: 05b5 00bd 1942 533d 8ab7 e73c 9f39 06bd
000002a0: 8065 5bbd 66f3 cf3c 2604 1cbd de72 4fbd
000002b0: dad3 84bc 477c 863d 87d1 ae3d 2bef 08bd
000002c0: 5c81 643b 4e85 483d d479 63bc 2117 34bd
000002d0: 41f6 433c dff7 c7ba e26b 8a3c e3f0 acbd
000002e0: fc20 053b 08ab f13c 0559 a5bc 93a9 8a3c
000002f0: 6947 983d b78c 4c3c ccb1 ed3a 35ba c0bc
00000300: 1590 863b 005c 47bd e909 1abc 9bcc 623c
00000310: f45a f6bb e5a4 013d 923e 9b3c 756c 233d
00000320: 4efb 803d 727b a0bc a2d0 2fbc 752b 15bd
00000330: cc7c 823d eaf9 a33a 71e5 e8bc 16d7 bfbc
00000340: 1d2f 9cbb 7f9f 10bc 67a2 08bd 9ce1 9c3b
00000350: dc5a bdbc 0f48 b3bc c174 c83c 7ac0 31bb
00000360: 1a9f 2ebd 40a8 9a3c 6f7b 313d e06b d33c
00000370: fc93 b0bb fea9 aabc 5611 91bd 00e4 a53a
00000380: 4c34 3e3b 94a3 7e3c c6da 76bd 8bc4 893d
00000390: 5874 30bc 5145 9a3c c48f 213d 5df2 0ebd
000003a0: 49f1 da3c 476d e0bc a6c7 80bc 5d03 cfbc
000003b0: 3f90 503d af82 43bd 7240 843d 9b89 10bd
000003c0: d77f 813b f614 54bd 1b6e f73c 89bd 00bd
000003d0: 5e54 9bbb fe16 623d f61c 693b 5f3e 21bd
000003e0: d36e 33bd a1a9 083d b735 aa3c a610 26bd
000003f0: cae1 143d 2c9e 04bd 0dd8 5f3d c800 d73c

6.bias f4 [157]
0.1396247 -0.12373094 -0.15378474 -0.04663474 -0.2115731 0.0031743965 -0.2161028 0.0203592
0.20801635 -0.017584017 -0.1025587 0.028119575 -0.20550162 -0.020739013 0.14432646 -0.086631745
-0.20095658 0.0062486846 0.04734344 -0.1431188 0.0121079 -0.048534792 0.013395728 0.014363084
-0.052776996 0.16064171 -0.06442006 -0.113900505 -0.005458774 0.07185893 -0.16644257 -0.026565203
-0.054671533 -0.15803769 0.13785708 -0.08963796 -0.13221776 -0.058605723 -0.13690834 -0.04665785
0.002643906 -0.06488004 -0.054805554 0.029883912 0.04917048 0.13477547 -0.18507189 0.24229273
0.18087205 0.16832966 0.039549008 0.20128167 -0.08028081 -0.010512187 -0.14144377 0.21926217
-0.12317853 -0.09106288 0.14458084 0.009884797 0.013708166 -0.044466816 0.12987918 -0.11780512
0.17496009 -0.009493927 -0.09549722 -0.07544347 -0.02838036 0.16412765 0.038930044 0.029691864
-0.015127199 0.1418795 -0.086023636 0.13607407 -0.17280726 0.082055524 -0.100965895 0.1507078
0.25129545 0.081198044 0.041860554 -0.22393374 -0.103415444 0.076446906 -0.008158753 0.059079003
-0.063048884 -0.036565885 0.08188764 -0.033868194 0.07572284 0.16691302 0.05155755 -0.13047291
-0.09316525 0.01646202 -0.028697498 0.021911258 0.006456116 0.012480846 0.13799292 -0.22097313
-0.01945513 0.054023504 -0.19169305 -0.016062729 0.032293655 -0.23342977 0.07191794 0.050383657
-0.06956413 -0.1806391 0.11512499 -0.06769057 0.013538459 -0.13538648 -0.02304147 0.041089006
0.14256579 -0.16983046 -0.059182562 0.06097013 -0.18508199 -0.08907508 0.054925457 0.06448277
0.0048896796 0.12938756 0.09962783 0.043785315 0.006211765 -0.094404094 -0.1346953 -0.12975249
-0.09413009 0.15173016 -0.1660718 0.13893148 0.21917684 0.03571687 0.045502976 -0.05462478
0.075550504 0.089368835 -0.018549146 -0.08905135 0.06679885 -0.08503799 0.20727825 0.06769487
-0.09714336 -0.08273082 0.054421723 -0.00792613 -0.010860501
00000000: c7f9 0e3e a666 fdbd bf79 1dbe 1204 3fbd
00000010: 9ea6 58be 8909 503b 0d4a 5dbe 56c8 a63c
00000020: 3d02 553e 5b0c 90bc 4c0a d2bd 065b e63c
00000030: 046f 52be dde4 a9bc 51ca 133e fc6b b1bd
00000040: 90c7 4dbe c4c1 cc3b 32eb 413d bc8d 12be
00000050: 3760 463c 6bcc 46bd c179 5b3c 2453 6b3c
00000060: b12c 58bd 437f 243e aaee 83bd ab44 e9bd
00000070: 84df b2bb c62a 933d ec6f 2abe 459f d9bc
00000080: 42ef 5fbd a2d4 21be 682a 0d3e 1b94 b7bd
00000090: 1864 07be 8e0c 70bd b331 0cbe 4d1c 3fbd
000000a0: 6245 2d3b d4df 84bd ca7b 60bd 1bcf f43c
000000b0: fc66 493d 9502 0a3e 7c83 3dbe 961b 783e
000000c0: 8636 393e 9c5e 2c3e 24fe 213d c81c 4e3e
000000d0: 446a a4bd 4f3b 2cbc a3d6 10be 4386 603e
000000e0: 0645 fcbd 2d7f babd 000d 143e d8f3 213c
000000f0: 3798 603c d622 36bd 0cff 043e d043 f1bd
00000100: bd28 333e 6a8c 1bbc 0c94 c3bd 1b82 9abd
00000110: ee7d e8bc 1411 283e 1c75 1f3d 5a3c f33c
00000120: 12d8 77bc dc48 113e 292d b0bd 0057 0b3e
00000130: 63f4 30be ba0c a83d 35c7 cebd 2553 1a3e
00000140: cca9 803e 294b a63d f975 2b3d e34e 65be
00000150: 7acb d3bd 3290 9c3d 4aac 05bc d3fc 713d
00000160: c61f 81bd 1cc6 15bd b5b4 a73d 60b9 0abd
00000170: 9414 9b3d 3feb 2a3e 022e 533d b19a 05be
00000180: 6ccd bebd 5cdb 863c 0417 ebbc 3d7f b33c
00000190: d48d d33b 767c 4c3c 044e 0d3e c846 62be
000001a0: 5d60 9fbc c047 5d3d 2f4b 44be fc95 83bc
000001b0: 5a46 043d 3708 6fbe b749 933d 185f 4e3d
000001c0: a377 8ebd 75f9 38be a7c6 eb3d 5ba1 8abd
000001d0: 6ad0 5d3c c1a2 0abe 77c1 bcbc f24c 283d
000001e0: c4fc 113e 09e8 2dbe 6a69 72bd d1bb 793d
000001f0: 2286 3dbe ff6c b6bd 84f9 603d 8b0f 843d
00000200: 9b39 a03b 2c7e 043e ad09 cc3d 3b58 333d
00000210: 108c cb3b ef56 c1bd 91ed 09be d6dd 04be
00000220: 47c7 c0bd 275f 1b3e ba0e 2abe 0e44 0e3e
00000230: e56f 603e da4b 123d 5461 3a3d 3cbe 5fbd
00000240: 39ba 9a3d 0207 b73d 61f4 97bc 8e60 b6bd
00000250: d6cd 883d 6628 aebd c040 543e 9ca3 8a3d
00000260: 19f3 c6bd c76e a9bd 50e9 5e3d 99dc 01bc
00000270: 3ef0 31bc
