pav_spkid_pytorch/lpcc_model_hsize_175_lr000125/e13_weights.ckpt (torch_old, 755742 bytes, 8 tensors)

0.weight f4 [175, 567]
0	0xbb315bb9	-0.0027062728
1	0x3b891cec	0.004184356
2	0xbe757d26	-0.23973522
3	0x3ddce58f	0.10785972
4	0x3de3db19	0.11125774
5	0xbc41835d	-0.011811105
6	0xbd7a87e5	-0.061164755
7	0xbf1947bd	-0.5987509
8	0x3da653c4	0.08121446
9	0xbf0aaffa	-0.5417477
10	0xbe0a94c8	-0.13533318
11	0x3e46e854	0.19424564
12	0xbeac7d2f	-0.33689258
13	0xbdb749ec	-0.08949646
14	0x3d38369e	0.044973962
15	0x3e917f23	0.2841731
16	0xbed3ff0b	-0.4140552
17	0xbef153d8	-0.4713428
18	0xbe8dff4d	-0.27733842
19	0xbe930efa	-0.28722364
20	0x3e969fcc	0.2941879
21	0xbcd44e17	-0.025916142
22	0x3efb0439	0.4902666
23	0xbe42dc1d	-0.19029279
24	0x3df52375	0.119696535
25	0x3e72307f	0.23651312
26	0x3e09fda7	0.13475667
27	0x3b1a75a3	0.0023568652
28	0xbd9c1364	-0.07620886
29	0xbd8c6bc0	-0.06856489
30	0x3d67233e	0.056430094
31	0x3d8107e3	0.063003324
32	0x3c6667bf	0.014062821
33	0xbd9254bb	-0.07145067
34	0xbe94ff1e	-0.2910089
35	0x3e0636db	0.13106863
36	0xbeb9a19e	-0.36256117
37	0xbdafd981	-0.085864075
38	0x3e12b1ec	0.14325684
39	0xbe34f6bc	-0.17672247
40	0xbdc73e4e	-0.097286806
41	0xbc01a765	-0.007913445
42	0x3e59463c	0.21218199
43	0xbe9f2c1f	-0.3108835
44	0xbea2fe64	-0.3183471
45	0xbe3de4c7	-0.18544303
46	0xbe43414f	-0.19067882
47	0x3e8ef8d3	0.27924213
48	0xbdbe8ff6	-0.09304802
49	0x3ea83ac8	0.32857347
50	0xbe6ccdc5	-0.2312537
51	0x3da73270	0.08163917
52	0x3e451791	0.19247271
53	0x3e13035b	0.14356749
54	0xbc001921	-0.007818491
55	0xbd3c874e	-0.046027474
56	0xbdb9c645	-0.0907102
57	0x3c34619e	0.011009602
58	0x3da46e88	0.08028895
59	0x3d1eeda7	0.03880086
60	0xbd9c4a59	-0.07631368
61	0xbe8f8971	-0.28034547
62	0x3e0910bc	0.1338529
63	0xbecfc002	-0.40576178
64	0xbd9d7405	-0.076881446
65	0x3db0767b	0.08616348
66	0xbe1410dd	-0.14459558
67	0xbd4c0671	-0.04981083
68	0xbc63116e	-0.013859136
69	0x3e18795c	0.14890045
70	0xbe8028d1	-0.2503114
71	0xbe84f59d	-0.25968638
72	0xbdeec1de	-0.11658071
73	0xbe01fe3b	-0.12694637
74	0x3ea1e118	0.31617045
75	0xbd1dfff3	-0.03857417
76	0x3ebeb705	0.37249008
77	0xbe49bb04	-0.19700247
78	0x3d2ea595	0.04263838
79	0x3e373cdb	0.17894308
80	0x3e24336f	0.16035245
81	0xbcaeb24c	-0.021325253
82	0xbd9d52a4	-0.07681778
83	0xbdd2fa24	-0.10301617
84	0x3d25eb06	0.04050734
85	0x3d1d39dc	0.038385257
86	0x3d1d2765	0.038367648
87	0xbd9222ff	-0.07135581
88	0xbe4d2ff8	-0.2003783
89	0x3e21bf3b	0.15795605
90	0xbec9faf5	-0.39449278
91	0xbdfcedf9	-0.12350077
92	0x3d8562e4	0.065130025
93	0xbd87e69e	-0.066357836
94	0xbc9c91b7	-0.019112451
95	0xbc5e77d9	-0.013578379
96	0x3e4986ec	0.19680375
97	0xbebf0a66	-0.3731262
98	0xbe800c9b	-0.25009617
99	0xbd9c0a56	-0.07619159
100	0xbe0a316e	-0.13495418
101	0x3eb35e7d	0.35033026
102	0xbdaf92a7	-0.085728936
103	0x3ed14c39	0.40878466
104	0xbe339a39	-0.175393
105	0x3d4b67d3	0.04965956
106	0x3e485428	0.19563353
107	0x3e11c622	0.14235738
108	0xbbff5fa4	-0.0077933837
109	0xbd605982	-0.05477286
110	0xbdfd445e	-0.12366556
111	0x3c8d50ef	0.017250506
112	0x3dbca78f	0.09211647
113	0x3d80abc7	0.06282764
114	0xbc80942c	-0.015695654
115	0xbe50caa3	-0.203898
116	0x3e26ce75	0.16289695
117	0xbeb49dc9	-0.3527663
118	0xbd77ed66	-0.060529135
119	0x3d194b78	0.03742549
120	0xbd8863a4	-0.0665963
121	0x3d509ad6	0.050928913
122	0xbaa15032	-0.0012307225
123	0x3e0e975c	0.13924927
124	0xbeb0ec95	-0.34555498
125	0xbe8fb195	-0.28065172
126	0xbe0efd55	-0.13963826
127	0xbde6918c	-0.112582296
128	0x3e95dc89	0.29269817
129	0xbdeaba73	-0.114613436
130	0x3ec406b3	0.3828636
131	0xbe34cca9	-0.17656197
132	0x3d9fa6a5	0.07795457
133	0x3e50d5da	0.20394078
134	0x3dcacacb	0.09901961
135	0xb9cab430	-0.00038662693
136	0xbd5c5e40	-0.05380082
137	0xbe17cf79	-0.14825238
138	0x3d348f06	0.04408171
139	0x3dcbd2f8	0.099523485
140	0x3da4eaeb	0.080526195
141	0xbd7b1d1c	-0.061307058
142	0xbe3d675a	-0.18496457
143	0x3e4ce9c7	0.20011054
144	0xbe9951ae	-0.2994513
145	0xbce87b0e	-0.02837899
146	0x3d1ce507	0.038304355
147	0xbdde914b	-0.10867556
148	0x3c4b9860	0.012426466
149	0xbb6c5d61	-0.00360664
150	0x3da59731	0.08085478
151	0xbeb21728	-0.34783292
152	0xbe95349c	-0.291417
153	0xbe19a75d	-0.1500525
154	0xbdd91a09	-0.10600669
155	0x3ea5a3d2	0.32351547
156	0xbe1885f8	-0.14894855
157	0x3eecb415	0.46231142
158	0xbe0ea4e4	-0.13930088
159	0x3d86020a	0.06543358
160	0x3e80d34f	0.25161216
161	0x3dd2a6ce	0.10285722
162	0x3c5a6554	0.013329823
163	0xbd5c209c	-0.053742036
164	0xbe169deb	-0.14708678
165	0x3c9e2f44	0.019309647
166	0x3d64ccdf	0.055859443
167	0x3c85cd38	0.016333207
168	0x3cad2c7d	0.021139378
169	0xbe28851a	-0.16457024
170	0x3e263fbd	0.16235252
171	0xbeae67bf	-0.34063527
172	0xbd4c4298	-0.049868196
173	0x3b7310ec	0.0037088944
174	0xbdc27592	-0.09495081
175	0x3cd70da3	0.02625162
176	0xbd8361f9	-0.06415171
177	0x3dc398fb	0.09550663
178	0xbed59784	-0.4171716
179	0xbe98aec1	-0.29820827
180	0xbe055ee4	-0.13024479
181	0xbd4ed3f4	-0.050495103
182	0x3eb78d8e	0.35850185
183	0xbe21b448	-0.15791428
184	0x3f09fa0f	0.53897184
185	0xbe474c09	-0.19462599
186	0x3df9d4c1	0.12198783
187	0x3e8a8ecb	0.27062067
188	0x3d8f1892	0.06987108
189	0x3d4fda99	0.05074558
190	0xbd23e31a	-0.040011503
191	0xbdf57171	-0.11984528
192	0xbcf832d6	-0.030297678
193	0x3dc71ad5	0.09721915
194	0x3d6a3a79	0.05718467
195	0x3d04088b	0.03223471
196	0xbe17b551	-0.1481526
197	0x3e36e057	0.17859016
198	0xbebdc9c8	-0.3706801
199	0xbbdb2cf8	-0.0066887103
200	0x3cf5e9e8	0.030018762
201	0xbd852779	-0.065016694
202	0xba9fbd8d	-0.0012187228
203	0x3c223c4b	0.00990207
204	0x3dd7501c	0.105133265
205	0xbec322cb	-0.38112482
206	0xbe3e925e	-0.18610522
207	0xbda6d545	-0.08146147
208	0xbd8a1bc7	-0.06743579
209	0x3e9027d3	0.28155383
210	0xbe1b77bc	-0.15182394
211	0x3f0d843a	0.55279887
212	0xbddd8556	-0.108164474
213	0x3d092253	0.03348
214	0x3ea20480	0.31644058
215	0x3d34c1eb	0.044130247
216	0x3caf81b2	0.021424148
217	0xbb95f881	-0.004576743
218	0xbdf284a4	-0.118417054
219	0xbcacba22	-0.021084849
220	0x3d1e09ba	0.038583495
221	0x3db09941	0.08622981
222	0xba964a5c	-0.0011466253
223	0xbde45142	-0.11148311
224	0x3e198b03	0.14994435
225	0xbea6cda7	-0.32578775
226	0x36a92200	5.0405506e-06
227	0x3d585ef6	0.052824937
228	0xbd4150bc	-0.047196135
229	0x3c9bbdc1	0.01901138
230	0xbc9ebea8	-0.019378021
231	0x3dfb4243	0.12268498
232	0xbeb50252	-0.35353333
233	0xbe601691	-0.21883608
234	0xbd8edc28	-0.06975585
235	0xbd5ba94b	-0.053628247
236	0x3e76b0ca	0.24090877
237	0xbe40640c	-0.18788165
238	0x3f1b0171	0.60549074
239	0xbd897352	-0.06711449
240	0x3d38359e	0.04497301
241	0x3e64ffff	0.2236328
242	0x3c2d79e4	0.010588143
243	0x3d18bb43	0.03728796
244	0xbd4a32ca	-0.049364842
245	0xbdffa74f	-0.124830835
246	0xbd3ab682	-0.04558421
247	0x3d1de3a3	0.03854717
248	0x3dce1aa3	0.10063674
249	0x3ca1a4d3	0.019731915
250	0xbdb31b97	-0.08745497
251	0x3e445a37	0.19175039
252	0xbea998da	-0.3312443
253	0xbc134607	-0.008988864
254	0x3d34a214	0.044099882
255	0xbd72da8a	-0.059290446

0.bias f4 [175]
0	0xbf1d4816	-0.6143812
1	0x3e045924	0.1292463
2	0xbf531d58	-0.8246665
3	0x3e86969b	0.26286778
4	0xbcdd638e	-0.02702501
5	0xbe07f912	-0.13278607
6	0xbc3fd95d	-0.011709538
7	0xbd5302b8	-0.051516265
8	0x3f29ef31	0.663806
9	0x3edadaae	0.42744964
10	0xbaab1075	-0.0013051169
11	0xbd9d50c9	-0.07681424
12	0xbce4e8db	-0.027943065
13	0x3d134987	0.035958793
14	0x3c050cb0	0.008120701
15	0x3d08c8b9	0.03339455
16	0xbdacf0c2	-0.084443584
17	0x3b46056b	0.0030215632
18	0x3c98984c	0.018627308
19	0xbc02bf82	-0.007980229
20	0xbcc4ef14	-0.024039783
21	0xbd391e21	-0.04519475
22	0xbcc58de0	-0.024115503
23	0xbda75d8a	-0.08172138
24	0xbc1f399c	-0.009718325
25	0x3c2f760a	0.010709295
26	0xbcb40447	-0.021974696
27	0xbf26fb19	-0.65226895
28	0xbe58615b	-0.21130888
29	0x3c990f6e	0.018684115
30	0xbc63b27b	-0.0138975335
31	0xbecd53ef	-0.401031
32	0xba702b80	-0.00091617554
33	0xbca9687e	-0.020679709
34	0x3e465565	0.19368513
35	0x3e00efe4	0.12591511
36	0x3cc212fc	0.023690693
37	0xbba197ca	-0.0049314247
38	0xbce04bc9	-0.027379887
39	0x3e0841eb	0.13306396
40	0xbecc41f2	-0.39894062
41	0x3dfe4aaa	0.12416585
42	0x3eb4f13c	0.35340297
43	0x3bbefab3	0.0058282255
44	0xbf1a645c	-0.60309386
45	0xbef82e33	-0.48472747
46	0x3e798663	0.2436767
47	0x3cf1ec52	0.029531632
48	0xbe4ea3fd	-0.20179744
49	0x3ccf2523	0.025286263
50	0x3eae49c6	0.3404066
51	0x3e7bfdc3	0.24608521
52	0xbd0c0ce6	-0.03419199
53	0xbd8e657e	-0.06952952
54	0x3ea5c8dd	0.3237981
55	0x3d4e6b6d	0.050395418
56	0x3e3d3311	0.18476512
57	0x3da431ff	0.080173485
58	0xbd285cd4	-0.041104153
59	0x3cbb89ec	0.022892915
60	0x3e829825	0.25506702
61	0xbe110e22	-0.14165547
62	0xbcc4ae29	-0.024008827
63	0xbc9dc0b1	-0.019256921
64	0xbd1048c9	-0.035225663
65	0xbead4c47	-0.33847257
66	0x3d73f25d	0.059557308
67	0x3d8c7460	0.06858134
68	0xbe9de070	-0.30835295
69	0xbece0c05	-0.40243545
70	0x3ca9e526	0.02073915
71	0xbcb834fa	-0.022486199
72	0x3d268f32	0.040663905
73	0xbce5329f	-0.02797824
74	0x3e9ab6cf	0.30217597
75	0x3ca96a37	0.02068053
76	0x3c16393c	0.009168919
77	0x3e079dd6	0.13243803
78	0xbda71718	-0.08158702
79	0x3e35dfe5	0.1776119
80	0xbf4d9308	-0.80302477
81	0xbe27cffc	-0.16387933
82	0x3d67bd92	0.056577273
83	0x3d6f659c	0.05844651
84	0xbc169e01	-0.0091929445
85	0xbce9f704	-0.028560169
86	0xbd35dd94	-0.044400766
87	0xbf027f34	-0.50975347
88	0xbd282505	-0.04105093
89	0xbc1eb59d	-0.009686855
90	0x3d82787d	0.063706376
91	0x3e47e18f	0.19519638
92	0xbd85d35e	-0.06534456
93	0xbb73560c	-0.0037130145
94	0xba76396a	-0.00093927106
95	0xbe2e2d3f	-0.17009448
96	0x3c9d9144	0.019234307
97	0x3c7d7756	0.015470346
98	0x3de8f866	0.11375503
99	0x3bfedad0	0.0077775493
100	0xbeeb1e72	-0.45921665
101	0xbc8e4ab6	-0.01736961
102	0x3b36b40c	0.0027878312
103	0xbf1682d9	-0.5879341
104	0xbd37e4f4	-0.04489608
105	0xbc15de54	-0.009147245
106	0xbe043311	-0.12910105
107	0xbd80463a	-0.06263395
108	0xbca50017	-0.020141644
109	0xbd5c76c9	-0.05382422
110	0x3cc903a2	0.024537865
111	0xbf59522b	-0.84891003
112	0x3ea9be22	0.33152872
113	0x3bc3359c	0.0059573185
114	0x3cc39a8e	0.023877408
115	0xbc994511	-0.018709691
116	0x3cab1f22	0.020888869
117	0x3cbebde5	0.023283908
118	0xbebf1db8	-0.3732736
119	0x3dd4bb83	0.103873275
120	0xbc3a2026	-0.011360204
121	0xbbeb2094	-0.0071755145
122	0xbe860b6c	-0.2618059
123	0xbe2e5718	-0.17025411
124	0x3dcea5ae	0.10090195
125	0x3efbbc21	0.49166968
126	0x3cb580bb	0.02215611
127	0xbd8e024c	-0.06934032
128	0x3f1174e1	0.5681897
129	0xbeee1a5f	-0.46504495
130	0x3b68d11d	0.0035525032
131	0xbce0f670	-0.02746126
132	0x3e06aafa	0.1315116
133	0xbc61c722	-0.013780387
134	0xbd529c1f	-0.05141842
135	0x3d38d99e	0.04512941
136	0x3e0dfd31	0.13866116
137	0x3e031e73	0.12804584
138	0xbe102eaf	-0.14080308
139	0xbebf291c	-0.3733605
140	0xbef194a8	-0.47183728
141	0x3eb5019b	0.35352787
142	0x3c654f1b	0.013995911
143	0xbd36bed1	-0.04461557
144	0x3ec6afa6	0.38805884
145	0xbe2d214f	-0.16907237
146	0xbe701b0b	-0.23447816
147	0x3c5e024c	0.013550352
148	0xbd43016d	-0.04760878
149	0xbd6996af	-0.05702847
150	0xbdc5f46d	-0.09665761
151	0xbee01aef	-0.4377055
152	0x3ef28508	0.4736712
153	0x3d0913c8	0.03346613
154	0xbb92efe1	-0.004484162
155	0xbe0157dc	-0.12631172
156	0x3e8ba0c7	0.272711
157	0xbc50ca80	-0.012743592
158	0xbf16f88b	-0.58972996
159	0x3e162326	0.14661846
160	0x3cbee738	0.023303613
161	0xbd6eae27	-0.058271553
162	0x3d180aae	0.03711956
163	0x3d9d3358	0.07675809
164	0xbccdfd6d	-0.025145257
165	0xbcc3e51e	-0.023912963
166	0x3df93144	0.121676
167	0xbc4a6593	-0.012353319
168	0xbce4e9d4	-0.02794353
169	0xbe90ec12	-0.28305107
170	0x3f243fb2	0.6415969
171	0xbe97be01	-0.2963715
172	0xbc938e24	-0.018012114
173	0xbd85e599	-0.06537933
174	0x3e2cf806	0.16891488

2.weight f4 [175, 175]
0	0x3eac1e95	0.33617082
1	0xbe58af11	-0.21160533
2	0x3e2f4a80	0.17118263
3	0xbdc97e65	-0.09838561
4	0x3cad6bf0	0.021169633
5	0x3e0b02ee	0.13575336
6	0xbd992d11	-0.07479299
7	0xbe628261	-0.22120048
8	0x3dc83c44	0.0977712
9	0x3e14ae27	0.14519559
10	0xbd2bdd0c	-0.041958854
11	0xbd359bf6	-0.04433819
12	0x3e3c5e12	0.1839526
13	0x3d9de1f5	0.077091135
14	0x3d975535	0.07389299
15	0xbe218d54	-0.15776569
16	0x3e3e2911	0.18570353
17	0xbd922d6b	-0.07137569
18	0x3e33d44f	0.17561458
19	0x3b1ef0d7	0.0024252438
20	0x3d5819ae	0.052758865
21	0x3d8f1d3f	0.06988
22	0x3d8bc9e6	0.068256184
23	0x3df76dbe	0.120814785
24	0x3ce53b6a	0.027982432
25	0xbe3cc9a9	-0.18436302
26	0xbccce684	-0.025012262
27	0x3e3fd6c4	0.1873427
28	0x3c7b37d0	0.015333131
29	0x3c458c52	0.012057381
30	0x3d657160	0.056016326
31	0xbd486e02	-0.048933037
32	0xbd26630c	-0.040621802
33	0x3d7d8b84	0.06190063
34	0x3d746051	0.059662167
35	0xbde61b61	-0.11235691
36	0x3cde83d7	0.027162476
37	0xbd2f120a	-0.042741813
38	0x3be4dd11	0.006984361
39	0x3d7277e8	0.059196383
40	0xbc5a5a54	-0.0133272
41	0x3dd07284	0.10178092
42	0x3e1c467a	0.1526126
43	0xbd3decda	-0.046368457
44	0xbaaeb0eb	-0.0013327872
45	0xbdec9640	-0.115520954
46	0xbe1ef6dc	-0.15523857
47	0x3d3c1f51	0.045928303
48	0x3e699a78	0.22812831
49	0x3d0d38ff	0.034478184
50	0x3e1c090b	0.15237825
51	0xbd0179b9	-0.031610224
52	0x3d911160	0.07083392
53	0x3d8e7e21	0.06957651
54	0x3d9eee41	0.07760287
55	0xbe060b72	-0.13090304
56	0x3e296ef5	0.16546233
57	0x3e79d52a	0.24397722
58	0x3c8c9444	0.017160542
59	0xbc96b356	-0.01839606
60	0x3e1bbac8	0.1520797
61	0x3df78e5f	0.12087702
62	0xbd2822cb	-0.041048806
63	0xbd843ed0	-0.06457293
64	0x3d88adb3	0.066737555
65	0xbeaa0386	-0.33205813
66	0x3cc0d631	0.023539634
67	0x3dd2ea23	0.10298564
68	0xbe2f1491	-0.17097689
69	0x3e04a707	0.12954341
70	0x3da7179c	0.081588
71	0x3c9ae11d	0.01890617
72	0xbd8fe263	-0.07025602
73	0xbd4f6f6a	-0.050643362
74	0xbe49d2cd	-0.1970932
75	0xbd2aadc0	-0.041669607
76	0xbd909105	-0.0705891
77	0x3c96c14a	0.018402714
78	0xbd6ce847	-0.057838704
79	0x3dcf0118	0.101076305
80	0xbbf975e3	-0.00761293
81	0xbe0951cd	-0.13410111
82	0x3e1e5c48	0.1546489
83	0xbe8fda94	-0.2809645
84	0xbd53f9ee	-0.051752023
85	0xbd5baa42	-0.053629167
86	0x3d82bcdf	0.063836806
87	0x3d60d22d	0.05488794
88	0x3cdd40ba	0.027008403
89	0x3d6c94ab	0.05775897
90	0xbd24c159	-0.040223453
91	0x3df0a1f9	0.11749644
92	0x3cea90d3	0.02863351
93	0xbd5f179d	-0.05446588
94	0x3cec023c	0.02880966
95	0x3c708b8d	0.014681709
96	0x3b362a94	0.0027796375
97	0xbcf54e2a	-0.029944498
98	0x3dd45d19	0.103693195
99	0xbc15f618	-0.009152912
100	0xbe1938a8	-0.14963019
101	0x3d3c377b	0.045951348
102	0x3d93f808	0.072250426
103	0x3cd40b92	0.025884423
104	0xbd37aba4	-0.044841424
105	0x3d86ddff	0.06585311
106	0xbd52f15e	-0.051499717
107	0xbe65e809	-0.22451796
108	0xbd3a50de	-0.045487277
109	0x3e2582f9	0.16163243
110	0x3d88f4bf	0.066873066
111	0xbe33d510	-0.17561746
112	0x3d7e249f	0.062046643
113	0xbc88de60	-0.0167076
114	0xbc8f8dba	-0.017523635
115	0x3d0946a5	0.033514638
116	0x3d9904f7	0.0747165
117	0xbd54d5c4	-0.051961675
118	0x3dc110c7	0.09427028
119	0xbd5f7288	-0.054552585
120	0xbc6850ed	-0.01417945
121	0x3d7281ec	0.059205934
122	0x3e8481e3	0.25880346
123	0x3e6095f8	0.21932209
124	0x3c8eea52	0.017445717
125	0x3e4573ef	0.19282506
126	0x3d85c8f2	0.06532468
127	0xbc5eb372	-0.013592588
128	0x3e0b5846	0.13607892
129	0x3d96af37	0.07357638
130	0xbcb31aed	-0.021863425
131	0x3cda807b	0.026672592
132	0xbe07506c	-0.13214272
133	0xbd78a0b4	-0.060700133
134	0xbe592f77	-0.21209513
135	0xbd6a2366	-0.057162665
136	0xbe150569	-0.14552845
137	0xbe39a27c	-0.18128389
138	0xbd6287f0	-0.05530542
139	0xbe82989b	-0.25507054
140	0x3d4f6dc3	0.050641786
141	0xbc49a923	-0.012308392
142	0xbb3bf967	-0.002868259
143	0xbc9241c0	-0.017853618
144	0x3cb3bf6f	0.021941869
145	0xbc7491e9	-0.014927366
146	0x3e148252	0.14502838
147	0xbc2c31cb	-0.010509918
148	0xbd10140e	-0.035175376
149	0xbd9e9587	-0.07743364
150	0x3ec0f7bb	0.37689003
151	0xbe87f841	-0.2655659
152	0x3ce0e16f	0.027451245
153	0x3d6e4a6e	0.05817645
154	0xbda07a23	-0.07835796
155	0xbbd1d80a	-0.0064039277
156	0x3e351281	0.1768284
157	0x3c8a1634	0.01685629
158	0x3d0da223	0.034578454
159	0xbde24fde	-0.1105039
160	0xbe345e21	-0.17614032
161	0xbe83c438	-0.2573564
162	0x3e2dc6c4	0.16970354
163	0xbe9e9964	-0.30976403
164	0xbd65afb2	-0.05607576
165	0xbd78e9ea	-0.060769953
166	0xbe303071	-0.17205979
167	0x3ba884a5	0.0051427656
168	0xbd6686ad	-0.05628078
169	0x3e58f550	0.2118733
170	0x3e058096	0.13037333
171	0x3dda4c86	0.10659127
172	0x3b22b81b	0.0024828974
173	0x3d6edd2e	0.058316402
174	0xbd1e787e	-0.03868913
175	0xbe92b3ea	-0.2865289
176	0x3d9ed347	0.07755142
177	0xbc9630e3	-0.018333858
178	0x3e55e3f4	0.20887738
179	0xbd85ca17	-0.06532686
180	0x3ddad54a	0.10685213
181	0xbd0a7e42	-0.033811815
182	0xbd6e68b5	-0.058205325
183	0x3c3aa38c	0.011391532
184	0x3e798410	0.24366784
185	0x3c72c747	0.014818019
186	0x3d748fd3	0.059707474
187	0x3e4c83c6	0.19972143
188	0xbe6501b0	-0.22363925
189	0xbc212fb8	-0.009838037
190	0x3dd306a2	0.103039995
191	0xbd21e8c2	-0.039528616
192	0xbd7560a8	-0.05990663
193	0x3e67e87d	0.22647281
194	0x3d937bb2	0.072013274
195	0x3d2d1947	0.042260434
196	0xbc43c870	-0.0119496435
197	0x3cc6cf50	0.024268776
198	0xbd0af160	-0.0339216
199	0x3d350299	0.04419193
200	0x3e348d3f	0.17632006
201	0x3d7087c2	0.05872322
202	0xbe003693	-0.12520818
203	0x3d616bf4	0.055034593
204	0x3c7f3100	0.015575647
205	0x3d875705	0.066083945
206	0xbd165570	-0.036702573
207	0x3c6f9c90	0.01462473
208	0xbd79c473	-0.060978364
209	0xbe518f50	-0.20464826
210	0xbe446e0e	-0.19182608
211	0xbcb438ce	-0.021999743
212	0xbd25621f	-0.04037678
213	0x3c3ef430	0.0116548985
214	0xbdd33204	-0.10312274
215	0xbd3956da	-0.045248844
216	0xbe39c769	-0.18142475
217	0x3e01b61b	0.12667124
218	0xbd4ffb61	-0.050776843
219	0xbd441dab	-0.047879856
220	0x3ddce963	0.107867025
221	0x3ded916f	0.11600005
222	0x3bbbd110	0.0057317093
223	0xbd8ff0ec	-0.07028374
224	0xbee6b7c5	-0.4506208
225	0x3c45ba76	0.0120683815
226	0xbe299035	-0.16558917
227	0x3e96e0a5	0.29468265
228	0x3d06221c	0.032747373
229	0xbeaa5f39	-0.33275774
230	0x3db9b048	0.09066826
231	0x3db6c760	0.089247465
232	0x3d3768ce	0.044777684
233	0xbca177fe	-0.019710537
234	0xbc5cc8ec	-0.013475638
235	0x3e30a250	0.17249417
236	0x39807f26	0.00024508795
237	0x3c981316	0.018563788
238	0xbd3122cb	-0.04324607
239	0xbd05ee87	-0.03269818
240	0xbd37c5d5	-0.0448664
241	0x3e5461c9	0.20740427
242	0xbe3d8993	-0.18509512
243	0xbdc78e20	-0.09743905
244	0xbd74eadf	-0.059794303
245	0x3cc413f8	0.023935303
246	0xbd83842c	-0.06421694
247	0xbd56f066	-0.052475356
248	0x3d034b75	0.032054383
249	0xbe0df76e	-0.13863918
250	0xbc9f1ab6	-0.019421916
251	0x3d41fdb9	0.04736111
252	0x3de69467	0.11258774
253	0x3e274e80	0.16338539
254	0xbee10e37	-0.43956158
255	0x3d8d8b65	0.06911353

2.bias f4 [175]
0	0x3c848ae6	0.016179513
1	0x3d857fb2	0.065184966
2	0x3e29bcf0	0.1657598
3	0x3f9310f9	1.1489555
4	0xbe136640	-0.14394474
5	0xbe066713	-0.13125257
6	0xbe140e6a	-0.14458624
7	0x3ed55eae	0.41673797
8	0xbe127ef0	-0.14306235
9	0xbd4e0c0d	-0.05030446
10	0xbce41fb8	-0.027847156
11	0xbcf7f90b	-0.03027012
12	0xbdad61b2	-0.084658995
13	0xbdb02a56	-0.08601825
14	0x3ae0b400	0.0017143488
15	0xbe8eb90b	-0.27875552
16	0xbed7772f	-0.42083117
17	0x3e2ce347	0.16883574
18	0xbdb95c49	-0.09050805
19	0xbf02d1f0	-0.5110159
20	0x3c6d9b91	0.014502422
21	0x3cb2aea2	0.021811787
22	0xbd77703a	-0.060409762
23	0xbd99be6c	-0.07507023
24	0xbe01fc4f	-0.12693904
25	0x3e786d07	0.2426034
26	0xbc904d98	-0.017615125
27	0xbe892679	-0.26787165
28	0x3f2cbc1a	0.6747452
29	0x3f00d9ff	0.50332636
30	0xbf26e011	-0.6518565
31	0xbe7549f6	-0.23953995
32	0x3d00df20	0.03146279
33	0xbde52126	-0.11187963
34	0xbdbf5b38	-0.093435705
35	0xbe19214e	-0.14954111
36	0xbc286ba9	-0.010279574
37	0x3ce933ff	0.028467176
38	0xbd0165ae	-0.03159111
39	0x3d4ff9cf	0.050775345
40	0xbd5e8a46	-0.054331087
41	0xbd87ab2f	-0.066244476
42	0xbcca380c	-0.024684928
43	0x3c70af9d	0.014690307
44	0x3d40057c	0.04688023
45	0x3de6e249	0.11273629
46	0x3cb58e37	0.02216254
47	0x3d4191b2	0.047258087
48	0x3d6223f4	0.05521007
49	0xbdd7c999	-0.105364986
50	0xbe073cb0	-0.13206744
51	0xbe884849	-0.2661765
52	0xbd7138c1	-0.058892015
53	0xbe4340b1	-0.19067647
54	0xbcde0f1a	-0.02710681
55	0xbd7a2146	-0.06106689
56	0x3e4bfd74	0.19920903
57	0xbd09cf4b	-0.033644956
58	0x3f449655	0.7679189
59	0x3dad9a5c	0.08476707
60	0x3dd82e4e	0.10555707
61	0x3e4bf1ae	0.19916412
62	0xbd0c5f2f	-0.03427046
63	0xbce6c3c3	-0.028169518
64	0xbe354320	-0.17701387
65	0xbd59819c	-0.05310212
66	0x3dcf4424	0.10120419
67	0x3d5de47e	0.054172985
68	0xbcc54d58	-0.024084732
69	0xbee7095c	-0.45124328
70	0xbe02becb	-0.12768094
71	0x3ed1fcfb	0.4101332
72	0xbe48a76f	-0.19595121
73	0xbc9b0109	-0.018921392
74	0xbd6feda0	-0.058576226
75	0x3cb673d5	0.02227203
76	0x3e1ffd9b	0.15624087
77	0xbb111e49	-0.0022143296
78	0x3e140736	0.14455876
79	0x3ea0f9a8	0.31440473
80	0x3f01ad15	0.5065473
81	0xbe1e7f6d	-0.15478297
82	0xbec5cf84	-0.38634884
83	0x3cbc20c7	0.022964848
84	0xbdc23121	-0.09482027
85	0xbee6f86f	-0.45111415
86	0xbd58b1f7	-0.052904096
87	0xbd85e920	-0.06538606
88	0xbec375a6	-0.38175696
89	0x3e74cc40	0.2390604
90	0x3d1ce0c4	0.03830029
91	0xbdb9f63e	-0.0908017
92	0xbe958f01	-0.29210666
93	0xbdc7ce28	-0.09756118
94	0xbcd045c4	-0.025423892
95	0xbda24bee	-0.07924639
96	0x3d827d21	0.06371523
97	0xbe3e309d	-0.18573232
98	0xbf0bf248	-0.54666567
99	0xbb00d012	-0.001965527
100	0x3cefa4ff	0.029253481
101	0xbd14abe8	-0.036296755
102	0xbd6afa4b	-0.057367604
103	0x3d1bd9d3	0.03804953
104	0x3f106ec8	0.5641904
105	0xb9dabe98	-0.00041722204
106	0x3abb612e	0.001429593
107	0x3e721e1a	0.23644295
108	0x3ebcf007	0.36901876
109	0xbda3efa0	-0.08004689
110	0x3e86a636	0.26298684
111	0xbe865fe0	-0.26245022
112	0xbd828a31	-0.06374014
113	0x3c1254fa	0.008931393
114	0x3efd0452	0.4941736
115	0x3e4dfde7	0.20116387
116	0x3ca153f1	0.019693347
117	0x3e99a59e	0.30009168
118	0xbecf2e6f	-0.40465114
119	0xbd5e7cef	-0.054318365
120	0xbdaf8a8c	-0.085713476
121	0xbe6f8b54	-0.23392993
122	0xbf1c5a55	-0.61075336
123	0xbe52beb9	-0.20580567
124	0x3ee9776c	0.45598924
125	0xbc502b0e	-0.012705578
126	0xbda5a467	-0.08087998
127	0x391ae190	0.00014770613
128	0x3e46b1f3	0.1940382
129	0xbd80c681	-0.062878616
130	0x3ec7a021	0.38989356
131	0x3eee1d73	0.46506843
132	0xbe5d8e11	-0.21636225
133	0x3adae610	0.0016700644
134	0xbc1a3481	-0.009411932
135	0xbd9e9d29	-0.0774482
136	0xbe4a425a	-0.19751874
137	0xbbcc6fac	-0.0062388983
138	0x3e99ac96	0.30014485
139	0xbdcb04dc	-0.09913036
140	0xbee38845	-0.44439903
141	0xbe0f5083	-0.13995557
142	0xbe231c65	-0.159288
143	0x3d890c94	0.06691852
144	0xbe8a5814	-0.27020323
145	0x3d27c996	0.04096373
146	0x3f8592b7	1.0435399
147	0xbb7d158e	-0.0038617584
148	0xbddf2bc7	-0.10897022
149	0xbd034702	-0.03205014
150	0x3cd60185	0.026123771
151	0xbe240b43	-0.16019921
152	0xbf0c0e48	-0.5470929
153	0x3e19c8d7	0.1501802
154	0xbe05991c	-0.13046688
155	0xbda22399	-0.07916946
156	0x3ce3f6cd	0.027827645
157	0xbe77ff32	-0.24218443
158	0x3ce999c1	0.028515698
159	0xbcb321d6	-0.02186672
160	0x3c04f20a	0.008114347
161	0xbe9e25ec	-0.30888307
162	0xbe58fab5	-0.21189387
163	0xbe8a8350	-0.27053308
164	0xbe8f5f49	-0.28002384
165	0xbe13e940	-0.14444447
166	0x3d1cf9ae	0.03832405
167	0xbec4f460	-0.38467693
168	0xbdbad7b5	-0.09123174
169	0xbd95aec0	-0.073087215
170	0x3ed7a297	0.42116234
171	0xbc402c47	-0.011729307
172	0xbc8e962e	-0.017405596
173	0xbd4f6522	-0.050633557
174	0x3f6bced5	0.92112476

4.weight f4 [175, 175]
0	0xbe279b84	-0.16367918
1	0xbe387440	-0.18013096
2	0xbd9356ce	-0.07194291
3	0xbdf5bb97	-0.119986705
4	0x3e370c91	0.17875887
5	0x3d9e6499	0.07734031
6	0x3c90dce4	0.017683454
7	0x3e835c1e	0.25656217
8	0xbe6cccfe	-0.23125073
9	0x3c516269	0.0127798105
10	0x3c96c7c6	0.018405806
11	0xbd0649d8	-0.032785267
12	0xbc7a0ae9	-0.01526139
13	0xbc69eb70	-0.014277324
14	0xbd59aa80	-0.053141117
15	0xbdceb7e1	-0.10093666
16	0x3e0dc40b	0.13844316
17	0xbd0904c5	-0.033451814
18	0x3dc38709	0.0954724
19	0x3e2091a5	0.15680559
20	0xbd4673af	-0.04845017
21	0x3d284f24	0.0410911
22	0xbd101b0e	-0.03518205
23	0xbc896de8	-0.01677604
24	0xbd1cf37c	-0.038318142
25	0x3e0529f4	0.13004285
26	0x3d8b1a55	0.06792132
27	0x3d584cb4	0.052807525
28	0x3dcbe281	0.099553116
29	0xbd8f6eb4	-0.07003537
30	0xbdeae63c	-0.11469695
31	0x3d820b50	0.06349814
32	0x3e1d59db	0.15366308
33	0x3e330b37	0.17484747
34	0x3d84fc76	0.064934656
35	0xbe02a129	-0.1275679
36	0x3d36942f	0.044574913
37	0x3d77b93a	0.06047938
38	0x3d6ef2ec	0.058337137
39	0x3c6e429e	0.01454225
40	0xbc204db4	-0.009784151
41	0x3e125d8c	0.14293498
42	0xbcace975	-0.021107415
43	0xbd802c61	-0.062584646
44	0xbc54538b	-0.012959371
45	0x3dfcd6f0	0.123456836
46	0x3d822a7d	0.0635576
47	0xbaeb3b0a	-0.0017946672
48	0x3d107a18	0.035272688
49	0xbb6da90a	-0.0036264085
50	0x3d279532	0.040913768
51	0x3e0d7c80	0.13817024
52	0x3c6b50ab	0.014362494
53	0x3e1a43a0	0.1506486
54	0x3d578847	0.0526202
55	0x3d90ba5d	0.07066796
56	0xbe1b08e9	-0.15140118
57	0x3e294418	0.16529882
58	0xbd5dc77a	-0.054145314
59	0xbdd69c19	-0.10478992
60	0x3e0a32cf	0.13495944
61	0xbde0fe63	-0.109860204
62	0xbd3de721	-0.046363
63	0xbe8d5a3c	-0.27607906
64	0x3e6bab2f	0.2301452
65	0xbd4764d4	-0.04868014
66	0xbe4ab84e	-0.19796869
67	0x3d16a773	0.036780786
68	0xbe513bdf	-0.20432995
69	0xbd41c63e	-0.0473082
70	0xbe056502	-0.13026813
71	0xbd6fa2c4	-0.058504835
72	0xbe1b754f	-0.15181468
73	0x3b5737a7	0.0032839568
74	0x3cc6d16d	0.024269784
75	0x3d7e7ac0	0.062128782
76	0xbde0e271	-0.1098069
77	0x3cffe770	0.031238288
78	0xbe44e959	-0.1922964
79	0x3e1835f2	0.14864329
80	0xbe0b6d21	-0.13615848
81	0x3e9ab5f3	0.3021694
82	0xbcfa61e5	-0.030564258
83	0xbd08204f	-0.033233937
84	0x3e1e9ccc	0.15489501
85	0xbcf59a1a	-0.029980708
86	0x3d381735	0.044944007
87	0xbd52ee8b	-0.051497024
88	0x3def70ac	0.11691412
89	0xbdb86a2e	-0.09004627
90	0xbd6bcf17	-0.057570543
91	0x3cd46644	0.02592767
92	0x3d95b4e7	0.07309895
93	0xbcd15003	-0.025550848
94	0x3d3b3a42	0.045709856
95	0x3e5f44b1	0.21803547
96	0xbc03bf71	-0.008041249
97	0xbdb3fe43	-0.08788731
98	0x3e55e9cd	0.20889969
99	0x3d0f0390	0.034915507
100	0xbdf21acf	-0.118215196
101	0xbd05e44d	-0.032688428
102	0x3a5824de	0.000824524
103	0xbb353462	-0.002764963
104	0x3d04e161	0.0324415
105	0xbdc6136d	-0.09671674
106	0xbcc5e9b4	-0.02415929
107	0x3dad491e	0.084612116
108	0x3e3ed3f2	0.18635538
109	0x3ce8b84e	0.028408196
110	0xbdb374ed	-0.08762536
111	0xbc403aa1	-0.011732728
112	0xbe40a437	-0.18812643
113	0xbe2ae067	-0.16687165
114	0xbea640ad	-0.3247122
115	0x3df4778e	0.11936866
116	0x3db5e66b	0.08881839
117	0x3d728092	0.059204645
118	0xbdd70144	-0.10498288
119	0xbdc1dc7e	-0.09465884
120	0xbd897b79	-0.06713004
121	0xbe3f99f5	-0.18711074
122	0xbe169d7a	-0.1470851
123	0xbdea150f	-0.11429798
124	0x3e39c222	0.18140462
125	0xbd54662b	-0.051855247
126	0x3d8d42d8	0.06897515
127	0x3d648e7b	0.055799942
128	0x3d508bec	0.05091469
129	0x3dc9e3be	0.098578915
130	0x3dcd2555	0.10016886
131	0x3e40d154	0.18829852
132	0xbe7a67e6	-0.24453697
133	0xbc503097	-0.012706897
134	0xbd98531e	-0.07437728
135	0x3dfaafb0	0.12240541
136	0x3d3ff1df	0.046861526
137	0x3bded54d	0.00680033
138	0xbc1d8be5	-0.009615873
139	0xbc244b73	-0.010027754
140	0x3df6dfd9	0.12054414
141	0x3e7b3aad	0.24534102
142	0xbb4e599e	-0.0031486521
143	0x3daca5ae	0.084300384
144	0xbdd7ab4a	-0.10530718
145	0xbe30eaee	-0.17277119
146	0x3d02ba0d	0.031915713
147	0xbc5d934e	-0.01352389
148	0x3d9950ca	0.074861124
149	0x3d6ad88a	0.057335414
150	0x3d619836	0.0550768
151	0xbe106375	-0.1410044
152	0x3c305228	0.010761775
153	0x3de8dcaf	0.11370217
154	0x3d5e9aec	0.054346964
155	0x3ec4c24f	0.38429496
156	0x3e9ef461	0.3104582
157	0xbcbfc005	-0.023406992
158	0xbd9a53f7	-0.07535546
159	0x3e66f7cc	0.22555465
160	0xbd071542	-0.032979257
161	0xbe498c9d	-0.19682546
162	0xbdc7f02d	-0.09762607
163	0xbbcf7ffa	-0.0063323947
164	0xbe30e3cb	-0.17274396
165	0xbd949eba	-0.07256837
166	0x3d01643d	0.031589735
167	0x3e8d0a0e	0.27546734
168	0x3d6523ce	0.05594235
169	0x3dda4158	0.106569946
170	0xbd8f6977	-0.07002538
171	0xbeafda92	-0.34346443
172	0xbd385630	-0.04500407
173	0x3d24612e	0.04013174
174	0x3dc7eeb4	0.09762326
175	0xb87c8720	-6.0207327e-05
176	0xbe3e7549	-0.18599428
177	0x3e6fb1ac	0.2340762
178	0x3d1dcc3f	0.038524862
179	0x3de6d847	0.112717204
180	0xbe34ba42	-0.17649177
181	0x3db0d416	0.08634202
182	0x3e3fa06b	0.18713538
183	0xbe56001f	-0.20898484
184	0xbcfa85e2	-0.030581418
185	0x3cd96e01	0.026541712
186	0xbd9e637a	-0.077338174
187	0xbd3c1224	-0.045915738
188	0x3c9f6a01	0.019459726
189	0x3ca75b30	0.020429224
190	0x3da5410e	0.08069049
191	0x3ace854d	0.001575628
192	0xbd9cec0e	-0.07662211
193	0x3d3cc298	0.046084017
194	0x3d92f0d7	0.07174843
195	0x3dff5cf5	0.12468902
196	0x3e15c57c	0.14626116
197	0x3d7584dc	0.059941158
198	0x3c8da91d	0.017292554
199	0xbd0ace3f	-0.033888098
200	0xbe529959	-0.2056631
201	0x3c57c58e	0.013169659
202	0x3e2935ba	0.16524401
203	0x3daa86c7	0.08326488
204	0xbe837e11	-0.2568212
205	0x3da4916f	0.08035552
206	0x3d97506d	0.07388387
207	0xbda09512	-0.07840933
208	0xbdf9a301	-0.12189294
209	0x3c8bcbd0	0.017064959
210	0x3e407b67	0.18797074
211	0x3bff08f8	0.0077830516
212	0xbd236c67	-0.039898302
213	0xbcfd19d9	-0.030896114
214	0x3ce97b5e	0.028501209
215	0xbb99007e	-0.004669248
216	0x3e1af7b9	0.15133561
217	0x3d1ad2ab	0.037798565
218	0xbd260d70	-0.04054016
219	0xbdc3c479	-0.095589586
220	0xbd5f2178	-0.054475278
221	0xbd2278f5	-0.039666135
222	0x3db4df7d	0.088316895
223	0x3d02203c	0.031769022
224	0x3a84cdfa	0.0010132187
225	0x3e610194	0.21973258
226	0x3cf84fc3	0.03031147
227	0x3d6ab463	0.057300936
228	0xbe753433	-0.23945694
229	0x3d7bb37c	0.061450467
230	0xbdc098a5	-0.09404115
231	0xbdbfc7d8	-0.09364289
232	0x3df73a9a	0.12071724
233	0xbdbef23d	-0.09323547
234	0x3d2a0798	0.04151115
235	0x3d88dff6	0.06683342
236	0x3c367322	0.011135848
237	0x3d021e83	0.03176738
238	0xbddfae84	-0.10921958
239	0x3e8daf34	0.27672732
240	0xbd9b66d1	-0.0758797
241	0xbda02ae9	-0.078206845
242	0xbd7c3a82	-0.061579235
243	0x3e14b656	0.1452268
244	0x3e4b5816	0.19857821
245	0xbe938595	-0.28812853
246	0xbea1c630	-0.31596518
247	0xbe0aa991	-0.13541247
248	0x3d8737c1	0.06602431
249	0xbec9c554	-0.39408362
250	0x3d53ec04	0.051738754
251	0xbdfefd72	-0.124506846
252	0x3d5af2fd	0.053454388
253	0xbe601fb5	-0.21887095
254	0xbe17576f	-0.14779447
255	0xbeeed9ed	-0.4665064

4.bias f4 [175]
0	0xbc0be315	-0.008538027
1	0xbdf31038	-0.11868328
2	0xbd39000f	-0.04516607
3	0x3b09a207	0.0021001117
4	0x3dd156fd	0.1022167
5	0xbe026881	-0.12735178
6	0x3cc08ab3	0.023503637
7	0x3f06fe4d	0.5273178
8	0xbeb35dc0	-0.35032463
9	0xbe605bc9	-0.21910013
10	0xbd173dae	-0.036924057
11	0x3c4f6a34	0.012659598
12	0x3b7ca674	0.0038551362
13	0xbd7dc954	-0.06195958
14	0x3d809113	0.06277671
15	0xbd7d6293	-0.061861586
16	0xbead5e85	-0.33861175
17	0x3ed03bcc	0.4067062
18	0x3e4279e2	0.18991807
19	0x3f1cfdf1	0.61324984
20	0xbdd9cd00	-0.10634804
21	0xbbfecb29	-0.0077756834
22	0xbe854b3c	-0.26033962
23	0x3deb0b76	0.114767954
24	0x3e93b96b	0.288524
25	0x3e8e9b7f	0.2785301
26	0xbd8b13b6	-0.06790869
27	0xbd8f96f5	-0.07011215
28	0xbe226324	-0.15858132
29	0x3e8662dd	0.26247302
30	0xbd53a8f9	-0.051674817
31	0xbd0ab7c6	-0.033866666
32	0x3ee40e3d	0.44542113
33	0xbdacb634	-0.0843319
34	0x3de5a7d8	0.11213654
35	0xbdebfc4c	-0.11522731
36	0xbea18f31	-0.3155456
37	0xbca76669	-0.020434575
38	0x3e9d06e5	0.30669323
39	0xbeb2024c	-0.34767377
40	0xbd9df8ad	-0.07713447
41	0xbd2fab22	-0.042887814
42	0x3c99e270	0.018784732
43	0xbec1cec5	-0.37853065
44	0x3c88cee9	0.016700225
45	0x3e73dc2c	0.23814458
46	0xbe9d59a5	-0.30732456
47	0xbe594ad8	-0.21219957
48	0x3d8cab60	0.06868625
49	0x3d20467a	0.03912971
50	0xbe71d0fc	-0.23614877
51	0xbdbaa130	-0.09112775
52	0xbd5e03f0	-0.054202974
53	0x3db0da5e	0.086354
54	0x3e9732ac	0.29530847
55	0xbca1e948	-0.019764557
56	0xbf2f63c5	-0.6851161
57	0xbe9ac451	-0.30227903
58	0xbe8dbfcc	-0.27685392
59	0xbdb351f7	-0.08755868
60	0x3ea8af83	0.32946405
61	0xbc5dfc6a	-0.01354895
62	0x3dba59d0	0.090991616
63	0xbd6e8f68	-0.05824223
64	0x3cce11aa	0.025154907
65	0x3ddff673	0.10935678
66	0xbd411ab1	-0.047144596
67	0x3cb7d2e1	0.022439422
68	0x3ddf9c45	0.10918478
69	0xbdc6e96f	-0.09712493
70	0xbda5160c	-0.08060846
71	0x3e0b667b	0.13613312
72	0x3d273b90	0.040828288
73	0x3dbd8adc	0.09255001
74	0x3e8ce5b4	0.27519
75	0xbdb23173	-0.08700838
76	0x3d670f64	0.056411162
77	0xbc40b5b0	-0.011762068
78	0xbf0c5ec7	-0.5483212
79	0xbe952fd5	-0.29138055
80	0xbe0c4653	-0.13698702
81	0xbcbc4273	-0.022980904
82	0xbe9ae93f	-0.30256078
83	0x3cd03197	0.025414271
84	0x3e1e2ec2	0.15447524
85	0x3ca67e11	0.020323785
86	0xbe8a5162	-0.27015215
87	0xbda1687f	-0.07881259
88	0xbd8d8d55	-0.069117226
89	0x3e31b1cb	0.17352979
90	0xbc4f8eaf	-0.012668296
91	0xbd22f550	-0.03978473
92	0x3dd4c89e	0.10389827
93	0x3e0c6dfa	0.13713828
94	0xbd02833d	-0.03186344
95	0xbd28e2f4	-0.041232064
96	0xbe32dd0c	-0.17467135
97	0x3e840fcf	0.2579331
98	0xbec526b1	-0.38506082
99	0x3e04b9b1	0.1296146
100	0xbf156cee	-0.5836934
101	0xbe61aa5e	-0.22037646
102	0xbcc0b836	-0.023525339
103	0xbca05421	-0.019571366
104	0xbb0b5998	-0.0021263119
105	0x3dd9a9bb	0.10628077
106	0x3e5f1aa0	0.217875
107	0xbdb6c08d	-0.08923445
108	0xbee353de	-0.44399923
109	0x3ea48b84	0.32137692
110	0x3d21bd48	0.039487153
111	0x3dd8bd70	0.10583007
112	0x3e404493	0.18776159
113	0xbc830d46	-0.01599754
114	0x3d811627	0.06303053
115	0x3cb2ab13	0.02181009
116	0x3ba7fd15	0.0051266053
117	0xbe819682	-0.2531014
118	0x3d3aaee1	0.045576934
119	0x3eaf219a	0.34205323
120	0xbe0ed8ee	-0.1394994
121	0x3d840d6c	0.064478725
122	0x3da770d9	0.08175821
123	0x3ca96dd9	0.020682262
124	0x3dc31015	0.09524552
125	0xbd7616e6	-0.06008043
126	0x3eb09142	0.34485823
127	0xbecf6da0	-0.40513325
128	0xbdf84c0a	-0.12123878
129	0x3ef02167	0.46900484
130	0x3dfe26ef	0.1240977
131	0xbec6df0f	-0.38842055
132	0xbcfd2f23	-0.030906266
133	0x3e13791a	0.14401665
134	0x3ea1e3fe	0.31619257
135	0x3e8f02b8	0.27931762
136	0xbd694eda	-0.056959964
137	0xbf141297	-0.57840866
138	0x3e26f901	0.16305925
139	0x3e86ad20	0.2630396
140	0x3d01f9ce	0.031732373
141	0xbd2c5ce0	-0.04208076
142	0xbdbd1301	-0.0923214
143	0x3d9a5ede	0.07537626
144	0x3d703a6b	0.05864946
145	0xba14f137	-0.0005681696
146	0xbd9c627e	-0.076359734
147	0x3c913372	0.017724726
148	0x3e5f953a	0.21834269
149	0xbec2a1b8	-0.38014007
150	0xbd928a5d	-0.07155297
151	0x3e1a127d	0.15046115
152	0xbed5aad2	-0.41731888
153	0xbdba1ced	-0.090875484
154	0xbe92fdea	-0.28709346
155	0x3e83e90d	0.2576374
156	0x3d2b3a52	0.041803665
157	0x3e0770d7	0.13226639
158	0x3e973c00	0.29537964
159	0x3d3c30d3	0.045945
160	0xbed9e3a6	-0.42556494
161	0x3d919835	0.07109109
162	0xbdde003a	-0.10839887
163	0x3e4996c3	0.19686417
164	0xbda79ad2	-0.081838265
165	0xbeccc722	-0.39995676
166	0xbe8a7e40	-0.27049446
167	0x3ea40d6e	0.32041496
168	0x3ebf0e9d	0.37315837
169	0xbe95d01e	-0.29260343
170	0x3e4a1e7b	0.1973819
171	0xbdbeb22b	-0.093113266
172	0x3f810b69	1.0081607
173	0xbe1cc304	-0.15308768
174	0x3df7cb2b	0.12099298

6.weight f4 [157, 175]
0	0x3e0be9a0	0.1366334
1	0x3d80f3cd	0.06296501
2	0x3c97582f	0.018474666
3	0x3ae7d448	0.0017687166
4	0x3df70b50	0.120627046
5	0x3ca064e8	0.019579366
6	0x3e6bd278	0.23029506
7	0x3e3f4c46	0.1868144
8	0xbe034906	-0.12820825
9	0xbed36b63	-0.41292867
10	0x3cc2f72e	0.023799505
11	0xbe3f0d5e	-0.18657443
12	0xbda9d70d	-0.08292971
13	0x3e8ac5b0	0.2710395
14	0x3dfe18e8	0.12407094
15	0xbc16fa6d	-0.00921498
16	0xbbfa89fa	-0.0076458426
17	0xbd47841a	-0.048709966
18	0x3dc03ff1	0.09387196
19	0xbd8f6432	-0.070015326
20	0xbca7e9ec	-0.020497285
21	0xbdd4f362	-0.10397984
22	0xbec34a1b	-0.38142475
23	0xbef0bdc8	-0.47019792
24	0xbdb6079f	-0.08888172
25	0xbc87d663	-0.01658172
26	0x3bdb14cd	0.0066858293
27	0x3d819f93	0.063292645
28	0xbe4085a9	-0.18800987
29	0xbd02faa4	-0.03197731
30	0x3d0baa1c	0.034097776
31	0x3cbd4d91	0.023108276
32	0xbcc71a97	-0.024304671
33	0x3e18f596	0.14937434
34	0x3e3eb688	0.18624318
35	0xbdc27b21	-0.09496141
36	0xbe10ab67	-0.14127885
37	0x3d00b8d7	0.031426277
38	0x3c94085e	0.018070396
39	0x3ab619e4	0.0013893214
40	0x3c766898	0.0150395855
41	0xbe42e98e	-0.19034407
42	0x3caf76b1	0.021418901
43	0x3da8d109	0.08242995
44	0xbe323bbe	-0.17405602
45	0x3dfaacad	0.122399665
46	0x3e947f03	0.29003152
47	0x3dc384d8	0.09546822
48	0x3e38f8a4	0.18063599
49	0xbc963452	-0.018335495
50	0x3da8f26a	0.08249362
51	0x3cb60827	0.022220684
52	0xbd39f7b2	-0.045402236
53	0x3d8482c3	0.06470253
54	0x3e733788	0.23751652
55	0xbc8cf291	-0.017205508
56	0xbed5bfe4	-0.41747963
57	0xbdbf7d84	-0.09350112
58	0xbdc53b91	-0.09630502
59	0xbdc00077	-0.09375089
60	0x3cfa845f	0.030580698
61	0x3e963bed	0.29342595
62	0xbe35b450	-0.17744565
63	0xbd8ee7dc	-0.069778174
64	0xbc43deeb	-0.011955003
65	0x3e3204dc	0.17384666
66	0xbdfe2fc5	-0.12411455
67	0x3d5f2d8a	0.05448679
68	0xbed70e7f	-0.42003247
69	0x3ce56e74	0.02800677
70	0xbe2ef759	-0.17086543
71	0xbd9e7991	-0.07738031
72	0x3d928d8c	0.07155904
73	0x3e00f73f	0.12594317
74	0xbdf9e87f	-0.12202548
75	0x3d89d1b3	0.0672945
76	0x3e23748f	0.15962432
77	0xbdab9c77	-0.08379453
78	0xbe90d422	-0.28286844
79	0xbb22017f	-0.002472013
80	0x3d59ed24	0.05320467
81	0x3e8a6c93	0.2703596
82	0x3ed67c07	0.418915
83	0xbd7ce660	-0.06174314
84	0xbcf2fa05	-0.029660234
85	0xbc7eb3fc	-0.015545841
86	0x3e355d35	0.17711337
87	0x3d52c45f	0.051456805
88	0x3d9523e1	0.07282234
89	0x3e391ddb	0.18077795
90	0xbd4df313	-0.05028064
91	0x3cc74932	0.024326894
92	0xbd7915f9	-0.06081197
93	0x3dc051ec	0.09390625
94	0xbc8239e9	-0.015896754
95	0xbdeb50b0	-0.11489999
96	0xbe174226	-0.14771327
97	0xbe35f4a9	-0.17769112
98	0xbcdcd72b	-0.026958069
99	0xbdf77f9c	-0.120848864
100	0xbdcd004f	-0.100098245
101	0xbc7d172b	-0.015447418
102	0xbced5754	-0.028972305
103	0xbe2069f7	-0.15665422
104	0x3d4e2a2c	0.050333187
105	0xbef7effe	-0.48425287
106	0x3e0ac1b3	0.13550453
107	0xbd789898	-0.0606924
108	0x3d4b5b32	0.049647518
109	0x3e5518a1	0.20810176
110	0xba5a277d	-0.0008321924
111	0x3e75e23e	0.24012086
112	0x3e048d5c	0.1294455
113	0xbd8e8f82	-0.06960966
114	0xbe8d9e4c	-0.27659833
115	0x3e84f178	0.25965476
116	0xbce8ab43	-0.028401976
117	0x3d56794d	0.052361775
118	0x3d174be5	0.036937613
119	0x3d09a2f4	0.03360267
120	0xbe1a66ae	-0.15078232
121	0xbc8d2b38	-0.017232522
122	0xbd2639d5	-0.040582497
123	0xbe117213	-0.14203672
124	0x3e950c18	0.2911079
125	0xbe823ee5	-0.2543861
126	0x3e047448	0.12934983
127	0xbe9ecca8	-0.31015515
128	0xbd953313	-0.07285132
129	0xbdcf8a5d	-0.101338126
130	0xbe452632	-0.19252852
131	0x3def1802	0.11674501
132	0xbd988de4	-0.074489385
133	0xbe118718	-0.1421169
134	0x3de41ea4	0.11138657
135	0x3dba8a13	0.09108367
136	0xbdd21bef	-0.10259234
137	0x3c658695	0.014009138
138	0xbe1730cf	-0.14764713
139	0x3ca22ed1	0.019797714
140	0xbd5ece59	-0.054396007
141	0x3cef74c5	0.029230485
142	0x3c4051a6	0.0117382165
143	0x3e8caa89	0.27473858
144	0x3bfe360c	0.0077579077
145	0xbd65a9dc	-0.056070194
146	0xbca728c2	-0.020405177
147	0xbca8efb6	-0.020622116
148	0xbe3c7c04	-0.18406683
149	0xbd4d7bad	-0.050166775
150	0xbe82e3e4	-0.25564492
151	0x3c3654e0	0.011128634
152	0xbd6222ad	-0.05520885
153	0xbd46d8f5	-0.04854675
154	0xbe2b5eef	-0.16735433
155	0x3d6ae64b	0.05734853
156	0xbcd2a679	-0.025714146
157	0x3d78556b	0.060628336
158	0x3dc19ebb	0.094541036
159	0xbd5be154	-0.053681687
160	0xbdf99ada	-0.12187739
161	0xbecc8d60	-0.3995161
162	0x3e68e28e	0.22742674
163	0xbb6eb7e0	-0.0036425516
164	0xbde8a64e	-0.11359845
165	0xbf4b8e33	-0.79513854
166	0xbd68715b	-0.05674873
167	0xbe48d411	-0.19612147
168	0x3d0503d6	0.03247436
169	0xbe40be44	-0.1882258
170	0xbe330988	-0.17484105
171	0xbe446786	-0.19180116
172	0x3c7ca89e	0.015421061
173	0xbdb6b442	-0.089211
174	0xbe23e3e1	-0.16004898
175	0x3c701c10	0.014655128
176	0xbe5d3a00	-0.21604156
177	0x3d61203d	0.054962385
178	0x3c5071ab	0.012722413
179	0x3e31f175	0.17377265
180	0xbbeae24a	-0.007168089
181	0xbddf32e1	-0.10898376
182	0xbca1af97	-0.019737048
183	0xbd1eb074	-0.038742498
184	0x3df9741f	0.121803515
185	0xbda9b309	-0.08286101
186	0xbdfb1948	-0.122606814
187	0x3d51a37d	0.051181305
188	0x3cb7bfa4	0.022430249
189	0x3e24a853	0.16079836
190	0xbd5cafc3	-0.053878557
191	0xbe27da46	-0.16391858
192	0xbe4f3dfd	-0.2023849
193	0x3cf303e7	0.029664947
194	0x3db55c2d	0.08855472
195	0xbe23aba7	-0.15983449
196	0xbdf8dab6	-0.12151091
197	0x3cc10a45	0.023564467
198	0xbe343769	-0.17599262
199	0xbe111263	-0.1416717
200	0x3c0eb3b5	0.008709838
201	0x3ce92582	0.028460268
202	0x3ca9ef45	0.020743975
203	0x3e464c0b	0.19364946
204	0xbdcb1da4	-0.09917763
205	0x3d63d394	0.0556217
206	0x3d800734	0.06251374
207	0x3d9ff9ea	0.07811339
208	0xbdffe4ce	-0.12494813
209	0xbdc3316b	-0.0953091
210	0xbe47bfe7	-0.19506799
211	0x3e3a5165	0.18195112
212	0xbd914d9e	-0.070948824
213	0xbe004456	-0.12526068
214	0xbcac4004	-0.021026619
215	0x3d2a2c56	0.04154619
216	0x3dc163af	0.09442841
217	0xbc9bd0e0	-0.019020498
218	0x3e3bbfd3	0.18334894
219	0xbdbd6014	-0.09246841
220	0xbcbf802c	-0.023376547
221	0x3d3e1c22	0.04641355
222	0x3de7d72e	0.11320339
223	0xbd64602d	-0.055755783
224	0xbcd13e7b	-0.025542488
225	0x3d736a08	0.05942729
226	0xbe3718ff	-0.17880629
227	0xbd76313b	-0.060105544
228	0xbcc9b270	-0.024621218
229	0x3de12e85	0.10995201
230	0x3d71a7ea	0.058998026
231	0xbdc3645b	-0.09540626
232	0x3dd7f795	0.105452694
233	0xbe48ad1b	-0.19597284
234	0x3bad15f4	0.005282158
235	0x3d213b2f	0.039363082
236	0xbe2128fa	-0.15738288
237	0x3e071742	0.13192466
238	0xbc5dfff4	-0.0135497935
239	0xbe791d0c	-0.24327487
240	0xbe5910c5	-0.21197803
241	0xbd229d56	-0.03970083
242	0x3d5e6f44	0.05430533
243	0xbd8542c2	-0.06506874
244	0x3d6f0da2	0.05836261
245	0xbba4b9d0	-0.0050270334
246	0x3e3eb2d6	0.18622908
247	0x3dff71eb	0.124729
248	0xbdcbdd3c	-0.099543065
249	0xbe6e776b	-0.23287742
250	0xbe007b83	-0.12547116
251	0x3d701a37	0.05861875
252	0x3d6723bb	0.05643056
253	0xbd25aba7	-0.040446904
254	0x3dd4e7b9	0.1039576
255	0xbdfc5959	-0.12321729

6.bias f4 [157]
0	0x3ef986de	0.48735708
1	0xbe3b13ed	-0.1826932
2	0xbf0e151f	-0.5550098
3	0x3cb70312	0.022340331
4	0x3e626ab4	0.22111017
5	0xbf09ce2a	-0.53830206
6	0xbec92b39	-0.3929079
7	0x3d78864c	0.06067495
8	0x3f17d73b	0.5931279
9	0x3d529b2d	0.05141752
10	0x3c1c67f0	0.009546265
11	0x3ea2acec	0.31772554
12	0xbd3c6c6d	-0.04600184
13	0x3e0d2072	0.13781908
14	0x3e988372	0.29787785
15	0x3d483b9c	0.048884973
16	0x3da05ebf	0.078305714
17	0x3d0dec29	0.034649048
18	0x3e919508	0.28434014
19	0xbdf2b2d2	-0.118505135
20	0xbeebcc8f	-0.46054503
21	0x3d498b33	0.049205016
22	0x3f24c3fa	0.64361537
23	0x3d7ff8fb	0.062493306
24	0x3edb6759	0.42852286
25	0x3f1ce330	0.6128416
26	0x3e769bff	0.24082945
27	0xbecfff56	-0.40624493
28	0x3f07115e	0.52760875
29	0xbe55c19b	-0.20874636
30	0xbdb31722	-0.087446466
31	0x3de28557	0.11060589
32	0x3de51988	0.1118651
33	0x3cf5e57a	0.03001665
34	0x3e85d168	0.26136327
35	0xbb9e89c7	-0.0048382017
36	0xbeda0cf5	-0.4258801
37	0xbf066c46	-0.5250896
38	0x3e33e0a5	0.17566164
39	0xbe990a6c	-0.29890764
40	0xbe7d0377	-0.24708353
41	0xbc4baba6	-0.012431061
42	0xbec7a0c6	-0.38989848
43	0x3df00f25	0.117216386
44	0x3cacf0de	0.021110948
45	0xbe3a1265	-0.1817108
46	0xbe025b0e	-0.12730047
47	0xbee53c9f	-0.44772813
48	0xbe8a42c1	-0.27004054
49	0xbd9cda48	-0.07658821
50	0xbd98bd44	-0.074579746
51	0xbefdcad7	-0.49568817
52	0x3debac13	0.1150743
53	0x3e85cc59	0.26132467
54	0xbd4c14eb	-0.049824636
55	0x3daf3aa4	0.08556107
56	0x3dcc8555	0.099863686
57	0xbe6546d4	-0.223903
58	0xbd8d72c8	-0.069066584
59	0x3eb01a64	0.34395134
60	0xbde3cf3b	-0.111235105
61	0xbc23f252	-0.010006504
62	0x3d2b7084	0.04185535
63	0x3e357dbd	0.17723747
64	0x3eb6fe24	0.3574077
65	0x3e079a59	0.13242473
66	0xbe5e0a4d	-0.21683617
67	0x3e4b5b0e	0.19858953
68	0xbe48b780	-0.1960125
69	0x3ecca091	0.39966252
70	0x3f0bc325	0.5459464
71	0xbd025fea	-0.031829752
72	0xbef6f23f	-0.48231694
73	0xbed663d7	-0.41873047
74	0x3e7b2282	0.24524882
75	0x3e47abf3	0.19499187
76	0x3e08befa	0.13354102
77	0xbab8d14a	-0.0014100459
78	0xbde5f1fa	-0.11227794
79	0x3e65dc99	0.22447433
80	0xbed1a988	-0.40949655
81	0x3e905537	0.28190014
82	0x3dc79fbf	0.09747266
83	0xbd534815	-0.051582415
84	0xbeb0b412	-0.34512383
85	0x3ec8c710	0.39214373
86	0x3d767f9e	0.0601803
87	0x3e38f62f	0.18062662
88	0x3e0569ec	0.13028687
89	0x3e851abd	0.25996962
90	0x3d5ab6c4	0.053396955
91	0x3d59892d	0.053109337
92	0x3d4f2af2	0.050578065
93	0xbe649e81	-0.2232609
94	0xbd7ba869	-0.061439905
95	0xbe082c91	-0.1329825
96	0x3d9e9e12	0.07744993
97	0xbce5963c	-0.028025739
98	0xbd19b5fc	-0.03752707
99	0xbe03d3f8	-0.12873828
100	0x3f024473	0.50885695
101	0x3e235ecd	0.15954132
102	0x3e541fb0	0.20715213
103	0xbdbde871	-0.0927285
104	0xbe3688e0	-0.17825651
105	0x3ec4ffc1	0.38476375
106	0xbe59d744	-0.21273524
107	0x3e43f0ad	0.1913478
108	0xbe4f4e86	-0.20244798
109	0x3dcf2d75	0.10116092
110	0x3dccff99	0.10009689
111	0xbe990762	-0.29888445
112	0xbc01986c	-0.007909875
113	0xbec19af9	-0.37813547
114	0x3da4cecd	0.080472566
115	0xbec1cfda	-0.3785389
116	0xbe487018	-0.1957401
117	0x3e1307a0	0.14358377
118	0xbe2b66df	-0.16738461
119	0x3dba4c6d	0.09096608
120	0x3e6f03e8	0.23341334
121	0xbee8e45b	-0.4548672
122	0xbebd122f	-0.36927935
123	0x3f2a0355	0.66411334
124	0xbef20d19	-0.47275618
125	0xbe9a662b	-0.30156073
126	0xbcf5aa65	-0.029988477
127	0xbebfaf79	-0.37438563
128	0xbe1c3c71	-0.15257432
129	0xbe41a980	-0.18912315
130	0xbe8bab1c	-0.27278984
131	0xbaced76c	-0.0015780753
132	0xbe9d1b0a	-0.30684692
133	0x3e140d76	0.1445826
134	0xbeaadb43	-0.33370408
135	0xbecbd3ba	-0.39809972
136	0x3e0fab1f	0.14030121
137	0x3e2db4ee	0.1696355
138	0xbe30e3e3	-0.17274432
139	0xbf31fc62	-0.6952573
140	0x3e6ec72e	0.23318169
141	0xbecf3a5e	-0.40474218
142	0x3f2c66a9	0.67344147
143	0x3dc99c08	0.09844214
144	0x3e1c2455	0.15248235
145	0x3d95ea9e	0.0732014
146	0x3cdaaba2	0.026693169
147	0xbc941ce5	-0.018080184
148	0x3f2eba26	0.6825279
149	0xbec3e593	-0.3826109
150	0x3d601d95	0.05471571
151	0x3e6eeca9	0.23332466
152	0xbe9feff5	-0.3123776
153	0xbe6cc014	-0.23120147
154	0x3f0a1288	0.53934526
155	0xbeb42525	-0.3518459
156	0x3d950ec0	0.07278204
