pav_spkid_pytorch/lpcc_model_hsize_175_lr0001/bestval_e2_weights.ckpt (torch_old, 755742 bytes, 8 tensors)

0.weight f4 [175, 567]
-0.03776284 0.0071855984 0.0324719 -0.008939376 -0.0042372993 0.03479226 -0.023485886 -0.011665159
0.024049928 0.02307896 0.035035767 -0.03526528 0.020136891 0.00888202 0.016667226 -0.035021152
-0.013872393 -0.0018756912 -0.008326603 -0.01434841 -0.0057196673 0.034981847 -0.035334375 -0.031868767
0.02368523 0.033245616 0.016992178 0.010136965 -0.032112055 0.03716889 0.0019936275 -0.003420975
-0.022991102 -0.030990852 -0.0025850844 0.00013214769 -0.027033854 0.015607492 0.0012289799 0.0143321315
-0.015179615 -0.0108961295 0.0031140307 -0.028418586 0.020426994 0.033267904 -0.0021266865 -0.027217401
0.029572623 -0.01343768 0.0034704572 0.0032065418 -0.012735554 0.007937258 0.020312075 -0.018234551
-0.02560068 -0.039039224 -0.018220587 -0.01476405 0.0003586676 -0.0131384805 0.021523375 0.007163598
0.017131371 -0.033937585 0.025525067 0.02634419 0.008318111 -0.03798514 0.027992025 0.011054007
0.032606006 -0.039393377 -0.01636725 -0.012569222 0.04576613 -0.01756727 -0.013624307 -0.03513191
0.03805377 -0.042535275 0.031163787 0.029627448 -0.044187382 -0.030028604 0.035803724 0.042183775
0.041345116 -0.029176533 0.012239991 -0.03553263 -0.014715947 0.04060039 0.021739267 0.03871954
0.027317138 -0.0032080184 -0.041763138 0.013500396 -0.03720752 -0.009603597 -0.011982065 0.01915485
0.031132879 0.016897764 0.007378752 -0.011496115 0.015820634 -0.0015912101 0.03331989 -0.04244927
0.039044995 0.041591614 -0.022266408 -0.0047959257 0.023463514 -0.036213886 0.005546825 -0.0020454407
0.04117902 0.031188356 -0.027053645 -0.012045585 -0.015108856 0.013416779 -0.041570455 0.0276123
0.029834475 -0.018665534 -0.03529804 0.009087263 -0.0021251738 -0.017989557 0.034981444 0.032866467
-0.038834933 -0.006127891 0.033650294 -0.015521643 0.01028056 0.00011710113 -0.013364926 -0.034636047
-0.009890686 0.004297469 -0.0068117282 -0.033192582 0.019657036 0.029188922 -0.025597868 0.022722667
-0.027337607 -0.023623534 0.007902162 -0.015542745 0.026257263 0.0067307837 -0.008534079 0.015052642
-0.0058770822 0.016508857 -0.022536105 0.012988756 0.011319708 -0.02070275 -0.0040038885 -0.0042672628
-0.027677381 0.00075909245 0.034914307 -0.016235143 0.014604858 -0.03423564 0.02681391 0.0029699726
-0.021276424 0.003674508 -0.032828283 0.035050817 0.025535768 0.0074249427 0.0035752202 -0.045920223
0.018488118 0.02075446 -0.0109996805 0.047682498 0.026355749 -0.016238598 -0.021200914 0.033007253
-0.017465096 0.03335659 -0.000491721 -0.0051989206 0.034927573 0.024019761 -0.017397188 -0.0012683016
0.013280657 -0.020370273 0.018183295 -0.016823333 -0.023224887 -0.024875522 -0.025287002 0.025552113
-0.040335126 -0.010993736 0.02829189 -0.0041353535 -0.03828808 -0.030692264 0.05032002 -0.0018665295
0.03098777 0.031474788 0.007487047 0.0005802516 0.020757826 -0.040204536 0.0073480983 0.015966473
0.0031075194 0.0026640787 -0.0114903515 0.0024892082 0.034646276 -0.024691898 0.008105644 0.025607351
-0.017164858 0.0046521565 -0.013445797 -0.023528893 0.013311434 0.012782835 -0.020759702 -0.02006349
-0.009625866 -0.02741885 0.026528912 -0.020911233 -0.019600352 0.027913015 -0.01964762 -0.03378005
0.039495572 0.017722555 -0.017097725 0.03760676 -0.017651148 -0.0029930843 -0.030153211 -0.03963211
00000000: 35ad 1abd 2b75 eb3b 4101 053d 7676 12bc
00000010: 0bd9 8abb 5482 0e3d 7965 c0bc 391f 3fbc
00000020: 5b04 c53c 1610 bd3c aa81 0f3d 5472 10bd
00000030: 1ff6 a43c e485 113c b589 883c 5772 0fbd
00000040: 0949 63bc c1d9 f5ba 4e6c 08bc 9815 6bbc
00000050: 0c6c bbbb 2049 0f3d c7ba 10bd d388 02bd
00000060: 8707 c23c 8e2c 083d 2e33 8b3c 8315 263c
00000070: ee87 03bd 683e 183d 85a7 023b 7032 60bb
00000080: d657 bcbc 87e0 fdbc 856a 29bb 2091 0a39
00000090: 1a76 ddbc 91b6 7f3c b915 a13a 51d1 6a3c
000000a0: ebb3 78bc ae85 32bc c414 4c3b 18ce e8bc
000000b0: 8356 a73c ed43 083d e15f 0bbb 07f7 debc
000000c0: 4942 f23c b729 5cbc 9c70 633b d824 523b
000000d0: c9a8 50bc 460b 023c 8265 a63c a060 95bc
000000e0: 84b8 d1bc 98e7 1fbd 5743 95bc eae4 71bc
000000f0: 8d0b bc39 c842 57bc ca51 b03c 9ebc ea3b
00000100: 1757 8c3c 2302 0bbd f219 d13c c5cf d73c
00000110: b048 083c 4e96 1bbd 884f e53c de1b 353c
00000120: e08d 053d f35a 21bd 9c14 86bc 23ef 4dbc
00000130: 4475 3b3d 3ce9 8fbc 7c38 5fbc 7ae6 0fbd
00000140: 45de 1b3d 7839 2ebd 334b ff3c 43b5 f23c
00000150: d4fd 34bd 8cfe f5bc eda6 123d e5c8 2c3d
00000160: 7f59 293d a003 efbc 3e8a 483c aa8a 11bd
00000170: 281b 71bc 984c 263d 8c16 b23c 6198 1e3d
00000180: 31c8 df3c 9e3d 52bb d30f 2bbd c430 5d3c
00000190: ea66 18bd 6858 1dbc 6c50 44bc a2ea 9c3c
000001a0: 610a ff3c 2e6d 8a3c 75c9 f13b 335a 3cbc
000001b0: 469a 813c 2790 d0ba 707a 083d 49df 2dbd
000001c0: a5ed 1f3d f85b 2a3d 0b68 b6bc 2427 9dbb
000001d0: 8e36 c03c 0355 14bd 24c2 b53b cd0c 06bb
000001e0: 55ab 283d b97e ff3c 9b9f ddbc d85a 45bc
000001f0: 238b 77bc 0dd2 5b3c c845 2abd 3133 e23c
00000200: 6e67 f43c 76e8 98bc ad94 10bd bee2 143c
00000210: 8046 0bbb d65e 93bc b448 0f3d fd9e 063d
00000220: 6111 1fbd 7acc c8bb e4d4 093d 7d4e 7ebc
00000230: cb6f 283c 3194 f538 90f8 5abc 87de 0dbd
00000240: 8b0c 22bc c8d1 8c3b eb34 dfbb f2f4 07bd
00000250: cb07 a13c 9b1d ef3c 9fb2 d1bc e324 ba3c
00000260: 1ef3 dfbc 2486 c1bc 1278 013c ffa6 7ebc
00000270: 7919 d73c e88d dc3b 86d2 0bbc 5b9f 763c
00000280: 8a94 c0bb 953d 873c a39d b8bc cbce 543c
00000290: 4c76 393c d098 a9bc 0d33 83bb 65d4 8bbb
000002a0: adbb e2bc d5fd 463a 4e02 0f3d 90ff 84bc
000002b0: 3749 6f3c ac3a 0cbd d8a8 db3c dfa3 423b
000002c0: e54b aebc 04d0 703b f376 06bd 7291 0f3d
000002d0: 6330 d13c ef4c f33b 3e4e 6a3b d816 3cbd
000002e0: 6574 973c 4205 aa3c 0138 34bc b94e 433d
000002f0: 03e8 d73c cf06 85bc 8aad adbc 9d32 073d
00000300: f612 8fbc eba0 083d d6e6 00ba b55b aabb
00000310: 3710 0f3d 17c5 c43c 8c84 8ebc 243d a6ba
00000320: 1d97 593c 8fdf a6bc 22f5 943c 16d1 89bc
00000330: 1e42 bebc c0c7 cbbc b026 cfbc aa52 d13c
00000340: 7236 25bd 121f 34bc 65c4 e73c dc81 87bb
00000350: f6d3 1cbd 586e fbbc 5e1c 4e3d 56a6 f4ba
00000360: 10da fd3c b5eb 003d e755 f53b 071c 183a
00000370: 510c aa3c 83ad 24bd 51c8 f03b 1fcc 823c
00000380: 86a7 4b3b d397 2e3b 0742 3cbc fc21 233b
00000390: 41e9 0d3d aa46 cabc 89cd 043c 82c6 d13c
000003a0: 519d 8cbc 1e71 983b c34b 5cbc aabf c0bc
000003b0: 3318 5a3c 196f 513c 4010 aabc 305c a4bc
000003c0: cfb5 1dbc 7f9d e0bc 2953 d93c 094e abbc
000003d0: eb90 a0bc d6a9 e43c 0cf4 a0bc f35c 0abd
000003e0: 1cc6 213d e42e 913c 8710 8cbc 8c09 1a3d
000003f0: 2499 90bc 9f27 44bb de03 f7bc 4855 22bd

0.bias f4 [175]
-0.031758312 0.10726822 -0.019311408 -0.0159781 0.02705649 0.019127158 -0.2150247 0.022486929
0.063990586 -0.019142553 0.12665881 -0.06572544 0.037339415 0.057069175 0.015581124 -0.026635949
-0.008093281 -0.03794102 0.023392415 -0.04058163 -0.07228553 0.022168905 0.019328017 0.062377114
-0.10450732 -0.11231474 -0.02117511 -0.1937139 0.021704927 -0.009488501 0.010749754 0.11672368
0.052265543 0.07534015 -0.05813438 0.022107182 -0.15640631 -0.024102595 0.027350778 0.21190688
0.09623706 -0.043542463 0.08420035 -0.032233372 -0.0047418177 0.027833676 0.0007821247 0.07562245
0.0051813605 -0.035718277 -0.19787474 0.032159545 -0.06082927 -0.12104553 0.03449944 -0.08573048
-0.07778434 -0.0080073625 0.0077472064 0.019010121 0.03181604 0.28143308 0.10183887 -0.038363487
0.007286768 -0.00081531703 0.053379998 0.010412192 0.11371663 -0.034678806 -0.035942428 -0.013849186
-0.026008774 0.077312514 -0.04597197 0.025643013 0.0018050626 0.0004762298 -0.07238487 -0.11151015
0.05202453 0.117614895 -0.009048241 -0.10099465 -0.03852338 0.013520085 0.04042408 -0.02229154
-0.0089247385 -0.01959857 -0.016209027 -0.011372421 0.020959722 -0.06544908 -0.049273953 -0.05152309
-0.019355886 -0.031826254 -0.034768447 0.05108603 -0.011970408 0.008693025 -0.10785826 -0.03255045
0.22164726 -0.10358072 -0.040588558 0.039869156 0.071820706 -0.017678682 -0.045402892 0.04080533
-0.02934888 0.07490424 0.018157335 -0.2775781 -0.016878089 -0.06240167 -0.03831786 -0.04518849
0.0307547 0.027734417 -0.08859716 -0.112522215 -0.028715525 -0.10597707 -0.009358318 0.012405026
-0.11182741 -0.06899735 0.029196547 0.0036425143 -0.09805008 -0.031301793 0.03612404 -0.033758774
0.06524523 -0.041739944 0.076014474 -0.054193843 -0.06681221 0.042956542 -0.016971331 0.016908823
-0.061979685 -0.15019813 -0.09400044 0.04649972 1.0066351e-05 -0.1058368 -0.046878733 -0.0060178665
-0.13803554 0.034779176 -0.024928406 -0.006488512 0.06092692 0.030024977 -0.013730394 -0.03555895
-0.0110537615 0.003325362 0.023898423 -0.0597535 -0.00060365774 -0.028244333 0.06275769 0.038071856
0.074156 -0.13352765 -0.047343627 0.016774409 -0.0033438175 0.014991896 -0.038805608
00000000: 0115 02bd 71af db3d f532 9ebc 81e4 82bc
00000010: 92a5 dd3c 8fb0 9c3c 6f2f 5cbe 8236 b83c
00000020: 7f0d 833d d8d0 9cbc d9b2 013e 0f9b 86bd
00000030: 37f1 183d 5ec1 693d f947 7f3c a233 dabc
00000040: ae99 04bc 0b68 1bbd 73a1 bf3c ec38 26bd
00000050: 700a 94bd 909b b53c ca55 9e3c 257f 7f3d
00000060: ef07 d6bd 4505 e6bd 6d77 adbc f05c 46be
00000070: 88ce b13c a875 1bbc bc1f 303c d30c ef3d
00000080: 6514 563d f04b 9a3d 511e 6ebd 1f1a b53c
00000090: fa28 20be ce72 c5bc bd0e e03c 1efe 583e
000000a0: f017 c53d 9559 32bd 3c71 ac3d 2407 04bd
000000b0: 4061 9bbb 7303 e43c 8007 4d3a f1df 9a3d
000000c0: 67c8 a93b 544d 12bd ad9f 4abe bab9 033d
000000d0: 1d28 79bd b8e6 f7bd 494f 0d3d 7693 afbd
000000e0: 654d 9fbd 5031 03bc 47dc fd3b 1dbb 9b3c
000000f0: 8951 023d ff17 903e e690 d03d 0823 1dbd
00000100: d7c5 ee3b 00bb 55ba fca4 5a3d e697 2a3c
00000110: 44e4 e83d 5d0b 0ebd 5e38 13bd b2e7 62bc
00000120: 5a10 d5bc 0656 9e3d 1b4d 3cbd 4c11 d23c
00000130: da97 ec3a 7bae f939 853e 94bd 6f5f e4bd
00000140: ac17 553d 14e0 f03d 133f 14bc 48d6 cebd
00000150: b1ca 1dbd 5983 5d3c b893 253d bf9c b6bc
00000160: 1139 12bc 2e8d a0bc cbc8 84bc 6453 3abc
00000170: b9b3 ab3c 2b0a 86bd 7cd3 49bd e009 53bd
00000180: 3c90 9ebc 3f5c 02bd 5c69 0ebd 963f 513d
00000190: 881f 44bc 316d 0e3c cbe4 dcbd 9f53 05bd
000001a0: 80f7 623e 2122 d4bd 3040 26bd d74d 233d
000001b0: bc16 933d e2d2 90bc 62f8 39bd 7d23 273d
000001c0: 106d f0bc 6567 993d b1be 943c b71e 8ebe
000001d0: eb43 8abc e598 7fbd 30f3 1cbd 9117 39bd
000001e0: 48f1 fb3c 4a33 e33c 6e72 b5bd 0c72 e6bd
000001f0: d23c ebbc 820a d9bd a153 19bc 733e 4b3c
00000200: c505 e5bd 7c4e 8dbd 992d ef3c 40b7 6e3b
00000210: 7bce c8bd 4f36 00bd cdf6 133d a446 0abd
00000220: 4b9f 853d 81f7 2abd 7aad 9b3d 5dfa 5dbd
00000230: d7d4 88bd 33f3 2f3d 7607 8bbc 5f84 8a3c
00000240: 69de 7dbd 8acd 19be 4d83 c0bd 7e76 3e3d
00000250: a6e2 2837 f7c0 d8bd ea03 40bd 8631 c5bb
00000260: 3059 0dbe 9c74 0e3d a836 ccbc 959d d4bb
00000270: 828e 793d f1f6 f53c 72f5 60bc 43a6 11bd
00000280: d61a 35bc 51ee 593b a0c6 c33c 16c0 74bd
00000290: c93e 1eba a960 e7bc 1b87 803d 3cf1 1b3d
000002a0: 1adf 973d 79bb 08be 64eb 41bd 7c6a 893c
000002b0: f323 5bbb 92a0 753c a1f2 1ebd

2.weight f4 [175, 175]
-0.067390576 0.06272584 0.011272386 -0.032129243 -0.09534188 0.015487585 -0.048950195 -0.05359323
-0.015173726 -0.048589118 -0.081722416 -0.0630046 -0.044499565 -0.06405504 -0.007013543 -0.043099813
0.0033761188 -0.073250346 -0.061974663 -0.07054249 0.058426347 -0.0013817921 0.06216198 -0.04037052
-0.06944206 0.032788597 -0.0647897 -0.008176243 -0.06486871 0.015875202 -0.033313487 0.031046884
-0.07499766 0.030548569 0.0026060673 0.023480205 0.05363551 -0.060299706 -0.0009856758 -0.020259146
0.042829484 -0.0441087 -0.0136247715 0.037650492 0.05084563 0.034186766 -0.0752418 0.050008472
-0.0525482 0.011305958 -0.054628283 -0.023172121 -0.006433261 -0.028705409 -0.03868616 -0.0076935883
-0.07680616 -0.026507447 0.034329258 -0.044559054 0.011917661 0.017415676 -0.022158986 0.047175616
0.049666535 0.06100166 0.019714644 -0.023275536 0.006086004 0.031111436 -0.071258284 -0.07976651
0.031455137 0.05947471 -0.014444922 -0.004436415 0.036488954 0.008423415 0.033283886 -0.020678962
0.05423969 -0.0028481209 -0.063749455 -0.052499812 0.008785484 -0.010932715 -0.07998049 0.057555802
-0.040136553 -0.057217386 -0.0359613 0.055781297 -0.010863018 0.0059033446 0.02566147 -0.08487692
0.06372898 0.029630497 -0.061090745 -0.08642691 -0.029926809 -0.025945645 0.03335539 0.020843059
-0.0142247155 -0.024944015 0.06656716 0.0018017034 0.027524676 -0.022253549 0.021925513 -0.040296067
-0.041166604 -0.08973893 0.022976518 0.033323944 0.008776851 -0.0017155575 0.038194157 0.019265197
0.027932175 0.070321344 -0.08040169 -0.061631702 -0.04751253 0.010751838 -0.08250818 -0.043508496
0.03469131 -0.06669996 -0.07238276 0.06044335 -0.055204492 0.026475335 0.04069906 -0.07586378
0.044314295 -0.07260072 0.018941922 -0.04584664 -0.060968626 -0.056670256 -0.020184707 0.055352576
-0.048197784 -0.089903265 -0.06529008 -0.033999335 0.07303779 -0.035673283 0.059616584 0.0015116533
-0.02006822 -0.009301245 -0.072915465 0.026591714 0.019002497 -0.00097459555 0.017837541 0.04479171
-0.058419492 -0.05753087 0.02037873 -0.052573755 -0.06844389 0.031588808 -0.008966596 0.010604359
-0.001910223 -0.035149127 0.03653568 0.0093055535 -0.0783804 -0.062235415 0.015890723 0.025001815
-0.016497355 -0.0038626825 -0.07411291 0.1904331 -0.014676576 0.15817961 0.03007937 0.008439179
-0.14617339 0.12720807 0.11696611 -0.015778715 0.08579921 -0.13921207 0.020867027 -0.08041299
0.006795717 0.057873886 -0.09347483 0.10226005 0.013709514 0.03978324 -0.11446625 -0.034229346
0.0050937487 0.06418056 -0.05826623 -0.030434165 -0.0643525 -0.040407937 -0.10377402 0.0057368046
0.12077488 0.025886176 0.17819262 0.09999783 -0.012357749 0.017737199 0.24075387 -0.11056645
-0.03468719 0.057356127 -0.01819883 0.04520847 -0.054251637 0.00076009467 -0.13699487 0.113692336
-0.07657053 0.054183267 -0.016476128 -0.04485283 -0.106926925 0.07301589 0.056153014 0.08737993
-0.10752396 0.09831636 0.018610269 -0.09505256 0.101168506 0.051840957 0.055451125 -0.13578099
-0.08331189 -0.019365024 0.07096245 0.027687551 0.047985043 -0.052004874 0.04050662 0.0042485925
-0.20090114 -0.19754738 -0.028367238 0.00909226 0.07509338 -0.0061733304 -0.026667934 0.0053916895
00000000: 1204 8abd 6876 803d d0af 383c f499 03bd
00000010: 9b42 c3bd a4bf 7d3c 0080 48bd 9384 5bbd
00000020: 389b 78bc 6205 47bd 155e a7bd 8e08 81bd
00000030: 2d45 36bd 4a2f 83bd ddd1 e5bb 6e89 30bd
00000040: e041 5d3b 4704 96bd 25d9 7dbd 9578 90bd
00000050: 7750 6f3d 401d b5ba 8f9d 7e3d 8f5b 25bd
00000060: a437 8ebd 564d 063d 76b0 84bd a6f5 05bc
00000070: e3d9 84bd b60c 823c b973 08bd 0956 fe3c
00000080: 6098 99bd fe40 fa3c 8eca 2a3b 8f59 c03c
00000090: e9b0 5b3d d3fc 76bd cb31 81ba 82f6 a5bc
000000a0: f86d 2f3d 53ab 34bd 6f3a 5fbc 6737 1a3d
000000b0: 8243 503d 6c07 0c3d 5f18 9abd afd5 4c3d
000000c0: c83c 57bd a03c 393c e8c1 5fbd 76d3 bdbc
000000d0: 1bce d2bb 9b27 ebbc 6175 1ebd 7f1a fcbb
000000e0: 8c4c 9dbd 2526 d9bc d69c 0c3d 8e83 36bd
000000f0: 4b42 433c 52ab 8e3c c386 b5bc 383b 413d
00000100: 236f 4b3d e0dc 793d 9b80 a13c 56ac bebc
00000110: 1a6d c73b 69dd fe3c ddef 91bd a05c a3bd
00000120: 1ad7 003d c19b 733d 65aa 6cbc 595f 91bb
00000130: 7175 153d 5d02 0a3c af54 083d ed66 a9bc
00000140: 702a 5e3d 8aa7 3abb 138f 82bd 0b0a 57bd
00000150: fef0 0f3c 211f 33bc d0cc a3bd a2bf 6b3d
00000160: 3a66 24bd c75c 6abd 284c 13bd ee7a 643d
00000170: cdfa 31bc d870 c13b 0138 d23c f3d3 adbd
00000180: 5784 823d a8bb f23c 4a3a 7abd 9700 b1bd
00000190: 1129 f5bc f68b d4bc a99f 083d 10bf aa3c
000001a0: c80e 69bc 6457 ccbc 5d54 883d 2227 ec3a
000001b0: 6e7b e13c 134d b6bc 229d b33c 7d0d 25bd
000001c0: 509e 28bd 0bc9 b7bd 4039 bc3c b07e 083d
000001d0: c8cc 0f3c 8fdc e0ba 7a71 1c3d 0cd2 9d3c
000001e0: 04d2 e43c a304 903d a4a9 a4bd 8671 7cbd
000001f0: 809c 42bd 7a28 303c 0cfa a8bd f735 32bd
00000200: 7a18 0e3d fd99 88bd 6a3d 94bd 7293 773d
00000210: 1b1e 62bd cde2 d83c 0fb4 263d 785e 9bbd
00000220: e882 353d b0af 94bd 172c 9b3c b0c9 3bbd
00000230: 3dba 79bd 121f 68bd 665a a5bc 62b9 623d
00000240: 0a6b 45bd 341f b8bd ceb6 85bd e342 0bbd
00000250: d694 953d 261e 12bd 8530 743d ab22 c63a
00000260: 1c66 a4bc 4064 18bc b454 95bd ded6 d93c
00000270: 20ab 9b3c 007c 7fba 0920 923c 8377 373d
00000280: 4749 6fbd 7da5 6bbd 4bf1 a63c 9457 57bd
00000290: 4f2c 8cbd 4463 013d a1e8 12bc e8bd 2d3c
000002a0: 7360 faba 88f8 0fbd 70a6 153d 5276 183c
000002b0: e785 a0bd 90ea 7ebd 432d 823c 9bd0 cc3c
000002c0: 7625 87bc 0f25 7dbb 82c8 97bd e500 433e
000002d0: 0576 70bc d6f9 213e 0369 f63c 7b44 0a3c
000002e0: 7aae 15be d542 023e ee8b ef3d 5d42 81bc
000002f0: 7fb7 af3d 9c8d 0ebe 54f1 aa3c 91af a4bd
00000300: 9bae de3b 2b0d 6d3d bb6f bfbd b86d d13d
00000310: df9d 603c c0f3 223d 486d eabd 1234 0cbd
00000320: 76e9 a63b 1971 833d 92a8 6ebd 1251 f9bc
00000330: 3ecb 83bd cb82 25bd 7987 d4bd cefb bb3b
00000340: d258 f73d 3f0f d43c 2078 363e aacb cc3d
00000350: 2878 4abc 9a4d 913c 2f88 763e aa70 e2bd
00000360: 2814 0ebd 42ee 6a3d b615 95bc 842c 393d
00000370: f736 5ebd 1741 473a 6248 0cbe 87d7 e83d
00000380: 03d1 9cbd 46ef 5d3d f2f8 86bc 9ab7 37bd
00000390: 81fc dabd 5b89 953d b400 663d 40f4 b23d
000003a0: 8635 dcbd 165a c93d 9074 983c ebaa c2bd
000003b0: 6f31 cf3d 2f57 543d b820 633d 2c0a 0bbe
000003c0: 6d9f aabd 66a3 9ebc c354 913d 01d1 e23c
000003d0: f78b 443d 1003 55bd 45ea 253d c737 8b3b
000003e0: 07b9 4dbe dc49 4abe 6962 e8bc b4f7 143c
000003f0: 8fca 993d a649 cabb b676 dabc c5ac b03b

2.bias f4 [175]
-0.016140833 0.08680187 -0.046099074 -0.055421315 -0.04811384 -0.038395934 0.043328688 -0.07239975
-0.09377628 -0.04958922 0.073054805 -0.09068802 0.095994465 -0.047868744 -0.055190068 0.30716017
-0.023805618 0.0028178506 0.016748652 -0.101143315 -0.1292935 -0.074535 -0.02521735 -0.12280509
0.13608806 -0.020560399 -0.048748553 0.059606355 0.00964735 -0.035450976 -0.019575702 0.24856578
0.06267672 0.100116074 -0.041905172 -0.08560296 -0.14762712 0.021612111 0.2158535 -0.21156806
-0.17404999 -0.034354843 -0.0068365545 0.06459664 0.38829523 -0.07084873 0.0013191706 -0.18104383
-0.15361015 0.104359366 -0.05533337 0.111372255 -0.06346071 0.13349399 -0.06514663 -0.13024828
0.026369791 0.2644261 0.13354012 -0.043941874 -0.1156065 -0.06676871 0.02708663 0.38138643
-0.012161923 0.23677392 0.044421755 0.03380984 0.10713165 0.24815927 0.030775674 -0.09233645
-0.08592048 -0.0777979 0.0038869216 0.039877634 0.06733607 0.0063032643 0.02574508 -0.15581103
-0.13345827 -0.07336516 -0.052368943 0.009793024 -0.13410498 -0.038226165 0.12420741 0.004975803
-0.04856911 0.17788418 0.10719744 0.03151543 -0.08576955 0.28952417 -0.05123777 0.014494235
0.030901669 -0.18957016 -0.08385984 -0.039104782 0.052918017 0.17019787 -0.05040679 0.0038988097
-0.0516267 -0.042769976 -0.06253259 -0.05474266 -0.07989279 0.12900673 0.21506175 -0.045243412
0.085062474 0.08540987 -0.20906582 0.07980467 -0.13548645 -0.16321775 0.066244826 0.042310216
0.14364323 -0.0113091115 -0.0637334 0.13451935 0.038836785 -0.037551377 0.04889342 0.12586108
0.021290436 0.0123545015 0.05493669 0.020620177 0.070338234 -0.00011548173 -0.12072719 -0.17052653
0.18018535 -0.021347178 -0.09227117 0.4983457 0.07000263 0.0016317165 -0.015298271 0.0026517662
-0.026485978 0.07134714 0.08458473 0.180288 -0.08686026 0.049472935 -0.06784057 -0.035463363
-0.050863903 -0.16467659 -0.06584509 -0.15360624 -0.015417839 -0.03756187 -0.10926498 -0.037742354
-0.02904856 -0.010309782 0.33475742 0.12962845 -0.024333928 -0.013956389 -0.12326314 -0.07199469
-0.24805778 0.017559834 -0.09479223 -0.03794069 0.22897457 0.025163945 0.026906982
00000000: c839 84bc 2ec5 b13d 62d2 3cbd 7601 63bd
00000010: 0513 45bd 0e45 1dbd 6c79 313d 5246 94bd
00000020: c70d c0bd 111e 4bbd c29d 953d a4ba b9bd
00000030: bf98 c43d 0412 44bd fb0e 62bd 1944 9d3e
00000040: 0004 c3bc b0ab 383b 7834 893c 3a24 cfbd
00000050: 8465 04be cea5 98bd 9e94 cebc 3c81 fbbd
00000060: ab5a 0b3e 486e a8bc 90ac 47bd cb25 743d
00000070: eb0f 1e3c 0b35 11bd 395d a0bc 0788 7e3e
00000080: a75c 803d a809 cd3d c2a4 2bbd 9b50 afbd
00000090: 902b 17be e20b b13c b308 5d3e 4ca5 58be
000000a0: 293a 32be aab7 0cbd 2d05 e0bb 3e4b 843d
000000b0: a2ce c63e 2419 91bd 05e8 ac3a 8e63 39be
000000c0: fb4b 1dbe 5dba d53d 3ea5 62bd 2317 e43d
000000d0: b0f7 81bd a6b2 083e 996b 85bd ce5f 05be
000000e0: 7605 d83c dc62 873e bebe 083e 65fc 33bd
000000f0: 1ac3 ecbd 09be 88bd c8e4 dd3c 1545 c33e
00000100: cd42 47bc dd74 723e 96f3 353d 307c 0a3d
00000110: d767 db3d 771d 7e3e 441d fc3c e51a bdbd
00000120: 14f7 afbd 8154 9fbd b9bb 7e3b bb56 233d
00000130: 7ee7 893d 9d8b ce3b 59e7 d23c ed8c 1fbe
00000140: 49a9 08be 7940 96bd d180 56bd eb72 203c
00000150: d152 09be 0a93 1cbd 7460 fe3d 100c a33b
00000160: 67f0 46bd 4527 363e 558a db3d 5316 013d
00000170: f2a7 afbd 833c 943e b2de 51bd 3a79 6d3c
00000180: 7f25 fd3c ae1e 42be b5be abbd 562c 20bd
00000190: 90c0 583d 5a48 2e3e 5a77 4ebd 2c83 7f3b
000001a0: 8576 53bd 922f 2fbd 1611 80bd d739 60bd
000001b0: d59e a3bd 571a 043e 2639 5c3e 2851 39bd
000001c0: 3c35 ae3d 5feb ae3d 5a15 56be a170 a33d
000001d0: f6bc 0abe 8e22 27be 5eab 873d 7a4d 2d3d
000001e0: 3617 133e da49 39bc a886 82bd 71bf 093e
000001f0: 5213 1f3d 79cf 19bd 7744 483d bae1 003e
00000200: 4869 ae3c 896a 4a3c 4b05 613d a5eb a83c
00000210: 7e0d 903d c82e f2b8 d13f f7bd 829e 2ebe
00000220: 8282 383e 47e0 aebc abf8 bcbd 2b27 ff3e
00000230: 8a5d 8f3d 52df d53a 99a5 7abc 41c9 2d3b
00000240: 1ff9 d8bc 731e 923d c23a ad3d 6b9d 383e
00000250: cbe3 b1bd 22a4 4a3d ffef 8abd 0842 11bd
00000260: ab56 50bd fba0 28be cad9 86bd f44a 1dbe
00000270: 1b9b 7cbc 7ada 19bd 51c6 dfbd ba97 1abd
00000280: 3ff7 edbc 5cea 28bc 5365 ab3e 52bd 043e
00000290: f257 c7bc 57a9 64bc 6371 fcbd f471 93bd
000002a0: dc02 7ebe a4d9 8f3c 6e22 c2bd b267 1bbd
000002b0: 4f78 6a3e 9e24 ce3c 086c dc3c

4.weight f4 [175, 175]
-0.020893525 0.13868813 -0.0406394 -0.06880557 0.028776903 0.04114815 -0.050518658 -0.05244834
-0.07043375 -0.09823544 -0.09380302 -0.046118133 0.14345968 -0.033906065 -0.0554903 -0.19688088
-0.03699199 0.04916832 0.09552427 -0.11981431 -0.12720218 0.09671684 0.010348525 -0.02342009
0.00060460606 0.01893127 -0.06369285 0.06733163 -0.017900739 -0.058012813 0.00972859 0.15253328
0.13888918 0.009251534 -0.009638932 0.016352898 -0.019123323 -0.034463707 0.11222378 0.07070682
-0.05180721 -0.0089607015 -0.06589263 -0.017026166 0.07783513 0.011355825 -0.08237717 -0.23232566
0.054294154 -0.005629718 0.16060776 -0.05806108 -0.018113414 0.07695175 -0.17625345 -0.08719005
-0.035415746 -0.031587332 -0.1118002 0.011874156 0.029792845 -0.06228758 0.047013704 0.15671213
0.063403055 0.11935809 -0.05120854 0.013993711 -0.04408918 0.22725876 0.16261084 0.08312961
-0.0412255 -0.19272074 -0.055499353 -0.01616349 0.16944017 -0.0064087636 -0.018870259 -0.08094778
-0.040111262 0.029581623 -0.058877636 -0.10955488 -0.010117888 0.06344448 0.06275262 0.15079628
0.029409634 -0.068968065 0.18751135 0.095394455 0.12152151 0.17275286 -0.03957882 0.02587091
-0.13117024 0.01748217 -0.14204267 -0.07915595 -0.24937733 0.019445479 -0.08817303 0.014035482
-0.07778106 -0.04041782 -0.06522997 0.089078195 0.080470346 0.10322078 0.13745989 0.044819087
-0.052162904 -0.056486394 0.0048493035 0.01342304 0.06907806 0.060697235 -0.06882006 0.031959735
-0.06803566 -0.069105245 0.14838612 0.02088777 -0.0607711 0.05636565 -0.06871223 0.15949795
0.0025352251 0.12920727 0.046685528 0.07021084 0.12094923 0.108464755 -0.10439555 0.029071027
-0.044657134 -0.056920685 -0.049282815 0.22940533 -1.01235055e-05 -0.17402169 -0.0033357972 0.01659285
-0.024136508 0.08197914 0.045046978 -0.14188455 -0.05020008 -0.03799963 0.082788706 0.119840406
0.03312492 0.035295136 -0.040575787 0.12826411 0.018795831 0.028108293 0.022997962 -0.13313928
-0.20306973 -0.0716171 0.2322896 0.07787014 -0.0055794744 0.10288586 -0.059363727 0.0664175
-0.034011535 -0.01927658 0.11378927 0.008100974 0.13540536 0.046557482 0.0037178535 -0.0715876
0.084788576 -0.027155077 0.08494911 -0.06708638 -0.08003038 0.00021589964 0.041932274 0.020795062
0.035744496 0.088067986 -0.082649186 0.10656077 0.102868296 -0.095648795 0.31410247 -0.010147448
-0.024062278 -0.08061485 -0.11460507 -0.039348934 0.13061185 -0.07369268 -0.026550382 0.022255518
-0.103784434 -0.05750365 -0.012793232 -0.0014597625 0.028919611 -0.055327937 -0.063625 0.13281284
0.064509794 0.074664935 0.0539739 0.092291206 0.045304075 0.037914127 0.05173744 0.049542863
-0.020052334 -0.049796857 -0.03796254 -0.43820348 -0.014015719 -0.035502154 0.07001937 0.07194184
0.11550339 -0.05800839 -0.14625478 -0.06125376 -0.009653335 0.26609507 0.017126422 -0.11070498
-0.0011589018 -0.045128956 0.06577855 -0.0069898185 0.05685796 0.040997095 -0.0306977 -0.010884067
-0.05473167 0.00789473 -0.012519884 0.14402877 -0.074919246 -0.007311149 -0.09779432 0.07484315
0.092281684 -0.05248429 -0.07736002 0.07571585 0.1224941 0.085637815 -0.043859087 0.020313602
00000000: e628 abbc 4304 0e3e 8075 26bd efe9 8cbd
00000010: 8abd eb3c f68a 283d a7ec 4ebd 12d4 56bd
00000020: 923f 90bd aa2f c9bd cc1b c0bd 5ee6 3cbd
00000030: 18e7 123e 16e1 0abd cc49 63bd 249b 49be
00000040: ea84 17bd b864 493d 3aa2 c33d 3461 f5bd
00000050: 4a41 02be 7b13 c63d dc8c 293c 7ddb bfbc
00000060: 6d7e 1e3a c015 9b3c 6671 82bd 2ae5 893d
00000070: 92a4 92bc d89e 6dbd aa64 1f3c af31 1c3e
00000080: f738 0e3e bf93 173c 9cec 1dbc 83f6 853c
00000090: 84a8 9cbc d129 0dbd 95d5 e53d bdce 903d
000000a0: cc33 54bd e8cf 12bc b7f2 86bd 757a 8bbc
000000b0: 0668 9f3d c80d 3a3c 5db5 a8bd c7e6 6dbe
000000c0: 8c63 5e3d 7f79 b8bb 5c76 243e 74d1 6dbd
000000d0: 9562 94bc e198 9d3d c97b 34be b290 b2bd
000000e0: 1a10 11bd b861 01bd 81f7 e4bd d28b 423c
000000f0: 2010 f43c 4321 7fbd 7191 403d 2579 203e
00000100: 76d9 813d 0472 f43d 0cc0 51bd e145 653c
00000110: db96 34bd 85b6 683e 7583 263e db3f aa3d
00000120: 12dc 28bd 9658 45be 4a53 63bd 4c69 84bc
00000130: b981 2d3e 9b00 d2bb cd95 9abc f3c7 a5bd
00000140: b54b 24bd 2955 f23c ad29 71bd 4f5e e0bd
00000150: 80c5 25bc 2eef 813d 7284 803d 576a 1a3e
00000160: 79ec f03c 213f 8dbd fa02 403e 2b5e c33d
00000170: 45e0 f83d 20e6 303e 671d 22bd 3bef d33c
00000180: 7e51 06be c536 8f3c a273 11be 841c a2bd
00000190: c55c 7fbe 204c 9f3c 1094 b4bd 14f5 653c
000001a0: ad4b 9fbd 288d 25bd 4a97 85bd a16e b63d
000001b0: a3cd a43d 6b65 d33d 49c2 0c3e 3894 373d
000001c0: c5a8 55bd 475e 67bd e8e6 9e3b 4fec 5b3c
000001d0: cc78 8d3d aa9d 783d 88f1 8cbd 36e8 023d
000001e0: 4856 8bbd 0d87 8dbd 88f2 173e d41c ab3c
000001f0: 1eeb 78bd abdf 663d ffb8 8cbd 6e53 233e
00000200: 0526 263b e94e 043e 5339 3f3d b3ca 8f3d
00000210: 3bb4 f73d c522 de3d 56cd d5bd 5d26 ee3c
00000220: 66ea 36bd aa25 69bd c7dc 49bd 3be9 6a3e
00000230: 20d8 29b7 be32 32be 649d 5abb bbed 873c
00000240: edb9 c5bc aee4 a73d 2e83 383d 2f4a 11be
00000250: 999e 4dbd 80a5 1bbd 208d a93d e36e f53d
00000260: ffad 073d a291 103d cc32 26bd ab57 033e
00000270: b7f9 993c 5d43 e63c 3966 bc3c aa55 08be
00000280: 83f1 4fbe fcab 92bd 53dd 6d3e 617a 9f3d
00000290: 06d4 b6bb d2b5 d23d 6127 73bd e605 883d
000002a0: ae4f 0bbd ebe9 9dbc 590a e93d f3b9 043c
000002b0: b4a7 0a3e 0fb3 3e3d 3ba7 733b 859c 92bd
000002c0: a2a5 ad3d 5374 debc cdf9 ad3d 9664 89bd
000002d0: f8e6 a3bd 1e63 6239 2dc1 2b3d 685a aa3c
000002e0: d268 123d fd5c b43d fa43 a9bd 883c da3d
000002f0: 9dac d23d 84e3 c3bd 0ad2 a03e 7b41 26bc
00000300: 411e c5bc 6619 a5bd 10b6 eabd 592c 21bd
00000310: 1dbf 053e 30ec 96bd 3080 d9bc 3451 b63c
00000320: ef8c d4bd f388 6bbd b49a 51bc 8055 bfba
00000330: d2e8 ec3c 8c9f 62bd d34d 82bd 1700 083e
00000340: b61d 843d eee9 983d bc13 5d3d 2c03 bd3d
00000350: c490 393d d84b 1b3d a3ea 533d 75ed 4a3d
00000360: cb44 a4bc caf7 4bbd 9c7e 1bbd 355c e0be
00000370: 30a2 65bc b56a 11bd 5166 8f3d 3e56 933d
00000380: 0b8d ec3d 359a 6dbd d0c3 15be 39e5 7abd
00000390: 0629 1ebc 9d3d 883e b64c 8c3c 4bb9 e2bd
000003a0: 4be6 97ba 24d9 38bd e8b6 863d d90a e5bb
000003b0: e4e3 683d 92ec 273d be79 fbbc 1653 32bc
000003c0: 512e 60bd e658 013c 3320 4dbc 477c 133e
000003d0: 436f 99bd 5d92 efbb 6348 c8bd 5e47 993d
000003e0: 2efe bc3d c4f9 56bd ee6e 9ebd e910 9b3d
000003f0: 30de fa3d e162 af3d 96a5 33bd b668 a63c

4.bias f4 [175]
0.23976669 -0.05848183 0.07966989 0.039292 0.28896296 0.09230845 -0.026730277 0.12188357
0.14604363 -0.07699885 -0.0033113307 -0.081220426 0.023399532 -0.028953353 0.07662455 -0.13282934
0.024581727 0.13528481 0.009238281 0.036561273 0.16465606 0.020830838 -0.035499994 -0.021041567
-0.04541594 -0.06278766 0.03783402 0.15266055 -0.12997498 0.051278457 0.110780135 -0.048951626
0.05547711 0.010388083 -0.06665941 0.07914151 -0.008075899 -0.23116536 0.0153510785 -0.17991464
-0.021192646 0.0913922 0.015254956 -0.12843011 -0.06688676 -0.06589221 -0.007997912 -0.041803945
-0.0039510424 0.06831618 -0.038561057 0.045536716 -0.11148522 0.015589018 -0.06614414 0.084441
0.25170204 -0.07797081 -0.09480376 -0.015394787 -0.06806615 0.019844513 -0.06495018 0.035274632
0.14165972 -0.044055417 -0.05525911 -0.17639771 0.06166927 0.14298397 -0.0070475945 -0.051629454
-0.056168646 0.08506217 0.012299195 0.019395996 -0.059077073 -0.049598575 -0.0058537885 0.019110523
-0.19559091 -0.00027306261 0.06803791 -0.07052514 -0.04975403 0.054246295 0.08183652 0.048721086
-0.18710272 -0.13277607 -0.07931495 -0.038292114 -0.03469431 -0.12695198 -0.0071830084 0.03720811
0.038146242 -0.0028660663 -0.016480334 -0.05157189 -0.16266161 -0.13403219 0.16187921 -0.081799604
-0.060516965 0.058007397 0.08548366 0.031394962 0.18484141 0.029205332 -0.026124513 -0.06916292
0.022786826 0.07900558 -0.045711365 -0.13585413 -0.019525481 0.049882237 0.03737834 0.08771904
-0.022755276 0.111249544 0.0012500624 0.017785672 0.12091027 0.0017313639 -0.028289076 -0.11857435
-0.08383431 0.032460917 0.03002432 0.025927616 0.053428683 -0.22478549 -0.11590516 0.31091607
0.28983706 -0.09207986 0.079995945 0.1179771 0.06487759 0.15824509 0.006414528 -0.07419547
0.0714993 -0.23234917 -0.043725606 0.008551793 -0.10053298 0.017550033 0.13308306 0.025306355
0.07879763 -0.0067669656 0.039679863 -0.053514 0.065694936 -0.20094198 0.18119213 0.1536196
-0.044902075 0.092301354 -0.034794845 -0.020131111 0.20513992 0.06371773 0.07613819 0.25344518
-0.082804464 -0.007637705 0.022457426 -0.17818746 0.096278675 -0.115638636 -0.07500179
00000000: 6685 753e a58a 6fbd f829 a33d a6f0 203d
00000010: f4f2 933e 360c bd3d 74f9 dabc 189e f93d
00000020: 768c 153e 93b1 9dbd e902 59bb e556 a6bd
00000030: 60b0 bf3c 952f edbc 55ed 9c3d 6a04 08be
00000040: 9e5f c93c 1a88 0a3e 295c 173c 46c1 153d
00000050: 999b 283e 6fa5 aa3c 7168 11bd 5d5f acbc
00000060: 1106 3abd d196 80bd d8f7 1a3d 0c53 1c3e
00000070: 2918 05be 5c09 523d b2e0 e23d 8081 48bd
00000080: f73b 633d c732 2a3c bb84 88bd f214 a23d
00000090: c750 04bc 9db6 6cbe 1783 7b3c 8b3b 38be
000000a0: 339c adbc d52b bb3d ecef 793c 2f83 03be
000000b0: edfb 88bd 7ff2 86bd ad09 03bc 9d3a 2bbd
000000c0: bf77 81bb 5ae9 8b3d 33f2 1dbd b584 3a3d
000000d0: 5d52 e4bd 1569 7f3c 9476 87bd 67ef ac3d
000000e0: 17df 803e 29af 9fbd 7928 c2bd 6b3a 7cbc
000000f0: 4466 8bbd f690 a23c 9a04 85bd 227c 103d
00000100: 3f0f 113e 7473 34bd 6057 62bd 9aa1 34be
00000110: eb98 7c3d 646a 123e 82ef e6bb 6879 53bd
00000120: 1811 66bd 1335 ae3d 9082 493c 5ae4 9e3c
00000130: cdfa 71bd e027 4bbd 23d1 bfbb ac8d 9c3c
00000140: fc48 48be d829 8fb9 7657 8b3d 7c6f 90bd
00000150: e2ca 4bbd 5d31 5e3d e899 a73d c38f 473d
00000160: db97 3fbe 73f6 07be e06f a2bd 31d8 1cbd
00000170: 9f1b 0ebd b3ff 01be 715f ebbb 8867 183d
00000180: 3c3f 1c3d 9dd4 3bbb c401 87bc 0c3d 53bd
00000190: c490 26be bc3f 09be aac3 253e 8d86 a7bd
000001a0: a3e0 77bd 2a99 6d3d 0f12 af3d 0198 003d
000001b0: 1147 3d3e 0540 ef3c 1303 d6bc 4aa5 8dbd
000001c0: 70ab ba3c adcd a13d d73b 3bbd 581d 0bbe
000001d0: e7f3 9fbc 5151 4c3d 081a 193d 0aa6 b33d
000001e0: 4669 babc cdd6 e33d 22d9 a33a 42b3 913c
000001f0: ce9f f73d efee e23a 7ebe e7bc 1cd7 f2bd
00000200: 53b1 abbd bdf5 043d 90f5 f53c 2766 d43c
00000210: 09d8 5a3d 2b2e 66be af5f edbd 6430 9f3e
00000220: 8665 943e 5e94 bcbd ead4 a33d fa9d f13d
00000230: 8bde 843d 000b 223e f630 d23b cbf3 97bd
00000240: 3a6e 923d f1ec 6dbe 9f19 33bd d21c 0c3c
00000250: 3ce4 cdbd 16c5 8f3c ed46 083e 464f cf3c
00000260: a760 a13d 6cbd ddbb 5a87 223d 7f31 5bbd
00000270: 118b 863d bcc3 4dbe 6e8a 393e 754e 1d3e
00000280: 3deb 37bd 7e08 bd3d 0a85 0ebd 00ea a4bc
00000290: 3310 523e 717e 823d 57ee 9b3d 91c3 813e
000002a0: 6395 a9bd b745 fabb a3f8 b73c c676 36be
000002b0: c12d c53d f3d3 ecbd 8a9a 99bd

6.weight f4 [157, 175]
0.09397936 -0.015434795 0.00499314 0.07379632 -0.25328934 -0.23726931 -0.116069466 -0.076396376
0.08990335 -0.009341393 -0.048551343 -0.054616034 -0.08166369 -0.20075162 0.029582176 0.028758172
-0.12574807 0.01282489 -0.004133409 -0.07470629 0.12370213 0.07726069 -0.0664096 -0.34653717
0.02508883 0.008347412 0.0010575616 -0.02895673 0.026876347 0.014758827 -0.021391587 0.028653556
0.09031662 -0.12896545 -0.117578745 0.0902199 0.03198006 -0.050551094 -0.2278182 -0.10078937
-0.009915102 0.08992191 0.0673947 -0.010959272 0.053641938 -0.07143055 0.029138016 -0.13200782
-0.057141565 -0.094487734 -0.030854195 0.030765368 -0.086040355 -0.09598684 0.023385795 0.12477966
-0.048186522 -0.00991885 -0.065313466 0.02600754 0.06501376 -0.07325282 -0.029547017 0.09946783
-0.1199442 0.05327212 0.015905727 0.0011536384 -0.032462735 0.06689772 0.04800161 -0.052124187
-0.15008213 -0.020966792 0.06408573 -0.035342675 0.11828206 -0.031157251 0.007284239 -0.048694614
0.047156114 0.08742292 0.14740393 -0.008514118 0.011298608 -0.03932618 0.076948866 -0.06108009
-0.08027274 -0.08496623 -0.12410518 -0.1874751 0.046326205 -0.031800076 -0.0439587 0.01899248
-0.02243557 0.08634965 0.105530635 0.007529306 0.0861974 -0.14545316 0.08864577 -0.09260356
-0.06724511 -0.06950732 0.07330715 0.04134205 0.06338038 0.0042080306 0.011017729 0.035098698
-0.06178969 0.080870435 -0.04087371 0.11535793 0.06604408 -0.061968323 0.023038635 0.022427334
0.11076443 -0.25949493 -0.17921191 -0.019550223 -0.21212724 0.061286233 0.09469464 0.003436321
-0.05919362 -0.06376357 -0.07145148 -0.07688225 0.066928476 -0.1031205 0.04599125 0.09624417
0.16258217 0.1545307 -0.10878423 0.067040205 0.0060349857 0.13587797 0.13059825 -0.06338217
-0.2905169 -0.10013119 -0.14282244 0.03522819 -0.12984794 -0.04546172 0.1419431 -0.10945135
-0.010628259 0.052966874 0.06797012 -0.14640412 -0.11184719 -0.24847712 -0.009024089 -0.15702958
-0.0064332816 0.06763954 0.0963866 -0.050220348 0.0007034805 -0.03917993 0.11835837 -0.06705277
-0.022880938 -0.18316464 -0.17438586 0.035021324 -0.10243478 0.00039226218 -0.05222987 -0.16842024
0.013487621 0.059663553 0.08140701 -0.17139031 0.07636447 0.017445203 -0.09893421 0.06748708
0.07420648 -0.12909389 -0.05432303 -0.094648644 -0.024844967 -0.022446193 -0.019341152 -0.08292004
-0.008215477 -0.070995435 -1.8810319e-05 0.014375454 -0.15415691 -0.04604068 0.027968612 0.09211803
-0.12285678 0.026126724 -0.0052940384 -0.20779599 0.058277704 -0.059813533 0.013292812 -0.0726949
0.010892534 0.0068059643 -0.06415156 -0.18073557 -0.010135852 0.08963209 0.10370359 0.0037397295
-0.027238872 0.014264952 -0.030496659 0.00888119 0.029167606 -0.08042899 -0.05416442 -0.014642282
0.019711608 -0.03256752 -0.031083405 -0.00019265006 0.032252632 0.07150677 -0.0010824968 0.04340155
-0.04669856 0.008594797 -0.06549022 0.028099442 0.009308291 -0.039829012 0.035076737 0.027935183
0.0116508 0.0018083468 -0.062015478 0.022264564 0.00887043 0.03438835 0.019718776 0.04973091
-0.0041118544 -0.03537963 0.053226467 0.053845346 -0.059529904 -0.02778951 -0.08822066 0.09818677
00000000: 4078 c03d 39e2 7cbc 7f9d a33b 8622 973d
00000010: 24af 81be baf6 72be d4b5 edbd b475 9cbd
00000020: 3f1f b83d a40c 19bc c6dd 46bd 10b5 5fbd
00000030: 4b3f a7bd d591 4dbe 5256 f23c 4296 eb3c
00000040: 1ac4 00be 7d1f 523c 8c71 87bb 9dff 98bd
00000050: 8b57 fd3d da3a 9e3d c201 88bd 526d b1be
00000060: 1787 cd3c 95c3 083c e19d 8a3a aa36 edbc
00000070: c92b dc3c 02cf 713c 693d afbc ddba ea3c
00000080: ecf7 b83d 850f 04be 20cd f0bd 36c5 b83d
00000090: 86fd 023d aa0e 4fbd 2d49 69be a86a cebd
000000a0: f472 22bc fa28 b83d 3c06 8a3d 858e 33bc
000000b0: a6b7 5b3d 2e4a 92bd d9b2 ee3c 0f2d 07be
000000c0: 460d 6abd c982 c1bd f0c1 fcbc a707 fc3c
000000d0: ed35 b0bd c094 c4bd 9193 bf3c 7a8c ff3d
000000e0: 3b5f 45bd ac82 22bc 11c3 85bd c40d d53c
000000f0: ef25 853d 9305 96bd 960c f2bc cab5 cb3d
00000100: 4ea5 f5bd de33 5a3d ba4c 823c ae35 973a
00000110: a5f7 04bd ac01 893d 569d 443d 2c80 55bd
00000120: 21af 19be 8dc2 abbc 613f 833d 7bc3 10bd
00000130: dd3d f23d 7e3d ffbc a0b0 ee3b 0174 47bd
00000140: c526 413d ca0a b33d 0ef1 163e cd7e 0bbc
00000150: cc1d 393c 7d14 21bd 5e97 9d3d 1e2f 7abd
00000160: 0966 a4bd c602 aebd db2a febd 79f9 3fbe
00000170: 8cc0 3d3d cc40 02bd 0a0e 34bd 1e96 9b3c
00000180: cdca b7bc 16d8 b03d 7220 d83d 66b8 f63b
00000190: 4388 b03d acf1 14be ea8b b53d efa6 bdbd
000001a0: ceb7 89bd db59 8ebd 0f22 963d 4856 293d
000001b0: 93cd 813d 85e3 893b b483 343c a7c3 0f3d
000001c0: 3017 7dbd 669f a53d 316b 27bd c740 ec3d
000001d0: 1e42 873d 7fd2 7dbd 85bb bc3c 87b9 b73c
000001e0: 76d8 e23d 85dc 84be 5483 37be ca27 a0bc
000001f0: e237 59be 4607 7b3d 43ef c13d e633 613b
00000200: 0275 72bd 7996 82bd 2755 92bd 7174 9dbd
00000210: cc11 893d d730 d3bd 5261 3c3d aa1b c53d
00000220: f17b 263e 4c3d 1e3e 44ca debd 604c 893d
00000230: 21c1 c53b 9823 0b3e 8cbb 053e 83ce 81bd
00000240: a2be 94be 9511 cdbd 0c40 12be 6f4b 103d
00000250: dcf6 04be 1236 3abd 8859 113e 0828 e0bd
00000260: 2622 2ebc cbf3 583d eb33 8b3d f6ea 15be
00000270: 2410 e5bd c970 7ebe c6d9 13bc 5dcc 20be
00000280: 47ce d2bb 9986 8a3d 5666 c53d dab3 4dbd
00000290: c769 383a 227b 20bd e065 f23d f652 89bd
000002a0: ce70 bbbc 838f 3bbe 3592 32be 8572 0f3d
000002b0: 53c9 d1bd 8aa8 cd39 fdee 55bd 5b76 2cbe
000002c0: 2ffb 5c3c c561 743d b8b8 a63d f180 2fbe
000002d0: fa64 9c3d 3ee9 8e3c 059e cabd ab36 8a3d
000002e0: 91f9 973d 3031 04be d381 5ebd 26d7 c1bd
000002f0: ac87 cbbc 14e1 b7bc 5671 9ebc fbd1 a9bd
00000300: 359a 06bc 0e66 91bd daca 9db7 0687 6b3c
00000310: 4fdb 1dbe 2795 3cbd 6e1e e53c 61a8 bc3d
00000320: 569c fbbd b607 d63c 9d79 adbb 79c8 54be
00000330: 9ab4 6e3d 09ff 74bd 18ca 593c 10e1 94bd
00000340: 9976 323c 9104 df3b e561 83bd bf12 39be
00000350: d810 26bc 0791 b73d 8c62 d43d 4016 753b
00000360: 0e24 dfbc 8cb7 693c 21d4 f9bc 6982 113c
00000370: e7f0 ee3c f4b7 a4bd 83db 5dbd 2fe6 6fbc
00000380: 3d7a a13c 8565 05bd a0a2 febc 1b02 4ab9
00000390: 561b 043d 2472 923d 91e2 8dba d3c5 313d
000003a0: fd46 3fbd 31d1 0c3c bd1f 86bd cd30 e63c
000003b0: cd81 183c bf23 23bd a0ac 0f3d 53d8 e43c
000003c0: ffe2 3e3c 0d06 ed3a f103 7ebd 2d64 b63c
000003d0: 4855 113c ccda 0c3d 4589 a13c a4b2 4b3d
000003e0: bcbc 86bb 3bea 10bd ff03 5a3d f08c 5c3d
000003f0: a1d5 73bd d4a6 e3bc 09ad b4bd 2516 c93d

6.bias f4 [157]
0.16447017 -0.03234979 -0.22698742 -0.0022568998 0.054803442 -0.09605023 -0.24550025 -0.008629042
0.2043621 -0.020196259 -0.00064423145 0.12552875 -0.021527164 0.053986922 0.107229725 -0.049659766
-0.029989189 0.05266915 0.043130927 -0.032030873 -0.09151217 -0.07258145 0.16826448 -0.003155094
0.13012467 0.15002955 0.05884839 -0.11515065 0.12716477 -0.028144544 0.07149133 0.081240214
0.07174264 -0.14682624 0.1380672 -0.0067069563 -0.13731144 -0.14670987 -0.045341033 -0.11021091
-0.07428315 -0.09103705 -0.17340867 0.04804256 0.06777936 -0.007491949 -0.050370436 0.012615437
-0.16977093 0.052216016 0.016449839 -0.15450567 0.10332057 0.021252643 -0.05279591 0.0035185805
-0.024856482 -0.06665066 -0.0021949145 0.053649373 0.033744223 0.035106495 -0.005354534 0.036415614
0.12435575 0.074143894 -0.05113722 0.019544605 -0.038692478 0.19112328 0.11979724 0.15423147
-0.12369787 -0.18280631 0.13291979 0.10051263 -0.11590357 -0.031762846 0.00052408775 0.02929539
-0.075053036 0.16257825 0.084519945 -0.09905583 -0.06983825 0.045527387 0.09142497 0.0010641121
0.04970469 0.05377201 0.01861758 -0.046408564 -0.06101108 -0.07739577 0.07828905 -0.0451273
0.0049776146 -0.0031777602 0.009544135 0.0044309204 0.18472001 0.11547787 0.13557443 -0.027355859
-0.05756265 0.16139424 -0.010058831 -0.053769458 -0.104493015 -0.14503051 0.021806426 -0.047080282
-0.09108755 -0.14555986 0.034278497 -0.1365162 0.010837695 -0.02500804 0.04289694 -0.0047179814
0.050952148 -0.122857764 -0.098684944 0.16824447 -0.15246655 0.08753616 0.04497205 -0.12866846
-0.15349759 -0.04672623 -0.075807095 -0.031119466 -0.07878169 0.071729556 -0.118726574 -0.20127364
-0.010310735 0.13550392 0.0052727987 -0.0141871665 0.07974679 -0.11243004 0.17419218 0.052224383
0.071580365 0.007788868 0.0028161022 0.009867553 0.20083001 -0.07710383 -0.02775716 0.06101055
-0.11080492 -0.02034185 0.1221829 -0.18164302 0.02792529
00000000: de6a 283e 3781 04bd 646f 68be 7fe8 13bb
00000010: 9379 603d fcb5 c4bd 6b64 7bbe d360 0dbc
00000020: 4c44 513e a072 a5bc a4e1 28ba 9c8a 003e
00000030: bc59 b0bc 6421 5d3d 429b db3d 0a68 4bbd
00000040: e3ab f5bc 9bbb 573d 0eaa 303d ce32 03bd
00000050: bc6a bbbd 95a5 94bd 864d 2c3e b2c5 4ebb
00000060: 673f 053e 59a1 193e 020b 713d 1bd4 ebbd
00000070: 7b37 023e 638f e6bc 0c6a 923d 4561 a63d
00000080: ceed 923d 9e59 16be 7d61 0d3e 07c6 dbbb
00000090: 5f9b 0cbe 1d3b 16be 85b7 39bd 42b6 e1bd
000000a0: c421 98bd a271 babd 0b92 31be 47c8 443d
000000b0: e8cf 8a3d 067f f5bb 3b51 4ebd fab0 4e3c
000000c0: 6ed8 2dbe 76e0 553d d0c1 863c bc36 1ebe
000000d0: bc99 d33d 061a ae3c 8640 58bd fc97 663b
000000e0: d29f cbbc 2480 88bd 8ed8 0fbb 72bf 5b3d
000000f0: 6237 0a3d d4cb 0f3d 1675 afbb 8a28 153d
00000100: 3aae fe3d c1d8 973d 4375 51bd 021c a03c
00000110: 017c 1ebd d2b5 433e 4158 f53d dbee 1d3e
00000120: 4f55 fdbd 9431 3bbe 201c 083e 91d9 cd3d
00000130: da5e edbd c219 02bd ef62 093a e3fc ef3c
00000140: 68b5 99bd ea7a 263e cb18 ad3d c8dd cabd
00000150: 5b07 8fbd ed7a 3a3d 043d bb3d ad79 8b3a
00000160: 2597 4b3d 0a40 5c3d e583 983c e816 3ebd
00000170: c1e6 79bd ac81 9ebd 0256 a03d 67d7 38bd
00000180: 421b a33b f841 50bb 015f 1c3c 4131 913b
00000190: 3e27 3d3e a97f ec3d 06d4 0a3e 6519 e0bc
000001a0: d0c6 6bbd 8844 253e cccd 24bc 5d3d 5cbd
000001b0: 6f00 d6bd e182 14be 64a3 b23c 41d7 40bd
000001c0: 1c8c babd a50d 15be 9c67 0c3d e7ca 0bbe
000001d0: 9690 313c a9dd ccbc b4b4 2f3d 4c99 9abb
000001e0: 33b3 503d da9c fbbd 551b cabd 4748 2c3e
000001f0: 3120 1cbe 2946 b33d 9d34 383d aac1 03be
00000200: 792e 1dbe 0164 3fbd c040 9bbd 40ee febc
00000210: 4b58 a1bd f2e6 923d eb26 f3bd ad1a 4ebe
00000220: 5bee 28bc 8ac1 0a3e 71c7 ac3b 4a71 68bc
00000230: 4952 a33d b941 e6bd 6f5f 323e 3ce9 553d
00000240: ba98 923d c339 ff3b 5b8e 383b 84ab 213c
00000250: 62a6 4d3e 9de8 9dbd fc62 e3bc 33e6 793d
00000260: b1ed e2bd f4a3 a6bc 073b fa3d a100 3abe
00000270: 94c3 e43c
