pav_spkid_pytorch/lpcc_model_hsize_175_lr0001/e14_weights.ckpt (torch_old, 755742 bytes, 8 tensors)

0.weight f4 [175, 567]
-0.03776284 0.0071855984 0.0324719 -0.008939376 -0.0042372993 0.03479226 -0.023485886 -0.011665159
0.024049928 0.02307896 0.035035767 -0.03526528 0.020136891 0.00888202 0.016667226 -0.035021152
-0.013872393 -0.0018756912 -0.008326603 -0.01434841 -0.0057196673 0.034981847 -0.035334375 -0.031868767
0.02368523 0.033245616 0.016992178 0.010136965 -0.032112055 0.03716889 0.0019936275 -0.003420975
-0.022991102 -0.030990852 -0.0025850844 0.00013214769 -0.027033854 0.015607492 0.0012289799 0.0143321315
-0.015179615 -0.0108961295 0.0031140307 -0.028418586 0.020426994 0.033267904 -0.0021266865 -0.027217401
0.029572623 -0.01343768 0.0034704572 0.0032065418 -0.012735554 0.007937258 0.020312075 -0.018234551
-0.02560068 -0.039039224 -0.018220587 -0.01476405 0.0003586676 -0.0131384805 0.021523375 0.007163598
0.017131371 -0.033937585 0.025525067 0.02634419 0.008318111 -0.03798514 0.027992025 0.011054007
0.032606006 -0.039393377 -0.01636725 -0.012569222 0.04576613 -0.01756727 -0.013624307 -0.03513191
0.03805377 -0.042535275 0.031163787 0.029627448 -0.044187382 -0.030028604 0.035803724 0.042183775
0.041345116 -0.029176533 0.012239991 -0.03553263 -0.014715947 0.04060039 0.021739267 0.03871954
0.027317138 -0.0032080184 -0.041763138 0.013500396 -0.03720752 -0.009603597 -0.011982065 0.01915485
0.031132879 0.016897764 0.007378752 -0.011496115 0.015820634 -0.0015912101 0.03331989 -0.04244927
0.039044995 0.041591614 -0.022266408 -0.0047959257 0.023463514 -0.036213886 0.005546825 -0.0020454407
0.04117902 0.031188356 -0.027053645 -0.012045585 -0.015108856 0.013416779 -0.041570455 0.0276123
0.029834475 -0.018665534 -0.03529804 0.009087263 -0.0021251738 -0.017989557 0.034981444 0.032866467
-0.038834933 -0.006127891 0.033650294 -0.015521643 0.01028056 0.00011710113 -0.013364926 -0.034636047
-0.009890686 0.004297469 -0.0068117282 -0.033192582 0.019657036 0.029188922 -0.025597868 0.022722667
-0.027337607 -0.023623534 0.007902162 -0.015542745 0.026257263 0.0067307837 -0.008534079 0.015052642
-0.0058770822 0.016508857 -0.022536105 0.012988756 0.011319708 -0.02070275 -0.0040038885 -0.0042672628
-0.027677381 0.00075909245 0.034914307 -0.016235143 0.014604858 -0.03423564 0.02681391 0.0029699726
-0.021276424 0.003674508 -0.032828283 0.035050817 0.025535768 0.0074249427 0.0035752202 -0.045920223
0.018488118 0.02075446 -0.0109996805 0.047682498 0.026355749 -0.016238598 -0.021200914 0.033007253
-0.017465096 0.03335659 -0.000491721 -0.0051989206 0.034927573 0.024019761 -0.017397188 -0.0012683016
0.013280657 -0.020370273 0.018183295 -0.016823333 -0.023224887 -0.024875522 -0.025287002 0.025552113
-0.040335126 -0.010993736 0.02829189 -0.0041353535 -0.03828808 -0.030692264 0.05032002 -0.0018665295
0.03098777 0.031474788 0.007487047 0.0005802516 0.020757826 -0.040204536 0.0073480983 0.015966473
0.0031075194 0.0026640787 -0.0114903515 0.0024892082 0.034646276 -0.024691898 0.008105644 0.025607351
-0.017164858 0.0046521565 -0.013445797 -0.023528893 0.013311434 0.012782835 -0.020759702 -0.02006349
-0.009625866 -0.02741885 0.026528912 -0.020911233 -0.019600352 0.027913015 -0.01964762 -0.03378005
0.039495572 0.017722555 -0.017097725 0.03760676 -0.017651148 -0.0029930843 -0.030153211 -0.03963211
00000000: 35ad 1abd 2b75 eb3b 4101 053d 7676 12bc
00000010: 0bd9 8abb 5482 0e3d 7965 c0bc 391f 3fbc
00000020: 5b04 c53c 1610 bd3c aa81 0f3d 5472 10bd
00000030: 1ff6 a43c e485 113c b589 883c 5772 0fbd
00000040: 0949 63bc c1d9 f5ba 4e6c 08bc 9815 6bbc
00000050: 0c6c bbbb 2049 0f3d c7ba 10bd d388 02bd
00000060: 8707 c23c 8e2c 083d 2e33 8b3c 8315 263c
00000070: ee87 03bd 683e 183d 85a7 023b 7032 60bb
00000080: d657 bcbc 87e0 fdbc 856a 29bb 2091 0a39
00000090: 1a76 ddbc 91b6 7f3c b915 a13a 51d1 6a3c
000000a0: ebb3 78bc ae85 32bc c414 4c3b 18ce e8bc
000000b0: 8356 a73c ed43 083d e15f 0bbb 07f7 debc
000000c0: 4942 f23c b729 5cbc 9c70 633b d824 523b
000000d0: c9a8 50bc 460b 023c 8265 a63c a060 95bc
000000e0: 84b8 d1bc 98e7 1fbd 5743 95bc eae4 71bc
000000f0: 8d0b bc39 c842 57bc ca51 b03c 9ebc ea3b
00000100: 1757 8c3c 2302 0bbd f219 d13c c5cf d73c
00000110: b048 083c 4e96 1bbd 884f e53c de1b 353c
00000120: e08d 053d f35a 21bd 9c14 86bc 23ef 4dbc
00000130: 4475 3b3d 3ce9 8fbc 7c38 5fbc 7ae6 0fbd
00000140: 45de 1b3d 7839 2ebd 334b ff3c 43b5 f23c
00000150: d4fd 34bd 8cfe f5bc eda6 123d e5c8 2c3d
00000160: 7f59 293d a003 efbc 3e8a 483c aa8a 11bd
00000170: 281b 71bc 984c 263d 8c16 b23c 6198 1e3d
00000180: 31c8 df3c 9e3d 52bb d30f 2bbd c430 5d3c
00000190: ea66 18bd 6858 1dbc 6c50 44bc a2ea 9c3c
000001a0: 610a ff3c 2e6d 8a3c 75c9 f13b 335a 3cbc
000001b0: 469a 813c 2790 d0ba 707a 083d 49df 2dbd
000001c0: a5ed 1f3d f85b 2a3d 0b68 b6bc 2427 9dbb
000001d0: 8e36 c03c 0355 14bd 24c2 b53b cd0c 06bb
000001e0: 55ab 283d b97e ff3c 9b9f ddbc d85a 45bc
000001f0: 238b 77bc 0dd2 5b3c c845 2abd 3133 e23c
00000200: 6e67 f43c 76e8 98bc ad94 10bd bee2 143c
00000210: 8046 0bbb d65e 93bc b448 0f3d fd9e 063d
00000220: 6111 1fbd 7acc c8bb e4d4 093d 7d4e 7ebc
00000230: cb6f 283c 3194 f538 90f8 5abc 87de 0dbd
00000240: 8b0c 22bc c8d1 8c3b eb34 dfbb f2f4 07bd
00000250: cb07 a13c 9b1d ef3c 9fb2 d1bc e324 ba3c
00000260: 1ef3 dfbc 2486 c1bc 1278 013c ffa6 7ebc
00000270: 7919 d73c e88d dc3b 86d2 0bbc 5b9f 763c
00000280: 8a94 c0bb 953d 873c a39d b8bc cbce 543c
00000290: 4c76 393c d098 a9bc 0d33 83bb 65d4 8bbb
000002a0: adbb e2bc d5fd 463a 4e02 0f3d 90ff 84bc
000002b0: 3749 6f3c ac3a 0cbd d8a8 db3c dfa3 423b
000002c0: e54b aebc 04d0 703b f376 06bd 7291 0f3d
000002d0: 6330 d13c ef4c f33b 3e4e 6a3b d816 3cbd
000002e0: 6574 973c 4205 aa3c 0138 34bc b94e 433d
000002f0: 03e8 d73c cf06 85bc 8aad adbc 9d32 073d
00000300: f612 8fbc eba0 083d d6e6 00ba b55b aabb
00000310: 3710 0f3d 17c5 c43c 8c84 8ebc 243d a6ba
00000320: 1d97 593c 8fdf a6bc 22f5 943c 16d1 89bc
00000330: 1e42 bebc c0c7 cbbc b026 cfbc aa52 d13c
00000340: 7236 25bd 121f 34bc 65c4 e73c dc81 87bb
00000350: f6d3 1cbd 586e fbbc 5e1c 4e3d 56a6 f4ba
00000360: 10da fd3c b5eb 003d e755 f53b 071c 183a
00000370: 510c aa3c 83ad 24bd 51c8 f03b 1fcc 823c
00000380: 86a7 4b3b d397 2e3b 0742 3cbc fc21 233b
00000390: 41e9 0d3d aa46 cabc 89cd 043c 82c6 d13c
000003a0: 519d 8cbc 1e71 983b c34b 5cbc aabf c0bc
000003b0: 3318 5a3c 196f 513c 4010 aabc 305c a4bc
000003c0: cfb5 1dbc 7f9d e0bc 2953 d93c 094e abbc
000003d0: eb90 a0bc d6a9 e43c 0cf4 a0bc f35c 0abd
000003e0: 1cc6 213d e42e 913c 8710 8cbc 8c09 1a3d
000003f0: 2499 90bc 9f27 44bb de03 f7bc 4855 22bd

0.bias f4 [175]
-0.031758312 0.046071265 -0.019311408 -0.06954304 0.03505689 0.14371927 -0.7200815 0.022486929
0.171633 0.054468807 0.5207631 -0.17015056 0.08884355 0.30254903 0.15940627 -0.026635949
-0.008093281 -0.06414329 0.12790053 -0.31087676 -0.44453442 0.022168905 0.019328017 0.18433009
-0.41022566 -0.45330375 -0.02117511 -0.60529184 0.021704927 0.18012454 0.010749754 0.25519273
0.13993137 0.37839347 0.05321052 0.017700806 -0.5861534 0.21832636 0.117912576 0.6488074
0.1654513 -0.043542463 0.31352392 -0.032233372 -0.0047418177 0.027833676 0.0007821247 0.34346873
-0.017351726 -0.21877332 -0.874963 0.032159545 -0.5663703 -0.42656276 0.03449944 -0.1968342
0.035346474 -0.22145526 -0.07124242 0.019010121 0.311228 0.6621577 0.30865583 -0.038363487
-0.027685137 -0.30495113 0.1653558 0.010412192 0.5080244 -0.134468 -0.035942428 -0.31635496
-0.026008774 0.16712585 -0.075668596 0.025643013 0.0018050626 0.0926172 -0.13296506 -0.46292922
0.23322724 0.39627764 -0.009048241 -0.069366254 -0.03852338 0.19299011 -0.099684834 -0.02229154
-0.0089247385 -0.01959857 -0.016209027 -0.011372421 0.020959722 -0.36262473 -0.12221825 -0.16326986
-0.019355886 -0.3182304 -0.057083905 0.35651746 -0.011970408 -0.09266715 -0.5656769 -0.03255045
0.7001777 -0.26969486 -0.040588558 -8.8722416e-05 0.1394947 -0.017678682 -0.045402892 0.034743316
-0.02934888 0.1456746 0.018157335 -0.7519354 0.095005065 -0.4042818 -0.03831786 -0.04518849
0.0307547 0.027734417 -0.35269722 -0.6010499 0.12665144 -0.49120682 0.023080658 0.012405026
-0.2736218 -0.27975512 0.029196547 0.0036425143 -0.33343 -0.21565452 0.15775657 -0.033758774
0.36631986 -0.15876566 0.23312703 -0.30287957 -0.5517201 0.124509394 -0.016971331 0.016908823
0.045742355 -0.17433326 -0.19488207 0.19660595 1.0066351e-05 -0.20796746 -0.1982644 -0.0060178665
-0.36326435 0.034779176 -0.024928406 0.116059795 -0.057767365 0.030024977 -0.044906523 -0.03555895
-0.0110537615 -0.27464283 0.023898423 -0.0597535 -0.00060365774 0.14371629 0.046981502 0.038071856
0.17996754 -0.50575614 -0.1422611 0.07685152 -0.15074952 0.014991896 -0.09766763
00000000: 0115 02bd 39b5 3c3d f532 9ebc 956c 8ebd
00000010: d097 0f3d 252b 133e 4357 38bf 8236 b83c
00000020: 90c0 2f3e af1a 5f3d bb50 053f f33b 2ebe
00000030: 9bf3 b53d b5e7 9a3e 663b 233e a233 dabc
00000040: ae99 04bc 8f5d 83bd 5bf8 023e 3d2b 9fbe
00000050: 049a e3be 909b b53c ca55 9e3c 07c1 3c3e
00000060: 1909 d2be 6e17 e8be 6d77 adbc 68f4 1abf
00000070: 88ce b13c 9172 383e bc1f 303c 9fa8 823e
00000080: 2b4a 0f3e cabc c13e 46f3 593d 4801 913c
00000090: 260e 16bf f290 5f3e 267c f13d 3e18 263f
000000a0: 116c 293e 9559 32bd 3586 a03e 2407 04bd
000000b0: 4061 9bbb 7303 e43c 8007 4d3a 22db af3e
000000c0: 3525 8ebc 1d06 60be 93fd 5fbf bab9 033d
000000d0: a5fd 10bf 6f66 dabe 494f 0d3d e88e 49be
000000e0: 77c7 103d 2bc5 62be 8ce7 91bd 1dbb 9b3c
000000f0: 4759 9f3e 2b83 293f 2308 9e3e 0823 1dbd
00000100: f1cb e2bc 8e22 9cbe 0853 293e e697 2a3c
00000110: e30d 023f fbb1 09be 5e38 13bd 47f9 a1be
00000120: 5a10 d5bc 0a23 2b3e 23f8 9abd 4c11 d23c
00000130: da97 ec3a 16ae bd3d fe27 08be 0f05 edbe
00000140: 1fd3 6e3e e7e4 ca3e 133f 14bc e50f 8ebd
00000150: b1ca 1dbd 339f 453e 9027 ccbd bf9c b6bc
00000160: 1139 12bc 2e8d a0bc cbc8 84bc 6453 3abc
00000170: b9b3 ab3c f3a9 b9be 904d fabd 3730 27be
00000180: 3c90 9ebc 18ef a2be d0d0 69bd 7589 b63e
00000190: 881f 44bc 46c8 bdbd 34d0 10bf 9f53 05bd
000001a0: d93e 333f 7215 8abe 3040 26bd 7c10 bab8
000001b0: b3d7 0e3e e2d2 90bc 62f8 39bd 024f 0e3d
000001c0: 106d f0bc b92b 153e b1be 943c d77e 40bf
000001d0: 0492 c23d 06fe cebe 30f3 1cbd 9117 39bd
000001e0: 48f1 fb3c 4a33 e33c bb94 b4be 68de 19bf
000001f0: eab0 013e 767f fbbe a613 bd3c 733e 4b3c
00000200: 2818 8cbe 103c 8fbe 992d ef3c 40b7 6e3b
00000210: 56b7 aabe 8ad4 5cbe f08a 213e a446 0abd
00000220: 478e bb3e 7793 22be dab8 6e3e 0813 9bbe
00000230: 873d 0dbf c8fe fe3d 7607 8bbc 5f84 8a3c
00000240: 565c 3b3d 6b84 32be 2a8f 47be 1253 493e
00000250: a6e2 2837 6cf5 54be d305 4bbe 8631 c5bb
00000260: c9fd b9be 9c74 0e3d a836 ccbc c2b0 ed3d
00000270: 799d 6cbd f1f6 f53c e7ef 37bd 43a6 11bd
00000280: d61a 35bc fc9d 8cbe a0c6 c33c 16c0 74bd
00000290: c93e 1eba 5d2a 133e ad6f 403d 3cf1 1b3d
000002a0: 6949 383e 3c79 01bf e5ac 11be 5464 9d3d
000002b0: 155e 1abe 92a0 753c f705 c8bd

2.weight f4 [175, 175]
-0.067390576 0.06272584 0.011272386 -0.032129243 -0.09534188 0.015487585 -0.048950195 -0.05359323
-0.015173726 -0.048589118 -0.081722416 -0.0630046 -0.044499565 -0.06405504 -0.007013543 -0.043099813
0.0033761188 -0.073250346 -0.061974663 -0.07054249 0.058426347 -0.0013817921 0.06216198 -0.04037052
-0.06944206 0.032788597 -0.0647897 -0.008176243 -0.06486871 0.015875202 -0.033313487 0.031046884
-0.07499766 0.030548569 0.0026060673 0.023480205 0.05363551 -0.060299706 -0.0009856758 -0.020259146
0.042829484 -0.0441087 -0.0136247715 0.037650492 0.05084563 0.034186766 -0.0752418 0.050008472
-0.0525482 0.011305958 -0.054628283 -0.023172121 -0.006433261 -0.028705409 -0.03868616 -0.0076935883
-0.07680616 -0.026507447 0.034329258 -0.044559054 0.011917661 0.017415676 -0.022158986 0.047175616
0.049666535 0.06100166 0.019714644 -0.023275536 0.006086004 0.031111436 -0.071258284 -0.07976651
0.031455137 0.05947471 -0.014444922 -0.004436415 0.036488954 0.008423415 0.033283886 -0.020678962
0.05423969 -0.0028481209 -0.063749455 -0.052499812 0.008785484 -0.010932715 -0.07998049 0.057555802
-0.040136553 -0.057217386 -0.0359613 0.055781297 -0.010863018 0.0059033446 0.02566147 -0.08487692
0.06372898 0.029630497 -0.061090745 -0.08642691 -0.029926809 -0.025945645 0.03335539 0.020843059
-0.0142247155 -0.024944015 0.06656716 0.0018017034 0.027524676 -0.022253549 0.021925513 -0.040296067
-0.041166604 -0.08973893 0.022976518 0.033323944 0.008776851 -0.0017155575 0.038194157 0.019265197
0.027932175 0.070321344 -0.08040169 -0.061631702 -0.04751253 0.010751838 -0.08250818 -0.043508496
0.03469131 -0.06669996 -0.07238276 0.06044335 -0.055204492 0.026475335 0.04069906 -0.07586378
0.044314295 -0.07260072 0.018941922 -0.04584664 -0.060968626 -0.056670256 -0.020184707 0.055352576
-0.048197784 -0.089903265 -0.06529008 -0.033999335 0.07303779 -0.035673283 0.059616584 0.0015116533
-0.02006822 -0.009301245 -0.072915465 0.026591714 0.019002497 -0.00097459555 0.017837541 0.04479171
-0.058419492 -0.05753087 0.02037873 -0.052573755 -0.06844389 0.031588808 -0.008966596 0.010604359
-0.001910223 -0.035149127 0.03653568 0.0093055535 -0.0783804 -0.062235415 0.015890723 0.025001815
-0.05392391 -0.0038626825 -0.16221592 0.22469665 -0.017718278 0.1611961 0.03007937 0.051787358
-0.12630245 0.17268927 0.1687589 0.09828583 0.085277185 -0.30582502 0.020867027 -0.08041299
0.12348586 0.09426225 -0.113538705 0.15438221 0.013709514 0.03978324 -0.29216507 -0.071497515
-0.007313341 0.06418056 -0.15674387 -0.030434165 -0.033751946 -0.040407937 -0.05664205 -0.09934591
0.11836706 0.06799567 0.22714484 0.018585496 -0.05644554 -0.16021132 0.33679023 -0.10888878
-0.03468719 0.22863583 -0.01819883 0.04520847 -0.054251637 0.00076009467 -0.16754591 0.26845106
0.050689194 0.14304379 -0.016476128 0.087919295 -0.18296526 0.07301589 0.13260336 0.085894205
-0.21303698 0.06961763 0.018610269 -0.25885102 -0.035478834 0.11706934 0.055451125 -0.0480296
-0.15689753 0.0888515 0.07096245 -0.14404982 -0.039699353 -0.052004874 0.01762821 0.0042485925
-0.35637316 -0.17829403 -0.028367238 0.00909226 0.09514119 -0.032488924 -0.089565806 -0.1210599
00000000: 1204 8abd 6876 803d d0af 383c f499 03bd
00000010: 9b42 c3bd a4bf 7d3c 0080 48bd 9384 5bbd
00000020: 389b 78bc 6205 47bd 155e a7bd 8e08 81bd
00000030: 2d45 36bd 4a2f 83bd ddd1 e5bb 6e89 30bd
00000040: e041 5d3b 4704 96bd 25d9 7dbd 9578 90bd
00000050: 7750 6f3d 401d b5ba 8f9d 7e3d 8f5b 25bd
00000060: a437 8ebd 564d 063d 76b0 84bd a6f5 05bc
00000070: e3d9 84bd b60c 823c b973 08bd 0956 fe3c
00000080: 6098 99bd fe40 fa3c 8eca 2a3b 8f59 c03c
00000090: e9b0 5b3d d3fc 76bd cb31 81ba 82f6 a5bc
000000a0: f86d 2f3d 53ab 34bd 6f3a 5fbc 6737 1a3d
000000b0: 8243 503d 6c07 0c3d 5f18 9abd afd5 4c3d
000000c0: c83c 57bd a03c 393c e8c1 5fbd 76d3 bdbc
000000d0: 1bce d2bb 9b27 ebbc 6175 1ebd 7f1a fcbb
000000e0: 8c4c 9dbd 2526 d9bc d69c 0c3d 8e83 36bd
000000f0: 4b42 433c 52ab 8e3c c386 b5bc 383b 413d
00000100: 236f 4b3d e0dc 793d 9b80 a13c 56ac bebc
00000110: 1a6d c73b 69dd fe3c ddef 91bd a05c a3bd
00000120: 1ad7 003d c19b 733d 65aa 6cbc 595f 91bb
00000130: 7175 153d 5d02 0a3c af54 083d ed66 a9bc
00000140: 702a 5e3d 8aa7 3abb 138f 82bd 0b0a 57bd
00000150: fef0 0f3c 211f 33bc d0cc a3bd a2bf 6b3d
00000160: 3a66 24bd c75c 6abd 284c 13bd ee7a 643d
00000170: cdfa 31bc d870 c13b 0138 d23c f3d3 adbd
00000180: 5784 823d a8bb f23c 4a3a 7abd 9700 b1bd
00000190: 1129 f5bc f68b d4bc a99f 083d 10bf aa3c
000001a0: c80e 69bc 6457 ccbc 5d54 883d 2227 ec3a
000001b0: 6e7b e13c 134d b6bc 229d b33c 7d0d 25bd
000001c0: 509e 28bd 0bc9 b7bd 4039 bc3c b07e 083d
000001d0: c8cc 0f3c 8fdc e0ba 7a71 1c3d 0cd2 9d3c
000001e0: 04d2 e43c a304 903d a4a9 a4bd 8671 7cbd
000001f0: 809c 42bd 7a28 303c 0cfa a8bd f735 32bd
00000200: 7a18 0e3d fd99 88bd 6a3d 94bd 7293 773d
00000210: 1b1e 62bd cde2 d83c 0fb4 263d 785e 9bbd
00000220: e882 353d b0af 94bd 172c 9b3c b0c9 3bbd
00000230: 3dba 79bd 121f 68bd 665a a5bc 62b9 623d
00000240: 0a6b 45bd 341f b8bd ceb6 85bd e342 0bbd
00000250: d694 953d 261e 12bd 8530 743d ab22 c63a
00000260: 1c66 a4bc 4064 18bc b454 95bd ded6 d93c
00000270: 20ab 9b3c 007c 7fba 0920 923c 8377 373d
00000280: 4749 6fbd 7da5 6bbd 4bf1 a63c 9457 57bd
00000290: 4f2c 8cbd 4463 013d a1e8 12bc e8bd 2d3c
000002a0: 7360 faba 88f8 0fbd 70a6 153d 5276 183c
000002b0: e785 a0bd 90ea 7ebd 432d 823c 9bd0 cc3c
000002c0: 51df 5cbd 0f25 7dbb ee1b 26be e116 663e
000002d0: ec25 91bc 9710 253e 0369 f63c fb1e 543d
000002e0: 6e55 01be 75d5 303e 22cf 2c3e 154a c93d
000002f0: cea5 ae3d 1995 9cbe 54f1 aa3c 91af a4bd
00000300: 28e6 fc3d 910c c13d fb86 e8bd 5f16 1e3e
00000310: df9d 603c c0f3 223d a996 95be 4a6d 92bd
00000320: c0a4 efbb 1971 833d 7781 20be 1251 f9bc
00000330: 7b3f 0abd cb82 25bd 7f01 68bd de75 cbbd
00000340: 6e6a f23d 5041 8b3d a898 683e 9c40 983c
00000350: 7033 67bd 700e 24be c56f ac3e 1501 dfbd
00000360: 2814 0ebd 831f 6a3e b615 95bc 842c 393d
00000370: f736 5ebd 1741 473a 2891 2bbe 6b72 893e
00000380: 799f 4f3d 127a 123e f2f8 86bc 080f b43d
00000390: 3f5b 3bbe 5b89 953d 2dc9 073e 4de9 af3d
000003a0: 5e26 5abe b093 8e3d 9074 983c 1f88 84be
000003b0: 4152 11bd 0dc2 ef3d b820 633d b0ba 44bd
000003c0: bfa9 20be c6f7 b53d c354 913d cc81 13be
000003d0: ca9b 22bd 1003 55bd 0969 903c c737 8b3b
000003e0: 8b76 b6be b692 36be 6962 e8bc b4f7 143c
000003f0: 62d9 c23d 1b13 05bd 476e b7bd 41ee f7bd

2.bias f4 [175]
-0.016140833 0.20019168 -0.07585537 -0.19401889 -0.20094678 -0.14192453 0.026772019 -0.49073988
-0.37340626 -0.35531428 0.11014458 -0.22598846 0.29987073 -0.0763137 -0.055191394 0.4958544
-0.12704763 0.0003539495 -0.11207755 -0.1355865 -0.27458808 -0.38085338 -0.02521735 -0.121309064
0.258327 -0.081008025 -0.0744891 0.03792151 -0.13297686 -0.06607972 -0.019575702 0.57508093
0.17013441 0.2312388 -0.041905172 -0.3599115 -0.45327753 0.052974243 0.6720967 -0.72409695
-0.41641203 -0.034354843 -0.14905682 0.109260365 0.639635 -0.097878344 0.061235588 -0.42179447
-0.30728233 0.34710544 -0.2758279 0.25646916 -0.087326154 0.21174824 -0.15586494 -0.46191657
0.0064992774 0.6001469 0.11768138 -0.18821919 -0.27439126 -0.25643533 0.02708663 0.7470854
-0.1492881 0.5058133 0.03847945 0.03380984 0.09461311 0.58522475 0.027331013 -0.14396115
-0.3201945 -0.1914545 0.0038869216 -0.05677187 0.089305215 -0.2645714 -0.014612244 -0.28759593
-0.44885543 -0.0932572 -0.06129314 0.0111363 -0.25993726 -0.038226165 0.5676514 -0.33991218
-0.04856911 0.22719356 0.18399945 0.03380967 -0.4362062 0.73721856 -0.05123777 -0.11585268
0.12192035 -0.33468747 -0.3462111 -0.14699255 0.19914855 0.38716012 -0.24667108 -0.014412499
-0.0516267 -0.2511099 -0.06253259 -0.2699571 -0.3889187 0.41389838 0.56068134 -0.07338898
0.09381068 0.20967992 -0.56453925 0.1913561 -0.28441224 -0.41694194 0.2594107 -0.02389363
0.4068429 -0.18309689 -0.13460013 0.0072543267 -0.07706091 -0.037551377 0.10179854 0.18756416
0.06013385 0.10641575 0.03046712 -0.06277009 0.23209104 0.015256902 -0.30928093 -0.47615686
0.42590466 -0.1405229 -0.47425482 1.0194936 0.082636364 0.07394353 -0.01679216 -0.024060259
-0.11897982 0.24233828 0.091643155 0.36702013 -0.3919188 0.099877246 -0.07660569 -0.08215274
-0.050863903 -0.38047957 -0.26021186 -0.4894173 -0.015417839 -0.1318178 -0.11057329 -0.12826765
-0.07953241 0.12560768 0.7072245 0.32485804 -0.024333928 0.019360907 -0.23087026 -0.16879503
-0.64866436 -0.0024927645 -0.16300781 -0.002326399 0.5762253 -0.13820206 0.17702495
00000000: c839 84bc 0cff 4c3e 0f5a 9bbd e3ac 46be
00000010: fec4 4dbe aa54 11be fe50 db3c 4242 fbbe
00000020: 1b2f bfbe c1eb b5be 7b93 e13d 8569 67be
00000030: a888 993e 5b4a 9cbd 5f10 62bd a1e0 fd3e
00000040: c618 02be 4c92 b939 ea88 e5bd 30d7 0abe
00000050: cf96 8cbe 37ff c2be 9e94 cebc e370 f8bd
00000060: 7043 843e 89e7 a5bd be8d 98bd 9653 1b3d
00000070: 162b 08be ce54 87bd 395d a0bc 8138 133f
00000080: b737 2e3e ddc9 6c3e c2a4 2bbd 5246 b8be
00000090: fe13 e8be 85fb 583d 880e 2c3f 6b5e 39bf
000000a0: f533 d5be aab7 0cbd 5aa2 18be e6c3 df3d
000000b0: 1fbf 233f 7174 c8bd 2bd2 7a3d 72f5 d7be
000000c0: 1c54 9dbe ceb7 b13e 5139 8dbe ed4f 833e
000000d0: 0ed8 b2bd 88d4 583e 0f9b 1fbe 5480 ecbe
000000e0: e4f7 d43b 3aa3 193f ef02 f13d 88bc 40be
000000f0: 037d 8cbe 7e4b 83be c8e4 dd3c fd40 3f3f
00000100: fbde 18be fb7c 013f a19c 1d3d 307c 0a3d
00000110: 85c4 c13d 4ad1 153f 4ae5 df3c 8d6a 13be
00000120: 89f0 a3be a60c 44be b9bb 7e3b 9f89 68bd
00000130: a7e5 b63d e775 87be 3268 6fbc c63f 93be
00000140: 61d0 e5be a2fd bebd 840e 7bbd 0775 363c
00000150: 7f16 85be 0a93 1cbd 9a51 113f f808 aebe
00000160: 67f0 46bd 6ea5 683e 5a6a 3c3e 027c 0a3d
00000170: 6b56 dfbe 5bba 3c3f b2de 51bd 2b44 edbd
00000180: 60b1 f93d 285c abbe 9542 b1be 3785 16be
00000190: 99ed 4b3e da39 c63e 5897 7cbe 6722 6cbc
000001a0: 8576 53bd 7a91 80be 1611 80bd d137 8abe
000001b0: 5a20 c7be 7dea d33e d088 0f3f f64c 96bd
000001c0: d01f c03d 55b6 563e a585 10bf daf2 433e
000001d0: 7b9e 91be 6a79 d5be 7bd1 843e 93bc c3bc
000001e0: b64d d03e c07d 3bbe 9ed4 09be b4b5 ed3b
000001f0: 1cd2 9dbd 79cf 19bd c17b d03d d210 403e
00000200: e94e 763d 80f0 d93d 2f96 f93c 9b8d 80bd
00000210: 46a9 6d3e 16f8 793c 125a 9ebe d5ca f3be
00000220: 2d10 da3e 3ce5 0fbe 87d1 f2be c47e 823f
00000230: 413d a93d b56f 973d b68f 89bc 051a c5bc
00000240: b1ab f3bd 8727 783e 68af bb3d 10ea bb3e
00000250: 95a9 c8be 718c cc3d 72e3 9cbd b23f a8bd
00000260: ab56 50bd 38ce c2be 7d3a 85be e894 fabe
00000270: 1b9b 7cbc 3ffb 06be 4074 e2bd 9858 03be
00000280: e3e1 a2bd 4d9f 003e aa0c 353f cb53 a63e
00000290: f257 c7bc c49a 9e3c 4169 6cbe 9bd8 2cbe
000002a0: de0e 26bf a65d 23bb 85eb 26be 8076 18bb
000002b0: 8083 133f d784 0dbe 0746 353e

4.weight f4 [175, 175]
-0.020893525 0.09402138 -0.0406394 -0.10121014 -0.008409711 0.002854985 -0.22663762 -0.07876887
-0.018710924 -0.07641368 -0.30181614 -0.03615173 0.2688415 -0.19170414 -0.055491693 -0.3176201
0.012750803 0.079274595 0.21967846 0.047023326 -0.13356602 0.1745476 0.010348525 0.072456576
0.14998984 -0.00091954804 -0.12651996 -0.041627906 -0.009229908 -0.058012813 0.00972859 0.25575942
0.19348523 0.01435366 -0.009638932 0.07502667 -0.03177172 -0.10655853 0.13722387 0.00014973475
-0.011508882 -0.0089607015 -0.10706088 -0.04003149 0.0138566615 -0.00879857 -0.22482082 -0.2962765
0.14564772 0.09213474 0.28879756 -0.1729356 -0.027641458 0.09301384 -0.52835894 -0.14570278
0.13378721 -0.026851166 -0.029090442 -0.11448105 0.13199641 -0.103291065 0.047013704 0.110359415
0.054272395 -0.08927585 -0.057403084 0.013993711 -0.027682275 0.056494143 0.22659092 0.029189542
-0.06407724 -0.41214532 -0.055499353 0.06966478 0.10737501 -0.071076244 -0.035039503 -0.14091894
-0.04653541 0.0018339293 -0.058877636 -0.016919006 0.12878673 0.06344448 0.019707147 0.13434891
0.029409634 -0.21064508 0.19910236 0.080522545 0.13039905 0.028933864 -0.03957882 -0.06568002
-0.20788237 -0.008785647 -0.22728801 -0.10476247 -0.04337831 0.04758084 -0.18090414 -0.027725248
-0.07778106 -0.070972145 -0.06522997 -0.017990792 0.07824625 -0.02274949 0.24558029 0.0022417805
-0.14815329 -0.22955923 0.15889573 0.13481525 0.1965611 0.09792118 -0.17122313 0.049812287
-0.013958741 -0.086009815 0.08729773 0.09531277 -0.14670955 0.05636565 -0.14094101 0.36288962
-0.032333482 0.122760005 0.046685528 0.08182708 0.10420465 0.16987225 -0.014293788 -0.0034489268
-0.2572267 -0.088790245 -0.004405554 0.1683905 -0.13099863 -0.019964904 -0.0030055698 -0.03645083
0.04775718 0.08622593 -0.10823483 0.038308654 -0.16086048 0.016139714 0.082677044 0.16703105
0.03312492 -0.055638917 -0.15105394 0.11627357 0.018795831 0.0005956314 -0.041729886 -0.31344587
0.020710398 0.017382089 0.09944757 0.11127532 -0.0055794744 0.17057136 0.030660283 0.09299728
-0.034017555 0.057614256 0.20599325 0.050991867 0.19887447 0.034513637 0.13722199 -0.0715876
0.10181203 0.004432178 0.08562451 0.028109895 -0.20193675 -0.007686779 -0.047838666 0.05312033
0.031765226 0.1486981 -0.14984769 0.11409063 0.19445625 -0.09564858 0.5536823 0.061031785
-0.020502392 -0.028145537 -0.14466497 0.008699907 0.10406931 -0.07369268 0.0015401692 0.013917343
0.086923756 -0.040902022 -0.12715933 0.09822391 0.021302652 -0.055327937 0.0207249 0.1716552
-0.010363805 0.074664935 0.014871569 -0.0070854425 0.18538065 -0.04932448 0.07160075 0.033252466
-0.020052334 -0.16996479 -0.081386715 -0.5211437 -0.043252308 -0.06888563 0.08912586 0.31453687
0.2258433 -0.08965684 -0.09650073 -0.0763053 -0.063901335 0.2318257 0.09071594 -0.023939947
-0.030466346 -0.03705787 0.04274038 -0.09279304 -0.046664942 0.040997095 0.08013636 -0.18105648
-0.037063584 0.02745088 -0.012519884 0.1452783 -0.16435854 0.067498125 -0.21341355 -0.028623195
0.23288195 -0.05248429 -0.09834174 -0.027344288 0.16215974 0.16468473 -0.22653092 0.06977091
00000000: e628 abbc 488e c03d 8075 26bd 4347 cfbd
00000010: e2c8 09bc b31a 3b3b b113 68be 9351 a1bd
00000020: a747 99bc c77e 9cbd a587 9abe d613 14bd
00000030: 98a5 893e 174e 44be 424b 63bd 1a9f a2be
00000040: bee8 503c b85a a23d 64f3 603e 889b 403d
00000050: 88c5 08be 9bbc 323e dc8c 293c 1d64 943d
00000060: f096 193e d30d 71ba 738e 01be 0682 2abd
00000070: 0a39 17bc d89e 6dbd aa64 1f3c e6f2 823e
00000080: fe20 463e 9d2b 6b3c 9cec 1dbc 95a7 993d
00000090: 1023 02bd 5c3b dabd 6a84 0c3e 1e02 1d39
000000a0: c08f 3cbc e8cf 12bc bc42 dbbd 0ff8 23bd
000000b0: 0d07 633c e127 10bc 6e37 66be 8eb1 97be
000000c0: ad24 153e 23b1 bc3d 46dd 933e 0816 31be
000000d0: 5770 e2bc 0a7e be3d 8842 07bf 1c33 15be
000000e0: 84ff 083e faf6 dbbc 144f eebc 0a75 eabd
000000f0: 112a 073e 448a d3bd 7191 403d 1e04 e23d
00000100: bb4c 5e3d 42d6 b6bd 7f1f 6bbd e145 653c
00000110: f0c5 e2bc 6766 673d 7307 683e e81e ef3c
00000120: ee3a 83bd b604 d3be 4a53 63bd 68ac 8e3d
00000130: 6ee7 db3d 6c90 91bd 9585 0fbd 0e4d 10be
00000140: ea9b 3ebd 7560 f03a ad29 71bd ba99 8abc
00000150: abe0 033e 2eef 813d e270 a13c c392 093e
00000160: 79ec f03c 58b3 57be 7de1 4b3e 01e9 a43d
00000170: 5487 053e b606 ed3c 671d 22bd 3f83 86bd
00000180: 1edf 54be adf1 0fbc 30be 68be b58d d6bd
00000190: 74ad 31bd 20e4 423d ef3e 39be 0f20 e3bc
000001a0: ad4b 9fbd d859 91bd 4a97 85bd 6d61 93bc
000001b0: 923f a03d 235d babc 6679 7b3e d6ea 123b
000001c0: 7fb5 17be 9311 6bbe 90b5 223e 020d 0a3e
000001d0: 5047 493e e68a c83d 1e55 2fbe f807 4c3d
000001e0: 34b3 64bc ea25 b0bd 27c9 b23d 5733 c33d
000001f0: 073b 16be abdf 663d d752 10be abcc b93e
00000200: 1d70 04bd 9969 fb3d 5339 3f3d f594 a73d
00000210: 3f69 d53d fef2 2d3e 7e30 6abc 6407 62bb
00000220: 38b3 83be a9d7 b5bd 775c 90bb 8f6e 2c3e
00000230: 8124 06be 708d a3bc 18f9 44bb 774d 15bd
00000240: 089d 433d 3897 b03d 39aa ddbd 89e9 1c3d
00000250: 9cb8 24be 6f37 843c 9552 a93d 300a 2b3e
00000260: ffad 073d a2e5 63bd e2ad 1abe d620 ee3d
00000270: b7f9 993c 2624 1c3a f5ec 2abd fa7b a0be
00000280: daa8 a93c e264 8e3c 2bab cb3d 51e4 e33d
00000290: 06d4 b6bb 42aa 2e3e 462b fb3c 5c75 be3d
000002a0: fe55 0bbd edfc 6b3d e5ef 523e d9dc 503d
000002b0: c0a5 4b3e 2c5e 0d3d ec83 0c3e 859c 92bd
000002c0: d382 d03d ce3b 913b e75b af3d b946 e63c
000002d0: 82c8 4ebe 60e1 fbbb 7af2 43bd b494 593d
000002e0: 411c 023d 5144 183e ac71 19be 59a8 e93d
000002f0: 8a1f 473e 67e3 c3bd 20be 0d3f 77fc 793d
00000300: a2f4 a7bc 7891 e6bc 0e23 14be 0e8a 0e3c
00000310: 4a22 d53d 30ec 96bd 81df c93a 9105 643c
00000320: 1505 b23d e188 27bd 0e36 02be 9e29 c93d
00000330: e682 ae3c 8c9f 62bd 44c7 a93c 61c6 2f3e
00000340: f3cc 29bc eee9 983d e2a7 733c 002d e8bb
00000350: 6dd4 3d3e 7708 4abd 6aa3 923d bd33 083d
00000360: cb44 a4bc 400b 2ebe 14ae a6bd ac69 05bf
00000370: 5529 31bd e913 8dbd 9e87 b63d fa0a a13e
00000380: 7743 673e 019e b7bd 2da2 c5bd f445 9cbd
00000390: b4de 82bd b763 6d3e 47c9 b93d b51d c4bc
000003a0: 8f94 f9bc fec9 17bd 8910 2f3d 470a bebd
000003b0: bd23 3fbd 92ec 273d 881e a43d df66 39be
000003c0: fccf 17bd abe0 e03c 3320 4dbc d6c3 143e
000003d0: 9b4d 28be 753c 8a3d 1589 5abe 317b eabc
000003e0: 9b78 6e3e c4f9 56bd 6567 c9bd 2101 e0bc
000003f0: 340d 263e 1da3 283e b9f7 67be 0de4 8e3d

4.bias f4 [175]
0.44457024 0.07787116 0.3008389 0.08167868 0.5786684 0.1857363 -0.026730277 0.13612069
0.25319812 -0.07857645 0.1964611 -0.034591336 0.023399532 0.05165904 0.037161462 -0.18581007
-0.09007649 0.26508844 -0.1673538 0.028549256 0.1368477 0.073487386 -0.3537431 0.017897764
-0.06362055 -0.068356805 0.08173775 0.19400518 -0.43603706 0.051278457 0.21322362 -0.048951626
0.32754403 0.06579291 -0.21001798 0.14326602 0.06995413 -0.3127512 -0.1709008 -0.4023377
0.007205527 0.318489 0.14728993 -0.37253717 -0.06688676 -0.27454132 -0.007997912 -0.049928907
-0.030314546 0.35832676 -0.038561057 0.045536716 -0.38402084 0.055144653 -0.08562441 0.2652683
0.40055773 -0.105357334 -0.14714655 -0.015394787 -0.13862962 0.019844312 -0.03892248 0.004491355
0.3088038 -0.010142436 -0.1214661 -0.45069742 0.06166927 0.39013466 -0.095017195 -0.07863693
-0.03976998 0.24964733 -0.09944405 -0.0037276414 -0.17309149 -0.050026618 -0.0058537885 0.01829522
-0.4074703 -0.06648553 0.34882694 0.0455595 0.03137508 0.1373171 0.015969405 0.077693835
-0.32155523 -0.23532383 -0.13257574 -0.13070445 0.012958667 0.011447776 -0.16603246 0.03325396
0.038146242 -0.24556893 -0.049276255 -0.38867527 -0.39382514 -0.3770438 0.4328868 -0.11368476
-0.061275307 -0.006154272 0.40211198 0.082917035 0.35818192 0.013310736 -0.026124513 0.26268998
-0.002463626 0.17738007 0.00084938994 -0.23256347 0.117439054 0.048811186 0.03737834 0.18864676
0.17207888 0.22741315 0.08652358 0.017785672 0.18829618 0.031154528 -0.11799779 -0.14115943
-0.08383431 0.032460917 0.21890557 0.025927616 0.016519083 -0.36614737 -0.37770182 0.65786964
0.3843403 -0.016231347 0.09798413 0.13483824 -0.07427579 0.5716309 0.0845674 -0.097022854
-0.13270718 -0.61370426 -0.36290637 -0.108532056 -0.194873 0.11119319 0.33971494 -0.18722057
-0.11128118 -0.0067669656 0.03694774 -0.09465272 0.11019068 -0.57286155 0.41424197 0.57687694
-0.16151497 0.3705185 -0.139442 -0.020131111 0.55953366 0.1508744 0.05519581 0.6467493
-0.30841726 -0.17686851 0.2206064 -0.037531346 0.07942169 -0.39272657 -0.07500179
00000000: b69e e33e ea7a 9f3d 8e07 9a3e 2747 a73d
00000010: 9d23 143f a831 3e3e 74f9 dabc 3963 0b3e
00000020: 2fa3 813e b1ec a0bd 192d 493e a5af 0dbd
00000030: 60b0 bf3c 6e98 533d 9e36 183d ff44 3ebe
00000040: 067a b8bd acb9 873e cb5e 2bbe 21e0 e93c
00000050: ce21 0c3e 8e80 963d d11d b5be 559e 923c
00000060: 7e4b 82bd a7fe 8bbd 1f66 a73d 4ba9 463e
00000070: 4040 dfbe 5c09 523d 4b57 5a3e 8081 48bd
00000080: dab3 a73e 6fbe 863d f40e 57be 54b4 123e
00000090: 1c44 8f3d ed20 a0be 9f00 2fbe 35ff cdbe
000000a0: 571c ec3b fd10 a33e 2cd3 163e 31bd bebe
000000b0: edfb 88bd ae90 8cbe ad09 03bc 4182 4cbd
000000c0: 3656 f8bc 9b76 b73e 33f2 1dbd b584 3a3d
000000d0: 619e c4be 5cdf 613d da5b afbd 3fd1 873e
000000e0: e715 cd3e 96c5 d7bd 96ad 16be 6b3a 7cbc
000000f0: ecf4 0dbe 8a90 a23c 2e6d 1fbd 372c 933b
00000100: 881b 9e3e 762c 26bc 38c3 f8bd d0c1 e6be
00000110: eb98 7c3d bbbf c73e 6098 c2bd 660c a1bd
00000120: d9e5 22bd 8da3 7f3e 52a9 cbbd 724b 74bb
00000130: e53e 31be b6e8 4cbd 23d1 bfbb dbdf 953c
00000140: f29f d0be 9129 88bd 7299 b23e 999c 3a3d
00000150: 2883 003d db9c 0c3e 45d2 823c f21d 9f3d
00000160: e3a2 a4be bbf8 70be efc1 07be 63d7 05be
00000170: 9750 543c 748f 3b3c 6a04 2abe 4e35 083d
00000180: 3c3f 1c3d 6c76 7bbe e6d5 49bd 7200 c7be
00000190: 73a3 c9be e30b c1be 57a3 dd3e 8ed3 e8bd
000001a0: d1fb 7abd c6a9 c9bb 9fe1 cd3e 68d0 a93d
000001b0: 9f63 b73e 4615 5a3c 1303 d6bc 4d7f 863e
000001c0: c974 21bb 1fa3 353e 98a9 5e3a 1e25 6ebe
000001d0: e383 f03d 3dee 473d 081a 193d 9e2c 413e
000001e0: 7235 303e fede 683e 4633 b13d 42b3 913c
000001f0: b7d0 403e c837 ff3c d3a8 f1bd 198c 10be
00000200: 53b1 abbd bdf5 043d c828 603e 2766 d43c
00000210: 0753 873c ab77 bbbe 2262 c1be 256a 283f
00000220: 40c8 c43e 9af7 84bc e7ab c83d 0913 0a3e
00000230: e81d 98bd 6756 123f ac31 ad3d ebb3 c6bd
00000240: 64e4 07be b91b 1dbf ddce b9be 0e46 debd
00000250: ca8c 47be 41b9 e33d 1eef ad3e c0b6 3fbe
00000260: 63e7 e3bd 6cbd ddbb 8356 173d 49d9 c1bd
00000270: a7ab e13d 0ea7 12bf 8617 d43e 35ae 133f
00000280: 2e64 25be 9ab4 bd3e e2c9 0ebe 00ea a4bc
00000290: 993d 0f3f d27e 1a3e 0015 623d 5d91 253f
000002a0: dee8 9dbe 051d 35be a5e6 613e 78ba 19bd
000002b0: d7a7 a23d 7513 c9be 8a9a 99bd

6.weight f4 [157, 175]
0.049110573 0.06427915 -0.032949783 -0.04770349 -0.09802077 -0.29440436 -0.116069466 -0.08087975
0.0861724 0.009110401 -0.2067123 0.1568946 -0.08166369 -0.49325922 -0.0451203 0.06944875
-0.042007115 0.016591968 0.07389716 -0.07557541 0.17028725 0.19533701 -0.25130793 -0.46524155
0.18892281 0.043785255 -0.18773174 0.17766927 0.049240667 0.014758827 -0.053245988 0.028653556
0.29523954 -0.10099044 -0.13475598 0.067164205 -0.0027190347 -0.15927468 -0.2893491 -0.12722753
0.09952821 0.24800014 0.1262646 0.10854267 0.053641938 -0.22248416 0.029138016 0.08391282
0.088498846 -0.06501322 -0.030854195 0.030765368 -0.0029808832 -0.31284326 0.031783372 0.031535998
-0.120978884 -0.037347108 -0.04666939 0.02600754 0.17057659 -0.07325282 -0.13878086 0.032488074
-0.19118275 -0.06293571 -0.0684921 0.009377192 -0.032462735 0.08988291 -0.14620563 -0.05497417
-0.17905612 0.099006 -0.0039896616 -0.05844239 0.17426161 -0.031769525 0.007284239 -0.048694633
0.19945309 0.04720451 0.14921685 0.0535498 0.059844498 -0.08184906 0.09536133 -0.2180134
-0.10760589 -0.063464046 -0.21222313 -0.29923922 0.05717564 -0.052231252 -0.12101233 0.018988077
-0.02243557 0.14505678 0.13295682 -0.14690563 0.20866027 -0.02210495 0.04758167 -0.06536653
-0.06724511 -0.2173669 0.07530042 -0.27154315 0.055678956 0.030397467 0.011017729 -0.084697045
-0.09991978 0.09349828 0.110223494 0.06400687 -0.09645992 -0.061968382 0.023038635 -0.013747993
0.19689375 -0.14857845 -0.1587555 -0.019550223 -0.12234928 0.12657152 0.055409897 -0.03400796
-0.05919362 -0.06376357 -0.34468463 -0.07688225 0.05905186 -0.060669754 0.10751044 0.06328916
0.19402674 0.00072207616 -0.21799798 0.023133166 0.07687335 0.20307666 0.027245026 -0.063384965
-0.34262213 -0.1731878 -0.041222658 0.094204076 -0.07792535 -0.16502295 0.16285747 -0.21682468
-0.094101846 0.052966874 0.06797012 -0.24433768 -0.10642278 -0.25895607 -0.03800293 -0.026881771
0.03289403 0.043497544 0.072916046 -0.050220348 -0.018224511 -0.031377092 0.10934386 -0.25678658
-0.13425265 -0.17045964 -0.29752395 0.12927341 -0.33718687 -0.006996858 -0.05222987 -0.24739355
0.10970293 0.1269141 0.114454135 -0.21707134 0.09346601 0.017445203 -0.20854063 -0.0029645546
0.21455237 0.024319608 0.04437268 -0.094648644 -0.14349483 -0.092968576 0.076802626 -0.005973168
-0.084259965 -0.09716873 -0.022208367 -0.05884966 -0.31614447 -0.043887038 0.06302076 0.122766495
0.006393136 -0.03401864 -0.026529465 -0.21332161 0.058277704 -0.07067528 0.013292812 -0.5713223
0.01835883 0.12395863 -0.104863554 -0.28977513 -0.057246726 0.03891398 0.077343106 -0.08341734
0.039203264 0.20255783 -0.05372629 0.00888119 0.20364468 -0.08042899 -0.12842967 -0.08849875
0.11156417 -0.03256752 -0.031083405 0.041623328 -0.04499477 0.07944345 0.11093487 -0.13041987
-0.040541347 0.089729935 -0.06549022 0.10030379 0.009308291 -0.0179481 -0.10612986 0.099144295
-0.17992967 0.056354877 -0.06376573 0.022264564 -0.17444122 0.0036174085 0.019650497 0.14190641
0.055911068 -0.09948983 0.034849018 0.11601912 -0.059594084 -0.02778951 -0.08822211 0.0067590447
00000000: 2b28 493d c9a4 833d 5af6 06bd bc64 43bd
00000010: 1dbf c8bd 2bbc 96be d4b5 edbd 48a4 a5bd
00000020: 287b b03d cb43 153c 64ac 53be faa8 203e
00000030: 4b3f a7bd 798c fcbe 10d0 38bd 253b 8e3d
00000040: a70f 2cbd e1eb 873c 6557 973d 48c7 9abd
00000050: c85f 2e3e 6d06 483e 6fab 80be 2434 eebe
00000060: fb74 413e 2b58 333d c03c 40be efee 353e
00000070: 95b0 493d 02cf 713c 7718 5abd ddba ea3c
00000080: a329 973e 13d4 cebd 79fd 09be 638d 893d
00000090: d531 32bb e718 23be 9125 94be ef47 02be
000000a0: 72d5 cb3d c0f3 7d3e 824b 013e 9f4b de3d
000000b0: a6b7 5b3d e3d2 63be d9b2 ee3c 7cda ab3d
000000c0: e23e b53d a725 85bd f0c1 fcbc a707 fc3c
000000d0: ec5a 43bb fe2c a0be 482f 023d e42b 013d
000000e0: c7c3 f7bd 48f9 18bd 6728 3fbd c40d d53c
000000f0: a1ab 2e3e 9305 96bd 921c 0ebe 3712 053d
00000100: 69c5 43be 70e4 80bd 9645 8cbd cba2 193c
00000110: a5f7 04bd 8814 b83d eeb6 15be 982c 61bd
00000120: 7d5a 37be a8c3 ca3d b5bb 82bb 4a61 6fbd
00000130: a371 323e c320 02bd a0b0 ee3b 0674 47bd
00000140: 6e3d 4c3e 8459 413d 4dcc 183e 0957 5b3d
00000150: 811f 753d 7ba0 a7bd cd4c c33d e83e 5fbe
00000160: 7a60 dcbd 70f9 81bd 0551 59be e235 99be
00000170: 0131 6a3d 70f0 55bd 50d5 f7bd e28c 9b3c
00000180: cdca b7bc c489 143e d525 083e 6e6e 16be
00000190: 0aab 553e 7115 b5bc ffe4 423d e3de 85bd
000001a0: ceb7 89bd 6e95 5ebe 1b37 9a3d b407 8bbe
000001b0: 9e0f 643d 1c04 f93c b483 343c a575 adbd
000001c0: bea2 ccbd 077c bf3d dbbc e13d 0916 833d
000001d0: c78c c5bd 8fd2 7dbd 85bb bc3c 433f 61bc
000001e0: 849e 493e f324 18be cd90 22be ca27 a0bc
000001f0: 4292 fabd f79b 013e 7df5 623d ee4b 0bbd
00000200: 0275 72bd 7996 82bd 817a b0be 7174 9dbd
00000210: 5de0 713d d980 78bd 6f2e dc3d bf9d 813d
00000220: f2ae 463e b649 3d3a dd3a 5fbe c481 bd3c
00000230: c66f 9d3d 54f3 4f3e f630 df3c facf 81bd
00000240: 2b6c afbe 2558 31be 17d9 28bd 11ee c03d
00000250: 5397 9fbd c7fb 28be 1cc4 263e 4a07 5ebe
00000260: 78b8 c0bd cbf3 583d eb33 8b3d a833 7abe
00000270: 30f4 d9bd e495 84be f6a8 1bbd 2937 dcbc
00000280: e4bb 063d 7b2a 323d 0255 953d dab3 4dbd
00000290: 924b 95bc 4485 00bd acef df3d 8879 83be
000002a0: 8779 09be f98c 2ebe 0f55 98be 4060 043e
000002b0: c2a3 acbe e645 e5bb fdee 55bd bc54 7dbe
000002c0: eeab e03d c5f5 013e ee66 ea3d f347 5ebe
000002d0: 1c6b bf3d 3ee9 8e3c ad8b 55be f948 42bb
000002e0: 9eb3 5b3e ea39 c73c 21c0 353d 26d7 c1bd
000002f0: 4ff0 12be 4f66 bebd b24a 9d3d 91ba c3bb
00000300: 7d90 acbd 6600 c7bd 52ee b5bc 570c 71bd
00000310: b0dd a1be e5c2 33bd 0711 813d 006d fb3d
00000320: 837d d13b 2157 0bbd 5254 d9bc fb70 5abe
00000330: 9ab4 6e3d 34be 90bd 18ca 593c 2e42 12bf
00000340: 4265 963c 06de fd3d b4c2 d6bd 685d 94be
00000350: 8b7b 6abd 4464 1f3d 1066 9e3d b6d6 aabd
00000360: 9a93 203d 526b 4f3e 1910 5cbd 6982 113c
00000370: 3b88 503e f4b7 a4bd 1183 03be d53e b5bd
00000380: c17b e43d 8565 05bd a0a2 febc 397d 2a3d
00000390: 704c 38bd 3fb3 a23d d231 e33d c98c 05be
000003a0: af0e 26bd 54c4 b73d bd1f 86bd 136c cd3d
000003b0: cd81 183c e507 93bc 9d5a d9bd 2a0c cb3d
000003c0: 7c3f 38be 5fd4 663d 9b97 82bd 2d64 b63c
000003d0: b8a0 32be 0b12 6d3b 14fa a03c ea4f 113e
000003e0: 0103 653d 53c1 cbbd d8bd 0e3d 6f9b ed3d
000003f0: ed18 74bd d4a6 e3bc cbad b4bd fa7a dd3b

6.bias f4 [157]
0.43967 -0.15391983 -0.6440578 0.012783754 0.3331301 -0.3115431 -0.40911043 0.10292895
0.64712137 -0.20931052 -0.22065346 0.2667779 0.038065895 0.060704798 0.18753567 -0.060078204
-0.064806975 0.058320332 0.22529079 -0.077570416 -0.3354808 0.077002056 0.44057783 -0.13690181
0.3234894 0.4773895 0.31229964 -0.4064076 0.3177393 -0.22073926 0.097336054 0.1807516
0.15557429 -0.15880318 0.32157198 0.022617597 -0.2731411 -0.43101203 0.07977487 -0.33444482
-0.34221205 -0.07654758 -0.45158404 0.16042453 -0.0047083194 -0.2712511 -0.20298307 -0.32179153
-0.50356215 0.04513083 -0.19086888 -0.5682367 0.25461 0.21323447 0.028351432 0.13503683
0.107301444 -0.25468558 -0.082529925 0.35156474 -0.031071411 0.09443566 0.10043345 0.12232579
0.2552694 0.19717696 -0.2015342 0.19165005 -0.100217 0.4249969 0.37204698 0.177258
-0.31637686 -0.4877593 0.24008991 0.14995591 -0.11044147 -0.00822593 -0.060252726 0.18144672
-0.41081524 0.4647997 0.060234133 -0.056681413 -0.15556745 0.27447057 0.24907352 0.19691429
0.17968287 0.22935408 0.04304605 0.026834967 -0.0077748057 -0.19251713 -0.015081233 -0.123671465
0.016271368 -0.04319904 -0.04740198 -0.11772501 0.5916215 0.2821391 0.12997094 0.112519495
-0.24956107 0.25465629 -0.037421484 0.036440633 -0.24837026 -0.012461248 0.059784714 -0.26417235
-0.039236262 -0.25686944 0.014604143 -0.3072578 -0.03058086 0.1874601 -0.13566929 0.05947961
0.014023102 -0.36278677 -0.25091136 0.51849324 -0.2857972 -0.046118636 -0.06014947 -0.51820934
-0.124973804 -0.102678955 -0.20982014 0.023192858 -0.2296242 0.059733782 -0.20515345 -0.34856588
0.12847073 0.17354813 -0.10595837 -0.53804404 0.2369616 -0.38047957 0.68133473 0.028024305
0.24313992 0.14574 0.052006718 0.04576113 0.71270293 -0.24063888 -0.081287146 0.18020761
-0.33758482 -0.17058522 0.41148794 -0.45090148 0.059779547
00000000: 6d1c e13e 299d 1dbe f9e0 24bf f372 513c
00000010: 0790 aa3e 9482 9fbe ec76 d1be 6acc d23d
00000020: bfa9 253f 7f55 56be fbf2 61be 1d97 883e
00000030: fcea 1b3d 98a5 783d 5a09 403e 9014 76bd
00000040: 85b9 84bd 4de1 6e3d a1b2 663e 3ddd 9ebd
00000050: 24c4 abbe 41b3 9d3d 6b93 e13e fd2f 0cbe
00000060: 67a0 a53e 666c f43e bde5 9f3e a814 d0be
00000070: baae a23e 7909 62be 2058 c73d f316 393e
00000080: de4e 1f3e 4d9d 22be 15a5 a43e 8a48 b93c
00000090: 26d9 8bbe 9cad dcbe 0261 a33d 5a3c abbe
000000a0: 6b36 afbe fac4 9cbd 0636 e7be 5446 243e
000000b0: 3f48 9abb 6de1 8abe cbda 4fbe dcc1 a4be
000000c0: 73e9 00bf 1bdb 383d 2273 43be f677 11bf
000000d0: 3e5c 823e 235a 5a3e 4341 e83c 1847 0a3e
000000e0: dcc0 db3d 2666 82be 7305 a9bd 4b00 b43e
000000f0: 7989 febc 7c67 c13d 0db0 cd3d f285 fa3d
00000100: acb2 823e c2e8 493e fb5e 4ebe e93f 443e
00000110: 923e cdbd 3299 d93e f17c be3e 1f83 353e
00000120: 26fc a1be 96bb f9be 21da 753e 0b8e 193e
00000130: 232f e2bd 0dc6 06bc 90cb 76bd 2bcd 393e
00000140: 6056 d2be 3afa ed3e 11b8 763d c52a 68bd
00000150: 134d 1fbe 6887 8c3e 210d 7f3e e6a3 493e
00000160: c9fe 373e ccdb 6a3e 0e51 303d 01d5 db3c
00000170: ccc3 febb 3623 45be 4717 77bc 7747 fdbd
00000180: 884b 853c 7af1 30bd 9428 42bd cf19 f1bd
00000190: 8274 173f 8974 903e 1a17 053e 9f70 e63d
000001a0: f08c 7fbe 4f62 823e 4547 19bd c642 153d
000001b0: c654 7ebe 432a 4cbc d1e0 743d 9941 87be
000001c0: 34b6 20bd 6484 83be 3746 6f3c e550 9dbe
000001d0: b684 fabc 8af5 3f3e e4ec 0abe e4a0 733d
000001e0: 27c1 653c 30bf b9be 7477 80be f9bb 043f
000001f0: 0354 92be e5e6 3cbd 4a5f 76bd 5ea9 04bf
00000200: 44f2 ffbd 5849 d2bd 17db 56be f3fe bd3c
00000210: 9b22 6bbe 69ab 743d bf13 52be 3a77 b2be
00000220: d58d 033e 9ab6 313e b400 d9bd 41bd 09bf
00000230: 10a6 723e 38ce c2be f46b 2e3f 3a93 e53c
00000240: acf9 783e de3c 153e ff04 553d 0670 3b3d
00000250: b373 363f 0a6a 76be e079 a6bd 5888 383e
00000260: ebd7 acbe e4ad 2ebe 8cae d23e 8fdc e6be
00000270: 66db 743d
