pav_spkid_pytorch/lpcc_model_hsize_175_lr0001/e9_weights.ckpt (torch_old, 755742 bytes, 8 tensors)

0.weight f4 [175, 567]
000000 35 ad 1a bd 2b 75 eb 3b 41 01 05 3d 76 76 12 bc
       -0.03776284 0.0071855984 0.0324719 -0.008939376
000010 0b d9 8a bb 54 82 0e 3d 79 65 c0 bc 39 1f 3f bc
       -0.0042372993 0.03479226 -0.023485886 -0.011665159
000020 5b 04 c5 3c 16 10 bd 3c aa 81 0f 3d 54 72 10 bd
       0.024049928 0.02307896 0.035035767 -0.03526528
000030 1f f6 a4 3c e4 85 11 3c b5 89 88 3c 57 72 0f bd
       0.020136891 0.00888202 0.016667226 -0.035021152
000040 09 49 63 bc c1 d9 f5 ba 4e 6c 08 bc 98 15 6b bc
       -0.013872393 -0.0018756912 -0.008326603 -0.01434841
000050 0c 6c bb bb 20 49 0f 3d c7 ba 10 bd d3 88 02 bd
       -0.0057196673 0.034981847 -0.035334375 -0.031868767
000060 87 07 c2 3c 8e 2c 08 3d 2e 33 8b 3c 83 15 26 3c
       0.02368523 0.033245616 0.016992178 0.010136965
000070 ee 87 03 bd 68 3e 18 3d 85 a7 02 3b 70 32 60 bb
       -0.032112055 0.03716889 0.0019936275 -0.003420975
000080 d6 57 bc bc 87 e0 fd bc 85 6a 29 bb 20 91 0a 39
       -0.022991102 -0.030990852 -0.0025850844 0.00013214769
000090 1a 76 dd bc 91 b6 7f 3c b9 15 a1 3a 51 d1 6a 3c
       -0.027033854 0.015607492 0.0012289799 0.0143321315
0000a0 eb b3 78 bc ae 85 32 bc c4 14 4c 3b 18 ce e8 bc
       -0.015179615 -0.0108961295 0.0031140307 -0.028418586
0000b0 83 56 a7 3c ed 43 08 3d e1 5f 0b bb 07 f7 de bc
       0.020426994 0.033267904 -0.0021266865 -0.027217401
0000c0 49 42 f2 3c b7 29 5c bc 9c 70 63 3b d8 24 52 3b
       0.029572623 -0.01343768 0.0034704572 0.0032065418
0000d0 c9 a8 50 bc 46 0b 02 3c 82 65 a6 3c a0 60 95 bc
       -0.012735554 0.007937258 0.020312075 -0.018234551
0000e0 84 b8 d1 bc 98 e7 1f bd 57 43 95 bc ea e4 71 bc
       -0.02560068 -0.039039224 -0.018220587 -0.01476405
0000f0 8d 0b bc 39 c8 42 57 bc ca 51 b0 3c 9e bc ea 3b
       0.0003586676 -0.0131384805 0.021523375 0.007163598
000100 17 57 8c 3c 23 02 0b bd f2 19 d1 3c c5 cf d7 3c
       0.017131371 -0.033937585 0.025525067 0.02634419
000110 b0 48 08 3c 4e 96 1b bd 88 4f e5 3c de 1b 35 3c
       0.008318111 -0.03798514 0.027992025 0.011054007
000120 e0 8d 05 3d f3 5a 21 bd 9c 14 86 bc 23 ef 4d bc
       0.032606006 -0.039393377 -0.01636725 -0.012569222
000130 44 75 3b 3d 3c e9 8f bc 7c 38 5f bc 7a e6 0f bd
       0.04576613 -0.01756727 -0.013624307 -0.03513191
000140 45 de 1b 3d 78 39 2e bd 33 4b ff 3c 43 b5 f2 3c
       0.03805377 -0.042535275 0.031163787 0.029627448
000150 d4 fd 34 bd 8c fe f5 bc ed a6 12 3d e5 c8 2c 3d
       -0.044187382 -0.030028604 0.035803724 0.042183775
000160 7f 59 29 3d a0 03 ef bc 3e 8a 48 3c aa 8a 11 bd
       0.041345116 -0.029176533 0.012239991 -0.03553263
000170 28 1b 71 bc 98 4c 26 3d 8c 16 b2 3c 61 98 1e 3d
       -0.014715947 0.04060039 0.021739267 0.03871954
000180 31 c8 df 3c 9e 3d 52 bb d3 0f 2b bd c4 30 5d 3c
       0.027317138 -0.0032080184 -0.041763138 0.013500396
000190 ea 66 18 bd 68 58 1d bc 6c 50 44 bc a2 ea 9c 3c
       -0.03720752 -0.009603597 -0.011982065 0.01915485
0001a0 61 0a ff 3c 2e 6d 8a 3c 75 c9 f1 3b 33 5a 3c bc
       0.031132879 0.016897764 0.007378752 -0.011496115
0001b0 46 9a 81 3c 27 90 d0 ba 70 7a 08 3d 49 df 2d bd
       0.015820634 -0.0015912101 0.03331989 -0.04244927
0001c0 a5 ed 1f 3d f8 5b 2a 3d 0b 68 b6 bc 24 27 9d bb
       0.039044995 0.041591614 -0.022266408 -0.0047959257
0001d0 8e 36 c0 3c 03 55 14 bd 24 c2 b5 3b cd 0c 06 bb
       0.023463514 -0.036213886 0.005546825 -0.0020454407
0001e0 55 ab 28 3d b9 7e ff 3c 9b 9f dd bc d8 5a 45 bc
       0.04117902 0.031188356 -0.027053645 -0.012045585
0001f0 23 8b 77 bc 0d d2 5b 3c c8 45 2a bd 31 33 e2 3c
       -0.015108856 0.013416779 -0.041570455 0.0276123
000200 6e 67 f4 3c 76 e8 98 bc ad 94 10 bd be e2 14 3c
       0.029834475 -0.018665534 -0.03529804 0.009087263
000210 80 46 0b bb d6 5e 93 bc b4 48 0f 3d fd 9e 06 3d
       -0.0021251738 -0.017989557 0.034981444 0.032866467
000220 61 11 1f bd 7a cc c8 bb e4 d4 09 3d 7d 4e 7e bc
       -0.038834933 -0.006127891 0.033650294 -0.015521643
000230 cb 6f 28 3c 31 94 f5 38 90 f8 5a bc 87 de 0d bd
       0.01028056 0.00011710113 -0.013364926 -0.034636047
000240 8b 0c 22 bc c8 d1 8c 3b eb 34 df bb f2 f4 07 bd
       -0.009890686 0.004297469 -0.0068117282 -0.033192582
000250 cb 07 a1 3c 9b 1d ef 3c 9f b2 d1 bc e3 24 ba 3c
       0.019657036 0.029188922 -0.025597868 0.022722667
000260 1e f3 df bc 24 86 c1 bc 12 78 01 3c ff a6 7e bc
       -0.027337607 -0.023623534 0.007902162 -0.015542745
000270 79 19 d7 3c e8 8d dc 3b 86 d2 0b bc 5b 9f 76 3c
       0.026257263 0.0067307837 -0.008534079 0.015052642
000280 8a 94 c0 bb 95 3d 87 3c a3 9d b8 bc cb ce 54 3c
       -0.0058770822 0.016508857 -0.022536105 0.012988756
000290 4c 76 39 3c d0 98 a9 bc 0d 33 83 bb 65 d4 8b bb
       0.011319708 -0.02070275 -0.0040038885 -0.0042672628
0002a0 ad bb e2 bc d5 fd 46 3a 4e 02 0f 3d 90 ff 84 bc
       -0.027677381 0.00075909245 0.034914307 -0.016235143
0002b0 37 49 6f 3c ac 3a 0c bd d8 a8 db 3c df a3 42 3b
       0.014604858 -0.03423564 0.02681391 0.0029699726
0002c0 e5 4b ae bc 04 d0 70 3b f3 76 06 bd 72 91 0f 3d
       -0.021276424 0.003674508 -0.032828283 0.035050817
0002d0 63 30 d1 3c ef 4c f3 3b 3e 4e 6a 3b d8 16 3c bd
       0.025535768 0.0074249427 0.0035752202 -0.045920223
0002e0 65 74 97 3c 42 05 aa 3c 01 38 34 bc b9 4e 43 3d
       0.018488118 0.02075446 -0.0109996805 0.047682498
0002f0 03 e8 d7 3c cf 06 85 bc 8a ad ad bc 9d 32 07 3d
       0.026355749 -0.016238598 -0.021200914 0.033007253
000300 f6 12 8f bc eb a0 08 3d d6 e6 00 ba b5 5b aa bb
       -0.017465096 0.03335659 -0.000491721 -0.0051989206
000310 37 10 0f 3d 17 c5 c4 3c 8c 84 8e bc 24 3d a6 ba
       0.034927573 0.024019761 -0.017397188 -0.0012683016
000320 1d 97 59 3c 8f df a6 bc 22 f5 94 3c 16 d1 89 bc
       0.013280657 -0.020370273 0.018183295 -0.016823333
000330 1e 42 be bc c0 c7 cb bc b0 26 cf bc aa 52 d1 3c
       -0.023224887 -0.024875522 -0.025287002 0.025552113
000340 72 36 25 bd 12 1f 34 bc 65 c4 e7 3c dc 81 87 bb
       -0.040335126 -0.010993736 0.02829189 -0.0041353535
000350 f6 d3 1c bd 58 6e fb bc 5e 1c 4e 3d 56 a6 f4 ba
       -0.03828808 -0.030692264 0.05032002 -0.0018665295
000360 10 da fd 3c b5 eb 00 3d e7 55 f5 3b 07 1c 18 3a
       0.03098777 0.031474788 0.007487047 0.0005802516
000370 51 0c aa 3c 83 ad 24 bd 51 c8 f0 3b 1f cc 82 3c
       0.020757826 -0.040204536 0.0073480983 0.015966473
000380 86 a7 4b 3b d3 97 2e 3b 07 42 3c bc fc 21 23 3b
       0.0031075194 0.0026640787 -0.0114903515 0.0024892082
000390 41 e9 0d 3d aa 46 ca bc 89 cd 04 3c 82 c6 d1 3c
       0.034646276 -0.024691898 0.008105644 0.025607351
0003a0 51 9d 8c bc 1e 71 98 3b c3 4b 5c bc aa bf c0 bc
       -0.017164858 0.0046521565 -0.013445797 -0.023528893
0003b0 33 18 5a 3c 19 6f 51 3c 40 10 aa bc 30 5c a4 bc
       0.013311434 0.012782835 -0.020759702 -0.02006349
0003c0 cf b5 1d bc 7f 9d e0 bc 29 53 d9 3c 09 4e ab bc
       -0.009625866 -0.02741885 0.026528912 -0.020911233
0003d0 eb 90 a0 bc d6 a9 e4 3c 0c f4 a0 bc f3 5c 0a bd
       -0.019600352 0.027913015 -0.01964762 -0.03378005
0003e0 1c c6 21 3d e4 2e 91 3c 87 10 8c bc 8c 09 1a 3d
       0.039495572 0.017722555 -0.017097725 0.03760676
0003f0 24 99 90 bc 9f 27 44 bb de 03 f7 bc 48 55 22 bd
       -0.017651148 -0.0029930843 -0.030153211 -0.03963211

0.bias f4 [175]
000000 01 15 02 bd 3d aa 9c 3d f5 32 9e bc 80 b3 3b bd
       -0.031758312 0.07649658 -0.019311408 -0.04582548
000010 4e 8e f3 3c 67 4c b9 3d 1a 40 0c bf 82 36 b8 3c
       0.029730942 0.09047776 -0.5478531 0.022486929
000020 dd d5 1f 3e 77 6a 25 bc 75 5b b7 3e f9 e7 14 be
       0.15608926 -0.010096184 0.35811964 -0.14541616
000030 0c 3c 5a 3d 31 29 48 3e 25 fe e3 3d a2 33 da bc
       0.05327992 0.19546963 0.111324586 -0.026635949
000040 ae 99 04 bc 5d d1 85 bd 25 64 b7 3d 93 f7 59 be
       -0.008093281 -0.065340735 0.08954648 -0.21285848
000050 05 a6 93 be 90 9b b5 3c ca 55 9e 3c d4 44 1d 3e
       -0.288376 0.022168905 0.019328017 0.15358287
000060 ca 62 a1 be 10 8c 9e be 6d 77 ad bc 87 15 ec be
       -0.31520683 -0.30966234 -0.02117511 -0.46110174
000070 88 ce b1 3c 05 4e dd 3d bc 1f 30 3c 4f 3d 3e 3e
       0.021704927 0.10805897 0.010749754 0.18578075
000080 46 a7 05 3e 56 45 8b 3e ee f4 8e bc f7 5a 0d 3d
       0.13052091 0.27201337 -0.017450776 0.03451058
000090 c2 eb e1 be be b4 be 3d 4d a6 b3 3d 9a 7b 03 3f
       -0.4412518 0.093118176 0.08771954 0.51360476
0000a0 9b 41 12 3e 95 59 32 bd 39 01 5f 3e 24 07 04 bd
       0.14282839 -0.043542463 0.2177781 -0.032233372
0000b0 40 61 9b bb 73 03 e4 3c 80 07 4d 3a d0 6e 7c 3e
       -0.0047418177 0.027833676 0.0007821247 0.24651647
0000c0 d3 f1 3f bc 0e a4 28 be c6 bd 28 bf ba b9 03 3d
       -0.01171537 -0.16468832 -0.6591457 0.032159545
0000d0 0c d1 d0 be 25 34 a8 be 49 4f 0d 3d c6 d3 26 be
       -0.4078449 -0.32852283 0.03449944 -0.16291723
0000e0 60 86 6e bd e3 4a 08 be a2 e4 97 bc 1d bb 9b 3c
       -0.05823362 -0.13309817 -0.018541638 0.019010121
0000f0 62 60 36 3e 94 7c 11 3f 45 de 6e 3e 08 23 1d bd
       0.17810205 0.56830716 0.23326977 -0.038363487
000100 22 4a 0e bc 93 8a 43 be cf d0 f6 3d e6 97 2a 3c
       -0.008684667 -0.1909583 0.12051546 0.010412192
000110 48 2a bb 3e 07 66 c0 bd 5e 38 13 bd fe 67 5d be
       0.36555696 -0.0939446 -0.035942428 -0.21621701
000120 5a 10 d5 bc 2d ac 14 3e 24 10 ac bd 4c 11 d2 3c
       -0.026008774 0.14518805 -0.08401516 0.025643013
000130 da 97 ec 3a b1 95 4a 3d aa 47 14 be f4 5c b6 be
       0.0018050626 0.049459163 -0.14480463 -0.35617793
000140 9c ba 2b 3e ce a6 9f 3e 13 3f 14 bc 10 e5 cc bd
       0.16770405 0.3118195 -0.009048241 -0.10004628
000150 b1 ca 1d bd 4d 67 10 3e 59 d5 e7 bc bf 9c b6 bc
       -0.03852338 0.14101906 -0.028299974 -0.02229154
000160 11 39 12 bc 2e 8d a0 bc cb c8 84 bc 64 53 3a bc
       -0.0089247385 -0.01959857 -0.016209027 -0.011372421
000170 b9 b3 ab 3c 3f 79 75 be d4 0d c2 bd 48 8a 07 be
       0.020959722 -0.23972033 -0.09475294 -0.13236344
000180 3c 90 9e bc 9d 22 5f be f2 bf 47 bd 5b 87 82 3e
       -0.019355886 -0.21790548 -0.048767038 0.25493893
000190 88 1f 44 bc d0 99 09 3b a5 61 c1 be 9f 53 05 bd
       -0.011970408 0.002099622 -0.3776981 -0.03255045
0001a0 33 85 0d 3f 83 b0 5d be 30 40 26 bd b2 e9 e2 3c
       0.5528137 -0.21649365 -0.040588558 0.027699325
0001b0 32 1d eb 3d e2 d2 90 bc 62 f8 39 bd ce 3a 6c 3d
       0.11480178 -0.017678682 -0.045402892 0.057673268
0001c0 10 6d f0 bc b5 76 14 3e b1 be 94 3c 62 31 1a bf
       -0.02934888 0.14498408 0.018157335 -0.602316
0001d0 22 b9 59 3d 41 78 95 be 30 f3 1c bd 91 17 39 bd
       0.053155072 -0.2919331 -0.03831786 -0.04518849
0001e0 48 f1 fb 3c 4a 33 e3 3c af ac 84 be fa 81 dd be
       0.0307547 0.027734417 -0.25912997 -0.43263227
0001f0 43 3f 75 3d 90 d0 aa be 9d f2 c3 3c 73 3e 4b 3c
       0.059874784 -0.33362246 0.023919398 0.012405026
000200 05 40 68 be c6 05 3f be 99 2d ef 3c 40 b7 6e 3b
       -0.22680672 -0.18654546 0.029196547 0.0036425143
000210 74 07 7b be 56 cd 29 be c0 1c fc 3d a4 46 0a bd
       -0.24514562 -0.16582236 0.12310171 -0.033758774
000220 d2 c4 7b 3e b3 37 c4 bd 00 36 33 3e 0e b2 54 be
       0.245868 -0.09580936 0.17501068 -0.20771047
000230 07 74 bd be f6 fa b0 3d 76 07 8b bc 5f 84 8a 3c
       -0.37002584 0.08641617 -0.016971331 0.016908823
000240 d7 ff 8d bb 89 5f 46 be e0 4f 29 be 26 2c 0a 3e
       -0.004333477 -0.19372381 -0.16534376 0.13493404
000250 a6 e2 28 37 6a e3 36 be 00 c9 23 be 86 31 c5 bb
       1.0066351e-05 -0.17860189 -0.15994644 -0.0060178665
000260 65 5b 95 be 9c 74 0e 3d a8 36 cc bc 0d 75 b3 3d
       -0.2917129 0.034779176 -0.024928406 0.0876256
000270 e4 e5 3d bc f1 f6 f5 3c db c8 35 bd 43 a6 11 bd
       -0.011590455 0.030024977 -0.044381004 -0.03555895
000280 d6 1a 35 bc 3a 8a 28 be a0 c6 c3 3c 16 c0 74 bd
       -0.0110537615 -0.16458979 0.023898423 -0.0597535
000290 c9 3e 1e ba 29 71 9b 3d cf ff 16 3d 3c f1 1b 3d
       -0.00060365774 0.07589943 0.03686505 0.038071856
0002a0 00 92 19 3e 51 96 c0 be af bc f0 bd f8 e3 1c 3d
       0.14997101 -0.37614682 -0.117547385 0.038303345
0002b0 7d 80 e2 bd 92 a0 75 3c 78 50 9b bd
       -0.110596634 0.014991896 -0.075837076

2.weight f4 [175, 175]
000000 12 04 8a bd 68 76 80 3d d0 af 38 3c f4 99 03 bd
       -0.067390576 0.06272584 0.011272386 -0.032129243
000010 9b 42 c3 bd a4 bf 7d 3c 00 80 48 bd 93 84 5b bd
       -0.09534188 0.015487585 -0.048950195 -0.05359323
000020 38 9b 78 bc 62 05 47 bd 15 5e a7 bd 8e 08 81 bd
       -0.015173726 -0.048589118 -0.081722416 -0.0630046
000030 2d 45 36 bd 4a 2f 83 bd dd d1 e5 bb 6e 89 30 bd
       -0.044499565 -0.06405504 -0.007013543 -0.043099813
000040 e0 41 5d 3b 47 04 96 bd 25 d9 7d bd 95 78 90 bd
       0.0033761188 -0.073250346 -0.061974663 -0.07054249
000050 77 50 6f 3d 40 1d b5 ba 8f 9d 7e 3d 8f 5b 25 bd
       0.058426347 -0.0013817921 0.06216198 -0.04037052
000060 a4 37 8e bd 56 4d 06 3d 76 b0 84 bd a6 f5 05 bc
       -0.06944206 0.032788597 -0.0647897 -0.008176243
000070 e3 d9 84 bd b6 0c 82 3c b9 73 08 bd 09 56 fe 3c
       -0.06486871 0.015875202 -0.033313487 0.031046884
000080 60 98 99 bd fe 40 fa 3c 8e ca 2a 3b 8f 59 c0 3c
       -0.07499766 0.030548569 0.0026060673 0.023480205
000090 e9 b0 5b 3d d3 fc 76 bd cb 31 81 ba 82 f6 a5 bc
       0.05363551 -0.060299706 -0.0009856758 -0.020259146
0000a0 f8 6d 2f 3d 53 ab 34 bd 6f 3a 5f bc 67 37 1a 3d
       0.042829484 -0.0441087 -0.0136247715 0.037650492
0000b0 82 43 50 3d 6c 07 0c 3d 5f 18 9a bd af d5 4c 3d
       0.05084563 0.034186766 -0.0752418 0.050008472
0000c0 c8 3c 57 bd a0 3c 39 3c e8 c1 5f bd 76 d3 bd bc
       -0.0525482 0.011305958 -0.054628283 -0.023172121
0000d0 1b ce d2 bb 9b 27 eb bc 61 75 1e bd 7f 1a fc bb
       -0.006433261 -0.028705409 -0.03868616 -0.0076935883
0000e0 8c 4c 9d bd 25 26 d9 bc d6 9c 0c 3d 8e 83 36 bd
       -0.07680616 -0.026507447 0.034329258 -0.044559054
0000f0 4b 42 43 3c 52 ab 8e 3c c3 86 b5 bc 38 3b 41 3d
       0.011917661 0.017415676 -0.022158986 0.047175616
000100 23 6f 4b 3d e0 dc 79 3d 9b 80 a1 3c 56 ac be bc
       0.049666535 0.06100166 0.019714644 -0.023275536
000110 1a 6d c7 3b 69 dd fe 3c dd ef 91 bd a0 5c a3 bd
       0.006086004 0.031111436 -0.071258284 -0.07976651
000120 1a d7 00 3d c1 9b 73 3d 65 aa 6c bc 59 5f 91 bb
       0.031455137 0.05947471 -0.014444922 -0.004436415
000130 71 75 15 3d 5d 02 0a 3c af 54 08 3d ed 66 a9 bc
       0.036488954 0.008423415 0.033283886 -0.020678962
000140 70 2a 5e 3d 8a a7 3a bb 13 8f 82 bd 0b 0a 57 bd
       0.05423969 -0.0028481209 -0.063749455 -0.052499812
000150 fe f0 0f 3c 21 1f 33 bc d0 cc a3 bd a2 bf 6b 3d
       0.008785484 -0.010932715 -0.07998049 0.057555802
000160 3a 66 24 bd c7 5c 6a bd 28 4c 13 bd ee 7a 64 3d
       -0.040136553 -0.057217386 -0.0359613 0.055781297
000170 cd fa 31 bc d8 70 c1 3b 01 38 d2 3c f3 d3 ad bd
       -0.010863018 0.0059033446 0.02566147 -0.08487692
000180 57 84 82 3d a8 bb f2 3c 4a 3a 7a bd 97 00 b1 bd
       0.06372898 0.029630497 -0.061090745 -0.08642691
000190 11 29 f5 bc f6 8b d4 bc a9 9f 08 3d 10 bf aa 3c
       -0.029926809 -0.025945645 0.03335539 0.020843059
0001a0 c8 0e 69 bc 64 57 cc bc 5d 54 88 3d 22 27 ec 3a
       -0.0142247155 -0.024944015 0.06656716 0.0018017034
0001b0 6e 7b e1 3c 13 4d b6 bc 22 9d b3 3c 7d 0d 25 bd
       0.027524676 -0.022253549 0.021925513 -0.040296067
0001c0 50 9e 28 bd 0b c9 b7 bd 40 39 bc 3c b0 7e 08 3d
       -0.041166604 -0.08973893 0.022976518 0.033323944
0001d0 c8 cc 0f 3c 8f dc e0 ba 7a 71 1c 3d 0c d2 9d 3c
       0.008776851 -0.0017155575 0.038194157 0.019265197
0001e0 04 d2 e4 3c a3 04 90 3d a4 a9 a4 bd 86 71 7c bd
       0.027932175 0.070321344 -0.08040169 -0.061631702
0001f0 80 9c 42 bd 7a 28 30 3c 0c fa a8 bd f7 35 32 bd
       -0.04751253 0.010751838 -0.08250818 -0.043508496
000200 7a 18 0e 3d fd 99 88 bd 6a 3d 94 bd 72 93 77 3d
       0.03469131 -0.06669996 -0.07238276 0.06044335
000210 1b 1e 62 bd cd e2 d8 3c 0f b4 26 3d 78 5e 9b bd
       -0.055204492 0.026475335 0.04069906 -0.07586378
000220 e8 82 35 3d b0 af 94 bd 17 2c 9b 3c b0 c9 3b bd
       0.044314295 -0.07260072 0.018941922 -0.04584664
000230 3d ba 79 bd 12 1f 68 bd 66 5a a5 bc 62 b9 62 3d
       -0.060968626 -0.056670256 -0.020184707 0.055352576
000240 0a 6b 45 bd 34 1f b8 bd ce b6 85 bd e3 42 0b bd
       -0.048197784 -0.089903265 -0.06529008 -0.033999335
000250 d6 94 95 3d 26 1e 12 bd 85 30 74 3d ab 22 c6 3a
       0.07303779 -0.035673283 0.059616584 0.0015116533
000260 1c 66 a4 bc 40 64 18 bc b4 54 95 bd de d6 d9 3c
       -0.02006822 -0.009301245 -0.072915465 0.026591714
000270 20 ab 9b 3c 00 7c 7f ba 09 20 92 3c 83 77 37 3d
       0.019002497 -0.00097459555 0.017837541 0.04479171
000280 47 49 6f bd 7d a5 6b bd 4b f1 a6 3c 94 57 57 bd
       -0.058419492 -0.05753087 0.02037873 -0.052573755
000290 4f 2c 8c bd 44 63 01 3d a1 e8 12 bc e8 bd 2d 3c
       -0.06844389 0.031588808 -0.008966596 0.010604359
0002a0 73 60 fa ba 88 f8 0f bd 70 a6 15 3d 52 76 18 3c
       -0.001910223 -0.035149127 0.03653568 0.0093055535
0002b0 e7 85 a0 bd 90 ea 7e bd 43 2d 82 3c 9b d0 cc 3c
       -0.0783804 -0.062235415 0.015890723 0.025001815
0002c0 2f b1 20 bd 0f 25 7d bb a2 ef ce bd e3 5d 83 3e
       -0.039231475 -0.0038626825 -0.101043 0.25657567
0002d0 57 cb 68 bc b8 22 34 3e 03 69 f6 3c 4a 20 3b 3d
       -0.014208636 0.17591369 0.03007937 0.04568509
0002e0 b7 64 6c be c8 d5 38 3e 36 58 26 3e df 62 cb 3d
       -0.23085295 0.18050301 0.16244587 0.099309675
0002f0 68 1b 49 3d 23 47 89 be 54 f1 aa 3c 91 af a4 bd
       0.049098402 -0.26812086 0.020867027 -0.08041299
000300 e1 b2 97 3d ac 58 e2 3d f4 f3 a3 bd 1f e3 1b 3e
       0.07407165 0.11052069 -0.08005515 0.15223359
000310 df 9d 60 3c c0 f3 22 3d 4f 4e 6d be 69 47 b7 bd
       0.013709514 0.03978324 -0.23174404 -0.08949167
000320 ef 69 0d bb 19 71 83 3d d4 3c 03 be 12 51 f9 bc
       -0.0021578034 0.06418056 -0.12816173 -0.030434165
000330 1a 19 bb bc cb 82 25 bd b3 44 82 bd 7d eb 97 bd
       -0.022839118 -0.040407937 -0.063607596 -0.07417963
000340 ad 92 0b 3e 44 68 a0 3d b2 f5 66 3e a2 ed 93 3d
       0.13630171 0.07832387 0.22554663 0.07223059
000350 d7 0e 67 3c 99 8a 09 be d4 3a aa 3e 7e e5 cb bd
       0.014102659 -0.13431777 0.33248007 -0.099558815
000360 28 14 0e bd ac 22 3e 3e b6 15 95 bc 84 2c 39 3d
       -0.03468719 0.18567914 -0.01819883 0.04520847
000370 f7 36 5e bd 17 41 47 3a 73 f0 34 be 78 04 3e 3e
       -0.054251637 0.00076009467 -0.17669849 0.18556392
000380 a4 44 cd bb 57 99 03 3e f2 f8 86 bc 12 09 84 3d
       -0.006264286 0.12851463 -0.016476128 0.064470425
000390 2e 68 08 be 5b 89 95 3d cf 42 e1 3d 59 ec cf 3d
       -0.13320991 0.07301589 0.10999071 0.101525016
0003a0 3d 46 26 be 68 e6 93 3d 90 74 98 3c 1a f6 5f be
       -0.16237731 0.07221681 0.018610269 -0.21871224
0003b0 7f de 85 3d ab e4 9e 3d b8 20 63 3d 53 07 a1 bd
       0.065365784 0.07758459 0.055451125 -0.07862725
0003c0 1d fc 04 be 16 92 e3 3c c3 54 91 3d 57 dc 4b bd
       -0.12986799 0.02777962 0.07096245 -0.04977068
0003d0 73 1f b0 bc 10 03 55 bd 71 95 4e 3c c7 37 8b 3b
       -0.021499371 -0.052004874 0.012608872 0.0042485925
0003e0 45 8d c8 be c2 cd 48 be 69 62 e8 bc b4 f7 14 3c
       -0.3917028 -0.1960974 -0.028367238 0.00909226
0003f0 62 12 ba 3d 42 9c d2 bc a8 34 89 bd c2 1a 8e bd
       0.090855375 -0.025709275 -0.066994965 -0.069386974

2.bias f4 [175]
000000 c8 39 84 bc 90 84 32 3e 62 d2 3c bd 7e 12 05 be
       -0.016140833 0.17433381 -0.046099074 -0.12995335
000010 9a 44 1d be 4b 6a c2 bd f8 9c 4b 3d 81 eb a9 be
       -0.153582 -0.0949293 0.049710244 -0.33187488
000020 64 2f 8b be a0 8f 75 be 8e ca b0 3d ce 3d 32 be
       -0.27184594 -0.2398057 0.08632384 -0.17406389
000030 63 0a 67 3e 3e fd 82 bd 5f 10 62 bd 50 ac e0 3e
       0.22562556 -0.06395958 -0.055191394 0.43881464
000040 3e 0e cb bd 87 c0 ac 3c b5 ce 97 bd 61 ad 12 be
       -0.09914826 0.021087898 -0.07412473 -0.14323951
000050 48 69 76 be fd 78 8e be 9e 94 ce bc d3 f4 18 be
       -0.24063599 -0.27826682 -0.02521735 -0.14937143
000060 fa 25 65 3e c8 f0 a8 bd 65 c8 8a bd 6c d3 48 3d
       0.22377768 -0.082490504 -0.067765035 0.049029753
000070 56 95 ac bd 47 4f 87 bd 39 5d a0 bc a6 43 ea 3e
       -0.08426921 -0.06606918 -0.019575702 0.45754737
000080 e9 ce 1b 3e ab 67 43 3e c2 a4 2b bd cd 84 92 be
       0.15215649 0.19082515 -0.041905172 -0.28616944
000090 0b 57 ab be 9b 8a 38 3d 72 90 05 3f 2a 3e 0d bf
       -0.33464846 0.04505406 0.5217353 -0.5517298
0000a0 ff 0c a5 be aa b7 0c bd cf b8 fa bd 82 08 a6 3d
       -0.32236478 -0.034354843 -0.12242281 0.081070915
0000b0 73 cc 0d 3f 71 74 c8 bd ba 4a 57 3d 9a 02 bc be
       0.5539009 -0.097878344 0.0525615 -0.36720735
0000c0 5c e1 98 be b5 5d 88 3e e1 46 3c be b7 55 4d 3e
       -0.29859436 0.26633993 -0.18386413 0.20052229
0000d0 0e d8 b2 bd 81 f0 46 3e dd d7 d8 bd c8 f4 b5 be
       -0.087326154 0.19427682 -0.10588048 -0.35538316
0000e0 f3 50 84 3b 6b e5 f6 3e 4a 1d 07 3e f0 2b 0e be
       0.00403797 0.48221907 0.13194767 -0.13883948
0000f0 cf 65 6c be 83 51 5f be c8 e4 dd 3c 8f f1 2b 3f
       -0.23085712 -0.21808438 0.02708663 0.67165464
000100 bd 2c cd bd 59 fa df 3e a0 df 21 3d 30 7c 0a 3d
       -0.10018299 0.43745688 0.039519906 0.03380984
000110 cd 4b 04 3e 3e 9b f5 3e 03 3f 4a 3d 87 e4 05 be
       0.1291954 0.47970003 0.0493765 -0.13075458
000120 22 fb 82 be 19 03 20 be b9 bb 7e 3b e9 62 0e bc
       -0.25582224 -0.15626182 0.0038869216 -0.008690574
000130 73 d3 c0 3d d1 73 03 be 6d 27 ca 39 d2 b4 8a be
       0.09415331 -0.12837149 0.00038557817 -0.2709108
000140 c4 d2 a7 be e9 04 aa bd 84 0e 7b bd eb 44 2c 3b
       -0.3277799 -0.08301718 -0.06129314 0.0026286195
000150 40 a5 71 be 0a 93 1c bd 2f 0a db 3e b2 ab 52 be
       -0.23598194 -0.038226165 0.42781207 -0.20573309
000160 67 f0 46 bd 78 4d 5b 3e 71 c2 1b 3e 15 03 1a 3d
       -0.04856911 0.2141627 0.15210892 0.037600596
000170 88 5e 95 be fe 42 1f 3f b2 de 51 bd 67 f0 c0 bd
       -0.29173684 0.62211597 -0.05123777 -0.09420853
000180 83 a0 c5 3d 2e 41 9c be d3 27 90 be 70 80 ec bd
       0.09649756 -0.30518478 -0.28155383 -0.11547935
000190 01 a1 0d 3e c0 9f a9 3e 3c ed 2f be ae 43 b0 3c
       0.1383095 0.33129692 -0.17180341 0.021516647
0001a0 85 76 53 bd a7 50 38 be 16 11 80 bd 75 ae 5b be
       -0.0516267 -0.17999516 -0.06253259 -0.21453269
0001b0 9b 95 8a be 9c ab 94 3e 82 50 ec 3e 28 51 39 bd
       -0.27067265 0.29037178 0.46155173 -0.045243412
0001c0 b5 37 d8 3d 2a 02 3c 3e b5 e9 f5 be 0c 44 fc 3d
       0.105575 0.183602 -0.48029867 0.123176664
0001d0 4e bd 75 be 26 ca a9 be c9 48 19 3e 1d c7 7f 3c
       -0.23997995 -0.3316204 0.14969172 0.015611437
0001e0 22 48 aa 3e 8d c3 d4 bd 2b 63 ff bd 89 95 8f 3d
       0.33258158 -0.10388861 -0.12470087 0.070109434
0001f0 9a b7 2e bd 79 cf 19 bd f5 b5 b8 3d 09 10 52 3e
       -0.042655565 -0.037551377 0.090190805 0.2051393
000200 28 c9 fe 3c 8d 0d ce 3d 2f 96 f9 3c ee 07 a7 bc
       0.031101778 0.10061178 0.03046712 -0.020389523
000210 77 ea 33 3e 30 1f e7 3b 53 bc 7d be 35 0d c6 be
       0.1756991 0.0070532784 -0.24778871 -0.3868195
000220 37 22 b2 3e ac 94 be bd 29 ed a2 be 4f 2d 63 3f
       0.3479173 -0.09305701 -0.31821564 0.8874101
000230 bb 37 68 3d 67 56 34 3d b6 8f 89 bc 41 c9 2d 3b
       0.056693774 0.044027712 -0.01679216 0.0026517662
000240 87 e7 ad bd 17 83 2d 3e a2 8d a2 3d 23 2d a5 3e
       -0.08491426 0.16944538 0.079371706 0.32261
000250 d8 54 a2 be d5 d2 e3 3d 72 e3 9c bd a8 85 69 bd
       -0.31705356 0.111241974 -0.07660569 -0.05701223
000260 ab 56 50 bd f4 60 9f be c1 ac 5f be 3e 4c c0 be
       -0.050863903 -0.31128657 -0.21843244 -0.37558168
000270 1b 9b 7c bc 7b dd b0 bd f9 97 e7 bd 5a 8e 96 bd
       -0.015417839 -0.08635994 -0.11308283 -0.0735137
000280 95 43 a7 bd 8a e8 8b 3d 54 a5 1a 3f 45 bc 86 3e
       -0.08167187 0.06831463 0.6040852 0.26315513
000290 f2 57 c7 bc f3 d2 21 bc e1 ee 48 be 60 4e 18 be
       -0.024333928 -0.009876954 -0.19622375 -0.14873648
0002a0 c8 aa 09 bf 42 4a 57 bc 24 ea 1d be 56 70 33 bd
       -0.53776217 -0.013140263 -0.15421349 -0.043808304
0002b0 88 ea e9 3e 64 a1 c4 bd 06 8f ca 3d
       0.45686746 -0.09601095 0.09890561

4.weight f4 [175, 175]
000000 e6 28 ab bc 49 a7 e7 3d 80 75 26 bd e3 ec af bd
       -0.020893525 0.11311204 -0.0406394 -0.085901044
000010 5d 1a aa 3c bb c9 06 bd 07 c6 36 be af d5 73 bd
       0.020764524 -0.03290723 -0.17848979 -0.059529956
000020 12 b6 4e 3a 72 a0 87 bd cf 68 7f be a7 20 40 bd
       0.0007885407 -0.066223994 -0.24942325 -0.04690614
000030 ab 9f 74 3e 54 19 9e bd 42 4b 63 bd 01 30 be be
       0.23889033 -0.07719675 -0.055491693 -0.37146
000040 2c db aa bc ae ba 84 3d 3f 19 36 3e 95 eb e0 bc
       -0.020856462 0.06480919 0.17783068 -0.027456084
000050 e2 b4 1d be d6 13 17 3e dc 8c 29 3c ea bb 66 3d
       -0.15401033 0.1475366 0.010348525 0.056331553
000060 7c b7 b5 3d 4c c9 74 bc 73 8e 01 be 49 18 63 bd
       0.088728875 -0.014940571 -0.12651996 -0.055443082
000070 7b 46 8a 3c d8 9e 6d bd aa 64 1f 3c ec 02 6c 3e
       0.01687931 -0.058012813 0.00972859 0.2304799
000080 7e 30 3e 3e 49 65 58 3d 9c ec 1d bc fb 10 a1 3d
       0.18573186 0.052830968 -0.009638932 0.07864567
000090 36 bc a8 bc 1e d6 0c be 35 46 23 3e 35 8e 79 3d
       -0.020597558 -0.13753554 0.1594475 0.060926635
0000a0 1a c7 ff bc e8 cf 12 bc 6e 6c b2 bd 7b 53 5f bc
       -0.031222869 -0.0089607015 -0.087120876 -0.013630743
0000b0 fd df 0a 3d e1 27 10 bc a9 9d 48 be c7 71 87 be
       0.033905018 -0.00879857 -0.19591393 -0.26453993
0000c0 c5 ae 0f 3e ba 60 8d 3d 47 ae 80 3e 00 e7 29 be
       0.14031513 0.06903215 0.25132963 -0.16592026
0000d0 57 70 e2 bc af 05 bd 3d ec 98 e4 be 7d f1 fa bd
       -0.027641458 0.092296 -0.4464792 -0.122530915
0000e0 4c ac e5 3d 7a 97 71 bd 6e 76 97 bd 3c 1d af bd
       0.11214504 -0.05898235 -0.073956355 -0.08550498
0000f0 c0 22 81 3d d2 e9 bd bd 71 91 40 3d 5b 1e f8 3d
       0.06305456 -0.09273113 0.047013704 0.12115165
000100 49 21 c0 3d fc ad f6 3a d4 eb 69 3b e1 45 65 3c
       0.09381349 0.0018820162 0.0035693543 0.013993711
000110 23 81 4a bd 57 4d b7 3d 0e 68 5e 3e 12 c0 62 3d
       -0.04943956 0.08950298 0.21719381 0.055358954
000120 20 87 cc bd 43 ba cc be 4a 53 63 bd 76 8b f3 3c
       -0.099867105 -0.39985856 -0.055499353 0.029729586
000130 1f a1 02 3e 1f 7e f0 bc 7b 46 27 bc 32 83 01 be
       0.12756775 -0.029357014 -0.010209675 -0.12647703
000140 18 7b 30 bd ab 6d 79 3c ad 29 71 bd cb ae 9a bd
       -0.04308614 0.015223901 -0.058877636 -0.0755287
000150 4f 4b 20 3e 2e ef 81 3d fb 99 6b 3d 8c 85 12 3e
       0.15653728 0.06344448 0.057519894 0.14308757
000160 79 ec f0 3c ed ab 1b be 19 f4 80 3e a1 fc 9a 3d
       0.029409634 -0.15202303 0.25186232 0.075677164
000170 ac 30 dd 3d 76 a3 64 3d 67 1d 22 bd a8 a6 72 bd
       0.10800299 0.05581995 -0.03957882 -0.059240967
000180 23 f0 41 be 3a 2c 37 bc cd db 3f be c5 3b 98 bd
       -0.18939261 -0.011179978 -0.18736191 -0.07433275
000190 41 ea c3 bd 6d 1c 6b 3d cb 7b 17 be 9d a1 f9 3c
       -0.09566165 0.057400156 -0.14793317 0.030472571
0001a0 ad 4b 9f bd a3 92 a8 bd 4a 97 85 bd 70 a2 32 3d
       -0.07778106 -0.08231094 -0.06522997 0.043611944
0001b0 13 61 46 3d f7 7d 31 3c 93 11 4b 3e 38 94 37 3d
       0.04843242 0.010833255 0.19830923 0.044819087
0001c0 27 70 da bd c3 db 42 be 90 56 fe 3d 1e 38 bf 3d
       -0.106659226 -0.19029145 0.12418854 0.093368754
0001d0 44 ab 22 3e d4 6c d2 3d 0f 76 0b be 85 53 0a 3d
       0.15885645 0.102746636 -0.13619255 0.033771057
0001e0 a0 f3 33 bc f9 bb 88 bd cc 85 04 3e 46 6a 7c 3d
       -0.010983378 -0.06676478 0.12941664 0.061624788
0001f0 fb cf 1d be ab df 66 3d 47 81 1a be d9 40 b2 3e
       -0.1541137 0.05636565 -0.15088378 0.348151
000200 b6 97 12 bc e5 2d f7 3d 53 39 3f 3d 55 c6 82 3d
       -0.0089473035 0.120693006 0.046685528 0.06385485
000210 8c 34 e5 3d c4 89 18 3e 5d 11 8b bd 5e b1 17 3d
       0.11191663 0.14896303 -0.06790421 0.037034385
000220 9d 0b 4a be 35 2c 66 bd 5d 64 fd bb ff d7 4f 3e
       -0.19730993 -0.056194503 -0.0077329115 0.2029724
000230 b2 1e e7 bd bb e6 a3 bd 18 f9 44 bb bb ed 87 3c
       -0.112851515 -0.08002993 -0.0030055698 0.01659285
000240 50 07 e4 3b 11 a5 84 3d 42 31 47 bd 02 17 f1 bc
       0.0069588795 0.064767964 -0.04863096 -0.029429916
000250 74 ca 06 be c6 b8 42 bc 95 52 a9 3d ee d2 31 3e
       -0.13163167 -0.011884874 0.082677044 0.1736562
000260 ff ad 07 3d 41 8e f4 bc 7f 53 0e be ba fc 1b 3e
       0.03312492 -0.029852988 -0.13899039 0.15233126
000270 b7 f9 99 3c a8 77 4f 3d 9f 63 e3 bc f8 29 74 be
       0.018795831 0.050651222 -0.027757464 -0.23844135
000280 e5 a8 57 3b ea 41 00 bc 27 64 20 3e 89 36 d9 3d
       0.0032907065 -0.007828215 0.15663205 0.10606105
000290 06 d4 b6 bb a8 9f 1d 3e 9e e8 e7 bc 24 8d a1 3d
       -0.0055794744 0.15392935 -0.028309163 0.078882486
0002a0 1d be 86 bb 45 00 9d 3c 30 64 24 3e 6d 75 e1 bb
       -0.0041120187 0.019165168 0.16053843 -0.0068804533
0002b0 de bd 6f 3e 78 80 18 3b a8 0a af 3d 85 9c 92 bd
       0.23412272 0.0023269933 0.085469544 -0.0715876
0002c0 82 7a e9 3d 53 74 de bc d8 70 9d 3d 20 bc f1 38
       0.1140032 -0.027155077 0.07687539 0.000115268165
0002d0 3d f8 3a be 32 70 83 b9 12 bb 6a ba 71 9a 05 3d
       -0.18258758 -0.0002506986 -0.0008954267 0.03261799
0002e0 fc 36 89 3c 7a da 22 3e 6c 72 03 be 8f 7c a4 3d
       0.016749851 0.15903655 -0.12836617 0.0803157
0002f0 f6 d0 2c 3e 67 e3 c3 bd dd e4 16 3f b9 b1 de 3c
       0.16876587 -0.09564858 0.5894297 0.027184354
000300 56 98 4a 3c fc f5 0f bd 20 ac 25 be 17 0e 9b 3c
       0.012365421 -0.0351467 -0.16178942 0.018927617
000310 f2 49 ac 3d 30 ec 96 bd 97 7c da 3c b2 73 63 bd
       0.084125414 -0.07369268 0.026670737 -0.055530258
000320 a0 a8 01 3d d3 93 29 bd 50 57 97 bd 90 8a 15 3d
       0.031654954 -0.04140074 -0.073897004 0.036509097
000330 40 88 ae 3c 8c 9f 62 bd 98 e6 13 3d f9 a2 02 3e
       0.021305203 -0.055327937 0.036108583 0.12757482
000340 5f ea 03 3a ee e9 98 3d 85 7d a9 3c 00 62 9a 3d
       0.00050321774 0.074664935 0.020689735 0.07538223
000350 b8 1c 1a 3e f1 13 b2 bc 90 bd d8 3c 67 c4 4b 3d
       0.15050018 -0.021738024 0.026457578 0.04974785
000360 cb 44 a4 bc 6e 54 2e be 13 cb 82 bd 44 01 00 bf
       -0.020052334 -0.17024395 -0.063863896 -0.5000193
000370 55 29 31 bd ef 92 e8 bc de f4 9a 3d 58 6e 7f 3e
       -0.043252308 -0.028390376 0.07566236 0.24944437
000380 2e a0 47 3e 10 d2 93 bd fc 99 d7 bd f4 45 9c bd
       0.19494697 -0.072178006 -0.10527417 -0.0763053
000390 83 a6 6a bd 4a 9c 7f 3e 87 dc 24 3d 32 be 5a bd
       -0.057287704 0.24961963 0.040249374 -0.05340404
0003a0 f8 df 9d bc ea f0 0c bc 49 78 1b 3d d4 9a 90 bd
       -0.019271836 -0.00860236 0.03795651 -0.07060781
0003b0 44 b0 ef bc 92 ec 27 3d 55 18 5e 3d 44 49 d6 bd
       -0.029258855 0.040997095 0.054222424 -0.10463193
0003c0 e3 78 79 bd 4b f4 ae 3d 33 20 4d bc 3c 25 1b 3e
       -0.060906302 0.08542689 -0.012519884 0.15150923
0003d0 a4 c8 13 be ad 00 eb 3c 1e 97 27 be 6d b7 c6 bc
       -0.14432007 0.028686846 -0.1636624 -0.024257386
0003e0 f5 9b 39 3e c4 f9 56 bd 02 61 ff bd 8f 85 1d bd
       0.18125899 -0.05248429 -0.12469675 -0.03845745
0003f0 61 53 29 3e 3b 01 22 3e cc b7 20 be d2 37 be 3c
       0.16535713 0.15820782 -0.15695113 0.023219977

4.bias f4 [175]
000000 cc b6 ce 3e cd ea 05 3d 77 aa 58 3e 79 1e 89 3d
       0.40373838 0.032694627 0.21158777 0.06695265
000010 2d c0 f6 3e d2 75 1d 3e 74 f9 da bc 01 05 08 3e
       0.48193493 0.15376976 -0.026730277 0.13283159
000020 18 c9 74 3e a5 ec d4 bd 9e 05 ff 3d 35 26 52 bd
       0.23904836 -0.10396699 0.12452243 -0.05130597
000030 60 b0 bf 3c 56 4b ef 3c 1b 36 c2 3d a1 ba 35 be
       0.023399532 0.029210728 0.09482976 -0.17746975
000040 2f 20 65 bd 6c 58 68 3e e1 e2 e3 bd 21 e0 e9 3c
       -0.055938896 0.2268998 -0.11127258 0.028549256
000050 89 6b 40 3e 47 62 6f 3d 20 5c 85 be 1e 51 64 bc
       0.18791021 0.058443334 -0.26046848 -0.0139353555
000060 b5 8f 8b bd 87 48 42 bd b9 34 84 3d 31 36 55 3e
       -0.06814519 -0.04743245 0.064553685 0.20821454
000070 ee ca b2 be 5c 09 52 3d 3b ec 2f 3e 80 81 48 bd
       -0.34920448 0.051278457 0.17179959 -0.048951626
000080 26 12 6d 3e 27 e9 35 3d 8f 6e 27 be 2b 14 02 3e
       0.23151454 0.044411805 -0.16350769 0.12703006
000090 a8 87 a8 3c 79 65 b4 be ba e1 fc bd d4 81 b3 be
       0.020572498 -0.35233667 -0.123477414 -0.35059988
0000a0 85 fe 15 bc 6b 08 87 3e c9 bb f2 3d e0 ae 96 be
       -0.0091549205 0.2637361 0.118522234 -0.29430294
0000b0 ed fb 88 bd 76 e8 20 be ad 09 03 bc 33 b2 6d bd
       -0.06688676 -0.15713677 -0.007997912 -0.058031272
0000c0 78 9f 14 bd 09 42 8a 3e 33 f2 1d bd b5 84 3a 3d
       -0.036284894 0.27003506 -0.038561057 0.045536716
0000d0 92 7d a3 be a5 08 39 3c da 5b af bd ba 44 45 3e
       -0.3193174 0.011293565 -0.08562441 0.19264498
0000e0 91 5e cf 3e 80 4d ba bd ea 1a 1b be 6b 3a 7c bc
       0.40501836 -0.09096813 -0.15146986 -0.015394787
0000f0 d1 d4 f6 bd 8a 90 a2 3c ac f6 5f bd f1 86 67 3d
       -0.1205231 0.019844312 -0.054678604 0.056525175
000100 86 25 93 3e 83 6d 50 bd 18 bf de bd 37 ee c2 be
       0.28739566 -0.05088569 -0.10876292 -0.38072369
000110 eb 98 7c 3d 58 5c a8 3e fb 18 8d bd 66 0c a1 bd
       0.06166927 0.32882953 -0.0688953 -0.07863693
000120 75 86 6f bd a1 bc 42 3e 76 7b 3d bd 72 4b 74 bb
       -0.058477838 0.19017269 -0.04626032 -0.0037276414
000130 b0 30 14 be b6 e8 4c bd 23 d1 bf bb db df 95 3c
       -0.14471698 -0.050026618 -0.0058537885 0.01829522
000140 79 8f be be 06 4d 2c bd bb db 80 3e d7 fa 24 bc
       -0.37218836 -0.042065643 0.2516764 -0.0100695705
000150 e3 cb 4a bc 6d c7 e2 3d 9f 2f 6f 3d c1 8b b1 3d
       -0.012377712 0.11073194 0.058395024 0.08669234
000160 99 52 9d be bf 4c 5a be b0 fd 02 be 99 cc c8 bd
       -0.3072708 -0.21318339 -0.12792087 -0.09804649
000170 8d d6 6e bc 03 60 60 bd 6e f6 b8 bd 4e 35 08 3d
       -0.01457752 -0.054779064 -0.09031378 0.03325396
000180 3c 3f 1c 3d 0c f5 19 be 24 8b 19 bd 56 36 87 be
       0.038146242 -0.15034884 -0.03748621 -0.26408643
000190 3a 0b a8 be 90 95 90 be 7b c7 ab 3e 8d 86 a7 bd
       -0.32821065 -0.28239107 0.3355063 -0.081799604
0001a0 cc 3a 78 bd e1 db 4b 3d af 89 8d 3e c2 0b a1 3d
       -0.060602948 0.04977024 0.27644107 0.07863571
0001b0 9c 8d 96 3e 46 15 5a 3c 13 03 d6 bc ad 83 15 3e
       0.29404914 0.013310736 -0.026124513 0.14601012
0001c0 70 ab ba 3c 2d 2b ff 3d a9 c7 59 bd 79 83 59 be
       0.022786826 0.12459407 -0.053168926 -0.21241559
0001d0 90 8c 89 3d 3d ee 47 3d 08 1a 19 3d fc 91 33 3e
       0.06716263 0.048811186 0.03737834 0.17536157
0001e0 9c b2 d5 3d b9 b1 40 3e b4 f6 c4 3c 42 b3 91 3c
       0.10434458 0.18817796 0.024043418 0.017785672
0001f0 aa ae 0a 3e 63 fb 43 3d e5 df d8 bd a3 f6 16 be
       0.13543192 0.047847163 -0.105895795 -0.14742522
000200 53 b1 ab bd bd f5 04 3d 32 0b 24 3e 27 66 d4 3c
       -0.08383431 0.032460917 0.16019896 0.025927616
000210 07 53 87 3c 86 9e ad be 9e 27 91 be 39 31 10 3f
       0.016519083 -0.33910006 -0.28350538 0.5632511
000220 44 6d c5 3e be e0 3b bd f9 56 96 3d 24 06 1a 3e
       0.38559926 -0.045868628 0.073408075 0.15041405
000230 75 34 e8 bc 23 60 d0 3e 34 50 a0 3d eb b3 c6 bd
       -0.028345326 0.40698346 0.078277975 -0.097022854
000240 49 71 a2 bd 41 ea 05 bf 3e 91 86 be 4f 61 79 bd
       -0.07931764 -0.5231057 -0.26282686 -0.060883816
000250 e0 94 3f be 16 c3 9b 3d f6 ad 92 3e bb a3 c2 bd
       -0.18709135 0.07605569 0.28648347 -0.09503885
000260 89 fe 32 bd 6c bd dd bb 5a 87 22 3d e3 6d a9 bd
       -0.043699775 -0.0067669656 0.039679863 -0.08272912
000270 f9 fe e9 3d b9 86 e7 be fc a6 b3 3e bf d9 f9 3e
       0.11425585 -0.45219973 0.35088336 0.4879894
000280 f3 fb 07 be 5c fa 91 3e ef 1f b7 bd 00 ea a4 bc
       -0.13279705 0.28511322 -0.08941638 -0.020131111
000290 53 20 de 3e ba 26 fd 3d 3e cb c1 3d 8f 5e 05 3f
       0.43384036 0.12360902 0.094625935 0.5209741
0002a0 59 e7 5d be 5e a6 e8 bd 72 8f 28 3e 10 b9 d0 bd
       -0.21670283 -0.11359857 0.1646097 -0.10191548
0002b0 01 b3 f0 3d 4f f2 8e be 8a 9a 99 bd
       0.11752892 -0.27919242 -0.07500179

6.weight f4 [157, 175]
000000 f8 39 a7 3d 78 2c 39 3c 65 94 2d bd 6e bc 08 bd
       0.081653535 0.011302106 -0.04237785 -0.033382826
000010 ae 64 15 be 82 f8 aa be d4 b5 ed bd 5d 84 e0 bd
       -0.14589188 -0.3339272 -0.116069466 -0.10962746
000020 8e 7a b6 3d 08 cc 84 3d 81 4d 5b be 54 ed d7 3d
       0.08910094 0.064842284 -0.21416284 0.105433136
000030 4b 3f a7 bd 85 87 e4 be b1 70 f4 bc f3 8e 5a 3d
       -0.08166369 -0.44634643 -0.029838892 0.053358983
000040 a4 1e ae bd 20 5c 11 3d 98 93 36 3d 48 c7 9a bd
       -0.08501938 0.035488248 0.04457435 -0.07557541
000050 04 07 0b 3e 1d d1 37 3e bb 81 2a be 1d 3c f4 be
       0.13576895 0.17950864 -0.16651051 -0.47702113
000060 da 39 02 3e 8a 5f c5 3c 53 3b 2a be d8 f5 f5 3d
       0.12717381 0.024093408 -0.16624193 0.120097816
000070 cf 08 ef 3c 02 cf 71 3c 7c b8 1d bd dd ba ea 3c
       0.029179005 0.014758827 -0.038506016 0.028653556
000080 ac a7 85 3e 40 93 d6 bd c8 7e c6 bd ea e0 a9 3d
       0.26104486 -0.104773045 -0.0969215 0.08294852
000090 46 d1 d0 3b db ad f5 bd 4e 10 a1 be a6 e9 12 be
       0.0063726036 -0.11996051 -0.31457752 -0.14346942
0000a0 86 58 a5 3d d9 06 5c 3e 1a 4e 05 3e 8f 43 c3 3d
       0.08073525 0.21486987 0.13018075 0.0953437
0000b0 a6 b7 5b 3d d3 32 52 be d9 b2 ee 3c 13 48 18 3c
       0.053641938 -0.205272 0.029138016 0.009294528
0000c0 24 8b 59 3d 82 04 92 bd f0 c1 fc bc a7 07 fc 3c
       0.05311121 -0.07129766 -0.030854195 0.030765368
0000d0 16 58 e6 bc ee 1f 9f be 48 2f 02 3d 24 4c 84 3c
       -0.028118175 -0.31079048 0.031783372 0.016149588
0000e0 ab 31 f4 bd 92 a8 86 3a 80 39 60 bd c4 0d d5 3c
       -0.11923536 0.0010273627 -0.054742336 0.02600754
0000f0 98 65 0c 3e 93 05 96 bd d8 f1 97 bd 2c 49 17 3d
       0.1371063 -0.07325282 -0.07419175 0.036935017
000100 15 72 2c be c7 83 55 bd 3a 1d 27 bd 49 ae 9e bb
       -0.16840394 -0.052127626 -0.040799357 -0.0048425538
000110 a5 f7 04 bd 45 0f a8 3d e7 fe eb bd 98 2c 61 bd
       -0.032462735 0.082060374 -0.11523228 -0.05497417
000120 7e 62 30 be 98 17 09 3d 7e 4a 70 3d 4a 61 6f bd
       -0.17225072 0.033469766 0.05866479 -0.05844239
000130 1f 3a 20 3e c3 20 02 bd a0 b0 ee 3b 06 74 47 bd
       0.15647171 -0.031769525 0.007284239 -0.048694633
000140 09 85 37 3e 33 2c b4 3d 82 71 1e 3e 16 e1 a9 3c
       0.17921843 0.08797493 0.15472987 0.020737212
000150 2d 8f 83 3d 08 0e 8a bd 1c 10 a0 3d 3a 94 13 be
       0.06423793 -0.067409575 0.078155726 -0.14412013
000160 91 5d f5 bd 9d 6f 79 bd 09 d0 51 be c9 df 84 be
       -0.11980737 -0.06089746 -0.20489515 -0.25951985
000170 bd b1 1a 3c ed 04 61 bd ca d3 09 be e2 8c 9b 3c
       0.00944179 -0.05493634 -0.13459697 0.018988077
000180 cd ca b7 bc f7 92 04 3e f5 4e 02 3e 56 d2 08 be
       -0.02243557 0.12946688 0.12725432 -0.13361487
000190 82 a2 47 3e 59 3a 14 bd b5 19 ff 3c ef a6 bd bd
       0.19495586 -0.036188457 0.031140188 -0.09260356
0001a0 ce b7 89 bd 6b d9 1b be 57 05 69 3d 7e 25 71 be
       -0.06724511 -0.15219657 0.056889858 -0.23549458
0001b0 35 c4 13 3d 1c 04 f9 3c b4 83 34 3c c0 fc 43 bb
       0.03607579 0.030397467 0.011017729 -0.002990529
0001c0 30 17 7d bd 43 c1 b8 3d 14 c7 e9 3d 8b 54 bc 3d
       -0.06178969 0.09021237 0.11414924 0.09195813
0001d0 b4 c8 2b bd 8f d2 7d bd 85 bb bc 3c 71 53 92 3b
       -0.041939452 -0.061968382 0.023038635 0.0044655134
0001e0 8b c2 2e 3e 9a 7f 1f be 5e cb 3a be ca 27 a0 bc
       0.170664 -0.1557602 -0.18241641 -0.019550223
0001f0 f9 d1 0f be e4 96 12 3e 2c 47 83 3d ce 90 41 bd
       -0.14044942 0.14315373 0.06410059 -0.047257237
000200 02 75 72 bd 79 96 82 bd 99 2e a7 be 71 74 9d bd
       -0.05919362 -0.06376357 -0.3265274 -0.07688225
000210 5d e0 71 3d 46 98 3b bd 99 fb 76 3d bf 88 b1 3d
       0.05905186 -0.045799516 0.060298536 0.0866866
000220 1a 31 4b 3e bc b7 00 3d ac a4 32 be 0a 17 80 3d
       0.1984295 0.031425223 -0.1744563 0.06254394
000230 4a 06 45 3d 3e 1b 3e 3e 54 b1 b6 3d fa cf 81 bd
       0.0481017 0.1856508 0.089205414 -0.063384965
000240 94 70 9d be fe 0f 1a be a5 80 38 bd b3 88 ac 3d
       -0.30749953 -0.15045163 -0.04504456 0.08424511
000250 15 c3 a8 bd 74 e2 07 be 3d b4 31 3e fc b7 81 be
       -0.08240334 -0.13269979 0.17353912 -0.2533568
000260 bf e8 79 bd cb f3 58 3d eb 33 8b 3d 0c da 67 be
       -0.06101298 0.052966874 0.06797012 -0.22641772
000270 c3 2a f4 bd d3 a5 68 be 85 46 ba bc db 31 ac bd
       -0.11922219 -0.22719507 -0.022738704 -0.08407947
000280 5f fb 32 3d 28 a2 a5 3c 5e 93 8f 3d da b3 4d bd
       0.043696757 0.020218924 0.0701053 -0.050220348
000290 03 b2 38 bc b6 ab 7e bd d0 38 05 3e ee 72 4f be
       -0.01127291 -0.062175475 0.13009953 -0.20258686
0002a0 6b ca bd bd ee 05 58 be 00 35 60 be 7a f7 af 3d
       -0.09267124 -0.21096012 -0.21895218 0.08592124
0002b0 b4 63 97 be 3e b3 5c bb fd ee 55 bd a4 db 5c be
       -0.29568255 -0.0033676173 -0.05222987 -0.21568161
0002c0 56 4a 97 3d 4e c7 db 3d d6 31 e0 3d 6e 86 3e be
       0.07387225 0.10731374 0.109470055 -0.18605968
0002d0 45 3f e2 3d 3e e9 8e 3c 30 f2 38 be 28 e7 82 ba
       0.11047224 0.017445203 -0.18061137 -0.0009987103
0002e0 34 d7 42 3e 14 86 3b bd c9 6e 18 bd 26 d7 c1 bd
       0.19027406 -0.045782164 -0.037215028 -0.094648644
0002f0 1b 8e 07 be 23 8c c3 bd 53 a4 88 3d 07 b5 1a bc
       -0.13237803 -0.09548213 0.06671967 -0.009442574
000300 95 6f 80 bd cf 49 e2 bd 52 ee b5 bc ea 2f 74 bd
       -0.062712826 -0.11049234 -0.022208367 -0.059616007
000310 33 98 93 be 42 63 4e bd 9a 2f 90 3d 5f 96 ff 3d
       -0.28827056 -0.05038763 0.07040329 0.12479853
000320 96 df 78 bd ff 71 5a bc 06 cf fb bc 45 dc 61 be
       -0.060760103 -0.013332843 -0.030738365 -0.22056682
000330 9a b4 6e 3d bc d1 40 bd 18 ca 59 3c a8 dd e2 be
       0.058277704 -0.04707502 0.013292812 -0.44309735
000340 4f 54 cf 3c da c0 c2 3d 12 85 91 bd 5a f6 9c be
       0.025308756 0.0950944 -0.07105459 -0.306567
000350 af 11 89 bd aa 8f 9f 3d ef e3 e5 3d a6 80 85 bd
       -0.06692826 0.077910736 0.112251155 -0.06518678
000360 ee 67 cc 3b 8b ec f6 3d b4 c7 aa bc 69 82 11 3c
       0.0062379753 0.12056836 -0.020847179 0.00888119
000370 18 62 30 3e f4 b7 a4 bd c0 e0 17 be 31 f9 4b bd
       0.1722492 -0.08042899 -0.14831829 -0.049798194
000380 6c a0 b4 3d 85 65 05 bd a0 a2 fe bc df db 80 3b
       0.088196605 -0.03256752 -0.031083405 0.0039324607
000390 4e cd 16 bd 3f b3 a2 3d 88 3f 97 3d 71 db 4c bd
       -0.036816888 0.07944345 0.073851645 -0.050013963
0003a0 93 a3 54 bc 65 1d 95 3d bd 1f 86 bd e5 53 a6 3d
       -0.012978452 0.07280997 -0.06549022 0.0812147
0003b0 cd 81 18 3c c0 ae da bc 96 b2 a5 bd 10 71 a3 3d
       0.009308291 -0.026694655 -0.08090703 0.07980549
0003c0 f4 e5 d6 bd 9e 15 1a 3c 23 1a 4a bd 2d 64 b6 3c
       -0.10493079 0.009404568 -0.049341332 0.022264564
0003d0 25 b0 1e be 8c 4d a5 3c 14 fa a0 3c e6 70 a5 3d
       -0.15496881 0.020178579 0.019650497 0.08078174
0003e0 3e 8d 33 3d 8b 03 46 bd d8 bd 0e 3d 4c 1a 07 3e
       0.04383587 -0.048343223 0.034849018 0.13193625
0003f0 ed 18 74 bd d4 a6 e3 bc cb ad b4 bd 26 03 5e 3d
       -0.059594084 -0.02778951 -0.08822211 0.05420222

6.bias f4 [157]
000000 62 94 b9 3e 00 eb fd bd e0 5a 05 bf 13 8f 16 3b
       0.3624602 -0.12398338 -0.5209179 0.0022973462
000010 5a f9 6b 3e 25 a8 7e be 55 6c b4 be a9 71 0d 3d
       0.23044339 -0.2486883 -0.352389 0.034532223
000020 96 4b 06 3f 91 e3 13 be 9f b8 fb bd 95 23 79 3e
       0.52459085 -0.14442278 -0.12291073 0.2432998
000030 f8 9d 4c 3b bb 65 d2 3d fd 42 2e 3e ba 94 ce bc
       0.0031222086 0.1027331 0.17017742 -0.025217403
000040 a8 07 75 bd 69 a7 93 3d fe 1b 34 3e f6 94 1e bd
       -0.059821755 0.07209665 0.17588803 -0.03871628
000050 db 99 78 be db 11 42 3c 17 eb b7 3e 15 30 aa bd
       -0.24277441 0.011845077 0.35921547 -0.08309952
000060 2e 1f 89 3e e2 d5 ce 3e 14 09 4f 3e 61 1d 98 be
       0.267816 0.40397555 0.20218307 -0.29709914
000070 81 77 92 3e 0c ec 30 be 4d a5 c5 3d 0e 49 1b 3e
       0.286068 -0.17277545 0.09650669 0.15164587
000080 21 72 09 3e 22 88 38 be bd 53 86 3e 7d fa 42 bc
       0.13422443 -0.1802068 0.26235762 -0.011900541
000090 7e f5 74 be c1 cc bd be af 67 2c 3c 5a 03 75 be
       -0.23921773 -0.37070277 0.010522767 -0.2392706
0000a0 c6 a8 70 be be 69 e4 bd 28 d4 d0 be a3 8d b9 3d
       -0.23501882 -0.11152981 -0.40786862 0.09060218
0000b0 04 73 59 3c 37 dc 2d be 9b 8c 1f be 1f c2 45 be
       0.013272051 -0.16978537 -0.1558098 -0.19312333
0000c0 ec 91 d9 be c1 83 76 3d fe 15 e6 bd e1 c2 d1 be
       -0.42494142 0.060184244 -0.112346634 -0.40968993
0000d0 59 2e 2c 3e 6a 29 25 3e fe 3e c9 bc 94 8f bb 3d
       0.16814555 0.1612908 -0.02456617 0.09158245
0000e0 4f 03 13 3d 6f 27 37 be 91 8a 87 bd f4 e9 73 3e
       0.035891827 -0.17886136 -0.06618226 0.23819715
0000f0 16 1d ca bb 95 14 b6 3d 1b c2 f7 3c 07 af b9 3d
       -0.006168018 0.088906445 0.030243924 0.09066587
000100 eb 2b 67 3e f8 f9 28 3e 62 e4 14 be 0e 9b 0c 3e
       0.22575347 0.16501606 -0.14540246 0.13731024
000110 ff 32 b5 bd d1 ec ba 3e af 5d 9b 3e 30 52 40 3e
       -0.08847617 0.36508802 0.30344912 0.18781352
000120 21 c6 88 be 6d 56 c9 be 95 ee 6c 3e 7d f4 27 3e
       -0.2671366 -0.3932375 0.23137887 0.16401859
000130 64 98 fc bd de 1c ee bc a5 d5 e6 bc 17 3b 0d 3e
       -0.12333754 -0.0290665 -0.028178046 0.13792072
000140 58 e1 84 be 04 73 ab 3e 0d cb c1 3d 8d e4 c1 bd
       -0.25953174 0.33486187 0.09462557 -0.09467421
000150 cc d0 eb bd 7b f8 5a 3e 5a 88 48 3e 87 1f e4 3d
       -0.11514434 0.2138385 0.19583264 0.11138826
000160 79 af 06 3e 66 55 1b 3e cc 09 32 3d e0 b6 39 bc
       0.13152875 0.15169296 0.043466374 -0.011335105
000170 7d 90 b8 bc c0 e8 12 be 73 9d b3 3c af 76 d7 bd
       -0.022529835 -0.143466 0.021925664 -0.10520684
000180 d6 b3 00 3d df 6b 14 bd 86 92 2d bd f7 cd 87 bd
       0.031421505 -0.036235686 -0.042376064 -0.066310816
000190 f7 9e d8 3e 2b 4c 6f 3e 6c 29 33 3e 83 b1 95 3d
       0.4230878 0.233689 0.1749627 0.07309248
0001a0 e7 8a 47 be e9 7f 85 3e c2 ca 39 bd c5 88 87 bb
       -0.19486581 0.2607415 -0.04535938 -0.0041361772
0001b0 3e 7d 60 be 5c 5a b2 bd d2 0a 7a 3d 44 1e 27 be
       -0.21922776 -0.08708641 0.061045475 -0.16320139
0001c0 db 46 9c bd 72 0c 6d be 90 0d 5b 3c b8 42 88 be
       -0.07630702 -0.23149279 0.013369933 -0.26613402
0001d0 92 c4 0d bd b2 f8 8d 3d 74 1a c7 bd 13 6d 67 3d
       -0.034611292 0.069322005 -0.097218424 0.056500506
0001e0 cb 82 13 3d 5c 5c 87 be 14 ba 3f be 9b 5c d1 3e
       0.036013406 -0.26437652 -0.18723327 0.40890965
0001f0 4b a5 80 be c2 fd 5c 3d 72 52 13 bd 48 4c c8 be
       -0.2512611 0.05395294 -0.035967298 -0.39120698
000200 01 58 3b be ac 2c 9c bd 20 83 42 be 7b e1 8a 3c
       -0.1829529 -0.07625708 -0.18995333 0.01695322
000210 9d e6 2e be 07 6e 94 3d 57 9c 36 be 81 71 ae be
       -0.1708016 0.072475486 -0.17833076 -0.34070972
000220 b5 15 b7 3d aa 1b 35 3e 59 02 95 bd 3c 26 9d be
       0.08939687 0.17686334 -0.072758384 -0.30693233
000230 76 d7 57 3e c3 30 96 be 4a 26 00 3f 15 4d 4a 3d
       0.21078286 -0.29334077 0.50058424 0.049389917
000240 65 00 31 3e 10 d8 bf 3d b1 cf 2e 3d 57 6d e9 3c
       0.17285307 0.093673825 0.04267854 0.02849452
000250 03 0d 0d 3f 58 97 2d be 64 46 54 bd fb 7b 13 3e
       0.5509798 -0.16952264 -0.051824942 0.14402764
000260 7f 64 92 be 01 4e 21 be 94 64 a6 3e 8a 4e ae be
       -0.28592297 -0.15752412 0.3249861 -0.34044296
000270 06 62 ed 3c
       0.028977405
