pav_spkid_pytorch/lp_model_hsize_175_lr000125/e15_weights.ckpt (torch_old, 491138 bytes, 8 tensors)

0.weight f4 [175, 189]
00000000: 4efa d93c 8e56 1cbf 089d 99bd 5a2c fb3e
00000010: 8cea 8bbd 90d8 643f 1204 85bf 1be6 433e
00000020: f5fd da3f 0103 3bbd 3455 dabe fbcf ffbd
00000030: 0771 1b3f 1426 29bd 6529 5e3f a820 58bf
00000040: a8f1 363e 90e2 b53f 1a89 ea3c 7d91 eebe
00000050: 14af 92bd 2b6a 133f afae f3bd 0e3e 553f
00000060: abd8 3fbf 9ee8 883e 92a3 933f db5d 623c
00000070: 6234 95be c9ad 59bc af07 1a3f 469d a43c
00000080: fe28 503f 8363 44bf b37b 163f 69f9 843f
00000090: 6dce 15bc 9123 54be cbdc 8abd ff2b 203f
000000a0: 55b3 043e 9312 3f3f 45d3 0dbf 5a29 013f
000000b0: 7e46 883f ceda f53a eaa0 4bbe f9ec 5abd
000000c0: 98b9 263f 55e7 aa3e 61e2 383f 4c0f ddbe
000000d0: f72c c73e b7be 853f 6c85 2dbd dc01 c2bd
000000e0: 3230 af3c bed2 1b3f f3ef 983e 5610 0d3f
000000f0: b836 babe 0418 7e3e 0d6b 823f 6202 393d
00000100: 64d1 1cbe dfca 54bc 1995 013f 0ad8 b43e
00000110: d1f3 e73e b2c8 adbe 7f5a 553e 6eb6 833f
00000120: 02e7 89bc 7f86 42be b5ea 42bb 3610 d13e
00000130: 252a f63e a8be f93e eb3b 8cbe c9ce a73e
00000140: adc8 913f 213c 1abd ca67 9bbc 08ff 6b3b
00000150: 5147 f43e 2504 af3e a5a5 073f 9679 c2be
00000160: d254 9a3e cff1 913f 6b52 fa3c 0edf e1bd
00000170: 5f17 8e3c 8406 033f 63e3 1c3e 9fb6 173f
00000180: 4211 a9be 48c0 bc3e ab4f 9f3f 37fe 233c
00000190: b0e7 0ebd 7ea6 a5bd bc98 023f 0dbf 5a3d
000001a0: d82d 383f 24bb ecbe dab3 093f 7789 a93f
000001b0: 3af9 2bbd 09ad 35bd e78a 85bd b6fa 033f
000001c0: 4f7b 9b3b 8920 433f 2203 b9be eae9 ee3e
000001d0: 7100 af3f 2b4c 193d 89d7 e53c 7386 ea3d
000001e0: 9a3b c73e 7090 b03d 59c2 343f 4100 9fbe
000001f0: b230 e53e 86bf ac3f 7eed 2ebd 022b a3bd
00000200: 47c9 453e da7c b03e a7d9 073e 104b 153f
00000210: eda9 afbe 54b8 043f ddd7 9d3f a072 853c
00000220: 7a41 8bbc 22b1 373e a20e 603e b1cd 603e
00000230: 0f18 c13e 1c9a c8be 6c09 eb3e 72ad 893f
00000240: 622a 9a3c c721 a0bd b06c b33e 7766 233d
00000250: 2e44 f03e 809e ef3d a023 98be e1f6 cb3e
00000260: 68ce 7d3f 82ce 46bd 3a82 32bd a74b c03e
00000270: b683 ec3d d501 0b3f 7152 e23d 002a 85be
00000280: 6f00 463e e510 7b3f 6d39 833d 5739 37be
00000290: 1ca5 e03e 0600 f9bc 7f88 363f 1602 12be
000002a0: c1a4 3bbe f406 02bd d6ee 9b3f 5d84 60bd
000002b0: 80b3 52be 7e72 143f b84b d5bd ed84 533f
000002c0: 839b 9ebe b53a b8bd 0ba0 c0be 6e59 b03f
000002d0: 564d 2e3c ba1c 8ebe eccb 2b3f d69c 2fbd
000002e0: 831e 7c3f 1529 3cbe 30ef 1ebe e066 49bf
000002f0: cac3 f63f 4a20 a33c 0d7a e2bc 3465 993c
00000300: 4bfb 82bd 055b 84bd f796 183d 671e 6fbc
00000310: b9b6 ccbc 5a61 3c3d 8b98 e4bd 7bb0 643d
00000320: 64ab 913d 6371 8f3c 0a8f 96bb 293d c63d
00000330: bcf8 263d d086 d73d adab 6dbd 9dcb d8bc
00000340: 140a 743d a289 35bd f9fd aa3d 54a1 daba
00000350: ad9f ea3d 3407 8a3c 5d59 9b3d 9d0c 103d
00000360: 9f29 4bbd 34dd 8a3d cf22 d73b 9042 cd3c
00000370: d919 b33c de75 fe3d c495 003d d1bb 9a3d
00000380: 5e0e 593d 89d7 193d 7cde 78bc bde6 d13d
00000390: 0fb5 adbd bee5 b63d bece 4d3d 3614 813c
000003a0: 143a 5c3d 228c 44bd bc79 5dbd 016f 80bc
000003b0: 6cf2 85bc 0573 0bbd b6d4 6fba 8b97 84bd
000003c0: b475 5c3d 64b2 b03b 7eda 13bd 3685 85bd
000003d0: aef2 7bbc c86f 803d cef6 d2bc b0f5 71bd
000003e0: c1ed ec3c cc7d 323d 1c24 c13c 8c59 95bd
000003f0: 69b0 78bd 84c4 9c3c 99e4 b23c 4ff8 a4bd
0.026608612 -0.6106957 -0.075006545 0.49057275 -0.06831846 0.8939295 -1.0391867 0.19130747
1.7108752 -0.04565716 -0.4264313 -0.12490841 0.6071934 -0.04129608 0.86781913 -0.8442483
0.17865622 1.4209766 0.028629828 -0.46595374 -0.071623 0.57583874 -0.118985526 0.8329781
-0.74939984 0.26739973 1.1534293 0.013816322 -0.29141527 -0.0132860625 0.60167974 0.020094525
0.8131255 -0.7671434 0.587825 1.0388614 -0.009143454 -0.20716693 -0.06780394 0.6256713
0.12959035 0.74637717 -0.55400497 0.5045372 1.0646513 0.0018757225 -0.19885603 -0.05344865
0.65126944 0.33379617 0.72220427 -0.43175733 0.38901493 1.0448827 -0.04236357 -0.09473011
0.021385286 0.6086844 0.29870567 0.5510305 -0.36369872 0.24813849 1.0188919 0.045168288
-0.15314251 -0.012987821 0.5061813 0.35321075 0.45303205 -0.3394218 0.20835303 1.0290048
-0.016833786 -0.18996619 -0.0029741947 0.4083268 0.4807903 0.48778272 -0.27389464 0.32774952
1.1389366 -0.037655 -0.018970389 0.0036010165 0.4771066 0.3418285 0.5298713 -0.37983388
0.30142838 1.1401919 0.030556878 -0.110288724 0.017345129 0.5118182 0.15321116 0.5926303
-0.3302098 0.3686545 1.2446188 0.01000934 -0.034888923 -0.080883965 0.51014304 0.053404856
0.7194495 -0.46236527 0.53790057 1.3245076 -0.041985728 -0.044354472 -0.06520634 0.5155443
0.004744924 0.7622152 -0.36135203 0.46662837 1.367201 0.037426155 0.028056877 0.114514254
0.3891266 0.08621299 0.7060905 -0.3105488 0.44763714 1.3495948 -0.04270696 -0.079671875
0.19315062 0.34470254 0.13266622 0.5831766 -0.3430933 0.5184376 1.2331501 0.016290009
-0.016998995 0.17938665 0.21880582 0.21953465 0.37713668 -0.39180076 0.45905626 1.0756056
0.018819038 -0.078189425 0.3504386 0.03989264 0.46927017 0.11700153 -0.2971468 0.3983679
0.99143076 -0.048536785 -0.043581225 0.37557718 0.11548559 0.5429967 0.11050881 -0.26008606
0.19336103 0.98072654 0.064074375 -0.17892967 0.43875968 -0.030395519 0.71302027 -0.14258608
-0.18324567 -0.031744912 1.2182262 -0.05481373 -0.20576286 0.579872 -0.10414833 0.82624704
-0.3097802 -0.089955725 -0.37622103 1.3777292 0.0106385555 -0.27756292 0.67108035 -0.04287418
0.9848406 -0.18375047 -0.1552093 -0.786726 1.92785 0.019912858 -0.027646089 0.018725015
-0.063955866 -0.06462673 0.037253346 -0.014594651 -0.024989473 0.04599128 -0.11161908 0.055832367
0.07112768 0.017510122 -0.0045946883 0.09679634 0.040764555 0.1052376 -0.05802505 -0.026464278
0.059579924 -0.04432071 0.08349223 -0.001668016 0.11456237 0.016849138 0.07585404 0.03516828
-0.04960024 0.067804724 0.006565429 0.025056154 0.021862911 0.12424825 0.031392828 0.075553544
0.052992217 0.037559066 -0.015189763 0.10249088 -0.084818 0.089305386 0.050245993 0.015756708
0.053766325 -0.047985204 -0.054071173 -0.01567793 -0.016350947 -0.034045238 -0.0009148823 -0.06474217
0.053823188 0.0053923596 -0.036097042 -0.065195486 -0.015377684 0.062713206 -0.025752451 -0.059072196
0.028921964 0.043577 0.023576789 -0.0729247 -0.060715113 0.019136675 0.02183752 -0.080551736

0.bias f4 [175]
00000000: c463 103f 81da b33d 5c5d f7be fc77 213f
00000010: 8219 c83d b8a3 20bf 63a7 99bb 971a 563f
00000020: 17c9 37be 7816 ad3f b61c 3b3e 1ddf 4abe
00000030: 25e3 5bbf 577c 9d3f c941 173c a322 aebe
00000040: 8b73 6cbf acff eabe b92c 0940 0804 adbf
00000050: 298d 24bf d6aa b13d 3cbd ac3e fad3 60bf
00000060: f4ab 01bf a03c bfbd 486c 3640 a8a3 79be
00000070: 892d bdba 3969 b9bd 24f0 90be 3fa4 37be
00000080: 08f1 313e 9186 e4bd ddb3 033f 288e b0bf
00000090: 5671 4e3f f0d5 6c3e 496d 363e 688c 583e
000000a0: 4e82 a43f 2dec 92be 2e92 7f3e d84c e83f
000000b0: 2aab 81bf a352 513f 91a4 1c3f acae 323e
000000c0: 9941 f03f 25b8 3b3e 6248 643f a10b c23d
000000d0: e34d 6dbf 0f20 c73e 4637 413e 8ca9 2040
000000e0: faf6 153c f59e c8be e88d e33d f5bc 2d3e
000000f0: d642 dd3c 02ff 853d daa9 673f 508c 6bbf
00000100: 452c 1f3f 2a85 073e c70b 00be ab68 08c0
00000110: 1fba 463e 5139 823e 7ebe 7c3d aae6 0b3f
00000120: 8867 53bd 66d7 933a 5c57 babe e2e7 9bbe
00000130: 633b 14bf 08da ba3e 72c3 423f 92dc 98be
00000140: e528 febd 0852 813d e095 3f3f 1ebc 3abe
00000150: 2728 1f40 d9c7 c6bd dc59 52be fb4e 173d
00000160: ea41 b4bd 4820 afbe eb01 333f 3acc 1740
00000170: 621b 81bd 32e6 253f 8a9a 1e3f 4b9f 1c3f
00000180: bce6 b83e 0bd6 763c dc48 933e 181a 4fbf
00000190: c703 103f 95dd 423f 4a51 2f3e 25a6 b13d
000001a0: c276 a73c bdf5 1f3e 5a1a 21bd 2e62 8fbe
000001b0: 851d 8d3f 559a 5fbc ba2d 9b3c 0c6d 89bd
000001c0: 400a 23bf f291 403e dc34 fe3f deaf 753f
000001d0: 2dac 80be bd59 0d3b 9425 74bf 5b45 773e
000001e0: 7f4c 78be 9faa 5f3f eeb8 4f3e 7c8e 0b3f
000001f0: 8923 9c3d e20e 943e 47a6 8fbc 7452 a4bd
00000200: fde6 893e 05b1 1bbe 9e33 033e 01d3 1340
00000210: 86e0 80be df76 a0bd 2ecd 6cbb bcc8 673f
00000220: c3f9 153f a8c1 ac3d 7fab edbe bdbd a73f
00000230: 2e9a 85bf a757 8e3f d99d 543f d3b7 523f
00000240: 2fdb 123d 843d 46bf 9076 2540 461c 5f3f
00000250: 8bf5 9abd 8b3a 093e 8c2c a63f 32f8 ee3c
00000260: f9c0 2240 ae89 0c3f 4d43 d4bc b788 1a40
00000270: a537 193f 39ca 713f f541 b6bd 24e9 3a3e
00000280: 413e 343e bdeb 19bf d6e6 c8bd 2dbd 0f3e
00000290: 0ab1 0ebe 9d51 e8bd efc4 dc3c e231 d33d
000002a0: 7442 4f40 5821 20bf d2ac a33e fad2 1fbf
000002b0: 192e 353e 9fe3 da3f a1de 84bf
0.5640223 0.08781911 -0.48313415 0.63073707 0.0977049 -0.62749815 -0.0046891435 0.8363432
-0.17947803 1.3522482 0.18272671 -0.19811673 -0.8589347 1.230357 0.009231993 -0.340108
-0.92363805 -0.45898187 2.1433547 -1.3516855 -0.64277893 0.086751625 0.33738124 -0.8782345
-0.50653005 -0.09337735 2.850359 -0.24378836 -0.0014433126 -0.09053273 -0.28308213 -0.17933749
0.17377102 -0.11158479 0.51446325 -1.3793383 0.80641687 0.23128486 0.17815126 0.2114731
1.2852266 -0.28695813 0.24958107 1.8148451 -1.013036 0.8176672 0.6118861 0.17449445
1.8770019 0.18331964 0.8917295 0.09474874 -0.9269697 0.38891646 0.18868741 2.5103483
0.009153122 -0.39183775 0.11111051 0.16966613 0.027009409 0.065427795 0.9049355 -0.92010975
0.62176925 0.13234392 -0.12504493 -2.1313884 0.19406937 0.25434354 0.061705105 0.5464884
-0.051612407 0.0011279404 -0.36394775 -0.3045035 -0.57903117 0.3649447 0.76079476 -0.29855782
-0.12410144 0.06314474 0.74838066 -0.18235824 2.4868257 -0.09706087 -0.20542091 0.036940556
-0.088016346 -0.34204316 0.699248 2.37184 -0.06304051 0.64804375 0.6195456 0.6118056
0.36113536 0.01506568 0.28766525 -0.8089919 0.56255764 0.7611936 0.17120853 0.08674268
0.02044237 0.15621085 -0.03933177 -0.28004593 1.1024634 -0.0136476355 0.018942703 -0.06710252
-0.63687515 0.18805674 1.9859881 0.9597148 -0.2513136 0.002156838 -0.9536984 0.24147551
-0.24247931 0.8736972 0.20285389 0.5451429 0.07623965 0.28917605 -0.017535342 -0.08023539
0.26934043 -0.15204246 0.12812659 2.3097537 -0.25171298 -0.07835173 -0.0036133039 0.9054067
0.5858423 0.084353745 -0.46419904 1.3104779 -1.0437677 1.1120499 0.83053356 0.82311743
0.03585356 -0.77437615 2.5853615 0.87152517 -0.07566365 0.13401239 1.2982345 0.029171083
2.543028 0.5489758 -0.025910998 2.4145944 0.5985053 0.9444919 -0.08899299 0.18252999
0.17601873 -0.60125333 -0.098096535 0.14037009 -0.13934723 -0.113436915 0.026949374 0.10312249
3.238431 -0.6255088 0.3196779 -0.624313 0.17693366 1.7100714 -1.0380441

2.weight f4 [175, 175]
00000000: d062 ed3c 6939 713d a542 3bbd 4833 f4bc
00000010: fbb5 c5bc 0dc5 c23c b469 c2bc b599 1c3e
00000020: 6e15 90bc 6b41 053b 7483 cfbd c4ff c23c
00000030: cbfb 0abe 7d78 6d3d b9f6 b7bc 986e 40bc
00000040: fac4 f8bc d714 6dbd 212b 5c3e b37a 94bc
00000050: be6f 60bd 746a 633d 9ba9 a6bb f117 bdbe
00000060: 7d75 2bbd fdae c8bc 165c 8f3e 9b61 f03c
00000070: dd4a ae3c 1a93 48bd 6715 f1bc 6cb7 6c3d
00000080: 6b17 263d f1d9 603d 2f53 05be 76db e7bd
00000090: 6e8e 483d 02ab 6ebd 5301 023d b306 5d3c
000000a0: 188f 1fbc 9e6b ba3c 92b6 87bd 689f 5b3d
000000b0: f065 d93c d09e 97bd 8160 cabd 0719 ab3c
000000c0: 12e9 5e3c aced fdbd 4860 e23c d768 eebc
000000d0: e4c0 693c fd12 b43d 7a02 80bc 10cc 463e
000000e0: 929f 91bc b12d 393e cec0 2abd ee50 9b3c
000000f0: a424 1e3c 000d cbbc 1a1a d2bc 5d00 6c3d
00000100: 07df d93d 074f 0abd f9b0 bebd a941 c73d
00000110: 8c0a 35bd 624a abbb b1b1 fcbd 80aa 82bd
00000120: c280 83ba d072 203d 4577 89bd 0e05 2c3c
00000130: ca05 76bc bd5a 1c3e 3b28 cb3c c198 eebc
00000140: 57ca 373d cc7f 13bd bf21 4bbb 8e68 8c3d
00000150: 306c 063e 5015 aabc 52a3 ff3c a66f c03d
00000160: fcf1 4c3b 346a a5bc 8b55 073d 18f0 6f3d
00000170: 730b fd3c e4c6 d8bc 74c3 c23c 1448 563b
00000180: 5539 f7bb ddbd 41bd 3dca 54be d25d bd3c
00000190: 2637 1ebd 0619 9fbe 8009 65ba 1306 04bd
000001a0: ddf1 903c 2b3a 5f3c 5c22 853d 0860 cabb
000001b0: f4bb 5ebd dc72 ba3d 7843 883d c2fe 923c
000001c0: 40db 093d 5b0e 3d3b 4ea3 203c e0e3 94bd
000001d0: fae4 b0bd f355 36bd 931b c4bc 8dd0 1ebc
000001e0: 949d cb3b 201f 043d 09c7 12be bae6 933c
000001f0: 885d e8bd 3070 5b3d 90d9 fdba 7592 dabd
00000200: 3800 b7bd e6ef 943c f693 8fbd 3ebf 59be
00000210: 9230 4a3d d39a 573d 71ad f4bb e71f cf3c
00000220: 5005 9e3d d08c 3abd c679 e8bc 7bae 1bbe
00000230: 9fcd e83c ee33 92bd 13ce d83c b0c8 9cbd
00000240: 9a22 f5bc e84d b0bc d4ee 903e 5bcb 2bbc
00000250: 8b3b 43bd 75a6 3bbe c164 ba3d 3a13 5bbd
00000260: 093c a53e fe23 55bd f757 833c 91b8 40bd
00000270: 1f96 1cbd 3f73 bb3d 90ab 23bd b922 833c
00000280: 387a 66bd e622 09bd d3f2 c33d 7398 a63d
00000290: d633 aebb fe1d 0a3d c8b0 10be 63bf c73d
000002a0: f078 c43e ef67 d23c 15b0 7e3a 5c2d 533d
000002b0: 8c3e 6bbd e879 b83d f237 1abd 0872 1fbd
000002c0: 0028 833d 8dd7 6cbd f2d6 bc3b e797 5abd
000002d0: 8719 9cbb f9f6 9f3d c256 c73e fc33 38bd
000002e0: 4b91 7abd 57b7 dfbc 0db1 88bd d134 83bc
000002f0: 333d a63c 8120 e4bb 4a6a acbd 409d 83bc
00000300: cf0a c33b ee9e eebe 43f6 a73d 4a66 85bd
00000310: eb20 31bd 25d5 a1bd ba6e b33e 7c40 18bd
00000320: f343 6ebd 4225 c8be 120a cabc 1de5 f13c
00000330: 1a16 313c 3085 19bd bbd2 993c 1774 403d
00000340: 3fd9 1bbc 2d13 0b3c 3957 91bc cee5 6cbd
00000350: 139d 26be f0e3 68b9 ca60 04bc c20e 81bd
00000360: ee80 5f3b d710 b9bd 54f5 453d 4e54 c03b
00000370: ab99 d1bb a880 8ebd 4204 d4bd fed1 98be
00000380: 1d74 c8bd 8efe 1ebd 6286 69bd cd3b 57bd
00000390: 7ff1 a23c 8b93 51be 6d0f aabe 6a49 193d
000003a0: 7273 583e 536c 91bd 2f65 dfbc 2a8b 05bd
000003b0: c7f4 8b3d fa7b d9bc 8fbe d4bb 0c98 c23d
000003c0: 4a23 d2bd 24ad c4bc dbf2 90bc 70fc c8bd
000003d0: 5e4e 60bd b7af adbc 1e3b 94bd cb0c 453c
000003e0: dbd8 193d b5e6 8dbd 42b4 223c cb99 433d
000003f0: 5624 dc3d fc3f a0bd 3478 bdbd 0315 84bd
0.028977782 0.05889264 -0.045717854 -0.029809609 -0.024134627 0.023775602 -0.023732044 0.1529301
-0.017588343 0.0020333182 -0.101324946 0.0238036 -0.13572614 0.057976235 -0.022456514 -0.011745118
-0.030367363 -0.057881203 0.21500827 -0.018124914 -0.054794066 0.055521443 -0.0050861365 -0.36932328
-0.041860092 -0.024497503 0.27999943 0.029343417 0.021275932 -0.048968412 -0.02942915 0.057792112
0.040549677 0.054895345 -0.13020013 -0.11321156 0.048963957 -0.058268555 0.031739544 0.013490367
-0.009738706 0.022756394 -0.066266194 0.05361882 0.026537865 -0.07403338 -0.09881688 0.020885957
0.013605373 -0.12398848 0.027633801 -0.029102726 0.01426718 0.08792684 -0.01562618 0.19413781
-0.017776284 0.18083836 -0.04168778 0.018959489 0.0096522905 -0.024786472 -0.025647212 0.057617534
0.10638242 -0.033766773 -0.093110986 0.097293206 -0.04419951 -0.005227373 -0.123385794 -0.063801765
-0.001003288 0.039171994 -0.06712202 0.010499252 -0.015016029 0.15268989 0.024799457 -0.029125573
0.0448707 -0.03601055 -0.0030995456 0.0685588 0.13127208 -0.020762116 0.031205807 0.09396295
0.0031272164 -0.020192243 0.033040565 0.05857858 0.030889248 -0.026462026 0.02377484 0.003269677
-0.0075446763 -0.04730021 -0.20780273 0.023116026 -0.038626812 -0.3107378 -0.00087370723 -0.032232355
0.017693454 0.013624708 0.06500694 -0.0061759986 -0.054378465 0.09103939 0.06653494 0.017943744
0.03365636 0.0028847668 0.00980456 -0.07270026 -0.08637424 -0.04451556 -0.02393893 -0.009693277
0.006213853 0.032256246 -0.14333738 0.018054355 -0.11345965 0.053573787 -0.0019367207 -0.10672466
-0.089355886 0.018180799 -0.07010643 -0.2126436 0.049362727 0.052637886 -0.007466965 0.025283767
0.07715857 -0.045544446 -0.028378379 -0.15203278 0.02841836 -0.07138811 0.026465451 -0.076554656
-0.029923726 -0.021521524 0.2830721 -0.010485495 -0.047664206 -0.18325217 0.091012485 -0.053485133
0.32272366 -0.052036278 0.016033156 -0.047051016 -0.038229104 0.09152841 -0.039958537 0.016007768
-0.0562689 -0.033480547 0.095677994 0.08134546 -0.005316238 0.03372001 -0.14129937 0.09753301
0.38373518 0.025684325 0.00097155693 0.05155693 -0.057432696 0.09007627 -0.03765101 -0.038927108
0.06404114 -0.057822753 0.005762928 -0.05336752 -0.0047637853 0.07810778 0.38933378 -0.04497145
-0.06117372 -0.027309103 -0.06674395 -0.016016396 0.020292854 -0.0069618826 -0.084187105 -0.016066194
0.005952216 -0.4660563 0.082012676 -0.06513651 -0.043244284 -0.07901982 0.35045415 -0.037170872
-0.05817027 -0.39090925 -0.024663005 0.029528195 0.010808492 -0.037480533 0.018777242 0.046985712
-0.009512245 0.008488459 -0.017741786 -0.057836346 -0.16270857 -0.00022210157 -0.008079717 -0.06301643
0.0034103948 -0.09036415 0.048329666 0.005869425 -0.0063964925 -0.06958133 -0.103523746 -0.2984771
-0.09787772 -0.03881698 -0.057012923 -0.052547265 0.019890545 -0.2046644 -0.33214894 0.03742353
0.21137789 -0.07100739 -0.027269928 -0.03260342 0.06833797 -0.026548374 -0.006492443 0.09501657
-0.10260637 -0.024008341 -0.017693928 -0.09813774 -0.054762237 -0.021201951 -0.07237838 0.012026976
0.037560325 -0.069287695 0.009930672 0.04775409 0.10749118 -0.07824704 -0.092514426 -0.0644932

2.bias f4 [175]
00000000: e7fb b33e ce92 d53d 939e 80bd 6e68 57bf
00000010: e33c 833e 0b67 e13f 1996 3b3e 8efb 18be
00000020: 870f b93f ee7e 5b3d 4306 6d3e 4d83 2c3d
00000030: 06f8 61bd 518c 9e3d dfbf 0dbb 2068 9b3b
00000040: 4ebf b6bd 00ef 45bd eff2 56bd c0b0 debc
00000050: fe0d ff3f 2a43 e93d 66eb f73d a87e 86bd
00000060: 309c 023d 3c9c 6fbd 973e bc3f 0c22 e53e
00000070: f2a8 01be e77c a33e afcd 8b3e aea3 e8bc
00000080: 1bf2 87bd a244 6b3d dfc3 2bbf 6478 9f3e
00000090: 0182 373f 9e0f 0d3e f4ec c1bd 9bb9 7fbf
000000a0: da83 c53e 34ce ac3e bbac d83f 07a0 683f
000000b0: 833d c4bf a9a3 59bd 346c 1f3d 03c7 4b3f
000000c0: bcf3 c7bd 6e1b 9ebd b06c 95bd ee17 14bd
000000d0: bb6b 8cbf 72a5 3c3f dec8 1a3e 7a7f 233d
000000e0: 754d 94bd e858 483e d987 90bd 427c 6bbd
000000f0: ed12 93bc 77d5 d03d d84f a73e 366d 98bd
00000100: 0328 cc3f e3f4 6c3f 06df 733c 10ce abbd
00000110: a5d5 6abf 6809 60bf ea3e 0d40 a9ca 8ebd
00000120: 7b99 813f e8f4 a23f d445 013d e8fb 51bf
00000130: 1ccb d03e 5c07 f13f 2879 b63e 3be4 d03c
00000140: a1d5 ccbd a90c 0540 0f3c 1f3d f113 093e
00000150: 3025 c63e 0631 9fbd ac9b babc f76e 2f3d
00000160: be0f a03f d323 18bd bdc0 023e 180d 44bc
00000170: dff2 8c3f 1afd 3a3b a07e 0fbf df1e 34bf
00000180: 6e5b b6bd e709 ad3f 40e8 b93f 78c7 1cbe
00000190: d559 a7ba 43e1 5bbf 703d 0ac0 17c6 263b
000001a0: 8c34 11bd b907 8cbb 8dd4 ac3f b1e8 743c
000001b0: a89c 04bd f5a8 2a3d 7346 2c3c c9d0 b43c
000001c0: 865b b93d 40f0 53bf 140f 803e 152b 7e3d
000001d0: 8128 44bd 95b6 fc3f 5106 043c 49aa 97bf
000001e0: 7f73 7840 054d b5bc 018b 113d cc37 09be
000001f0: 2b6d bc3f 89a0 f4bc 40bc 1f3f 7320 443f
00000200: 454b 63bc 8161 ea3e 1f5b 28bf cf11 a83c
00000210: 910b b53f c245 7b3c 73fe febd 2aee 2ec0
00000220: 2990 403d 4329 a33f 993e e0bf 193d 07bd
00000230: 2d3a b03f 70d8 4c3d 434c 17bc 6578 a1be
00000240: e009 24bf 5d21 5cbe c64b 77bd 804f 9ebc
00000250: c1d6 da3f 22f7 4c3e 71b2 63bd 846f d4bd
00000260: e67b 6abe 036f 8a3f 9502 4b3e 5c63 58bc
00000270: e2db f1be 6398 373b dbc0 f1bc 737b 36bf
00000280: 1796 25bd c7d5 d93f b9c8 8b3f 6770 a9be
00000290: a595 403f 4acd 533e c528 1bbd 5a8e 363d
000002a0: 6b09 62bf fbcf 5fbd 2601 9f3e 1582 483d
000002b0: a322 b5bf 81a9 69bd 8e38 20bd
0.35153124 0.104283914 -0.06280246 -0.8414372 0.2563239 1.7609571 0.18318976 -0.1493971
1.4457864 0.053587846 0.2314692 0.042117406 -0.055168174 0.07741607 -0.0021629257 0.0047426373
-0.08923207 -0.04832363 -0.052477773 -0.02718389 1.9926145 0.11389764 0.121054456 -0.065671265
0.031887233 -0.058498606 1.4706601 0.44752538 -0.12662104 0.3193123 0.27305362 -0.028398361
-0.06637975 0.0574385 -0.6709575 0.31146538 0.71682745 0.13775489 -0.09469023 -0.99892586
0.38577157 0.3375107 1.6927713 0.9086918 -1.5331272 -0.053134594 0.03892155 0.7960054
-0.097632855 -0.077200755 -0.07296121 -0.036155634 -1.0970377 0.7368995 0.15115687 0.039916493
-0.07241336 0.19565165 -0.07057161 -0.05749155 -0.01795336 0.10196965 0.32678103 -0.07442705
1.5949711 0.9256117 0.014884716 -0.08388913 -0.91732246 -0.8751435 2.206965 -0.06972248
1.0124964 1.273099 0.031560734 -0.82025003 0.4077996 1.8830371 0.3563931 0.025499454
-0.10001684 2.0788977 0.038875636 0.13386513 0.38700247 -0.07773022 -0.022779308 0.042830434
1.2504804 -0.03714354 0.12768836 -0.011966012 1.1011618 0.0028532208 -0.5605259 -0.70359606
-0.089041576 1.3518647 1.4524002 -0.15310466 -0.0012767861 -0.858906 -2.1599998 0.002544766
-0.035450503 -0.0042733815 1.3502365 0.014948056 -0.03237596 0.041665036 0.010514843 0.022072213
0.0905066 -0.8278847 0.25011504 0.062052805 -0.04789019 1.974322 0.008058147 -1.1848842
3.8820493 -0.022131452 0.035532955 -0.13400191 1.4720815 -0.029861705 0.6239662 0.76612014
-0.013872926 0.45777515 -0.6576404 0.020516304 1.4144155 0.015336456 -0.12450876 -2.7332864
0.04701248 1.2746967 -1.7519103 -0.03301725 1.3767754 0.0500111 -0.009234491 -0.31537166
-0.6407757 -0.21497102 -0.060374998 -0.019325018 1.7096788 0.20016149 -0.055590097 -0.103728324
-0.22898826 1.0815128 0.19825204 -0.013207283 -0.4723807 0.0028014414 -0.029510906 -0.7128212
-0.04042634 1.7018365 1.0920631 -0.3309357 0.7522834 0.2068378 -0.037880678 0.04456935
-0.8829562 -0.054641705 0.31055564 0.04895218 -1.4151195 -0.057046417 -0.039116435

4.weight f4 [175, 175]
00000000: d1a0 aabb 7b10 0bbc 2d07 843d aad6 a73c
00000010: 9b19 86bd 65b8 cebc eb5b 22bd 4de7 a1bc
00000020: f9cf 84bd 70cb f13d ee53 e1bc 153d e4bc
00000030: a0ae 69bd bc47 99bd e4bb 853c b087 d23c
00000040: fce7 4bbd 90ab f33b 075c 72bd 50b3 353d
00000050: 101a 503d d44c 80bc 95e3 233d f691 f33c
00000060: a04a 3e3d 6030 95bd 779e 21bc fc73 9f3c
00000070: 6f4a aabc 05d8 18bd 6f5c febb 65b5 0bbd
00000080: b078 b53c b01b 90bc 34df 953b 3813 ee3c
00000090: 71a2 a4bd ef75 61bd 2c41 333d cf98 b8bd
000000a0: 7750 31bd ba59 dfbd 2ce0 06bc 7b92 18bc
000000b0: 5854 fc3c 2923 a33b 15f1 cebd 170a 313c
000000c0: 2359 6e3d 7b0e abbd f641 98ba f500 53bd
000000d0: 6328 0bbd 62df 8abc 5b8e b5bd c45e d93c
000000e0: 6872 423d 1b9a f43c d1b7 6ebd 06fd 843c
000000f0: eb5a 02bd e900 ebbd c355 1ebd 1e42 373d
00000100: 6e82 1a3d b188 10ba db6b 81bd 8b01 273d
00000110: 8a39 c3bc 2449 34bc a37a 12bd d4a8 99bd
00000120: ef35 64bd 8d93 80bd d13c 5b3d 831b 5bbd
00000130: 0b51 8fbc 57e2 85bd 3512 32bd 580b a0bd
00000140: 03a8 70bd 1f99 913c dabf 1b3d 4b52 33bc
00000150: 403a 063c 78d5 9c3c 9aaf cabd bd74 b63b
00000160: 6d60 2fbd 82f8 1b3c 6e7d 533d fcf7 78bd
00000170: 9a03 ae3a dc5c 95bc 39e1 863b f008 16bd
00000180: 4413 213c b399 863c 2eb7 bcbd e9a1 3bbd
00000190: 9e30 86bc 3f39 c13c ed90 fdbd 7fa0 80bc
000001a0: faf0 0a3d 07dc 52bd 096d 1cbd d224 86bd
000001b0: 221e 5e3d e94a 80bd daab 523d f831 f0bc
000001c0: 9e50 5c3c 94f4 a3bd 5250 cfbd 8e57 86bc
000001d0: 10b5 633c aed5 d03d 9827 293d 30a4 e6bc
000001e0: b298 22bd 4059 813b 3c6d b4bd 8e9d 49bc
000001f0: 15b0 16bd 68a1 58b9 1a2e 44bd a93c 6bbc
00000200: c3f3 d6bb 63cb 8f3d 9714 87bc 9381 40bd
00000210: 41fd c8bb 5572 833d e6d9 6bbd b28e 73bb
00000220: 5b49 e9bc b65b cabb 4ecd a2bd 6074 23bd
00000230: 8d4e a4bd 2823 56bd de9b 4d3d d1f3 65bc
00000240: 8203 e1bd ddbe 6fbb 634d 65bd 94b2 8ebd
00000250: 1034 773c d84d 9e3d 743c 80bd fa5a e0bc
00000260: 7da1 fcbd 9d05 8ebd d37a 8fbd 33a8 50bb
00000270: dbd4 b0bd 5a30 c9bd 0468 a43c 7308 c43c
00000280: 3103 f5bd 7f29 e6bc b3b4 433c 97b4 023d
00000290: 0e8a 9ebd a854 17bd 726a 10bd 3412 6d3c
000002a0: cc7e a7bd f063 6dbd 6a6c 0f3d 74fa 193d
000002b0: ec89 47bd c48c 7fbd d3bd a03c 38ae 8f3c
000002c0: a557 223e a28c 6e3b 402f 51bd 814d d8bc
000002d0: 41d5 9dbd 5951 283b d515 673d cf09 85bd
000002e0: 22ae 9f3d a5bc 9cbc c7c2 64bd 11d3 61bd
000002f0: 49e0 ddbd b1c8 32bd dbe4 ae3d 9b6e 323c
00000300: d04f a53c 62ba 3b3d 33f6 773d 0f2a 0abe
00000310: 3df1 86bc b3f8 bf3c 81f5 0abe b9c0 5cbd
00000320: a2f4 2abd 43d0 2ebd 3126 823d b33e 143c
00000330: d6bf e73c 8689 adbd cabd 52bc 93e2 443d
00000340: 7ad6 4abd e5a7 c7bc 1829 56bd 2359 f73b
00000350: e9de 5cbd 7d79 383d 11ce 24bd da06 3b3e
00000360: 505c f4bc ee48 8c3e b66b 563d dcf2 5f3c
00000370: c98d a4bd 3575 f1bd 82d6 e6bd 8b8c fc3c
00000380: a241 2a3e 79d0 b53d a479 8d3d 3f36 c8bd
00000390: 66dd 01be 2cc6 4abd 3885 98bd 0089 843b
000003a0: 4878 593d f227 23bd c4a9 20bd 181a 65bd
000003b0: 9aba 1b3d a92d 093e bd96 cb3c 943a f53d
000003c0: 90ae a4bc 930c d7bc bd68 443c b836 73bd
000003d0: 16e8 26bd bac3 973d 8bf3 8e3d 2e6e 1b3d
000003e0: 9c9c 25bd c66e 3b3d db6a 30be f9a2 f63b
000003f0: 21a5 6dbe 18f3 453e ca92 163d c3c7 24bd
-0.005207159 -0.008487816 0.06446681 0.020488102 -0.065478526 -0.02523441 -0.03963844 -0.019763613
-0.0648498 0.11806381 -0.027505841 -0.027861157 -0.0570513 -0.07484385 0.016324945 0.025699466
-0.049781784 0.0074362233 -0.059169795 0.04436046 0.050806105 -0.015661635 0.04001196 0.029732686
0.046457887 -0.072846174 -0.009864441 0.019464485 -0.020787446 -0.037315387 -0.007762484 -0.03410854
0.022152275 -0.017591327 0.004573727 0.029061899 -0.08038796 -0.05504411 0.043763325 -0.09013521
-0.043289628 -0.10905786 -0.008232158 -0.009312267 0.030801937 0.0049785567 -0.101045765 0.010805628
0.058190476 -0.08352371 -0.0011616338 -0.051514585 -0.033974063 -0.01695222 -0.08865043 0.026534446
0.047472388 0.02985864 -0.05828077 0.016233932 -0.031824987 -0.11474783 -0.038656007 0.04474079
0.037722044 -0.00055135327 -0.063194 0.040772956 -0.023831148 -0.011003766 -0.035761487 -0.075029045
-0.055715498 -0.06278143 0.053524796 -0.053493034 -0.017494699 -0.065373115 -0.043474395 -0.07814664
-0.05875398 0.01777321 0.03802476 -0.010944913 0.008192599 0.019144759 -0.098967746 0.0055681155
-0.04281657 0.009519698 0.05163329 -0.06078337 0.001327622 -0.018232755 0.004116204 -0.036629617
0.009831253 0.016430711 -0.09214626 -0.045808706 -0.016380604 0.023586867 -0.12381158 -0.01570153
0.03392122 -0.051479366 -0.03818992 -0.06549992 0.054227956 -0.06264288 0.05143342 -0.029320702
0.013446955 -0.08005634 -0.10122742 -0.016399171 0.013898149 0.10197006 0.041297525 -0.028154463
-0.039696403 0.003947407 -0.08809897 -0.01230563 -0.03678902 -0.00020659494 -0.04789553 -0.014357724
-0.0065598204 0.07021215 -0.01648931 -0.04699857 -0.006133706 0.064182915 -0.05758085 -0.003716391
-0.028477361 -0.0061754836 -0.07949315 -0.039905906 -0.08022795 -0.05227962 0.050197475 -0.014035181
-0.10986997 -0.003658227 -0.055982005 -0.06967655 0.015088096 0.07729691 -0.062615305 -0.027387131
-0.12335489 -0.069346644 -0.07005849 -0.0031838536 -0.08634349 -0.098236755 0.02006913 0.02392981
-0.11963499 -0.028095959 0.0119449375 0.031910505 -0.077411756 -0.03694597 -0.035257764 0.014469672
-0.081784815 -0.057956636 0.0350155 0.037592366 -0.048715517 -0.062390104 0.019621765 0.017539129
0.15853746 0.0036399742 -0.05107045 -0.026404144 -0.077066906 0.0025683253 0.056417305 -0.064960115
0.07796885 -0.019132921 -0.055849817 -0.05513293 -0.108337946 -0.043648425 0.085397445 0.010890628
0.02017966 0.045832045 0.06053753 -0.13492607 -0.016472453 0.023434019 -0.13570215 -0.053894732
-0.041737206 -0.042679083 0.06354941 0.009048152 0.028289717 -0.08473496 -0.012862632 0.04806764
-0.049520947 -0.02437205 -0.052285284 0.0075484677 -0.05392352 0.045037735 -0.040235583 0.18264332
-0.029829174 0.2739939 0.052348815 0.013668742 -0.08034856 -0.117899336 -0.11271383 0.030828735
0.166266 0.08877654 0.06907967 -0.097759716 -0.12682113 -0.049505398 -0.074472845 0.004044652
0.053093225 -0.039833017 -0.0392244 -0.055933088 0.038019754 0.13396324 0.024852151 0.119740635
-0.02010277 -0.026251113 0.011987862 -0.059378356 -0.04074868 0.07410379 0.06980046 0.037946872
-0.040432557 0.04575994 -0.17228262 0.007526752 -0.23207523 0.19331014 0.036761083 -0.04022957

4.bias f4 [175]
00000000: 8869 ffbc 7763 6a3d 3e3f 953c 1606 973f
00000010: 23f0 d0bc 6fa8 8c3f e39d 12bd dc1a 893e
00000020: 8250 013e ec49 e33e bf12 d03e f024 05bf
00000030: 2e8a 22bd f80c fb3d b4eb 1abd d9a1 dd3e
00000040: 7892 e93e 7d07 b9bd cbbd 103f e876 aa3e
00000050: 4063 6dbd 8e3d 213f d3cb 6c3f bca8 af3e
00000060: 4813 063d c304 173e 5117 5c3d 2e5a c9be
00000070: 5654 c3bd a98b c93e b6da b4be e2bf bdbd
00000080: a457 34bf ec0c 113f dce9 e0bd 1e86 8ebe
00000090: d4e2 8dbe cf10 ed3c a008 933f bac8 63bd
000000a0: 495b 273d e050 acbe 1692 4b3e 0348 3cbe
000000b0: 2b30 a7bc e5ca 0f40 c42f 8fbe 84ac 22be
000000c0: 6d47 98bc 99fb e73e b6fb ea3e 65b5 593f
000000d0: 1296 ca3e 74e7 f7bd 1bb5 143f 8081 1d3f
000000e0: 06a7 b93f 73b9 163c 85b2 7ebf 6d7a b9be
000000f0: cf8f a3bc 96dd 933f 23f3 96bd f24d 66be
00000100: 3c17 243e 03f1 9ebd e0d0 b23c 614d 5d3e
00000110: b285 503e 57ce 4b3f 88ec cebd fada f23f
00000120: 89f4 ddbd 5c81 a73d c14c 9bbe d3d9 85bd
00000130: 37be e03e 77ac 9fbd 98c7 cebe 2ed9 d5bf
00000140: e660 84bc a135 ef3e 8f5f 623f 22d5 18be
00000150: 3849 9dbe eb00 cdbd dd61 923e ac33 d8be
00000160: 92d4 7dbd f9b4 5a3e 2f9e 89be beef 443d
00000170: 18ff 81be 04f1 7b3e 9f38 84bd e305 003f
00000180: 441e 82bf 4559 163f 127e d13c 93c3 bfbc
00000190: 23e9 df3c 58b3 d13f 340a 9bbd 326f 2c3f
000001a0: 74ae 623e 2e7b 87be 8f1d 073d 9592 3dbd
000001b0: e0dd 11bf f7ff b43f bb23 6f3e 1985 c9bb
000001c0: e727 04be b7f2 943f 6843 c4be 77b8 7e3e
000001d0: 6b14 613e 0445 86be d31b 2f3d ef84 7a3e
000001e0: b6f9 353e ab84 aabb 4d00 3c3f f56f 313e
000001f0: ceb2 3ebf 8243 a83d d183 ccbd 2c01 023e
00000200: 608f 02bd 313d 19bd 665f a23e dd7a 143f
00000210: 8c97 a3be 897c 753e f39f f73c ff5c 19be
00000220: cce6 f73e 4fb0 0f3f fcfb 493d 07c1 dabb
00000230: bcaf 9fbc fa2f 813f f767 c1be ff16 b23e
00000240: 7109 c6be 2c68 963e c829 623d a864 c8bd
00000250: b970 063f faaf 133f fbc8 b73e 23ba 22be
00000260: f9fb aabe f8b3 863b d55f 8d3f 8e78 323f
00000270: 375d be3e d5e9 b4be a368 cd3e 7e49 9fbd
00000280: 378d f13e c7b4 a3bd 9d95 853e f418 e23f
00000290: dc60 2e3f 6920 433d b683 89be 373b f9bd
000002a0: 8ef7 2dbf bf25 443e 7691 4d3f c963 ef3c
000002b0: 56bb e4be 0e9a 5e3e 5d89 313f
-0.03117825 0.057223763 0.018218633 1.1798732 -0.025505131 1.0988902 -0.035795104 0.26778305
0.12628368 0.44392335 0.40639302 -0.5200949 -0.03968256 0.12258333 -0.03782244 0.43287542
0.4561956 -0.090346314 0.565396 0.33293843 -0.05795598 0.6298455 0.9249851 0.34308422
0.03273323 0.1474791 0.053733174 -0.39326614 -0.0953757 0.39364365 -0.35323113 -0.09265114
-0.7044623 0.5666034 -0.10982105 -0.27836698 -0.2771212 0.028938679 1.1487007 -0.05561135
0.04085854 -0.33655453 0.19879946 -0.18386845 -0.02040871 2.2467587 -0.2796613 -0.15886122
-0.018588746 0.4530914 0.45895165 0.8504241 0.3956762 -0.12104693 0.58088845 0.61525726
1.4504097 0.009199488 -0.9949115 -0.36226216 -0.019966034 1.1551998 -0.073705934 -0.22490671
0.16024488 -0.07760813 0.021828115 0.21611549 0.203635 0.79611725 -0.101037085 1.8973076
-0.10837657 0.0817897 -0.30331996 -0.06535687 0.43895122 -0.07796567 -0.40386653 -1.6706903
-0.016159486 0.46720603 0.8842706 -0.14925054 -0.30719924 -0.10009941 0.2859029 -0.42226923
-0.0619703 0.21358098 -0.26878497 0.0480802 -0.25389934 0.24603659 -0.06456112 0.5000898
-1.0165486 0.58729964 0.02557281 -0.023408687 0.027332848 1.6382856 -0.075703055 0.6735717
0.22136861 -0.26461166 0.032987174 -0.04628237 -0.5697918 1.4140614 0.23353474 -0.0061498997
-0.12905847 1.1636571 -0.38332677 0.24875055 0.21980445 -0.2622453 0.042751145 0.24464773
0.17771038 -0.0052038035 0.7343796 0.17327864 -0.74491584 0.08216001 -0.099860795 0.1269576
-0.031875014 -0.037411872 0.31713408 0.57999974 -0.3195156 0.23973288 0.030227637 -0.14976881
0.48418272 0.561284 0.049312577 -0.0066758427 -0.019492976 1.0092766 -0.3777463 0.3478317
-0.38679078 0.29376352 0.055215627 -0.09784824 0.5251575 0.57690394 0.35895523 -0.15891318
-0.33395365 0.0041108094 1.1044871 0.697152 0.37180492 -0.3533465 0.40118894 -0.077776894
0.4717805 -0.07993465 0.26090708 1.7663865 0.68116546 0.04763833 -0.268583 -0.121694975
-0.67955863 0.19155024 0.8030008 0.029222386 -0.44674176 0.21738455 0.69350225

6.weight f4 [157, 175]
00000000: f4e5 82bc f17a 463e d14d 1abc 6658 833d
00000010: 81a4 1cbd 6cc8 fe3d 5a2b a63a d4ef 85bc
00000020: cf54 30be d6e9 9fbd 9677 a33d 4053 493e
00000030: 85d6 2fbd 797e 21bc 53a0 05bf 6391 1abd
00000040: 88c6 44bd ae92 85be dc3b b9be 3cb6 913d
00000050: 7c08 6d3b e272 65bd f7d7 513c 5128 8abd
00000060: bdcd 2a3d ba43 123b b250 53be bc34 363e
00000070: 6acf 4c3d 9ca7 de3d a17a c53d 17ff 08bd
00000080: 476f d9be c732 8d3e 1787 a83d e1a6 003d
00000090: 349c 083e 1c4d 5539 f56e cfbd acf8 853d
000000a0: 214e 923d 1cbf 813d 4666 513e 61da c63d
000000b0: ee73 853d c17d 2fbd 236a 2f3e ae62 92bd
000000c0: 4d0a 3e3d 0c70 1dbf 63e6 b53e ab4c debd
000000d0: c31f 13bf f53c e7bc 44c5 843d c4e2 463d
000000e0: 4aa2 0a3e dace 0ebd 4420 f6bd 3b0c 953b
000000f0: ae15 7f3d cc0b b2be a9e6 8d3d 0b97 65bd
00000100: 9e3a 513e 29a1 df3b 0140 3a3d 8217 babd
00000110: 761c 503e 06e1 403e 2385 2cbd 90a5 9fbd
00000120: b4fb fe3c 9492 fb3d ea3f b4bc d201 8fbd
00000130: 18e6 37bd ef04 c43c c6c6 32be c041 94be
00000140: ad85 1a3d 47f0 15bd 0001 823d 0410 583b
00000150: d8ea 533d fb21 3e3d f925 64be 5299 8abc
00000160: 9fa8 bf3c 317e a7bd 4f52 b9bd a939 40bd
00000170: 6303 9cbd 43fb 21bf 9dbf 943e 4e4e e53d
00000180: 55c9 e73d 236e e23d 8336 553c 52ac 96be
00000190: eea2 663d ba4a 313d 7719 db3c d7c2 20bd
000001a0: 9a61 3b3d 9d6c 103e f541 88bd 2f95 abbd
000001b0: 9d07 c03c b0e3 8abc 0896 7abf 2451 d73d
000001c0: b6e0 c0bc faf4 c4bd bb89 e0bd 6609 573d
000001d0: dee3 cebe 787e 5c3d 9767 72bd 022e b4be
000001e0: 74d6 4a3d 6d8c cebd 8274 aa3b 9973 e6bd
000001f0: d562 b8be d59a 3bbd 5d22 cebe 4925 c6bc
00000200: ff6b 66bd e876 643d f554 43bc 96d7 6a3c
00000210: 44dc ad3d 039e 593c 255c d7bd 5b6b c83d
00000220: d32e acbc b416 283e a260 013e da35 393d
00000230: a1b5 a3bc 9fd1 873c b34d 93be 5dcd 7cbd
00000240: f752 a83e a42b a0bb 0ecb 84bd d8a8 5c3d
00000250: 5c70 88be 4678 523e 4696 94bc b379 3bbe
00000260: bba5 57bd ad01 10be b577 9b3d 470b 223c
00000270: 7627 efbd 2b82 e33d c926 863d a7e9 cf3c
00000280: 2def 1abe d81d 213c 6109 8dbe 323c a93e
00000290: a39c 6fbd f1f2 28bd 2d7d e03d 9b96 95bd
000002a0: 4f54 02bd 99cd c1bd 0a8d 9cbd b819 a0b8
000002b0: 0804 dbbd 42e2 98bc 2266 f93d 8d86 63bd
000002c0: ad50 fe3c 821f ddbc bdec d4bd de0d 6e3d
000002d0: fa04 1fbe 8e0d 9bbe b5f1 07be 416e b93c
000002e0: 291d 3ebe 7f30 283e 90a8 c8bd 5075 293d
000002f0: 4654 8abb 5e6d 833e 0ddb b6bd b857 223e
00000300: 0516 80be 6673 8f3c 8159 afbd fd94 14bd
00000310: 8733 843d 3c4e b3be 83e2 1dbe 22ca 51bd
00000320: c6d2 29be 3175 573d 0624 2b3e b1f3 7c3d
00000330: 7d75 703d 7871 3e3c 7cec 75bc 1461 a83d
00000340: 8c1b c0bc fd53 8c3c 7d1a b0bd 4def 2b3d
00000350: 3ac1 98bd 5fbf 27be bfd4 21bd 868d 7bbe
00000360: 4d7b ff3b 2af9 593d aba5 d83c cd87 66be
00000370: 471b 863d 8823 223e df2f bbbe a1ce 89bd
00000380: 13ec fe3c 08f7 52be 054c 80bc 06f0 923d
00000390: 1f5c 70bd f6b1 8bbd df4a 39bf e3de a9bf
000003a0: 0c3b 713c 86b8 183e 7324 8abd d6f5 3e3d
000003b0: 62b9 fd3c 9399 b2be e6d6 d93d ef62 313e
000003c0: 2135 723d 74af 15bc 4fb3 c53d 0d37 48bd
000003d0: 0b55 efbe 8fb6 43bc 1816 55bd ba3f 8a3d
000003e0: f67f 95bd ef7f 57bf 87e9 92bb 7f60 37be
000003f0: 5536 4d3d 4036 35be 1861 ed3b 2b78 5fbc
-0.01597879 0.19382836 -0.009417967 0.06413345 -0.03824282 0.12440571 0.0012677715 -0.01634971
-0.17219852 -0.078082725 0.079817936 0.19660664 -0.04292919 -0.009856814 -0.5219776 -0.037736308
-0.048040897 -0.2608847 -0.36178482 0.071148366 0.0036168387 -0.056017764 0.012807838 -0.06745971
0.041700114 0.00223182 -0.20636252 0.17793554 0.050002493 0.10871813 0.0964253 -0.033446398
-0.4246771 0.27577803 0.08228891 0.031409148 0.13340837 0.00020341988 -0.10128585 0.06541571
0.07143808 0.06335279 0.2044917 0.09709621 0.065162525 -0.042844538 0.17130332 -0.07147728
0.046396542 -0.61499095 0.35527334 -0.10854467 -0.5747034 -0.028227309 0.06482938 0.048556104
0.13538471 -0.034865238 -0.12017873 0.004548577 0.062276535 -0.34774625 0.069287606 -0.05605225
0.20432517 0.0068246317 0.045471195 -0.09086515 0.20323357 0.1883584 -0.042119157 -0.077952504
0.03112588 0.12283817 -0.022003133 -0.06982769 -0.04489717 0.023928134 -0.17458639 -0.28956413
0.03772514 -0.0366061 0.06347847 0.003296853 0.051737636 0.046419125 -0.2228011 -0.016918812
0.023395834 -0.08178366 -0.09048902 -0.04692999 -0.076178335 -0.6327402 0.2905244 0.11196576
0.11317698 0.11056163 0.013013485 -0.29428345 0.056307726 0.043284155 0.026745541 -0.039248314
0.045747377 0.14103933 -0.06653205 -0.08378064 0.02344113 -0.016954273 -0.9788518 0.10513523
-0.02354465 -0.09617038 -0.1096377 0.052499197 -0.40408224 0.053831547 -0.059180822 -0.3519135
0.049520925 -0.10085378 0.005201877 -0.11252517 -0.36012903 -0.045801956 -0.40260592 -0.0241877
-0.056255337 0.05577746 -0.011922111 0.014333626 0.08489278 0.013282302 -0.10515622 0.097861014
-0.021018421 0.1641491 0.12634519 0.045217372 -0.019984068 0.016579447 -0.28770217 -0.061719287
0.32875797 -0.004888015 -0.06484042 0.05387196 -0.26648223 0.20553693 -0.018138062 -0.18308143
-0.052648287 -0.1406314 0.07591192 0.009890384 -0.116774485 0.11108812 0.065503664 0.025379969
-0.15130301 0.009833775 -0.27546218 0.33053738 -0.05849899 -0.041247312 0.109613754 -0.07304116
-0.031818684 -0.09463043 -0.076440886 -7.634185e-05 -0.10694128 -0.018662576 0.121776834 -0.05554824
0.031044329 -0.026992563 -0.10396717 0.058118694 -0.15529242 -0.3028378 -0.13275798 0.022635581
-0.18565811 0.1642475 -0.09797776 0.041371644 -0.004221472 0.25669378 -0.08928499 0.15853775
-0.250168 0.017511081 -0.085619934 -0.0362749 0.064551406 -0.35020626 -0.15418439 -0.05121816
-0.1658431 0.052601997 0.1671296 0.06175584 0.058705796 0.011623733 -0.015009996 0.08221641
-0.023450635 0.017129892 -0.08598802 0.041976262 -0.0745873 -0.16381596 -0.03950953 -0.24565706
0.007796681 0.053216137 0.026446184 -0.22512741 0.065481715 0.15833867 -0.3655996 -0.067288645
0.031118428 -0.20602047 -0.015661249 0.07174687 -0.058681604 -0.06821053 -0.7237987 -1.3271145
0.0147235505 0.1491414 -0.067452334 0.046621166 0.030972186 -0.34882793 0.10636692 0.17322896
0.0591327 -0.00913607 0.09653341 -0.048880626 -0.4674457 -0.011945381 -0.052023023 0.06750436
-0.07299797 -0.84179586 -0.004483405 -0.17907904 0.050100643 -0.17696476 0.0072442405 -0.01363949

6.bias f4 [157]
00000000: 33e6 223e 3580 e4bd 504f 71be 1c47 4dbd
00000010: 8d0d 2abf e21a a03e 76b7 37be f992 75be
00000020: 7724 5e3f f417 1cbf 2f62 0fbf 8bea a5bc
00000030: b83c 48bf 9f94 9c3e 1e5c 883e ee34 5238
00000040: 2c2e 91be eeed ac3e 7760 ec3e cdcf 6abf
00000050: 8da2 96bd ec21 d6be c137 dfbe 026c bb3e
00000060: b89b a83e 546c a03f fb48 19be b960 24be
00000070: 96ef 1cbf a79a 493e feeb 35bf 071e 803e
00000080: b326 a1bd cd86 babe 6d9c 32bf 9a02 a5be
00000090: c7da 93bf a55b 103e bad3 37be af6b 37be
000000a0: 0da0 053d 18e6 95be 16a9 36be 0b5b 1e3c
000000b0: dc11 933f 494c 21bf 1bc3 d83d baf1 34bf
000000c0: e451 78bd a9eb 623f b0c5 c13e a3a5 0ebe
000000d0: 28b3 58bf 4635 34be c877 aebf 8d95 323f
000000e0: b030 3bbf 35ef 27bf a69e 87b9 9666 df3d
000000f0: bf72 cebe 9393 2fbd faf9 063e 1fd5 63bd
00000100: bfbc cd3e 7145 a4be 00e4 98bd fd89 49bc
00000110: b531 483f af4f d93e 50e0 5d3e 6376 4dbf
00000120: d56c 8dbe a06a 643e 8bdc be3e d470 453e
00000130: 3fa1 2d3e 54b3 513e 5430 2fbf 71f0 c3be
00000140: 2d8f 813f 531a 843f 3e24 bd3d 26c3 23bf
00000150: 6e86 06be 2409 063f e67d 21bd 0df2 023c
00000160: 0028 3a3f dc26 a73e aaf4 dc3e 8939 b9bd
00000170: 6f6d 593f c1ad 943e 284d 423f 0730 33bf
00000180: f31d 5abf 512a dcbe 8c3a debe a402 0ebf
00000190: 488d 623e d17a 75be d3b1 2f3f e028 31bf
000001a0: c224 94be 8157 c7bd 9f91 8a3e 9807 163e
000001b0: a9d0 6e3f 3b3e a3bd efcf 8ebe d7b9 94be
000001c0: a47b ebbd b1a0 1d3f 9de0 783e 5261 653e
000001d0: c1e6 81bf e3f8 143e aec4 a3be 0f1e 1fbe
000001e0: f6e6 fd3c 91cf 77bf ae90 d73e a387 27bd
000001f0: aa11 f5be 0fb3 293f ecbb 353f 4900 e9be
00000200: 664f 313f 7646 183f 5514 693f 5025 25be
00000210: 7712 553d daed 02be a829 90bf 206c 9fbe
00000220: 6241 19bf a208 723e 247e 08bf 2bb0 323e
00000230: c7c3 983f 2d6f 85bd 507c 5d3e cf39 3dbd
00000240: adfa dd3b b575 4c3f 70d5 ee3d ae4d ce3d
00000250: d41e 273f 83db f63e dc08 113f 4628 843e
00000260: c4df 02bf f23b 85bf e023 383e 1661 2c3e
00000270: 921d 3c3f
0.15908127 -0.11157266 -0.23565412 -0.050116643 -0.66426927 0.3127051 -0.17941079 -0.23981847
0.8677439 -0.6097405 -0.5600919 -0.02025344 -0.7821765 0.3058214 0.2663278 5.0117196e-05
-0.2835554 0.33775276 0.46167347 -0.9172333 -0.07355223 -0.41822755 -0.43597224 0.3660584
0.32931304 1.2533059 -0.14969246 -0.16052522 -0.6130308 0.19687901 -0.7106322 0.2502291
-0.078687094 -0.3643097 -0.69769937 -0.32228547 -1.155114 0.1409746 -0.17951861 -0.17912172
0.03262334 -0.2927711 -0.17837939 0.009665261 1.1489825 -0.63007027 0.105840884 -0.70681345
-0.060624972 0.8864084 0.37846136 -0.13930373 -0.8464837 -0.17598447 -1.3630304 0.69759446
-0.73121166 -0.65599376 -0.0002586741 0.109082386 -0.4032192 -0.042865347 0.13181296 -0.05562317
0.40183064 -0.3208423 -0.074653625 -0.012300965 0.78200847 0.42443606 0.216676 -0.8025877
-0.27622095 0.22306299 0.37277636 0.19281322 0.16956042 0.20478565 -0.6843312 -0.3826938
1.0121819 1.0320534 0.09235428 -0.6396965 -0.13137218 0.523577 -0.039426707 0.00799228
0.72717285 0.32646835 0.43155414 -0.09044177 0.8493261 0.29038814 0.7589898 -0.6999516
-0.8520195 -0.43001035 -0.43404043 -0.5547278 0.22124207 -0.23972632 0.68630713 -0.69202995
-0.28934294 -0.09733487 0.27064225 0.14651334 0.9328714 -0.07970854 -0.27893016 -0.29048035
-0.11498192 0.6157332 0.24304433 0.22400406 -1.0148546 0.14548068 -0.31985992 -0.1553881
0.03099392 -0.96801096 0.4210257 -0.040900838 -0.4786504 0.66288847 0.7098987 -0.4550803
0.6926178 0.59482515 0.9104665 -0.16127515 0.052019563 -0.12786046 -1.1262712 -0.3113718
-0.5986539 0.23636106 -0.53317475 0.17450015 1.1934747 -0.06515346 0.21629453 -0.04619771
0.0067742676 0.79867107 0.11661804 0.1007341 0.65281415 0.4821435 0.56654143 0.25811976
-0.5112269 -1.0408919 0.17982435 0.1683391 0.7348262
