pav_spkid_pytorch/lp_model_hsize_175_lr000125/e8_weights.ckpt (torch_old, 491138 bytes, 8 tensors)

0.weight f4 [175, 189]
0.029116001 -0.3292789 0.026954101 0.4848077 -0.2909986 0.5913671 -0.7286886 0.16926299
1.6195033 -0.06280363 -0.2554273 0.025686411 0.50431883 -0.15887639 0.448205 -0.52149206
0.11899293 1.3684157 0.03727362 -0.28465176 0.044792857 0.54783726 -0.2590487 0.4742649
-0.5083536 0.22457114 1.2221763 0.03407365 -0.16531517 0.10181864 0.5307837 -0.18717098
0.48748407 -0.5439026 0.4470507 1.1363494 0.007619459 -0.1506737 0.035778973 0.52197
-0.13882048 0.4117684 -0.3982678 0.4032428 1.1378723 -0.0059916982 -0.17651623 0.03655605
0.553583 -0.028381355 0.4508169 -0.3597222 0.347808 1.0987372 -0.05659412 -0.10004875
0.1376684 0.50796705 -0.092145324 0.358912 -0.33913234 0.24553697 1.0617739 0.054917477
-0.14607327 0.0875188 0.4380154 -0.025734652 0.34009898 -0.33737728 0.24103618 1.0796548
-0.0062624793 -0.18813668 0.0958635 0.3166594 0.06600121 0.3416619 -0.280518 0.31608382
1.1935252 -0.061595343 -0.06431265 0.11936681 0.37887684 -0.009109764 0.3955993 -0.4016147
0.24023955 1.0788485 0.033730973 -0.11395006 0.15485011 0.38527623 -0.07382165 0.35046974
-0.338605 0.29508996 1.1212839 0.016808875 -0.037232954 0.06455886 0.34293914 -0.07566316
0.38243172 -0.4386222 0.3426562 1.1864152 -0.026068095 -0.08582525 0.0668802 0.300457
-0.06616579 0.3618123 -0.36531234 0.25685534 1.2025838 0.03335322 0.046333935 0.19824488
0.26822132 -0.008345439 0.3332059 -0.2536796 0.22676343 1.2103153 -0.034985285 -0.073078126
0.22526005 0.23400079 -0.008169459 0.25655672 -0.25487158 0.21479753 1.1281083 0.018586876
0.008396756 0.16849257 0.16721709 0.0280584 0.21662705 -0.34492546 0.20972171 1.0307184
0.008543702 -0.035000004 0.28232202 0.07246277 0.18984202 0.07283154 -0.23887123 0.18867171
0.9849406 -0.04843957 -0.017796628 0.32572022 0.14873649 0.27309296 0.07810782 -0.20737444
-0.02319471 0.9679544 0.06302709 -0.114775114 0.34487936 0.04042953 0.35585624 -0.10237223
-0.20432194 -0.1956996 1.1156657 -0.048681483 -0.13709068 0.4751547 -0.047357425 0.41204154
-0.20863439 -0.09603211 -0.45651764 1.3267226 0.0072653634 -0.16910335 0.46721512 0.1526371
0.37240937 0.02882908 -0.2629886 -0.6624401 1.7720814 0.019912858 -0.027646089 0.018725015
-0.063955866 -0.06462673 0.037253346 -0.014594651 -0.024989473 0.04599128 -0.11161908 0.055832367
0.07112768 0.017510122 -0.0045946883 0.09679634 0.040764555 0.1052376 -0.05802505 -0.026464278
0.059579924 -0.04432071 0.08349223 -0.001668016 0.11456237 0.016849138 0.07585404 0.03516828
-0.04960024 0.067804724 0.006565429 0.025056154 0.021862911 0.12424825 0.031392828 0.075553544
0.052992217 0.037559066 -0.015189763 0.10249088 -0.084818 0.089305386 0.050245993 0.015756708
0.053766325 -0.047985204 -0.054071173 -0.01567793 -0.016350947 -0.034045238 -0.0009148823 -0.06474217
0.053823188 0.0053923596 -0.036097042 -0.065195486 -0.015377684 0.062713206 -0.025752451 -0.059072196
0.028921964 0.043577 0.023576789 -0.0729247 -0.060715113 0.019136675 0.02183752 -0.080551736
00000000: ae84 ee3c 3e97 a8be d9ce dc3c b738 f83e
00000010: c5fd 94be d663 173f 568b 3abf 4753 2d3e
00000020: e24b cf3f 319f 80bd 5ec7 82be 4f6c d23c
00000030: 0a1b 013f 7eb0 22be 207b e53e 8180 05bf
00000040: 91b2 f33d 3f28 af3f 39ac 183d e0bd 91be
00000050: b778 373d 103f 0c3f 08a2 84be d9d2 f23e
00000060: 7623 02bf faf5 653e 4670 9c3f d090 0b3d
00000070: 6148 29be 4b86 d03d 71e1 073f c0a9 3fbe
00000080: 8397 f93e 333d 0bbf d4e3 e43e e673 913f
00000090: a8ac f93b 354a 1abe f98c 123d d39f 053f
000000a0: f526 0ebe 4fd3 d23e c2e9 cbbe d775 ce3e
000000b0: cda5 913f 0256 c4bb acc0 34be ccbb 153d
000000c0: 9eb7 0d3f 0480 e8bc 79d1 e63e 822d b8be
000000d0: e413 b23e 6ca3 8c3f 3ccf 67bd 5ce6 ccbd
000000e0: f2f8 0c3e 210a 023f b0b6 bcbd 50c3 b73e
000000f0: c1a2 adbe 0b6e 7b3e 35e8 873f 26f1 603d
00000100: 3b94 15be 0e3d b33d 8e43 e03e 7ad1 d2bc
00000110: 7421 ae3e b7bc acbe 30d2 763e 2132 8a3f
00000120: 7c35 cdbb e7a6 40be 1554 c43d 2e21 a23e
00000130: a42b 873d 4fee ae3e 0ea0 8fbe bdd5 a13e
00000140: 6fc5 983f 664b 7cbd 5ab6 83bd 9676 f43d
00000150: 25fc c13e 1f41 15bc fe8b ca3e 71a0 cdbe
00000160: 5b01 763e b517 8a3f 7d29 0a3d a65e e9bd
00000170: 0791 1e3e ed42 c53e ce2f 97bd c570 b33e
00000180: a25d adbe 0816 973e 3b86 8f3f c4b2 893c
00000190: 9581 18bd 7037 843d b895 af3e 49f5 9abd
000001a0: 17ce c33e 1793 e0be a270 af3e 74dc 973f
000001b0: c28c d5bc 26c5 afbd 7cf8 883d 80d5 993e
000001c0: ee81 87bd 763f b93e 380a bbbe 8b82 833e
000001d0: 44ee 993f 639d 083d a7c8 3d3d b500 4b3e
000001e0: 4e54 893e 4fbb 08bc f799 aa3e 4be2 81be
000001f0: ac34 683e 9deb 9a3f bb4c 0fbd fca9 95bd
00000200: 92aa 663e e79d 6f3e 32d9 05bc 675b 833e
00000210: 877e 82be e2f3 5b3e da65 903f 8143 983c
00000220: 8c92 093c 5189 2c3e f53a 2b3e bbda e53c
00000230: 7bd3 5d3e 129a b0be 4ac1 563e 95ee 833f
00000240: e2fa 0b3c 2a5c 0fbd 838c 903e 5c67 943d
00000250: f265 423e b428 953d a99a 74be 2833 413e
00000260: 1125 7c3f 9268 46bd 3cca 91bc cdc4 a63e
00000270: 614e 183e d7d2 8b3e fef6 9f3d f759 54be
00000280: d502 bebc dccb 773f 5914 813d 370f ebbd
00000290: 0794 b03e 6f99 253d ca32 b63e 88a8 d1bd
000002a0: c539 51be 7a65 48be 22ce 8e3f 3c66 47bd
000002b0: 8061 0cbe 7a47 f33e dcf9 41bd 1cf7 d23e
000002c0: 41a4 55be 7cac c4bd aebc e9be 0cd2 a93f
000002d0: 4912 ee3b 6e29 2dbe d236 ef3e e64c 1c3e
000002e0: 71ac be3e f62a ec3c 71a6 86be ad95 29bf
000002f0: 90d3 e23f 4a20 a33c 0d7a e2bc 3465 993c
00000300: 4bfb 82bd 055b 84bd f796 183d 671e 6fbc
00000310: b9b6 ccbc 5a61 3c3d 8b98 e4bd 7bb0 643d
00000320: 64ab 913d 6371 8f3c 0a8f 96bb 293d c63d
00000330: bcf8 263d d086 d73d adab 6dbd 9dcb d8bc
00000340: 140a 743d a289 35bd f9fd aa3d 54a1 daba
00000350: ad9f ea3d 3407 8a3c 5d59 9b3d 9d0c 103d
00000360: 9f29 4bbd 34dd 8a3d cf22 d73b 9042 cd3c
00000370: d919 b33c de75 fe3d c495 003d d1bb 9a3d
00000380: 5e0e 593d 89d7 193d 7cde 78bc bde6 d13d
00000390: 0fb5 adbd bee5 b63d bece 4d3d 3614 813c
000003a0: 143a 5c3d 228c 44bd bc79 5dbd 016f 80bc
000003b0: 6cf2 85bc 0573 0bbd b6d4 6fba 8b97 84bd
000003c0: b475 5c3d 64b2 b03b 7eda 13bd 3685 85bd
000003d0: aef2 7bbc c86f 803d cef6 d2bc b0f5 71bd
000003e0: c1ed ec3c cc7d 323d 1c24 c13c 8c59 95bd
000003f0: 69b0 78bd 84c4 9c3c 99e4 b23c 4ff8 a4bd

0.bias f4 [175]
0.46254364 0.08781911 -0.3029427 0.45550293 0.07268448 -0.33723557 3.2705182e-05 0.6938888
-0.48061472 0.8346731 0.15469642 -0.100448705 -0.31337395 0.7666804 0.009231993 -0.3531532
-0.75502056 -0.52991545 1.2226384 -0.9150719 -0.6136495 0.10356482 0.41023302 -0.5124447
-0.13794208 -0.08495579 2.0045803 -0.19965091 -0.0014433126 -0.08446576 -0.03476126 -0.38350993
0.19930235 -0.048685934 0.23627844 -0.8848555 0.49604765 0.04502233 0.06392707 -0.020171495
0.91013396 -0.1810413 0.3461796 1.3091208 -0.7622416 0.65465045 0.49288058 0.12797815
1.200969 0.19548008 0.45636764 0.008496194 -0.49964553 0.37256366 0.041055378 1.6126143
0.009153122 -0.1101604 0.053387992 -0.005510064 0.012679387 0.0036005718 0.44766822 -0.48417518
0.39268085 -0.004742865 0.041427646 -1.8837523 0.26894224 0.2070452 0.093810424 0.35572731
-0.051612407 0.0011279404 -0.096340775 -0.22165185 -0.5228035 0.36119905 0.46860746 -0.24374464
-0.2816976 -0.11178136 0.360953 -0.12597154 1.7106695 -0.014707917 0.0067420355 -0.24428341
-0.047224455 -0.18555667 0.40449256 1.9341834 -0.06304051 0.48571846 0.28314093 0.51868653
0.26636523 0.0021981965 0.15725087 -0.74191135 0.30262506 0.46868983 0.2931228 0.04371624
-0.091642104 0.0032106277 -0.058057003 0.04827984 0.59258664 -0.0136476355 -0.04309365 -0.06710252
-0.44327927 0.049978502 1.3692183 0.6348212 -0.13995495 -0.03316187 -0.592199 0.0690361
-0.15969393 0.47825047 0.13714725 0.6638354 0.05959581 0.13156894 0.00835615 -0.08023539
0.027134595 -0.048838828 -0.040143654 1.6754248 -0.19670089 -0.047230553 -0.01328517 0.6765773
0.3127872 -0.018842205 -0.24901561 0.83358955 -0.75157976 0.7166523 0.4753935 0.29552007
0.04081391 -0.6244962 1.3527809 0.6940416 -0.2921114 0.0897302 0.47498676 0.031741373
1.7113124 0.2623386 -0.02441425 1.9439855 0.6208409 0.9334501 -0.12397087 0.10401538
0.0035705185 -0.5125795 -0.12871347 0.050272267 -0.21594033 -0.015373188 0.08601197 0.03005889
2.340491 -0.7972492 0.15847793 -0.47687018 0.059617467 1.3723719 -0.91705453
00000000: 85d2 ec3e 81da b33d 4e1b 9bbe ae37 e93e
00000010: 9adb 943d 24aa acbe ec2c 0938 b2a2 313f
00000020: 2213 f6be 23ad 553f bd68 1e3e 0db8 cdbd
00000030: 8d72 a0be 2b45 443f c941 173c 7fd0 b4be
00000040: 0749 41bf 8aa8 07bf 6a7f 9c3f 2742 6abf
00000050: 2218 1dbf cb19 d43d 100a d23e 932f 03bf
00000060: b040 0dbe 4dfd adbd 0b4b 0040 4a71 4cbe
00000070: 892d bdba 62fc acbd d361 0ebd 6a5b c4be
00000080: ea15 4c3e e76a 47bd faf2 713e e485 62bf
00000090: f5f9 fd3e 5669 383d 32ec 823d b13e a5bc
000000a0: 8afe 683f e462 39be 743e b13e 4591 a73f
000000b0: 4422 43bf 2c97 273f d85a fc3e b40c 033e
000000c0: 5ab9 993f ee2b 483e 05a9 e93e 9f33 0b3c
000000d0: 8ad1 ffbe aac0 be3e af29 283d 256a ce3f
000000e0: faf6 153c c79b e1bd 5ead 5a3d c48d b4bb
000000f0: 34bd 4f3c 92f7 6b3b c534 e53e cfe5 f7be
00000100: 770d c93e 096a 9bbb 09b0 293d cc1e f1bf
00000110: ccb2 893e a803 543e ae1f c03d e421 b63e
00000120: 8867 53bd 66d7 933a 504e c5bd b4f8 62be
00000130: 73d6 05bf 15ef b83e 51ed ef3e 3298 79be
00000140: ab3a 90be a0ed e4bd d5ce b83e affe 00be
00000150: 38f7 da3f 7af9 70bc 4bec dc3b 6e25 7abe
00000160: 6e6e 41bd 9102 3ebe a619 cf3e 5293 f73f
00000170: 621b 81bd 17b0 f83e d9f7 903e a4c8 043f
00000180: 0661 883e 9e0f 103b 5f06 213e e7ed 3dbf
00000190: acf1 9a3e 1df8 ef3e 3114 963e cd0f 333d
000001a0: dbae bbbd 6569 523b 2ecd 6dbd 15c1 453d
000001b0: c2b3 173f 559a 5fbc f882 30bd 0c6d 89bd
000001c0: 80f5 e2be 42b6 4c3d 8c42 af3f a483 223f
000001d0: 5a50 0fbe bed4 07bd 5b9a 17bf cc62 8d3d
000001e0: ce86 23be 3fdd f43e 5470 0c3e 1ef1 293f
000001f0: bc1a 743d 02ba 063e 3ce8 083c 7452 a4bd
00000200: 5f49 de3c 390b 48bd ac6d 24bd 5274 d63f
00000210: f56b 49be d374 41bd 0baa 59bc 2c34 2d3f
00000220: a525 a03e f85a 9abc f3fd 7ebe 2066 553f
00000230: 8867 40bf 8676 373f c766 f33e 684e 973e
00000240: 7d2c 273d fcde 1fbf ed27 ad3f b6ac 313f
00000250: a08f 95be 78c4 b73d 7731 f33e 3e03 023d
00000260: 490c db3f 3f51 863e 6500 c8bc 84d4 f83f
00000270: 6eef 1e3f 96f6 6e3f 71e4 fdbd 0406 d53d
00000280: 5cff 693b 6938 03bf 77cd 03be 4bea 4d3d
00000290: 761f 5dbe d3df 7bbc 0b27 b03d 103e f63c
000002a0: 9bca 1540 8618 4cbf 0a48 223e 5428 f4be
000002b0: 7231 743d e2a9 af3f 16c4 6abf

2.weight f4 [175, 175]
0.06353679 0.05889264 -0.023605023 -0.013166477 -0.0008155116 0.031590197 0.03406539 0.113234855
0.010656237 -0.0068134028 0.020271009 0.020275673 -0.11569578 0.058415037 -0.022456514 -0.0015456814
-0.027862467 -0.09216623 0.25882244 -0.031679664 -0.015125593 0.0015836582 -0.014844151 -0.20521586
-0.038958903 -0.008983016 0.30385503 -0.030108185 0.021275932 -0.036111612 -0.033618737 0.06756273
0.11565914 -0.038498398 -0.11696967 -0.11960541 0.020664198 -0.0825753 0.047772978 0.072222985
-0.052425083 0.0049717654 -0.078830026 0.009891098 0.015491178 -0.10184422 -0.070417546 0.032223172
-0.025609508 -0.08551924 0.083021045 0.0115857255 0.005620671 0.06813009 0.07099437 0.22216454
-0.017776284 0.17080157 -0.07361767 0.020203695 -0.025603978 0.019415297 -0.031829525 0.07028168
0.014512627 0.030573875 -0.07763674 0.062793754 -0.056595687 0.0064191795 -0.117156394 -0.023916805
-0.001003288 0.039171994 -0.030921951 0.0019279526 -0.022843912 0.1357914 -0.00094698666 0.00084456673
0.012164311 -0.013307605 -0.038572576 0.020608582 0.163997 -0.041063525 0.015349752 0.062432405
0.02541871 -0.03125716 0.030436892 0.08765535 0.030889248 -0.010912443 0.007058307 0.0055194683
-0.010400513 -0.08652565 -0.07757758 0.038294386 -0.04850213 -0.17960787 0.012047562 -0.0339165
0.03697318 0.045196883 0.010201873 -0.011799216 -0.09860051 0.09103939 0.06613577 0.017943744
0.0045777233 0.019539647 0.018506607 -0.07077524 -0.037252013 0.038482446 0.0020772552 0.0026681672
0.0056070075 0.0042558946 -0.15878564 0.04030762 -0.118885644 0.024643429 0.00076477334 -0.10672466
-0.09805816 0.018539526 -0.08611913 -0.061269045 -0.029586578 -0.025938861 -0.0120576015 0.03894921
0.03536858 0.032690685 -0.024383469 -0.06268719 0.031704485 -0.06646628 0.027553186 -0.08777796
-0.033394538 -0.049267977 0.23609899 0.033855863 -0.029418822 -0.14937606 0.12951338 -0.05520494
0.23819351 -0.055278517 -0.011666578 -0.0059188185 -0.0069965734 0.08351246 -0.038388442 0.03316255
-0.10094881 -0.030148698 0.091232546 0.06826629 0.013713814 0.068537556 -0.11194061 -0.013135295
0.33904257 0.036068227 0.028118145 0.03990555 0.011060212 0.07185356 -0.020793196 0.04229949
0.06404114 -0.107385956 -0.023206262 0.059535604 -0.004692355 0.059045292 0.35985783 -0.07927554
-0.059180092 -0.015968828 -0.07393618 0.03794917 0.07101553 -0.0069618826 -0.10376564 -0.07804701
0.001939424 -0.19159424 0.0810501 -0.08230362 -0.18496332 -0.052430123 0.11732501 -0.073257014
-0.049946338 -0.35234764 -0.04933537 0.029528195 0.01899024 -0.10948854 -0.05198139 0.008206281
-0.07525881 0.028233051 -0.027715823 -0.052768007 -0.055104584 -0.0005419179 0.046036746 -0.09530079
-0.069550544 -0.027407704 0.014362207 0.0037201555 -0.0972531 -0.13333906 -0.05591671 -0.23231328
-0.04917809 0.005842058 -0.07903644 -0.008505528 -0.003967792 -0.17586035 -0.24230787 0.03742353
0.21980093 -0.056704167 0.039092645 0.017684398 0.008789581 -0.012262954 0.035613682 0.0762861
-0.071500786 0.018254932 -0.04786645 -0.10576895 -0.019654082 -0.009827983 0.052343946 0.012026976
0.037560325 -0.05008015 0.0363851 0.0323511 0.13800682 -0.041461695 -0.038290784 -0.12519127
00000000: 941f 823d 6939 713d 525f c1bc 35b8 57bc
00000010: 0fc8 55ba b964 013d 2688 0b3d ade7 e73d
00000020: 7f97 2e3c f742 dfbb 630f a63c 2b19 a63c
00000030: e9f1 ecbd 9b44 6f3d b9f6 b7bc 7698 caba
00000040: d43f e4bc a6c1 bcbd 6084 843e 89c2 01bd
00000050: 56d1 77bc c092 cf3a e234 73bc 1b24 52be
00000060: 5f93 1fbd 802d 13bc e392 9b3e 71a5 f6bc
00000070: dd4a ae3c c5e9 13bd cdb3 09bd 545e 8a3d
00000080: b3de ec3d 7fb0 1dbd cb8d efbd aef3 f4bd
00000090: f747 a93c 3d1d a9bd 99ad 433d a5e9 933d
000000a0: afbb 56bd 31ea a23b a371 a1bd 460e 223c
000000b0: b6ce 7d3c b493 d0bd 1337 90bd 72fc 033d
000000c0: 08cb d1bc b624 afbd f006 aa3d 0ed2 3d3c
000000d0: 9b2d b83b ca87 8b3d 7f65 913d 1a7f 633e
000000e0: 929f 91bc 9be6 2e3e dcc4 96bd 3882 a53c
000000f0: 6fbf d1bc d40c 9f3c ad5f 02bd d7ef 8f3d
00000100: 5fc6 6d3c 1076 fa3c 0300 9fbd 039a 803d
00000110: e1d0 67bd fb57 d23b b1ef efbd 2ded c3bc
00000120: c280 83ba d072 203d 0850 fdbc 5bb3 fc3a
00000130: 2823 bbbc e70c 0b3e 333f 78ba ea65 5d3a
00000140: d14c 473c 2408 5abc 47fe 1dbd 54d3 a83c
00000150: d4ee 273e 3a32 28bd 877d 7b3c 1fb9 7f3d
00000160: e63a d03c 8207 00bd ca56 f93c a684 b33d
00000170: 730b fd3c 1aca 32bc 5f49 e73b a8dc b43b
00000180: ea66 2abc 5c34 b1bd ffe0 9ebd 93da 1c3d
00000190: 2baa 46bd 20eb 37be 2363 453c 07ec 0abd
000001a0: 3071 173d 5e20 393d c225 273c 8051 41bc
000001b0: 10ef c9bd dc72 ba3d 3172 873d c2fe 923c
000001c0: ba00 963b 9c11 a03c 2b9b 973c 9cf2 90bd
000001d0: 9195 18bd c59f 1d3d 8f22 083b 6bdc 2e3b
000001e0: fdba b73b 0875 8b3b b498 22be 9a19 253d
000001f0: 517a f3bd 04e1 c93c 127b 483a 7592 dabd
00000200: b7d2 c8bd 34e0 973c 3a5f b0bd 40f5 7abd
00000210: 8d5f f2bc bc7d d4bc 3f8d 45bc 3589 1f3d
00000220: a5de 103d abe6 053d d7bf c7bc 2462 80bd
00000230: 90dc 013d 791f 88bd 38b7 e13c eec4 b3bd
00000240: b6c8 08bd 38cd 49bd efc3 713e 72ac 0a3d
00000250: beff f0bc 0af6 18be 289f 043e 931e 62bd
00000260: 00e9 733e ba6b 62bd 2d25 3fbc a6f2 c1bb
00000270: 8343 e5bb 9508 ab3d 333d 1dbd 74d5 073d
00000280: 40be cebd 67fa f6bc 21d8 ba3d 32cf 8b3d
00000290: e8af 603c 6b5d 8c3d 1e41 e5bd 6c35 57bc
000002a0: fd96 ad3e 47bc 133d 0658 e63c 0174 233d
000002b0: e435 353c f627 933d 7e56 aabc 3b42 2d3d
000002c0: 0028 833d 2bed dbbd 0f1b bebc 9bdb 733d
000002d0: 54c2 99bb 7ad9 713d 493f b83e 375b a2bd
000002e0: d366 72bd 0fd1 82bc da6b 97bd 9770 1b3d
000002f0: 9770 913d 8120 e4bb 1483 d4bd 1cd7 9fbd
00000300: 4534 fe3a 4831 44be 98fd a53d cd8e a8bd
00000310: 0667 3dbe f8c0 56bd 1848 f03d c607 96bd
00000320: 8894 4cbd e966 b4be e313 4abd 1de5 f13c
00000330: 6b91 9b3c 873b e0bd 70ea 54bd a373 063c
00000340: 4a21 9abd 0049 e73c 4b0c e3bc 4423 58bd
00000350: 58b5 61bd 7f0f 0eba 0791 3c3d 102d c3bd
00000360: 8470 8ebd 1f86 e0bc 764f 6b3c dacd 733b
00000370: a22c c7bd 098a 08be ec08 65bd 88e3 6dbe
00000380: f76e 49bd bc6e bf3b dbdd a1bd c55a 0bbc
00000390: 4004 82bb bc14 34be 8e1f 78be 6a49 193d
000003a0: 7f13 613e a142 68bd 9c1f 203d dfde 903c
000003b0: 2d02 103c 8fea 48bc a7df 113d e33b 9c3d
000003c0: 016f 92bd 5e8b 953c 9c0f 44bd 649d d8bd
000003d0: 9901 a1bc 8c05 21bc 9b66 563d cb0c 453c
000003e0: dbd8 193d d820 4dbd 8b08 153d 9682 043d
000003f0: a951 0d3e bdd3 29bd ccd6 1cbd 2432 00be

2.bias f4 [175]
0.16272232 0.19024333 -0.06280246 -0.6443451 0.22719446 1.3055786 0.11172245 -0.08941433
0.9513976 0.055239964 0.023183241 -0.043422885 -0.050321154 -0.009755132 -0.0052164234 0.0047426373
-0.08923207 -0.04832363 -0.050935872 -0.02718389 1.5210292 0.11389764 0.0008750819 -0.1869537
0.031887233 0.032021772 1.1678027 0.13991654 -0.09042287 0.3066364 0.068815604 -0.013678353
-0.06637975 0.05381916 -0.5364528 0.17066929 0.35038313 -0.24588789 -0.08363391 -0.70742
0.24025878 0.25182474 1.598799 0.7399339 -0.8564353 -0.032177705 0.09827622 0.22572868
-0.07221437 -0.06331166 -0.103018336 0.05544674 -0.80729866 0.82512385 0.069300674 0.039916493
-0.06886463 0.19745745 -0.061935417 -0.054079086 -0.002011868 -0.048917938 0.03926364 -0.07424097
1.2818055 0.8739517 0.014884716 -0.080890454 -0.3326752 -0.6147588 1.6276776 -0.06972248
0.68237805 1.0701561 0.033923272 -0.76132566 0.28941953 1.2933139 0.41507277 0.040105894
-0.29458928 1.5704396 0.043794077 0.011465905 0.3374435 -0.06743754 -0.11517725 0.0005568833
1.0769302 -0.077357866 -0.013633205 0.048820205 0.8339151 -0.090999566 -0.3806065 -0.30080837
-0.1000184 1.152186 1.0513458 0.044718117 0.07397219 -0.6160899 -1.596461 0.002544766
-0.03461717 0.22974092 0.8383765 0.014948056 -0.03237596 0.04532011 0.049958203 0.022072213
0.0062556136 -0.6544225 0.16876961 -0.016778596 -0.056343123 1.3010652 0.029500196 -0.897094
3.0900087 -0.022131452 0.04105073 -0.114286005 1.1699431 -0.011245896 0.41655138 0.4743307
-0.013872926 0.41847092 -0.2725404 0.0069596968 1.2338595 0.025023615 -0.23689236 -1.7019789
0.029044513 0.8407472 -1.243801 -0.013914328 0.8680105 0.052133165 -0.009234491 0.00949707
-0.37337446 -0.051186167 -0.05979572 -0.02588972 1.0831904 0.19206607 -0.052406803 -0.09964059
-0.12389511 0.9241714 0.056280855 0.054039486 -0.13150342 0.11796855 -0.21351168 -0.6116564
0.2014535 1.3902826 0.6971453 -0.24969532 0.5397538 0.20675354 -0.037880678 0.044568058
-0.41778854 -0.054641705 0.063983805 0.04895218 -1.1241199 -0.057046417 -0.17102315
00000000: aea0 263e 26cf 423e 939e 80bd cdf3 24bf
00000010: aaa5 683e 331d a73f bdce e43d dc1e b7bd
00000020: cb8e 733f 4d43 623d c8ea bd3c 32dc 31bd
00000030: 8e1d 4ebd fdd3 1fbc 88ee aabb 2068 9b3b
00000040: 4ebf b6bd 00ef 45bd 22a2 50bd c0b0 debc
00000050: 16b1 c23f 2a43 e93d c165 653a ca70 3fbe
00000060: 309c 023d 4329 033d 8f7a 953f 4846 0f3e
00000070: a02f b9bd 72ff 9c3e 32ef 8c3d 2c1b 60bc
00000080: 1bf2 87bd 7b71 5c3d f854 09bf eec3 2e3e
00000090: 6b65 b33e 09ca 7bbe 4148 abbd 7a19 35bf
000000a0: 6606 763e 2cef 803e 72a5 cc3f 4f6c 3d3f
000000b0: 583f 5bbf c5cc 03bd 0b45 c93d 6b25 673e
000000c0: 21e5 93bd 8ba9 81bd 47fb d2bd 1f1c 633d
000000d0: 20ab 4ebf 513b 533f 83ed 8d3d 7a7f 233d
000000e0: e608 8dbd 4932 4a3e feaf 7dbd 0882 5dbd
000000f0: 8bd9 03bb 2d5e 48bd e9d2 203d a60b 98bd
00000100: 3412 a43f 4cbb 5f3f 06df 733c e5a9 a5bd
00000110: 6754 aabe d560 1dbf bd57 d03f a9ca 8ebd
00000120: 54b0 2e3f e0fa 883f 21f3 0a3d 3de6 42bf
00000130: cc2e 943e 4f8b a53f 6b84 d43e 1446 243d
00000140: 68d4 96be 2a04 c93f 6b61 333d 7edb 3b3c
00000150: 65c5 ac3e b11c 8abd 0de2 ebbd cefb 113a
00000160: d9d8 893f cd6d 9ebd ce5d 5fbc b2f7 473d
00000170: 767b 553f fb5d babd dbde c2be 8e03 9abe
00000180: 72d6 ccbd d57a 933f 8092 863f 582a 373d
00000190: bb7e 973d 11b8 1dbf d658 ccbf 17c6 263b
000001a0: bcca 0dbd 3441 6b3e d89f 563f b1e8 743c
000001b0: a89c 04bd 94a1 393d f9a0 4c3d c9d0 b43c
000001c0: e4fb cc3b 3c88 27bf f1d1 2c3e 4473 89bc
000001d0: 0cc8 66bd 4e89 a63f 65aa f13c f4a7 65bf
000001e0: b4c2 4540 054d b5bc cf24 283d c80e eabd
000001f0: b2c0 953f b540 38bc 3946 d53e 79db f23e
00000200: 454b 63bc d241 d63e 6a8a 8bbe 2b0e e43b
00000210: 1cef 9d3f 53fe cc3c e993 72be 72da d9bf
00000220: c2ee ed3c 353b 573f df34 9fbf ecf8 63bc
00000230: f035 5e3f 9689 553d 434c 17bc 9999 1b3c
00000240: f02a bfbe 96a8 51bd 5bec 74bd ae16 d4bc
00000250: fca5 8a3f f8ac 443e 84a8 56bd 5e10 ccbd
00000260: b8bc fdbd 7f96 6c3f c186 663d 8258 5d3d
00000270: d5a8 06be 7f99 f13d cea2 5abe 8495 1cbf
00000280: d449 4e3e c8f4 b13f 1d78 323f 21b0 7fbe
00000290: 4e2d 0a3f 33b7 533e c528 1bbd ff8c 363d
000002a0: 61e8 d5be fbcf 5fbd f109 833d 1582 483d
000002b0: 29e3 8fbf 81a9 69bd b120 2fbe

4.weight f4 [175, 175]
-0.0021011434 0.030847935 0.06446681 0.02295657 -0.065478526 0.011865438 -0.040010616 -0.019763613
-0.0648498 0.11806381 -0.027309924 -0.027861157 -0.0570513 -0.07484385 0.016324945 0.025699466
-0.049781784 0.0074362233 -0.059169795 0.04436046 0.050806105 -0.015661635 0.04001196 0.03486999
0.046457887 -0.059925742 -0.047576547 0.019464485 -0.020787446 -0.03422274 -0.0073418906 -0.03410854
0.022152275 -0.017591327 0.008991085 0.029061899 -0.08008511 -0.055002347 0.043763325 -0.09013521
-0.009875715 -0.10901294 -0.008232158 -0.009312267 0.030834436 0.0049785567 -0.101045765 -0.015294085
0.058190476 -0.08352371 -0.0011616338 -0.051514585 -0.019833272 -0.01695222 -0.08788552 0.026534446
0.047472388 0.02985864 -0.05828077 0.016233932 -0.031824987 -0.08165842 -0.038656007 0.04474079
0.04200599 0.0013239048 -0.063194 0.040772956 -0.023831148 -0.009469691 -0.035761487 -0.075029045
-0.03988034 -0.051549338 0.053524796 -0.0504666 -0.017494699 -0.065373115 -0.043474395 -0.07814664
-0.05875398 0.030728817 0.03802476 0.012283941 0.047414664 0.019144759 -0.098967746 0.024735054
-0.04279561 0.009519698 0.05163329 -0.06078337 0.001327622 0.01836496 0.0047444217 -0.036629617
0.009831253 0.023601435 -0.09214626 -0.045808706 -0.016380604 0.023639945 -0.12319937 -0.01570153
0.03392122 -0.045047022 -0.03818992 -0.06549992 0.054227956 -0.06264288 0.05143342 -0.029320702
0.013446955 -0.079263546 -0.10122742 -0.016399171 0.013898149 0.10197006 0.041297525 -0.028049571
-0.019555576 0.003947407 -0.08809897 -0.012146248 -0.036991157 -0.00020659494 -0.04789553 -0.014357724
-0.0065598204 0.07021215 -0.014523915 -0.032200627 -0.006133706 0.064182915 -0.040210344 -0.0027782961
-0.028477361 -0.005538024 -0.07910815 -0.039905906 -0.08022795 -0.05227962 0.050197475 -0.014035181
-0.10986997 0.009803414 -0.055982005 -0.06967655 0.04668703 0.07729691 -0.062615305 -0.01847707
-0.10002046 -0.0397399 -0.07005849 -0.002087433 -0.08634349 -0.086176954 0.025112422 0.02386337
-0.11963499 0.0016384352 0.03918679 0.023447432 -0.06524408 -0.03694597 -0.035257764 0.014469672
-0.08120995 -0.057956636 0.0350155 0.037592366 -0.0490905 -0.062390104 0.019621765 0.0122100925
0.097727634 0.0036399742 -0.06728396 0.015879411 -0.16441567 0.04436716 0.0569621 -0.03524608
0.07796885 -0.03309845 0.04608539 -0.05495896 -0.12581997 -0.05292327 0.085397445 0.010890628
0.02017966 0.045702446 0.06053753 -0.08943357 -0.016472453 0.051327758 -0.08338667 -0.053894732
0.0021128468 -0.0029209696 0.05413704 0.0072303303 -0.014366115 -0.026809081 -0.072789684 0.04806764
-0.06070453 0.024426045 -0.01511022 0.035656963 -0.035458576 0.044950668 -0.055624586 0.14061326
-0.009096488 0.20827942 0.011958096 0.003935592 -0.022642482 -0.013410384 0.0007180591 0.030828735
0.07346823 0.05462637 0.11257126 -0.15444438 -0.12790884 -0.06340545 -0.074472845 0.004044652
0.05314994 -0.036394656 -0.039187305 -0.091806054 0.047639817 -0.012788278 0.024852151 0.0042565106
0.004982786 -0.026251113 0.011987862 -0.06483033 -0.07746774 0.09877967 0.06980046 0.023906425
-0.0017588516 0.047929086 0.0130768875 -0.09748497 -0.017761096 0.10947887 0.037173215 -0.008587886
00000000: 56b3 09bb cfb4 fc3c 2d07 843d 6b0f bc3c
00000010: 9b19 86bd 4167 423c 2ce2 23bd 4de7 a1bc
00000020: f9cf 84bd 70cb f13d 10b9 dfbc 153d e4bc
00000030: a0ae 69bd bc47 99bd e4bb 853c b087 d23c
00000040: fce7 4bbd 90ab f33b 075c 72bd 50b3 353d
00000050: 101a 503d d44c 80bc 95e3 233d d6d3 0e3d
00000060: a04a 3e3d b274 75bd a0df 42bd fc73 9f3c
00000070: 6f4a aabc 252d 0cbd 3e94 f0bb 65b5 0bbd
00000080: b078 b53c b01b 90bc 584f 133c 3813 ee3c
00000090: aa03 a4bd 244a 61bd 2c41 333d cf98 b8bd
000000a0: c0cd 21bc 2d42 dfbd 2ce0 06bc 7b92 18bc
000000b0: 8098 fc3c 2923 a33b 15f1 cebd 0b94 7abc
000000c0: 2359 6e3d 7b0e abbd f641 98ba f500 53bd
000000d0: 6379 a2bc 62df 8abc 53fd b3bd c45e d93c
000000e0: 6872 423d 1b9a f43c d1b7 6ebd 06fd 843c
000000f0: eb5a 02bd 883c a7bd c355 1ebd 1e42 373d
00000100: 790e 2c3d e086 ad3a db6b 81bd 8b01 273d
00000110: 8a39 c3bc c326 1bbc a37a 12bd d4a8 99bd
00000120: 9159 23bd 6625 53bd d13c 5b3d 11b6 4ebd
00000130: 0b51 8fbc 57e2 85bd 3512 32bd 580b a0bd
00000140: 03a8 70bd 00bb fb3c dabf 1b3d 9542 493c
00000150: e135 423d 78d5 9c3c 9aaf cabd 2ba1 ca3c
00000160: 734a 2fbd 82f8 1b3c 6e7d 533d fcf7 78bd
00000170: 9a03 ae3a 1d72 963c 1877 9b3b f008 16bd
00000180: 4413 213c cc57 c13c 2eb7 bcbd e9a1 3bbd
00000190: 9e30 86bc 8fa8 c13c f44f fcbd 7fa0 80bc
000001a0: faf0 0a3d 3a83 38bd 096d 1cbd d224 86bd
000001b0: 221e 5e3d e94a 80bd daab 523d f831 f0bc
000001c0: 9e50 5c3c ed54 a2bd 5250 cfbd 8e57 86bc
000001d0: 10b5 633c aed5 d03d 9827 293d 37c8 e5bc
000001e0: 0433 a0bc 4059 813b 3c6d b4bd 0e01 47bc
000001f0: 0a84 17bd 68a1 58b9 1a2e 44bd a93c 6bbc
00000200: c3f3 d6bb 63cb 8f3d b7f5 6dbc cee4 03bd
00000210: 41fd c8bb 5572 833d 9ab3 24bd 1314 36bb
00000220: 5b49 e9bc 5078 b5bb 7403 a2bd 6074 23bd
00000230: 8d4e a4bd 2823 56bd de9b 4d3d d1f3 65bc
00000240: 8203 e1bd 809e 203c 634d 65bd 94b2 8ebd
00000250: e63a 3f3d d84d 9e3d 743c 80bd 395d 97bc
00000260: 87d7 ccbd 4ec6 22bd d37a 8fbd 50cd 08bb
00000270: dbd4 b0bd 8b7d b0bd 91b8 cd3c 1d7d c33c
00000280: 3103 f5bd c3c0 d63a 5482 203d d414 c03c
00000290: b09e 85bd a854 17bd 726a 10bd 3412 6d3c
000002a0: 6751 a6bd f063 6dbd 6a6c 0f3d 74fa 193d
000002b0: 1f13 49bd c48c 7fbd d3bd a03c d70c 483c
000002c0: 6d25 c83d a28c 6e3b 2ccc 89bd 8a15 823c
000002d0: 955c 28be 57ba 353d 1751 693d 325e 10bd
000002e0: 22ae 9f3d 3e92 07bd 09c4 3c3d a51c 61bd
000002f0: f3d6 00be 12c6 58bd dbe4 ae3d 9b6e 323c
00000300: d04f a53c 7d32 3b3d 33f6 773d f328 b7bd
00000310: 3df1 86bc 0e3d 523d a1c6 aabd b9c0 5cbd
00000320: b077 0a3b bd6d 3fbb cdbe 5d3d 68ec ec3b
00000330: db5f 6bbc b89e dbbc c212 95bd 93e2 443d
00000340: 50a5 78bd 2119 c83c db90 77bc 090d 123d
00000350: 033d 11bd 311e 383d 9bd6 63bd ecfc 0f3e
00000360: 7009 15bc 3347 553e e4eb 433c 23f6 803b
00000370: ba7c b9bc 3ab7 5bbc 213c 3c3a 8b8c fc3c
00000380: 8376 963d e7bf 5f3d c38b e63d ab26 1ebe
00000390: 89fa 02be b7da 81bd 3885 98bd 0089 843b
000003a0: c0b3 593d 9012 15bd de82 20bd d004 bcbd
000003b0: f821 433d ed85 51bc bd96 cb3c 337a 8b3b
000003c0: a346 a33b 930c d7bc bd68 443c c4c5 84bd
000003d0: 68a7 9ebd ff4c ca3d 8bf3 8e3d 68d7 c33c
000003e0: 4489 e6ba 4a51 443d 7140 563c 33a6 c7bd
000003f0: b87f 91bc 7536 e03d f142 183d 34b4 0cbc

4.bias f4 [175]
-0.026451334 0.17834324 -0.028108764 0.7942373 -0.025505131 0.8786075 -0.0005070783 0.16153322
-0.06872058 0.50204825 0.47540244 -0.36365145 -0.005640958 0.091961846 -0.03672999 0.2325523
0.31981277 -0.0134637235 0.31198207 0.1852715 -0.055395283 0.37699726 0.79274106 0.28259975
-0.026653625 0.09901586 0.043580577 -0.3138225 -0.0953757 0.30170622 -0.27238175 -0.09265114
-0.30046052 0.3615183 -0.09725948 -0.24573556 -0.09927594 0.030985434 0.88714546 -0.05561135
0.0028422982 -0.13131116 0.016706226 -0.3253947 -0.058524642 1.6930391 -0.23718658 0.028123382
-0.017155716 0.34791777 0.43226305 0.614047 0.3698804 -0.09975081 0.57973117 0.47088134
1.2252526 0.008380619 -0.8462501 -0.16709779 -0.007949615 0.95709103 -0.016761068 -0.04690778
0.028845051 -0.07760813 0.05429322 0.09897555 0.1848086 0.47447827 -0.101500615 1.3457116
-0.110527396 0.0925961 -0.08697152 -0.06535687 0.1735259 -0.07796567 -0.21761473 -1.0364785
-0.046467386 0.48244974 0.6865702 -0.11739655 -0.28073543 -0.0064867167 0.2782644 -0.51368517
-0.04922537 -0.04856521 -0.056488413 0.0480802 -0.03623123 0.107208945 -0.07174914 0.45933306
-0.7692767 0.56583613 -0.061121702 0.009714979 0.02953965 1.5213702 -0.07369701 0.3406454
0.08691984 -0.33232218 0.039764527 -0.04628237 -0.4591562 1.1005241 0.061330486 -0.016496507
0.002909882 0.6426217 -0.23491521 0.045758076 0.032880977 -0.17858116 0.042751145 0.06454991
0.3185895 0.063269205 0.4899947 -0.07611207 -0.45502248 0.07155422 -0.011848368 0.056993324
-0.028254885 -0.03427885 0.04610499 0.4352348 -0.10943114 0.30612504 -0.10799183 -0.11048686
0.25607502 0.36020148 -0.003734466 -0.055517703 -0.015707787 0.6056262 -0.23878731 0.13923404
-0.26289067 -0.057762716 0.05496538 -0.09784824 0.36626938 0.45687264 0.30267623 -0.34746546
-0.15292452 0.10626309 0.8867624 0.24728754 0.24328521 -0.15631878 0.28836882 0.00050103647
0.26755187 -0.06963053 0.03854666 1.4958229 0.4235831 0.016202252 -0.0893323 -0.121694975
-0.21211143 0.03054927 0.32691646 -0.042866565 -0.32574052 0.33663678 0.43815407
00000000: 78b0 d8bc 9c9f 363e 5a44 e6bc 2353 4b3f
00000010: 23f0 d0bc 6cec 603f 73ed 04ba f768 253e
00000020: 60bd 8cbd 3c86 003f f367 f33e 8630 babe
00000030: c9d7 b8bb 7e56 bc3d 3072 16bd 3122 6e3e
00000040: 80be a33e f396 5cbc 1dbc 9f3e d0b7 3d3e
00000050: 2ae6 62bd c905 c13e 14f1 4a3f eab0 903e
00000060: b458 dabc d4c8 ca3d 8c81 323d 58ad a0be
00000070: 5654 c3bd 3d79 9a3e 9f75 8bbe e2bf bdbd
00000080: f6d5 99be ed18 b93e fa2f c7bd 1aa2 7bbe
00000090: 2f51 cbbd 2ad5 fd3c f71b 633f bac8 63bd
000000a0: da45 3a3b 6f76 06be 7fdb 883c 229a a6be
000000b0: 89b7 6fbd 81b5 d83f 0ae1 72be 0263 e63c
000000c0: 258a 8cbc 4722 b23e 9551 dd3e 2f32 1d3f
000000d0: f760 bd3e 274a ccbd 4369 143f 5c17 f13e
000000e0: 14d5 9c3f dd4e 093c d9a3 58bf af1b 2bbe
000000f0: 1a3f 02bc eb03 753f 824e 89bc 5f22 40bd
00000100: 754c ec3c 03f1 9ebd 9162 5e3d b1b3 ca3d
00000110: 773e 3d3e d1ee f23e 8edf cfbd 4740 ac3f
00000120: 305c e2bd 06a3 bd3d 201e b2bd d3d9 85bd
00000130: c6b0 313e 77ac 9fbd 65d6 5ebe 54ab 84bf
00000140: 9654 3ebd a703 f73e 11c3 2f3f 9a6d f0bd
00000150: 8ebc 8fbe 868e d4bb ac78 8e3e df80 03bf
00000160: 8ba0 49bd 50ec 46bd 6560 67bd beef 443d
00000170: 3367 14bd 5d90 db3d 37f1 92bd b42d eb3e
00000180: 51ef 44bf a3da 103f c05a 7abd 932b 1f3c
00000190: 23fd f13c 42bc c23f 75ee 96bd 1369 ae3e
000001a0: 0703 b23d 2226 aabe 21e0 223d 9592 3dbd
000001b0: 8516 ebbe f9dd 8c3f ad35 7b3d af23 87bc
000001c0: b8b3 3e3b db82 243f 9d8d 70be d26c 3b3d
000001d0: 34ae 063d fbdd 36be d31b 2f3d be32 843d
000001e0: 2a1e a33e 4993 813d 96e0 fa3e a5e0 9bbd
000001f0: b5f8 e8be 058b 923d a81f 42bc d571 693d
00000200: ca76 e7bc fb67 0cbd 96d8 3c3d 19d7 de3e
00000210: 6f1d e0bd 6cbc 9c3e d22a ddbd ef46 e2bd
00000220: 441c 833e 546c b83e f1bd 74bb 8866 63bd
00000230: 9ead 80bc 520a 1b3f a984 74be 5e93 0e3e
00000240: 9b99 86be 9998 6cbd 6123 613d a864 c8bd
00000250: a987 bb3e 36eb e93e 61f8 9a3e fee6 b1be
00000260: 3f98 1cbe 77a0 d93d dc02 633f f238 7d3e
00000270: c21f 793e 0812 20be 14a5 933e fd57 033a
00000280: 8ffc 883e 749a 8ebd 1ae3 1d3d 2077 bf3f
00000290: e2df d83e 96ba 843c daf3 b6bd 373b f9bd
000002a0: bd33 59be 7642 fa3c 9861 a73e da94 2fbd
000002b0: 76c7 a6be a85b ac3e bb55 e03e

6.weight f4 [157, 175]
-0.015978765 0.12579878 -0.05047631 0.05571956 -0.03824282 0.10771943 -0.07273606 -0.01766661
-0.028234314 -0.051612705 0.063841484 0.089964665 -0.04177371 -0.11999981 -0.12354036 -0.017455135
0.015114508 -0.31521544 -0.2242147 0.030818045 0.0036202953 -0.02293186 0.100755304 -0.08673531
0.052122597 -0.054806657 -0.17152794 0.1669768 0.050002493 0.002961788 -0.004284268 -0.033446398
-0.6033255 0.26292616 0.04745762 0.015914558 0.048924454 0.00020350695 -0.08481341 0.06541571
-0.009174813 0.12471345 -0.008825947 0.056800984 0.08828906 -0.04022305 0.08964887 -0.14305925
0.04639721 -0.3534607 0.35243613 -0.11383769 -0.4295099 -0.0231186 0.06320508 0.01916355
0.116703294 -0.069133475 -0.032000687 0.037723593 0.067240156 -0.23064356 0.08054998 -0.09839277
0.010498767 0.0068246317 0.08023589 -0.14008485 0.13608135 0.25437 -0.04152121 -0.048265383
0.08140688 0.121301726 -0.010650372 -0.06982769 0.017886197 0.023928134 -0.10994051 -0.19808654
0.08994688 0.060639594 0.04982718 -0.007662492 0.03736686 -0.03631482 -0.19583382 0.0019309119
0.038439546 -0.043613706 -0.095707595 -0.04692999 -0.081361935 -0.36252168 0.072166204 0.072987154
0.09034905 0.15245877 -0.049214184 -0.02086702 0.05630806 0.034650102 0.026745647 -0.14340298
0.037358932 0.120495655 -0.066362694 -0.08378064 0.04323842 -0.20567362 -0.082691364 0.032874588
-0.02881512 -0.038858697 -0.048129145 0.08474204 -0.21587352 0.06384988 -0.059180822 -0.070799865
0.02390218 -0.17296313 0.03490917 0.04282774 -0.23107733 -0.06414337 -0.015972901 0.0705146
-0.056203905 0.055808686 0.026496878 0.035720035 0.08532749 0.029017024 -0.071240515 0.09026684
-0.052125692 0.19129635 -0.03464881 0.018807359 -0.01998 -0.10679793 -0.19465402 -0.13397266
0.21133757 -0.008240961 -0.0646057 0.05387196 -0.28252834 0.09681769 0.058282502 -0.0777553
-0.016549146 -0.10664319 0.036709014 -0.010448043 -0.23290253 0.08766231 0.050263062 0.08630768
-0.2527368 0.06115414 -0.15397075 0.41464362 -0.03442756 0.00070961955 0.12096976 -0.07304116
0.04694591 -0.058767088 -0.055742495 -0.046293058 -0.091107845 -0.0059375535 0.08939419 -0.05554824
0.04976824 -0.0095988875 -0.20670657 0.058118694 -0.13414857 -0.109571874 0.00881853 0.033534408
-0.15620944 0.14085773 -0.03305456 0.041371644 0.029375747 0.06721878 -0.03861994 0.10635463
-0.09422501 -0.0074641453 -0.08589715 -0.036274802 0.056536086 -0.25123632 -0.11514572 0.058159743
-0.09470447 0.08692103 0.24456033 0.06175584 0.097683415 -0.019399516 -0.015009996 0.08507054
-0.079122275 0.025149345 -0.11066635 0.05683835 -0.0745873 -0.14018793 -0.03950953 0.035008285
0.045323346 -0.0058988757 0.102544345 -0.24061555 0.023859078 0.036193814 -0.26901767 -0.067288645
0.06880549 -0.2426891 -0.027942931 -0.14125393 -0.058219247 -0.16995116 -0.40997133 -1.0800247
0.049967945 0.13034765 -0.087482564 0.019312153 0.013199035 -0.033333123 0.048874393 -0.0011853379
0.0591327 0.001053628 0.19267651 -0.028625684 -0.14735651 -0.011627918 -0.22023116 0.064049795
-0.013695282 -0.29417247 -0.004483405 -0.006102258 0.050100643 0.033780463 0.049742553 0.030337213
00000000: e6e5 82bc 65d1 003e 3fc0 4ebd 313a 643d
00000010: 81a4 1cbd 019c dc3d a5f6 94bd 91b9 90bc
00000020: a64b e7bc d867 53bd 53bf 823d 653f b83d
00000030: e91a 2bbd 76c2 f5bd ba02 fdbd 12fe 8ebc
00000040: d7a2 773c eb63 a1be 8a98 65be 2076 fc3c
00000050: 7a42 6d3b 99db bbbc cc58 ce3d 48a2 b1bd
00000060: 817e 553d f27c 60bd 05a5 2fbe f7fb 2a3e
00000070: 6acf 4c3d 8f1a 423b 0b63 8cbb 17ff 08bd
00000080: 8a73 1abf 429e 863e ec62 423d 3f5f 823c
00000090: 0265 483d 7b64 5539 a7b2 adbd acf8 853d
000000a0: f451 16bc c469 ff3d b49a 10bc 26a8 683d
000000b0: e5d0 b43d edc0 24bd d499 b73d 207e 12be
000000c0: 000b 3e3d cdf8 b4be 8272 b43e bc23 e9bd
000000d0: b9e8 dbbe 3863 bdbc aa71 813d e1fc 9c3c
000000e0: 2302 ef3d da95 8dbd 2713 03bd 0e84 1a3d
000000f0: 35b5 893d d32d 6cbe 63f7 a43d 2682 c9bd
00000100: 0503 2c3c 29a1 df3b b752 a43d 6772 0fbe
00000110: e958 0b3e c93c 823e 2512 2abd ecb1 45bd
00000120: a6b8 a63d 0a6d f83d e67e 2ebc d201 8fbd
00000130: 1386 923c ef04 c43c 7d28 e1bd 33d7 4abe
00000140: 1236 b83d 3961 783d 9617 4c3d a415 fbbb
00000150: fe0d 193d d9be 14bd a988 48be a716 fd3a
00000160: c972 1d3d 49a4 32bd 5802 c4bd a939 40bd
00000170: 16a1 a6bd 719c b9be e0cb 933d 4a7a 953d
00000180: ec08 b93d 271e 1c3e d094 49bd 50f1 aabc
00000190: 48a3 663d 44ed 0d3d b019 db3c 3bd8 12be
000001a0: ae05 193d 6dc6 f63d 2ae9 87bd 2f95 abbd
000001b0: c51a 313d 1b9c 52be 175a a9bd 81a7 063d
000001c0: b00d ecbc 4c2a 1fbd 1123 45bd 3c8d ad3d
000001d0: f30d 5dbe bac3 823d 9767 72bd 85ff 90bd
000001e0: 81ce c33c 3f1d 31be ebfc 0e3d 246c 2f3d
000001f0: 899f 6cbe 995d 83bd 9ad9 82bc f569 903d
00000200: 1136 66bd a697 643d fb0f d93c 2c4f 123d
00000210: 2ec0 ae3d 1cb5 ed3c 8ce6 91bd d2dd b83d
00000220: c081 55bd 31e3 433e e9eb 0dbd e411 9a3c
00000230: 19ad a3bc e0b8 dabd 6253 47be 2130 09be
00000240: e068 583e 1805 07bc fe4f 84bd d8a8 5c3d
00000250: 8ea7 90be 5a48 c63d a2b9 6e3d 2c3e 9fbd
00000260: 1392 87bc bf67 dabd 315c 163d 452e 2bbc
00000270: 007e 6ebe 4c88 b33d a4e0 4d3d 15c2 b03d
00000280: b866 81be c37c 7a3d 82aa 1dbe 2b4c d43e
00000290: ea03 0dbd c305 3a3a febe f73d 9b96 95bd
000002a0: 5b4a 403d c2b5 70bd 3e52 64bd ca9d 3dbd
000002b0: c096 babd cf8f c2bb 4d14 b73d 8d86 63bd
000002c0: c8d9 4b3d a744 1dbc e3aa 53be de0d 6e3d
000002d0: 3e5e 09be 3867 e0bd 987b 103c 605b 093d
000002e0: 5ef5 1fbe 023d 103e 3864 07bd 5075 293d
000002f0: 68a5 f03c 00aa 893d f12f 1ebd 75d0 d93d
00000300: 0bf9 c0bd ca95 f4bb d8ea afbd e394 14bd
00000310: 6292 673d 0ca2 80be 85d1 ebbd e938 6e3d
00000320: 6bf4 c1bd a703 b23d 066e 7a3e b1f3 7c3d
00000330: 3e0e c83d bceb 9ebc 7cec 75bc 7739 ae3d
00000340: dc0a a2bd 0006 ce3c 0aa5 e2bd 54cf 683d
00000350: 3ac1 98bd 6d8d 0fbe bfd4 21bd d964 0f3d
00000360: f9a4 393d 5b4b c1bb c502 d23d ec63 76be
00000370: 1d74 c33c f73f 143d afbc 89be a1ce 89bd
00000380: e5e9 8c3d 7e83 78be 93e8 e4bc dfa4 10be
00000390: 4e77 6ebd ad07 2ebe c3e7 d1be 403e 8abf
000003a0: 30ab 4c3d db79 053e 0f2a b3bd 8534 9e3c
000003b0: c440 583c 5088 08bd 8430 483d 575d 9bba
000003c0: 2135 723d e419 8a3a fe4c 453e 6980 eabc
000003d0: a0e4 16be 0683 3ebc 4784 61be 8a2c 833d
000003e0: 2d62 60bc c69d 96be 87e9 92bb 73f5 c7bb
000003f0: 5536 4d3d 625d 0a3d d9be 4b3d bf85 f83c

6.bias f4 [157]
0.17229842 -0.27336997 -0.46696323 0.023975259 -0.59775573 0.14380933 -0.2641513 -0.27877805
0.8334221 -0.44614264 -0.5505227 0.0943563 -0.6262966 0.27388483 0.31316015 -0.11401641
-0.3891763 0.2695923 0.41558662 -0.85141516 -0.071754634 -0.38114583 -0.20733272 0.29588044
0.07508514 1.1998289 -0.12214826 -0.3054099 -0.3740962 0.19514446 -0.6943058 0.16794775
-0.113150604 -0.4132719 -0.17161196 -0.37648422 -0.81631815 0.06535119 -0.24776946 -0.18278114
-0.15335214 -0.17125997 -0.22668366 0.16951944 0.94723505 -0.48394608 -0.1074113 -0.39868504
0.032373536 0.83740574 0.12783429 -0.0067347772 -0.711334 -0.18297304 -1.0936856 0.6053816
-0.63108253 -0.6153533 0.0075865667 0.17499465 -0.42358384 -0.0874717 0.20413372 -0.1434877
0.39844897 -0.2079737 -0.2658575 -0.061257906 0.65421575 0.39450467 0.15533231 -0.4443811
-0.11417311 0.16153577 0.25333387 0.3363167 0.103677765 0.19870046 -0.52250004 -0.20162335
0.8624491 0.78764033 -0.020273007 -0.6052061 -0.21079852 0.5950366 0.053874295 0.026762875
0.38698125 0.37523204 0.17119469 -0.076932244 0.646077 0.3115857 0.5586354 -0.70141804
-0.6151173 -0.058152273 -0.41486025 -0.5062247 0.48790094 -0.13990237 0.6838473 -0.61843055
-0.23646459 -0.16090389 0.14121237 0.04299127 0.5849044 -0.10128537 -0.11966198 -0.14025709
-0.042779893 0.2895451 0.3680739 0.14627205 -0.7286765 0.05808336 -0.15560243 -0.081684366
0.1502201 -0.95889336 0.10912718 0.041836012 -0.50044715 0.5741799 0.6715843 -0.33373585
0.4349675 0.39157102 0.7393311 -0.14595649 0.08934391 -0.16222613 -0.8655424 -0.4766421
-0.49879888 0.3168155 -0.57375276 0.44238755 1.0879178 -0.1104239 0.31746164 -0.029487912
0.1672898 0.6888539 0.14516945 -0.15688887 0.45100608 0.2529809 0.42046818 0.2807818
-0.61629707 -0.77552027 0.15851875 0.180318 0.47619706
00000000: ff6e 303e 26f7 8bbe ce15 efbe c367 c43c
00000010: 8506 19bf c142 133e d73e 87be ffbb 8ebe
00000020: 275b 553f cf6c e4be 0eef 0cbf e03d c13d
00000030: f954 20bf a23a 8c3e 8756 a03e 7081 e9bd
00000040: 1e42 c7be 0008 8a3e c5c7 d43e 58f6 59bf
00000050: 18f4 92bd 8c25 c3be 074f 54be a47d 973e
00000060: 3dc6 993d fe93 993f de28 fabd b05e 9cbe
00000070: 8a89 bfbe f3d3 473e 06be 31bf 7ffa 2b3e
00000080: 81bb e7bd 6098 d3be 0cbb 2fbe 8ac2 c0be
00000090: 3afa 50bf d8d6 853d 47b7 7dbe fb2a 3bbe
000000a0: 5808 1dbe c65e 2fbe c31f 68be 8196 2d3e
000000b0: ff7d 723f c8c7 f7be 75fa dbbd 7220 ccbe
000000c0: 1d9a 043d 3960 563f fee6 023e 68af dcbb
000000d0: fc19 36bf 495d 3bbe e4fd 8bbf 4afa 1a3f
000000e0: a08e 21bf cb87 1dbf bc98 f83b cc31 333e
000000f0: fbdf d8be 5d24 b3bd 6e08 513e 71ee 12be
00000100: 8101 cc3e 0ff7 54be 791e 88be 92e9 7abd
00000110: af7a 273f 84fc c93e 6f0f 1f3e eb85 e3be
00000120: 97d3 e9bd a269 253e fab4 813e b431 ac3e
00000130: 0255 d43d 2278 4b3e 90c2 05bf 5a76 4ebe
00000140: 77c9 5c3f cca2 493f 9413 a6bc c9ee 1abf
00000150: 91db 57be 5254 183f 4bab 5c3d d13d db3c
00000160: 6822 c63e 6a1e c03e a94d 2f3e a78e 9dbd
00000170: 4d65 253f 2988 9f3e bb02 0f3f 2290 33bf
00000180: 5478 1dbf 1431 6ebd 9068 d4be f197 01bf
00000190: 27ce f93e 9142 0fbe 9e10 2f3f 7751 1ebf
000001a0: c623 72be fdc3 24be fa99 103e 9d17 303d
000001b0: 4bbc 153f b46e cfbd 5711 f5bd 8e9f 0fbe
000001c0: f839 2fbd 413f 943e 2f74 bc3e 57c8 153e
000001d0: 8b8a 3abf d1e8 6d3d 3e56 1fbe 224a a7bd
000001e0: 4cd3 193e 097a 75bf 127e df3d 3d5c 2b3d
000001f0: 4e1d 00bf 74fd 123f f3ec 2b3f 6ddf aabe
00000200: 0fb4 de3e ff7b c83e ce44 3d3f 9e75 15be
00000210: f1f9 b63d 9b1e 26be 3094 5dbf 6f0a f4be
00000220: 9162 ffbe a435 a23e 76e1 12bf 9f80 e23e
00000230: e440 8b3f ed25 e2bd 558a a23e a290 f1bc
00000240: 044e 2b3e bb58 303f 4da7 143e 7aa7 20be
00000250: 45ea e63e b686 813e 9b47 d73e a2c2 8f3e
00000260: a5c5 1dbf 7f88 46bf bd52 223e 48a5 383e
00000270: 1ad0 f33e
